models/classifier_net_epoch_1_6000.pth (torch_old, 249853 bytes, 10 tensors)

module.conv1.weight f4 [6, 3, 5, 5]
0	0x3e704a83	0.23465924
1	0x3dd10934	0.102068335
2	0x3e36e40e	0.17860433
3	0x3ef3d0c1	0.47620204
4	0x3ea18f42	0.3155461
5	0x3eb32773	0.34991035
6	0xbd49505a	-0.049148895
7	0x3d9bf347	0.07614761
8	0x3eeb06db	0.45903668
9	0x3eb90bfd	0.3614196
10	0x3e8f8784	0.28033078
11	0x3c3f5f22	0.011680396
12	0xbeb114a7	-0.3458607
13	0x3e8e8cd4	0.27841818
14	0x3e2f500b	0.17120378
15	0x3c8f828d	0.017518306
16	0xbe3e995f	-0.18613194
17	0xbe9d773a	-0.30755025
18	0xbe0e1fad	-0.13879271
19	0xbe40ad4d	-0.18816109
20	0xbcf757f7	-0.030193312
21	0xbe3321cd	-0.17493363
22	0xbe9dffd1	-0.30859235
23	0xbe1afc0b	-0.1513521
24	0xbe7fa763	-0.24966197
25	0x3c4b6de9	0.012416341
26	0xbe9cc7c2	-0.30621153
27	0xbecd4161	-0.40088943
28	0xbe0726ce	-0.13198397
29	0xbe892ae9	-0.2679055
30	0x3e8709dc	0.2637471
31	0xbec32255	-0.3811213
32	0xbefcea72	-0.49397618
33	0xbcc570bb	-0.024101606
34	0x3d79a110	0.060944617
35	0x3e569cd0	0.20958257
36	0xbe21a93d	-0.15787216
37	0xbf0944bc	-0.53620505
38	0x3e151a95	0.14560921
39	0x3ddf5392	0.10904612
40	0x3e135183	0.14386563
41	0x3c9bc753	0.019015944
42	0xbed7d99e	-0.42158216
43	0x3d28e54a	0.041234292
44	0xbe2ac86e	-0.1667802
45	0x3ee813ed	0.45327702
46	0xbc9a2bb8	-0.018819675
47	0xbceb7406	-0.028741848
48	0x3e597819	0.2123722
49	0xbcd17680	-0.0255692
50	0xbd7f6671	-0.062353555
51	0xbe61bbe0	-0.22044325
52	0xbe6d1f66	-0.23156509
53	0x3b33a34a	0.002741056
54	0xbe031b51	-0.12803389
55	0x3e6fe32c	0.23426503
56	0xbe8a39e6	-0.26997298
57	0xbe9f9573	-0.31168708
58	0x3e1bd435	0.1521767
59	0xbdca9107	-0.09890943
60	0x3e816deb	0.25279173
61	0xbe0e704c	-0.13910025
62	0xbeb0f2b7	-0.34560177
63	0x3e0ce503	0.13759236
64	0x3bef04d9	0.007294279
65	0x3e86bb19	0.2631462
66	0x3e048495	0.12941201
67	0xbe559872	-0.20858935
68	0x3dd07c41	0.101799496
69	0xbc82c58a	-0.015963335
70	0x3ed8de9b	0.42357334
71	0x3dad5bd6	0.08464782
72	0xbd4a6497	-0.049412336
73	0x3e033709	0.12813963
74	0x3db0ec3d	0.08638809
75	0x3d8a70aa	0.0675977
76	0x3e3258ed	0.17416735
77	0xbca0914a	-0.01960053
78	0xbb82b371	-0.0039886762
79	0xbda98879	-0.08277983
80	0xbcf7195b	-0.030163458
81	0x3e0f617c	0.14002031
82	0xbd400f59	-0.046889637
83	0xbd6a33b8	-0.05717823
84	0xbd645d59	-0.055753086
85	0xbda99a3b	-0.0828137
86	0xbe4fd75e	-0.20297
87	0xbe6c898b	-0.23099343
88	0xbde95b63	-0.11394384
89	0xbe4f244e	-0.20228693
90	0xbe60517e	-0.21906087
91	0xbe9b632e	-0.30349106
92	0xbe836b6f	-0.25667903
93	0xbdf181a2	-0.117923036
94	0xbe2c301a	-0.16815224
95	0xbdfb355d	-0.122660376
96	0x3de377a7	0.11106806
97	0x3cd0caf9	0.02548741
98	0x3e63664b	0.2220699
99	0x3e8e89ea	0.27839595
100	0xbd7b856b	-0.061406534
101	0x3e16ee84	0.14739424
102	0x3cc32190	0.023819715
103	0x3c3317f2	0.010931002
104	0xbd1a8a5d	-0.03772961
105	0x3db04107	0.08606153
106	0x3e35d9dc	0.17758888
107	0xbdc70065	-0.09716872
108	0xbd0c7acd	-0.0342968
109	0xbdc2696b	-0.09492763
110	0x3e0c25d0	0.136863
111	0xbd32494c	-0.043526933
112	0xbe089a13	-0.13340025
113	0xbe2cf73f	-0.16891192
114	0xbdf2cdad	-0.11855636
115	0xbd4025f9	-0.046911214
116	0xbe1b7c49	-0.1518413
117	0xbe3e664f	-0.18593715
118	0xbdea2174	-0.11432162
119	0xbe092f88	-0.13397038
120	0x3dabe1a7	0.08392649
121	0xbc82af58	-0.015952751
122	0x3d368fb5	0.044570643
123	0x3e3329ec	0.1749646
124	0x3e8d902c	0.27649057
125	0x3d15d4a7	0.036579754
126	0x3e107fe4	0.14111286
127	0xba9a364f	-0.0011765453
128	0x3e1f1522	0.15535405
129	0xbd25c820	-0.040474057
130	0x3d9da873	0.07698145
131	0x3e0ef1e3	0.1395946
132	0x3e17df74	0.14831334
133	0x3a0ca7fc	0.0005365608
134	0xbe081df4	-0.13292676
135	0x3d44370e	0.047904067
136	0x3ce824c9	0.028337853
137	0xbd617449	-0.05504254
138	0xbe6a06a0	-0.2285409
139	0xbe4bc0a4	-0.19897705
140	0xbd0f358b	-0.034963172
141	0xbe76a7f4	-0.24087507
142	0xbe371a36	-0.17881092
143	0xbe477e7b	-0.19481842
144	0xbd85361a	-0.0650446
145	0xbb944a93	-0.0045254915
146	0xbc0edb64	-0.008719299
147	0x3e72364b	0.23653524
148	0x3dede7b5	0.1161646
149	0x3e1294af	0.14314531
150	0xbe21dca6	-0.15806827
151	0xbe6218ea	-0.22079816
152	0xbe63bf5d	-0.22240968
153	0xbe0eb329	-0.13935532
154	0xbde14d0a	-0.11001022
155	0xbd056fc4	-0.03257729
156	0x3e3e78b8	0.18600738
157	0x3da6b848	0.081406176
158	0x3df35d1d	0.11882994
159	0x3d35c1b7	0.044374194
160	0xbd854f35	-0.06509248
161	0x3d2a24f7	0.04153916
162	0x3e14cfee	0.14532444
163	0x3d1ab02c	0.037765667
164	0x3d699659	0.05702815
165	0xbeab5a36	-0.33467263
166	0xbe66d0c1	-0.22540571
167	0xbe4bea0f	-0.19913505
168	0xbe90f872	-0.2831455
169	0xbe79fbfe	-0.24412534
170	0xbe156e4d	-0.14592858
171	0xbe4a9a43	-0.19785409
172	0xbe0e3fd8	-0.13891542
173	0xbe0c2033	-0.13684158
174	0xbd94f9c0	-0.072741985
175	0xbe6d6ee8	-0.23186839
176	0xbe884e63	-0.26622304
177	0xbd90e86d	-0.07075582
178	0xbdc1676e	-0.09443556
179	0xbdc0bc3c	-0.09410903
180	0x3e7f1e09	0.24913801
181	0x3e8821dd	0.26588336
182	0x3eae1bb9	0.34005526
183	0x3e743643	0.23848824
184	0x3e932fd0	0.28747416
185	0x3e036de2	0.12834886
186	0x3d7f491d	0.062325586
187	0x3d965c23	0.073417924
188	0x3d48e638	0.04904768
189	0x3e186ca8	0.14885199
190	0xbe7566ef	-0.23965047
191	0xbead055e	-0.33793157
192	0xbe62d4a3	-0.22151427
193	0xbe61530d	-0.22004338
194	0xbe046b69	-0.12931599
195	0xbdf53fc1	-0.11975051
196	0xbe2ec899	-0.1706871
197	0xbdf10d3a	-0.11770101
198	0x3bb11ddd	0.0054051713
199	0x3d50ba14	0.050958708
200	0xbda585be	-0.0808215
201	0x3d7e4d21	0.062085275
202	0x3d539257	0.051653232
203	0xbc850dcc	-0.01624193
204	0xbcd4f650	-0.025996357
205	0x3eb6d62e	0.3571028
206	0x3e626db9	0.22112168
207	0x3ed194ff	0.40933987
208	0x3edabe88	0.4272349
209	0x3eb354b9	0.35025576
210	0x3e60743b	0.21919338
211	0x3e71d555	0.23616536
212	0x3e0ab068	0.13543856
213	0x3e5e786c	0.21725625
214	0x3e1dd61d	0.15413709
215	0x3b75cc41	0.0037505778
216	0x3d208a28	0.039194256
217	0xbde2f1e9	-0.11081297
218	0xbdac7031	-0.08419836
219	0x3c47da43	0.012198034
220	0x3df3ee5d	0.119106986
221	0x3dd441a2	0.10364081
222	0x3d1dbacb	0.038508218
223	0x3e1c71f3	0.15277843
224	0x3deaf15f	0.11471819
225	0x3d8fac89	0.0701533
226	0x3da6285a	0.08113165
227	0xbdb99c92	-0.090630665
228	0x3e0eea70	0.13956618
229	0x3d920422	0.071296945
230	0x3d625c73	0.055263948
231	0xbe26ffe1	-0.16308548
232	0xbdc60ee0	-0.09670806
233	0x3dd7dfcc	0.10540733
234	0x3e0ac0f9	0.13550176
235	0xbcd23cbf	-0.025663732
236	0xbe0a7be1	-0.13523819
237	0xbe0ee17c	-0.13953203
238	0x3e30a49b	0.17250292
239	0x3c882ca9	0.016622858
240	0xbe5f4457	-0.21803413
241	0xbe82a0db	-0.25513348
242	0xbd7ed3e8	-0.06221381
243	0x3d4615f3	0.048360776
244	0x3e409a19	0.18808784
245	0xbd88698f	-0.06660759
246	0xbe921940	-0.2853489
247	0xbd18ecad	-0.037335087
248	0x3e2e6080	0.17029
249	0xbb8b3b17	-0.0042489874
250	0xbc837fdf	-0.016052185
251	0xbdf7e179	-0.12103552
252	0xbe48f13a	-0.1962327
253	0x3d99f696	0.07517736
254	0x3d01d5f4	0.031698182
255	0xbda0f8ae	-0.07859932

module.conv1.bias f4 [6]
0	0xbe38a407	-0.18031321
1	0xbee8c49c	-0.454625
2	0x3d54c87c	0.05194901
3	0xbdd42446	-0.10358481
4	0xbe738913	-0.23782758
5	0x3dad1b28	0.08452445

module.conv2.weight f4 [16, 6, 5, 5]
0	0x3e930757	0.28716537
1	0x3dbd53c2	0.09244491
2	0x3e9ca6a4	0.30595887
3	0x3c25e9de	0.010126559
4	0xbdbaaf6a	-0.09115489
5	0x3e70718a	0.23480812
6	0xbe1a1ab5	-0.1504925
7	0x3e67cf10	0.22637582
8	0x3e7bb03c	0.24578947
9	0xbd7e3931	-0.06206626
10	0x3e1f99b5	0.15585978
11	0xbdcffc07	-0.10155492
12	0xbd49e045	-0.049286146
13	0x3e209827	0.15683042
14	0xbd6b702c	-0.057480022
15	0xbbd54a53	-0.0065091043
16	0x3d4783f6	0.048709832
17	0xbb030b1a	-0.001999563
18	0x3db71a5c	0.089405745
19	0xb8bf4897	-9.1211106e-05
20	0xbd3c597c	-0.045983776
21	0xbe03e14f	-0.12878917
22	0xbded6df6	-0.11593239
23	0xbdb690ac	-0.08914313
24	0x3bd70e7c	0.006563006
25	0xbd1b99a8	-0.037988335
26	0x3d487a31	0.048944656
27	0xbd10316c	-0.035203382
28	0x3b091f1c	0.0020923084
29	0xbc964f5c	-0.018348388
30	0xbe106943	-0.14102654
31	0x3bba4284	0.005684199
32	0xbd9ec9c6	-0.07753329
33	0xbce704b5	-0.028200487
34	0xbd57b51b	-0.05266295
35	0xbe0f8893	-0.14016943
36	0x3c2ef41f	0.01067832
37	0x3cb2a8cc	0.021809004
38	0x392a45ae	0.00016238421
39	0x3c6b3bd0	0.014357522
40	0xbe011227	-0.12604581
41	0xbd784580	-0.060613155
42	0x3b89183a	0.0041837962
43	0xbb80a0c7	-0.003925416
44	0x3d6141bd	0.054994334
45	0xbe0a9515	-0.13533433
46	0xbca0e898	-0.01964216
47	0xbde87634	-0.113506705
48	0xbc52681d	-0.012842205
49	0x3de84f80	0.113432884
50	0xbc4a1366	-0.0123337265
51	0x3b84db1f	0.0040544416
52	0x3d9e5a18	0.07732028
53	0x3d35c18e	0.04437404
54	0x3d9d5ced	0.0768374
55	0xbde26694	-0.110547215
56	0x3c783808	0.015150078
57	0xbd012bf7	-0.03153607
58	0x3a05ab72	0.00050990947
59	0xbd1b7ef7	-0.03796288
60	0xbe2ee35b	-0.17078917
61	0xbde85935	-0.1134514
62	0xbd8efb1b	-0.06981488
63	0xbd722560	-0.059117675
64	0xbda065f7	-0.07831948
65	0xbe4e7c2f	-0.2016456
66	0xbcf9d89a	-0.030498791
67	0x3d017e7d	0.03161477
68	0xbc93e582	-0.018053774
69	0x3cfe6d28	0.03105791
70	0xbe57212d	-0.2100875
71	0xbdbd7a09	-0.09251792
72	0xbd9ea1e4	-0.07745722
73	0xbca29487	-0.019846214
74	0xbdd1474c	-0.10218677
75	0x3e2b947d	0.16755863
76	0x3daca886	0.08430581
77	0x3c087999	0.008329772
78	0x3e84aeba	0.25914556
79	0xbcc418a1	-0.023937525
80	0x3dc7e02f	0.097595565
81	0xbc1f192f	-0.009710594
82	0xbd4e5c36	-0.050380908
83	0x3e0f311b	0.13983576
84	0x3e046c30	0.12931895
85	0xbd846629	-0.06464798
86	0x3ca48688	0.02008368
87	0xbd3e012c	-0.046387836
88	0x3bdf60df	0.006816968
89	0x3df770c3	0.120820545
90	0xbe2be772	-0.16787508
91	0x3d534316	0.05157765
92	0xbdf3a047	-0.11895805
93	0xbde1d6dd	-0.1102731
94	0x3b8a16eb	0.004214158
95	0xbe5de382	-0.21668819
96	0xbd5af0c7	-0.05345228
97	0xbdebf319	-0.115209766
98	0xbd667c79	-0.05627105
99	0xbdd56696	-0.10419957
100	0xbd886b02	-0.06661035
101	0xbde50339	-0.11182255
102	0xbdccd354	-0.10001245
103	0x3c6eeba4	0.014582548
104	0x3c455c65	0.012045954
105	0xbdbf2a1a	-0.09334202
106	0xbc9f1bd2	-0.019422445
107	0xbd966b29	-0.07344658
108	0xbd9044cb	-0.07044371
109	0xbd33f66c	-0.043936178
110	0xbac9b922	-0.0015390257
111	0xbd8a6bdc	-0.06758854
112	0x3d894909	0.067033835
113	0xbd193c82	-0.03741122
114	0x3d17c776	0.037055455
115	0xbc889fed	-0.016677821
116	0xbc9dea53	-0.019276774
117	0x3ced982e	0.029003229
118	0xbdaa4222	-0.08313395
119	0x3d11cd55	0.03559621
120	0x3a75cc07	0.0009376411
121	0x3d1550e9	0.036454115
122	0x3c13237d	0.008980629
123	0x3ae04f84	0.0017113541
124	0x3dacd79d	0.084395625
125	0x3c0a21be	0.008430896
126	0xbd33dd2a	-0.04391209
127	0xbe10adbe	-0.14128777
128	0xbd2e4f82	-0.042556293
129	0x3aa7f1a4	0.0012813103
130	0x3d281832	0.0410387
131	0x3d03f0b8	0.03221199
132	0xbda5fbf9	-0.081047006
133	0x3b77b70e	0.0037798318
134	0x3dc84a58	0.09779805
135	0x3d384393	0.04498632
136	0x3dc03798	0.09385604
137	0xbda7ccab	-0.08193334
138	0xbdceb999	-0.10093994
139	0x3dc8d8a2	0.098069444
140	0xbc1208ac	-0.0089132
141	0x3dcc99e3	0.09990289
142	0xbd38ece2	-0.045147784
143	0xbd9b1da0	-0.0757401
144	0xbd1f809d	-0.038941015
145	0x3cfb2408	0.03065683
146	0x3d634270	0.05548328
147	0xbd909fd6	-0.07061736
148	0xbda16c7f	-0.07882022
149	0xbdf17ed6	-0.1179177
150	0xbdf91f3e	-0.12164162
151	0xbd938b0e	-0.07204257
152	0xbda17719	-0.07884044
153	0xbce9c34b	-0.028535506
154	0xbd8cce85	-0.06875328
155	0x3e680892	0.2265952
156	0x3c8bc6ab	0.017062506
157	0xbe255836	-0.16146931
158	0xbd6c031e	-0.05762016
159	0x3d69fa71	0.057123605
160	0x3ea41ecc	0.32054746
161	0x3d94b01a	0.07260151
162	0xbd17fe6c	-0.03710787
163	0xbd28f4b5	-0.041248996
164	0xbca946b9	-0.020663606
165	0x3e304a2c	0.17215794
166	0x3e984621	0.29741004
167	0x3e026af5	0.12736113
168	0x3d54bc0b	0.051937144
169	0x3bf8cc1b	0.0075926906
170	0xbe2bffef	-0.1679685
171	0x3de93fbc	0.113891095
172	0x3e01d295	0.12677987
173	0x3e36952b	0.1783034
174	0x3dea17af	0.114302985
175	0xbde094b8	-0.10965866
176	0xbe34def9	-0.17663182
177	0xbdb9e32a	-0.09076531
178	0xbddb2299	-0.10699958
179	0xbe1a953a	-0.15095988
180	0x3cd9f9e7	0.02660842
181	0xbdff6479	-0.124703355
182	0xbe33d35b	-0.17561094
183	0xbdd2086d	-0.10255513
184	0xbd8f9006	-0.07009892
185	0xbd556278	-0.05209586
186	0x3dd93793	0.10606303
187	0xbdd88b4b	-0.10573443
188	0xbdcf8c15	-0.101341404
189	0xbc8e0ce5	-0.017340133
190	0x3d7353d5	0.05940612
191	0x3d6c1f84	0.057647243
192	0x3cd1f3b4	0.025628902
193	0xbde40258	-0.111332595
194	0xb9510367	-0.0001993306
195	0x3b7cd251	0.0038577507
196	0x3e4bc442	0.19899085
197	0x3e9dbfbe	0.3081035
198	0x3e99021e	0.29884428
199	0x3e57b244	0.21064097
200	0x3de8fa72	0.11375894
201	0x3de490c7	0.111604266
202	0x3d8784e0	0.06617141
203	0x3d0e6c1f	0.03477108
204	0x3dae8f63	0.085234426
205	0xbb80112e	-0.003908298
206	0x3d7e7212	0.062120505
207	0x3db7f160	0.089815855
208	0x3cbc8588	0.023012891
209	0x3d95d78b	0.07316502
210	0xbcd78b88	-0.02631165
211	0x3dd14b58	0.10219449
212	0x3d92aacf	0.071614854
213	0xbd12832c	-0.035769626
214	0xbd9d0e02	-0.076686874
215	0xbe54bbb2	-0.20774725
216	0x3d624d1d	0.055249322
217	0x3e33a505	0.17543419
218	0x3e03d516	0.12874255
219	0xbd93c444	-0.07215169
220	0xbe548448	-0.20753586
221	0xbe4b57e1	-0.19857742
222	0x3c9eeeef	0.019401042
223	0x3ba14766	0.0049218414
224	0x3cf1d179	0.02951883
225	0xbd912baf	-0.0708841
226	0xbdf0d8b6	-0.11760084
227	0xbe3202d0	-0.17383885
228	0xbda7a200	-0.08185196
229	0xbcf54e25	-0.029944489
230	0x3d21ce67	0.03950348
231	0xbad77b88	-0.0016440013
232	0x3cf2e0ca	0.029648203
233	0xbc952b50	-0.01820913
234	0xbd7e8510	-0.062138617
235	0x3d73a42e	0.059482746
236	0x3ddab360	0.10678744
237	0xbc0cb40e	-0.00858785
238	0xbb53b4ae	-0.0032303738
239	0xbdda4977	-0.106585436
240	0xbe09af15	-0.13445695
241	0xbcd52f63	-0.026023572
242	0x3e0c4040	0.13696384
243	0x3d912638	0.07087368
244	0x3d9f86b7	0.07789367
245	0xbe4c7180	-0.19965172
246	0xbe863b0e	-0.2621693
247	0xbdddad4d	-0.1082407
248	0xbdc5e3b5	-0.09662572
249	0xbd78edca	-0.06077365
250	0xbdd0dced	-0.10198388
251	0xbd91ee35	-0.071255125
252	0xbe0890aa	-0.13336435
253	0xbdbdefaa	-0.09274228
254	0xbca53774	-0.020168044
255	0xbd7da7be	-0.06192755

module.conv2.bias f4 [16]
0	0x3dd0531b	0.10172101
1	0xbef23f84	-0.47314084
2	0xbf02c6e3	-0.5108473
3	0xbd40c41b	-0.04706202
4	0x3ea5cc54	0.32382452
5	0xbdab91b0	-0.08377397
6	0x3e005211	0.12531306
7	0x3e820102	0.25391394
8	0xbe3c956a	-0.18416372
9	0xbc86cbe6	-0.016454648
10	0xbe411d49	-0.18858828
11	0x3f0385ca	0.5137602
12	0x3d8f5932	0.069994345
13	0xbe3828fa	-0.17984381
14	0xbdcd24ac	-0.1001676
15	0x3ee38832	0.44439846

module.fc1.weight f4 [120, 400]
0	0xbcdd52cd	-0.027017022
1	0xbd613d46	-0.054990076
2	0xbd97e887	-0.07417398
3	0x3cc2417c	0.023712866
4	0xbd66fec1	-0.056395296
5	0x3d105713	0.03523929
6	0x3c555b7b	0.013022299
7	0x3c983fb5	0.018585065
8	0xbc45e4a3	-0.012078437
9	0xbc8399d6	-0.016064566
10	0xbce30f50	-0.027717263
11	0x3c0cc74a	0.008592436
12	0xbceff288	-0.029290453
13	0xbb3207dd	-0.0027165331
14	0x3cc54015	0.024078408
15	0xbc700f0b	-0.014652024
16	0x3cedb63f	0.029017566
17	0xbcfdced5	-0.030982414
18	0x3ce767fd	0.028247828
19	0xbc68c0a2	-0.0142060835
20	0x3c411f5c	0.011787262
21	0x3d258403	0.0404091
22	0xbc8e7a81	-0.017392399
23	0x3b4dfc76	0.0031430996
24	0x3d51dd11	0.051236216
25	0x3d67f0e0	0.0566262
26	0x3c12fb10	0.008970991
27	0x3d08e484	0.033421054
28	0xbd4c62d4	-0.049898937
29	0xbc176bd1	-0.009242014
30	0x3d1f8fbe	0.038955443
31	0x3c37ede1	0.011226148
32	0x3cae6deb	0.021292647
33	0x3d340eff	0.043959614
34	0xbd01c79a	-0.031684496
35	0x3d5c7d3e	0.053830378
36	0x3c446e2b	0.011989157
37	0xbc552e53	-0.013011533
38	0x3b8ea474	0.0043531004
39	0x3ca70638	0.020388708
40	0xbd2ebcde	-0.042660587
41	0xbd5492a6	-0.051897667
42	0xbd57062b	-0.052496117
43	0xbd1d20ce	-0.038361363
44	0xbd21f1c3	-0.039537203
45	0xbdcc8d7d	-0.09987924
46	0xbd5ebfd7	-0.05438217
47	0xbda2859d	-0.07935641
48	0xbd52bf2a	-0.05145184
49	0xbd1c9026	-0.03822341
50	0x3d988f71	0.07449234
51	0xbc39f90c	-0.011350881
52	0xbd29f4e2	-0.041493304
53	0x3c6c9336	0.014439395
54	0xbd83d519	-0.064371295
55	0x3d0e170e	0.034689955
56	0xbd3cb585	-0.046071548
57	0xbb8cffef	-0.0043029706
58	0xbd2846b3	-0.04108305
59	0xbcdc8204	-0.026917465
60	0x3b25d79a	0.002530551
61	0xbc065f02	-0.008201363
62	0xbbd1ac3e	-0.0063987067
63	0xbd2396d9	-0.03993878
64	0xbb3ed4dc	-0.0029118573
65	0x3d5f0721	0.054450158
66	0xbd31f0e3	-0.043442618
67	0xbd1edc75	-0.038784463
68	0xbce02260	-0.027360141
69	0x3d264f11	0.040602747
70	0xbd877421	-0.06613947
71	0xbb605d99	-0.0034235476
72	0xbd8371be	-0.06418179
73	0xbca53042	-0.020164613
74	0x3c9636fa	0.018336762
75	0xbd4120f2	-0.04715056
76	0x3bca929c	0.006182028
77	0xbd0bf280	-0.034166813
78	0xbb895a56	-0.004191677
79	0xbd5e53ac	-0.054279014
80	0x3ceace1a	0.02866273
81	0xbd33e6fa	-0.04392145
82	0x3c4c457b	0.012467737
83	0x3d435106	0.04768469
84	0x3d86690c	0.06563005
85	0xbcaaa63f	-0.020831225
86	0xbc3b735b	-0.011441077
87	0x3c2082c6	0.009796804
88	0xbc5f93a1	-0.013646037
89	0x3d95ce6b	0.07314762
90	0xbc2b84f0	-0.0104687065
91	0xbd5ae67a	-0.053442456
92	0xbcc62cfa	-0.024191368
93	0xbc664cb5	-0.014056374
94	0x3c89350e	0.016748931
95	0xbbe2e9f9	-0.0069248644
96	0x3c389309	0.011265525
97	0xbc2c059c	-0.010499384
98	0xbb919210	-0.004442461
99	0x3c62ca84	0.013842229
100	0x3d98865d	0.07447503
101	0x3d270770	0.040778577
102	0x3c17b48a	0.009259352
103	0x3d5255f4	0.051351503
104	0x3d8535d5	0.06504408
105	0x3da346a9	0.07972462
106	0x3d3410c1	0.04396129
107	0xbcfb5219	-0.030678796
108	0xbb062435	-0.0020468358
109	0x3cccf800	0.0250206
110	0x3d44d47d	0.048054207
111	0xbb35595a	-0.0027671666
112	0x3cf7c858	0.030246899
113	0x3cd0a980	0.025471449
114	0xbd0b841a	-0.03406153
115	0x3d1edcdd	0.03878485
116	0xbc8fd572	-0.017557833
117	0x3d19d40f	0.03755575
118	0x3b8a2398	0.004215669
119	0xbb2aa1c5	-0.0026036364
120	0x3c5056c4	0.012715999
121	0xbd0b727d	-0.03404473
122	0x3d17c829	0.037056122
123	0xbd007643	-0.031362783
124	0xbbd2300b	-0.0064144186
125	0xbc27dda1	-0.010245712
126	0xbd4ff307	-0.05076888
127	0x3cd3ccf0	0.025854558
128	0x3cadc601	0.02121258
129	0xbd739e09	-0.059476886
130	0xbce45ac9	-0.027875321
131	0x3a635c27	0.00086730946
132	0xbc5997dc	-0.013280835
133	0xbc5d409f	-0.013504176
134	0xbd23f0aa	-0.040024437
135	0x3d41a144	0.047272936
136	0x3d624fed	0.055252004
137	0xbd28fcaf	-0.041256603
138	0xbce010e9	-0.027351813
139	0xbd1d2a7c	-0.038370594
140	0xbd299a90	-0.041407168
141	0xbcb94d4f	-0.022619871
142	0x3d2aae5d	0.041670192
143	0x3c6060bb	0.013694937
144	0x3d1fa5e4	0.038976565
145	0xbd93435f	-0.071905844
146	0xbd552fed	-0.05204766
147	0xbcb2de4f	-0.02183452
148	0xbc8e6b27	-0.017385079
149	0xbd0201ca	-0.031739987
150	0x3c804e6c	0.015662394
151	0xbcfc86de	-0.030826028
152	0xbd1163e4	-0.035495654
153	0xbc544d5d	-0.012957898
154	0x3d1c6e51	0.038191143
155	0xbc429566	-0.01187644
156	0xbd9fddc6	-0.07805972
157	0x3c690130	0.0142214745
158	0x3c444c3b	0.011981065
159	0x3d36f82c	0.04467027
160	0x3c00bc10	0.007857338
161	0xbd5ff88a	-0.054680385
162	0xbd44e59c	-0.048070535
163	0xbc3037e7	-0.010755516
164	0x3be306e4	0.0069283117
165	0xbd0d6ed1	-0.03452951
166	0xbcf19b75	-0.029493073
167	0xbd05ecc9	-0.03269652
168	0xbd18a9a1	-0.037271146
169	0xba226d4e	-0.0006196097
170	0xbc131e24	-0.008979354
171	0xbac61a0a	-0.0015113961
172	0xbd161060	-0.03663671
173	0x3c3e9664	0.011632536
174	0x3ce3acc9	0.027792351
175	0x3d561071	0.052261773
176	0x3b9ba826	0.0047502695
177	0x3c6def3b	0.014522369
178	0x3d9a8e67	0.07546692
179	0x3d4c8d4b	0.049939435
180	0x3c9db8eb	0.019253215
181	0x3d630964	0.055428877
182	0x3d91f55c	0.07126877
183	0x3d469738	0.048484057
184	0x3d91e9f7	0.071247034
185	0xbb1861ad	-0.0023251579
186	0xbc82d4ff	-0.015970705
187	0xbcb70c15	-0.022344628
188	0xbb6c5b04	-0.0036064992
189	0x3dada29f	0.08478283
190	0xbd0abdcf	-0.03387242
191	0x3d2d5cec	0.042324945
192	0x3cf2817f	0.029602764
193	0x3d3423ca	0.043979444
194	0x3d5b6231	0.05356044
195	0x3d6841a2	0.056703217
196	0xbca6a4cb	-0.020342251
197	0xbc810dd2	-0.01575366
198	0x3d26b06c	0.040695593
199	0x3d1bd858	0.03804812
200	0xbcb1814c	-0.021668099
201	0x3c6af75f	0.014341204
202	0xbd4d0de5	-0.05006208
203	0xbd802180	-0.062563896
204	0xbca33309	-0.019921796
205	0xbc896e1c	-0.016776137
206	0xbd0cffda	-0.034423687
207	0x3d2294c3	0.03969265
208	0xbce01baf	-0.02735695
209	0x3d989393	0.074500225
210	0x3d425dfd	0.047452915
211	0xbb28e77e	-0.0025772746
212	0x3bc31bf9	0.0059542623
213	0xbd2183a0	-0.039432168
214	0x3d85adcd	0.065272905
215	0xbd7c36c3	-0.061575662
216	0xbc7653e9	-0.015034654
217	0xbce94838	-0.02847682
218	0xbd32a7a8	-0.04361692
219	0x3d603250	0.05473548
220	0xbd5ffed2	-0.054686375
221	0x3b35c6a3	0.0027736805
222	0xbd6d9779	-0.058005784
223	0xbd42c446	-0.047550462
224	0xbcd17ca8	-0.025572136
225	0xbcbaeec7	-0.022818936
226	0xbdc50196	-0.09619443
227	0xbcdfc122	-0.027313773
228	0xbd1c7d15	-0.038205225
229	0xbd2c1b2a	-0.042018093
230	0x3d51b515	0.051198084
231	0x3cdfc927	0.027317597
232	0xbcfb1590	-0.03064993
233	0x3d0731a9	0.033006344
234	0xbd907884	-0.070542365
235	0x3d32db14	0.04366596
236	0xb6c29c0d	-5.7998172e-06
237	0x3ca59a51	0.020215185
238	0x3cc56cf8	0.024099812
239	0xbcf1060c	-0.029421829
240	0x3d3e25d2	0.046422787
241	0x3d8ad2c7	0.06778484
242	0x3cba5dd8	0.022749826
243	0x3bf976a3	0.0076130196
244	0xbc8c41ff	-0.017121313
245	0x3d15b557	0.036549892
246	0x3c182f9e	0.009288697
247	0x3d6e36bb	0.058157664
248	0x3d378176	0.044801198
249	0xbda613f4	-0.081092745
250	0xba8c5124	-0.0010705334
251	0xbc3ab117	-0.011394761
252	0x3c8a96e5	0.016917655
253	0xbcca5c1b	-0.024702122
254	0x3c824095	0.015899936
255	0xbb6f778b	-0.003653976

module.fc1.bias f4 [120]
0	0x3dfbfa28	0.12303573
1	0xbd41076e	-0.047126226
2	0xbdad29c4	-0.08455232
3	0xbc95b6d4	-0.018275656
4	0xbe107b5d	-0.1410956
5	0xbdb412de	-0.08792661
6	0x3d02f0cc	0.031967923
7	0x3d5c2ceb	0.053753775
8	0xbd615c26	-0.05501952
9	0xbc2e5312	-0.010639923
10	0xbb00ffc9	-0.001968371
11	0x3d3599e3	0.04433621
12	0xbd63d826	-0.055626057
13	0xbe5fafb7	-0.21844374
14	0x3d2064be	0.039158575
15	0x3de90c7e	0.11379336
16	0x3d315dc4	0.043302312
17	0x3d9e3936	0.07725756
18	0x3d3216fa	0.043478943
19	0x3c328f6b	0.010898451
20	0x3d0ae418	0.033908933
21	0x3c547013	0.012966174
22	0xbd1994f1	-0.037495557
23	0xbc1aa729	-0.009439268
24	0xbd811bbc	-0.06304118
25	0xbd0db5dd	-0.034597266
26	0xbd0b1753	-0.03395779
27	0x3da75437	0.081703596
28	0x3e2afb45	0.16697414
29	0x3d5e793d	0.05431484
30	0xbc904357	-0.017610235
31	0xbcb2731c	-0.021783404
32	0x3c553ffb	0.013015742
33	0xbdb9d66f	-0.09074103
34	0x3c24c109	0.010055789
35	0x3e12df84	0.14343077
36	0x3dc97f88	0.09838778
37	0x3cd1682e	0.025562372
38	0x3d646620	0.055761456
39	0x3e09283e	0.13394257
40	0x3db537b5	0.08848516
41	0x3db2b3a9	0.08725674
42	0xbdca912a	-0.09890969
43	0x3d748076	0.059692822
44	0x3deb3c29	0.11486084
45	0x3e49387b	0.19650452
46	0x3bf49f82	0.007465304
47	0x3db09d91	0.086238034
48	0x3d00852f	0.031377014
49	0x3d876239	0.06610531
50	0x3e2a0a25	0.16605432
51	0xbd36be9d	-0.044615377
52	0x3d960f82	0.07327177
53	0xbd3de4b9	-0.046360705
54	0x3dd4af6a	0.1038502
55	0xbc4be97a	-0.012445802
56	0xbda41edd	-0.08013699
57	0xbc8db587	-0.017298473
58	0x3d2835ca	0.041066922
59	0x3d0693ff	0.032855984
60	0x3e5bf0e0	0.21478605
61	0xbd2a2229	-0.041536484
62	0x3dc6ae1f	0.0970118
63	0x3d1dd001	0.038528446
64	0x3b9fea49	0.004880224
65	0xbd1f4ede	-0.038893573
66	0xbe1cd121	-0.15314151
67	0xbe21b9da	-0.15793553
68	0x3d37f825	0.044914383
69	0x3d6d67b4	0.057960227
70	0x3dacdfb7	0.08441108
71	0xbd3f05c4	-0.046636358
72	0xbca70a7c	-0.020390742
73	0xbd0c109a	-0.03419552
74	0xbb96291c	-0.0045825373
75	0xbd5e5853	-0.05428345
76	0x3d03146a	0.03200189
77	0x3db94753	0.09046807
78	0x3d6cc0d6	0.05780109
79	0xbd18b873	-0.03728528
80	0xbd54a6cd	-0.051916886
81	0x3d1ff074	0.039047673
82	0xbbb538ff	-0.005530476
83	0x3d818cab	0.063256584
84	0x3dbe0fff	0.09280395
85	0x3e7d067f	0.2470951
86	0x3da6956c	0.08133969
87	0xbd057b0f	-0.03258806
88	0xbe4f2003	-0.20227055
89	0x3e11d826	0.1424261
90	0xbcbaeae7	-0.022817088
91	0x3daf90d6	0.08572547
92	0x3d2791fa	0.0409107
93	0x3ca2cf2c	0.019874178
94	0xbd51554b	-0.051106732
95	0x3e171ac1	0.147563
96	0x3cc70f82	0.024299387
97	0x3da8ffff	0.082519524
98	0x3da5b90b	0.08091935
99	0xbc47c29b	-0.012192394
100	0xbd204ae6	-0.03913393
101	0xbd713afe	-0.05889415
102	0xbc994f9d	-0.01871472
103	0xbcc2418e	-0.0237129
104	0x3e0cc15e	0.13745639
105	0xbe36f9ec	-0.17868775
106	0xbd33be1c	-0.043882474
107	0xbd5dbd42	-0.05413557
108	0xbd43006c	-0.047607824
109	0x3db952b6	0.09048979
110	0xbc9530f9	-0.018211829
111	0xbd3402c3	-0.043947946
112	0x3b6c29bf	0.0036035625
113	0xbccb70fd	-0.02483415
114	0x3cabf12f	0.020989029
115	0x3daa81c9	0.08325536
116	0xbd83dc51	-0.064385064
117	0xbc683549	-0.01417286
118	0x3d307de5	0.043088812
119	0x3de03d2a	0.10949166

module.fc2.weight f4 [84, 120]
0	0xbdc22bad	-0.09480987
1	0x3d0552cc	0.032549664
2	0xbc33c12b	-0.010971348
3	0xbc8b2c1b	-0.016988805
4	0xbdca8012	-0.09887709
5	0xbc9d8f77	-0.019233448
6	0xbcc95320	-0.02457577
7	0x3da7e715	0.08198372
8	0x3dbd75b0	0.09250963
9	0xbd7bbc58	-0.061458915
10	0x3d511c89	0.051052604
11	0x3d3d774c	0.04625635
12	0xbbf44705	-0.0074547553
13	0x3d4e8831	0.05042285
14	0xbc76dee5	-0.015067791
15	0xbd121e4e	-0.035673432
16	0x3da9a166	0.082827374
17	0x3c864262	0.016389076
18	0x3c3b0cbf	0.011416613
19	0x3d635452	0.055500336
20	0xbdb13967	-0.08653527
21	0x3db0c0d3	0.08630528
22	0x3d94dbcf	0.07268488
23	0x3b97a3d8	0.004627686
24	0x3de52c94	0.11190143
25	0x3d01d38f	0.0316959
26	0x3dbf21c8	0.09332615
27	0xbdf5eb50	-0.12007773
28	0x3cde1091	0.027107509
29	0xbd99e8c8	-0.075151026
30	0x3cbbd811	0.022930177
31	0x3c86176d	0.016368592
32	0xbd000f53	-0.031264614
33	0x3d823778	0.06358236
34	0x3cebcfba	0.028785575
35	0x3c665a18	0.014059566
36	0x3dd2f4ec	0.103006214
37	0x3dbb4085	0.091431655
38	0xbd9567b0	-0.072951674
39	0xbda982e4	-0.082769185
40	0x3d168979	0.036752198
41	0x3da2e79d	0.07954333
42	0xbd000daa	-0.03126303
43	0x3cbeaccf	0.023275761
44	0xbd148239	-0.036257003
45	0xbd0ebbbc	-0.034847006
46	0xbc94dc75	-0.018171528
47	0x3dc08297	0.09399908
48	0xbd013f23	-0.031554352
49	0x3c850dc0	0.016241908
50	0x3d4310b1	0.04762334
51	0xbc58d452	-0.013234215
52	0xbde56e10	-0.112026334
53	0xbddcd6e7	-0.10783177
54	0x3db8eb35	0.09029237
55	0x3db5d891	0.088791974
56	0x3d93f427	0.07224303
57	0xbd913b6e	-0.070914134
58	0xbcc8da95	-0.02451829
59	0xbd2a02c0	-0.04150653
60	0x3d2ce104	0.04220678
61	0x3d0bd643	0.034139883
62	0xbdc224e2	-0.09479691
63	0xbc2ee8e3	-0.010675642
64	0x3d7a1569	0.061055575
65	0x3df7ac5e	0.12093423
66	0x3db07812	0.086166516
67	0x3da7ac94	0.081872135
68	0xbc0e672f	-0.008691593
69	0x3de6c19b	0.11267396
70	0xbcf72038	-0.03016673
71	0x3cb1f091	0.021721156
72	0xbc5757cc	-0.013143491
73	0x3d8ce000	0.06878662
74	0x3c1d8366	0.009613847
75	0x3daa7ec5	0.083249606
76	0xbda04c05	-0.078269996
77	0xbd5954de	-0.05305945
78	0xbd805b16	-0.06267373
79	0xbd2bdbd8	-0.041957706
80	0xbc4eb8d6	-0.0126173105
81	0xbdb1676e	-0.08662306
82	0x3d92fbe0	0.071769476
83	0x3c9c4b68	0.019078925
84	0xbdc33597	-0.09531706
85	0x3d189ca5	0.037258763
86	0x3dbd61fd	0.092472054
87	0x3c962dde	0.018332418
88	0x3d3c7bec	0.04601662
89	0xbca2a2af	-0.019852964
90	0xbd3bcbd0	-0.045848668
91	0xbc38b0d7	-0.011272631
92	0xbda903db	-0.082526885
93	0x3b6c83fa	0.0036089406
94	0xbd282466	-0.041050337
95	0xbdbb97e7	-0.091598324
96	0x3be7db88	0.0070757307
97	0xbd3a5133	-0.045487594
98	0xbd739b75	-0.059474427
99	0x3d5ec07b	0.054382782
100	0xbd12a3cd	-0.035800744
101	0x3d803558	0.062601745
102	0xbd2a6bfe	-0.041606896
103	0x3d59e98e	0.05320125
104	0xbdcdca4a	-0.10048349
105	0xbc58a028	-0.013221778
106	0xbc914b2b	-0.017736038
107	0x3d9885dc	0.07447407
108	0x3d999d56	0.075007126
109	0xbc9405e8	-0.018069223
110	0xbd931c1f	-0.07183098
111	0x3c29df05	0.010368113
112	0xbcb482fd	-0.022035116
113	0xbd816229	-0.06317551
114	0x3d1f3e63	0.038877856
115	0x3d5d8562	0.054082282
116	0x3d2fe008	0.042938262
117	0x3db03b4f	0.08605062
118	0xbc66ef30	-0.014095113
119	0xbdcb6613	-0.099315785
120	0x3e0176b9	0.12642945
121	0x3dc6e308	0.097112715
122	0x3cd61cb9	0.026136743
123	0xbdfe1f68	-0.12408334
124	0x3e16a08a	0.14709678
125	0xbdd57edb	-0.104245864
126	0x3dbc3f2a	0.09191735
127	0xbd5ea0c1	-0.054352526
128	0x3c89aa02	0.016804699
129	0xbcc73f71	-0.024322243
130	0xbcda9671	-0.026683064
131	0x3db26de8	0.08712369
132	0xbd3cd47a	-0.04610107
133	0x3d016bc4	0.031596914
134	0x3d12de01	0.03585625
135	0x3cbb4ce6	0.022863816
136	0x3cb1d108	0.02170612
137	0xbca64c2f	-0.020299999
138	0x3c1e1e3c	0.009650763
139	0xbd0f86c9	-0.03504065
140	0xbda23998	-0.079211414
141	0x3bebd8ad	0.0071974606
142	0xbd016920	-0.031594396
143	0xbb8167ee	-0.003949157
144	0xb7c2ef3b	-2.3238003e-05
145	0xbdc42ebe	-0.09579228
146	0x3e0b7285	0.13617904
147	0xbd8308a2	-0.06398131
148	0x3ddc33c8	0.10752064
149	0x3b26395c	0.0025363779
150	0xbda6ec86	-0.08150582
151	0xbd87186b	-0.06596454
152	0xbbaf7c2b	-0.005355378
153	0x3de100fb	0.10986515
154	0x3d70c799	0.0587841
155	0xbda80403	-0.0820389
156	0x3da49075	0.080353655
157	0xbe0b6058	-0.13610971
158	0xbd0623c3	-0.03274895
159	0xbe0bf3e0	-0.1366725
160	0x3b4358dd	0.0029807605
161	0x3dda8e72	0.106717005
162	0xbddf3f53	-0.1090075
163	0x3d37a413	0.044834208
164	0x3ca40276	0.020020705
165	0x3c8fb384	0.017541654
166	0x3b964a95	0.0045865276
167	0x3d29c5b8	0.041448325
168	0x3b6a0223	0.003570684
169	0x3d659ff2	0.05606074
170	0x3c6d861b	0.014497305
171	0xbdcd0c5a	-0.100121215
172	0x3cd2458f	0.025667934
173	0x3d938b89	0.072043486
174	0xbd5cf88a	-0.053947963
175	0xbd72a2a7	-0.05923715
176	0x3a65370c	0.00087438594
177	0xbdb971a3	-0.090548776
178	0xbd6f2403	-0.058383953
179	0xbd73746c	-0.0594372
180	0x3d779320	0.060443044
181	0xbd94dda2	-0.072688356
182	0xbdcdac25	-0.100425996
183	0x3c0fb1c2	0.008770408
184	0xbd681729	-0.056662712
185	0xbb1b154f	-0.0023663824
186	0x3e4576f4	0.19283658
187	0xbd94858a	-0.07252033
188	0x3c33b204	0.010967735
189	0x3e07e124	0.13269478
190	0x3d384576	0.044988118
191	0x3d1f84ea	0.038945116
192	0xbc2f4117	-0.010696671
193	0xbd8176fa	-0.06321521
194	0x3cf444a4	0.029817887
195	0xbc2fff4e	-0.010742022
196	0xbd5db28c	-0.054125354
197	0x3ceef7f6	0.029170971
198	0xbdef35fc	-0.116802186
199	0x3a82b3f0	0.0009971838
200	0xbca06d0d	-0.01958325
201	0xbdadc074	-0.08483973
202	0xbdce509e	-0.1007397
203	0xbd40b240	-0.047044992
204	0x3d61c916	0.05512341
205	0x3dc898d7	0.09794777
206	0xbc3aad19	-0.011393809
207	0x3a629ab4	0.00086442684
208	0x3d0f945e	0.035053603
209	0x3e3a67b4	0.18203622
210	0xbb8f6bbe	-0.0043768575
211	0xbe047e37	-0.12938772
212	0x3dae26ff	0.08503532
213	0x3d0dff8f	0.034667548
214	0xbd86afd9	-0.06576509
215	0xbdb5663c	-0.0885739
216	0xbdd59a07	-0.10429769
217	0x3c9a55f8	0.018839821
218	0xbdcc7b21	-0.099844225
219	0x3dfc7418	0.123268306
220	0x3d92c99a	0.07167359
221	0xbd5ca5ae	-0.053868942
222	0xbd7f5aa6	-0.06234231
223	0xbd6abff8	-0.057311982
224	0xbe099cd6	-0.13438734
225	0x3ba986ea	0.0051735537
226	0xbd7df995	-0.062005598
227	0xbdb0384f	-0.0860449
228	0x3cff7598	0.031184003
229	0xbdcbc077	-0.09948819
230	0x3d0a7d7f	0.03381109
231	0xbc7f7eb0	-0.0155941695
232	0x3d9ecc25	0.07753781
233	0x3cbe11bb	0.023201814
234	0xbd805d2b	-0.062677704
235	0x3d58d58f	0.05293804
236	0xbcf8419f	-0.030304728
237	0x3d1030ac	0.035202667
238	0x3ceeaa6f	0.029134003
239	0xbdd8b751	-0.1058184
240	0x3c8f5142	0.017494801
241	0x3db04f06	0.086088225
242	0xbdfce4a1	-0.12348295
243	0x3d3237cf	0.043510254
244	0xbd8d1b5e	-0.068899855
245	0xbd3a7095	-0.045517523
246	0x3dbfea9c	0.0937092
247	0x3d901714	0.07035652
248	0xbd900b0e	-0.070333585
249	0x3d9c767c	0.076397866
250	0xbbd00d3c	-0.006349234
251	0x3ca574dc	0.020197324
252	0x3cbab018	0.022789046
253	0xbd98df7c	-0.07464501
254	0x3bc1b8c6	0.0059119193
255	0x3e11e5bf	0.14247797

module.fc2.bias f4 [84]
0	0xbde4b7ce	-0.111678705
1	0xbd46d823	-0.048545968
2	0x3e86036e	0.26174492
3	0xbd2f5909	-0.04280952
4	0xbd1c5332	-0.03816528
5	0x3e843c0e	0.25827068
6	0xbd0510c9	-0.03248671
7	0xbdd03957	-0.10167187
8	0xba656d92	-0.0008751984
9	0x3e3f1313	0.1865962
10	0x3ecfd0d9	0.40589026
11	0x3c93b8aa	0.01803239
12	0xbda8e65e	-0.08247064
13	0xbc7db964	-0.015486095
14	0xbc2e962e	-0.010655923
15	0xbdbd2b04	-0.0923672
16	0x3d4ffe15	0.05077942
17	0x3ea6d606	0.32585162
18	0x3dc71aff	0.09721946
19	0xbd013963	-0.03154887
20	0xbd350c28	-0.044201046
21	0xbc326f67	-0.010890818
22	0x3e4ba319	0.19886436
23	0x3d8c1d5f	0.068415396
24	0x3d6d2cc7	0.05790403
25	0xbd61fa44	-0.055170313
26	0x3e42f4aa	0.19038644
27	0x3d537a65	0.051630396
28	0x3cdbe574	0.02684281
29	0x3dc17c0d	0.09447489
30	0xbd0289f0	-0.03186983
31	0xbca203aa	-0.019777138
32	0xbda9e123	-0.082948945
33	0xbe85c916	-0.2612998
34	0xbe7fb332	-0.24970701
35	0xbdabd1bd	-0.08389614
36	0x3e0088b5	0.1255215
37	0x3e2fef18	0.17181051
38	0x3ce00e8d	0.027350688
39	0xbda653af	-0.0812143
40	0x3d53d9e1	0.051721457
41	0x3d97c6aa	0.07410939
42	0x3e93b406	0.28848284
43	0xbdb12bed	-0.08650956
44	0x3d760f49	0.06007317
45	0x3ddacf35	0.10684053
46	0xbd732b81	-0.05936766
47	0xbc7a1829	-0.015264549
48	0xbd8d7ff3	-0.0690917
49	0xbd38f3f6	-0.045154534
50	0x3e4f65ce	0.20253679
51	0x3c6a1c61	0.014288993
52	0x3e3d73d9	0.18501224
53	0x3dd70868	0.1049965
54	0x3d8f1755	0.06986872
55	0xbdc30746	-0.09522872
56	0x3e862a5e	0.262042
57	0x3dcbb5fb	0.099468194
58	0x3df26dec	0.11837372
59	0xbd906737	-0.07050937
60	0xbded28df	-0.11580061
61	0xbe37ef35	-0.17962344
62	0x3d875c89	0.066094466
63	0xbdc76219	-0.097355075
64	0xbd8ba5ab	-0.06818708
65	0xbb9f542e	-0.00486233
66	0xbd9e2e40	-0.07723665
67	0x3cd43e68	0.025908664
68	0xbd943ed0	-0.07238543
69	0x3d89c96d	0.06727872
70	0x3d444c32	0.047924228
71	0x3db92c1f	0.090416186
72	0xbd8ffbde	-0.07030462
73	0x3e0d4bc5	0.13798435
74	0xbcc50168	-0.024048522
75	0xbd9081f0	-0.070560336
76	0x3e0681e8	0.13135493
77	0x3e49c182	0.19702724
78	0xbbfccab6	-0.0077145947
79	0x3d977e49	0.07397134
80	0x3d3f6b6f	0.046733316
81	0x3ca5146e	0.020151343
82	0x3eb22169	0.34791115
83	0xbceb843e	-0.028749581

module.fc3.weight f4 [10, 84]
0	0xbd055fe0	-0.032562137
1	0x3e30d30e	0.17268011
2	0xbea030f0	-0.31287336
3	0xbd8e7d90	-0.06957543
4	0xbc943410	-0.018091232
5	0x3cb14b00	0.021642208
6	0xbe00ab50	-0.1256535
7	0xbdadc1c3	-0.08484223
8	0x3d5ca46d	0.053867746
9	0x3d59ac74	0.05314298
10	0xbe436a15	-0.19083436
11	0x3d66b9b4	0.056329444
12	0xbe4f3451	-0.20234801
13	0x3e01951f	0.12654541
14	0x3dbdafc0	0.09262037
15	0xbdd5bc3d	-0.10436294
16	0x3e474f1c	0.19463772
17	0x3db12add	0.08650754
18	0xbe67f458	-0.22651803
19	0x3dabf6c6	0.08396678
20	0x3d50501d	0.050857652
21	0x3d829847	0.06376701
22	0xbbddbd71	-0.006766968
23	0x3e020592	0.12697437
24	0x3ce88a48	0.02838625
25	0x3c33adf3	0.010966766
26	0x3db23bf4	0.087028414
27	0x3e482a30	0.19547343
28	0x3d94202e	0.072327
29	0x3e495cc8	0.196643
30	0x3dc10024	0.09423855
31	0xbdef5b3c	-0.116873235
32	0x3e3ac771	0.18240143
33	0x3e246ce7	0.16057168
34	0x3da50704	0.08057979
35	0xbd763acf	-0.060114678
36	0x3dc8198f	0.097705
37	0x3e0a9eaa	0.13537088
38	0xbda3fc0b	-0.08007058
39	0xbd93e027	-0.07220488
40	0x3cf9567e	0.03043675
41	0x3e963a73	0.29341468
42	0x3d0ce533	0.03439827
43	0xbcc401d4	-0.023926653
44	0xbe2ef255	-0.1708463
45	0xbda764cd	-0.08173523
46	0xbdb041ad	-0.08606277
47	0x3bff67e0	0.0077943653
48	0x3d176699	0.03696308
49	0xbdced743	-0.10099652
50	0xbdfcdfb8	-0.123473585
51	0x3da8b1f3	0.08237066
52	0x3e835e60	0.2565794
53	0xbd6deb90	-0.058085978
54	0xbd88b3e7	-0.06674939
55	0xbcc832e1	-0.024438323
56	0xbe641937	-0.22275244
57	0x3e376640	0.17910099
58	0xbe417108	-0.18890774
59	0xbcf49693	-0.029856956
60	0xbccf8a9b	-0.025334647
61	0x3d46995e	0.048486106
62	0x3d1e72e4	0.038683787
63	0x3d5a0095	0.05322321
64	0xbd19f7d0	-0.037589848
65	0xbd0886eb	-0.033331793
66	0xbe1d462c	-0.153588
67	0xbd61eb3e	-0.055155985
68	0x3d2c9d60	0.042142272
69	0x3c9f6625	0.019457886
70	0xbccafdd2	-0.024779234
71	0x3d40715b	0.046983104
72	0xbda08efa	-0.078397706
73	0xbd92a8ea	-0.07161124
74	0x3de3f324	0.1113036
75	0x3d4ccef2	0.050002046
76	0xbdbdc62a	-0.092663124
77	0xbe6fc04b	-0.23413198
78	0x3c7f9806	0.01560021
79	0x3e141a73	0.14463215
80	0xbd6ee66c	-0.058325216
81	0x3b48024d	0.003051895
82	0x3ea43c68	0.32077336
83	0xbda88897	-0.082291774
84	0x3dfd3725	0.123640336
85	0x3da41084	0.080109626
86	0xbeaf6d53	-0.34263095
87	0x3d07d511	0.03316218
88	0xb94635a6	-0.00018902737
89	0x3c4dd6f4	0.012563456
90	0x3e1a1465	0.15046842
91	0x3dc1bbd4	0.094596535
92	0x3d905940	0.07048273
93	0x3d9c1e5d	0.07622979
94	0xbe0c4e43	-0.1370173
95	0x3e3e2d1e	0.18571898
96	0x3e4f666b	0.20253913
97	0x3c4f71fc	0.012661453
98	0x3e16f652	0.14742401
99	0xbe144956	-0.144811
100	0xbe492913	-0.19644575
101	0xbe3983f7	-0.18116747
102	0xbddb82ba	-0.107182935
103	0x3eef89f5	0.4678494
104	0x3e19e284	0.15027815
105	0x3e0d4c73	0.13798694
106	0xbe5cf927	-0.21579419
107	0xbde19c8d	-0.11016188
108	0xbdfa3433	-0.122169875
109	0x3e514355	0.20435841
110	0xbe6a30aa	-0.22870126
111	0xbe462a84	-0.19352156
112	0x3c9544db	0.01822131
113	0xbd673c01	-0.05645371
114	0xbbb08edc	-0.005388124
115	0xbcca1a69	-0.024670796
116	0xbd40882f	-0.047004875
117	0x3e3b819e	0.18311164
118	0x3eab4112	0.33448082
119	0x3d62823f	0.055299994
120	0xbdfef4da	-0.124490455
121	0xbd8e8635	-0.06959192
122	0x3ceae4bd	0.028673524
123	0x3ca74740	0.020419717
124	0x3d00dd06	0.031460784
125	0xbe087c27	-0.1332861
126	0xbdc94986	-0.098284766
127	0x3db37484	0.08762458
128	0xbd907604	-0.0705376
129	0x3a91e26c	0.0011130101
130	0xbdf3e8f3	-0.11909666
131	0x3e114398	0.14185941
132	0x3c53f433	0.01293664
133	0x3c492d54	0.0122788735
134	0xbe3651ab	-0.17804591
135	0x3d7354dc	0.0594071
136	0x3d01fd4d	0.031735707
137	0xbe2fac43	-0.17155556
138	0x3b90d0a6	0.004419404
139	0xbd803253	-0.062595986
140	0xbe477622	-0.19478658
141	0xbdb8edd3	-0.09029736
142	0xbe0b53cc	-0.13606185
143	0xbdfbfc13	-0.12303939
144	0x3d9b627e	0.07587145
145	0xbc8873ab	-0.016656717
146	0x3dbc556c	0.091959804
147	0x3e150e17	0.14556156
148	0x3e49f601	0.1972275
149	0xbd348fe8	-0.044082552
150	0x3e0acba6	0.13554248
151	0x38249914	3.9243212e-05
152	0xbdd61ed0	-0.10455096
153	0xbd85dccb	-0.065362535
154	0x3d92b0e7	0.07162648
155	0x3cd6e04c	0.02623
156	0x3de1cf76	0.11025898
157	0xbe349b2b	-0.17637317
158	0x3d893e97	0.06701391
159	0xbe1d4912	-0.15359905
160	0xbd38ef82	-0.045150287
161	0xbd15356a	-0.036427893
162	0xbdabf5cc	-0.083964914
163	0xbe3e07a3	-0.185576
164	0xbe0757b5	-0.13217051
165	0x3d848de9	0.0647238
166	0xbdb5f760	-0.08885074
167	0x3d11e046	0.035614274
168	0x3dd80f82	0.10549833
169	0x3d058f9b	0.032607656
170	0x3e3bab0b	0.18326966
171	0xbdefd47c	-0.1171045
172	0xbdaa2e55	-0.083096184
173	0xbe3f3e50	-0.18676114
174	0xbdaa818e	-0.08325492
175	0x3df0ff98	0.11767501
176	0xbd4164d8	-0.047215313
177	0xbd15bf78	-0.036559552
178	0x3e4a6c4b	0.19767873
179	0xbba25bc9	-0.0049547893
180	0xbd641bac	-0.055690452
181	0xbd5aa955	-0.053384144
182	0x3d2c6544	0.042088762
183	0xbe44fa12	-0.19236019
184	0x3dd785e7	0.10523587
185	0x3ea5602a	0.3229993
186	0x3d4a6cb7	0.049420085
187	0xbe5d996e	-0.2164056
188	0xbd9f7c34	-0.07787362
189	0xbe60f45b	-0.21968214
190	0x3df80f18	0.12112254
191	0x3def22ae	0.116765365
192	0xbc9aa1e0	-0.018876016
193	0xbe2f8ad1	-0.17142798
194	0x3e1439d7	0.14475189
195	0xbdac06f3	-0.08399763
196	0xbd01445d	-0.031559337
197	0xbd0638ac	-0.03276889
198	0xbcce9ab3	-0.02522025
199	0xbdbd56fc	-0.092451066
200	0xbd5aecbb	-0.05344842
201	0xbe1e2ab5	-0.15445979
202	0xbdf0d0f9	-0.11758608
203	0xbd593020	-0.05302441
204	0x3dbc556f	0.09195983
205	0x3dbd0c3d	0.0923085
206	0xbd8ecb7c	-0.06972405
207	0xbc965a04	-0.01835347
208	0x3b9719ba	0.004611221
209	0xbd05d92a	-0.032677807
210	0x3d7ac31d	0.06122123
211	0xbdd47fde	-0.10375951
212	0x3e4748bd	0.19461341
213	0xbe41a1ba	-0.1890935
214	0x3d355b4d	0.044276524
215	0xbe27fa4a	-0.16404071
216	0xbb48f92d	-0.0030666098
217	0xbd5dd1da	-0.05415521
218	0x3d991830	0.074753165
219	0x3dd3c72f	0.10340726
220	0x3e01a172	0.12659243
221	0x3c17c1ef	0.009262546
222	0x3e1a30e9	0.1505772
223	0xbcadf004	-0.021232612
224	0x3d336ab0	0.043802917
225	0x3e53efe6	0.20696983
226	0xbbf64ee7	-0.00751673
227	0x3cc99d88	0.02461125
228	0xbccc85d9	-0.024966167
229	0x3e69b162	0.22821572
230	0x3d893ac0	0.06700659
231	0x3d37c8ab	0.044869106
232	0xbd37efdf	-0.044906493
233	0x3dcfea9c	0.1015217
234	0xbd1ae828	-0.037819058
235	0xbdfbbdd7	-0.122920685
236	0xbe15f034	-0.14642411
237	0xbcd182dd	-0.025575096
238	0xbd3e1b7f	-0.04641294
239	0x3e93c5a0	0.28861713
240	0xbe1f501b	-0.15557902
241	0x3ca97334	0.020684816
242	0x3d05cd9b	0.032666784
243	0x3d19ae04	0.03751947
244	0x3e1122bc	0.14173406
245	0x3c8e4902	0.017368797
246	0xbc70fa3d	-0.014708099
247	0x3e2df961	0.16989662
248	0x3d455c2a	0.048183598
249	0x3da9c5cf	0.08289682
250	0x3b8938c5	0.0041876757
251	0x3de71537	0.11283343
252	0xbdf69abe	-0.120412335
253	0xbba49097	-0.0050221193
254	0x3e5cacb9	0.21550263
255	0x3d5c794c	0.053826615

module.fc3.bias f4 [10]
0	0xbd9c3686	-0.07627587
1	0xbf0b767b	-0.5447766
2	0x3e3c3e75	0.183832
3	0x3e43a638	0.19106376
4	0x3ec22f55	0.37926736
5	0xbe7ad2db	-0.24494497
6	0x3dda09c1	0.10646392
7	0xbee272d6	-0.44228238
8	0x3eff5f41	0.4987736
9	0xbed3084b	-0.41217265
