models/classifier_net_epoch_1_8000.pth (torch_old, 249853 bytes, 10 tensors)

module.conv1.weight f4 [6, 3, 5, 5]
00000000: 39e0 563e cdaf d33d 5082 473e 03c8 fc3e
00000010: ce06 9f3e 0b76 9e3e 662f c0bd c434 683d
00000020: ad0c f63e 5d41 b03e 0e05 8c3e c1eb 30bc
00000030: e62b c5be 26ba a03e 1d9c 383e 2ac2 b1ba
00000040: 8765 3bbe b823 aabe 8e70 dfbd d98d 2ebe
00000050: d744 62bd ddee 31be 6977 9ebe eb88 ebbd
00000060: 75d0 73be a295 393a b739 a7be 7fee d8be
00000070: f0a6 13be 421a 9abe 9b4d 843e c064 dabe
00000080: 6418 09bf b1dd 71bc abc9 0a3d 5e3d 7a3e
00000090: e63e 2ebe fb29 16bf 3c6c 303e be3a e23d
000000a0: c9ef 283e d2a5 133d a0c3 e4be 52e9 833d
000000b0: 5b32 22be f93d ee3e 77e3 1bba 40f9 c4bc
000000c0: 624b 783e 3be0 9ebc f928 2fbd 591d 41be
000000d0: cd9e 3fbe 1e9c 4c3d e2be f2bd 2a0f 7b3e
000000e0: 9532 8cbe d67c 97be c0eb 4e3e d842 c9bd
000000f0: e7a3 8e3e 1ae7 07be 1db7 b9be 9a96 353e
00000100: 6b7c 543c 9aad 813e ecb7 0a3e c6c1 72be
00000110: 58e1 d93d df44 f4bc c32a cc3e 826a a43d
00000120: 6e6c 89bd d279 f33d 5ad8 4d3d f3c4 393d
00000130: dcfd 243e ff25 ddbc 2211 ee3a e702 aabd
00000140: f476 debc 6bcd 203e cd7f fbbc 4b43 20bd
00000150: f8e0 11bd 39e3 8bbd 167e 45be 2df7 72be
00000160: df72 f5bd fcaa 42be 447d 52be ab15 9fbe
00000170: 0bdf 8bbe af29 04be 417f 22be 365a e0bd
00000180: ce84 ef3d fcd1 1c3d 4b3d 693e 6221 8c3e
00000190: 8368 c1bd 6c36 ee3d 6e28 f9bb df1e 75bc
000001a0: 054f 8fbd 0830 a33d 1696 373e 1505 d7bd
000001b0: 00ba 3fbd 87fe d6bd 8c74 0d3e 9209 43bd
000001c0: 97fb 20be a046 48be 7b1e 01be 4d36 42bd
000001d0: 3c6e 2fbe 9a6b 5abe 528d 0dbe 1d37 10be
000001e0: 9f5e be3d 42df 37bc 6d59 723d 6409 393e
000001f0: 1623 8a3e 6210 a43c 6d2b 083e 2648 abbb
00000200: a5bd 203e c630 36bd 1697 b23d b599 253e
00000210: 727b 283e a2a0 503c 838f fbbd fa2f 703d
00000220: d770 063d b480 90bd 93b1 7abe 34f2 4ebe
00000230: 619d 0dbd 3082 87be 98db 56be 796b 61be
00000240: 2f4d a0bd fa82 b53a 0c3b 56bc c196 783e
00000250: 7086 f13d a323 063e b63a 0ebe 2cc2 3ebe
00000260: 0de2 4dbe 0dcc 05be 1751 eabd c171 16bd
00000270: 15d7 443e ef5b a63d 5a4c f73d a4cf f03c
00000280: b951 a0bd cbf6 b33c 3f07 023e 2d64 fc3c
00000290: 08d2 2c3d 9044 a4be fbde 78be 4e44 66be
000002a0: af12 99be 6d1e 82be 615c debd 5e7f 3cbe
000002b0: 5089 08be c37f 04be a3d6 6fbd f951 71be
000002c0: 8b63 81be c0b9 88bd 5a5b bebd 1aaf d6bd
000002d0: f0d5 6c3e 44dc 853e 11db ab3e 3c6b 7d3e
000002e0: a806 8e3e ea5e e13d 2319 223d 4cca 613d
000002f0: cd44 543d c406 133e 7670 6abe 2a3d b7be
00000300: f3bb 80be 4cf2 6ebe aec5 07be 532a b2bd
00000310: 1c6c 26be e2c6 f6bd 2767 303c c0ab 8e3d
00000320: 7fbb bbbd 6321 983d ac0f 7a3d c753 9bbb
00000330: 975b b2bc cc9d af3e 09bc 693e 90a0 d83e
00000340: bb99 ea3e e796 b93e d2ff 583e e213 6c3e
00000350: ca19 0f3e c89e 7a3e 44de 2f3e 87f2 8e3c
00000360: 17be e23c e329 02be 553b a7bd ad91 c63c
00000370: 3548 163e 0a01 e03d 3ca7 1f3d 9994 2a3e
00000380: 44bb 0f3e aa65 913d bba9 853d 505d 01be
00000390: 500f ff3d 7355 a13d 3197 733d c762 41be
000003a0: dfc0 f5bd f496 ee3d 7aa6 1c3e 6a1a 61bc
000003b0: 1512 1fbe 44df 15be 559b 5c3e c881 633d
000003c0: aa71 4dbe effb 83be 9cce 40bd 98f9 b33d
000003d0: bf78 623e bf11 4abd 1f04 8ebe 9ec9 25bc
000003e0: 2420 4b3e 41c3 3c3c 9a3c 273b 3f50 01be
000003f0: 7741 5ebe c682 b73d 4e3f 993d f1ff 6ebd
0.20983972 0.10336266 0.19483304 0.49371347 0.3105988 0.30949435 -0.093840405 0.056690946
0.48056546 0.34424868 0.27347606 -0.010798396 -0.38510054 0.3139202 0.18028302 -0.0013561894
-0.18300448 -0.33230376 -0.1091014 -0.17046298 -0.055241432 -0.17376275 -0.30950478 -0.115007244
-0.23809989 0.0007079487 -0.3266122 -0.42369458 -0.1441915 -0.30098158 0.25840458 -0.4265499
-0.5355284 -0.014762328 0.03388373 0.24437472 -0.17016181 -0.5865781 0.17228788 0.110463604
0.16497721 0.03604681 -0.446805 0.06440987 -0.15839522 0.46531656 -0.00059466757 -0.024044633
0.24247506 -0.01939403 -0.042763684 -0.18858851 -0.18712921 0.049953572 -0.11852814 0.24517503
-0.2738234 -0.2958743 0.20207119 -0.098272026 0.27859423 -0.13271752 -0.36272517 0.17733231
0.012969117 0.2532776 0.13546723 -0.23706731 0.10638684 -0.029817997 0.39876375 0.08028127
-0.067101344 0.1188847 0.050255157 0.04535384 0.16112465 -0.026995657 0.0018163065 -0.08301335
-0.02715633 0.1570336 -0.030700589 -0.039126676 -0.035614938 -0.06830449 -0.19286379 -0.23727103
-0.119848005 -0.19010538 -0.20555598 -0.3107122 -0.27318606 -0.12906526 -0.15868856 -0.10954706
0.11695252 0.038286194 0.22777288 0.2736922 -0.09443762 0.11631474 -0.0076036965 -0.0149609735
-0.06997494 0.079681456 0.17928347 -0.10499016 -0.046808243 -0.10497766 0.1381399 -0.04761655
-0.15720974 -0.19558191 -0.12609284 -0.047415067 -0.17131895 -0.21330109 -0.1382344 -0.14083524
0.09295391 -0.011222662 0.059167314 0.18069988 0.26979893 0.020027343 0.13297816 -0.0052271066
0.15697344 -0.044480108 0.087202236 0.16171916 0.1645334 0.01273361 -0.12283232 0.058639504
0.032822456 -0.07055798 -0.24481802 -0.2020958 -0.034573916 -0.26466513 -0.20982206 -0.22013654
-0.078272216 0.0013848238 -0.013075601 0.24276258 0.1179322 0.13099532 -0.13889584 -0.18628758
-0.20105763 -0.1306612 -0.11441248 -0.036729578 0.19222672 0.08123004 0.1207511 0.029395886
-0.07828087 0.021968266 0.12698077 0.030809486 0.04219249 -0.3208356 -0.2430381 -0.22486994
-0.29897067 -0.25413838 -0.10857464 -0.18407962 -0.1333363 -0.12939362 -0.058554303 -0.23566426
-0.25271258 -0.06676054 -0.09294768 -0.10482617 0.23128486 0.26144612 0.33565572 0.24747938
0.27739453 0.110044315 0.039574753 0.055124566 0.051823426 0.1435805 -0.22894463 -0.35788852
-0.25143394 -0.23334616 -0.13259003 -0.08699479 -0.16252178 -0.12049653 0.010766781 0.069663525
-0.091666214 0.07428243 0.061050102 -0.0047402116 -0.021772189 0.34300077 0.22825636 0.4231
0.45820412 0.36247942 0.21191338 0.2305446 0.13974681 0.24474633 0.17174631 0.01744963
0.027678533 -0.12711291 -0.081656136 0.024239386 0.14675982 0.10937698 0.038977847 0.16658248
0.1403628 0.07099469 0.06526514 -0.12633252 0.124540925 0.07877626 0.05947036 -0.18885337
-0.11999678 0.11649886 0.15297881 -0.013739208 -0.15534241 -0.1463595 0.2154363 0.05554369
-0.2006289 -0.25778148 -0.047072038 0.087878406 0.22116373 -0.04933333 -0.2773752 -0.01011887
0.1983648 0.0115211615 0.00255183 -0.12628268 -0.2170466 0.0896049 0.074827775 -0.058349553

module.conv1.bias f4 [6]
00000000: 0a6c 03be 4315 01bf ab1d 353d 25e3 c9bd
00000010: 38dd 53be e90c e2bc
-0.12834182 -0.5042307 0.044217747 -0.098577775 -0.20689857 -0.027594047

module.conv2.weight f4 [16, 6, 5, 5]
00000000: 6dee 9a3e 3c36 b13d 39a7 a33e baf0 f23b
00000010: 15a8 9ebd 9c71 7e3e 8331 14be fc25 673e
00000020: 9e94 7e3e fd5d 45bd 1ccd 1e3e d690 9dbd
00000030: 13d1 6bbd c406 313e 4a69 1ebd 7d79 233c
00000040: da7b a23d 7bd5 ab3b 145f d33d c411 463c
00000050: d0b5 29bd 0c01 c5bd d2ac e8bd 7b01 a0bd
00000060: 774b 3d3c 7c6e 09bd 963e 483d 9c1e 17bd
00000070: 5e67 e1bc 0c01 6cbd dd06 11be 10b8 c03c
00000080: 7a47 9ebd 0141 27bd dc04 4cbd a7a3 05be
00000090: 4f5a a93c cb3d 233d 4763 6e3c b467 ce3c
000000a0: 3caa 01be 8545 6abd 7817 51bb fd6b 4e3b
000000b0: 31cf 923d 1002 0abe fcbd 03bd 66a0 02be
000000c0: a032 43bc 6de9 063e 3511 3fbc aeff 14bb
000000d0: 0b14 a03d 6537 763d 7391 ca3d 1eba e4bd
000000e0: b265 c03b 0566 42bd d871 9b3b 91dc 1bbd
000000f0: e544 1ebe 83f3 bfbd 7f65 5fbd 0234 65bd
00000100: ade0 b3bd cc5e 40be 38d2 6ebc 7b87 3b3d
00000110: 61c4 0ebc 8653 043d d720 4ebe 4ebd a0bd
00000120: 3b4b 63bd 5f0f 053c 313c a1bd f263 493e
00000130: 0e4b a03d cbe3 dc3c f5a7 9b3e 45ad adbc
00000140: 2fcf c53d 23e2 86bc 0503 38bd 64ee 203e
00000150: 399d 043e 4225 a1bd 6e5a da3c 42df 0bbd
00000160: 3c5e b73c 60de 113e 89e4 3abe fc81 753d
00000170: 5f84 c5bd c98b abbd 28e7 d83c bd22 66be
00000180: 0963 49bd f788 e0bd 6c65 34bd 7ea4 ddbd
00000190: d353 96bd 2753 01be 8369 fcbd a590 7f3b
000001a0: 9552 c43b d87e c4bd 2e45 1dbd 520b d0bd
000001b0: 162e 99bd 7cd2 54bd b07e 023b 20b0 92bd
000001c0: 08a2 4e3d 78b2 10bd 4f27 fc3c 87a7 54bb
000001d0: 44e9 3dbc 4513 c93c 1e22 96bd e6cd 263d
000001e0: cdb1 e43c 1a87 613d 8b81 e63c 50f0 e53c
000001f0: 8227 f23d f0a7 cf3b 5807 6ebd e0c6 21be
00000200: dbff 42bd 9c07 72ba bb72 143d 1f74 153d
00000210: bd5e 9abd cacc 0cbd a82c 913d 887d 493d
00000220: 0ae5 b03d 3038 a8bd 0631 02be 0529 863d
00000230: 8814 70bc 3afc c83d 3c39 2cbd 31d6 8bbd
00000240: e1ce 85bd 9f90 1c3d 2131 7e3d 78f9 7fbd
00000250: 67bf 8ebd 472e 07be 9551 2bbe e0db 7bbd
00000260: 7f6a 82bd 1470 f8bc 1894 1bbd a3a5 433e
00000270: 47dd 633c 4879 1abe 57d7 84bd b3a5 993d
00000280: 8370 a53e 31bd 8c3d a0c8 28bd d274 72bd
00000290: ee23 89bc 94a1 3c3e 04af a23e 1aa5 0a3e
000002a0: b9b3 d13c 6d71 e1bc 8eab 45be 5ae8 e83d
000002b0: 034c 073e a409 393e d453 cb3d 1783 b4bd
000002c0: 5ea9 23be b0c6 c5bd 8bfa cbbd fa5d 1abe
000002d0: 6df3 bf3c 1132 f9bd f4e7 34be 9190 acbd
000002e0: 102c 54bd 0862 8abd 37e2 c43d c593 debd
000002f0: c369 c9bd 892b 7ebb 5973 ca3d 81e1 ae3d
00000300: d36d bd3c 8f95 09be 24c8 c0bc fe23 b9bb
00000310: fc16 453e 779a 973e d1c6 8f3e a57f 443e
00000320: fec5 813d 09a4 9e3d 5eb1 3a3d 5411 be3c
00000330: d277 9f3d c0a9 03bd ec52 4f3d e774 b33d
00000340: d676 1a3d 35da a13d 627a 3fbc c78d 043e
00000350: 5b9c c53d 5e71 c8bc 1a36 cabd febf 6cbe
00000360: a219 243d 18e9 2c3e 4718 093e 450f d6bd
00000370: ae86 57be 5eef 41be 15e8 4e3d b4aa 613d
00000380: 5ff8 c43d 811b 84bd 5e4c dbbd d79f 17be
00000390: c4a1 7ebd 2a90 5cbb f6ca 303d ffcc 173b
000003a0: da6f 113d b88f 9f3b cce1 8abd 20da 293d
000003b0: 130f c13d 50f2 2abc 3407 403d bb3a dfbd
000003c0: 3aab 1fbe d9c1 15bd a465 1e3e 7907 143e
000003d0: 07eb e83d 6464 5fbe 8ddc 92be 4c9b 03be
000003e0: 841e 71bd 3cc8 77bd 7e21 dabd 6c78 8ebd
000003f0: 6900 0bbe 5f55 a4bd 1e5c 7dbb 49c8 83bd
0.3026003 0.086529225 0.31963518 0.0074139507 -0.07746903 0.24848026 -0.14472012 0.22573084
0.2486138 -0.048185337 0.1550793 -0.07693641 -0.057572436 0.17287737 -0.03867463 0.0099776955
0.07933779 0.0052439547 0.10320869 0.012089197 -0.041433156 -0.0961934 -0.11361088 -0.078127824
0.011553637 -0.03355263 0.04888781 -0.036894426 -0.02751511 -0.057618186 -0.14162774 0.023525268
-0.07728477 -0.040833477 -0.04980932 -0.1305071 0.020672945 0.039853852 0.014550037 0.025195934
-0.12662596 -0.057195205 -0.0031904858 0.0031497472 0.07168425 -0.1347735 -0.032163605 -0.127565
-0.011913925 0.13174982 -0.011661817 -0.0022735405 0.07816323 0.060111422 0.098910235 -0.111683115
0.005871498 -0.047460575 0.004743796 -0.038052145 -0.15455969 -0.09372618 -0.054540154 -0.0559578
-0.08783088 -0.18786162 -0.014576487 0.0457835 -0.008713813 0.032306217 -0.20129715 -0.07848607
-0.055491667 0.008121341 -0.07872809 0.19667032 0.078268155 0.026964089 0.3040158 -0.021200785
0.09658658 -0.016465252 -0.044924755 0.15715939 0.129506 -0.078684345 0.026654448 -0.034148462
0.022383802 0.14244986 -0.18251242 0.059938416 -0.096443884 -0.08376271 0.026477411 -0.22474189
-0.049166713 -0.10963624 -0.044042036 -0.1082239 -0.07340207 -0.12629376 -0.12324812 0.0038996127
0.00599129 -0.09594506 -0.038396053 -0.10158409 -0.07479493 -0.051958546 0.0019911937 -0.071624994
0.050447494 -0.03532645 0.030780463 -0.0032448487 -0.011591259 0.024545321 -0.07330726 0.040723704
0.027916813 0.055060484 0.028137943 0.028068691 0.11823942 0.0063371584 -0.058112472 -0.15798521
-0.047607284 -0.0009232701 0.036242228 0.036487695 -0.07537601 -0.03437499 0.07088596 0.04919198
0.08637436 -0.08213842 -0.12714013 0.065507926 -0.0146533325 0.098137334 -0.04204677 -0.06827963
-0.065336 0.03822386 0.06205857 -0.06249377 -0.06970101 -0.13201247 -0.1673034 -0.061488986
-0.06367969 -0.03032688 -0.03798303 0.19106154 0.013907737 -0.15085328 -0.06486385 0.07502308
0.32312402 0.06872023 -0.041206956 -0.05919344 -0.016740765 0.18421012 0.3177415 0.13539544
0.025598394 -0.027519906 -0.19303724 0.113724425 0.1321259 0.18070084 0.09928098 -0.08814066
-0.15982577 -0.09657037 -0.09959897 -0.15074912 0.023431504 -0.121677525 -0.17666608 -0.08426011
-0.051799834 -0.06756979 0.096134596 -0.108680286 -0.098346256 -0.0038783273 0.09885282 0.08539105
0.023123657 -0.13435958 -0.023532934 -0.0056500426 0.19247049 0.29610035 0.28081372 0.19189318
0.06336592 0.07746131 0.045579307 0.023201622 0.07786526 -0.032144308 0.05061619 0.08762532
0.037710987 0.07902948 -0.011686893 0.12944709 0.09648963 -0.02446812 -0.098736 -0.23120114
0.040063508 0.16885793 0.13388167 -0.10452131 -0.2104747 -0.18938968 0.0505143 0.055094436
0.096176855 -0.064505585 -0.10707925 -0.14807068 -0.06216599 -0.0033655264 0.04316231 0.0023162959
0.03550706 0.0048694275 -0.067813486 0.041467786 0.09426703 -0.010433748 0.04688187 -0.10899874
-0.15592661 -0.03656182 0.1546846 0.14455976 0.11372953 -0.2181564 -0.28683892 -0.1285221
-0.058866993 -0.060493693 -0.106509194 -0.069565624 -0.13574375 -0.08024096 -0.0038659642 -0.06434686

module.conv2.bias f4 [16]
00000000: f9e0 f23d 2372 11bf 4f8d 0cbf dc87 48bd
00000010: e54e bd3e 5f7d c7bd f562 0a3e 8f76 9d3e
00000020: 2610 5bbe 3cf8 1cbc 3abb 69be 81b3 0e3f
00000030: 84f2 c93d 4568 45be 248f a4bd 7d9e f23e
0.118593164 -0.56814784 -0.5490312 -0.04895769 0.36974254 -0.097407095 0.13514312 0.30754516
-0.21392879 -0.009580668 -0.22825328 0.5574265 0.09860709 -0.19278057 -0.080351144 0.47386542

module.fc1.weight f4 [120, 400]
00000000: 1a31 abbc d788 68bd 82d9 9fbd cd12 9a3c
00000010: 0c76 8bbd 0b48 2f3d e564 713c 918d c13c
00000020: 4cec e3bb 304f 90bc 0fe0 dabc 2108 a23c
00000030: fdd9 50bc b88a d13b b9bd f73c 35b2 86bb
00000040: b6a0 d23c ee45 aabc f166 123d e536 00bc
00000050: c48e be3c 79ea 223d 3d65 36bc 1d8e 8b3c
00000060: f4d5 903d 1947 593d 433a 053c 5a8a c23c
00000070: 88ce 4abd ef70 60bc 36a6 313d 4bbb 4d3c
00000080: eae7 f33c 77a0 513d 91bd ccbc 89b5 7c3d
00000090: adff be3b 2138 c0bb b710 b93c f5ea 073d
000000a0: 6987 26bd 81bd 4ebd a2d6 71bd d03b 37bd
000000b0: 4c4e 07bd d972 dfbd 5db8 6bbd c613 b4bd
000000c0: cc3a 54bd 9d37 3cbd 33dd 8c3d 43ae b1bc
000000d0: 1b15 25bd a2cb 583c 17ed 91bd 236a 4f3d
000000e0: b9da 09bd 710f e9b9 540e fabc 58ba c3bc
000000f0: 26eb 373c 2b26 74bb 79b9 92bb b022 05bd
00000100: 08ca f73a 6589 763d 80b3 37bd 375f 21bd
00000110: b279 2bbc e0e9 493d 936d 8bbd 38da 943a
00000120: 8b8a 7fbd 4e23 c8bc 307b a23c 91b4 34bd
00000130: 6763 e73b cd18 f7bc cb32 dfba aa57 40bd
00000140: 3017 f03c 3170 2bbd 8e49 d43c cac5 553d
00000150: fdc7 a13d 93fd ffbb ea7a 093b 3c9e cf3c
00000160: b606 5b3c c5ad 903d c800 c2ba b58a 4abd
00000170: 050c 84bc cb29 c53b 2b1d 003d 97b1 2b3a
00000180: c8a8 a93c 7abd 253c 34d3 c33b 8331 333d
00000190: 1fd5 7a3d 6260 2c3d 6f36 7f3c c685 683d
000001a0: 8610 7e3d b59c 8d3d 9c48 463d 524e ebbc
000001b0: aabf 72ba bf6c 7e3c 4621 183d d205 3f3c
000001c0: 7b97 183d a3b2 993c 6a74 16bd 3424 333d
000001d0: 6a91 1cbb 7328 2f3d f206 2938 2897 d83b
000001e0: f60a fd3c e360 88bc 1abd 1b3d 7ec4 e3bc
000001f0: 23eb 743b 08c1 a5bc ff69 5fbd 967a 9a3c
00000200: f516 853c a64c 94bd 8ac2 1dbd 9412 18bb
00000210: 39c7 89bc 48ab 59bc d0f0 49bd 4bcf 533d
00000220: 6ba1 893d 8b2b 27bd 09b1 f9bc b4d4 4bbd
00000230: a1d2 2dbd f9e5 93bc cb47 273d ef62 723c
00000240: 76d5 0e3d f0e9 a9bd 162b 6abd 0420 d4bc
00000250: 92dc d3bc 8617 0cbd 9d01 993c b3fb fdbc
00000260: f9b5 35bd 21b3 b4bc 43e8 103d fbe2 77bc
00000270: 1aa7 acbd c998 743c 0489 4a3c 8d3a 243d
00000280: a9ff c23b 7ce1 71bd e966 45bd 147c 99bb
00000290: 3107 cb3b 0669 05bd 478f 0cbd 1bb5 e6bc
000002a0: 08de b3bc 803b bc3a 8e12 14bc 6b98 e3ba
000002b0: 536c f2bc 50f0 bb3c 2d4e 103d 8a26 7a3d
000002c0: 993e 9d3c 919a c23c c3f9 9f3d 4aae 713d
000002d0: f6f1 ef3c befe 833d 965d ab3d bc75 693d
000002e0: 8237 ad3d 0923 193c 3114 58bc b98b ccbc
000002f0: 7a2a 08bb 200e ba3d d31f e4bc 97f9 3a3d
00000300: aa04 f43c 4141 3c3d 32a0 583d 3879 6f3d
00000310: a08e 82bc fc98 56bc 9b27 533d a54d 3a3d
00000320: 1bda bebc 9c03 533c 6f9b 58bd a490 7abd
00000330: d954 a0bc 467d 94bc fe3c e3bc 878c 263d
00000340: 3710 05bd e0d1 743d 6202 6c3d f67f aa3b
00000350: 8d8e 503c fb29 0dbd 51de 963d beec 75bd
00000360: f75d b3bc 0fad ebbc 1d9c 2ebd 3918 7d3d
00000370: 39df 6fbd 04a1 213c eb01 48bd c39e 30bd
00000380: 60a8 e6bc 7396 ccbc dcd4 b0bd 4e6a c6bc
00000390: fd64 1abd b0db 45bd 1bbf 6f3d 79ea 0e3d
000003a0: acef f1bc ea97 003d 1d64 9abd 358f 7a3d
000003b0: d664 853c 77cc b03c a82c f83c deb8 d6bc
000003c0: da33 693d 2381 a23d 2d6f 163d 0020 9a3c
000003d0: a594 81bc fe71 333d 82fe 1c3c 3dda 813d
000003e0: 502e 883d f8ad 87bd e78c 92ba eb71 59bc
000003f0: 56f7 813c 7ac6 f9bc 05de 5b3c 0329 b63a
-0.020897437 -0.056771126 -0.07805158 0.018807793 -0.06809625 0.042793315 0.014733528 0.023627074
-0.006955659 -0.017615885 -0.026718168 0.019779267 -0.012747285 0.0063947104 0.030241834 -0.0041105994
0.025711399 -0.020785298 0.035742704 -0.007825588 0.023261435 0.03977439 -0.0111325355 0.017035538
0.07072058 0.05304632 0.008131566 0.023747612 -0.04951337 -0.0136988005 0.0433714 0.012556861
0.029773671 0.05117842 -0.024992736 0.061696563 0.005828819 -0.005866066 0.022590978 0.033183057
-0.04065648 -0.050473694 -0.05904258 -0.044734776 -0.033033654 -0.10910577 -0.05754887 -0.08792834
-0.051813886 -0.045951474 0.06878128 -0.02168954 -0.04030333 0.013232144 -0.071252994 0.05063833
-0.033655856 -0.00044452728 -0.03052441 -0.023892567 0.011225497 -0.0037254195 -0.0044776765 -0.032503784
0.0018904814 0.060189623 -0.04484892 -0.039397445 -0.010466026 0.049295306 -0.06808009 0.0011356538
-0.062387984 -0.024430897 0.019834131 -0.044117514 0.00706141 -0.030163193 -0.0017028687 -0.046958603
0.029307932 -0.04185504 0.02591398 0.05219058 0.07899473 -0.007812211 0.0020977804 0.025344007
0.013368299 0.07064394 -0.0014801258 -0.049448688 -0.016119013 0.006016945 0.031277817 0.0006549595
0.020710364 0.0101159755 0.005976105 0.04374839 0.061238404 0.042084105 0.015576943 0.0567682
0.062027477 0.06914655 0.04840909 -0.02872387 -0.00092601276 0.015528857 0.037141107 0.0116591025
0.037253838 0.018761938 -0.036732115 0.043735698 -0.0023890384 0.042763185 4.029921e-05 0.006609816
0.030889016 -0.016647762 0.03802214 -0.027803656 0.0037371598 -0.020233646 -0.054544445 0.018857282
0.016246298 -0.07241182 -0.038515605 -0.0023204433 -0.01681863 -0.013285466 -0.049301922 0.05171136
0.06720241 -0.04081301 -0.030479925 -0.049763396 -0.0424372 -0.018053995 0.04083995 0.014794095
0.03487154 -0.08296573 -0.057169996 -0.025894172 -0.025862012 -0.03420212 0.018677527 -0.031003809
-0.044362996 -0.022058072 0.035377752 -0.0151298 -0.084303096 0.014929005 0.012361769 0.0400949
0.005950887 -0.05905293 -0.048193846 -0.0046839807 0.0061959256 -0.03257086 -0.034316327 -0.02816253
-0.021956459 0.0014360994 -0.009037627 -0.001736415 -0.029592669 0.022941738 0.035230804 0.06107191
0.019194888 0.023755344 0.0781131 0.059004106 0.02929018 0.064450726 0.083674595 0.056997046
0.08457853 0.009346732 -0.013188408 -0.024968969 -0.002077727 0.090847254 -0.027847206 0.045648184
0.02978738 0.04596067 0.05288715 0.058465213 -0.01593715 -0.013097998 0.051551443 0.045484204
-0.02329736 0.0128792785 -0.052882608 -0.061173096 -0.019571709 -0.018126141 -0.027739044 0.04066136
-0.032486167 0.059770465 0.05761946 0.0052032424 0.012729299 -0.034463864 0.07366622 -0.060040228
-0.021895392 -0.028769044 -0.04262935 0.06179068 -0.05856249 0.009865049 -0.048829954 -0.043120157
-0.02815646 -0.024974084 -0.0863435 -0.024220612 -0.037693966 -0.048305213 0.05853186 0.03489158
-0.02953323 0.031394877 -0.07538626 0.06117173 0.016283434 0.021581871 0.030294731 -0.026211198
0.056934215 0.07934787 0.03672712 0.018814087 -0.01581795 0.043809883 0.009582164 0.06340454
0.066494584 -0.06624979 -0.0011180908 -0.013271789 0.01586501 -0.030490149 0.013419633 0.001389772

module.fc1.bias f4 [120]
00000000: 8091 0c3e aab0 4fbd b2f2 bfbd 8747 83bc
00000010: 17c6 1bbe 63cd a5bd 1704 193d 3d15 653d
00000020: 2864 62bd b06c ffbb a565 463b 9b5b 413d
00000030: 0f14 57bd 21c7 6fbe 8f48 1d3d e635 033e
00000040: 5bd8 283d 8992 aa3d 4dc4 4d3d 5de5 9c3c
00000050: 81b5 173d 5596 af3c d4bc 24bd 9bcc 06bc
00000060: 264a 7ebd 7877 0cbd 19fd 1dbd 233e af3d
00000070: 44f2 3a3e 3392 673d b455 92bc 3a4d b6bc
00000080: 969f a93c 04aa d0bd e3f8 9b3c 2804 133e
00000090: 1d99 c13d 0741 ac3c 5115 2a3d 514f 143e
000000a0: 9888 af3d a597 ac3d 3fa7 e2bd 13cd 873d
000000b0: bc7e 063e 7fc6 5e3e fee5 4e3c f120 cd3d
000000c0: 3389 143d 8876 963d 6c83 3e3e 9774 33bd
000000d0: c81a 943d 58f5 1fbd 9e66 e03d 9ecc 4dbc
000000e0: 1e35 aebd 136a 1abc 8b6c 2c3d 09c9 0f3d
000000f0: 2975 6a3e b71b 38bd 1b2b c83d 2b95 1b3d
00000100: 8530 563b ba01 1abd 8453 2abe f8dd 22be
00000110: 0859 4c3d 7a50 6a3d afa8 bd3d dade 4fbd
00000120: 294e 98bc 3ee6 07bd 4a57 54ba 4ce4 5cbd
00000130: 07ee 243d c4de c63d e6ae 603d 62db 18bd
00000140: 55f4 55bd b7fb 2b3d 7e2d 05bb 3387 8a3d
00000150: 49f9 c93d ffe3 833e 04ae b43d 89c7 1ebd
00000160: b6ad 64be b7c1 113e f384 bcbc 0741 ba3d
00000170: 846f 3c3d 7de8 603c 10f8 73bd c0fd 223e
00000180: 159a e33c a07f c43d c453 bd3d 24d6 8cbc
00000190: 94b9 30bd 5b35 80bd 52c0 afbc 7944 bebc
000001a0: ff05 153e eb14 38be 950d 2dbd d575 60bd
000001b0: 7b48 69bd e3cb de3d dfa4 b3bc 5400 48bd
000001c0: 908a 5d3b ed9a cfbc ec0a 943c 6f17 a63d
000001d0: 3eac 8fbd 56c6 67bc 3b52 443d f435 f63d
0.13727379 -0.05070559 -0.09372462 -0.016025318 -0.15212284 -0.08095815 0.037357416 0.055928458
-0.055271298 -0.007794939 0.0030272987 0.047206502 -0.052509364 -0.23415805 0.038399275 0.1281353
0.041221958 0.083287306 0.050236035 0.019152338 0.03703833 0.021433989 -0.040219143 -0.008227493
-0.062082432 -0.03429362 -0.03857145 0.085567735 0.1825648 0.05653591 -0.017863132 -0.022253621
0.02070598 -0.10188678 0.019039577 0.14357054 0.09453032 0.021027101 0.041524235 0.14483382
0.08570975 0.084273614 -0.11067056 0.06630912 0.13134283 0.21755408 0.012628077 0.10016049
0.036263656 0.07346827 0.18604821 -0.04381236 0.072316706 -0.039052337 0.10957073 -0.012560992
-0.08506225 -0.009424704 0.042095702 0.03510383 0.22896256 -0.044948306 0.09773847 0.037984055
0.0032682728 -0.037599303 -0.16633421 -0.15904987 0.049889594 0.057205655 0.092606895 -0.050749637
-0.018591957 -0.03317856 -0.0008100165 -0.05392866 0.040266063 0.09710458 0.054854296 -0.037318595
-0.052234966 0.0419881 -0.0020321305 0.067640685 0.098620005 0.25759885 0.08822253 -0.03876451
-0.2233189 0.14234053 -0.023012614 0.09094434 0.046004787 0.0137273045 -0.059562743 0.1591711
0.027783433 0.09594655 0.09244493 -0.017191954 -0.04314573 -0.06260177 -0.02145401 -0.02322601
0.14553069 -0.1797673 -0.04224928 -0.054799873 -0.05695389 0.10878732 -0.021929203 -0.048828438
0.0033804514 -0.025342429 0.018071614 0.08109938 -0.070152745 -0.014146408 0.047929984 0.120220095

module.fc2.weight f4 [84, 120]
00000000: 32c0 cdbd 4336 1dbb 3bd9 a6bc c441 7abc
00000010: 7bbd dfbd e4d2 6fbc 32df f9bc 74d7 9d3d
00000020: 6ca7 bf3d 70e0 85bd 5068 393d bb47 363d
00000030: f662 92bc 3c38 083d ad8b b0bc a60e 43bd
00000040: 9a3a ac3d 1e48 893c ff8b 4d3c eada 573d
00000050: e3be bebd df7f a33d 2584 7d3d c2ab 9a3b
00000060: 035e ca3d 7d9c f13c 272f cb3d 7e11 f3bd
00000070: 7fda b73c f7a6 9cbd 9ad7 bb3c 79ef 823c
00000080: 1e0f 1fbd eef4 743d 382b 213d b816 1d3c
00000090: 6e90 c43d 2b1c b63d c8f4 98bd 445a aabd
000000a0: 8b77 083d 8bc4 9f3d 0f23 03bd c4a2 a53c
000000b0: 2f5a 15bd 7dbe 2cbd 2575 e0bc 6010 cc3d
000000c0: a060 f5bc 35a6 893c 5f1e 503d 9ee0 eabc
000000d0: 35cd f3bd 2444 e5bd 8578 b33d 9f1b b33d
000000e0: be53 a33d f2ed 94bd d577 cfbc c94d 35bd
000000f0: 07bb 0f3d 66de 043d 5bd4 d2bd 53ae ad3a
00000100: 9808 823d 0aac ec3d b7dd a63d c788 a53d
00000110: c519 3abc 74af f53d fa7d 1ebd 5930 c13b
00000120: 5beb 46bc 607d 8e3d b571 f43b 92c1 ad3d
00000130: 72ac a5bd 7bcf 78bd 9fdb 7ebd d047 2cbd
00000140: 6e89 56bc b4a7 b2bd 4c6e 8c3d 33c3 903c
00000150: d9c1 bbbd cea6 e33c 4e15 c43d fae2 923c
00000160: 9bb7 1a3d d61f 04bd 88bd 40bd 3c31 40bc
00000170: 8be4 abbd 45c5 0d3c b03e 05bd 7ef0 b7bd
00000180: 807e 9e3b 5e34 25bd bd56 71bd 67cb 563d
00000190: f170 25bd 4b5e 703d 1666 35bd d018 4e3d
000001a0: 0f57 dabd 62d3 25bc 969e 8abc c06d 953d
000001b0: 4a45 8a3d 8584 ebbc 6775 9bbd 7445 9f3b
000001c0: 3e34 99bc 1ea7 96bd cc1d 203d ce3e 5b3d
000001d0: 0593 113d 7601 b03d e92c 63bc 8c7e b8bd
000001e0: 495b 183e 29a2 a53d 3990 833c d665 01be
000001f0: a0f7 113e 4803 c4bd a454 a83d 9aff 93bd
00000200: 1333 023d f2a8 e1bc 5451 bdbc fb1d c13d
00000210: 5da0 3dbd 990d 413c b7e7 063d 030e 203d
00000220: c6f2 d23c ca22 80bc b080 493c 8582 3bbd
00000230: 9f98 adbd 937b 87bb b748 fcbc f9ca 69bb
00000240: d177 cc3b 2428 c7bd af3e 173e eb60 8dbd
00000250: 1bf2 b63d 8017 fd3b d8b9 a6bd 45c5 81bd
00000260: c79b 79bc 3353 c83d 8240 bb3d c159 7ebd
00000270: 009d 923d e23f 0fbe 6e7c 60bc 59ee 0abe
00000280: f045 1d3c 9426 033e 91bc e0bd 9368 ec3c
00000290: 64fd e23c 6a4b 903c 41d4 8d3c 0ae0 243d
000002a0: 524e 913a 2fad 4f3d 9101 b33c 7daa e6bd
000002b0: 90d2 ce3c 3be0 8e3d ecfa 8dbd a295 8dbd
000002c0: a640 1fbc fcf4 c6bd cf78 68bd a19f 98bd
000002d0: fb6a 453d 5a5a 92bd b49c c4bd f70c ad3c
000002e0: 51c5 68bd aebf 48bc 7487 383e e9b0 6cbd
000002f0: 62fd d73c d3bf 1a3e 4ddf 233d d83b 2f3d
00000300: 6496 2ebc 19ae 7ebd b283 9b3c 0b0d b1bb
00000310: b649 68bd 95d2 143d 0748 f0bd d493 e53a
00000320: 8a0f 70bc d781 9fbd 50a6 ccbd 602b 58bd
00000330: 3a65 933d 695c bc3d e7b2 15bc deb0 443c
00000340: b00f cdbb 870c 3f3e 6318 20bc 6d4c 02be
00000350: c32f ad3d 833c 323d 495d 86bd 99d2 bdbd
00000360: 1596 cbbd a731 7d3c 2b02 d8bd 3e4e 043e
00000370: ed54 853d e6b9 5dbd 91fb 87bd 83a7 73bd
00000380: 11db 06be 92dd 543a f853 7abd 272a aebd
00000390: da17 a43c 598b e4bd a767 123d fda9 65bc
000003a0: feef 9f3d 42e7 953c f2d9 8abd 6d8e 6c3d
000003b0: 17a8 30bd 2e3d 0f3d 8f2b 0e3d 2efe c4bd
000003c0: a9e4 4e3b fc98 8d3d cfa1 05be a57d 183d
000003d0: c194 a1bd 859b 83bd 13e4 b53d dc84 923d
000003e0: 5049 92bd a0f2 843d e7e7 5abc ade9 143d
000003f0: bf09 8dbc fd91 e1bd 7345 05bc a431 143e
-0.10046424 -0.0023988641 -0.020367255 -0.015274469 -0.109248124 -0.014637683 -0.030501936 0.0770711
0.09358105 -0.06536949 0.045265496 0.044502 -0.017869454 0.033256754 -0.021550978 -0.04762139
0.08409615 0.016758021 0.012545585 0.052699007 -0.093137525 0.07983374 0.0618936 0.004720182
0.098812126 0.029493565 0.09921103 -0.11868571 0.022443054 -0.076490335 0.022929955 0.01598333
-0.038832776 0.059803896 0.039347857 0.009587936 0.0959786 0.08892091 -0.07468563 -0.08317998
0.03331713 0.078011595 -0.032015856 0.020219214 -0.03646296 -0.04217385 -0.027399609 0.09964061
-0.029953301 0.016802887 0.050810214 -0.028671559 -0.119043745 -0.111946374 0.08763222 0.08745503
0.07974957 -0.07271947 -0.025325695 -0.044263635 0.035090473 0.03243866 -0.1029441 0.0013250805
0.063492954 0.11556251 0.081477575 0.08082729 -0.011358683 0.11996356 -0.03869436 0.005895656
-0.012141074 0.06957507 0.007459844 0.08484186 -0.08089532 -0.060744744 -0.062221166 -0.042060673
-0.013094289 -0.08723393 0.06856975 0.017671203 -0.09167833 0.0277895 0.09574376 0.017930496
0.037772756 -0.032256924 -0.04705575 -0.011730488 -0.083932005 0.00865299 -0.032530487 -0.08981417
0.0048368573 -0.040333144 -0.05892061 0.052440073 -0.040390912 0.058683675 -0.04428681 0.05031663
-0.10661136 -0.010121198 -0.016921323 0.07296324 0.06751497 -0.028749714 -0.07590752 0.0048605744
-0.018701669 -0.07356094 0.039090917 0.053526692 0.0355406 0.08594029 -0.013865688 -0.09008512
0.14878573 0.0808757 0.016059982 -0.12636504 0.14254618 -0.09570938 0.08219269 -0.072264865
0.03178699 -0.02754638 -0.02311007 0.094295464 -0.046295512 0.011783027 0.032935824 0.039075863
0.025750529 -0.015641589 0.012298748 -0.04577877 -0.08476376 -0.0041346042 -0.030796392 -0.003567396
0.006239869 -0.09724453 0.14770006 -0.06903251 0.08932897 0.0077237487 -0.08140916 -0.06336454
-0.015234894 0.09781494 0.09143163 -0.062097315 0.071588516 -0.13989213 -0.013701541 -0.13567485
0.009599194 0.12807685 -0.10973466 0.028858459 0.027708717 0.017614085 0.017313125 0.040252723
0.0011085963 0.05070227 0.021851333 -0.11262987 0.025246888 0.06976362 -0.06932625 -0.06913306
-0.009720003 -0.09714696 -0.056755837 -0.07452322 0.048197728 -0.071461394 -0.09600201 0.021124346
-0.0568288 -0.012252731 0.18020421 -0.057785902 0.02636594 0.15112238 0.040007878 0.04278168
-0.010655973 -0.06217775 0.018983696 -0.005403166 -0.05671092 0.03633364 -0.11732488 0.001751537
-0.014652142 -0.07788437 -0.09992659 -0.05277574 0.07197042 0.09197313 -0.009136892 0.012005059
-0.0062579736 0.18657123 -0.009771439 -0.12724467 0.084563754 0.04351474 -0.065607615 -0.09268684
-0.09940735 0.015453733 -0.105472885 0.12920472 0.06510339 -0.054132365 -0.06639779 -0.059485923
-0.13169505 0.0008120175 -0.061115235 -0.08504134 0.020030905 -0.11159391 0.03574338 -0.014017579
0.07809447 0.018298749 -0.06779851 0.057753015 -0.043129053 0.034970455 0.03470951 -0.096187934
0.0031569398 0.06913945 -0.13050006 0.0372292 -0.07889701 -0.06426147 0.08881392 0.07154247
-0.071428895 0.064915895 -0.013360954 0.036355663 -0.017216561 -0.11014173 -0.008134234 0.14472061

module.fc2.bias f4 [84]
00000000: 90af f3bd 24a6 62bd 27ba 8f3e 00cb 14bd
00000010: f20d 11bd 561e 8c3e 97c1 ebbc 346c b9bd
00000020: 25a9 edb9 d28a 4e3e a09b dd3e 7985 e53b
00000030: 346e a4bd 535f 50bc 10d6 0abc 3a4b c1bd
00000040: 4c90 793d 23df b13e fe0a c83d c2ec f0bc
00000050: 7050 40bd e39b 08bc 17a8 593e b4b8 a93d
00000060: 21df 433d a435 25bd 4deb 533e ba30 453d
00000070: 99e3 df3c ab44 d63d c475 09bd 1a06 b2bc
00000080: 71ac babd 4dfb 89be 439e 7fbe ba97 abbd
00000090: 7e47 093e 3851 3a3e 036d d23c 65b6 a1bd
000000a0: b5cf 843d 05e4 923d 9d1d 9d3e 7fe6 b8bd
000000b0: ea6a 7d3d eb29 f73d a990 77bd 80f2 58bc
000000c0: bc0b 8dbd d92b 39bd 5daa 623e 774a d13c
000000d0: 52a1 433e 0f12 c33d f9b0 9c3d 9815 c2bd
000000e0: 987e 923e 2f3d c73d 036e 033e c147 84bd
000000f0: abe9 f5bd ab2a 38be 2509 933d 783d cdbd
00000100: 8f37 54bd 27b3 68bb de98 a7bd 266d db3c
00000110: 6264 8abd 09c1 803d f9df 3e3d d3cf bc3d
00000120: 33d6 85bd 5ac1 203e 7031 a0bc 588d 99bd
00000130: 5ce0 0f3e 8d47 4d3e 1393 84bb 4b0e 863d
00000140: b025 713d f763 983c 0a7c bd3e 5340 a3bc
-0.1189872 -0.055334225 0.2807171 -0.03632641 -0.03541369 0.27366894 -0.028778834 -0.09053841
-0.00045330185 0.20170143 0.43282795 0.0070044366 -0.08028832 -0.01271804 -0.008473888 -0.094381765
0.060928628 0.34740552 0.097677216 -0.02940977 -0.04695171 -0.008337948 0.21255527 0.082871825
0.047820214 -0.04033436 0.20695229 0.048142172 0.027330207 0.10462316 -0.033559576 -0.021731425
-0.09114922 -0.2694954 -0.24962716 -0.08378549 0.13406178 0.18195045 0.025686746 -0.07896117
0.064849295 0.071723975 0.30686656 -0.09028339 0.06186954 0.12068542 -0.060440693 -0.01324141
-0.06887004 -0.045207832 0.22135301 0.025548203 0.19104508 0.09524929 0.07650942 -0.09476775
0.28612208 0.09728467 0.12834935 -0.064589985 -0.12007459 -0.17985027 0.071794786 -0.1002149
-0.051810797 -0.0035507174 -0.08183454 0.026785444 -0.06757428 0.062868185 0.046600316 0.09219327
-0.06534996 0.15698758 -0.019554824 -0.07497662 0.1405043 0.20046826 -0.004045853 0.06545695
0.058873832 0.018602354 0.37008697 -0.019928133

module.fc3.weight f4 [10, 84]
00000000: c0ff 1abd eb5e 2b3e bb85 a3be a08e 7abd
00000010: 02bf bdbc 8011 8a3c 85a8 0dbe e315 e1bd
00000020: 5b90 2b3d 2360 593d d641 4cbe a792 253d
00000030: 887f 50be 40c1 df3d 7efb bb3d adfe c7bd
00000040: ce2e 453e 8944 8a3d ff0b 72be c329 943d
00000050: 56a9 643d 10a8 673d 9b4c bdbb 88ff 053e
00000060: 7456 ed3c cc73 393d 6ead a73d 3885 443e
00000070: 5bdc 863d 5a29 463e 8df4 c33d 8d5c f4bd
00000080: 11bc 3f3e d243 143e 6b55 ad3d 063b 77bd
00000090: 51a5 e73d 2452 053e 7a94 89bd 61bc 7fbd
000000a0: 7fb1 2b3c 7701 933e 4d07 0a3d 31a8 60bc
000000b0: d752 34be 72fa b6bd b3b5 adbd ada3 aebb
000000c0: cf55 1c3d df46 d3bd 6457 06be 93e9 ad3d
000000d0: 4e8d 7d3e 99a3 89bd 3102 8fbd 1335 e8bc
000000e0: 1b46 6ebe 56c1 433e ed60 4cbe f712 b3bc
000000f0: 2775 cbbc 4132 603d 0667 303d 7628 6a3d
00000100: b4d3 9ebd 6fd4 10bd 09b1 17be d61c 6abd
00000110: efb9 233d 226f 25bb 7944 ccbc 8ac9 0c3d
00000120: a01a cebd dadc 93bd fc57 d83d 90f4 2f3d
00000130: 0eaf acbd 99e8 6dbe 7045 013c eb91 173e
00000140: fb26 5bbd f6e7 03bc 7d4f a33e 71a4 a3bd
00000150: 6794 123e 3cf8 9f3d 41df b7be 2120 163d
00000160: f046 ffbb 1758 2e3c 6619 293e 052e c03d
00000170: 7519 823d 907f a63d 42d5 0abe 8f5f 4e3e
00000180: 8238 483e c93f f63c 0797 1e3e 5c62 0dbe
00000190: 2c2c 48be 8b10 3cbe edc1 dcbd 3e03 f83e
000001a0: 8fd7 163e 01f3 2c3e 9956 44be 9bac efbd
000001b0: ffd4 f5bd fedf 4f3e 3cbd 78be 90e4 31be
000001c0: eb7e d33c 5b2f 50bd e060 23bc f8de a5bc
000001d0: 9fbc 46bd 136d 653e c81d b83e ecee 723d
000001e0: 1e15 04be f2ed 62bd 17ca 163d 0f8b b23c
000001f0: 762b 023d ff62 10be 6783 c3bd 4c1a c03d
00000200: 86dc 85bd 94de f93c a21c efbd f8b3 153e
00000210: 19cd 6c3c b51b 3e3c 80e5 3abe 2baf 743d
00000220: 001b 693d 86f7 12be 890f 123b d97c 7abd
00000230: d68f 49be bc33 b7bd 0ebc 01be ee52 03be
00000240: c27b bf3d 01d7 b23b f111 d23d 0460 193e
00000250: 908d 593e 3fd4 38bd c4af 0b3e 4919 88bc
00000260: 65f6 c4bd 1b3f 81bd 96d7 933d 2915 0d3d
00000270: 15db e53d 386d 3bbe c0c4 9a3d 363e 21be
00000280: b3c0 2bbd e3d5 4fbd c91f adbd 12e9 36be
00000290: fdb8 0ebe b6d0 8c3d 01ac b3bd 79bf 4b3d
000002a0: 7028 c63d 534c 3e3d cd7c 463e 2c80 0fbe
000002b0: 8bcc 9fbd b387 31be 3caf cbbd 296f d33d
000002c0: a706 59bd f987 2cbd 6101 523e b11f 993c
000002d0: 2ff0 3fbd ccd8 64bd 8a17 1c3d ee84 5cbe
000002e0: aabe f23d d812 a73e 178a a73d 710b 50be
000002f0: dcb0 9abd 082d 5dbe e708 fd3d 0d4c 0c3e
00000300: fd21 a2bb 0aed 3cbe 4d80 283e 3c28 c0bd
00000310: 54dd 0cbd 7e1f 2abd 1380 ffbc 2f4d b1bd
00000320: 2651 53bd ed6b 28be 96f5 cbbd 82fa 5abd
00000330: 4507 703d 48d1 d13d 9fc0 9bbd 519d b7bc
00000340: bbf1 3bbb fe14 21bd fe17 8a3d 77a0 dbbd
00000350: 3009 643e 8de4 3ebe 5766 2e3d 44e5 2abe
00000360: 3c16 9cbb f693 47bd babd c73d 3bf9 e33d
00000370: edf5 0d3e 96f3 013d 3837 263e 2de6 85bc
00000380: 1916 243d ad0e 5e3e 37a6 c4bb 64f7 c73c
00000390: 874c e1bb 5d3b 803e b3f6 973d 93b9 343d
000003a0: 862f 37bd fc57 d63d 0666 2abd 1f3a 00be
000003b0: 84ad 29be f6eb c1bc a5d3 37bd af21 933e
000003c0: df91 1cbe 9c2e c03c dada 013d 12d2 193d
000003d0: 9f11 123e 1c3d 293c f1a7 7dbc 4d5d 3e3e
000003e0: cc35 823d 9d8a a73d 0f86 933c 7fbd eb3d
000003f0: 9507 f9bd 03ae 71bc 49e3 473e dd16 a93d
-0.03784156 0.16735427 -0.31937966 -0.061171174 -0.023162369 0.016854048 -0.13833816 -0.10990503
0.041885715 0.0530702 -0.1994699 0.04042306 -0.2036115 0.109255314 0.09178828 -0.097653724
0.19256136 0.06751353 -0.23637389 0.07234528 0.055825554 0.05655676 -0.0057769543 0.13085759
0.028971888 0.045276448 0.08187376 0.19191444 0.06584998 0.19351712 0.09568129 -0.11931715
0.18724085 0.14478996 0.08463558 -0.060359024 0.113108285 0.13019615 -0.06717773 -0.06243551
0.01047933 0.28712055 0.03369837 -0.013711975 -0.17609726 -0.089344874 -0.08481922 -0.0053295703
0.03816777 -0.10316252 -0.13119274 0.08491816 0.24760935 -0.06720657 -0.0698284 -0.02834562
-0.2326893 0.1911672 -0.19958849 -0.02185963 -0.024836136 0.054735426 0.043067 0.057167493
-0.07755223 -0.035358842 -0.14813627 -0.057156406 0.039972242 -0.0025243242 -0.024934994 0.03437189
-0.10063672 -0.072198585 0.10563657 0.042957842 -0.084318265 -0.2323326 0.00789009 0.14801757
-0.05350397 -0.008050909 0.31896582 -0.07990349 0.14314424 0.07811019 -0.35912517 0.036651734
-0.007790439 0.010641119 0.16513595 0.093837775 0.06352512 0.08129799 -0.13557914 0.2015364
0.19552806 0.030059712 0.154873 -0.13807052 -0.195481 -0.18365686 -0.10779176 0.48439974
0.14730667 0.16889574 -0.1917366 -0.11702844 -0.120035164 0.2030029 -0.24290937 -0.17372346
0.025817355 -0.05082641 -0.009971827 -0.020247921 -0.048519727 0.2240489 0.3596022 0.059309885
-0.1289868 -0.055402704 0.03681382 0.021794824 0.03177973 -0.14100264 -0.095465474 0.09380016
-0.06536202 0.030501641 -0.11675383 0.14619434 0.014453196 0.011603286 -0.1825161 0.059737366
0.056910515 -0.14352235 0.0022287092 -0.06115422 -0.19683775 -0.089454144 -0.12669393 -0.12824604
0.09349777 0.0054577594 0.10257328 0.14978033 0.21245408 -0.04512429 0.13641268 -0.01661362
-0.096173085 -0.063108645 0.07218854 0.034444008 0.11223427 -0.18303382 0.07557058 -0.15746388
-0.04193182 -0.050741088 -0.08453328 -0.17862347 -0.13937755 0.06875746 -0.087730415 0.04974315
0.096756816 0.046459507 0.19383545 -0.14013737 -0.07802685 -0.17336921 -0.09945533 0.103239365
-0.05298486 -0.04212186 0.20508339 0.01869187 -0.046859916 -0.055870816 0.038108386 -0.21535084
0.118527725 0.32631564 0.081806354 -0.20316865 -0.075532645 -0.2159921 0.123552136 0.13700886
-0.0049478994 -0.18449798 0.16455193 -0.09382674 -0.034390762 -0.04153394 -0.031189 -0.086573
-0.05159106 -0.1644742 -0.09958951 -0.05346156 0.058600683 0.10244995 -0.07605099 -0.022413881
-0.0028678018 -0.03932666 0.067428574 -0.107239656 0.2226913 -0.18641873 0.042578068 -0.1668902
-0.0047633927 -0.04872509 0.09752984 0.11131521 0.13863344 0.031726442 0.16232002 -0.016345108
0.040060136 0.21685286 -0.0060012597 0.024409957 -0.006875578 0.2504529 0.07420101 0.04412229
-0.044723056 0.104660004 -0.041601203 -0.12522171 -0.16570097 -0.023672085 -0.044879574 0.28736636
-0.1529002 0.023459725 0.031702854 0.037553854 0.14264534 0.010329511 -0.015481935 0.18590279
0.06357917 0.08180735 0.01800826 0.11510753 -0.12159649 -0.01475096 0.19520296 0.08256314

module.fc3.bias f4 [10]
00000000: 0c55 afbd d99f 0cbf 5c97 413e 688b 633e
00000010: 0ff8 d33e 0fd2 8bbe e4c8 c43d e5d2 e9be
00000020: bb47 003f ec6c d6be
-0.08561143 -0.5493141 0.18905395 0.22221148 0.4140019 -0.273087 0.09608629 -0.45668712
0.5010945 -0.41879976
