models/classifier_net_epoch_1_10000.pth (torch_old, 249853 bytes, 10 tensors)

module.conv1.weight f4 [6, 3, 5, 5]
00000000: 0196 5f3e 5f59 c23d 4743 3d3e ae82 fb3e
00000010: c62f 8c3e a5d9 a73e 7a38 c6bd 3512 283d
00000020: 95b3 fe3e b899 a63e fd0a a33e e60e 97bb
00000030: 66cf d6be b584 b23e 4bc9 403e a109 563d
00000040: e672 3bbe d4b2 c8be eb6c d2bd f896 2abe
00000050: 190c 93bc 57c1 36be 1229 b3be 66b3 cabd
00000060: 12a1 75be 457a 883c 50ff b3be a261 e9be
00000070: e33f 1dbe e403 b0be 7a2f 983e 3195 dfbe
00000080: f3df 0fbf 209e a13b 638c c33c 52a0 9e3e
00000090: c69f 26be b85e 1ebf e8be 5d3e 3ba8 073e
000000a0: c956 6a3e 9fb6 163d ef93 ffbe 1537 af3d
000000b0: ef6a 11be f473 023f 536e 323b a01a 39bd
000000c0: 56eb 8f3e a54d 3539 774f 54bc d663 39be
000000d0: c487 38be 60e9 803d 7487 20be c79e 963e
000000e0: 8d01 80be 9310 91be 2c4e 733e ef2e e9bd
000000f0: 5a96 b03e 874b d5bd 3ffc bdbe fe3a 673e
00000100: da68 b83c 0a12 a03e 7322 173e e40b 8bbe
00000110: 5cc9 063e d55b b3bc fda8 e03e 633a c03d
00000120: 7134 90bd 893a 263e acd2 733d 20c2 553c
00000130: 73e6 193e f65b 09bd 2845 2cbc 459a d3bd
00000140: 6302 cebc 1b8a 293e 9abb edbc fe6d 21bd
00000150: 50be 16bd d49d 46bd 2bf4 3dbe 026c 81be
00000160: e53b 00be c40b 32be b2bb 64be 298a b2be
00000170: 599f 9abe d337 03be aedf 06be 79d3 1abe
00000180: b7cd 9d3d fe22 e63c f347 6b3e 17ff 8b3e
00000190: 9004 edbd b0c0 e53d cbd0 10bc 6ead b5bc
000001a0: c274 b4bd 64a4 b93d 6f92 453e 1fcd c8bd
000001b0: 69dc 28bd f606 d3bd 0437 283e ad41 0bbd
000001c0: 3d0e 29be 97be 47be ac86 dcbd e2b0 78bd
000001d0: 4de6 51be 9fc5 75be 1a02 0fbe 993a fbbd
000001e0: af0f 513d 5381 63bd 1258 263d e58b 2d3e
000001f0: 647a 813e ad3e 123d 952c 253e 4904 ae3c
00000200: 8d55 333e 3345 1abd 4234 073e 0911 533e
00000210: 8ecd 483e 512d 263d 7285 cfbd abe5 f93d
00000220: e450 9f3d 0b85 62bd 43e9 63be 95a2 26be
00000230: d5ab 52bc 2903 8abe 2887 59be 4724 4bbe
00000240: 89ef 1fbd a4ed 43bc ef31 fcbc d4cc 7d3e
00000250: f705 063e 225a 083e 6823 f2bd 2ec8 2ebe
00000260: 09b4 4dbe 68cf 15be 0e30 fabd 08bd aabc
00000270: 50c5 583e 46fe bd3d f427 eb3d 9d7d 013d
00000280: f42c debd 2fa8 413c ede4 023e d6f8 c83c
00000290: 1799 223d b81a b5be be34 8cbe d525 74be
000002a0: 5b75 9fbe efee 85be f74f d3bd 3b6f 47be
000002b0: e2ef 0abe f50c f7bd e02e 52bd 30bd 72be
000002c0: 4a48 83be 098d a6bd 440f f1bd b1cb eabd
000002d0: 3647 6f3e 4e7f 8b3e 3ddb b03e 5b84 7c3e
000002e0: 21d0 933e afec 8d3d fb0e c33c ecce 6e3d
000002f0: 6963 673d b598 1d3e 8375 8cbe dc51 ccbe
00000300: 85fc 8abe 0027 7abe 6d0e 0cbe 1e19 bbbd
00000310: 3ae4 3abe 8b9a 05be 976a 9b3c 4ad4 a03d
00000320: 2cb4 d6bd 403a 7f3d 844e 3a3d 164e e1bc
00000330: fb75 02bd 2204 ad3e 5498 6d3e 0789 dd3e
00000340: 262a ec3e 1283 c23e 7e93 2e3e 9f41 5a3e
00000350: 036e 173e ef0a 853e 6fb0 473e 392b 8fbc
00000360: 39e7 deb8 ec2c 03be 327d 89bd 5a82 403d
00000370: 4994 133e a5a4 c33d c963 2b3d 33a2 453e
00000380: c641 303e e724 a53d d8b7 9e3d a6d9 f2bd
00000390: 9bf7 f53d 21e8 7f3d dd3e 943d 3dc4 3bbe
000003a0: 70c1 0cbe 40e9 d03d c5d5 0f3e 0116 503c
000003b0: abc4 29be 6af4 32be 5cd0 483e a713 0c3d
000003c0: 70db 44be 5cba 8bbe 8e98 85bd 80fd 993d
000003d0: 7543 4a3e 6e58 33bd fac4 95be 8635 e7bc
000003e0: 5c5c 3e3e c089 53bb fbac b93c eda8 cebd
000003f0: b922 48be ebd2 c83d b773 993d 45e1 29bd
0.21834566 0.094897024 0.18482696 0.49123138 0.27380198 0.32783237 -0.09678741 0.04103299
0.49746385 0.32539153 0.3184432 -0.0046099303 -0.41955107 0.34866872 0.18826787 0.052255277
-0.18305549 -0.39198935 -0.10274681 -0.16659153 -0.017950105 -0.17847191 -0.34992272 -0.09897499
-0.23987225 0.016659865 -0.35155725 -0.455823 -0.15356402 -0.34377968 0.29723722 -0.43668512
-0.56201094 0.00493218 0.023870653 0.3098169 -0.16271886 -0.6186328 0.21654856 0.13247769
0.22884668 0.036795255 -0.49917552 0.08555428 -0.14200948 0.5095818 0.0027226403 -0.045191407
0.28109235 0.0001729043 -0.012958399 -0.1810449 -0.1802054 0.06294513 -0.15676671 0.29418012
-0.25001183 -0.28332958 0.23760289 -0.11385905 0.3448971 -0.10414796 -0.3710651 0.22581097
0.022510935 0.31263763 0.14759235 -0.2715751 0.1316275 -0.021894375 0.43878928 0.093861364
-0.070412524 0.16233267 0.059527084 0.013046771 0.15029316 -0.033534966 -0.010514535 -0.10332159
-0.025147622 0.1655659 -0.02902012 -0.039411537 -0.03680259 -0.04849036 -0.18550174 -0.25277716
-0.12522848 -0.173873 -0.22337225 -0.34871033 -0.30199698 -0.12814264 -0.13171265 -0.15119733
0.077052526 0.028092857 0.22976665 0.27343056 -0.11573136 0.11218393 -0.008838843 -0.022177424
-0.08811332 0.09064558 0.19294141 -0.09804749 -0.041225825 -0.10304062 0.16427237 -0.03399818
-0.16509338 -0.19506298 -0.10767874 -0.060715564 -0.20498009 -0.24001168 -0.13965645 -0.12267036
0.051040348 -0.055543255 0.040611334 0.16947897 0.2528869 0.035704304 0.16130288 0.021242278
0.17513104 -0.03766365 0.13203529 0.20611967 0.19609663 0.04057056 -0.101328745 0.12202009
0.077791005 -0.05530266 -0.22256951 -0.16272958 -0.012858351 -0.26955536 -0.21242964 -0.19838057
-0.039046798 -0.011958513 -0.030785529 0.24785167 0.13088213 0.13315633 -0.118231595 -0.1706855
-0.20088209 -0.146299 -0.12216197 -0.02084209 0.21169019 0.092770144 0.1148223 0.031613935
-0.10848418 0.011819883 0.12782641 0.024532717 0.03969678 -0.35371947 -0.2738399 -0.23842557
-0.31144223 -0.26158854 -0.103179865 -0.19476025 -0.1356807 -0.12063018 -0.051314235 -0.23704982
-0.2564109 -0.08132369 -0.1177049 -0.11464632 0.23367009 0.27245563 0.34542266 0.24659865
0.28869727 0.069299094 0.023810854 0.058302805 0.05649129 0.15390284 -0.27433404 -0.39906204
-0.27145782 -0.2442894 -0.13677378 -0.0913565 -0.18251124 -0.13047235 0.018971724 0.07852991
-0.10483584 0.06231141 0.045485035 -0.027503055 -0.031850796 0.33792216 0.2320264 0.43268606
0.46125907 0.37990624 0.17048451 0.21314095 0.1478806 0.25984904 0.19500898 -0.017476665
-0.000106288535 -0.12810105 -0.06713332 0.046999313 0.14412035 0.09552888 0.04184321 0.19300155
0.1721259 0.08063679 0.07749909 -0.118579194 0.120101176 0.062477235 0.07238553 -0.18336578
-0.13745666 0.10200739 0.1404639 0.012700559 -0.16578929 -0.17476049 0.19610733 0.03419843
-0.19224334 -0.27290618 -0.06523238 0.075190544 0.19752295 -0.043785505 -0.29251844 -0.028223764
0.1858992 -0.003227815 0.022665491 -0.10090814 -0.19544496 0.098058544 0.07492774 -0.0414746

module.conv1.bias f4 [6]
00000000: 2fd9 44be 8703 0bbf 34f7 163d 27ce 41be
00000010: 8abd 7cbe 0f08 3bbd
-0.19223474 -0.5430226 0.036856845 -0.18926297 -0.24681678 -0.045661982

module.conv2.weight f4 [16, 6, 5, 5]
00000000: cd79 973e a3c2 9b3d cb3c b03e f47f 7f3c
00000010: adba 8cbd f998 653e 945f 20be fe9b 5e3e
00000020: 8dd2 843e 8a0d 79bd d1e2 043e ff2e dcbd
00000030: 93e2 8dbd b208 463e 2dd6 bbbc 5563 1d3c
00000040: 05c4 623d e345 2b3c d5d4 dc3d c84b f93c
00000050: f778 21bd 7854 f2bd e4bf 0fbe a272 a8bd
00000060: 7ed7 813c 7876 6dbd 1411 333d e0ac a7bc
00000070: 93ea 6fbc 7551 5ebd 104a 05be 5816 4f3d
00000080: af2f 1cbd 1b76 9cbc dcc3 fbbc a1f2 25be
00000090: 2692 2f3c aabf 613d 15cc 303d c148 533d
000000a0: e403 24be 125e 72bd cdca a23b 67d6 653c
000000b0: d4f8 473d 9724 19be c35a 12bd 3ff2 06be
000000c0: 521e c0bc ad03 bc3d f892 58bb 8bd4 5b3c
000000d0: eea0 c33d e638 943d 34eb a33d 7268 fabd
000000e0: 51c8 3c3c f11f acbc 8f2c ee3c 0543 11bd
000000f0: 38ee 25be ea2a bbbd c7a2 55bd ac65 7fbd
00000100: e1c6 b7bd 4c77 2cbe 12a5 753c 8656 a83d
00000110: b4d1 3d3c b46b 733d 9be9 5cbe 0ccd a8bd
00000120: f5a8 89bd 7ebf 28bc 3f43 a6bd 9eda 703e
00000130: cc5a c83d 1242 d13c 4d12 a63e 4946 09bc
00000140: 122b ee3d fe10 a0bc fcf2 8dbd 43cf 333e
00000150: 26d9 153e a28d 3cbd e452 b33c 2aa0 63bd
00000160: 7ea2 403c 9bb6 373e 6f92 23be 76e6 643d
00000170: 8e9c b8bd 1363 b6bd 70d8 a73d 4432 56be
00000180: 5d9d b7bc ab71 a8bd ac3e 7fbd 6a4b b5bd
00000190: c831 7fbd 1d1e e0bd 7c08 d7bd 4a2a c43c
000001a0: 7d25 cb3c 8a5d c0bd b95f 2bbd 9250 d8bd
000001b0: ab49 8fbd 4de0 4fbd 8b0d 05bc dff7 96bd
000001c0: 4a82 143d af73 3abd abd6 6d3c df8b 15bc
000001d0: 8449 84bb dcac f43c bc85 86bd 17dc 033d
000001e0: dbfe 7e3c 3b62 423d aeb4 d83c 7ae9 103d
000001f0: e18b eb3d 4d2d 7dbc 02fa acbd d29b 1abe
00000200: d278 65bd 84b0 39bc b52d 0f3c 4ff3 b43b
00000210: bb86 b2bd 9dda 0dbd d772 883d 2700 523d
00000220: 9d88 a33d 5949 babd 7e3d 0abe b1f1 8f3d
00000230: 1887 66bc e6b5 d13d 50e6 56bd d7c9 8fbd
00000240: 4599 68bd 5b88 033d fa73 a23d 52a0 2cbd
00000250: 64fc 88bd c7f5 eabd 2119 47be 2e70 36bd
00000260: ac5c 59bd bb15 d8bc e4ad e3bc fecf 1d3e
00000270: e948 003d 41e3 36be e8e8 75bd 41a0 a63d
00000280: 7a00 9b3e be2c 803d 8a99 afbd f714 86bd
00000290: a5b8 8c3c 7f3d 4e3e 96ef b73e 97e1 003e
000002a0: b171 c93c 3c1d a13c 0f4e 70be 1884 fb3d
000002b0: 9a17 193e 7b44 443e 4b40 e43d e1b1 03be
000002c0: 5013 39be abdb eabd ecb2 fcbd 6955 35be
000002d0: ac94 123d 082c f2bd aa4c 39be 1488 c7bd
000002e0: 591a 6fbd 9210 27bd 3de0 b43d 1d3a 03be
000002f0: 0e11 e3bd 2be0 88bc 2d9f da3d 4a38 a73d
00000300: d982 5a3c b9a7 06be 1b81 f1bc 4e20 10bd
00000310: 3f48 313e 2e38 8e3e 138a 923e dc86 343e
00000320: 2c76 693d 9a5b 9c3d b152 1b3d 746f 193d
00000330: f49c ea3d 0c5f 5abb bc45 763d 8eef 913d
00000340: b53b fb3c 212c c93d ea50 b8bc 0299 fc3d
00000350: 4ab8 c23d 47f1 e3bc a5fc b4bd 9336 87be
00000360: 0853 0d3d fcaf 3f3e 32b4 083e 1347 e6bd
00000370: 7b4c 5abe 3312 43be 17a7 6e3d 2c0a 833d
00000380: c9ef fb3d 0526 cfbc 47a6 b7bd 7b9d 0bbe
00000390: ae53 66bd f5a1 c53c a721 943d e38d 343d
000003a0: 1f67 613d 3983 e4bc 998b 6cbd 8985 8f3d
000003b0: 1e1a 243e 405f 8e3c 05fe 9abb 45a4 ecbd
000003c0: 7d78 18be 35cf 7e3a a1ca 2f3e 9409 033e
000003d0: dfb5 103e a9c4 73be 32d9 93be 31f9 04be
000003e0: 9400 50bd 8d29 b3bc 4594 e1bd 60a4 92bd
000003f0: b79b 07be 071a b1bd 3acb 82bc ca6b acbd
0.29585114 0.076054834 0.3442138 0.015594471 -0.06871543 0.22421636 -0.1566146 0.21739194
0.25941887 -0.060803927 0.12977149 -0.10751151 -0.06927981 0.19339254 -0.022929275 0.009606202
0.05536272 0.010453674 0.10782782 0.030431643 -0.039422 -0.118325174 -0.14038044 -0.082249895
0.015849825 -0.05797431 0.04371746 -0.020468175 -0.014643329 -0.054276902 -0.13016534 0.050558418
-0.038131412 -0.019099286 -0.030733041 -0.16205837 0.010715997 0.055114426 0.043163378 0.051583055
-0.16017109 -0.059171744 0.0049680234 0.014028168 0.048821285 -0.14955364 -0.03573109 -0.13178347
-0.023451958 0.091803886 -0.0033046585 0.013417373 0.09552179 0.07237415 0.08003846 -0.122269526
0.0115223685 -0.021011325 0.029073982 -0.035464305 -0.16204154 -0.091390446 -0.05215719 -0.06235282
-0.0897348 -0.16842383 0.014992969 0.08219628 0.011585642 0.059428886 -0.21573488 -0.082422346
-0.06721679 -0.010299562 -0.08118295 0.23520896 0.09782943 0.0255442 0.32435837 -0.008378574
0.11629309 -0.019539353 -0.06931111 0.17559533 0.14633617 -0.04603351 0.021890111 -0.055572666
0.011757491 0.17940752 -0.15973829 0.055883847 -0.090142354 -0.08905616 0.08195579 -0.20917612
-0.022413904 -0.082248054 -0.062315628 -0.08852275 -0.062303334 -0.10943244 -0.10499665 0.023945946
0.02479815 -0.09392841 -0.041839335 -0.105622426 -0.06996473 -0.05075102 -0.008120905 -0.073714964
0.036257066 -0.04552048 0.014516513 -0.009127586 -0.004037084 0.029867582 -0.065684766 0.032192316
0.015563692 0.04745696 0.026453342 0.03537891 0.11501289 -0.015452695 -0.08446123 -0.15098503
-0.056023426 -0.0113335885 0.008738925 0.0055221687 -0.08717104 -0.034632314 0.06662529 0.051269677
0.07985041 -0.09096021 -0.1350002 0.07028521 -0.014070295 0.102397725 -0.052465737 -0.0702092
-0.056786794 0.03211246 0.07932277 -0.04214508 -0.06688765 -0.114726596 -0.1944318 -0.044540577
-0.053066894 -0.02637755 -0.027792878 0.15411374 0.031319533 -0.17860128 -0.06003657 0.08136035
0.302738 0.06258534 -0.08574207 -0.065469675 0.01717789 0.20140646 0.35924977 0.12586056
0.024590345 0.01966726 -0.23467277 0.12281054 0.1495041 0.19166748 0.111450754 -0.12860824
-0.18073773 -0.114676796 -0.12338814 -0.17708363 0.035786316 -0.118248045 -0.18095651 -0.09742752
-0.058374736 -0.040787287 0.088318326 -0.12815137 -0.11087237 -0.016708454 0.106748916 0.08165033
0.013336861 -0.13149919 -0.029480508 -0.03518706 0.17312716 0.27777237 0.28620967 0.1762957
0.056997463 0.07634659 0.037920658 0.037459806 0.11455718 -0.0033320813 0.060125098 0.071257696
0.030668119 0.0982287 -0.02249952 0.123338714 0.095078066 -0.027825011 -0.088372506 -0.26408824
0.034503013 0.18719476 0.13349989 -0.11244025 -0.21318237 -0.19049911 0.058264818 0.063984245
0.12301595 -0.025286684 -0.08967262 -0.13634293 -0.056232147 0.024125079 0.07232981 0.044080626
0.055029985 -0.027894603 -0.05775032 0.07007892 0.16025588 0.017379403 -0.0047299885 -0.115547694
-0.14889713 0.00097202073 0.1716714 0.12796623 0.14131878 -0.23805489 -0.28876644 -0.12985684
-0.0507818 -0.021870399 -0.11014608 -0.07160258 -0.13242994 -0.086475424 -0.015966047 -0.08418997

module.conv2.bias f4 [16]
00000000: 3e9f b43d b214 1ebf 26fb 0ebf b0c4 b6bc
00000010: b185 cf3e 65a8 b9bd 2e6f f83d 82a1 b63e
00000020: b3f6 41be 577d 9fbc 8a15 7cbe 9822 183f
00000030: a46e f43d 89e5 4ebe 581b 9abd fbdf ef3e
0.088194355 -0.6175033 -0.5585197 -0.022310585 0.40531686 -0.09065322 0.12130581 0.35670096
-0.18941765 -0.019468946 -0.24617592 0.59427786 0.119351655 -0.20204748 -0.07524747 0.4685057

module.fc1.weight f4 [120, 400]
00000000: 152b b3bc bb82 67bd b093 a2bd 77cf eb3b
00000010: ab97 87bd c97c 0b3d 5d05 cbba e3a2 813c
00000020: 4884 61bc d7bd 93bc ba4b 60bc 7437 a73c
00000030: 6a39 a4bc 7248 1f3c bc2f d83c 60a7 893c
00000040: 58d2 243d 62db eabc ff5a 0d3d 876d 4dbc
00000050: 9099 af3c 6213 113d 1918 a3bc 4f2b b03c
00000060: e63e 933d de64 8a3d 8335 603b b974 d83c
00000070: 9764 30bd 0975 d6bc 7d0b 5f3d e9ad ba3c
00000080: 505a ba3c 0a88 3f3d db6c 85bc cf84 993d
00000090: f856 903c 1a3c 0d3c 456b 873c 17d1 0b3d
000000a0: a14b 15bd 71b9 31bd fc61 63bd 3267 27bd
000000b0: abf6 c7bc 8a88 03be 1436 80bd 64aa bcbd
000000c0: 2616 4ebd 99f7 ffbc 0d1d 733d 99e8 08bd
000000d0: 81dc 41bd e524 413c 0b0b 92bd 09af 4d3d
000000e0: 411a 09bd 7ffa 30bb 2d8f d9bc 120c e4bc
000000f0: aaeb 963a dca3 863a 373c b33a 68bd cbbc
00000100: 3f72 873b b1df 563d fcc1 60bd 3568 2fbd
00000110: 05e7 11bc 0212 0f3d 0750 9fbd 7c32 9d3b
00000120: dc1a 7cbd 0313 01bd 3ce8 b93b 70ab 30bd
00000130: 8a9b 2d3c 2531 e7bc 8501 8e3b 0d22 23bd
00000140: 58fd 983c d3fd 26bd bf25 013d ff0a 6c3d
00000150: d410 bc3d 26a3 a9bc 586e 863b bba2 f63c
00000160: d69a 743c d521 973d db25 313c d6c6 07bd
00000170: 5cbf bcbc 6fde 06bb 8784 0b3d 33c6 c53c
00000180: 63d0 c53c 735e 783c 7794 843c e2db 703d
00000190: 94d1 7f3d 5af4 4d3d 0849 833c f5a0 5f3d
000001a0: 0db8 423d 7f59 843d a359 313d 4a00 9dbc
000001b0: 109d 003b 939e dbba 1704 ea3c 933b 8d3c
000001c0: 7e6c 3c3d 2005 033d 65a3 31bd a706 063d
000001d0: df49 a13b a8d1 373d 6fef e33b ed3c f93b
000001e0: 305d ab3c b3bb fcbb 5461 2a3d 5bb5 b6bc
000001f0: 9151 253c fccd 89bc 1ffe 47bd 938d dd3c
00000200: 894a a43c c010 96bd bfc9 40bd 5723 f5bb
00000210: efa6 92bc 7527 0bbc 0c26 49bd 2b83 363d
00000220: 83f4 8a3d 476e 1dbd abc8 b6bc e585 30bd
00000230: 38ae 05bd a094 99bc ddf6 243d 8fd8 753c
00000240: 262f 013d 9b3f a1bd e41e 54bd 26e0 a4bc
00000250: 1914 bebc 0ad3 e7bc a859 c63c b7f5 87bc
00000260: 00dc 20bd fcd9 fabc 8749 753c 97b7 25bb
00000270: 94b2 8fbd af34 aa3c 76dc 263c 6223 0d3d
00000280: 56c3 653c bcc4 50bd d0a5 52bd eef8 8dbc
00000290: d0b5 de3b 64e6 f5bc e96b dabc 54f5 ecbc
000002a0: 175f 20bd 2dca abbc 23de 9bbc 650e 9d38
000002b0: 52f8 0fbd 8232 083c 93cb a03c 1cd2 723d
000002c0: ba39 313c e8de b73c edad a83d 91c2 843d
000002d0: 1c8e 093d 7b65 843d 8568 b33d 343c 803d
000002e0: eab6 b13d 6bc7 d43a a43d 29bc bc27 aabc
000002f0: a7f2 76ba 8833 c33d 7c0c 04bd 581b 283d
00000300: ae06 e93c 90d0 393d 4224 443d 2915 623d
00000310: 6022 67bc 5a43 4ebb 521d 483d 0986 113d
00000320: 68c3 1ebd 3353 053c ce3a 43bd 943f 55bd
00000330: 368f 93bc e60c 09bd 7e65 19bd 34c6 143d
00000340: 73a3 c3bc 7f4f 823d 2b66 263d 765f c6bb
00000350: a3a0 523c 9563 fdbc e9c6 743d 50eb 8dbd
00000360: 61ae d3bc a8c6 44bc 021b 33bd bee3 523d
00000370: 785b 89bd c6ff 463c 97f4 4ebd 1270 1abd
00000380: dce5 a7bc 031f c7bc 5038 b6bd 5e23 0fbd
00000390: 9dc7 2ebd 21f8 28bd 146f 5f3d ba68 f63c
000003a0: 9df0 0ebd 68c1 b23c b06c a4bd b03e ac3d
000003b0: baad 913c 33fe af3c 8a9b d43c e747 27bd
000003c0: 69d9 883d 2591 b53d 5286 2e3d 79f4 083d
000003d0: be29 95bc 32dc 5e3d 8ca7 e13c bb9e a53d
000003e0: 10b8 ab3d 1249 61bd 19df 9ebb 9156 c8bc
000003f0: 6192 173c c884 f5bc 5dc1 893c d236 1fbc
-0.021871129 -0.05652116 -0.079383254 0.0071963626 -0.06620725 0.03405455 -0.0015489269 0.01582474
-0.013764448 -0.018034859 -0.01368993 0.020412184 -0.020046908 0.009721862 0.026389949 0.016803443
0.040239662 -0.028669063 0.03451061 -0.01253832 0.021435529 0.035418876 -0.019908952 0.021505026
0.07189731 0.0675752 0.0034211583 0.026422845 -0.04306468 -0.026178854 0.054454315 0.022788005
0.022748142 0.046760596 -0.016287258 0.07496034 0.017619595 0.008620286 0.016530642 0.03413495
-0.03644908 -0.04338974 -0.055513367 -0.0408699 -0.024409613 -0.12845054 -0.062603146 -0.09212187
-0.05031409 -0.031245993 0.059353877 -0.033424947 -0.04732943 0.0117885815 -0.071310125 0.050215755
-0.033472303 -0.0027004776 -0.02655753 -0.027837787 0.0011514325 0.0010272223 0.0013674562 -0.02487059
0.0041334922 0.052459422 -0.054872498 -0.04282399 -0.008905177 0.034929283 -0.07778936 0.004797278
-0.061549053 -0.03151227 0.0056734364 -0.043132246 0.010596165 -0.028221676 0.0043336772 -0.039827395
0.018675491 -0.04076941 0.031530138 0.057627674 0.09182897 -0.020707678 0.0041025095 0.030106893
0.014929494 0.073795 0.010812248 -0.03314861 -0.023040466 -0.0020579358 0.034061935 0.02414236
0.024147218 0.015159237 0.016184075 0.058803447 0.06245573 0.05028186 0.016026035 0.05459686
0.047538806 0.064623825 0.043298375 -0.019165177 0.0019624867 -0.0016755633 0.028566403 0.017240321
0.046001904 0.03198731 -0.043368716 0.032721188 0.004922136 0.04487768 0.006956033 0.00760614
0.020918459 -0.007712805 0.041596726 -0.022303274 0.010090248 -0.016821854 -0.048826333 0.027045047
0.020055072 -0.073274136 -0.0470674 -0.0074810195 -0.017901866 -0.008493294 -0.04910855 0.044558685
0.06784918 -0.038435247 -0.022312483 -0.04309644 -0.03263685 -0.018747628 0.04027449 0.015005245
0.031539105 -0.0787346 -0.051787272 -0.020126414 -0.023202943 -0.028298873 0.024212673 -0.016596658
-0.03927231 -0.030621521 0.014971144 -0.002528643 -0.07016483 0.020777075 0.010184398 0.03445757
0.0140236225 -0.05096887 -0.051427662 -0.017330613 0.006796576 -0.030017085 -0.026662784 -0.028925575
-0.039153185 -0.020970428 -0.019026821 7.4890246e-05 -0.035148926 0.008312823 0.019628322 0.059282407
0.010816986 0.022445157 0.08236299 0.06482423 0.03358279 0.06464668 0.0876017 0.06261483
0.08677466 0.0016233748 -0.010329638 -0.0207709 -0.0009420313 0.09531313 -0.03223847 0.041041702
0.028445568 0.045364916 0.04788614 0.05519596 -0.014107317 -0.003147325 0.048856087 0.035528217
-0.038760573 0.008137512 -0.047663502 -0.052062586 -0.018012624 -0.033459567 -0.037450306 0.036321834
-0.02388165 0.06362819 0.04062478 -0.0060538603 0.012855682 -0.030931273 0.059760008 -0.06929648
-0.025839986 -0.012010254 -0.04372693 0.051486723 -0.067068994 0.012145942 -0.050526228 -0.037704535
-0.020495348 -0.02430678 -0.088974595 -0.03494584 -0.042670835 -0.04125226 0.05454929 0.030079234
-0.034897435 0.021820739 -0.08028543 0.08410394 0.017783035 0.021483516 0.025953073 -0.040840056
0.06682093 0.08865575 0.042608567 0.033436272 -0.01820838 0.054409213 0.027545713 0.08086916
0.083847165 -0.055001326 -0.0048483727 -0.02445534 0.009251208 -0.029970542 0.016815836 -0.00971766

module.fc1.bias f4 [120]
00000000: b162 193e e4ff 85bd b8e9 bfbd f7a2 a8bc
00000010: 61af 21be f292 c1bd 816e 223d 261d 633d
00000020: e6e3 64bd 8732 47bc 3fb8 f83b 7d0c 333d
00000030: 1ed5 94bd 846f 77be 59c9 183d 7c46 083e
00000040: df4a 323d f087 ba3d 9e0c 6a3d c79d 8d3c
00000050: 5481 133d d71f ef3c 0d88 3ebd c5c1 12bc
00000060: 02cf 99bd 9e71 1ebd acdf 38bd 2731 d03d
00000070: c774 4a3e 29c0 723d d0e9 99bc bd4a bcbc
00000080: 50fd de3c 5b60 dcbd 4aa7 233c f075 233e
00000090: f398 c73d 5db5 c23c a4f6 353d 8c33 203e
000000a0: a0be a33d 8a0c c33d a96d edbd 987a ad3d
000000b0: 4696 123e 0e33 693e 52b7 953c ed92 da3d
000000c0: 21e8 e93c f691 a03d 3aa0 4c3e fb82 38bd
000000d0: 3c5c 9e3d 512c 0abd 7233 db3d 3c4f 5fbc
000000e0: 5284 a6bd a897 92bb 91f3 303d ab72 1f3d
000000f0: fa28 7a3e 304b 12bd 6c92 da3d 26a0 413d
00000100: 387f 313c 1526 3dbd ab82 2ebe de74 2dbe
00000110: 4c8b 3d3d a189 6f3d ccbd ca3d 29de 6cbd
00000120: 1fda a5bc 9a68 12bd b5aa 8bbb 26bb 56bd
00000130: 7102 393d 6ad7 cf3d f991 6e3d 1b69 18bd
00000140: 7c9f 66bd 6db3 3a3d 7a51 c93b 8e25 923d
00000150: 8cc4 ce3d 839a 8c3e bbed bd3d 5064 22bd
00000160: 5e29 67be beb4 193e 5638 d1bc 54b1 c63d
00000170: 2a39 363d 3d17 6f3c 9430 80bd 5df5 243e
00000180: abff 063d 7354 df3d f7be c93d 327f aabc
00000190: 4d4d 34bd 9c04 85bd 3a90 b3bc 2d39 b5bc
000001a0: 2444 163e fe8b 3dbe 29e5 36bd 16eb 6cbd
000001b0: af0f 7bbd cad6 ef3d 3913 e7bc e48d 4bbd
000001c0: a5ed 383c 665b f9bc e880 a53c 8236 a63d
000001d0: 60cb 97bd e2ef 63bc 4bc9 4f3d 2bb9 083e
0.14979054 -0.06542948 -0.0937075 -0.02058552 -0.15789558 -0.09451856 0.039656166 0.05544772
-0.055881403 -0.012158043 0.007590323 0.04371308 -0.072672114 -0.24163634 0.037301395 0.13308138
0.043528434 0.09107959 0.05714094 0.017287148 0.03601201 0.029189987 -0.046516467 -0.008957331
-0.07510187 -0.038682573 -0.045135185 0.10165625 0.1977111 0.05926529 -0.018788248 -0.022984857
0.027220398 -0.10760566 0.009988615 0.15962958 0.097459696 0.023768121 0.044424668 0.15644664
0.07995343 0.09523876 -0.11593182 0.084706485 0.14315137 0.22773382 0.01827589 0.10672555
0.02855307 0.0784034 0.19982997 -0.045046788 0.07732436 -0.03373367 0.10703172 -0.013629731
-0.08130707 -0.0044736452 0.043201033 0.038927715 0.24429694 -0.035716236 0.10672459 0.04727187
0.010833554 -0.046178896 -0.17042033 -0.16939113 0.046275422 0.058480863 0.09899482 -0.057829056
-0.02024561 -0.035744287 -0.004262293 -0.052424572 0.045168344 0.10148509 0.05824468 -0.03720961
-0.05630444 0.04558127 0.006143746 0.07136069 0.10096082 0.27461633 0.09273859 -0.039646447
-0.22574374 0.15010354 -0.025539558 0.097017914 0.04448811 0.014592943 -0.062592655 0.16109224
0.032958668 0.10904779 0.09850877 -0.020812605 -0.044019032 -0.0649502 -0.021919359 -0.02212199
0.14674431 -0.18510434 -0.044652138 -0.057841383 -0.061294254 0.1171089 -0.028207408 -0.049695864
0.011287128 -0.03043909 0.020203069 0.08115865 -0.074118376 -0.013912173 0.050729077 0.13351886

module.fc2.weight f4 [84, 120]
00000000: c6a6 d8bd f3c4 18bb 3bc6 c7ba 4e99 96bc
00000010: c4bf debd 249f 043b 3596 f6bc d04f a63d
00000020: fa8d b43d 0e90 7ebd 2e77 1e3d 2c05 513d
00000030: 9b4d 16bd 0c6b f53c fb60 d6bc bcf0 25bd
00000040: 5eb2 ac3d 40e3 543c 7770 703c e35b 8a3d
00000050: f768 bbbd 8867 923d 2f68 743d a797 923b
00000060: 91dd d33d 546f fd3c af11 cc3d 6acd f2bd
00000070: e8b0 c83c 2595 98bd 577c bc3c 0f3c 823c
00000080: afa6 3abd e818 2b3d 4f40 153d e96e a43b
00000090: e1a4 c73d 72e9 b23d c2f3 97bd 43df aabd
000000a0: 326d 0c3d de91 983d 52fc 05bd 65e9 833c
000000b0: e92a 05bd 3356 49bd a81e 36bd 6319 ea3d
000000c0: 5e95 e2bc 3ab6 8f3c 15f9 453d 59f2 03bd
000000d0: d3ac 04be 9adc ebbd 08f2 a83d 8d7b b43d
000000e0: c328 a33d f633 a1bd ecc6 dfbc 75ec 72bd
000000f0: da38 e83c 6fad df3c e866 d1bd 9763 99bc
00000100: 82d7 7d3d 165b f33d f9b2 ae3d 2bf1 933d
00000110: acf3 c2bc dcc2 e03d 7526 47bd c36b 703c
00000120: 4016 17bc 8bce 8a3d 485d ac3c 8cee ac3d
00000130: f34b a2bd d6b6 71bd 7a44 6abd e0f0 2abd
00000140: f78b babc 4154 c7bd 18eb 8d3d 059b 6d3c
00000150: 574c b9bd faaf ee3c 524b d23d 4753 313c
00000160: cfbf 353d 8fd0 1bbd ac00 4dbd fc38 34bc
00000170: acb4 b2bd e8fc db3b 06f7 e2bc d831 b1bd
00000180: 107c 193b 113a 1bbd b2ad 67bd 3ef8 5e3d
00000190: 6680 20bd 9016 793d addc 34bd 7ea0 4a3d
000001a0: 3592 e0bd 373a 88bc c54b 87bc aaf6 973d
000001b0: 62fe 863d 9785 abbc e9b5 91bd 60f7 aa3b
000001c0: d697 9fbc 61fd a1bd 251b 203d 251a 473d
000001d0: 24ca 0d3d fe3c b03d bf35 9bbc bbcb b0bd
000001e0: 2478 023e 4062 a03d bb24 f83c b4f6 02be
000001f0: 1102 233e 9aac d2bd 03a4 bb3d e418 8abd
00000200: 202d 3a3d 88cc debc 1098 a0bc 246e c03d
00000210: 98b0 2cbd 55d5 153d 060a 0b3d 28f7 813d
00000220: a159 b63c 1ad6 91bb c352 a23c 11e9 ddbb
00000230: 2564 c2bd 6a2e c9bb ff9f 12bd 0f62 76bb
00000240: e6dc 513c 3f3b b5bd c351 213e b884 46bd
00000250: ca54 d93d d574 033c 9456 a6bd b583 86bd
00000260: 39b0 99bc 2677 b33d 1c00 c93d 145d 78bd
00000270: 8709 983d 401c 11be ff47 e5bc 0ad0 11be
00000280: 6456 e5bb 9a27 073e 0500 cfbd 07c4 3e3d
00000290: 1b0a e03c 40f2 bd3c 3a5d 343c ba26 8d3d
000002a0: 3737 283c bf3a 7b3d e6dd 2b3d d385 e8bd
000002b0: e8ae 113d 4229 8a3d c569 75bd 7f2c 72bd
000002c0: f769 5bbc 6a0b d2bd 4c02 84bd 17a6 8ebd
000002d0: 5b3f 543d 0036 86bd a63e b9bd bca9 7d3c
000002e0: ca4b 7dbd 02a7 b4bb 39df 573e c7d6 9cbd
000002f0: deb3 053d f3ce 133e 5cb0 3c3d af2a 633d
00000300: 67a7 3fbc d720 84bd 4292 113d 25b6 893a
00000310: 00de 58bd d886 d23c 7f61 02be 8f1d 023b
00000320: 46ec 8dbc 2f92 a3bd e93e e8bd 5fee 6abd
00000330: ab25 6f3d b523 bd3d 91b1 dabb db2c 873c
00000340: e825 3dbb 624d 3e3e ed2f c4bc ff01 05be
00000350: b143 b13d 2554 2b3d e56f 69bd 3c38 a6bd
00000360: a74e cdbd adaa 133d 5ecd dfbd dcbf 143e
00000370: 8882 7b3d b060 4dbd 4e3d 84bd 55b2 7abd
00000380: 7978 04be 4172 533c 7513 72bd 1f6d acbd
00000390: e092 ea3c ac28 ccbd 653e 1f3d bd93 87bc
000003a0: 39be a23d 5dd9 b83c 9642 85bd 4b5c 2f3d
000003b0: e744 55bd 78c6 0e3d 556b 033d 5871 c1bd
000003c0: 52fa 883b 328e 823d bdfe 15be 7957 1f3d
000003d0: 8e28 8ebd f946 e6bc e81f 803d 3889 2d3d
000003e0: f3ce 97bd be40 6e3d 5f0a 2dba 237a f43c
000003f0: 7bed 2e3c 4372 c8bd 05a8 7dbb 529b 043e
-0.105786845 -0.002331075 -0.0015241572 -0.018383648 -0.1087642 0.0020236457 -0.030100921 0.08120692
0.088161424 -0.0621491 0.038687877 0.051030323 -0.036695104 0.02995827 -0.02616929 -0.040512785
0.08432458 0.012993634 0.014675251 0.06755807 -0.0915088 0.07148653 0.05966967 0.004473645
0.10344995 0.030936874 0.099643104 -0.11855586 0.024498418 -0.07450322 0.023008509 0.015897779
-0.045569118 0.0417718 0.036438283 0.0050181043 0.09748245 0.087359324 -0.0741954 -0.08343365
0.034283824 0.07449697 -0.032711335 0.016102502 -0.032511625 -0.04915447 -0.04446283 0.114306234
-0.027659114 0.017542947 0.048333246 -0.032213543 -0.12956552 -0.11516686 0.08249289 0.08812628
0.07966759 -0.07871239 -0.027316533 -0.059307534 0.028347421 0.02730438 -0.10224706 -0.018724246
0.061973102 0.11882608 0.0853023 0.072237335 -0.023797832 0.109746665 -0.04862066 0.01467413
-0.009221613 0.06777676 0.021040574 0.08443937 -0.079246424 -0.059012257 -0.05719421 -0.041733623
-0.022771819 -0.09732867 0.06929606 0.014502292 -0.09047764 0.029136647 0.102682725 0.0108230775
0.044372376 -0.038040694 -0.05004947 -0.010999914 -0.08725867 0.0067134984 -0.02770568 -0.08652085
0.0023419894 -0.037897173 -0.056562133 0.05443596 -0.03918495 0.060812533 -0.044155765 0.049469464
-0.10965387 -0.016629322 -0.016515622 0.07420094 0.065914884 -0.020937724 -0.07114775 0.0052174777
-0.01948158 -0.07909656 0.039088387 0.048608918 0.034616604 0.08605383 -0.018946527 -0.086326085
0.12741143 0.0783124 0.030290952 -0.12789422 0.15918757 -0.102868274 0.09162142 -0.06743029
0.04545319 -0.027197137 -0.019603759 0.09396008 -0.0421606 0.036580402 0.033945106 0.063459694
0.022259535 -0.0044505717 0.019814854 -0.0067721684 -0.09491757 -0.006139566 -0.035797115 -0.0037595069
0.012809014 -0.08849191 0.15753846 -0.048466414 0.10611875 0.00802346 -0.08121982 -0.0656809
-0.018760787 0.0876296 0.09814474 -0.06063564 0.07423692 -0.14170933 -0.027988432 -0.14239517
-0.006998824 0.131987 -0.101074256 0.046573665 0.027348569 0.023186803 0.011008555 0.06892152
0.0102670705 0.06133532 0.041959666 -0.1135365 0.035567194 0.067461506 -0.059915323 -0.059124466
-0.013391963 -0.10256083 -0.064457506 -0.06965273 0.051818233 -0.065532684 -0.09045152 0.015482362
-0.061839856 -0.005513073 0.21081246 -0.07658153 0.032642238 0.14434414 0.046066627 0.055460628
-0.011697627 -0.06451576 0.035539873 0.0010506554 -0.05294609 0.025699064 -0.12732504 0.0019854044
-0.017324578 -0.07986867 -0.11340124 -0.057356235 0.058385532 0.09235326 -0.0066739996 0.016500881
-0.0028861705 0.18584207 -0.023948634 -0.12989043 0.08655489 0.041828293 -0.056991477 -0.081161946
-0.10024767 0.03605144 -0.109278426 0.14526314 0.06140378 -0.050141037 -0.064570054 -0.061205227
-0.12936582 0.012905658 -0.059100587 -0.08419251 0.028634489 -0.09968695 0.038877863 -0.01654994
0.07946438 0.022564584 -0.06506841 0.042812627 -0.052067664 0.034857243 0.03208478 -0.09445447
0.004180231 0.06374778 -0.14647956 0.03890178 -0.06941329 -0.028110014 0.06256086 0.04236719
-0.07412519 0.05816721 -0.00066009717 0.029843396 0.010676737 -0.09787419 -0.0038704884 0.12949875

module.fc2.bias f4 [84]
00000000: 53bb 00be a1dd 3cbd 700c 9c3e 38ff e5bc
00000010: 1ca4 03bd 3c46 8f3e 9269 d9bc cc75 a9bd
00000020: 5367 343b 04d0 4f3e 02b9 ed3e b6e8 cf3c
00000030: 0ef3 b0bd 298f 5abc f938 30bc 70f7 d3bd
00000040: 23bc 873d 74a2 b53e e765 c23d 2ede 8dbc
00000050: 3b5e 34bd 6947 6b3b 916a 673e f3d2 b33d
00000060: 7e66 713d a2ab 3abd 801d 5a3e 76f4 483d
00000070: 8148 fe3c 8df1 e53d 27da edbc 08d3 b9bc
00000080: bf27 babd f307 8bbe ab53 8bbe 53ef adbd
00000090: d04f 113e 4618 433e a52e cf3c 93a0 a4bd
000000a0: 01c3 863d e1bd 9d3d 617b aa3e 17eb abbd
000000b0: f8a8 9a3d a678 0c3e 0a81 73bd 5fc4 79bc
000000c0: 272d 8cbd 4746 3cbd 1c9e 813e 3571 043d
000000d0: a736 563e b619 e43d 77c7 9d3d f2bf bebd
000000e0: 4ca6 9a3e 95dd d63d d6aa 043e a793 72bd
000000f0: 0648 f6bd 1dcd 3fbe b973 9b3d 8896 dbbd
00000100: c5dc 3abd 5720 1bbb fe8c 96bd f615 073d
00000110: f6ba 89bd 408d a83d ff05 393d 66b7 af3d
00000120: 1420 62bd f1da 203e b48f c3bc 1115 98bd
00000130: 4b67 0e3e 9a75 573e ade9 a7bb f257 883d
00000140: 0c1c 8e3d 0986 ca3c f90f c63e c4e2 91bc
-0.12571459 -0.0461098 0.3047824 -0.0280758 -0.03213893 0.27983272 -0.026539598 -0.08274421
0.0027527406 0.20294195 0.46430212 0.02537952 -0.08640109 -0.013339796 -0.010755771 -0.10349929
0.06627681 0.35475504 0.094920926 -0.017317858 -0.044035178 0.0035900718 0.22599246 0.0878047
0.058935635 -0.045573838 0.21300316 0.04906126 0.031040432 0.11227713 -0.029034687 -0.022683635
-0.09089612 -0.27154502 -0.2721227 -0.08492913 0.14190602 0.19052228 0.025290797 -0.080384396
0.06580163 0.07702232 0.33297256 -0.08394449 0.075517595 0.13717899 -0.059449233 -0.015244572
-0.068445496 -0.04596546 0.2531594 0.032334525 0.20919286 0.111377165 0.077040605 -0.093139544
0.30205 0.10491482 0.12955794 -0.059222843 -0.12025456 -0.18730588 0.07590432 -0.10722071
-0.0456207 -0.00236704 -0.07351111 0.032979928 -0.06725113 0.08230066 0.045171734 0.08579902
-0.055206373 0.1570852 -0.023872234 -0.07425893 0.1390659 0.21040955 -0.005124292 0.06657399
0.06938943 0.024722116 0.3868406 -0.017808326

module.fc3.weight f4 [10, 84]
00000000: a58a 47bd e795 383e fa5a aebe a416 81bd
00000010: 8c5d f4bc deda 173d 7883 1dbe fdc9 e7bd
00000020: 0093 503d f154 813d e6b7 60be e24e 283d
00000030: 9d4e 4fbe ccdc ed3d 878f dc3d 31dc f1bd
00000040: 8df9 5c3e e9ad 483d b522 83be 2c2b c83d
00000050: 4267 3b3d dc08 bd3d 027a 81bc 1954 0c3e
00000060: a31d be3c 2ccd 123d d6f9 753d f14e 473e
00000070: 4e62 8a3d ee40 583e 21e3 bd3d d917 f0bd
00000080: 97d9 3f3e e4d5 143e 7f72 cc3d cb52 77bd
00000090: 6242 f93d 410f 093e b61a 8fbd 930c 84bd
000000a0: dd90 6b3c 7abb 9b3e a0ba 1e3d e70d 19bc
000000b0: f591 35be 0256 a9bd 7d11 a8bd 7562 2abc
000000c0: 88bf 183d b301 d5bd 45fe 11be f401 c23d
000000d0: 9e00 863e 5645 c0bd 9c03 a2bd 285c cfbc
000000e0: e547 75be 1ae5 4e3e 9487 57be ec9b 01bd
000000f0: 117b 1ebd 589d f13c 6af1 373d 7171 603d
00000100: 1848 99bd e167 0fbd 80cf 20be 3cd7 7dbd
00000110: 03f6 423d 70b9 aabb 231a b9bc f412 da3c
00000120: a0a4 bebd 7072 bbbd 5e7e e83d 714c 333d
00000130: abae d7bd e7d4 75be 59b0 413c 3f7d 153e
00000140: 4076 a3bd bb61 08bc 4a2a b83e 540d 92bd
00000150: 0263 153e 4915 ad3d 56ce bfbe 3292 dd3c
00000160: 4896 4bbb 58e1 163d 1e3d 2d3e 6a41 bb3d
00000170: 0b9a 833d e483 d33d ad73 06be 2524 623e
00000180: 9a1e 5f3e 4b87 173d 937a 123e 9848 1abe
00000190: 8200 4fbe f618 4bbe fff3 f7bd 3c8c fd3e
000001a0: 2dc0 213e 4537 2f3e af23 31be a747 febd
000001b0: 6426 02be b287 483e 96d9 64be 96c4 4dbe
000001c0: 78db d53c 6699 57bd 3665 c0bc 6647 95bc
000001d0: 76b4 63bd 18f7 733e 2729 b13e 7c51 803d
000001e0: 43af 0fbe d6a4 35bd 3f7f 173d fff6 cf3c
000001f0: 0651 1a3d ead7 19be 6f5d bfbd f36a e13d
00000200: 9ed7 46bd 5948 7f3d d236 f9bd 63a5 1d3e
00000210: 2292 5b3c 96e5 473c 6b19 43be cfba 6e3d
00000220: a910 2a3d 5bc5 06be 2fe4 fc3a fbb8 85bd
00000230: 806c 4cbe 3a3d d3bd 8e09 d9bd 66c7 e3bd
00000240: c79a fe3d 9e51 063d 3e61 dd3d 2728 0d3e
00000250: c558 4d3e 466e 35bd 180d 133e d073 ccbb
00000260: f032 d0bd 29ca 94bd 6ca2 973d 2cfb 473d
00000270: 2441 e13d a97f 3dbe 7257 a03d 6e42 21be
00000280: f194 2bbd d791 74bd 5ec2 b2bd 09eb 3bbe
00000290: 4a85 09be 5378 963d 288a 92bd 90f0 773d
000002a0: a3fc b33d 6a9e fa3c dc88 3b3e 04e0 10be
000002b0: 57eb 92bd fb30 4dbe 3f67 f0bd 436a c73d
000002c0: ab0b 7dbd b475 51bd 4740 673e b268 9b3c
000002d0: c249 2fbd 3d91 3fbd 6ad6 b83c f983 66be
000002e0: 025a 023e 27e3 a33e 5791 8f3d e333 4cbe
000002f0: e1b9 9ebd a411 53be ded7 f93d e5d0 043e
00000300: 1b61 f0bc 53da 50be 8aae 253e 9456 dfbd
00000310: dc2b 04bd 24b6 4dbd 3cf7 7fbc cbb9 a7bd
00000320: 87ae 11bd 1411 2cbe c9c6 d6bd 7953 54bd
00000330: 3431 6b3d 789f ce3d 1b02 8bbd b1e3 7cbc
00000340: da38 4dbc f654 2abd 8db0 c13d 44bc d2bd
00000350: e46e 6d3e c581 30be 1c96 323d da9f 0cbe
00000360: 1629 e3bb cc94 34bd 48be e93d f9d4 dd3d
00000370: b382 0b3e 43a2 d63c a6e7 183e cccb 8abc
00000380: 93fc 003d dfbb 543e cfb2 b0bb 5981 033d
00000390: 560a ffbc 39b5 733e 2a1b a23d e234 233d
000003a0: 8cff 6fbd 0c61 d03d ba5d 3bbd 3fc3 0dbe
000003b0: 4065 2abe e150 ab3a c279 32bd 35af 8e3e
000003c0: 1a5c 21be 8eb5 073d 1b1f cf3c 2567 383d
000003d0: 810b 1f3e 2258 abbb 8fbc 48bd fa2b 4f3e
000003e0: f77e 803d 381c af3d 19c1 87bc 070e fa3d
000003f0: 7432 eebd 8299 be3c 52eb 513e b89e 783d
-0.048716206 0.18025933 -0.34053785 -0.063031465 -0.029829763 0.037073962 -0.15382183 -0.11317823
0.05092144 0.063150294 -0.21945152 0.041090854 -0.20244832 0.11614379 0.10769563 -0.11809576
0.21579571 0.04899398 -0.25612417 0.097738594 0.04575277 0.092302054 -0.015805248 0.13703956
0.023207491 0.0358402 0.060052715 0.19463708 0.067570314 0.21118519 0.09271837 -0.117232986
0.18735348 0.14534718 0.09982776 -0.060381692 0.12170865 0.13384725 -0.069875166 -0.06447711
0.0143778 0.3041647 0.0387522 -0.0093416935 -0.1773146 -0.08268358 -0.082064606 -0.010399451
0.037292033 -0.10400715 -0.14257152 0.09473029 0.26172346 -0.09388225 -0.07910845 -0.025312498
-0.23953207 0.20204583 -0.21047813 -0.03164284 -0.038691584 0.029493973 0.044907965 0.054795686
-0.07484454 -0.035011176 -0.15704155 -0.06197284 0.047597896 -0.005210094 -0.02259547 0.026620366
-0.093087435 -0.091526866 0.11352228 0.043774072 -0.10531362 -0.24006997 0.01182183 0.14598559
-0.07981539 -0.008324082 0.35969764 -0.071314484 0.1458855 0.084513254 -0.3746211 0.02704725
-0.0031064916 0.036836 0.16917846 0.09143336 0.06425866 0.103278905 -0.13130064 0.220841
0.21789017 0.03699426 0.14304571 -0.15066755 -0.20215037 -0.1983374 -0.121070854 0.49521053
0.15795965 0.17110927 -0.17298768 -0.1241601 -0.12709957 0.19583014 -0.22348627 -0.20094523
0.026105627 -0.052636527 -0.023485761 -0.018222522 -0.055592023 0.23824728 0.3460171 0.06265542
-0.14031701 -0.044346653 0.036986586 0.025386332 0.037674926 -0.15023771 -0.09343993 0.11006727
-0.048545472 0.062324855 -0.12168659 0.15395121 0.01340154 0.012200734 -0.19052665 0.058283623
0.041519795 -0.13161223 0.0019294078 -0.06529423 -0.19963264 -0.103144124 -0.105975255 -0.111220166
0.12431865 0.03279268 0.10809563 0.13784848 0.20053394 -0.044294618 0.14360464 -0.006239392
-0.101659656 -0.072651215 0.074040264 0.04882352 0.10998753 -0.1850573 0.07829179 -0.15747997
-0.04189009 -0.059709396 -0.08728479 -0.18351378 -0.13429752 0.07347169 -0.071552575 0.060532153
0.08788421 0.030593116 0.18313926 -0.14147955 -0.07173794 -0.20038216 -0.11738443 0.09737065
-0.061778706 -0.05113764 0.22583114 0.018970821 -0.04279495 -0.04676937 0.022563178 -0.22511281
0.12729648 0.3200924 0.07010143 -0.19941668 -0.07750297 -0.20612198 0.121993765 0.12970312
-0.029343178 -0.20395784 0.16179863 -0.10905185 -0.03226839 -0.05022253 -0.01562291 -0.08189734
-0.035566833 -0.1680339 -0.10487134 -0.05183742 0.05741997 0.1008901 -0.06787511 -0.015435145
-0.0125257615 -0.04158493 0.094575025 -0.10289815 0.23186833 -0.17237003 0.043600187 -0.13732854
-0.006932388 -0.044087216 0.114132464 0.10831637 0.13624077 0.02620042 0.14932117 -0.016942881
0.031490874 0.20774792 -0.0053924094 0.032105777 -0.031132858 0.237996 0.079153374 0.039845355
-0.058593318 0.1017476 -0.04574368 -0.13844012 -0.16640186 0.0013070368 -0.04357315 0.27868047
-0.1575779 0.03313213 0.025283387 0.04502024 0.15531732 -0.005229012 -0.04900795 0.2023162
0.062742166 0.08550304 -0.016571568 0.12209707 -0.11630717 0.023266558 0.20499924 0.06069824

module.fc3.bias f4 [10]
00000000: e67d babd 0bce 0fbf fe61 413e 8dd0 5f3e
00000010: 01a8 d73e f9cb 8ebe a78d ec3d 5f2e ebbe
00000020: 2c3d 013f e084 d6be
-0.091060445 -0.5617377 0.18885037 0.218569 0.42120364 -0.27889994 0.115504555 -0.45933816
0.50483966 -0.4189825
