models/classifier_net_epoch_5_2000.pth (torch_old, 249853 bytes, 10 tensors)

module.conv1.weight f4 [6, 3, 5, 5]
00000000: 56e9 743d c3e4 983e 3bbb c13e c13b 113f
00000010: c94a 673e c88d d33d a3dc 89be c273 bf3d
00000020: 83e0 603f a3d8 f13d f6f6 8f3e 3c01 7fbe
00000030: 1bc1 68bf 6710 3f3f ce9d 7f3e 1ca0 fc3d
00000040: d714 4bbc 836b 44bf 5094 0e3d d835 0bbe
00000050: 8c70 edbd c329 babd 88a3 07bf b42c aa3d
00000060: 4ddb a8be 79a6 b6bd 24d2 bfbe 1ade 13bf
00000070: 490e 32be dc1c e4be 99fa b93e b15f 20bf
00000080: 4307 31bf 478d b23e 7ddb 65be f311 2e3f
00000090: cb7e 8fbe 3abd 93bf 3e41 1a3f 67f7 0b3e
000000a0: 5922 113f 1c30 8d3e 9213 64bf 9d11 683e
000000b0: cef8 1bbe 00e7 0e3f 9776 ea3d c8b1 69be
000000c0: e7ce f83e b491 52bd e28c 8dbd 6e01 e9bc
000000d0: ec7e 41bc 94d0 5d3e bf3a 5cbe 6c66 9c3e
000000e0: f58f b6be 2c6b 77be 0efe 1d3f fb77 edbe
000000f0: da99 1c3f 1862 47be f702 4bbf 3e67 123f
00000100: b639 24be 98c0 153f f467 db3e 98b4 1bbf
00000110: dab5 223e 0122 77be 44ce e63e ac99 983e
00000120: e4e9 30be bdbf 7e3e aca0 7dbe d60b 21be
00000130: 91f1 5f3e 7421 073e 8657 073e b5bc 22bb
00000140: 3aef 4f3c f917 f93e 0f09 fc3d e2c7 d1bd
00000150: dc31 bbbd a33b 533e 71aa c4bd 33f8 04bf
00000160: 8c24 cfbe bf44 60be 3731 40be fc9d 2abf
00000170: 1293 11bf 5ca6 f5bd 9f9b 653d adf2 ffbd
00000180: f3cc c13c 9405 4c3e 7102 ef3e 7e4b 9d3e
00000190: d114 d2be 4d12 dcbc 17f0 c2bd 8f01 ccbd
000001a0: eca8 54be df9f 7a3d bcaf cb3e 97bd 43bd
000001b0: 2249 35be e32b 82be c508 c23e a725 063d
000001c0: 1a41 d0be d25f e1be 927f 2dbe 9d31 0fbd
000001d0: ab77 f0be 5025 debe e57a dabd 8730 153d
000001e0: bb98 b73c 1f4b f5bd 23c2 3a3e 480a b73e
000001f0: dd34 5a3e 5575 5fbe 8e3c 723d b6cb ec3b
00000200: 62b9 453e 857b f2bc b54f 233e 731a fe3e
00000210: d97a c83e 8f5c 843d 4d98 bebd 9fd4 d73e
00000220: a1cb 893e 21f6 2dbe d6e6 b7be f99d 08be
00000230: 3a7b bf3d 24e7 f5be 3e64 cdbe cfcb 3fbe
00000240: da05 b43d 4872 0cbc 63f7 06be 7bb9 923e
00000250: 5c3c 543e a636 eb3b 9d35 283c 8c19 a2bd
00000260: 1087 31be 0177 4ebd 9bae 9cbd fcbb ee3d
00000270: d0a8 a83e 7033 0f3e 0557 223e bc7e a23d
00000280: 7860 06be 01f1 a5bc 126c 913d 147b c9bb
00000290: 87fb 3f3d cd1a dabe a51c cdbe 89ad dcbe
000002a0: d1ef f1be 8a59 c0be 2743 30be 195b 9ebe
000002b0: ca1e 89be a74e 8bbe 3173 2fbe 2e36 89be
000002c0: 15df 94be 9c7b 4cbe 87ef 4ebe e21c 84be
000002d0: 5f4f 933e 7635 b73e 6197 d03e 6bdf 8b3e
000002e0: 2077 833e 99be 033d 2164 1d3d 4e84 e73d
000002f0: d1bb fe3d 7254 323e 8a0f 99be fc88 d5be
00000300: 1e69 9dbe 9610 81be f497 31be 52b1 5ebd
00000310: 731e 21be b336 c6bd 82ee d73c 998a 963d
00000320: 3148 40be 700f e33b 0502 93bd 32d0 04be
00000330: 6123 72be c477 bd3e f049 a23e 2dcd 053f
00000340: 7e63 023f 9b8a a83e 5f50 243e d5bb 893e
00000350: 5ac8 7e3e e89a c23e c521 7f3e 0aab bb3c
00000360: c3e4 d63d 076a 0fbc 703c 883d 84da 093e
00000370: be10 033e a91f 113e 7bdf 203e 9b80 943e
00000380: 1ae1 733e 7f7b 4c3e 3bed 8b3e 18c6 6fbe
00000390: f483 cb3c 7a2f d3bd f746 973e 7e30 5abe
000003a0: da9c cfbe 649d 143e f9ad db3d d064 763e
000003b0: 38cd abbe 06c6 aabe 9ea4 e03e 13b5 fd3c
000003c0: 5997 11be d432 fbbe 723c 0ebd f615 b73e
000003d0: 7092 f23d bce3 0cbd 0898 8dbe 9b0f 163e
000003e0: 4ec2 b83e 5b2a bfbd f99e 053e 898e b03d
000003f0: fe58 86be cb2a 0d3e 28d4 cd3d b262 233e
0.05979284 0.2986203 0.37838158 0.567318 0.22587122 0.10329777 -0.26926145 0.09348251
0.8784258 0.11808898 0.28118104 -0.24902815 -0.90919656 0.74634403 0.24962541 0.12335226
-0.012395105 -0.7672655 0.03480941 -0.13594759 -0.11593732 -0.09089997 -0.52983904 0.08309308
-0.32979813 -0.08918471 -0.37465012 -0.57760775 -0.17388262 -0.44553268 0.36324003 -0.62646013
-0.69151706 0.3487341 -0.2244701 0.6799614 -0.28026423 -1.1542122 0.602558 0.13668595
0.56693035 0.27575767 -0.8909236 0.22662969 -0.1523163 0.5582123 0.114484005 -0.22821724
0.48595354 -0.051408485 -0.06911637 -0.028443065 -0.011810046 0.21661597 -0.21506785 0.30546892
-0.35656705 -0.24161977 0.6171578 -0.463806 0.6117226 -0.19471014 -0.793014 0.57188785
-0.1603764 0.58497 0.42852747 -0.6082244 0.15889683 -0.24134065 0.45079243 0.29804742
-0.17276722 0.2487783 -0.24768323 -0.15727171 0.21869494 0.13196355 0.13216981 -0.0024831716
0.012691313 0.48651102 0.12306415 -0.10243203 -0.09140369 0.20628218 -0.096028216 -0.5194122
-0.4045757 -0.21901225 -0.18768774 -0.66647315 -0.56865036 -0.11994621 0.056056615 -0.124974586
0.023657298 0.19924003 0.4668155 0.30721658 -0.41031507 -0.026864195 -0.0951845 -0.09961235
-0.20767564 0.06118762 0.39782512 -0.04778823 -0.17703679 -0.25424108 0.37897316 0.03275075
-0.4067467 -0.44018418 -0.16943195 -0.034959424 -0.469663 -0.43387842 -0.106679715 0.036423232
0.022411695 -0.11977219 0.1823812 0.3575003 0.21309228 -0.21822102 0.05913978 0.0072264327
0.19308999 -0.029599914 0.15948375 0.49629554 0.39156225 0.06462967 -0.09306393 0.42154405
0.2691317 -0.16988422 -0.359183 -0.13341512 0.093496755 -0.4802791 -0.4011554 -0.1873009
0.087901786 -0.008572169 -0.13180308 0.28657135 0.2072615 0.0071781455 0.010266689 -0.07915029
-0.17336679 -0.05040646 -0.07650491 0.11656949 0.32941294 0.13984466 0.15853508 0.07934329
-0.13122737 -0.020256521 0.07100691 -0.0061487053 0.046870735 -0.42598572 -0.40060917 -0.43101147
-0.47253278 -0.37568313 -0.17213117 -0.30928877 -0.26781303 -0.27208444 -0.17133786 -0.26799148
-0.29076448 -0.19969028 -0.2020856 -0.25803286 0.28771493 0.35782975 0.40740493 0.27318892
0.25676823 0.03216419 0.03842557 0.11304532 0.12438167 0.17415026 -0.29894668 -0.41706073
-0.3074426 -0.25207967 -0.17343122 -0.054368325 -0.15734272 -0.09678402 0.026358847 0.07350654
-0.18777539 0.0069293305 -0.071781196 -0.12970045 -0.23646308 0.37005436 0.31697035 0.522662
0.50933063 0.32918248 0.16046284 0.26901117 0.24881116 0.3800881 0.24915226 0.022908706
0.104928516 -0.008753306 0.066521525 0.13462263 0.12799355 0.14172234 0.15710251 0.29004368
0.23816338 0.19968985 0.2732943 -0.2341541 0.024843194 -0.1031179 0.2954633 -0.21307561
-0.40549356 0.14513165 0.10726542 0.24061894 -0.33555007 -0.33354205 0.43875593 0.030970132
-0.14217891 -0.49062216 -0.034725614 0.35758942 0.11844337 -0.034396872 -0.27655053 0.1465439
0.36085743 -0.093342505 0.13048925 0.086209364 -0.2623977 0.13785855 0.10050231 0.15955618

module.conv1.bias f4 [6]
00000000: a73f 21be 654c 1dbf 82f4 f33b f29b 63be
00000010: 6047 09be 8dcb 5cbe
-0.15746938 -0.61444694 0.007444919 -0.22227457 -0.13406134 -0.21562023

module.conv2.weight f4 [16, 6, 5, 5]
00000000: 5e75 9f3e 3b6a ecbc f40a 093f 106b 7a3d
00000010: f572 2fbd 7626 3e3e c2cb 2dbe 7ebe 6a3e
00000020: d245 953e 59a1 6bbc 775c 153e 7917 03be
00000030: b62b c23c 046c 953e 9419 97bd 5e8c 74bd
00000040: ba83 f73c ce5d 3a3d 1523 2a3e 1818 fe3c
00000050: f3c1 d6bd ce30 2bbe 55d5 24be 65e0 14be
00000060: 555a 1dbd 3def 1abe 9319 0f3e 10f8 023e
00000070: 27b9 5b3c 309d f8bc 19c5 62be 5573 333c
00000080: 4287 2a3d 0ab7 7a3c 09ca 373b 901b 8bbe
00000090: 09cb 7bbc 1e08 193e 7bb3 e23d d816 f93d
000000a0: 9c47 9ebe 3607 8bbe e0f2 93bd 46c6 573d
000000b0: cdff 173d 1082 85be 0276 c1bd a1ba 00be
000000c0: 445b 87bd d888 ea3b 5cd1 26bd dce8 75bd
000000d0: 4716 0dbd 73a5 073d 4ecc 353d 04c8 74be
000000e0: fb32 05be 3d1d cbbd 0fea 7ebd 2d33 e8bd
000000f0: 1f50 bcbe 9cb7 9cbe ca3e 87be 66a6 20be
00000100: 4c7a e5bd b334 4dbe b05a 98bd faeb 39bb
00000110: 54f2 98bd 2df3 a43d 065c 47be b253 b3bd
00000120: 64ee 70bd a37d db3c 4e61 4fbd bd87 b03e
00000130: 390d 0e3d eb48 a0bc 3805 bf3e 97c0 863d
00000140: 0052 39bd 8f69 05bd 6875 e6bd 59f5 443e
00000150: 1835 593e 8c97 dfbd b15c 573d 189d 15be
00000160: a287 acbd 4c09 803e 2080 5abe 911e 143d
00000170: 3e1e dabd 1095 11be 5c49 7e3d b3eb 7dbe
00000180: c50a a7bc 58fb edbd 83b8 09be 6e38 84be
00000190: 128b ce3c 526b 02bd 550c 3ebe 4fd5 73bc
000001a0: ce83 a43c c705 88bd 4eea 88bd 3391 0dbe
000001b0: 6771 d1bd 3f35 f3bd 5256 6abd 9b3d 9fbd
000001c0: 23a2 e9bb 763c e1bc a519 37bd 2508 51bd
000001d0: 849c 68bc cbed dcbb 6bec 8d3c e915 98bb
000001e0: 454c b8bd 599f 88bc 6dea c53a 53aa ee3d
000001f0: c23b c03d ab1c cabd 730e 4fbc f691 40be
00000200: 5e65 b3bc 17da 02bc ad01 89bd 1ba4 89bd
00000210: 0645 a8bd 122d 08bb 4d4d 213d 8326 1f3d
00000220: 3392 a4bc 7ed7 4bbe 8258 2ebe 4c21 a2bd
00000230: 78eb a5bd 186e 053e b658 d8bd f288 2bbe
00000240: 25a0 34be d89e 133d d77a b43d f514 433b
00000250: f2bc 2cbd 5f5e 21be f524 15be 5568 49bd
00000260: 05ca 7c3d 3429 47bc 7a65 453d 4ce0 b1bd
00000270: 1224 b93c eb5d 26bd 0d35 ac3d 6b2e de3d
00000280: a7cc c83e 68c3 10be 8f64 4fbe fe8c 5dbc
00000290: 4150 acbc ae85 053f e698 213f fe6b 583d
000002a0: 507e 2cbe 8165 65be 0aa2 b4be e5b5 9e3c
000002b0: 4f53 b13e 40c1 733e 6fad a13d 3234 24bd
000002c0: e882 5dbe d886 f0bc 190b 14bd 914f 75bd
000002d0: 3b4c 3e3c 8a2f 4bbe 5921 71be 3db9 04be
000002e0: b74b e13d c5d0 dc3c 0e9d e5bc 9e4e a5be
000002f0: cef2 3dbe 060a 993d 7154 453e 96e9 f43d
00000300: d526 463c 65a3 11be 7979 bb3c 8c67 e53c
00000310: 2897 373e fdde 083e f878 893e 0105 2c3e
00000320: b6fd 813d 5f3c db3d 63cb 393c 8d95 88bd
00000330: e220 3f3d b9a0 453d c16d 073e 23e5 113e
00000340: 7c0c 633d 13db 79bb a7b8 17bd cd63 473e
00000350: 56cd 013e c6e2 e63c 0a48 debd 535f 0cbf
00000360: 8ade 473d 6278 b03e 3092 3f3e e8a9 9dbe
00000370: be8c 77be 6c8b 97be 6005 3d3d e2f5 203e
00000380: 537e 743e c4a3 44bd 8839 4bbe 148a a9bd
00000390: 6177 953d a396 083e 33d6 133d 47aa bbbc
000003a0: 351a f1bc aa4e ba3d eba8 14be 6dad 83bd
000003b0: 6c5c 1f3e c596 9ebc fded 79bd be51 59be
000003c0: 318c 9dbe 67fa 08be cf4c 523e 0335 3d3e
000003d0: e536 773e 8fb5 a9be 2bee ffbe 28bb babe
000003e0: 91f7 2ebe 18ec b2bd e28e f1bd ebbb aabd
000003f0: eee1 a3bd 53cb 673d f4de b53d 211d 04be
0.31144232 -0.028859248 0.5353234 0.06113726 -0.04283424 0.18569359 -0.16972259 0.2292423
0.2915483 -0.01438173 0.14586054 -0.12801923 0.023702484 0.29183972 -0.073779255 -0.059704177
0.03021418 0.045499615 0.16614945 0.031017348 -0.10486212 -0.16717836 -0.16097005 -0.14538725
-0.038416225 -0.15130325 0.139746 0.12789941 0.013410843 -0.03034839 -0.221455 0.01095279
0.0416329 0.015302429 0.0028044006 -0.27169466 -0.015368232 0.14944503 0.110693894 0.1216256
-0.3091401 -0.2715394 -0.07224059 0.052679323 0.037109185 -0.26075792 -0.09446336 -0.12571193
-0.066092044 0.0071574263 -0.040727004 -0.060036525 -0.034445073 0.03311677 0.044384293 -0.23904425
-0.13007729 -0.09917686 -0.062234934 -0.11337886 -0.36779878 -0.30608833 -0.26415092 -0.15688476
-0.11204967 -0.20039634 -0.07439172 -0.0028369413 -0.074680954 0.080541946 -0.19468698 -0.08756198
-0.058821097 0.026793307 -0.050629906 0.3447856 0.03468058 -0.01956602 0.3730867 0.06579702
-0.045244217 -0.03257137 -0.11252862 0.19234218 0.2121166 -0.10917577 0.05257863 -0.14610708
-0.084243074 0.25007093 -0.21337938 0.036161963 -0.106502995 -0.14217019 0.06208168 -0.24796943
-0.020390878 -0.11620206 -0.13449292 -0.25824302 0.025212798 -0.03184063 -0.18559392 -0.0148824
0.02008238 -0.06641727 -0.06685315 -0.1382492 -0.10226708 -0.1187539 -0.057211228 -0.07775422
-0.007129924 -0.02749465 -0.04470219 -0.051033158 -0.0141974725 -0.0067422143 0.017324647 -0.004641284
-0.08998922 -0.016677545 0.0015099772 0.116535805 0.09386398 -0.09868749 -0.012637722 -0.1880568
-0.021898922 -0.007986567 -0.06689773 -0.06720754 -0.0821629 -0.0020778817 0.03938036 0.038855087
-0.020089244 -0.19906422 -0.1702595 -0.07916507 -0.08101553 0.13030279 -0.10563795 -0.16751459
-0.17639215 0.036040157 0.08812492 0.002976713 -0.04217238 -0.15758656 -0.14564879 -0.049171764
0.0617161 -0.01215582 0.04819248 -0.08685359 0.022600207 -0.04061691 0.08408556 0.10848697
0.39218637 -0.14137042 -0.20253204 -0.013522385 -0.021034362 0.52157104 0.6312393 0.052837364
-0.1684506 -0.22402002 -0.35279876 0.019373843 0.34633872 0.23804188 0.07894408 -0.04008884
-0.21631968 -0.029361174 -0.036143396 -0.059890334 0.011614854 -0.19842353 -0.23547877 -0.12961288
0.110007696 0.026955018 -0.028028991 -0.32286543 -0.18549654 0.07472615 0.19270493 0.119586155
0.012094219 -0.14222486 0.022885071 0.028003477 0.17928755 0.13366313 0.26850104 0.16798784
0.0634722 0.10704874 0.011339995 -0.066691495 0.04666222 0.04824898 0.13225462 0.14247565
0.055431828 -0.0038124963 -0.037041333 0.19471665 0.12675986 0.028184306 -0.10853584 -0.54832953
0.048796214 0.34466845 0.1870811 -0.3079369 -0.24174783 -0.29598558 0.046147704 0.15718797
0.23876314 -0.04800774 -0.19846165 -0.082782894 0.0729816 0.13338713 0.03609295 -0.022908343
-0.029431442 0.09097035 -0.14517562 -0.06429563 0.155626 -0.019359002 -0.06101798 -0.21222588
-0.3077102 -0.13376771 0.20537113 0.18477254 0.24142034 -0.3314633 -0.49986395 -0.36470914
-0.17086627 -0.087364376 -0.11794831 -0.08336624 -0.08002077 0.05659039 0.088804156 -0.12901737

module.conv2.bias f4 [16]
00000000: a13b 653e 6a3f a5bf 724c 54bf 1b13 babd
00000010: de27 3b3f 12fd 3d3e 18c9 a33d 2c98 6c3f
00000020: 9f47 3fbe dd4a 66be b57a 32bf c273 9c3f
00000030: 87f3 a93e 4edc 01bf bc1e c63d 6004 083f
0.22386028 -1.2909977 -0.82929146 -0.09085675 0.7310771 0.1855357 0.0799734 0.92419696
-0.18679665 -0.22489496 -0.69718486 1.2222826 0.3319361 -0.50726783 0.09673831 0.53131676

module.fc1.weight f4 [120, 400]
00000000: 9254 0cbc 982e 87ba 0bce 7abd 8949 b63b
00000010: fb2a 8ebd 727b b93d 5955 363d b4bd c63c
00000020: a3d6 943c 5b0f fb3a 75a5 013d 861f 533c
00000030: b1c8 d8bc 7dc8 ef3c 38cb 203d b0ba 453d
00000040: 1668 be39 a4dc e8bd f9d1 01bc 2d19 5ebc
00000050: 6af9 b03c 5053 c63b e051 80bd bf43 82bd
00000060: 86d0 783d 4d07 c13d 6019 973c 6136 923d
00000070: ab5a 9d3d 0ab3 1e3e 264f 4c3d 4cc5 f63c
00000080: d258 273d 4719 a03d 5811 e13d 928f 323e
00000090: eebf 283c 3f92 a4bb 5916 423d 8ca0 533c
000000a0: a6a7 1cbd 9bc0 8bbd 0973 3cbe 7675 77bd
000000b0: 899e b2ba 8a75 50be 547c 76bd e588 63bd
000000c0: b215 eebd 3da4 48bc 8690 033e 4f07 8239
000000d0: 6c2c 7c3c 69df 833c b3fa febd 7cf9 d63c
000000e0: f1fd edbc 4d2d ad3c 6e77 f0ba a730 87bd
000000f0: 6a55 43bc 1c9e 133d c440 aabd 8f77 d9bd
00000100: 77ca c1bd e12e ab3d c94d b3bc e9b8 89bd
00000110: e543 9fbd dc75 84bd d090 14be 3284 58bc
00000120: aaa4 a2bd 5020 11bd 716c c4bc 496e 8ebc
00000130: 3709 c1bd aa79 16bd 1e8a afbc 390e 00bc
00000140: 794a 09bc a823 acbd f639 44bd cbe4 88bd
00000150: 3596 7a3d 411f aabd e817 acbd 26cf b9bc
00000160: e44c b6bc fee9 c73c f87b 8bbd 03d4 b0bd
00000170: fdbd 843b 6bfa 6dbd 54df 813d 772d e03d
00000180: 9355 933d 74f8 813d 7405 2c3b d56b d53d
00000190: 061a 923d fa11 d63c 6c78 c93d f04b ef3c
000001a0: fdc4 70bd 0758 123d 1516 5e3d d5f6 e73d
000001b0: 4433 c13c 1033 45bd 038a 113d 4874 913d
000001c0: c30d 043e 13e7 d53d 0ee9 d1bd 570d a93c
000001d0: 97d5 3cbc f6fd f33c cb78 14bd 08f9 3cbd
000001e0: d9cf ad3d cad6 603c 871f 36bc 89e7 e6bd
000001f0: 79a7 9cbd 3eaf 10bd be97 0fbd c40f 933d
00000200: e2ef d63c 232f e7bd 8eb2 86bd d8b0 14bc
00000210: 937f 093b e5c6 1e3c 5572 c2bd 58ff 583d
00000220: e16c 3e3d 875a 95bd 60a0 7bbd b516 0cbe
00000230: e57a b6bc 3a70 2e3c 7a33 0f3d c430 483b
00000240: b5a3 96bc 30cf 84bd 3f50 3bbd ac44 a9bc
00000250: 470d 19bd 2594 afbb 1eac 143d bbf2 7f3c
00000260: 55de 74bd d4dd 04be 4c56 1abd d32a 0c3d
00000270: e578 c2bd b2de a2bc 1023 8abd 4dd9 1ebc
00000280: 8732 bf3c ee74 b9bc c8fc 4dbd 1427 8abd
00000290: 80b3 9cbc a61f 0bbd 25ff 27bd 47d3 b4bd
000002a0: 80bc 2cbd c2c0 28bd 6c20 4dbd 65ee 30bd
000002b0: d80d 4cbd f2f6 0d3d 076b a53d e6ef 9c3d
000002c0: 34f1 2bbc da20 0e3d a73b 073e 2a34 363e
000002d0: 2008 bc3c 8d84 953d ed7d 0f3e 7dcb bb3d
000002e0: 6a8f a03d 6045 36bd ae2a e53b 8850 163c
000002f0: 013c 55ba 5386 803d 26e1 79bd 960e f83b
00000300: ee42 eabc 263f 983c 4a32 fc3c a474 d23c
00000310: e1c8 10bc d88d 1ebd 3cf9 ee3c eb60 19bd
00000320: a2e2 b4bd 2d61 c33c 1a07 ebbd bb72 22be
00000330: 5e85 86bd d882 13bd ecff d6bc 42db 7dbb
00000340: 47e0 c1bd 6b4e 943c 1d2b 213b f6f7 ef3c
00000350: 5219 353d 9d9b aebc 31a2 b43d 926a 1cbd
00000360: eacc 8fbd 6c59 02bd e2fc 1abd 328b 773d
00000370: 9a18 04be 556f cfbc 03dc b7bd 2810 acbd
00000380: 81b2 e3bd e06d 243d 3602 5dbc 54c6 46bd
00000390: 753c 12bd 1661 e8bd 2484 a73d 5f9a 5b3d
000003a0: afda c9bb 0bce 2a3d cc73 efbd 9002 f43d
000003b0: cee9 173c d9ff bb3c b840 bd3d 27af 49bd
000003c0: 3ec8 0e3e 2e9b ff3d 94de 873c c69f 893d
000003d0: 2477 5a3d 7820 0a3e 504f 30bc 82d0 053e
000003e0: aa0a 023e 2071 5bbc 2961 07bd b310 08bd
000003f0: 9b7c 88bd ab7b 04be ce0b 3dbd 4f8f 12bd
-0.008565085 -0.0010313569 -0.061231654 0.0055629653 -0.069417916 0.090567484 0.044514988 0.02426038
0.018168753 0.0019154357 0.031651933 0.012885934 -0.026462885 0.029270405 0.039256305 0.048273742
0.00036317174 -0.11370209 -0.007923597 -0.013555807 0.021603305 0.006052412 -0.062656164 -0.06360578
0.06074574 0.09425221 0.018444717 0.07139278 0.07683309 0.15497985 0.04988017 0.030123375
0.04085619 0.07817321 0.10989636 0.1743758 0.010299666 -0.0050223167 0.047384594 0.012916695
-0.03824582 -0.06823846 -0.18403257 -0.060414754 -0.001362757 -0.20357338 -0.060177162 -0.055550475
-0.11625232 -0.012246189 0.128481 0.00024800978 0.01539145 0.016097741 -0.12450161 0.02624201
-0.029051753 0.021139765 -0.001834614 -0.066010766 -0.01192222 0.036039457 -0.08313134 -0.10618507
-0.09462445 0.08358551 -0.021887677 -0.06724722 -0.07776622 -0.064677924 -0.14508367 -0.013215112
-0.079415634 -0.035431206 -0.02397749 -0.017386572 -0.09425586 -0.03673712 -0.021428164 -0.007815891
-0.008379572 -0.084052384 -0.04790684 -0.06684264 0.061178405 -0.083067425 -0.08402997 -0.022681784
-0.022253461 0.024403568 -0.068107545 -0.08634188 0.0040509687 -0.058100145 0.063414246 0.10946172
0.07194056 0.06346217 0.0026248368 0.10420958 0.0713387 0.026131619 0.09837422 0.029211015
-0.058781613 0.03572848 0.054220278 0.11326376 0.023584016 -0.0481444 0.03553201 0.07102257
0.12895875 0.104444645 -0.1024953 0.020636244 -0.011525533 0.029784184 -0.03624801 -0.046135932
0.084869094 0.013723085 -0.011115915 -0.112746306 -0.076491304 -0.035323374 -0.035056822 0.071807414
0.026237432 -0.112882875 -0.06577025 -0.009075366 0.0020980581 0.009690975 -0.09494463 0.05297789
0.046490554 -0.07292657 -0.061432242 -0.13680537 -0.022275398 0.010646874 0.0349612 0.0030546645
-0.018388608 -0.064848304 -0.045730826 -0.020662628 -0.037366178 -0.0053582364 0.036296956 0.015621836
-0.059782345 -0.12975246 -0.037679955 0.034220528 -0.09495715 -0.01988158 -0.06744969 -0.009695363
0.023339523 -0.022638764 -0.0502899 -0.06745735 -0.019128561 -0.03396573 -0.04101481 -0.088293605
-0.042171955 -0.041199453 -0.050079748 -0.0431961 -0.04981789 0.034659334 0.080770545 0.076629445
-0.010494519 0.0346993 0.1320635 0.17793337 0.022953093 0.07300673 0.1401288 0.09169672
0.07839854 -0.044499755 0.006993613 0.009174474 -0.00081342465 0.0627562 -0.061005734 0.007570098
-0.028596368 0.018584799 0.030785698 0.025690384 -0.008836956 -0.03870949 0.029171579 -0.037445944
-0.08832289 0.023850048 -0.11475964 -0.15864079 -0.065684065 -0.036013454 -0.02624508 -0.0038735424
-0.09466606 0.018103799 0.0024592348 0.029293042 0.0442136 -0.021314437 0.08819998 -0.03818757
-0.07021506 -0.03182356 -0.037838824 0.06043548 -0.1290001 -0.025321642 -0.08977511 -0.08401519
-0.11118031 0.040143847 -0.013489297 -0.048528984 -0.035702188 -0.11346643 0.08179501 0.053614017
-0.0061601023 0.041700404 -0.116920084 0.11914551 0.009272052 0.022949146 0.0924086 -0.049239304
0.13943574 0.1248077 0.016585626 0.067199275 0.053336278 0.13488948 -0.010761097 0.1306782
0.1269938 -0.01339367 -0.033051644 -0.03321905 -0.066643916 -0.129378 -0.046153836 -0.0357812

module.fc1.bias f4 [120]
00000000: a857 3e3e e751 14be 5846 19be 5dc4 3fbd
00000010: 69b1 58be 4e7e 3bbe 8ea2 6b3d 7b02 3d3d
00000020: e160 6dbd f4ac 02bc dbe5 2a3d b83b 1b3d
00000030: 50a0 0dbe 2767 b1be 9f56 9a3b c3c1 873e
00000040: ddb1 0b3d deb8 d03d f000 313e c9db 4c3d
00000050: 9617 883d 0845 e43c f3aa e8bd 9748 26bc
00000060: 4c6a afbd 4e45 8fbd ec1a b7bd 00d9 3a3e
00000070: 4871 a03e 6f34 043d 4be2 2b3c 76eb 0dbd
00000080: 3814 433d e26e 04be 51ad 6a3d af58 863e
00000090: c5c8 1a3e cf3d c73d 2b18 3a3c a328 6c3e
000000a0: 5a1b fb3d 6933 fc3d a48e 29be ea0a 183e
000000b0: 9997 553e eb27 c63e c330 fbbc b983 563e
000000c0: 7848 003d 52e2 063e 099d a03e d7ff 98bd
000000d0: 42f1 bf3d db4d 1d3d a650 343e 2ff5 9a3b
000000e0: a221 d0bd 8fe0 8e3d d173 983d d5b1 8c3d
000000f0: c860 ca3e aebc fc3c 91e1 543e dc45 3f3d
00000100: 6a0d 723d 22e3 25bd 7852 8abe 3cab a0be
00000110: 9382 223d 20de 283d bb4e 2c3e a0e1 8dbd
00000120: 52e1 54bc a272 35bc c9a1 9dbd 9627 a2bd
00000130: 7ba7 c13d f293 d53d 7320 9d3d 67ad 0dbd
00000140: 3b47 00be ef23 013e b1d3 963d 6005 d83d
00000150: 9853 c43d e7cf d03e 33aa 283e 98b5 11be
00000160: 9704 90be 643e 1f3e e802 04bd 28dd 593e
00000170: 6ec9 703d 1056 34bc 416e 14be 9b3b 903e
00000180: 22fa a73d 51e6 383e 2c8f 183e 52e8 f4bd
00000190: 882e 27bd b3f1 d9bc adeb aebc a4b4 64bc
000001a0: d41f 843e 2d20 91be b02c e6bc e3a4 c7bd
000001b0: 6236 1abe d455 673e 787b 59bd 4021 85bd
000001c0: 4f96 673d 1869 fdbc 9ae5 f13c 62b1 983d
000001d0: 9fa9 74bd 06d6 72bc 7397 c63d 316a 8c3e
0.18588126 -0.14484368 -0.1496824 -0.046818126 -0.21161427 -0.183099 0.05752807 0.046144944
-0.05795372 -0.007975806 0.041723114 0.03789875 -0.13830686 -0.34649011 0.004710033 0.26515016
0.03410517 0.101915106 0.17285514 0.05001429 0.06645124 0.027864948 -0.11360731 -0.010149143
-0.085651964 -0.06995641 -0.08940682 0.18246841 0.31336427 0.032276567 0.010490964 -0.03464838
0.047626704 -0.12932923 0.057294194 0.26239535 0.1511565 0.09728586 0.011358301 0.23062377
0.12261076 0.12314493 -0.1655832 0.14847913 0.20858611 0.3870233 -0.0306629 0.20948686
0.03131911 0.13172272 0.31369808 -0.074706726 0.09372188 0.038404327 0.1760889 0.004728935
-0.10162665 0.06976425 0.07443965 0.06869856 0.39526963 0.030851688 0.20789172 0.046697482
0.059094824 -0.040499814 -0.27016044 -0.3138064 0.039675307 0.04122746 0.16826908 -0.069278
-0.012993174 -0.011074694 -0.07696874 -0.07917707 0.094557725 0.10428609 0.07672205 -0.034589197
-0.12527172 0.12611364 0.07364596 0.105479 0.09586257 0.40783617 0.16471176 -0.14229429
-0.28128502 0.15551144 -0.032229334 0.2127577 0.05878585 -0.011006847 -0.14495184 0.28170475
0.08202006 0.18056609 0.14898366 -0.11958374 -0.04081586 -0.026604509 -0.021352613 -0.013959084
0.25805533 -0.2834486 -0.02809748 -0.097482465 -0.15059808 0.22591335 -0.053096265 -0.065004826
0.05653983 -0.030933902 0.029528428 0.07455708 -0.059732076 -0.014821535 0.096968554 0.27424768

module.fc2.weight f4 [84, 120]
00000000: a65b 39be 0fe2 7f3c 6d9b f1bc 17e5 363b
00000010: 8fed 3fbe 79e3 203d c0e6 ef3c 5af8 193e
00000020: 408c 373e d093 dbbd e412 fe3c 951a a43d
00000030: 55d4 643d e5ef 2f3d 8d3c 74bd c6b9 ebbd
00000040: 0135 f73d c9dc 1c3d 251d a23a 7115 a33d
00000050: 8a25 8abd 8986 2b3d 128b 833d c763 4d3b
00000060: 61aa 0d3e 8509 dbbc e335 293e 3920 1cbe
00000070: 53c0 a6bc cf7b debc 26f3 30ba 8e5c b93c
00000080: 9984 d9bd 64ec 45bd 4dd8 01bc 292c fdbd
00000090: a372 e43d d859 7b3d f2e7 95bd 0451 e0bd
000000a0: 843f b2bc 6eef f83d 9b13 833b 6a10 6bbc
000000b0: 7425 3dbd 10c0 d2bd c14c c6bd 4953 063e
000000c0: 72f7 d63c f9a4 37bd d396 743c 3d4a 25bd
000000d0: c5e4 2fbe 55fd 00be 50c7 cd3d a65c 683d
000000e0: 9666 df3d 1a7d 0cbd d152 f1bb ce57 e9bd
000000f0: 2635 47bd c3e8 263d d7a9 0abe 6b55 50bd
00000100: b2dc 673d fcce 443d 6941 b83c ac79 3b3d
00000110: 56fb c7bd c577 883d dbba e9bd f745 b0bd
00000120: 416d af3d 91a1 bc3d 44c7 143d 1b16 183e
00000130: 128f cdbd 735f 44bd e19f f6bd 9e38 53bd
00000140: 2511 6abd b951 2ebe 9043 76bd 5ead ecbc
00000150: 8c07 30bd 3785 71bd 79d8 103e 615f bfbc
00000160: fb16 4e3d 0e43 7cbd c1c9 cebd 00e1 bfbb
00000170: d1dd 00be 0709 ff3a f6ea 08bb 0fa5 04bd
00000180: c990 ccbc ae59 293d 956e a6bd 137a c6bc
00000190: 6686 51bd 13cb 513c 8dac 50bd c5b9 473b
000001a0: 1512 0bbe 7e68 26bd 395d bbbc 08c1 b93d
000001b0: 7738 d43d 58f1 fdba 9b0a 52bd b920 383b
000001c0: 0b63 163d eff9 bfbd 720d 2b3d a606 a53d
000001d0: 43d1 ecbc 02b5 aa3d c7c1 4cbd c014 2bbd
000001e0: 243e a83d a780 2c3e dd1c 443c 5894 59be
000001f0: b466 ae3d baa2 18be a153 253e d089 85bd
00000200: 4748 fd3c b11c cebc b211 7dbd fd92 433e
00000210: c593 5ebd 7aca 963d 2e02 3d3d 3ed1 e03d
00000220: 0c13 9b3c 4173 20bd bf41 91bc 93a8 543c
00000230: cba5 0bbe 2a10 15be bdc4 a1bd 8364 02bb
00000240: 786b c13c 9327 d1bd db35 2e3e 88ad 82bd
00000250: 7d93 333e 715b ec3c d885 c7bd 5c54 b8bd
00000260: b95f 54be 5d87 b43d ca15 0ebc 6f2f 053d
00000270: 39b6 103e 0c12 09be 0402 d0bc 9bfd 4ebe
00000280: 8256 3fbd 7d89 483e e647 31be 8ba6 1b3e
00000290: b932 8b3d 9974 cd3d dfa6 df3d 3ce2 a23c
000002a0: 16cd 583b d2e9 d43c c6b0 d33d c010 14be
000002b0: 6db7 17bc 7fb6 293d ad28 98bd 38be 1e3d
000002c0: d708 8fbd 756a 8abe 3fa9 eabd 0cff 5cbd
000002d0: 3399 e53c 064e d5bd 0e85 0dbe d765 913d
000002e0: 64eb 5bbd f233 ab3d 858f 603e b2e8 dabc
000002f0: 8d22 aa3c 0cb3 8c3e 5f03 0c3e 8722 b53d
00000300: f0c8 54bd 1920 09be beab d63c 954f 383d
00000310: 4cf0 09be 3829 0c3d ad80 88be c920 8f3c
00000320: 21c0 5bbd f3b7 8abd 7ecd 3cbe d254 71bd
00000330: 4dd9 2c3d 28d5 693c c9e8 dabc 99e6 00bd
00000340: 2282 1cbd 94e2 3a3e dd6d abbc 5cc0 1cbe
00000350: 1ec5 d23d 994c 153c b55a 5abd f2e4 dabd
00000360: ae18 edbd c3f7 963c d084 6fbe 0c3d cc3d
00000370: ac20 ec3c 7412 19be 963b 0abd 909c 00be
00000380: 5d30 1ebe ad0f bdbc a6c3 14bd d2ee 62bd
00000390: 6c89 563c cc11 82bd 894e ffbc f7c3 bc3c
000003a0: c596 cc3d 84c4 b63d 1cd5 dabc 35a7 22bc
000003b0: f0b4 a4bd 86e5 0d3d eb78 dd3c 8821 37be
000003c0: 5144 39bd 8991 ea3d 0fc4 2dbe a527 1fbc
000003d0: f2b2 9dbd 59d7 a1bd df39 9c3c c354 ba3d
000003e0: ddbc e3bd f604 c83d a458 a8bc a6c4 a43d
000003f0: 6824 553c 1bcf 47bc 4ee9 00bc d761 893d
-0.18101367 0.015617861 -0.029493058 0.0027907544 -0.18742965 0.039279435 0.029284835 0.15036145
0.17924595 -0.10721552 0.031014867 0.080128826 0.055866558 0.04295339 -0.05962806 -0.11510043
0.120706566 0.038296495 0.0012368305 0.07963074 -0.06745441 0.04187635 0.0642301 0.003133999
0.13834526 -0.026737938 0.16524462 -0.15246667 -0.02035538 -0.027158646 -0.0006750099 0.022627141
-0.10620994 -0.048321143 -0.007925105 -0.123619385 0.11154678 0.06136498 -0.07319631 -0.109529525
-0.021758802 0.121550426 0.00400014 -0.014347175 -0.046178296 -0.10290539 -0.096826084 0.13117708
0.026241038 -0.044835065 0.014928537 -0.040354002 -0.17177112 -0.12596639 0.100477815 0.05672898
0.109082386 -0.034298994 -0.007364609 -0.113937005 -0.04863467 0.040749323 -0.13541351 -0.05086271
0.056606956 0.04804896 0.022492127 0.045770332 -0.097647354 0.06663469 -0.11412593 -0.08607095
0.085657604 0.09210504 0.036322847 0.14852183 -0.10037054 -0.04794259 -0.12042213 -0.051567666
-0.057145257 -0.17023362 -0.060123026 -0.028891262 -0.042975947 -0.058964934 0.14145078 -0.02336091
0.050314885 -0.061587386 -0.10097075 -0.0058556795 -0.12584616 0.0019457646 -0.0020892 -0.032383975
-0.024971383 0.04134529 -0.081265606 -0.024228131 -0.051153563 0.012804764 -0.050945807 0.0030475718
-0.13581116 -0.040626995 -0.0228716 0.09070021 0.10362332 -0.0019374294 -0.051279645 0.0028095676
0.03671555 -0.09373843 0.04176087 0.08057909 -0.028908378 0.08335306 -0.049989488 -0.041767836
0.082149774 0.16845952 0.011969772 -0.21247995 0.08515683 -0.14905825 0.16145183 -0.06520426
0.030918254 -0.025160166 -0.061784454 0.1909904 -0.054340143 0.07362838 0.046144657 0.1097741
0.01892998 -0.039172415 -0.017731545 0.012979644 -0.13637464 -0.14556947 -0.07898853 -0.0019896335
0.023610815 -0.10212626 0.17012732 -0.06380755 0.17536731 0.028852196 -0.097423255 -0.09000465
-0.2073964 0.08814881 -0.008672187 0.03251594 0.14132012 -0.1338579 -0.025391586 -0.2021393
-0.04671336 0.19583698 -0.17312583 0.1520025 0.06796784 0.10032005 0.109205 0.019883268
0.0033081225 0.0259904 0.10336451 -0.14459515 -0.009260041 0.041433807 -0.07429633 0.038755625
-0.06984108 -0.27034345 -0.114580624 -0.05395417 0.028027153 -0.104152724 -0.13820288 0.070995025
-0.053691283 0.08359517 0.21929748 -0.026722286 0.020768428 0.27480352 0.13673161 0.08844476
-0.05194944 -0.1339115 0.02620494 0.04499777 -0.13470572 0.034218997 -0.26660672 0.017471688
-0.053650025 -0.06773367 -0.18437764 -0.05891878 0.04219942 0.014272012 -0.026722329 -0.031469915
-0.03821004 0.18250495 -0.02092641 -0.15307754 0.10291503 0.009112501 -0.05330916 -0.10688199
-0.11576973 0.018428689 -0.23390508 0.09972581 0.028824173 -0.14948446 -0.03374823 -0.12559724
-0.15448137 -0.023078764 -0.036319397 -0.055403538 0.013094287 -0.06351051 -0.031165378 0.023042662
0.099896945 0.08924201 -0.026712947 -0.009927561 -0.080423236 0.03464272 0.027035197 -0.17883885
-0.045231167 0.1145354 -0.16969322 -0.009714042 -0.07700147 -0.079024024 0.019070564 0.09098198
-0.11120007 0.09766571 -0.02055008 0.0804532 0.013009168 -0.012195374 -0.007868124 0.067081146

module.fc2.bias f4 [84]
00000000: 62e3 a4bd 10ac a43b 75b8 283f 8807 313d
00000010: 2c8f d9bc 6459 f93e 910a d83d c712 573d
00000020: 7f06 8e3c ebd9 ae3e 5f31 423f 54a5 953d
00000030: 805a e6bd 0334 bd3d 00d7 28bc 37fe 983d
00000040: f702 bb3d 0214 213f 405d 913e 0912 383d
00000050: 39d9 68bc bb06 983d a2e1 f13e 91d3 553e
00000060: a117 493e 8e3b a83d f54e 863e 8e3b 9e3e
00000070: 01bc fc3c 2511 593e d40d 15bc 91c7 f8bb
00000080: 617f a3bd 8d8d 7ebe b673 c8be 45dd d4bd
00000090: 45a5 993e 38a1 883e 2d15 203d 9b64 c8bd
000000a0: 4c08 f33d 5481 c73d 2fe2 073f 2b55 62bd
000000b0: 6262 183e acda 833e f66e 7bbd 9685 113d
000000c0: 555d 47bd 2d6e 73bc 10b0 f73e 3e00 953d
000000d0: 7119 a43e ea35 713e 4d9e 083e d9ec b0bd
000000e0: c599 193f bc56 1a3e ca2b 933e 6f05 fdbc
000000f0: 0d2e a3bd d563 cabd a84a eb3d f83a 62bd
00000100: e7bc 573d 2bc3 a93d a9cd a6bd 1831 283e
00000110: 396e 053d c343 4a3e 731e 433d 5745 0a3e
00000120: bbd4 b33c 2c15 843e 23d4 60bd be8d 98bd
00000130: 2703 2c3e 4857 9b3e aee0 473d 504b 103e
00000140: 6770 423e e4aa 283d 0011 093f f431 60bc
-0.08051182 0.0050253943 0.6590646 0.043220073 -0.026557527 0.48701012 0.105488904 0.05250814
0.017337082 0.34150633 0.75856584 0.073069245 -0.1124773 0.09238436 -0.010305166 0.07470363
0.09131425 0.62921154 0.28391457 0.044939075 -0.014211946 0.07423159 0.47242457 0.20881487
0.1963792 0.08214484 0.26232114 0.30904812 0.030851366 0.21197946 -0.009097535 -0.0075921495
-0.0798328 -0.24858685 -0.3915078 -0.10393766 0.30008903 0.266855 0.039082695 -0.09784814
0.11866817 0.09741464 0.53079504 -0.055257004 0.1488128 0.2575277 -0.061385117 0.035527788
-0.048672993 -0.014857811 0.48376513 0.07275437 0.3205066 0.23555723 0.13341637 -0.08638925
0.6000026 0.15072149 0.28744346 -0.03088638 -0.07967768 -0.09882323 0.11488849 -0.05523202
0.052670386 0.082891785 -0.08144695 0.16424978 0.03257582 0.19752412 0.04763646 0.13503014
0.021952024 0.25797403 -0.05488981 -0.0744891 0.16798078 0.30340028 0.048798256 0.1409123
0.1898819 0.0411786 0.53541565 -0.013683785

module.fc3.weight f4 [10, 84]
00000000: 3ddb 323c c571 133e a436 a0be 72cb 163d
00000010: 95c5 95bd df10 1cbd f34e 44be 8dde 97bd
00000020: cecf dc3c 950a 6f3d 5055 9dbe b008 993c
00000030: e782 99be eab8 153e 7138 543e 4435 0dbe
00000040: 1997 173e f135 203e db6d 98be 6325 eb3d
00000050: fb0a 243d a1dc 503e f916 c53d 8445 303e
00000060: 024b c43d ad6f 003e 6567 703d f4f6 113e
00000070: 7b1f 6a3d 6666 603e 2039 033e e46a fcbd
00000080: df61 4b3e ff16 853e 6db5 093e cbcd 32bd
00000090: f97b 3d3e a2a3 2c3e f410 fabc 94e1 babc
000000a0: 08be 7d3c 2801 483e 74f4 a93c ea06 99bd
000000b0: b873 1abe 3201 17be a603 e8bd 5b7c 943d
000000c0: 882b 403d bf59 21be c4a4 0cbe a395 fc3d
000000d0: 24f9 893e 0374 80bd ab80 37be c9ef 65bc
000000e0: b0c3 bdbe bca1 283e 6f90 aabe eadc 0b3e
000000f0: d8ad c4bb aa08 ed3c 5fc3 ecbd 5ffe cc3d
00000100: 8a16 39be ebad dfbc 856a 29be aa65 1bbe
00000110: dc34 693d 8cc8 9fbb c38d bd3a 4d7d 013e
00000120: e84d ddbd 66c0 a3bd f7a6 1c3e dac6 0c3e
00000130: 42a4 d6bd 48b8 b5be 50ac 083d c837 3b3e
00000140: 7075 e5bd eb70 01bd 1823 993e 08ba d6bc
00000150: 9304 473e bab9 ae3d 4ab6 cfbe b075 d43b
00000160: 2543 c9bc c1ac 7e3c 5f06 813e 2e96 c5bb
00000170: 2bc4 1e3e a53a 383e f357 c4bd 337e 4b3e
00000180: 2cb5 683e b41c b33d d1a6 5b3e 6609 b3bd
00000190: 2acc 8cbe cce2 4ebe a9c4 14be 0727 fb3e
000001a0: 78e8 5f3e 63c4 5c3e 4039 a4be d4e6 1bbe
000001b0: 30f0 3abe 46fb 203e 2b4f 5fbe d559 82be
000001c0: 11c3 b63d 7f90 60bd c1cd 093d 586e a2bb
000001d0: 85f5 e5bd 658a 523e a241 933e f6df 173e
000001e0: 0f04 0dbe 00bc 6fbd 55ee 4c3d c437 bd3c
000001f0: d945 813c 1dd1 43be 6248 c6bd 2fa4 553e
00000200: 11e9 45bd 5caa c03d 263c 35be 9151 4b3e
00000210: fe09 21bd ad64 163c da2c 2abe 13b8 bd3d
00000220: d4ed cf3c 077b 07be 2c5a 193b 9544 b4bd
00000230: 27ff 0fbe 2e01 34be ed21 90bd 7694 cbbd
00000240: cdb4 f73d 2575 3e3d d99a e93d efe9 1f3e
00000250: c572 913e d8ab 80bd 19ed 1c3e 1149 623c
00000260: ceaa e6bd 181e 86bd ac02 ee3d 6f5a b43c
00000270: 9df4 bd3d 2373 49be cd77 523d 9bd1 2abe
00000280: d491 49bd 0cc5 41bd 2e60 4ebd 131f 90be
00000290: e61b 0dbe 3b17 cb3d 92b3 c2bc 61b7 b43d
000002a0: 0e9d 6f3d 2c2f 963a 5060 543e c6cc 43be
000002b0: fcea 9dbd 9460 04be e5a4 e1bd 0bbc c23d
000002c0: 4b05 ecbd 7f8a 18be 4af6 a03e 6f93 21bd
000002d0: bfa8 a83c f84a d3bd 10aa 923d 5d64 35be
000002e0: 5dae 693e ff8a 4d3e fdc8 453e 7e37 06be
000002f0: 8549 f2bd efff 69be 5c9a 183e bca5 0c3e
00000300: 3b67 d93c a44e 0cbe 8151 673e c66a b4bd
00000310: 4366 25bd 6fb6 59bd 2ac2 843c a4e9 73bd
00000320: 5cd8 dc3b e66e f9bd 7653 36bd 1579 10bd
00000330: 6345 313c 1e26 313e 9c31 ddbd c1e8 aebc
00000340: 326d 93bd f422 f73b 0dbd 073e 0343 09be
00000350: 497a a03e ba3e 21be af87 343d c071 7abd
00000360: 4f16 c5bb 3139 46bd afce a73d c751 f63d
00000370: 8d51 3a3e 1416 da3c f6f4 f03d 8698 74bc
00000380: 04f9 30bc 43a9 503e 5994 bbbb 9f98 a13c
00000390: e342 c8bc a923 503e 15be 0c3e f2e3 d73c
000003a0: 91c8 7b3d 7077 c13d 1c1d 40bd ed9b 6cbe
000003b0: 7e52 17be f698 973b 9b34 1abd 12ab 903e
000003c0: 0f09 d8bd 6f03 af3c b734 a33d 4422 85bc
000003d0: ac62 943e 07c0 16bd 16a5 39bd 7b92 723e
000003e0: ee9b b33d af60 c53d a584 093c 9a47 683e
000003f0: 0337 eabd 47d6 c23d 19aa 383e 5788 b6bb
0.010916528 0.14398868 -0.31291687 0.036815114 -0.073130764 -0.038102027 -0.19170742 -0.07415495
0.026954558 0.0583597 -0.3072915 0.0186809 -0.29982683 0.1462132 0.20724656 -0.1378985
0.14803733 0.15645577 -0.29771313 0.1148174 0.040049534 0.20396663 0.09623522 0.17214018
0.09584619 0.12542601 0.058692355 0.14254361 0.05715893 0.21914062 0.1281476 -0.12325075
0.19861554 0.25994107 0.13448115 -0.04365329 0.18504323 0.16859296 -0.030525662 -0.022812642
0.0154872015 0.19531691 0.020746447 -0.07472022 -0.15083206 -0.1474655 -0.11328821 0.072502814
0.046916515 -0.15756892 -0.13734728 0.123332284 0.26947892 -0.062721275 -0.17920177 -0.01403422
-0.3706336 0.16467947 -0.3331332 0.13658491 -0.006002169 0.028934795 -0.115607016 0.10009455
-0.18075004 -0.02730461 -0.1654454 -0.151755 0.056935176 -0.004876202 0.0014461804 0.12645455
-0.10805875 -0.079956815 0.15298067 0.13747731 -0.104805484 -0.35492158 0.033367455 0.18282998
-0.1120404 -0.031601828 0.29909587 -0.026211753 0.19435339 0.08531518 -0.40568763 0.006483756
-0.02456815 0.015544117 0.25200173 -0.0060298657 0.1550452 0.17991121 -0.095870875 0.1987236
0.22725362 0.08745709 0.21450354 -0.08742027 -0.27499515 -0.20203704 -0.14528145 0.49053213
0.21866024 0.2155929 -0.32074928 -0.15224773 -0.18255687 0.15720853 -0.21807544 -0.2545916
0.08923925 -0.054825302 0.033643488 -0.0049570017 -0.1122847 0.20560606 0.2876101 0.14831528
-0.1377108 -0.0585289 0.05003198 0.02309788 0.015780376 -0.19122739 -0.09681775 0.20863412
-0.048317973 0.094074935 -0.17698726 0.19855334 -0.03931617 0.009179276 -0.16618672 0.09263625
0.02538196 -0.13230525 0.0023399694 -0.088021435 -0.14062177 -0.17578575 -0.07037721 -0.09940426
0.12095032 0.046498436 0.11406488 0.15616582 0.28407875 -0.062827766 0.1532482 0.013811366
-0.11263047 -0.06548709 0.11621603 0.022015778 0.09275172 -0.19672827 0.051383782 -0.1668152
-0.04921134 -0.04730706 -0.050384693 -0.28148708 -0.13780174 0.0991654 -0.023767266 0.08824039
0.05849939 0.001145815 0.20739865 -0.19121084 -0.07710835 -0.12927467 -0.11017779 0.095085226
-0.11524447 -0.14896582 0.31437904 -0.039447244 0.020588277 -0.103170335 0.07161343 -0.17714067
0.2282042 0.20072554 0.19314952 -0.13107106 -0.11830429 -0.22851537 0.14902633 0.13735098
0.026538482 -0.13701874 0.22589685 -0.08809428 -0.040380727 -0.053152498 0.016205866 -0.05954899
0.0067396592 -0.12179355 -0.04451319 -0.035271723 0.010819766 0.17299697 -0.10800478 -0.02135122
-0.07198562 0.0075420085 0.13255711 -0.13404469 0.31343296 -0.15746585 0.04407471 -0.061143637
-0.0060146223 -0.048394386 0.08193719 0.120273165 0.18195172 0.026621856 0.117654726 -0.014928943
-0.010801557 0.20377068 -0.0057244715 0.019726096 -0.024445957 0.20326103 0.13744386 0.02635381
0.061470572 0.09446609 -0.04690276 -0.23106356 -0.14777562 0.0046263887 -0.037647825 0.28255516
-0.10548603 0.021363942 0.07969039 -0.01625169 0.2898153 -0.036804225 -0.045323454 0.2368869
0.087699756 0.096375816 0.008393441 0.22683564 -0.11436274 0.095135264 0.18033637 -0.005570452

module.fc3.bias f4 [10]
00000000: 1d6a 59be 2fc2 57bf 6b64 183c e00f df3e
00000010: 0056 283f 32cf 26be 134c 1b3d 44b1 babe
00000020: 54de ee3e 114f c5be
-0.21231885 -0.84280676 0.009301285 0.435668 0.65756226 -0.16289976 0.037914347 -0.36463368
0.46653998 -0.38536885
