models/classifier_net_epoch_9_12000.pth (torch_old, 249853 bytes, 10 tensors)

module.conv1.weight f4 [6, 3, 5, 5]
0	0x3d93ba73	0.07213297
1	0x3ee424b6	0.44559258
2	0x3f06e3a9	0.5269113
3	0x3f007a43	0.50186557
4	0x3eaacc89	0.33359173
5	0x3c11c4e9	0.008897045
6	0xbee0125e	-0.43764013
7	0x3e53795d	0.20651765
8	0x3f821ae7	1.016446
9	0x3d83a523	0.06427982
10	0x3ea42528	0.32059598
11	0xbec2f69e	-0.3807878
12	0xbf9ed0a2	-1.240742
13	0x3f786347	0.97026485
14	0x3eb2103f	0.3477802
15	0x3da25055	0.07925478
16	0x3e71aeca	0.23601833
17	0xbf8269bc	-1.0188518
18	0x3dc80332	0.097662345
19	0xbcddee2d	-0.02709111
20	0xbe5c5a7e	-0.21518895
21	0x3dba08e8	0.0908373
22	0xbf24f9ae	-0.6444348
23	0x3e57c759	0.21072139
24	0xbe892a78	-0.26790214
25	0xbdffe921	-0.12495638
26	0xbee236a0	-0.441823
27	0xbf305ff7	-0.6889643
28	0xbe81228c	-0.2522167
29	0xbec8e551	-0.39237455
30	0x3edeb88c	0.43500173
31	0xbf541ec5	-0.8285945
32	0xbf3b4056	-0.73145044
33	0x3f02f7d0	0.5115938
34	0xbe9cd7c8	-0.30633378
35	0x3f6fd4ac	0.93683887
36	0xbebe9b45	-0.37227836
37	0xbfccd8d7	-1.6003674
38	0x3f536bbc	0.82586265
39	0x3e411d1a	0.18858758
40	0x3f17b2c8	0.59257174
41	0x3ef0858a	0.46976882
42	0xbf9b5732	-1.2135985
43	0x3e90f192	0.28309304
44	0xbdc77b37	-0.09740298
45	0x3edb0cb8	0.4278314
46	0x3e627ad1	0.22117163
47	0xbeb4be1c	-0.35301292
48	0x3f27282b	0.65295666
49	0xbba04ff0	-0.004892342
50	0xbdd682ee	-0.104741916
51	0xbd0bf1c5	-0.034166116
52	0xbd0604cf	-0.03271943
53	0x3e2d05c5	0.16896732
54	0xbe65be3a	-0.22435847
55	0x3ebade13	0.36497554
56	0xbf0a53ca	-0.540341
57	0xbe65e7bb	-0.2245168
58	0x3f45dba4	0.7728827
59	0xbf27ee0b	-0.655976
60	0x3f5bb4e9	0.8582292
61	0xbe795a6e	-0.24350902
62	0xbf913859	-1.1345321
63	0x3f54ba95	0.830972
64	0xbe375207	-0.17902385
65	0x3f1600cb	0.5859496
66	0x3f2ef941	0.6834908
67	0xbf58d8a1	-0.8470555
68	0x3e3b0ee8	0.18267405
69	0xbea4ae14	-0.3216406
70	0x3e740178	0.23828685
71	0x3ee44967	0.44587252
72	0xbe52a300	-0.20569992
73	0x3eb67690	0.3563733
74	0xbee87bb0	-0.45406866
75	0xbde8cdb1	-0.113673575
76	0x3eaf9898	0.34296107
77	0x3e9f3fc9	0.31103352
78	0x3e990303	0.2988511
79	0x3e341169	0.17584766
80	0xbdbd6ab2	-0.09248866
81	0x3f1e15d1	0.6175204
82	0x3e4c910e	0.19977209
83	0xbe34ce7d	-0.17656894
84	0xbde0dc88	-0.10979563
85	0x3e87a36b	0.26491866
86	0xbd0d241d	-0.03445827
87	0xbf37b675	-0.7176278
88	0xbf215379	-0.63017994
89	0xbe830fdc	-0.25598037
90	0xbe1da858	-0.1539625
91	0xbf5db0b9	-0.8659778
92	0xbf328769	-0.6973787
93	0xbd236efb	-0.03990076
94	0x3e12c412	0.14332607
95	0xbdf319cb	-0.11870154
96	0x3d88e34f	0.06683981
97	0x3ed63e23	0.41844282
98	0x3f21c2c2	0.631878
99	0x3e305878	0.17221248
100	0xbed31d49	-0.4123328
101	0xbd662c57	-0.05619463
102	0xbe06edcd	-0.13176651
103	0xbde3b8f6	-0.11119263
104	0xbe82707d	-0.25476447
105	0x3c88d1c6	0.01670159
106	0x3efd9490	0.49527407
107	0xbd3d379f	-0.046195623
108	0xbe955397	-0.29165336
109	0xbeb76d18	-0.3582542
110	0x3f000119	0.50001675
111	0x3dc109da	0.09425707
112	0xbf19f2f1	-0.60136324
113	0xbf175e19	-0.59127957
114	0xbe3b9cf7	-0.18321596
115	0x3c4ef670	0.0126319975
116	0xbf22aec9	-0.6354795
117	0xbf0a839d	-0.54107076
118	0x3d0af21e	0.033922307
119	0x3e2a3aab	0.16623943
120	0xbd6eb1cb	-0.058275025
121	0xbe2722f9	-0.16321935
122	0x3e8ab340	0.27089882
123	0x3ee0c7af	0.43902346
124	0x3d263693	0.04057939
125	0xbe91688a	-0.2840007
126	0x3d0add2a	0.033902325
127	0x3c994667	0.018710328
128	0x3e93f214	0.28895628
129	0x3d8e2eed	0.06942544
130	0x3da6e331	0.08148802
131	0x3f2416cf	0.64097303
132	0x3f054b95	0.52068454
133	0x3db86a00	0.09004593
134	0xbd9c4f09	-0.07632262
135	0x3f13340c	0.5750129
136	0x3ec991fd	0.39369193
137	0xbe83d92f	-0.25751635
138	0xbeddcc29	-0.43319824
139	0xbdf567f9	-0.11982722
140	0x3e72bd84	0.23705107
141	0xbf17b38e	-0.59258354
142	0xbee8954f	-0.45426413
143	0xbd9ed116	-0.07754724
144	0x3e2c4323	0.16822486
145	0x3d063e50	0.03277427
146	0xbdeab11f	-0.114595644
147	0x3ec42c2c	0.3831495
148	0x3e436a62	0.1908355
149	0xbe799f13	-0.24377088
150	0x3d1d9a7a	0.0384774
151	0xbd5a12c2	-0.053240545
152	0xbe14cea9	-0.1453196
153	0x3cfeaaa2	0.031087223
154	0x3d3ed644	0.04659106
155	0x3e588375	0.21143897
156	0x3eb9748b	0.36221728
157	0x3e439b76	0.19102272
158	0x3e7066a6	0.23476657
159	0x3e1d0818	0.15335119
160	0xbe019690	-0.12655091
161	0xbdc07e4a	-0.09399088
162	0xbda78e72	-0.08181466
163	0xbe04ff64	-0.12988049
164	0x3ca113de	0.019662794
165	0xbeca7183	-0.39539728
166	0xbed9f25b	-0.42567715
167	0xbf10cd70	-0.5656347
168	0xbf1bc56c	-0.60848117
169	0xbec5ffca	-0.38671714
170	0xbda70ea6	-0.08157091
171	0xbe987fa4	-0.29784882
172	0xbe9f4acd	-0.31111756
173	0xbecee5e2	-0.40409762
174	0xbe7e2334	-0.24818116
175	0xbedf4ad3	-0.43611774
176	0xbeb57734	-0.35442507
177	0xbe7b1201	-0.24518587
178	0xbe910d8b	-0.28330645
179	0xbea3dcb5	-0.32004324
180	0x3e8cce5a	0.27501184
181	0x3ed809f9	0.4219511
182	0x3f0407d8	0.5157447
183	0x3ea28808	0.3174441
184	0x3e60d49d	0.21956106
185	0xbcd502c2	-0.026002292
186	0x3cc0fe8d	0.02355888
187	0x3dab10f8	0.08352846
188	0x3d6b7a34	0.05748959
189	0x3dd8da9a	0.1058857
190	0xbea41071	-0.32043794
191	0xbedb2a82	-0.42805868
192	0xbeb33ad4	-0.3500582
193	0xbe9ea533	-0.30985412
194	0xbe6a2b28	-0.22868025
195	0xbd3f319f	-0.04667818
196	0xbe2dd78d	-0.16976757
197	0xbd828260	-0.06372523
198	0xbc85bd16	-0.016325515
199	0xbca5beb1	-0.02023253
200	0xbebcf7a3	-0.36907682
201	0xbca34790	-0.019931585
202	0xbdce6c55	-0.100792564
203	0xbe8309fc	-0.25593555
204	0xbec971cb	-0.3934463
205	0x3eb6b72e	0.3568663
206	0x3ee73323	0.45156202
207	0x3f2f0c8a	0.6837851
208	0x3f16932f	0.58818334
209	0x3e8719f3	0.26386985
210	0x3e27342d	0.16328497
211	0x3ec1c03b	0.37841973
212	0x3eb4e09c	0.35327613
213	0x3ee4505d	0.44592562
214	0x3e8eba8b	0.27876696
215	0x3dcecf23	0.10098102
216	0x3e8de3ea	0.27712947
217	0x3e37f1f0	0.17963386
218	0x3e6a1047	0.22857772
219	0x3e827aa4	0.25484192
220	0x3d8cfe1e	0.068844065
221	0x3e1feb55	0.15617116
222	0x3e7fee59	0.24993266
223	0x3eabd48b	0.33560595
224	0x3e4e998b	0.2017576
225	0x3ddc4942	0.1075616
226	0x3eb95c3c	0.36203182
227	0xbe4e0c40	-0.2012186
228	0xbd66a307	-0.05630782
229	0xbeb47cf1	-0.35251573
230	0x3ebcb010	0.36853075
231	0xbe4ef20e	-0.20209524
232	0xbf094a91	-0.53629404
233	0x3e751c56	0.2393659
234	0xbda63889	-0.08116252
235	0x3f0019e0	0.5003948
236	0xbefea272	-0.4973331
237	0xbf117619	-0.5682083
238	0x3f1f537a	0.6223675
239	0xbdfaecb5	-0.122521795
240	0x3c224781	0.009904743
241	0xbf25a57f	-0.6470565
242	0xbde16ae4	-0.11006716
243	0x3f148f07	0.5803074
244	0x3cce8275	0.025208691
245	0xbc8c011c	-0.017090373
246	0xbe23ba16	-0.15988955
247	0x3e9a5e36	0.30150002
248	0x3ed40946	0.41413325
249	0xbd94b049	-0.07260186
250	0x3e1453c6	0.14485082
251	0x3e55caf6	0.20878205
252	0xbe8bf01c	-0.27331626
253	0x3dff83d3	0.12476315
254	0x3cc7a14e	0.024368908
255	0x3e499037	0.1968392

module.conv1.bias f4 [6]
0	0xbead1615	-0.3380591
1	0xbf56acd4	-0.83857465
2	0xbcb81e5c	-0.022475414
3	0xbe8480c2	-0.25879484
4	0xbdb7ca3f	-0.08974122
5	0xbec11e50	-0.3771844

module.conv2.weight f4 [16, 6, 5, 5]
0	0x3f01692b	0.505511
1	0xbdd0b478	-0.10190672
2	0x3f198d01	0.5998078
3	0xbd647cad	-0.055782963
4	0xbe4f059a	-0.2021698
5	0x3e433f8c	0.1906721
6	0xbe1b638e	-0.15174696
7	0x3e699a77	0.2281283
8	0x3ed48169	0.41504982
9	0xbd36cc4e	-0.044628434
10	0x3e975dd9	0.29563788
11	0xbdfd8628	-0.12379104
12	0x3d6b6fc0	0.05747962
13	0x3eabd0fd	0.33557883
14	0xbe0184c0	-0.12648296
15	0xbd738a45	-0.059458036
16	0x3d6cd438	0.057819575
17	0x3d65156a	0.055928625
18	0x3e28bcbc	0.16478246
19	0x3e253865	0.16134794
20	0xbdb0fabf	-0.08641576
21	0xbdfe1259	-0.12405843
22	0xbe273f0a	-0.16332641
23	0xbe477552	-0.19478348
24	0x3c92761c	0.017878585
25	0xbdd5c1bf	-0.10437345
26	0x3e3f7e3d	0.187005
27	0x3e690295	0.22754891
28	0x3cdaa530	0.026690096
29	0xbe1ff0d5	-0.15619214
30	0xbe75da84	-0.24009138
31	0xbd738f9b	-0.059463125
32	0x3e4b45a0	0.19850779
33	0x3daaabdb	0.0833356
34	0x3cc183f0	0.023622483
35	0xbeda36e0	-0.4261999
36	0xbe2dbb7b	-0.1696605
37	0x3da6affe	0.081390366
38	0x3e310210	0.17285943
39	0x3d9c425e	0.07629846
40	0xbeba8c0e	-0.36434978
41	0xbeb2b52e	-0.34903854
42	0xbe1b20f4	-0.1514929
43	0x3dd2f40d	0.10300455
44	0x3da70cb8	0.08156723
45	0xbe89961c	-0.26872337
46	0xbdd325d6	-0.10309951
47	0xbe54626a	-0.20740667
48	0xbd9581c1	-0.07300139
49	0x3dacf805	0.084457435
50	0xbe187037	-0.14886557
51	0xbe3cdf12	-0.1844447
52	0xbd9e9fed	-0.07745347
53	0x3e052f78	0.13006389
54	0x3e35c885	0.17752273
55	0xbe5dd4e2	-0.2166324
56	0xbe384148	-0.17993653
57	0xbe258cf7	-0.16167055
58	0xbd84d671	-0.06486214
59	0xbbe4c095	-0.0069809654
60	0xbec9892f	-0.39362475
61	0xbea9549b	-0.3307236
62	0xbea26e12	-0.31724602
63	0xbe77eea6	-0.24212131
64	0xbdc6c83a	-0.09706159
65	0xbe4de3c6	-0.2010642
66	0xbe10c01a	-0.14135781
67	0xbd4cb8cf	-0.049980935
68	0xbdca0a40	-0.09865236
69	0x3e12350e	0.14278051
70	0xbdad22a0	-0.0845387
71	0xbda5a6fd	-0.08088491
72	0xbd69b4e1	-0.057057265
73	0x3ab6a2d3	0.0013934023
74	0xbda6d7a1	-0.08146597
75	0x3ef177d7	0.47161743
76	0x3b9451a8	0.0045263357
77	0x3d92731b	0.07150861
78	0x3eebe28d	0.46071282
79	0x3da5cfba	0.08096261
80	0xbd1086a5	-0.035284657
81	0x3c1baf63	0.009502265
82	0xbe265dbd	-0.16246696
83	0x3e02d350	0.12775922
84	0x3e75377c	0.23946947
85	0xbdc56fa8	-0.09640437
86	0x3e5f131f	0.21784638
87	0xbe8da413	-0.2766424
88	0xbe3bc8ca	-0.18338314
89	0x3e980583	0.29691705
90	0xbe875479	-0.26431635
91	0x3dbe9289	0.09305293
92	0xbe1e7e13	-0.15477781
93	0xbdab2379	-0.08356375
94	0x3b23b308	0.0024978537
95	0xbe669e8b	-0.22521417
96	0xbceabfbe	-0.028655883
97	0xbe038d15	-0.12846787
98	0xbe0f149e	-0.13972709
99	0xbea5691b	-0.32306752
100	0xbddafb2f	-0.10692441
101	0x3b26132f	0.0025341024
102	0xbe957ac2	-0.2919522
103	0xbce54e07	-0.027991308
104	0x3dac200d	0.08404551
105	0xbcf2b3bf	-0.029626725
106	0xbc71d251	-0.014759616
107	0xbde786e4	-0.11305025
108	0xbdeab872	-0.114609614
109	0xbe29c5c8	-0.16579354
110	0xbcbb5698	-0.02286844
111	0xbd110666	-0.035406493
112	0x3d82534f	0.06363546
113	0x3d03b78b	0.032157462
114	0xbd6e85b2	-0.05823297
115	0xbd99a993	-0.07503047
116	0xbd4393dd	-0.047748435
117	0x3d599ffd	0.053131092
118	0x3dc80790	0.097670674
119	0x3cba580a	0.022747058
120	0xbe301f1f	-0.17199372
121	0xbdcb3999	-0.09923095
122	0x3d1809b7	0.03711864
123	0x3e5ccbfd	0.2156219
124	0x3d97252b	0.07380136
125	0xbe933e3a	-0.28758413
126	0xbd27c9a1	-0.040963773
127	0xbe602277	-0.21888147
128	0x3d3562b3	0.04428358
129	0x3d30d294	0.043169573
130	0xbdb3838e	-0.087653264
131	0xbe2ca1cf	-0.168586
132	0xbe07a0d8	-0.13244951
133	0xbc151d2f	-0.009101196
134	0x3d801913	0.062547825
135	0xbcc56a25	-0.024098465
136	0xbd7bc3cb	-0.06146602
137	0xbe617522	-0.22017339
138	0xbd789397	-0.060687628
139	0xbdc78a03	-0.097431205
140	0xbe42b403	-0.19013982
141	0x3e954f75	0.29162183
142	0xbe11557d	-0.14192767
143	0xbe4a7e96	-0.19774851
144	0xbeb72f19	-0.3577812
145	0xbd4b6438	-0.049656123
146	0x3d3d2d15	0.04618557
147	0x3d498e7d	0.049208153
148	0xbd329714	-0.04360111
149	0xbe601769	-0.2188393
150	0xbdde4d7e	-0.10854624
151	0xbdcc9332	-0.09989013
152	0x3cb61dfc	0.022231095
153	0xbd1f6d7f	-0.038922783
154	0xbd0eae51	-0.03483421
155	0xbe28c2da	-0.1648058
156	0x3d151fa9	0.036407147
157	0x3cd9739d	0.026544387
158	0x3d8116ec	0.063032
159	0x3e3151ee	0.1731641
160	0x3e86fb96	0.2636382
161	0xbe54f6ff	-0.20797347
162	0xbe2276db	-0.15865652
163	0x3d160005	0.036621112
164	0xbc9cba45	-0.019131789
165	0x3f28e784	0.65978265
166	0x3f5f6b83	0.87273425
167	0xbe10a341	-0.14124776
168	0xbec8169c	-0.3907975
169	0xbe92e16b	-0.28687605
170	0xbe997079	-0.29968622
171	0x3da37b3a	0.07982488
172	0x3ed09f19	0.40746382
173	0x3e5e7848	0.21725571
174	0x3db9aeab	0.090665184
175	0xbe02942f	-0.1275184
176	0xbe6e5306	-0.23273858
177	0x3d951ab7	0.07280486
178	0xbd8c1054	-0.06839052
179	0xbbf5e9ab	-0.007504662
180	0x3738b862	1.1010185e-05
181	0xbde58224	-0.11206463
182	0xbe60ce92	-0.219538
183	0xbe0cc434	-0.1374672
184	0x3e9fb20d	0.3119053
185	0x3dcaf7e1	0.099105604
186	0xbd4c2592	-0.049840517
187	0xbef3bd52	-0.47605377
188	0xbdd54581	-0.104136474
189	0x3d9867d5	0.074416794
190	0x3eb632c7	0.35585615
191	0x3dc5580c	0.09635934
192	0xbdaa91f3	-0.08328619
193	0xbe260c61	-0.1621566
194	0xbdd1f3fe	-0.10251616
195	0xbc9c4f87	-0.01908089
196	0x3e79e897	0.24405132
197	0x3e9c23fb	0.304962
198	0x3ed4628e	0.4148144
199	0x3dbe304e	0.09286557
200	0x3e38138f	0.17976211
201	0x3e31da82	0.1736851
202	0x3d7220fe	0.059113495
203	0xbd7975b5	-0.06090327
204	0x3d23edcb	0.0400217
205	0x3d1bdb74	0.038051084
206	0x3dff7713	0.124738835
207	0x3e58c32d	0.21168204
208	0x3dd181be	0.102298245
209	0x3cc88bb6	0.024480682
210	0xbdb1cee7	-0.086820416
211	0x3e81af5f	0.2532911
212	0x3d74ed86	0.059796833
213	0x3d44f861	0.048088435
214	0xbe811758	-0.25213122
215	0xbf2b914f	-0.670186
216	0x3d6ebeef	0.058287557
217	0x3ed9d8f6	0.4254834
218	0x3e705948	0.23471558
219	0xbeeba8d7	-0.46027252
220	0xbe864bda	-0.26229745
221	0xbeea2252	-0.4572931
222	0xbd96a0a0	-0.073548555
223	0x3e30162c	0.17195958
224	0x3ebff9bc	0.3749522
225	0x3cda97c9	0.026683705
226	0xbe489abe	-0.1959028
227	0x3db73c26	0.08947019
228	0x3daba4a1	0.0838101
229	0x3e55524c	0.20832175
230	0x3e026a9a	0.12735978
231	0xbd23d6a9	-0.039999638
232	0xbd4bb690	-0.049734652
233	0x3dd5497f	0.10414409
234	0xbdfae388	-0.122504294
235	0xbe4d3959	-0.20041408
236	0x3cc686c0	0.024234176
237	0xbdca1569	-0.09867365
238	0xbd04b88b	-0.032402556
239	0xbe1fdde6	-0.15611991
240	0xbed48d1d	-0.4151391
241	0xbe970495	-0.29495683
242	0x3e346ba6	0.1761919
243	0x3e4f6f9e	0.20257422
244	0x3e9b93c6	0.3038618
245	0xbeba3eb7	-0.36375973
246	0xbf18bbd3	-0.59661597
247	0xbee2ae60	-0.44273663
248	0xbe312af3	-0.1730154
249	0xbe34fd53	-0.1767476
250	0xbe238e6a	-0.15972295
251	0xbdf4cd82	-0.1195326
252	0xbd2e7588	-0.042592555
253	0x3e2834a0	0.16426325
254	0x3e17d8f1	0.1482885
255	0xbea7b3a2	-0.32754236

module.conv2.bias f4 [16]
0	0x3e754255	0.23951085
1	0xbfd9fdce	-1.703058
2	0xbf916075	-1.1357561
3	0xbdd4bec6	-0.1038795
4	0x3f801075	1.0005022
5	0x3ecfa90c	0.4055866
6	0x3e30ac46	0.17253217
7	0x3fa5795b	1.292766
8	0xbe1fbea4	-0.15600067
9	0xbeda5b09	-0.4264758
10	0xbf8cf405	-1.1011969
11	0x3fd8ca4a	1.6936734
12	0x3ec115f9	0.37712076
13	0xbf2fb62f	-0.68637365
14	0x3d8947bb	0.067031346
15	0x3f02ea34	0.51138616

module.fc1.weight f4 [120, 400]
0	0xbd617032	-0.05503864
1	0xbd72b46b	-0.05925409
2	0xbd87cb07	-0.06630521
3	0xbcf1163d	-0.02942955
4	0xbdc21908	-0.094774306
5	0x3def79c9	0.116931506
6	0x3cc91856	0.024547737
7	0xbc2cfc21	-0.010558159
8	0x3b6bb2e9	0.0035964793
9	0x3af1fdef	0.0018462519
10	0x3bbd724d	0.005781448
11	0xbce5327e	-0.027978178
12	0xbd8d4a42	-0.06898929
13	0x3da029ef	0.07820498
14	0x3cd73fc4	0.026275523
15	0x3dae0827	0.08497649
16	0xbdfce982	-0.123492256
17	0xbe36fc96	-0.17869791
18	0xbd15180c	-0.036399886
19	0x3d12f5f1	0.03587908
20	0x3cb17955	0.021664301
21	0xbbdb9875	-0.006701524
22	0xbdc2fdea	-0.095210865
23	0xbd6001b2	-0.054689117
24	0x3d9e750d	0.077371694
25	0x3d9a3d28	0.07531196
26	0xbc1f078b	-0.009706388
27	0x3d90f815	0.07078568
28	0x3e0faaec	0.14030045
29	0x3df3f958	0.11912793
30	0x3cd6451b	0.026155999
31	0xbb05fe84	-0.0020445893
32	0x3d7d39b7	0.06182262
33	0x3df7b179	0.12094397
34	0x3e322e3e	0.17400452
35	0x3e76ff20	0.2412076
36	0xba4bd919	-0.00077761855
37	0xb9fcede9	-0.00048242442
38	0xbbbc8432	-0.0057530636
39	0x3c05d9ff	0.00816965
40	0xbc11120c	-0.0088544
41	0xbd8709ef	-0.065936916
42	0xbe68f523	-0.22749762
43	0xbcc3f3f4	-0.023920037
44	0x3d936332	0.071966544
45	0xbe75447e	-0.23951909
46	0xbd6d2677	-0.05789801
47	0x3ca4a009	0.020095842
48	0xbdeaadc0	-0.114589214
49	0xbb5d924a	-0.003380912
50	0x3e70a896	0.2350181
51	0x3ce27766	0.027644824
52	0xbd15286b	-0.0364155
53	0xbd1f4985	-0.038888473
54	0xbe349787	-0.17635928
55	0xbc9819bc	-0.018566959
56	0xbcd24671	-0.025668355
57	0xbc48f042	-0.012264313
58	0xbd7b03dd	-0.06128298
59	0xbdea431c	-0.11438581
60	0xbc64f49b	-0.013974334
61	0x3dfbadb7	0.12288993
62	0xbd8b2324	-0.06793812
63	0xbd7dd971	-0.061974946
64	0xbd9e05f3	-0.077159785
65	0x3e1cca04	0.15311438
66	0x3d7b5cbe	0.061367743
67	0xbd88ed20	-0.06685853
68	0xbd374dc4	-0.044751897
69	0xbd46ed0e	-0.048565917
70	0xbe3d2c0c	-0.18473834
71	0xbc89c9dd	-0.016819889
72	0xbe19521b	-0.14972727
73	0xbd3d1259	-0.046160076
74	0xbd483b10	-0.04888445
75	0xbd7ffa71	-0.0624947
76	0xbe8e8fc5	-0.27844062
77	0xbd363852	-0.044487305
78	0xbcbeb0aa	-0.0232776
79	0x3d66ec68	0.0563778
80	0xbe0fba28	-0.14035857
81	0xbe28f5ee	-0.16500065
82	0xbda5be89	-0.08092982
83	0xbd659873	-0.05605359
84	0x3defe6aa	0.117139176
85	0xbdafe517	-0.08588617
86	0xbd966021	-0.07342554
87	0x3de635a2	0.112406984
88	0x3d415d2f	0.047208007
89	0xbd507cdc	-0.050900325
90	0xbdbac8d5	-0.09120337
91	0xbd601cba	-0.054714896
92	0x3d488091	0.048950735
93	0xbdb67d8b	-0.08910664
94	0x3d9bc797	0.07606428
95	0x3dfe6008	0.1242066
96	0x3e122e67	0.14275514
97	0x3d9c417a	0.07629676
98	0xbc2ab1d3	-0.010418373
99	0x3df08285	0.117436446
100	0x3df53b0e	0.119741544
101	0x3dd13221	0.102146395
102	0x3dc923b4	0.09821263
103	0x3d4042a7	0.046938565
104	0x3b704dd7	0.003666749
105	0xbcd37fee	-0.025817838
106	0x3da44093	0.08020129
107	0x3e257624	0.16158348
108	0x3d6afb00	0.05736828
109	0xbd8060f7	-0.062684946
110	0x3d375d28	0.044766575
111	0x3d4069f0	0.04697603
112	0x3e0ad65e	0.13558337
113	0x3e2ae2f9	0.16688146
114	0xbe30dfad	-0.17272826
115	0x3d008a22	0.031381734
116	0xbd6ddd0f	-0.058072146
117	0xbd0032ae	-0.031298332
118	0xbdb6ed36	-0.08931963
119	0xbdeadadd	-0.11467526
120	0x3d80b332	0.06284179
121	0xbc3ed9b5	-0.011648585
122	0xbcbbf92d	-0.022945965
123	0xbded32b1	-0.11581934
124	0xbe10dee6	-0.14147529
125	0xbd3e7125	-0.04649462
126	0xbc98575b	-0.018596342
127	0x3dffd2f4	0.12491408
128	0x3d5cafaa	0.053878464
129	0xbdb5971f	-0.08866715
130	0x3a1a978f	0.0005897218
131	0x3c915b71	0.017743798
132	0x3ce427a7	0.027850939
133	0x3cae578a	0.021281976
134	0xbdaf5414	-0.085609585
135	0x3d219740	0.039450884
136	0xbcca8077	-0.02471946
137	0xbdbcc021	-0.09216333
138	0xbdabfb9a	-0.083975986
139	0xbe0ef124	-0.13959175
140	0xbdc70524	-0.09717777
141	0x3d747115	0.059678156
142	0x3d1905f5	0.037359197
143	0xbca0fd06	-0.019651901
144	0x3d86e74f	0.06587087
145	0xbcb27206	-0.021782886
146	0x3c8f3464	0.017481036
147	0xbd6b3a41	-0.057428602
148	0xbd449605	-0.047994632
149	0xbb586486	-0.00330189
150	0x3c8389b7	0.016056878
151	0xbdbe9993	-0.09306636
152	0xbdced353	-0.10098901
153	0xbdd6cace	-0.10487901
154	0xbd1ea5be	-0.038732283
155	0x3e0fdf9b	0.14050142
156	0xbde918fa	-0.11381717
157	0xbdbaffb2	-0.09130801
158	0xbd6d5402	-0.057941444
159	0xbd459414	-0.04823692
160	0x3d83efbc	0.0644221
161	0x3d0766f8	0.033057183
162	0xb946012a	-0.00018883185
163	0xbdc23bb8	-0.09484047
164	0x3bfc01a0	0.0076906234
165	0xbc8347c8	-0.016025439
166	0xbd869b6a	-0.06572612
167	0xbe18e75b	-0.14932005
168	0xbda259e6	-0.07927303
169	0xbd01d7c4	-0.03169991
170	0xbdde168f	-0.108441465
171	0xbba121c7	-0.0049173567
172	0xbd34e143	-0.04416014
173	0x3cc50445	0.024049887
174	0x3df285c7	0.11841922
175	0x3bcea382	0.0063061127
176	0xbd07fd1c	-0.03320037
177	0x3c3fb288	0.01170028
178	0x3e180db4	0.14848977
179	0x3e0757ab	0.13217036
180	0xbc4ea0c6	-0.012611574
181	0x3dd175a6	0.10227518
182	0x3e1be068	0.15222323
183	0x3d2f641e	0.04282009
184	0x3d710d40	0.058850527
185	0xbb0abf1d	-0.0021171041
186	0x3cfbb8cb	0.030727765
187	0xbc2aeb3e	-0.010432063
188	0xbd110b71	-0.035411302
189	0x3d24704f	0.04014617
190	0xbd76219b	-0.060090642
191	0x3ce95a56	0.028485458
192	0xbd5a3684	-0.053274646
193	0xbc238b75	-0.00998198
194	0xbc9f6fcb	-0.019462487
195	0x3bce16e6	0.006289351
196	0xbcec4ed5	-0.028846184
197	0xbda559e4	-0.08073786
198	0x3b0ee577	0.0021804252
199	0xbe2ec434	-0.17067033
200	0xbe1d5eac	-0.15368146
201	0xbd8939d5	-0.06700484
202	0xbe019114	-0.12652999
203	0xbe6ff02f	-0.23431467
204	0xbdd2ae7c	-0.102871865
205	0xbdcf3994	-0.10118404
206	0xbc0fe5ae	-0.008782787
207	0x3c55ccd8	0.013049327
208	0xbdb12508	-0.08649641
209	0x3c795ee6	0.015220379
210	0xbc4e16f1	-0.012578712
211	0x3d868898	0.06569022
212	0x3d6d34cf	0.05791169
213	0x3c3526de	0.01105663
214	0x3db56671	0.0885743
215	0xbd87e06a	-0.066346005
216	0xbe06117d	-0.13092609
217	0x3c0016a5	0.007817899
218	0xbccd10f4	-0.025032498
219	0x3cae72a7	0.021294905
220	0xbe4fce0f	-0.20293449
221	0xbdeb8779	-0.11500449
222	0xbdd7ee3c	-0.105434865
223	0xbdab9fd2	-0.08380093
224	0xbe3561ae	-0.17713043
225	0x3daca2e8	0.084295094
226	0x3e0b1009	0.13580336
227	0xbd324a72	-0.043528028
228	0xbd9021f8	-0.07037729
229	0xbe259295	-0.16169198
230	0x3d1e649f	0.03867018
231	0x3d391094	0.045181826
232	0xbda99ac7	-0.082814746
233	0x3d0e321a	0.03471575
234	0xbde682e5	-0.11255435
235	0x3d99296c	0.07478604
236	0xbd4d5d11	-0.050137583
237	0xbd48e337	-0.049044814
238	0x3d474d92	0.04865796
239	0xbd8bff72	-0.06835832
240	0x3e69b912	0.22824505
241	0x3db1aa69	0.08675081
242	0x3ccbb7f1	0.024867984
243	0x3c179241	0.009251178
244	0x3d672c27	0.05643859
245	0x3e56ae54	0.20964938
246	0xbcb1be5d	-0.021697218
247	0x3d1e49c5	0.03864457
248	0x3e0e2e0b	0.13884751
249	0x3cded8fc	0.027203076
250	0xbd83f56d	-0.06443296
251	0xbe06fd9f	-0.13182686
252	0xbe1059f3	-0.14096813
253	0xbe2e2059	-0.17004527
254	0xbd9f0bfb	-0.07765957
255	0xbdcc142a	-0.099647835

module.fc1.bias f4 [120]
0	0x3e2f3d0c	0.17113131
1	0xbe5cdc2c	-0.21568364
2	0xbe508657	-0.20363747
3	0xbd801040	-0.062530994
4	0xbe751edd	-0.23937555
5	0xbe73b4fe	-0.23799512
6	0x3d3f4608	0.046697646
7	0x3a75125c	0.0009348744
8	0xbd9fa349	-0.07794816
9	0x3c509713	0.012731331
10	0x3d8ecafa	0.069723085
11	0x3d86b1ec	0.06576905
12	0xbe4fc5f0	-0.20290351
13	0xbed6059b	-0.41801152
14	0xbaadfbf5	-0.0013273942
15	0x3e9f292e	0.31086105
16	0x3b9cc499	0.0047841785
17	0x3e1a6e90	0.15081239
18	0x3e7b1d73	0.24522953
19	0x3d98ff73	0.07470598
20	0x3dd4dcc5	0.10393671
21	0x3c993014	0.018699683
22	0xbe2bdaf4	-0.16782743
23	0xbc37e9e5	-0.011225198
24	0xbdb322c9	-0.08746869
25	0xbde2ad8a	-0.11068256
26	0xbe07fe48	-0.13280594
27	0x3e7919d6	0.24326262
28	0x3ec99152	0.39368683
29	0xbca827e2	-0.02052683
30	0x3d41bf7d	0.047301758
31	0xbca03c7d	-0.019560093
32	0x3c261513	0.01013686
33	0xbdfb31b5	-0.1226534
34	0x3d4f68f0	0.050637186
35	0x3e9078a1	0.28217033
36	0x3e35d7ba	0.17758074
37	0x3e1eed1e	0.1552014
38	0xbbcbb9ec	-0.006217232
39	0x3e759a92	0.23984745
40	0x3e1d9619	0.15389289
41	0x3dfb1ff7	0.12261956
42	0xbe7e06f4	-0.2480734
43	0x3e1aa4cf	0.15101932
44	0x3e67fd39	0.2265519
45	0x3efb7fea	0.49121028
46	0xbd958aa0	-0.07301831
47	0x3e87996d	0.26484242
48	0xbd090139	-0.03344843
49	0x3de9ac95	0.114098705
50	0x3ed3b972	0.4135242
51	0xbdb10d9c	-0.08645174
52	0x3da1c64d	0.07899151
53	0x3d347b24	0.04406275
54	0x3e3e3403	0.18574528
55	0x3d05634b	0.032565396
56	0xbe0affc9	-0.13574137
57	0x3df2d71b	0.11857434
58	0x3dda4365	0.10657386
59	0x3de0d2cc	0.10977706
60	0x3efb18c4	0.49042332
61	0x3dc2d1bc	0.0951266
62	0x3e892ace	0.2679047
63	0x3c59f7e1	0.013303728
64	0x3d937bec	0.072013706
65	0xbd5610af	-0.052262004
66	0xbea9a8c4	-0.3313657
67	0xbed05e8a	-0.40697128
68	0x3ca5a022	0.020217959
69	0xbc827bd6	-0.01592819
70	0x3e7c088d	0.24612637
71	0xbe03ddc3	-0.12877564
72	0xba69f188	-0.00089242356
73	0x3b78d0a0	0.0037966147
74	0xbe1ff3bb	-0.1562032
75	0xbdf9eceb	-0.12203392
76	0x3df20c7e	0.11818789
77	0x3dbb879f	0.09156727
78	0x3d49a0f9	0.04922578
79	0xbd1dbc7d	-0.038509835
80	0xbe288eed	-0.16460772
81	0x3e50fdd4	0.20409328
82	0x3dd0189b	0.10160943
83	0x3e363df5	0.17797072
84	0x3d9319d8	0.07182664
85	0x3eef5a64	0.4674865
86	0x3e6399e2	0.2222667
87	0xbe6cd9a1	-0.23129894
88	0xbea687bc	-0.32525432
89	0x3e1c86ba	0.15285769
90	0xb94a08f0	-0.0001926755
91	0x3e9a7352	0.30166107
92	0x3d9c49fd	0.076313
93	0xbd0e4a88	-0.034739047
94	0xbe753417	-0.23945652
95	0x3ecd6e98	0.4012344
96	0x3e0f573f	0.13998125
97	0x3e50d07f	0.20392035
98	0x3e14bb2f	0.1452453
99	0xbe5ac7ab	-0.2136523
100	0xbd6d3476	-0.05791136
101	0xbc8f09d1	-0.017460736
102	0xbc87e9ac	-0.016590916
103	0x3b35bbca	0.002773034
104	0x3eaebd03	0.3412858
105	0xbebfe2a1	-0.37477592
106	0xbccf39f5	-0.02529619
107	0xbe1e8866	-0.1548172
108	0xbe763b08	-0.24045956
109	0x3e86bc16	0.26315373
110	0xbd830819	-0.06398029
111	0xbdcf04a5	-0.10108308
112	0x3dcc043b	0.099617444
113	0xbd631c3a	-0.05544684
114	0x3d1ba345	0.037997503
115	0x3cf496d8	0.029857084
116	0xbd26a031	-0.040680114
117	0xbc69d3e1	-0.014271707
118	0x3e3dad10	0.1852305
119	0x3eb376d8	0.35051608

module.fc2.weight f4 [84, 120]
0	0xbe3c5830	-0.18393016
1	0xbd670545	-0.05640151
2	0x3c940ec8	0.018073454
3	0x3dff11d7	0.124545746
4	0xbe15f234	-0.14643174
5	0x3e420b15	0.1894954
6	0xbd7ea86a	-0.06217233
7	0x3e51fbb1	0.20506169
8	0x3e8bdfa3	0.2731906
9	0xbd14fdc1	-0.03637481
10	0x3e0d142c	0.13777226
11	0x3da5e188	0.08099657
12	0x3ce2059c	0.027590565
13	0x3d0f91ff	0.035051342
14	0xbd9755d7	-0.073894195
15	0xbe306765	-0.17226942
16	0x3e17c4bf	0.14821146
17	0x3d37b727	0.044852402
18	0x3da5ca1d	0.08095191
19	0x3da0d68b	0.07853421
20	0xbddd0814	-0.107925564
21	0x3dc7453a	0.09730001
22	0x3e24f694	0.16109687
23	0xbac8335e	-0.0015274098
24	0x3e241eba	0.16027346
25	0xbe0ae974	-0.13565618
26	0x3d6220dd	0.055207122
27	0xbe1ce367	-0.15321122
28	0xbd429b4e	-0.04751139
29	0xbddc50f0	-0.10757625
30	0xbd891b9d	-0.0669472
31	0x3bc269a7	0.005933005
32	0xbdc86d43	-0.09786465
33	0xbdfd4e51	-0.12368453
34	0xbe06e9c4	-0.13175112
35	0xbddc49ed	-0.10756288
36	0x3db71edf	0.08941435
37	0x3b062aaf	0.0020472219
38	0xbcc2e659	-0.023791479
39	0xbe799c2a	-0.24375978
40	0xbcea2716	-0.02858309
41	0x3e0ba1c5	0.13635929
42	0x3c73c520	0.014878541
43	0xbd98b52a	-0.07456429
44	0xbcf6f4be	-0.030145999
45	0xbe406e82	-0.18792155
46	0xbe0256b8	-0.12728393
47	0x3e5544ee	0.20827076
48	0x3cad9de2	0.021193448
49	0x3cbd6ad4	0.023122229
50	0x3d4300b5	0.047608096
51	0xbd88364b	-0.066509806
52	0xbde394fc	-0.11112401
53	0xbe0bc64e	-0.13649866
54	0x3e1c9492	0.1529105
55	0x3d25dba8	0.040492684
56	0x3e709566	0.23494491
57	0xbca8a881	-0.020588161
58	0x3ce53e84	0.027983911
59	0xbe52eca6	-0.20598087
60	0xbdefde3f	-0.11712312
61	0x3d1529b8	0.03641674
62	0xbe160a68	-0.14652407
63	0xbe0f5011	-0.13995387
64	0x3d97cc46	0.07412009
65	0x3cc03580	0.02346301
66	0x3ce00411	0.027345689
67	0x3dc10fa3	0.094268106
68	0xbe0f7451	-0.14009215
69	0x3d82cd9f	0.06386875
70	0xbe0ba338	-0.13636482
71	0xbe20813c	-0.15674299
72	0x3e1ba45d	0.15199418
73	0x3cc08e09	0.023505228
74	0x3d08c2f4	0.033389047
75	0x3e22b619	0.15889777
76	0xbe26df42	-0.16296104
77	0x3d2ed07b	0.04267929
78	0xbe094ea8	-0.13408911
79	0xbdab89da	-0.083759025
80	0xbca2e30e	-0.019883659
81	0xbe1a8860	-0.15091085
82	0xbe4005d2	-0.1875222
83	0xbd78c919	-0.060738657
84	0xbd027c6b	-0.031856935
85	0xbe2d3902	-0.16916278
86	0x3e1142dd	0.14185663
87	0xbd35f8b3	-0.04442663
88	0x3da93c6a	0.08263476
89	0xbd816b88	-0.06319338
90	0xbe2dafca	-0.1696159
91	0xbd492884	-0.049110904
92	0xbe098831	-0.13430859
93	0x3ce1073b	0.027469268
94	0x3d2b186f	0.04177135
95	0x3d875dec	0.06609711
96	0xbda10f9f	-0.078643076
97	0xbd11bbe2	-0.03557957
98	0xbd813176	-0.06308262
99	0xbd780bb6	-0.060558043
100	0xbda35ab6	-0.07976286
101	0xbbc38817	-0.005967151
102	0xbe0c61de	-0.13709208
103	0xbd56fef4	-0.052489236
104	0xbe48152f	-0.19539331
105	0xbd9cb573	-0.07651796
106	0xbd1a7ffe	-0.03771972
107	0x3e27a5cc	0.1637184
108	0x3de5cc9d	0.112206675
109	0xbd86cc17	-0.06581896
110	0xbdb9bfd1	-0.09069789
111	0xba3f4d5a	-0.0007297598
112	0x3dd8d299	0.10587043
113	0xbe483da6	-0.19554767
114	0x3e3b9365	0.18317945
115	0x3cc27ce8	0.0237412
116	0xbdfc7d30	-0.12328565
117	0x3ddb4918	0.10707301
118	0xbd0e6e9f	-0.034773465
119	0x3b2af971	0.002608862
120	0xbb60a913	-0.0034280464
121	0x3e1a833b	0.15089123
122	0x3dfadb31	0.12248839
123	0xbe72a0d9	-0.23694171
124	0x3dfa4845	0.122208156
125	0xbd929510	-0.07157338
126	0x3e0e5e17	0.1390308
127	0xbd8956ad	-0.06705985
128	0xbd0d570c	-0.034506842
129	0xbcec7140	-0.028862596
130	0xbe58f483	-0.21187024
131	0x3e623452	0.22090271
132	0xbe1b4603	-0.15163426
133	0xbcaa118d	-0.020760322
134	0x3db8fc00	0.0903244
135	0x3d8a0c6a	0.06740649
136	0xbcd3bb48	-0.025846139
137	0x3d18d69b	0.03731404
138	0xbd488b1b	-0.048960786
139	0xbba2ef14	-0.004972348
140	0xbe01170f	-0.12606452
141	0xbe18a268	-0.14905703
142	0xbe44a913	-0.19205122
143	0x3bb4527b	0.0055029965
144	0x3d5e2db8	0.05424282
145	0xbe81b791	-0.25335363
146	0x3db59492	0.08866228
147	0xbd901190	-0.070346
148	0x3e4fa3f8	0.20277393
149	0x3b8c9169	0.004289795
150	0xbe602714	-0.21889907
151	0xbe0f254e	-0.13979074
152	0xbe689bb5	-0.22715648
153	0x3dbda72d	0.09260402
154	0xbc95e84b	-0.018299242
155	0x3d84cf38	0.06484836
156	0x3dd4951c	0.10380003
157	0xbe54c617	-0.2077869
158	0xbcb0e39b	-0.021592906
159	0xbe312dc9	-0.17302622
160	0xbc2864b9	-0.01027792
161	0x3e0e7e65	0.13915403
162	0xbe0b9041	-0.13629247
163	0x3e14a65c	0.14516586
164	0xbd27f3a1	-0.041003827
165	0x3e38e135	0.1805466
166	0x3e5cf44e	0.2157757
167	0x3cb6b603	0.022303587
168	0xbd70ed33	-0.05881996
169	0x3d6de803	0.05808259
170	0x3e07b636	0.13253102
171	0xbe3efa41	-0.18650152
172	0xbde1d1e4	-0.110263616
173	0xbd2fe319	-0.042941187
174	0xbd9d04ac	-0.07666907
175	0x3e028a9a	0.12748185
176	0xbda6f4c9	-0.08152158
177	0xbea347a0	-0.31890583
178	0xbdb74c99	-0.08950157
179	0xbd188547	-0.03723648
180	0xbd978bd4	-0.07399717
181	0xbdd36907	-0.10322767
182	0xbdfeab4e	-0.124350175
183	0x3db60278	0.088871896
184	0xbe2edac8	-0.17075646
185	0x3d3db30d	0.046313334
186	0x3e1b0a7f	0.15140723
187	0xbd9baf1c	-0.07601759
188	0xbd1e5e77	-0.038664307
189	0x3e98ecfd	0.29868308
190	0x3db7a38c	0.08966741
191	0x3d79244b	0.060825627
192	0xbe13cfc5	-0.14434727
193	0xbe538ee7	-0.20659982
194	0xbda54e44	-0.080715686
195	0x3dac95b3	0.0842699
196	0xbe6bb367	-0.23017655
197	0x3d97a582	0.07404615
198	0xbe9c7f1a	-0.3056572
199	0x3cf87822	0.030330721
200	0xbda7fd21	-0.082025774
201	0xbdc98a8b	-0.09840878
202	0xbe901707	-0.28142568
203	0xbca9f78e	-0.020747926
204	0xbd47b0fd	-0.048752774
205	0x3ccd935d	0.025094682
206	0xbccb824d	-0.024842406
207	0xbd7fbd15	-0.062436182
208	0xbdb1169f	-0.08646893
209	0x3e483ea6	0.19555148
210	0xbd30d7a4	-0.0431744
211	0xbe1c1d24	-0.15245491
212	0x3dad68b7	0.084672384
213	0x3e20a157	0.15686546
214	0xbdc0ffc6	-0.09423785
215	0xbe4f3590	-0.20235276
216	0xbe07cfd8	-0.1326288
217	0x3c53bd64	0.012923572
218	0xbe5002f4	-0.20313627
219	0x3e26e0cb	0.16296689
220	0x3d8dcd6a	0.06923945
221	0xbe63e54a	-0.22255436
222	0xbd2b3c76	-0.041805707
223	0xbe074f6b	-0.1321389
224	0xbdb7e081	-0.089783676
225	0x3c9c4f57	0.019080801
226	0xbd6e9a76	-0.058252774
227	0xbd36f0ae	-0.044663124
228	0xbc042fb4	-0.008068014
229	0xbe1e7ad8	-0.15476549
230	0xbcb336e6	-0.021876764
231	0x3be8ad1e	0.0071007153
232	0x3e4907bd	0.19631858
233	0x3e577934	0.21042329
234	0x3da97faf	0.08276307
235	0x3da49156	0.08035533
236	0xbd7e8fdc	-0.062148914
237	0x3d16e3e9	0.036838446
238	0xbbf8c200	-0.007591486
239	0xbe146c2b	-0.14494388
240	0xbd9a4d77	-0.075343065
241	0x3def9b72	0.11699571
242	0xbe714662	-0.23562005
243	0xbdc90ff1	-0.09817494
244	0xbdbb48ea	-0.09144767
245	0xbd6b8381	-0.05749846
246	0xbca790aa	-0.020454723
247	0x3e5321f2	0.20618418
248	0xbdcfdac1	-0.10149146
249	0x3d9a9818	0.07548541
250	0xbd8deee6	-0.06930332
251	0x3d17d3df	0.03706729
252	0x3d0fc3a5	0.03509869
253	0xbc30eeb7	-0.010799102
254	0x3d6f5a17	0.058435526
255	0x3d942237	0.072330885

module.fc2.bias f4 [84]
0	0xbd355244	-0.044267908
1	0x3ccd6795	0.025073806
2	0x3f6604de	0.89851177
3	0x3dffc382	0.12488462
4	0xbc765add	-0.015036312
5	0x3f23e7c7	0.6402554
6	0x3e425905	0.18979271
7	0x3e43139b	0.19050448
8	0x3cd15999	0.025555419
9	0x3eddf5d6	0.4335162
10	0x3f816b53	1.0110878
11	0x3e1652da	0.14680043
12	0xbdfa047b	-0.12207886
13	0x3e823641	0.25432017
14	0xbd2a72ad	-0.04161327
15	0x3e350575	0.17677863
16	0x3e019c90	0.1265738
17	0x3f6b5431	0.9192534
18	0x3ec07fbd	0.37597457
19	0x3d9b12fb	0.075719796
20	0xbcfd3b7e	-0.030912157
21	0x3e1ca183	0.15295987
22	0x3f29c3a9	0.6631418
23	0x3ead5c94	0.33859694
24	0x3ea92f1f	0.33043763
25	0x3e3cfd69	0.18456043
26	0x3e87b4cd	0.26505128
27	0x3edaa303	0.42702493
28	0x3ca07b4f	0.019590048
29	0x3e882efc	0.26598346
30	0x3c161e81	0.009162546
31	0xbc0dbb72	-0.0086506475
32	0xbd81b4ca	-0.06333311
33	0xbe676ea5	-0.22600801
34	0xbeffe1ee	-0.49977058
35	0xbe1af710	-0.1513331
36	0x3eee6206	0.4655916
37	0x3eaf568e	0.34245723
38	0x3d90cd76	0.070704386
39	0xbdeb0b27	-0.114767365
40	0x3e21920f	0.15778373
41	0x3deca1f0	0.115543246
42	0x3f3c8b0a	0.73649657
43	0xbd1b903b	-0.037979346
44	0x3e13b604	0.14424902
45	0x3ebc47f9	0.3677366
46	0xbcbb1709	-0.022838132
47	0x3dd810fb	0.10550114
48	0x3c993134	0.01870022
49	0x3da4de8f	0.08050262
50	0x3f341e0b	0.7035834
51	0x3d4ab498	0.049488634
52	0x3ec15c9b	0.37765965
53	0x3e957684	0.29191983
54	0x3e6070b2	0.2191799
55	0xbd9f3b96	-0.07775037
56	0x3f61b1b5	0.88161784
57	0x3e480705	0.19533928
58	0x3ed5d2ee	0.4176249
59	0x3ca1f87c	0.019771807
60	0xbd3ed9a5	-0.04659428
61	0xbd4dfa56	-0.050287567
62	0x3df4152d	0.119181015
63	0xbd0e86a2	-0.034796365
64	0x3e09ef74	0.1347025
65	0x3e080d0a	0.13286224
66	0xbd8e4a29	-0.06947739
67	0x3e91db28	0.28487515
68	0x3dd284c0	0.10279226
69	0x3e9e33de	0.30898947
70	0x3dfa5bc8	0.12224537
71	0x3e642954	0.2228139
72	0x3d6b929c	0.057512864
73	0x3ecf6120	0.40503788
74	0xbe02b259	-0.12763347
75	0xbdbababc	-0.09117648
76	0x3e5e4572	0.21706179
77	0x3edbdb54	0.42940772
78	0x3d877564	0.06614187
79	0x3e2b1a3b	0.16709225
80	0x3e824cb1	0.25449136
81	0x3dd2a46e	0.10285269
82	0x3f218480	0.63092804
83	0xbd00d02a	-0.03144852

module.fc3.weight f4 [10, 84]
0	0x3c9f19c5	0.019421468
1	0x3e0f1a2a	0.13974825
2	0xbe2f5bf5	-0.17124923
3	0x3d10e1ef	0.035371717
4	0x3d9b7106	0.07589917
5	0xbcc3b87d	-0.023891682
6	0xbe46208a	-0.1934835
7	0xbe1c3ac9	-0.152568
8	0x3d966fb6	0.07345526
9	0x3dc63607	0.09678274
10	0xbe92bfb6	-0.2866189
11	0x3dcca0a0	0.09991574
12	0xbe874000	-0.26416016
13	0x3e29c77e	0.16580006
14	0x3e763fc9	0.2404777
15	0xbe45fe01	-0.19335176
16	0x3df2d7ca	0.11857565
17	0x3e0f6bde	0.14005992
18	0xbea26216	-0.3171546
19	0x3e238a56	0.1597074
20	0x3d93364a	0.07188089
21	0x3e467d18	0.19383657
22	0x3cc75cff	0.024336336
23	0x3e4506e0	0.19240904
24	0x3e08bd08	0.1335336
25	0x3e0d0908	0.13772976
26	0x3bab8988	0.005234901
27	0x3e15ee1f	0.14641617
28	0x3db8045f	0.08985209
29	0x3e7f0a73	0.2490633
30	0x3e15b856	0.146211
31	0xbe3b3ca9	-0.18284859
32	0x3e41c616	0.1892322
33	0x3e717491	0.23579623
34	0x3ddcd73e	0.10783242
35	0x3b435f3a	0.0029811398
36	0x3dc7411c	0.097292155
37	0x3e28c018	0.16479528
38	0xbd8aad02	-0.0677128
39	0xbdbb0040	-0.09130907
40	0xbcaf8757	-0.02142684
41	0x3e220ede	0.15825984
42	0xbc4212d5	-0.01184531
43	0xbd072c4b	-0.033001225
44	0xbdf6310a	-0.12021072
45	0xbe03bdb9	-0.12865342
46	0xbe520e24	-0.20513207
47	0x3d69dfd3	0.05709822
48	0x3e025338	0.12727058
49	0xbe5c011e	-0.21484801
50	0xbdbbb6a2	-0.09165694
51	0x3df03fb9	0.11730904
52	0x3e6e9b3d	0.23301406
53	0xbcebb97a	-0.028774966
54	0xbe549797	-0.20760952
55	0x3d51c778	0.05121562
56	0xbed3a6ff	-0.41338345
57	0x3e72b434	0.23701555
58	0xbedd573f	-0.43230626
59	0x3e3981c7	0.18115912
60	0xbcaa9c60	-0.020826519
61	0xbc756367	-0.014977313
62	0xbdc819b2	-0.09770526
63	0x3e784b32	0.24247435
64	0xbe234437	-0.1594399
65	0xbd22fe12	-0.03979308
66	0xbe14778a	-0.14498726
67	0xbe212f62	-0.15740731
68	0x3d892f18	0.066984355
69	0xbca1be35	-0.019744018
70	0xbd26b3d6	-0.04069885
71	0x3dfb24c5	0.122628726
72	0xbe09e8db	-0.13467734
73	0xbd9f3600	-0.077739716
74	0x3e3270c1	0.17425825
75	0x3e42e7b0	0.19033694
76	0xbdbb4c0c	-0.09145364
77	0xbe8949f0	-0.26814222
78	0x3d6bf986	0.05761101
79	0x3e40c479	0.18824948
80	0xbe1a0dd2	-0.15044335
81	0x3ce02e84	0.02736593
82	0x3e8ccb2e	0.27498764
83	0xbcf1c684	-0.029513605
84	0x3ea56cf7	0.32309696
85	0x3e25df0c	0.16198367
86	0xbec785f5	-0.3896939
87	0xbd2ea453	-0.04263718
88	0xbcd30266	-0.02575798
89	0x3da7f695	0.08201329
90	0x3e3c7fb6	0.18408093
91	0xbdf09b93	-0.117484234
92	0x3e484c38	0.19560325
93	0x3e253e2f	0.16137002
94	0xbdc7c539	-0.09754414
95	0x3e814840	0.25250435
96	0x3e3ba3f9	0.1832427
97	0x3dc51a0f	0.09624111
98	0x3e47f5e7	0.19527398
99	0xbd2020b1	-0.039093677
100	0xbe932973	-0.2874256
101	0xbe373210	-0.17890191
102	0xbe14d3fd	-0.14533992
103	0x3edecbf0	0.43514967
104	0x3e4d3cde	0.2004275
105	0x3e59f181	0.21283533
106	0xbe9cdb0c	-0.3063587
107	0xbe3aa976	-0.18228707
108	0xbe82f388	-0.25576425
109	0x3e11d212	0.14240292
110	0xbe2b5292	-0.16730717
111	0xbea48325	-0.32131305
112	0x3e1926cd	0.14956208
113	0x3d1047ad	0.035224605
114	0x3cd5550a	0.026041526
115	0x3d0f9402	0.03505326
116	0xbe1aa5ba	-0.15102282
117	0x3df8ec87	0.12154489
118	0x3e8733c8	0.26406693
119	0x3e3ebe99	0.18627395
120	0xbe1ed644	-0.15511423
121	0xbd79022c	-0.060793087
122	0x3d344dcd	0.04401951
123	0x3d3beddc	0.045881137
124	0xbc62aa22	-0.013834508
125	0xbe549be7	-0.20762597
126	0xbd8e0ce5	-0.06936053
127	0x3e5fd7ed	0.21859713
128	0xbd33506d	-0.043777872
129	0x3dfe54b3	0.12418499
130	0xbe3551a9	-0.17706932
131	0x3e7e2023	0.24816947
132	0xbd75f466	-0.06004753
133	0x3ce82ec5	0.028342614
134	0xbde9927c	-0.11404893
135	0x3db6c53e	0.0892434
136	0x3cae38f3	0.02126739
137	0xbddae686	-0.106885
138	0x3ca78f06	0.020453941
139	0xbd716941	-0.05893827
140	0xbe02534e	-0.1272709
141	0xbe5efa93	-0.21775274
142	0xbd4fa7f9	-0.0506973
143	0xbd508a2e	-0.05091303
144	0x3da998aa	0.082810715
145	0x3d9a9163	0.075472616
146	0x3e3f3f62	0.18676522
147	0x3e57d0d2	0.21075752
148	0x3e85f5c7	0.26164076
149	0xbd991b8f	-0.074759595
150	0x3e5fda62	0.2186065
151	0x3d23407d	0.039856423
152	0xbe297300	-0.16547775
153	0xbd8a0e6e	-0.067410335
154	0x3e80ce5a	0.25157434
155	0x3d441c8c	0.047878787
156	0x3db57dee	0.0886191
157	0xbe4bdfd7	-0.19909607
158	0x3aab03ea	0.0013047431
159	0xbe412a82	-0.18863872
160	0xbd9996bd	-0.07499454
161	0xbc9df0c5	-0.019279847
162	0xba839eef	-0.0010041873
163	0xbeabfb63	-0.3359023
164	0xbe10f58c	-0.14156169
165	0x3dfc5b23	0.123220704
166	0xbd3dff34	-0.04638596
167	0x3d61aa49	0.055094037
168	0x3d9d3c7a	0.076775506
169	0x3d539c9a	0.05166302
170	0x3e263f14	0.16235
171	0xbe0f7067	-0.14007722
172	0xbdac8785	-0.08424286
173	0xbdeea9d6	-0.116534874
174	0xbd9f485a	-0.07777472
175	0x3dc8af3d	0.09799049
176	0xbe26873d	-0.16262527
177	0xbe4cccfc	-0.2000007
178	0x3e639ae6	0.22227058
179	0xbd3ded59	-0.04636893
180	0x3d14fe0d	0.036375094
181	0xbe0d0018	-0.13769567
182	0x3cc96035	0.024582008
183	0xbdb72719	-0.08943004
184	0x3e77c6d3	0.24196939
185	0x3e8022e4	0.2502662
186	0x3e4d863d	0.20070739
187	0xbe29d03b	-0.1658334
188	0xbdd660e9	-0.10467703
189	0xbe608b5f	-0.21928166
190	0x3e196a99	0.1498207
191	0x3e460878	0.19339168
192	0x3df6e997	0.120562725
193	0xbd848514	-0.06470695
194	0x3e53c97a	0.20682326
195	0xbda304b9	-0.07959885
196	0xbd7fa7e7	-0.062415984
197	0x3cac5f1b	0.021041444
198	0x3d346a2b	0.044046562
199	0xbd87ccae	-0.066308364
200	0xbcb45b8c	-0.02201631
201	0xbd6643a4	-0.05621685
202	0xbd31ec89	-0.043438468
203	0xbd6eb3c8	-0.05827692
204	0x3db9ae9b	0.090665065
205	0x3dc255f0	0.094890475
206	0xbdcb4be1	-0.09926582
207	0x3d076b28	0.033061177
208	0xbdd07b30	-0.10179746
209	0x3cc407c5	0.023929486
210	0x3e5ed2b6	0.21760067
211	0xbdf17374	-0.11789599
212	0x3e864acf	0.2622895
213	0xbddcde83	-0.10784628
214	0x3da9c64d	0.08289776
215	0xbda2cab5	-0.079488195
216	0x3d58eccb	0.0529602
217	0xbd6ab388	-0.05730012
218	0x3db82254	0.089909226
219	0x3e44bd4b	0.19212835
220	0x3e0a34e1	0.13496734
221	0x3c8e5943	0.017376548
222	0x3e0db438	0.13838279
223	0xbcb0f787	-0.021602405
224	0x3d0e98b9	0.034813616
225	0x3e99d519	0.30045393
226	0xb90e457d	-0.00013568062
227	0xbcbe1ce6	-0.02320714
228	0xbd6f3fd2	-0.058410473
229	0x3e836a52	0.25667053
230	0x3dcc0056	0.099610016
231	0xbd26357a	-0.040578343
232	0x3df9cfd2	0.12197842
233	0x3de0aaf9	0.109701104
234	0xbdbb8655	-0.09156481
235	0xbe4b725e	-0.19867846
236	0xbe3ee07d	-0.18640323
237	0x3d06dd51	0.032925908
238	0xbd7162b5	-0.058932025
239	0x3e6add43	0.22935967
240	0xbdebb2b8	-0.11508697
241	0x3da0036e	0.07813154
242	0x3dc74594	0.09730068
243	0x3adbfe25	0.0016784115
244	0x3eafaafe	0.34310144
245	0xbda7449b	-0.08167382
246	0xbcef463b	-0.029208293
247	0x3e3c1ca0	0.18370295
248	0x3de0c0c8	0.1097427
249	0x3d48f149	0.049058232
250	0x3d170742	0.036872156
251	0x3e787ee5	0.24267156
252	0xbdb0e9a9	-0.08638317
253	0x3e059a52	0.1304715
254	0x3e404e05	0.18779762
255	0x3da38f83	0.07986357

module.fc3.bias f4 [10]
0	0xbe6d4798	-0.23171842
1	0xbf929bf8	-1.1453848
2	0xbd5ae113	-0.053437304
3	0x3f271d69	0.6527925
4	0x3f3c83e8	0.7363877
5	0xbd872923	-0.06599643
6	0x3caec628	0.021334723
7	0xbeab47b8	-0.33453155
8	0x3ee9a350	0.4563241
9	0xbecb2b34	-0.396814
