models/classifier_net_epoch_3_0.pth (torch_old, 249853 bytes, 10 tensors)

module.conv1.weight f4 [6, 3, 5, 5]
0.08851309 0.16837531 0.3106485 0.6011358 0.25735888 0.21086842 -0.16934417 0.06331191
0.6862393 0.230962 0.3008027 -0.10783184 -0.6387875 0.5447399 0.23008732 0.08054936
-0.12710303 -0.552104 0.0006003218 -0.1467324 -0.113816 -0.1760863 -0.4615247 -0.028405713
-0.28240365 -0.08014954 -0.3868193 -0.49769038 -0.1138251 -0.38382956 0.30500683 -0.5327737
-0.6447255 0.16216838 -0.092704825 0.45490023 -0.23409292 -0.8831499 0.3936023 0.14825165
0.37098116 0.11806072 -0.6752821 0.18929824 -0.13944383 0.4993445 0.042056236 -0.13411489
0.37750578 -0.020465111 -0.040209074 -0.09550148 -0.07744975 0.1830564 -0.17026125 0.32665268
-0.2571415 -0.25734845 0.41578656 -0.28151238 0.46891117 -0.13335605 -0.5673279 0.3710257
-0.07029472 0.43997827 0.26237386 -0.41652957 0.16393061 -0.14290775 0.43122578 0.18468644
-0.12812948 0.1841731 -0.09386941 -0.05731641 0.21444826 0.0696478 0.050524533 -0.06591961
0.027031424 0.30818337 0.05393807 -0.04626096 -0.03665157 0.0968865 -0.1544176 -0.33533293
-0.21652527 -0.18627842 -0.18166572 -0.4502923 -0.37973377 -0.12312659 -0.07326866 -0.1400629
0.08754072 0.09069905 0.30075848 0.29912102 -0.2616661 0.07028551 -0.018728156 -0.050072867
-0.1242831 0.08274958 0.26133707 -0.07549411 -0.08854569 -0.14748128 0.25629807 -0.04536704
-0.27179053 -0.30699164 -0.14956717 -0.058371816 -0.31913018 -0.31621012 -0.14819562 -0.08463022
0.026918225 -0.0626409 0.09032414 0.2253397 0.26128232 -0.10510942 0.11452677 0.027705632
0.18634698 -0.024600102 0.122608386 0.29607043 0.270492 0.059485633 -0.07909799 0.23870045
0.1220734 -0.104906216 -0.27838004 -0.14909005 0.038648 -0.34045485 -0.26603508 -0.18997854
0.010922499 0.0053319265 -0.027805032 0.28358388 0.17452295 0.14024907 -0.048080083 -0.13868965
-0.19315447 -0.12332201 -0.13749577 0.055635683 0.26462385 0.118490934 0.13326582 0.032171365
-0.12321156 -0.007618224 0.11224321 0.017643481 0.032102145 -0.3713626 -0.3139315 -0.29322213
-0.34807417 -0.3087893 -0.10093125 -0.23005685 -0.18180384 -0.18873115 -0.13978711 -0.21935299
-0.27001798 -0.13176197 -0.16238259 -0.19893067 0.27952996 0.30662102 0.37012175 0.2585922
0.26226795 0.043543536 0.011030469 0.07331748 0.08161543 0.15473577 -0.26712066 -0.39859793
-0.27810007 -0.23303378 -0.14932203 -0.028206382 -0.15194918 -0.115665846 0.0071146176 0.044446927
-0.08642827 0.05219247 -0.001317954 -0.07395559 -0.1331273 0.39153612 0.28274128 0.4792891
0.49169388 0.3580862 0.17454308 0.23980778 0.20744747 0.33127654 0.23223403 0.025059307
0.058249444 -0.05761703 0.016300147 0.09992986 0.19795325 0.14121145 0.10558162 0.23048988
0.18455373 0.19626921 0.15492812 -0.20430103 0.044708595 -0.045381535 0.21592988 -0.19459283
-0.26207557 0.09942727 0.11206285 0.16569152 -0.19675513 -0.22634588 0.28941485 0.02606736
-0.124773555 -0.31136277 -0.037110444 0.1881127 0.17785832 0.023545552 -0.25650105 0.065811984
0.2962686 -0.0016685051 0.09848124 -0.03752111 -0.25875494 0.097944595 0.080092914 0.067805625
00000000: 5a46 b53d 946a 2c3e 520d 9f3e 09e4 193f
00000010: 8bc4 833e e4ed 573e 8f68 2dbe ada9 813d
00000020: 61ad 2f3f 4d81 6c3e d002 9a3e f1d6 dcbd
00000030: 9487 23bf 1374 0b3f 039c 6b3e 10f7 a43d
00000040: 4c27 02be b056 0dbf ea5e 1d3a 0541 16be
00000050: 5d18 e9bd f84f 34be f74c ecbe 19b3 e8bc
00000060: 3697 90be 7125 a4bd 2e0d c6be 46d1 febe
00000070: 221d e9bd 4f85 c4be db29 9c3e db63 08bf
00000080: bb0c 25bf 780f 263e 07dc bdbd afe8 e83e
00000090: 0eb6 6fbe 1d16 62bf 3e86 c93e 48cf 173e
000000a0: 3ef1 bd3e d2c9 f13d 4adf 2cbf 66d7 413e
000000b0: 5dca 0ebe 15aa ff3e 2943 2c3d 6a55 09be
000000c0: 7048 c13e 73a6 a7bc 45b2 24bd 4896 c3bd
000000d0: f99d 9ebd 2373 3b3e f758 2ebe 053f a73e
000000e0: 0da8 83be 2dc3 83be fae1 d43e 6422 90be
000000f0: 2015 f03e 7d8e 08be 673c 11bf 15f7 bd3e
00000100: aef6 8fbd d544 e13e de55 863e 5d43 d5be
00000110: 6ddd 273e 6956 12be a0c9 dc3e 711e 3d3e
00000120: 6034 03be e097 3c3e 9b3e c0bd 9dc4 6abd
00000130: 5398 5b3e 81a3 8e3d d0f2 4e3d dc00 87bd
00000140: 0171 dd3c 36ca 9d3e 2aee 5c3d 227c 3dbd
00000150: f51f 16bd 6e6c c63d a61f 1ebe c2b0 abbe
00000160: cdb8 5dbe c5bf 3ebe 9406 3abe b68c e6be
00000170: 776c c2be cb29 fcbd e10d 96bd a66c 0fbe
00000180: 8d48 b33d 6cc0 b93d 04fd 993e 6426 993e
00000190: 19f9 85be d9f1 8f3d ca6b 99bc 3519 4dbd
000001a0: 2388 febd 9d78 a93d f9cd 853e a89c 9abd
000001b0: 7157 b5bd 5505 17be 8039 833e cad2 39bd
000001c0: 2128 8bbe 022e 9dbe 2328 19be 4917 6fbd
000001d0: 0865 a3be 4be6 a1be 98c0 17be 9c52 adbd
000001e0: 9c83 dc3c df49 80bd ddfb b83d 73bf 663e
000001f0: ccc6 853e 9c43 d7bd 038d ea3d ecf6 e23c
00000200: bed1 3e3e 2786 c9bc 1b1a fb3d 8b96 973e
00000210: ed7d 8a3e 35a7 733d 21fe a1bd e46d 743e
00000220: 9e01 fa3d 12d9 d6bd d487 8ebe 10ab 18be
00000230: 5e4d 1e3d 1950 aebe c035 88be bc89 42be
00000240: 48f4 323c 71b7 ae3b 61c7 e3bc e831 913e
00000250: 25b6 323e 749d 0f3e 9fef 44bd a904 0ebe
00000260: 49ca 45be 4090 fcbd b1cb 0cbe 3ee2 633d
00000270: c77c 873e 60ab f23d d676 083e 1fc6 033d
00000280: 5856 fcbd 4ba2 f9bb c5df e53d 1089 903c
00000290: 8a7d 033d 3d23 bebe a1bb a0be 3621 96be
000002a0: c736 b2be a219 9ebe 0bb5 cebd 0694 6bbe
000002b0: c92a 3abe bd42 41be 5a24 0fbe 129e 60be
000002c0: cc3f 8abe 9cec 06be 9f47 26be 7bb4 4bbe
000002d0: 8d1e 8f3e 6efd 9c3e 9980 bd3e 3266 843e
000002e0: fc47 863e b55a 323d 24b9 343c 7a27 963d
000002f0: fe25 a73d 0e73 1e3e 0ac4 88be 0715 ccbe
00000300: 2263 8ebe 68a0 6ebe e0e7 18be 1211 e7bc
00000310: 9198 1bbe 37e2 ecbd bd21 e93b fb0d 363d
00000320: 4e01 b1bd c5c7 553d 33bf acba 0776 97bd
00000330: 8652 08be 6c77 c83e 77c3 903e 6265 f53e
00000340: 4dbf fb3e 1357 b73e 6cbb 323e 2c90 753e
00000350: 1c6d 543e 149d a93e c2ce 6d3e 2d49 cd3c
00000360: f896 6e3d d6ff 6bbd e387 853c 07a8 cc3d
00000370: 42b4 4a3e bc99 103e 2d3b d83d 8a05 6c3e
00000380: a7fb 3c3e ccfa 483e 7aa5 1e3e 4a34 51be
00000390: 5c20 373d fde1 39bd b91c 5d3e 5843 47be
000003a0: c52e 86be 86a0 cb3d 3581 e53d 0aab 293e
000003b0: 2d7a 49be 37c7 67be 2f2e 943e 378b d53c
000003c0: 4789 ffbd f16a 9fbe 1f01 18bd 9ea0 403e
000003d0: 7e20 363e 9ae2 c03c 1b54 83be 6fc8 863d
000003e0: 85b0 973e beb1 daba 88b0 c93d bcaf 19bd
000003f0: 877b 84be 2d97 c83d c107 a43d addd 8a3d

module.conv1.bias f4 [6]
-0.19516593 -0.56234324 0.009247124 -0.19096763 -0.12656665 -0.17325275
00000000: 94d9 47be baf5 0fbf 4081 173c 058d 43be
00000010: b09a 01be 2b69 31be

module.conv2.weight f4 [16, 6, 5, 5]
0.28307444 -0.041501865 0.44084466 0.030362427 -0.04146801 0.23846285 -0.1917955 0.2359837
0.28563848 -0.019521233 0.12938952 -0.07641788 -0.038231146 0.25408497 -0.006721654 -0.031826075
0.09355569 0.019466832 0.12733267 0.02918358 -0.051493842 -0.12146164 -0.1356673 -0.08902442
0.031018013 -0.06497157 0.07832939 0.050265882 0.00020436205 -0.0039207907 -0.123353526 0.05419299
-0.0012900401 0.012525315 -0.012356763 -0.20480193 0.0013064103 0.10907344 0.05877462 0.08065026
-0.23734681 -0.1288046 -0.014750473 0.054029483 0.059573885 -0.18939391 -0.0665424 -0.1391703
-0.043930322 0.050773516 -0.03603318 -0.051005296 0.03714552 0.061339557 0.06445511 -0.18904917
-0.07603751 -0.06728138 -0.014482848 -0.08991798 -0.245068 -0.19810791 -0.14920297 -0.11899686
-0.125957 -0.19666147 -0.023439027 0.06406729 0.005718859 0.071506664 -0.20861286 -0.07675967
-0.07204433 -0.0003449152 -0.051798373 0.31969926 0.06710353 0.022792174 0.32932425 -0.009064302
0.07167492 -0.021603588 -0.09121297 0.16069798 0.15369499 -0.0706712 0.02908706 -0.08765962
-0.046199836 0.20006695 -0.1627037 0.053289518 -0.06936231 -0.15135051 0.068063326 -0.2422793
-0.008273997 -0.10229809 -0.145801 -0.18615066 -0.051265728 -0.05609199 -0.11441932 0.030659953
0.043733347 -0.09544099 -0.046635304 -0.13549751 -0.07834343 -0.08486626 -0.03059009 -0.08231649
-0.0096128695 -0.041673314 0.0009249894 -0.02071781 0.0008642304 -0.00979916 -0.030323243 0.039227534
-0.0024089357 0.0367315 0.021325072 0.08780957 0.1332641 -0.060307097 -0.078673296 -0.20457202
-0.034137588 -0.0057945554 -0.0092458045 -0.014926183 -0.12815064 -0.06758113 0.04096649 0.06757206
0.06543874 -0.14630303 -0.18631311 -0.0061783153 -0.011981103 0.09755913 -0.09175433 -0.12916166
-0.08051366 0.08583392 0.10276874 0.011065281 -0.057893336 -0.10247667 -0.24558441 -0.07613948
0.034016993 -0.03173671 0.030772995 0.019756366 -0.06138495 -0.1661501 -0.008432321 0.103928134
0.3767377 -0.08136731 -0.17432076 -0.03931556 -0.015291742 0.33557612 0.45188978 0.116350405
-0.05364663 -0.0861098 -0.32349232 0.062055178 0.2518653 0.15938242 0.10506361 -0.08219807
-0.16405228 -0.102180056 -0.09049094 -0.08386493 0.04012031 -0.18232168 -0.22016379 -0.080829695
0.006332543 -0.05293081 0.047159 -0.19214402 -0.116079405 0.01273084 0.16085716 0.13526002
0.025030542 -0.12609065 -0.045896687 -0.013983607 0.17284968 0.23484266 0.24909937 0.13922612
0.05161087 0.110846356 0.05509133 0.024791839 0.07491493 0.07076474 0.10164019 0.09464731
0.046198167 0.012145401 -0.015941808 0.17093956 0.13748187 0.0019504777 -0.11147342 -0.35507554
0.076772705 0.3065116 0.14825504 -0.21108134 -0.24053968 -0.22171362 0.07753176 0.07909649
0.15169907 -0.036889017 -0.14439191 -0.109643884 0.008102534 0.021573009 0.05732348 -0.034337744
-0.008071426 0.022008859 -0.055228915 0.022865098 0.12559122 -0.0071652466 -0.011497883 -0.13895309
-0.22604327 -0.051212024 0.17444943 0.16581723 0.20837146 -0.2781899 -0.3968583 -0.24668756
-0.07375283 -0.024489427 -0.13812816 -0.07383568 -0.12035318 -0.0070768017 0.024822794 -0.104482874
00000000: 22ef 903e dcfd 29bd 64b6 e13e a0ba f83c
00000010: 5cda 29bd 9b2f 743e 0a66 44be b6a5 713e
00000020: 353f 923e feea 9fbc b07e 043e fa80 9cbd
00000030: 4398 1cbd 6d17 823e 5241 dcbb 0f5c 02bd
00000040: 209a bf3d e878 9f3c 7f63 023e 6712 ef3c
00000050: 35eb 52bd e1c0 f8bd 5eec 0abe 6f52 b6bd
00000060: 7d19 fe3c d10f 85bd 296b a03d 99e3 4d3d
00000070: 054a 5639 fa79 80bb c6a0 fcbd 78f9 5d3d
00000080: 9016 a9ba fb36 4d3c 0574 4abc 99b7 51be
00000090: db3b ab3a e561 df3d a8bd 703d f72b a53d
000000a0: 0b0b 73be 5ae5 03be f8ab 71bc 054e 5d3d
000000b0: bf03 743d 7af0 41be 6247 88bd a982 0ebe
000000c0: 48f0 33bd e4f7 4f3d 8797 13bd eeea 50bd
000000d0: e725 183d 303f 7b3d 0a01 843d 1b96 41be
000000e0: 8eb9 9bbd d2ca 89bd 7849 6dbc eb26 b8bd
000000f0: 1bf3 7abe cddc 4abe aac8 18be a0b4 f3bd
00000100: dffa 00be a061 49be 3403 c0bc b635 833d
00000110: 4465 bb3b 1672 923d 9c9e 55be 2d34 9dbd
00000120: fa8b 93bd bcd5 b4b9 882a 54bd 9faf a33e
00000130: 936d 893d a7b6 ba3c 309d a83e 7082 14bc
00000140: 4dca 923d 02fa b0bc decd babd 038e 243e
00000150: 3862 1d3e 10bc 90bd fc47 ee3c e386 b3bd
00000160: 0a3c 3dbd 5ade 4c3e cc9b 26be 1c46 5a3d
00000170: d40d 8ebd a1fb 1abe c964 8b3d 1118 78be
00000180: a98f 07bc a981 d1bd db4c 15be 479e 3ebe
00000190: 03fc 51bd b7c0 65bd ad54 eabd 952a fb3c
000001a0: bd21 333d 9176 c3bd a904 3fbd dcbf 0abe
000001b0: 8572 a0bd 5dce adbd 1298 fabc 8c95 a8bd
000001c0: 4c7f 1dbc a3b1 2abd fd7a 723a 66b8 a9bc
000001d0: 858d 623a a88c 20bc 7368 f8bc 0dad 203d
000001e0: 3cdf 1dbb c573 163d ebb1 ae3c 81d5 b33d
000001f0: 6276 083e 9304 77bd 771f a1bd 547b 51be
00000200: dbd3 0bbd 41e0 bdbb b77b 17bc f38c 74bc
00000210: ec39 03be fa67 8abd 7acc 273d 3863 8a3d
00000220: bf04 863d 76d0 15be ddc8 3ebe 7773 cabb
00000230: 634c 44bc 15cd c73d b2e9 bbbd f442 04be
00000240: 59e4 a4bd b2c9 af3d 6b78 d23d 274b 353c
00000250: 9021 6dbd 4adf d1bd 7b7a 7bbe 04ef 9bbd
00000260: 6755 0b3d 5afe 01bd a617 fc3c 1ad8 a13c
00000270: c96e 7bbd 4023 2abe b827 0abc 46d8 d43d
00000280: c4e3 c03e e7a3 a6bd 2481 32be 5a09 21bd
00000290: 378a 7abc a2d0 ab3e 195e e73e 1f49 ee3d
000002a0: 92bc 5bbd 565a b0bd c9a0 a5be 922d 7e3d
000002b0: 7df4 803e 2535 233e 972b d73d 7657 a8bd
000002c0: 52fd 27be c743 d1bd 5053 b9bd 60c1 abbd
000002d0: 3255 243d 89b2 3abe 9e72 61be 0a8a a5bd
000002e0: 3981 cf3b facd 58bd cc29 413d 67c1 44be
000002f0: 0abb edbd 0395 503c bdb7 243e 9a81 0a3e
00000300: da0c cd3c e81d 01be 2afe 3bbd 801b 65bc
00000310: 82ff 303e 987a 703e e813 7f3e 4b91 0e3e
00000320: eb65 533d 6a03 e33d 72a7 613d 4118 cb3c
00000330: 006d 993d 1bed 903d bb28 d03d 73d6 c13d
00000340: 4a3a 3d3d 81fd 463c 6598 82bc c80a 2f3e
00000350: 0cc8 0c3e 2ca7 ff3a 2d4c e4bd 76cc b5be
00000360: 023b 9d3d 17ef 9c3e 2bd0 173e b525 58be
00000370: 0950 76be e508 63be f9c8 9e3d 57fd a13d
00000380: 0057 1b3e f018 17bd 79db 13be f98c e0bd
00000390: 7ec0 043c e1b9 b03c 06cc 6a3d bca5 0cbd
000003a0: 043e 04bc ec4b b43c b737 62bd 964f bb3c
000003b0: fc9a 003e 72ca eabb 9e61 3cbc b849 0ebe
000003c0: e377 67be b3c3 51bd dfa2 323e fecb 293e
000003d0: 545f 553e e86e 8ebe 0331 cbbe aa9b 7cbe
000003e0: b90b 97bd 0d9e c8bc 7871 0dbe 2937 97bd
000003f0: ba7b f6bd 84e4 e7bb 2c59 cb3c 1efb d5bd

module.conv2.bias f4 [16]
0.1542036 -1.0126036 -0.6648392 -0.020068038 0.57129645 0.049763653 0.096608624 0.6106477
-0.17722002 -0.08932384 -0.44534886 0.9041128 0.20700768 -0.35612074 0.014217155 0.5153368
00000000: 8ce7 1d3e ff9c 81bf e732 2abf ba65 a4bc
00000010: 7c40 123f f9d4 4b3d beda c53d 6853 1c3f
00000020: 2a79 35be 6bef b6bd c404 e4be f073 673f
00000030: d2f9 533e 7555 b6be 12ef 683c 1ded 033f

module.fc1.weight f4 [120, 400]
0.003691781 -0.037116215 -0.0780897 -0.017478105 -0.091863 0.088870384 0.023250485 0.025119495
-0.01656415 -0.0367104 -0.004755314 0.018833399 -0.028048562 0.0039505777 0.021012643 0.021041552
0.0072311466 -0.0711177 0.011216519 -0.013194126 0.042323228 0.018837908 -0.053468596 -0.014200013
0.058758296 0.07957415 0.02072151 0.059382472 0.024662083 0.021380167 0.072497465 0.06234948
0.06839616 0.04974604 0.004661629 0.12907748 0.014305626 0.036382392 0.06800668 0.0314619
-0.01811837 -0.027409129 -0.114293136 -0.06307106 0.011873797 -0.1669892 -0.062230796 -0.07384216
-0.09727296 -0.0199764 0.10140376 -0.023767274 -0.027033083 0.033105962 -0.08123319 0.028850509
-0.0946906 -0.050821766 -0.02158126 -0.037330873 -0.005108243 0.01924203 -0.0290925 -0.06609652
-0.030297259 0.06092466 -0.025486557 -0.03946054 -0.021765739 0.005653457 -0.10262189 -0.0027228142
-0.084812045 -0.04936018 -0.0144785065 -0.037637785 -0.02669683 -0.012953675 -0.013362737 -0.036530938
-0.012094915 -0.04761076 -0.007763939 0.032609712 0.08907673 -0.07700617 -0.044482596 0.03145335
0.027375458 0.03689616 -0.006832807 -0.048324585 -0.0020372744 -0.02092161 0.049002506 0.038979825
0.038824666 0.015608819 0.0021378885 0.095972724 0.049212314 0.031534728 0.025106855 0.0343879
0.04425922 0.046179943 0.04082308 0.001995123 -0.005513487 0.0038632907 0.0043489975 0.035447337
0.064583935 0.046016004 -0.04415944 0.020255981 0.0190612 0.0533484 0.0030808311 0.012241942
0.052161284 7.715654e-05 0.0032299266 -0.060280595 0.0010206455 -0.027001586 -0.05347595 0.030747132
0.0065755052 -0.105060875 -0.07388632 -0.018228063 -0.026110351 -0.011957603 -0.07985604 0.026709542
0.054994624 -0.065657586 -0.055330567 -0.08988727 -0.018643262 -0.01518403 0.028499093 -0.008010256
-0.015857413 -0.074158266 -0.047073673 -0.02166382 -0.019795498 -0.03156949 0.01841321 -0.0049697896
-0.042958293 -0.08879196 -0.032474697 0.004270571 -0.06514093 -0.016215187 -0.027741373 0.004071598
0.030250588 -0.02800562 -0.081207894 -0.022376444 -0.03350414 -0.024708517 -0.034090478 -0.06039264
-0.023111563 -0.039726775 -0.024782164 -0.034361783 -0.037810713 0.024686307 0.05248185 0.08704449
0.006683365 0.015800575 0.107439734 0.11360714 0.043320365 0.094616905 0.13370898 0.08253122
0.071705446 -0.011238945 0.012901985 0.012996872 0.023008948 0.12293788 -0.037231736 0.017083297
0.020104136 0.036968034 0.056219548 0.043461338 -0.019151641 -0.013438995 0.040535003 0.012635196
-0.093032815 -0.026927352 -0.10836372 -0.10576863 -0.035444196 -0.044168632 -0.0335015 0.036033344
-0.054281224 0.02224141 0.036524475 0.039010316 0.053101856 -0.019888155 0.09894463 -0.06799859
-0.04187306 -0.023064535 -0.04757089 0.058135137 -0.096792616 -0.0077099684 -0.07206955 -0.063323684
-0.06815023 0.0036835626 -0.062223416 -0.05306377 -0.04290842 -0.0719387 0.08900841 0.0562979
-0.019464107 0.027007634 -0.1058337 0.1319554 0.035193626 0.013142526 0.028112445 -0.042775065
0.11426858 0.13930412 0.030291466 0.0190285 -0.01567941 0.08246294 0.0037263618 0.075152606
0.10861496 -0.039787043 0.0033597734 -0.012278995 -0.014605666 -0.05851063 -0.008199885 -0.019133706
00000000: cff1 713b 2c07 18bd 7eed 9fbd 3e2e 8fbc
00000010: ab22 bcbd ad01 b63d cd77 be3c 66c7 cd3c
00000020: 8ab1 87bc a55d 16bd 77d2 9bbb 8048 9a3c
00000030: 19c6 e5bc d973 813b b522 ac3c 555f ac3c
00000040: 41f3 ec3b 28a6 91bd 7ec5 373c 2d2c 58bc
00000050: 1f5b 2d3d f551 9a3c e301 5bbd 2ca7 68bc
00000060: 8aac 703d c6f7 a23d 28c0 a93c 093b 733d
00000070: 2308 ca3c 7625 af3c 8d79 943d 2b62 7f3d
00000080: 4913 8c3d 81c2 4b3d 94c0 983b e32c 043e
00000090: 2562 6a3c b405 153d 1647 8b3d 31de 003d
000000a0: fa6c 94bc 1c89 e0bc 8512 eabd 662b 81bd
000000b0: 508a 423c 38ff 2abe b8e5 7ebd 8f3a 97bd
000000c0: 0c37 c7bd 8ca5 a3bc c6ac cf3d 96b3 c2bc
000000d0: 7c74 ddbc 1e9a 073d 965d a6bd e757 ec3c
000000e0: 25ed c1bd 7c2a 50bd 2fcb b0bc 42e8 18bd
000000f0: 0c63 a7bb 76a1 9d3c 6553 eebc 9d5d 87bd
00000100: f531 f8bc 238c 793d 2fc9 d0bc 60a1 21bd
00000110: 104e b2bc a240 b93b 6d2b d2bd 3e71 32bb
00000120: f0b1 adbd e62d 4abd 4237 6dbc 142a 1abd
00000130: 4fb3 dabc a73b 54bc 62ef 5abc 77a1 15bd
00000140: c029 46bc 8003 43bd a468 febb c391 053d
00000150: dc6d b63d 69b5 9dbd 6233 36bd 3ad5 003d
00000160: 7f42 e03c 6e20 173d bde5 dfbb 00f0 45bd
00000170: cb83 05bb cc63 abbc dab6 483d 4fa9 1f3d
00000180: 9d06 1f3d 22bc 7f3c d11b 0c3b 598d c43d
00000190: da92 493d 8f2a 013d e4ac cd3c 54da 0c3d
000001a0: 2849 353d 2e27 3d3d 1a36 273d 9cc0 023b
000001b0: 7baa b4bb 432f 7d3b 0982 8e3b 3a31 113d
000001c0: 9544 843d 477b 3c3d 87e0 34bd dfef a53c
000001d0: 3c26 9c3c da83 5a3d c5e7 493b 6d92 483c
000001e0: 12a7 553d 1acf a138 2dad 533b c9e8 76bd
000001f0: 2ec7 853a 6e32 ddbc 9909 5bbd 69e1 fb3c
00000200: 5677 d73b 282a d7bd b651 97bd 0553 95bc
00000210: 60e5 d5bc d2e9 43bc 908b a3bd f8cd da3c
00000220: 0b42 613d 7c77 86bd 4ea2 62bd d116 b8bd
00000230: c1b9 98bc 70c6 78bc ee76 e93c 733d 03bc
00000240: 68e7 81bc 4ae0 97bd 53d0 40bd 5378 b1bc
00000250: 2b2a a2bc 024f 01bd 4dd7 963c 9ed9 a2bb
00000260: 09f5 2fbd 8fd8 b5bd 3004 05bd 25f0 8b3b
00000270: 9c68 85bd b6d5 84bc e041 e3bc 0a6b 853b
00000280: 15d0 f73c 0b6c e5bc 5350 a6bd ce4e b7bc
00000290: a33b 09bd 8469 cabc 75a2 0bbd 465e 77bd
000002a0: 7654 bdbc 8bb8 22bd f703 cbbc f1be 0cbd
000002b0: 68df 1abd f03a ca3c 35f7 563d 6244 b23d
000002c0: 2100 db3b 3570 813c 5d09 dc3d dcaa e83d
000002d0: b270 313d 82c6 c13d 02eb 083e 2106 a93d
000002e0: 4eda 923d 8d23 38bc d962 533c d5f0 543c
000002f0: 437d bc3c dbc6 fb3d 4e80 18bd 45f2 8b3c
00000300: 6eb1 a43c cb6b 173d 7846 663d 8404 323d
00000310: e7e3 9cbc 3b2f 5cbc 0808 263d da03 4f3c
00000320: fd87 bebd c096 dcbc cced ddbd 399d d8bd
00000330: ef2d 11bd 2bea 34bd de38 09bd b397 133d
00000340: fd55 5ebd 9e33 b63c b09a 153d 48c9 1f3d
00000350: 5581 593d 7cec a2bc 7ba3 ca3d d842 8bbd
00000360: 1683 2bbd d6f1 bcbc b2d9 42bd 1c1f 6e3d
00000370: 353b c6bd e7a3 fcbb 3399 93bd d9af 81bd
00000380: 5992 8bbd ed67 713b fbdd 7ebd 6559 59bd
00000390: bdc0 2fbd 9954 93bd 0b4a b63d a098 663d
000003a0: 3173 9fbc 1d3f dd3c 57bf d8bd 511f 073e
000003b0: 3127 103d c053 573c 124c e63c e834 2fbd
000003c0: a505 ea3d bda5 0e3e cf25 f83c a8e1 9b3c
000003d0: 1b72 80bc 54e2 a83d fa35 743b 9ce9 993d
000003e0: 8571 de3d bdf7 22bd a52f 5c3b d62d 49bc
000003f0: 9a4c 6fbc d8a8 6fbd cf58 06bc 4abe 9cbc

module.fc1.bias f4 [120]
0.17435725 -0.10956699 -0.11236678 -0.037081663 -0.18911092 -0.13122542 0.04931869 0.06196798
-0.07168786 -0.013817738 0.03169453 0.046105012 -0.09824212 -0.29026532 0.029324422 0.19289632
0.044071395 0.105861485 0.11754825 0.030365394 0.04562614 0.03369414 -0.07484496 -0.010993175
-0.07986695 -0.047987048 -0.06277485 0.14254355 0.24301505 0.0689788 -0.013660736 -0.030067384
0.038377475 -0.11719921 0.02616316 0.22082616 0.11801417 0.05867854 0.032667637 0.20111828
0.09706992 0.11925219 -0.13016942 0.11207193 0.178139 0.30268037 -0.012808379 0.15677804
0.0368137 0.10108764 0.24196102 -0.04988202 0.08696448 -0.0058150683 0.13826104 -0.009448818
-0.095819905 0.028039625 0.05247415 0.047672275 0.32103804 -0.01568052 0.15834138 0.053291325
0.03224275 -0.029622424 -0.20526506 -0.22145395 0.04126263 0.062264536 0.12238317 -0.054189034
-0.013389638 -0.026693478 -0.027570533 -0.057301264 0.074443415 0.10718534 0.07654166 -0.033887226
-0.101464875 0.07952766 0.036380935 0.072501145 0.10220804 0.34059927 0.12257748 -0.087354116
-0.258168 0.15194374 -0.031043477 0.14666648 0.048836634 -0.0008797006 -0.09961874 0.2016186
0.053577647 0.14932117 0.13296217 -0.061911337 -0.041013606 -0.045027133 -0.020385731 -0.020093253
0.1919731 -0.21781084 -0.03576425 -0.07530682 -0.10401261 0.17274286 -0.0394687 -0.053555273
0.028169818 -0.032593757 0.031305607 0.079452634 -0.07890647 -0.014777156 0.06833993 0.20255409
00000000: b58a 323e a864 e0bd 8e20 e6bd f1e2 17bd
00000010: 4ba6 41be f55f 06be 6502 4a3d 23d2 7d3d
00000020: 16d1 92bd cb63 62bc 20d2 013d 9cd8 3c3d
00000030: 2a33 c9bd a89d 94be c539 f03c 9d86 453e
00000040: 3584 343d e8cd d83d 23bd f03d d9c0 f83c
00000050: 7ae2 3a3d de02 0a3d 5048 99bd b81c 34bc
00000060: 4991 a3bd 118e 44bd 1a90 80bd f0f6 113e
00000070: f0d8 783e c244 8d3d 48d1 5fbc e04f f6bc
00000080: b331 1d3d 2406 f0bd 2054 d63c 4120 623e
00000090: 6ab1 f13d e958 703d 80ce 053d f3f1 4d3e
000000a0: 98cc c63d 7e3a f43d 224b 05be f885 e53d
000000b0: 126a 363e ecf8 9a3e 3cda 51bc 6c8a 203e
000000c0: f6c9 163d 0907 cf3d a1c4 773e 1751 4cbd
000000d0: 6f1a b23d 548c bebb 4d94 0d3e 37cf 1abc
000000e0: 3a3d c4bd 5bb3 e53c 22ef 563d 0144 433d
000000f0: 195f a43e 6f74 80bc 3e24 223e 0148 5a3d
00000100: f910 043d baaa f2bc 0131 52be d3c4 62be
00000110: 0103 293d 1909 7f3d 07a4 fa3d 52f5 5dbd
00000120: 3660 5bbc 48ac dabc 99db e1bc bbb4 6abd
00000130: ca75 983d fd83 db3d e0c1 9c3d 55cd 0abd
00000140: d1cc cfbd 66df a23d 2d04 153d 7b7b 943d
00000150: 7352 d13d 0763 ae3e e709 fb3d b7e6 b2bd
00000160: 992e 84be 2497 1b3e e44e febc bd2f 163e
00000170: ec08 483d b59b 66ba e904 ccbd 1b75 4e3e
00000180: 3c74 5b3d a6e7 183e 3c27 083e be96 7dbd
00000190: e2fd 27bd 5f6e 38bd faff a6bc 9b9a a4bc
000001a0: 9994 443e ce09 5fbe 897d 12bd 763a 9abd
000001b0: 9004 d5bd 81e3 303e eea9 21bd c65c 5bbd
000001c0: 64c4 e63c 0881 05bd 4f3a 003d 10b8 a23d
000001d0: b799 a1bd e21b 72bc cef5 8b3d 576a 4f3e

module.fc2.weight f4 [84, 120]
-0.12494451 -0.006424063 -0.055428844 -0.007960401 -0.14877243 0.0014397741 -0.00588448 0.06296628
0.1058326 -0.0665103 0.018719777 0.059326496 0.0021325122 0.01136719 -0.048702918 -0.06267134
0.08306885 -0.007551106 0.0033590372 0.07226082 -0.098635465 0.04534901 0.053719997 0.004514916
0.11495822 0.015574167 0.15655386 -0.13922463 -0.0042619673 -0.06371665 0.023690065 0.012697345
-0.0876265 0.023499666 0.047048308 -0.048478954 0.13244262 0.073980324 -0.088923015 -0.0867605
0.024467476 0.07306594 -0.049247876 0.010745502 -0.041356925 -0.07993544 -0.075788856 0.12666103
0.004054336 -0.009396484 0.044020876 -0.05954757 -0.17157376 -0.13779467 0.05686656 0.09168489
0.08438634 -0.100577906 -0.03014306 -0.09281453 -0.017146882 0.040104143 -0.11506753 -0.03417432
0.059786547 0.11622738 0.07824792 0.066696644 -0.04245954 0.121653005 -0.07590563 -0.040237486
0.034657042 0.09105538 0.03998187 0.095957 -0.07623381 -0.08125364 -0.07952238 -0.043962903
-0.03812126 -0.11971545 0.049698733 0.0039438875 -0.091866694 -0.05694871 0.126673 -0.0014856204
0.04008334 -0.08504271 -0.061222766 0.012611952 -0.111206494 0.026250072 -0.016312504 -0.09554428
-0.004106876 -0.017062942 -0.06801415 0.015586203 -0.036911093 0.054959413 -0.04041714 0.029481752
-0.12228064 -0.01389037 -0.0065596784 0.08021974 0.07827805 -0.010993902 -0.07766687 0.025877882
-0.012311897 -0.08786348 0.04896826 0.053440694 0.029439958 0.08461275 -0.024662348 -0.08569978
0.17729713 0.10009003 -0.0012122784 -0.13939671 0.06921705 -0.08677959 0.12292612 -0.06955752
0.06728351 -0.0133878635 -0.03958896 0.14645359 -0.04705994 0.07251402 0.012479645 0.07080127
0.012802393 -0.03864791 0.021201642 -0.025798464 -0.11462156 -0.058951776 -0.0050609796 -0.0029814248
0.026668051 -0.095936224 0.1651472 -0.08395118 0.109148085 0.033370506 -0.08859724 -0.07602754
-0.10292399 0.10583257 0.090119384 0.017114101 0.09922602 -0.13238934 -0.021936303 -0.1411597
-0.024786953 0.18611209 -0.17090559 0.07692224 0.046822242 0.04670646 0.010024043 0.06267031
0.02901538 0.06794001 0.064950794 -0.10307597 0.010159806 0.02723029 -0.082305856 -0.012671001
-0.053607926 -0.17470692 -0.078629896 -0.05621452 0.031540636 -0.032953933 -0.095176905 0.07086453
-0.07361658 0.04287013 0.19910078 -0.039606564 0.0026413582 0.19180137 0.08569102 0.09220279
-0.032676574 -0.08626105 0.0049139014 0.007767454 -0.10272667 0.03946841 -0.19152845 0.0047818804
-0.032144573 -0.048593413 -0.1404912 -0.07230824 0.102066405 0.07002802 -0.0122635225 -0.038221244
-0.019141817 0.21266368 -0.0372892 -0.14876989 0.08432539 0.029528148 -0.11159432 -0.10951824
-0.095049374 -0.005580406 -0.16111897 0.08721887 0.044657137 -0.08539209 -0.03604887 -0.093636826
-0.14944267 0.016227985 -0.047590878 -0.06981531 0.041689344 -0.09405345 0.004514781 0.017564824
0.0776047 0.032775424 -0.040471155 0.03251843 -0.05664997 0.03507305 0.036931872 -0.08241235
-0.0036772764 0.06358006 -0.111546814 0.03353995 -0.09273774 -0.084384635 0.081412084 0.10395465
-0.109973446 0.07229961 -0.018736752 0.008057968 -0.00032446455 -0.028692402 -0.03072407 0.10980056
00000000: e8e2 ffbd f280 d2bb 5b09 63bd 576c 02bc
00000010: cd57 18be cdb6 bc3a 99d2 c0bb 77f4 803d
00000020: c3be d83d 8d36 88bd 385a 993c 5700 733d
00000030: 9ec1 0b3b 733d 3a3c b67c 47bd d559 80bd
00000040: 0020 aa3d 456f f7bb 4b23 5c3b 7bfd 933d
00000050: 6401 cabd e2bf 393d 8009 5c3d dcf1 933b
00000060: 376f eb3d ca2a 7f3c a84f 203e e790 0ebe
00000070: f9a7 8bbb e07d 82bd ab11 c23c 8608 503c
00000080: 8675 b3bd 5f82 c03c bab5 403d de91 46bd
00000090: 0a9f 073e ff82 973d 451d b6bd 7daf b1bd
000000a0: 0470 c83c 98a3 953d 24b8 49bd e70d 303c
000000b0: e165 29bd 31b5 a3bd 3037 9bbd 6eb3 013e
000000c0: 3cda 843b b6f3 19bc 3c4f 343d 27e8 73bd
000000d0: 08b1 2fbe 0c1a 0dbe e9ec 683d 4ac5 bb3d
000000e0: bfd2 ac3d cafb cdbd 94ee f6bc 8b15 bebd
000000f0: 9e77 8cbc 3e44 243d 86a8 ebbd 5ffa 0bbd
00000100: bde2 743d 9f08 ee3d 7240 a03d 4098 883d
00000110: 0eea 2dbd 3625 f93d 6974 9bbd 10d0 24bd
00000120: 8bf4 0d3d 3e7b ba3d 08c4 233d 1b85 c43d
00000130: 7920 9cbd 4f68 a6bd a1dc a2bd 7212 34bd
00000140: 0a25 1cbd 602d f5bd e690 4b3d ba3b 813b
00000150: 9b24 bcbd 0d43 69bd 91b6 013e 26b9 c2ba
00000160: 6e2e 243d df2a aebd b9c4 7abd 5ca2 4e3c
00000170: 3bc0 e3bd 640a d73c cda1 85bc b8ac c3bd
00000180: f992 86bb 95c7 8bbc 014b 8bbd 465d 7f3c
00000190: 1630 17bd 1f1d 613d 718c 25bd b783 f13c
000001a0: 466e fabd 6f94 63bc 92f2 d6bb 3f4a a43d
000001b0: 3e50 a03d c41f 34bc cf0f 9fbd dafd d33c
000001c0: d7b7 49bc c5f1 b3bd f192 483d a1e4 5a3d
000001d0: 112c f13c 7349 ad3d b108 cabc 5e83 afbd
000001e0: 618d 353e 00fc cc3d 50e5 9eba 03be 0ebe
000001f0: abc1 8d3d 7fb9 b1bd b1c0 fb3d 2c74 8ebd
00000200: f0cb 893d c558 5bbc 0928 22bd eef7 153e
00000210: ecc1 40bd 3b82 943d 6d77 4c3c 4200 913d
00000220: 21c1 513c 454d 1ebd 11af ad3c 4d57 d3bc
00000230: b5be eabd 6b77 71bd 93d6 a5bb 0264 43bb
00000240: f576 da3c 367a c4bd 591c 293e 99ee abbd
00000250: 0889 df3d 83af 083d 7872 b5bd 54b4 9bbd
00000260: d0c9 d2bd bfbe d83d 8390 b83d df32 8c3c
00000270: 0337 cb3d 1291 07be c3b3 b3bc 2b8c 10be
00000280: 020e cbbc 2b94 3e3e e001 2fbe 6889 9d3d
00000290: aec8 3f3d 464f 3f3d e23b 243c 4b59 803d
000002a0: aab1 ed3c 2224 8b3d ec04 853d 7f19 d3bd
000002b0: 5175 263c 0f12 df3c f98f a8bd 089a 4fbc
000002c0: fc93 5bbd 5fe6 32be b608 a1bd 3241 66bd
000002d0: c130 013d b4fa 06bd 1cec c2bd 6c21 913d
000002e0: 4ac4 96bd 9798 2f3d 13e1 4b3e 7e3a 22bd
000002f0: a31a 2d3b 9467 443e c67e af3d d1d4 bc3d
00000300: dfd7 05bd a2a9 b0bd cb04 a13b 2086 fe3b
00000310: 5c62 d2bd a1a9 213d 0920 44be 52b1 9c3b
00000320: 07aa 03bd e309 47bd eddc 0fbe 5816 94bd
00000330: 3108 d13d da6a 8f3d f1ec 48bc e18d 1cbd
00000340: 4dcf 9cbc 82c4 593e 8fbc 18bd 2257 18be
00000350: cab2 ac3d 04e5 f13c 908b e4bd 194b e0bd
00000360: 3fa9 c2bd d7db b6bb 5ffc 24be cf9f b23d
00000370: 67ea 363d 0ce2 aebd fba7 13bd aac4 bfbd
00000380: 8007 19be 8df0 843c a7ee 42bd 54fb 8ebd
00000390: 72c2 2a3d 189f c0bd baf0 933b 1be4 8f3c
000003a0: 37ef 9e3d 863f 063d 15c5 25bd 0c32 053d
000003b0: cd09 68bd c2a8 0f3d e045 173d cec7 a8bd
000003c0: 76fe 70bb 4336 823d a872 e4bd 3061 093d
000003d0: 49ed bdbd dad1 acbd 61bb a63d 2de6 d43d
000003e0: c239 e1bd d111 943d d17d 99bc 9105 043c
000003f0: e51c aab9 540c ebbc 0bb1 fbbc 1edf e03d

module.fc2.bias f4 [84]
-0.12250941 -0.047897995 0.47207233 -0.011103599 -0.025658457 0.38968524 0.010571654 -0.056159172
0.00861509 0.26525256 0.55537474 0.02716222 -0.09035469 0.022575822 -0.010232171 -0.04157841
0.08246931 0.44291085 0.17746368 0.0040937695 -0.03783592 0.03321407 0.30699947 0.138625
0.095994405 0.011285877 0.23836444 0.15815274 0.03415521 0.14745417 -0.02307605 -0.01712018
-0.09367337 -0.28818715 -0.32382834 -0.09267116 0.19901843 0.22375482 0.032365277 -0.08607098
0.08131805 0.066558525 0.41269752 -0.0762126 0.12517592 0.19637163 -0.065408066 -0.0074961614
-0.055263344 -0.043314993 0.33642247 0.05172525 0.2512737 0.18234302 0.10272647 -0.09168297
0.4473387 0.08901289 0.20230925 -0.049361736 -0.12394119 -0.1534044 0.09018881 -0.081750534
-0.013751261 0.027685815 -0.07780898 0.09512119 -0.05107841 0.119855344 0.037719354 0.08310498
-0.033958286 0.19482355 -0.029661255 -0.069493435 0.17805295 0.24246399 0.022632789 0.08926295
0.107115254 0.009262641 0.46485326 -0.00400173
00000000: 37e6 fabd b030 44bd 77b3 f13e dfeb 35bc
00000010: af31 d2bc d384 c73e bb34 2d3c 2907 66bd
00000020: 4e26 0d3c 2fcf 873e 0a2d 0e3f 4e83 de3c
00000030: e10b b9bd eef0 b83c d6a4 27bc 1f4e 2abd
00000040: abe5 a83d 36c5 e23e 0ab9 353e 0725 863b
00000050: d6f9 1abd 7a0b 083d 092f 9d3e b6f3 0d3e
00000060: b798 c43d 66e8 383c cf15 743e cbf2 213e
00000070: 55e6 0b3d 3afe 163e fc09 bdbc 9f3f 8cbc
00000080: d3d7 bfbd 448d 93be d4cc a5be 61ca bdbd
00000090: 7dcb 4b3e fc1f 653e 7491 043d fb45 b0bd
000000a0: 148a a63d d64f 883d 174d d33e 5a15 9cbd
000000b0: 1e2e 003e a515 493e aaf4 85bd 5ca2 f5bb
000000c0: d15b 62bd 106b 31bd 913f ac3e dbdd 533d
000000d0: f2a6 803e 21b8 3a3e 4162 d23d 48c4 bbbd
000000e0: 9409 e53e 644c b63d 282a 4f3e 882f 4abd
000000f0: e1d4 fdbd 0b16 1dbe e9b4 b83d d36c a7bd
00000100: f84c 61bc 5dcd e23c 515a 9fbd e6ce c23d
00000110: 9837 51bd b876 f53d 9c7f 1a3d f232 aa3d
00000120: d817 0bbd d37f 473e 29fc f2bc 9352 8ebd
00000130: 8353 363e 7b48 783e 6668 b93c 7ecf b63d
00000140: 3e5f db3d 55c2 173c 3f01 ee3e f220 83bb

module.fc3.weight f4 [10, 84]
-0.043637298 0.11980284 -0.34114677 -0.03498972 -0.05439049 0.03323175 -0.13013393 -0.11421463
0.032115582 0.08437527 -0.31701875 0.05516097 -0.24108456 0.12400939 0.17937489 -0.14433269
0.16902384 0.0915817 -0.27014193 0.14924605 0.0682751 0.105279386 0.010538049 0.14732409
0.057278175 0.07987328 0.023739502 0.17317733 0.043501798 0.20614274 0.11846088 -0.12547174
0.23799314 0.22477405 0.12567179 -0.05839595 0.1730176 0.14531416 -0.06659357 -0.0334972
0.0009485254 0.27106178 0.023208741 -0.031275336 -0.12387822 -0.16168785 -0.07937014 0.027783426
0.06397163 -0.11594009 -0.16798519 0.09323949 0.2694423 -0.061378755 -0.13336502 -0.0090902615
-0.31556728 0.1907363 -0.2591524 0.039724335 -0.014038207 0.08225207 0.02196258 0.097521976
-0.12252109 -0.028374692 -0.15140362 -0.103195846 0.059537 0.006086719 -0.00807349 0.06568812
-0.113886274 -0.098972976 0.12467301 0.08131163 -0.10943374 -0.27725896 -0.00381391 0.14149806
-0.0843317 -0.041427415 0.31720367 -0.08583442 0.17127964 0.108761236 -0.41499445 0.0039545833
-0.012982638 0.009363518 0.22091688 0.04889647 0.09098608 0.092004485 -0.100427434 0.18688591
0.2438983 0.044582095 0.14378914 -0.124338984 -0.2158143 -0.21120375 -0.10799437 0.489805
0.13115121 0.18768531 -0.22157012 -0.1266089 -0.17521916 0.1738102 -0.2339497 -0.21032435
0.04378186 -0.05138685 -0.00516307 -0.012469117 -0.081389934 0.20323952 0.35120246 0.094998196
-0.13470575 -0.01694164 0.033561226 0.028571658 -0.006443448 -0.1701775 -0.089916416 0.11833269
-0.05421745 0.069898725 -0.1485913 0.19163537 0.0017559147 0.012426807 -0.17221454 0.07343357
0.054095034 -0.094032526 0.0023506917 -0.07825397 -0.16837387 -0.1316416 -0.074507646 -0.12479638
0.101294585 0.025693761 0.09115694 0.14160557 0.28809714 -0.040218793 0.116515025 0.011443383
-0.16717453 -0.08322211 0.0708219 0.040292796 0.120022446 -0.18162647 0.0889673 -0.17259003
-0.0620849 -0.061086047 -0.07991281 -0.22371052 -0.12210396 0.08046048 -0.005404526 0.065116145
0.09963927 0.010097703 0.22897892 -0.12959759 -0.045268346 -0.18032753 -0.08823445 0.101746224
-0.07838224 -0.09072353 0.26401317 0.04118261 0.021522922 -0.066473365 0.035183065 -0.18441056
0.17285946 0.29220447 0.1550974 -0.15820009 -0.09494172 -0.24114719 0.13386394 0.13001266
0.028721534 -0.13551232 0.19310491 -0.07960915 -0.025307864 -0.024681184 -0.0045109796 -0.0685323
-0.05416152 -0.10143936 -0.07159551 -0.0458579 0.048093468 0.11794676 -0.07615606 -0.021484878
-0.022346696 -0.012140622 0.13862176 -0.112054266 0.27625737 -0.17918873 0.034300406 -0.079665944
-0.009739722 -0.03799865 0.12761919 0.111830086 0.16696706 0.018005356 0.13407633 -0.01645565
0.020671904 0.22856955 -0.032752052 0.0088675255 -0.06922694 0.23369208 0.13255045 0.04784461
0.025703998 0.08209266 -0.043600433 -0.16539775 -0.16715659 0.030057639 -0.043718714 0.28654703
-0.13801129 0.03148854 0.0036149744 0.04056653 0.18625326 -0.00292798 -0.05310439 0.20948091
0.043214828 0.081624 -0.0044108373 0.20581232 -0.16944948 0.03531521 0.22810608 0.051117502
00000000: 06bd 32bd 315b f53d caaa aebe 6151 0fbd
00000010: 90c8 5ebd 041e 083d d441 05be 5ce9 e9bd
00000020: a18b 033d f1cc ac3d 4850 a2be 78f0 613d
00000030: dfde 76be a3f8 fd3d 0dae 373e f3cb 13be
00000040: 9614 2d3e 308f bb3d 0b50 8abe f5d3 183e
00000050: d1d3 8b3d b89c d73d c8a7 2c3c 20dc 163e
00000060: 859c 6a3d 9a94 a33d 5879 c23c 6655 313e
00000070: f12e 323d 1517 533e 9e9b f23d aa7b 00be
00000080: 79b4 733e 2b2b 663e 1bb0 003e 9730 6fbd
00000090: 872b 313e 3ccd 143e 3662 88bd 5c34 09bd
000000a0: 76a6 783a 9cc8 8a3e 4220 be3c 911a 00bd
000000b0: ddb3 fdbd 8091 25be d08c a2bd 119a e33c
000000c0: 8f03 833d ff71 edbd 4f04 2cbe 59f4 be3d
000000d0: 57f4 893e 4a68 7bbd d790 08be 52ef 14bc
000000e0: 0992 a1be 6050 433e a0af 84be fcb5 223d
000000f0: 8200 66bc c673 a83d deea b33c 9ab9 c73d
00000100: 56ec fabd 0b72 e8bc 8d09 1bbe 5858 d3bd
00000110: 12dd 733d 1a73 c73b ac46 04bc 7e87 863d
00000120: 353d e9bd 58b2 cabd 9054 ff3d b686 a63d
00000130: cc1e e0bd e3f4 8dbe cbf2 79bb dee4 103e
00000140: 19b6 acbd cbaf 29bd 8568 a23e f5c9 afbd
00000150: ee63 2f3e 36be de3d 277a d4be 7395 813b
00000160: 21b5 54bc 7169 193c 0938 623e aa47 483d
00000170: e956 ba3d d96c bc3d e6ac cdbd 055f 3f3e
00000180: 7ac0 793e b79b 363d 763d 133e 70a5 febd
00000190: 6dfe 5cbe cc45 58be 272c ddbd b9c7 fa3e
000001a0: 814c 063e 9430 403e 47e3 62be c3a5 01be
000001b0: a76c 33be 4dfb 313e 8390 6fbe 445f 57be
000001c0: 9c54 333d 057b 52bd f82e a9bb 444b 4cbc
000001d0: c4af a6bd 051e 503e cfd0 b33e 6a8e c23d
000001e0: 4ef0 09be 32c9 8abc 7f77 093d 1c0f ea3c
000001f0: 8f23 d3bb 0343 2ebe 1926 b8bd 6958 f23d
00000200: 1e13 5ebd 1027 8f3d 5128 18be 103c 443e
00000210: b826 e63a ce99 4b3c 0259 30be 5764 963d
00000220: c192 5d3d 2094 c0bd 100e 1a3b 9e43 a0bd
00000230: 336a 2cbe 0ecd 06be 7797 98bd 3f95 ffbd
00000240: 8973 cf3d b97b d23c 7db0 ba3d 0d01 113e
00000250: 7881 933e 76bc 24bd 6e9f ee3d 077d 3b3c
00000260: cd2f 2bbe 5b70 aabd 130b 913d 0f0a 253d
00000270: 54ce f53d 4afc 39be 7d34 b63d 71bb 30be
00000280: bc4c 7ebd 5d35 7abd 54a9 a3bd 5f14 65be
00000290: a411 fabd 77c8 a43d 7318 b1bb 9d5b 853d
000002a0: ac0f cc3d d670 253c 7379 6a3e 3bb5 04be
000002b0: 4d6b 39bd c8a7 38be 43b4 b4bd 5360 d03d
000002c0: de86 a0bd 42cd b9bd bc2c 873e 19af 283d
000002d0: d750 b03c 3023 88bd 1e1c 103d 1fd6 3cbe
000002e0: 1202 313e d39b 953e dad1 1e3e 34ff 21be
000002f0: ce70 c2bd 4aef 76be a113 093e 0a22 053e
00000300: 6c49 eb3c bec3 0abe 4bbd 453e 1f0a a3bd
00000310: 7052 cfbc 3230 cabc d7d0 93bb aa5a 8cbd
00000320: 78d8 5dbd 70bf cfbd aba0 92bd 7ed5 3bbd
00000330: a8fd 443d 128e f13d b5f7 9bbd 0e01 b0bc
00000340: 6b10 b7bc 76e9 46bc ddf2 0d3e b57c e5bd
00000350: 9b71 8d3e 407d 37be 957e 0c3d e627 a3bd
00000360: 5b93 1fbc 79a4 1bbd 9bae 023e 2c07 e53d
00000370: 6af9 2a3e f87f 933c 4e4b 093e 00ce 86bc
00000380: 2058 a93c 230e 6a3e 0427 06bd 1949 113c
00000390: dbc6 8dbd fa4c 6f3e 4ebb 073e b6f8 433d
000003a0: 3191 d23c 3220 a83d 5e96 32bd 075e 29be
000003b0: 192b 2bbe 703b f63c 6512 33bd 4bb6 923e
000003c0: d552 0dbe 21fa 003d 35e9 6c3b 1729 263d
000003d0: 2db9 3e3e 5ae3 3fbb fd83 59bd 2a82 563e
000003e0: 0802 313d 7c2a a73d c988 90bb 77c0 523e
000003f0: 2a84 2dbe afa6 103d a494 693e 9660 513d

module.fc3.bias f4 [10]
-0.22114514 -0.69382393 0.13541712 0.3011732 0.5473417 -0.24529527 0.07024589 -0.4335093
0.5833651 -0.4048234
00000000: df73 62be 729e 31bf c9aa 0a3e 6033 9a3e
00000010: 961e 0c3f af2e 7bbe 14dd 8f3d eef4 ddbe
00000020: 6a57 153f 0345 cfbe
