models/classifier_net_epoch_0_4000.pth (torch_old, 249853 bytes, 10 tensors)

module.conv1.weight f4 [6, 3, 5, 5]
0	0x3df8e331	0.12152708
1	0x3d96eb0f	0.073690526
2	0x3c0090ef	0.007847055
3	0x3dd41347	0.10355239
4	0x3e3c3d88	0.18382847
5	0x3e2c69c5	0.16837223
6	0xbc954f96	-0.018226426
7	0x3daa13f5	0.08304588
8	0x3dc227db	0.09480258
9	0x3e4df451	0.2011273
10	0x3ddb3e19	0.107052036
11	0x3d9238a5	0.0713971
12	0xbe215994	-0.15756828
13	0x3bdf00c9	0.0068055135
14	0xbc783f9f	-0.015151887
15	0xbd7dc47d	-0.061954964
16	0xbd9540e0	-0.072877645
17	0xbcc2e140	-0.023789048
18	0xbe35ff16	-0.17773089
19	0xbe1cfe71	-0.15331437
20	0xbd93c351	-0.07214988
21	0xbcf1e5a9	-0.029528456
22	0xbda37715	-0.079816975
23	0xbe1ae9f2	-0.15128306
24	0xbe3a18c1	-0.18173505
25	0x3de34099	0.110963054
26	0x37ef9bdf	2.8563603e-05
27	0xbe2f3ff8	-0.17114246
28	0xbe0a6142	-0.13513663
29	0xbdadc533	-0.084848784
30	0x3e0cac78	0.13737667
31	0xbe1dacd8	-0.15397966
32	0xbe52970b	-0.20565431
33	0xbe149bcd	-0.14512558
34	0x3dd70ac5	0.10500101
35	0xbce1b05d	-0.027549917
36	0xbd25bdae	-0.040464096
37	0xbe604229	-0.21900238
38	0xbcbcafb8	-0.023033008
39	0x3c3ba31e	0.011452464
40	0xbdcd5483	-0.10025885
41	0x3d2736c9	0.04082373
42	0xbe3637a5	-0.17794664
43	0xbd1fbc42	-0.038997896
44	0xbe24ad49	-0.16081728
45	0x3e0dc759	0.13845576
46	0xbdc510ad	-0.09622321
47	0x3c7512fb	0.014958139
48	0x3d0b3080	0.0339818
49	0xbde0f23a	-0.10983701
50	0x39aec161	0.00033331945
51	0x3b5c9c58	0.0033662524
52	0xbde37446	-0.11106162
53	0xbd9bfc0d	-0.07616434
54	0x3c22fb00	0.009947538
55	0x3da06f8a	0.078337744
56	0xbe17f248	-0.14838517
57	0xbe252e1e	-0.16130874
58	0xbd58b1e3	-0.05290402
59	0xbdccb9f9	-0.09996409
60	0xbc3ba639	-0.011453205
61	0xbe0a8d23	-0.13530402
62	0xbe26ad0d	-0.16276951
63	0xbdbdbbba	-0.092643216
64	0xbdf1d437	-0.11808055
65	0x3a538512	0.000806884
66	0x3d80f368	0.06296426
67	0xbd9619f6	-0.073291704
68	0xbc3f2613	-0.011666792
69	0xbc5a17cc	-0.013311338
70	0x3dbbd977	0.091723375
71	0xbd79c169	-0.060975466
72	0xbdb7846f	-0.089608066
73	0xbd50b6fb	-0.050955754
74	0x3d283bb4	0.041072562
75	0x3d9c3b13	0.07628455
76	0x3df59eb6	0.11993162
77	0xbdc5cc6f	-0.09658133
78	0xbdaea2a2	-0.085271135
79	0xbd9b4f5a	-0.075834945
80	0xbe067406	-0.13130197
81	0x3cdea5e9	0.027178722
82	0xbdd635f1	-0.10459507
83	0xbdcdb626	-0.10044508
84	0xbd50c1ad	-0.050965954
85	0xbe2fc405	-0.1716462
86	0xbe3d269b	-0.18471758
87	0xbdef846c	-0.11695179
88	0xbcaf6ab8	-0.021413192
89	0xbe17f750	-0.14840436
90	0xbe329d68	-0.17442858
91	0xbe2aa860	-0.16665792
92	0xbdce8247	-0.10083442
93	0xbd4ff95e	-0.050774924
94	0xbe3cef38	-0.1845063
95	0xbe1ef9cf	-0.15524982
96	0x3d186086	0.037201427
97	0xbe0906e7	-0.1338154
98	0x3bc52015	0.0060157874
99	0x3d7a8687	0.06116345
100	0xbd5af649	-0.053457532
101	0x3dd168d3	0.10225072
102	0xbcf0eb8c	-0.029409193
103	0xbd225c9b	-0.039639097
104	0xbb4ab926	-0.003093311
105	0xbc8fa494	-0.017534532
106	0x3d9766ce	0.07392655
107	0xbe0f523f	-0.13996218
108	0xbd840381	-0.06445981
109	0xbda01451	-0.07816375
110	0x3d55fe22	0.052244313
111	0xbc9a1dbe	-0.01881301
112	0xbc4f1004	-0.012638096
113	0xbd9cee8e	-0.07662688
114	0xbd5eb228	-0.05436912
115	0xbb1f2f99	-0.0024289845
116	0xbc871af3	-0.016492343
117	0xbce4f1ac	-0.02794727
118	0xbd3465b7	-0.044042315
119	0xbdfbee9b	-0.1230137
120	0x3d38dbdd	0.045131553
121	0xbdb08fae	-0.08621155
122	0xbdc9b2cc	-0.09848556
123	0xbc9346ce	-0.017978098
124	0x3dc5b412	0.09653486
125	0x3db9711b	0.09054776
126	0x3e1f4882	0.15555003
127	0xbb62f75d	-0.0034632303
128	0x3e132f17	0.14373432
129	0x3cb731b2	0.022362564
130	0x3c6b99c4	0.014379922
131	0x3d9457ae	0.07243286
132	0x3e00ef8e	0.12591383
133	0xbc13eae6	-0.009028172
134	0xbdc9fbca	-0.09862478
135	0xbc74ac45	-0.01493365
136	0x3d913482	0.07090093
137	0x3da8a7a1	0.08235098
138	0xbdf1480a	-0.117813185
139	0xbdf1109a	-0.117707446
140	0x3c80acb5	0.015707353
141	0xbdad2a9e	-0.08455394
142	0x3c96aded	0.018393481
143	0xbda7b1f3	-0.08188238
144	0xbc87890f	-0.016544847
145	0xbd7ccd93	-0.06171949
146	0xbd8855a4	-0.0665696
147	0x3e046c4f	0.12931941
148	0xbd32cc24	-0.043651715
149	0xbc075e40	-0.008262217
150	0xbcaeaaca	-0.021321673
151	0xbd943843	-0.072372936
152	0xbdaf40aa	-0.085572556
153	0xbd369a87	-0.044580963
154	0xbd218a0f	-0.039438304
155	0xbe00b662	-0.12569574
156	0x3d3f7b86	0.04674866
157	0xbdd09401	-0.101844795
158	0xbd59f8f5	-0.05321594
159	0xbdc15fa7	-0.09442072
160	0xbd68f537	-0.05687448
161	0x3d1078ed	0.035271574
162	0x3d56f291	0.052477423
163	0xbdadf3bc	-0.08493754
164	0xbc9484be	-0.018129703
165	0xbe607f3e	-0.21923539
166	0xbd19184f	-0.037376698
167	0xbc819bb3	-0.015821313
168	0xbe4fdcdd	-0.20299096
169	0xbe36d571	-0.17854859
170	0xbd8d9b37	-0.069143705
171	0xbdc11bdb	-0.09429141
172	0xbc7f2b7a	-0.01557433
173	0xbd96500c	-0.073394865
174	0xbc8d74d5	-0.017267624
175	0xbd9647b7	-0.07337897
176	0xbdaa3693	-0.083111905
177	0x3deb0253	0.11475053
178	0x3d5510ea	0.052018084
179	0x3ccf09b3	0.02527318
180	0x3e268411	0.16261317
181	0x3e151388	0.14558232
182	0x3e37d00d	0.17950459
183	0x3dc554ec	0.09635338
184	0x3e39baec	0.18137711
185	0x3dff0461	0.12452007
186	0x3d83146a	0.06400378
187	0xbbd5d179	-0.006525215
188	0xbd5f8658	-0.05457148
189	0x3db6d31c	0.08926985
190	0xbe277e72	-0.16356829
191	0xbe2f6320	-0.17127657
192	0xbd4588fe	-0.04822635
193	0xbe17835f	-0.14796208
194	0xbda19fdc	-0.07891819
195	0xbdd8089f	-0.10548519
196	0xbdef81e9	-0.116947
197	0xbd1c44b5	-0.03815146
198	0x3cb13f28	0.02163656
199	0x3d5a083f	0.05323052
200	0x3d14d84b	0.036339086
201	0x3e5bb732	0.21456602
202	0x3e57c07b	0.21069519
203	0x3dc4b085	0.09603981
204	0x3d578b96	0.052623354
205	0x3e840c0e	0.25790447
206	0x3dcaa790	0.09895241
207	0x3e7538a9	0.23947395
208	0x3e8a3cf3	0.26999626
209	0x3e6893f5	0.22712691
210	0x3e30ea82	0.17276958
211	0x3e566158	0.20935571
212	0x3cba4fab	0.022743067
213	0x3db0effd	0.08639524
214	0x3d8de75f	0.06928896
215	0xbc733734	-0.014844704
216	0x3deac99a	0.11464234
217	0xbcfae9f0	-0.030629128
218	0xbdbef95f	-0.093249075
219	0xbc8fde58	-0.017562076
220	0x3d102b86	0.035197757
221	0x3d68457b	0.056706887
222	0x3c8f2a14	0.01747612
223	0x3d98f1d8	0.07468003
224	0x3cb68e08	0.022284523
225	0xbd2aab6e	-0.041667394
226	0x3d802fe5	0.06259135
227	0xbd6f9e7e	-0.05850076
228	0x3e0a8e44	0.13530833
229	0x3d1687e5	0.036750693
230	0xbb76f06f	-0.003767993
231	0xbdaac8bb	-0.083390675
232	0xbd21e70d	-0.039526988
233	0x3d6ec52d	0.05829351
234	0x3dd77d69	0.10521967
235	0xbd1a948d	-0.037739325
236	0xba8bfb7b	-0.0010679805
237	0xbda9104a	-0.0825506
238	0x3db6f38b	0.08933171
239	0xbcc4e9fa	-0.02403735
240	0xbe3ffd70	-0.18749022
241	0xbdf31dcf	-0.1187092
242	0xbd9b845d	-0.07593606
243	0xbd8eda57	-0.06975239
244	0x3df872b1	0.12131251
245	0x3b4a7096	0.003088986
246	0xbe35af06	-0.17742547
247	0xbd7a5235	-0.061113555
248	0x3d9b583b	0.07585188
249	0xbda7ae36	-0.08187525
250	0x3c08a92d	0.008341116
251	0xbc880fbb	-0.016609063
252	0xbdc82dbc	-0.09774348
253	0x3d9e960e	0.077434644
254	0xbcb1a445	-0.021684775
255	0xbd9d4c33	-0.076805495

module.conv1.bias f4 [6]
0	0x3dfd6733	0.12373199
1	0x3cef4d46	0.029211652
2	0x3e5ff6c8	0.21871483
3	0x3c45e2b7	0.012077979
4	0xbd8925cf	-0.066966645
5	0x3e841b18	0.2580192

module.conv2.weight f4 [16, 6, 5, 5]
0	0x3df44193	0.1192657
1	0x3def8d77	0.11696904
2	0x3d7aee2a	0.061262287
3	0xbcb8af95	-0.022544662
4	0xbcee8349	-0.029115336
5	0x3d23b7ab	0.03997008
6	0xbc9ea155	-0.019364038
7	0x3de0c0cc	0.10974273
8	0x3db07374	0.08615771
9	0x3b056c6b	0.0020358812
10	0x3c87226e	0.01649591
11	0xbc982f65	-0.018577287
12	0xbcddb3da	-0.027063299
13	0x3bac50f5	0.0052586743
14	0xbb54d9fd	-0.0032478564
15	0xbd48f6fb	-0.049063664
16	0x3d26bc9a	0.04070721
17	0x3d3fd5fa	0.046834923
18	0x3cf00d82	0.029303316
19	0x3ba2a18b	0.004963105
20	0xbd25f806	-0.040519737
21	0xbdc7da86	-0.09758477
22	0xbda23fca	-0.07922323
23	0xbdaf2cde	-0.085534796
24	0x3d804304	0.06262782
25	0xbd98e3bf	-0.07465314
26	0x3cb9b61f	0.02266985
27	0x3b0b3814	0.0021243142
28	0x3d1c0ac9	0.038096223
29	0xbbad03bb	-0.0052799857
30	0xbdb9e8f3	-0.09077635
31	0xbccc1f08	-0.02491714
32	0xbd9af2e0	-0.07565856
33	0x3a4d8813	0.0007840406
34	0xbd8c0ee0	-0.06838775
35	0xbdcf65cb	-0.10126837
36	0xbc51578c	-0.01277722
37	0x3c548779	0.012971752
38	0xbc5b2db5	-0.013377597
39	0xbd2f9145	-0.04286315
40	0xbd5a5421	-0.053302888
41	0xbcb02339	-0.02150117
42	0x3c1ebd3c	0.009688672
43	0xbcdea10f	-0.027176408
44	0x3d5be3cd	0.053684045
45	0xbd28bc34	-0.04119511
46	0x3d18eda7	0.037336018
47	0xbdb040be	-0.086060986
48	0xbc15cef7	-0.009143583
49	0x3d889187	0.06668382
50	0xbba7afd3	-0.0051173954
51	0xbd39db27	-0.045375016
52	0xbc5513c8	-0.0130052045
53	0xbd6a3aaa	-0.057184853
54	0x3d249ebf	0.040190455
55	0xbd4aa3df	-0.049472686
56	0x3d31d97d	0.043420304
57	0x3cee9f3c	0.029128663
58	0x3c3ccd9d	0.011523631
59	0xbd70f24f	-0.058824833
60	0xbd6b33f7	-0.057422604
61	0xbd348a6e	-0.04407733
62	0xbd1a91fe	-0.037736885
63	0xbd4baefb	-0.04972742
64	0xbd843145	-0.0645471
65	0xbd918505	-0.071054496
66	0x3818ce35	3.643167e-05
67	0x3ccf693b	0.025318732
68	0xbcc6d54b	-0.024271628
69	0x3c9f648c	0.019457124
70	0xbd1271a8	-0.035752922
71	0x3d62d132	0.055375285
72	0x3d4df212	0.050279684
73	0x3d564cfe	0.05231952
74	0xbd9c85a4	-0.076426774
75	0xbb5d4240	-0.0033761412
76	0x3dba3a32	0.09093131
77	0x3d47e414	0.048801497
78	0x3dc23136	0.094820425
79	0x3c19b51c	0.009381559
80	0x3d464e8b	0.04841475
81	0xbd007c30	-0.031368434
82	0x3d4b24ab	0.049595516
83	0x3da73726	0.081648156
84	0x3daaa0de	0.08331464
85	0xbc7a919c	-0.015293505
86	0xbd801e98	-0.06255835
87	0xbc2df97e	-0.010618566
88	0x3d88c9e3	0.06679132
89	0x3d4bd771	0.049766008
90	0xbddb5783	-0.10710051
91	0xbb99a925	-0.004689353
92	0xbd97cd2a	-0.07412179
93	0xbd1a00ac	-0.037598297
94	0xbb6c8471	-0.0036089683
95	0xbdec8590	-0.115489125
96	0xbcafed73	-0.02147553
97	0xbc8a87a5	-0.016910383
98	0x3d6e8128	0.05822864
99	0x3d6f45b2	0.058416076
100	0x3d1f6e0f	0.03892332
101	0xbd752eee	-0.05985921
102	0xbd0b45b5	-0.034002025
103	0x3d45c8af	0.04828709
104	0x3c7bc874	0.015367616
105	0xbd40294d	-0.046914387
106	0x3cbdbfa4	0.02316267
107	0xbbedf0c6	-0.0072613684
108	0xbd015153	-0.031571697
109	0xbcacebfc	-0.02110862
110	0xbaf29136	-0.0018506411
111	0xbd97968e	-0.07401763
112	0x3d826863	0.063675664
113	0xbc98f7c7	-0.018672837
114	0x3da50366	0.08057289
115	0xbcd0fc83	-0.025511032
116	0xbcf379e9	-0.029721217
117	0x3c086fe4	0.008327458
118	0xbd9401ce	-0.07226907
119	0x3d4a36ea	0.049368776
120	0xbc4b6808	-0.01241494
121	0x3cc05ddd	0.023482258
122	0xbd11140e	-0.035419516
123	0xbc101ffe	-0.00879669
124	0x3dab1c99	0.08355064
125	0x3ceb3b80	0.028714895
126	0x3d28e10d	0.04123025
127	0x3cdc3746	0.026881825
128	0xbd3bdb16	-0.045863234
129	0x3d681e36	0.056669436
130	0x3d3996d9	0.045309875
131	0x3ce0ff03	0.027465349
132	0x3d4f66c5	0.050635118
133	0x3d560d4c	0.052258775
134	0x3d653f77	0.055968728
135	0x3d3be7ce	0.045875363
136	0x3cf379e8	0.029721215
137	0xbc93abe6	-0.018026303
138	0xbcad37c0	-0.021144748
139	0x3d709510	0.058735907
140	0xbd252691	-0.040319983
141	0x3cb71275	0.022347668
142	0x3c45a010	0.012062088
143	0xbcb57f32	-0.022155378
144	0xbc9f02c0	-0.019410491
145	0xbc6f51ca	-0.014606902
146	0x3b81105e	0.0039387187
147	0xbd96cc37	-0.0736317
148	0xbd2f4676	-0.042791806
149	0xbd1bc8ba	-0.038033225
150	0xbdb2bcf9	-0.0872745
151	0xbd62d85b	-0.055382114
152	0xbd314c90	-0.043285906
153	0xbd222ce9	-0.03959361
154	0xbdbd0a59	-0.09230489
155	0x3daeeda2	0.085414186
156	0xb9037daa	-0.00012539947
157	0xbdf575e4	-0.119853765
158	0xbdacdb55	-0.08440272
159	0xbba39a42	-0.004992754
160	0x3daab0a3	0.08334472
161	0x3dc5f774	0.096663386
162	0x3d52c320	0.051455617
163	0x3d38aa20	0.04508412
164	0xbc929a00	-0.017895699
165	0x3bbe48cb	0.0058070174
166	0x3e1cad0a	0.15300384
167	0x3d5bdd07	0.053677585
168	0x3df8bc4b	0.12145289
169	0x3da180cb	0.078858934
170	0xbd8b376e	-0.06797682
171	0x3d282c31	0.04105777
172	0x3c775ae4	0.015097354
173	0x3dd29abf	0.10283422
174	0x3d9d32a8	0.076756775
175	0xbcdd11c7	-0.026986016
176	0xbdccbc3c	-0.0999684
177	0xbbdc05cd	-0.0067145587
178	0xbc6f9434	-0.014622737
179	0xbdc9db7b	-0.09856316
180	0x3c225ed5	0.009910305
181	0xbdf5b554	-0.11997476
182	0xbdf675b0	-0.12034166
183	0xbd223715	-0.03960331
184	0xbd80e21a	-0.062931255
185	0xbda9faeb	-0.08299812
186	0x3d645ffc	0.0557556
187	0xbd92d88e	-0.07170211
188	0xbda709bf	-0.08156156
189	0x3b9e1395	0.0048241117
190	0x3da7734a	0.081762865
191	0x3cb243d3	0.021760857
192	0x3d2dd78b	0.042441886
193	0xbcbda7a6	-0.02315123
194	0x3dec952b	0.11551889
195	0x3d341bce	0.04397183
196	0x3dc8319f	0.097750895
197	0x3e0106bb	0.12600224
198	0x3d735b83	0.059413444
199	0xbcca59ec	-0.024701081
200	0x3dba0c71	0.09084404
201	0x3d955518	0.07291621
202	0x3d4f88f6	0.050667726
203	0x3d4888b8	0.04895851
204	0x3ce29522	0.027659003
205	0x3b05f1b9	0.0020438267
206	0xbcb1c3c4	-0.021699794
207	0x3c946b1e	0.018117484
208	0xbca0461e	-0.019564684
209	0x3d093029	0.033493195
210	0xbc6c99ff	-0.014441012
211	0x3d0def57	0.03465208
212	0x3d646a06	0.055765174
213	0x3cfae58b	0.030627033
214	0x3dad99b4	0.08476582
215	0xbd209486	-0.039204143
216	0x3d1c0cf2	0.038098283
217	0x3d966de4	0.07345179
218	0x3d2f81f3	0.04284854
219	0xbcb566bf	-0.02214372
220	0xbd1b837b	-0.037967186
221	0xbdb4c418	-0.088264644
222	0x3cd8e386	0.02647568
223	0xbdbc0b86	-0.091818854
224	0xbd877d2f	-0.06615674
225	0xbd903306	-0.07040982
226	0x3c7f4897	0.015581272
227	0xbde9b3f0	-0.114112735
228	0xbdb513f9	-0.088417
229	0xbd91ccd8	-0.07119149
230	0xbb844d20	-0.0040375143
231	0x3d3dd572	0.046346135
232	0x3d35decd	0.044401933
233	0x3c7dcc3a	0.015490586
234	0xbd732b30	-0.05936736
235	0x3c8f5e77	0.017501099
236	0x3d9133ab	0.07089933
237	0xbd615da8	-0.05502096
238	0x3d774ba0	0.060374856
239	0xbadad6ff	-0.0016696154
240	0xbd8d125a	-0.06888266
241	0x3c20789c	0.0097943805
242	0x3da478e8	0.080308735
243	0x3dbab420	0.09116387
244	0x3dde9e0e	0.1086999
245	0x3b8e267d	0.0043380843
246	0xbd7a9e52	-0.061186142
247	0x3d83580c	0.06413278
248	0x3d32c83c	0.04364799
249	0xbd21f838	-0.03954336
250	0xbd39f801	-0.04540253
251	0x3bfa2ac3	0.007634492
252	0xbd4fa1ad	-0.050691295
253	0xbcbfad98	-0.023398206
254	0x3d5d68c2	0.054054983
255	0x3c812a84	0.015767343

module.conv2.bias f4 [16]
0	0x3dbee619	0.093212314
1	0xbdc31f1f	-0.0952742
2	0xbddd0bc3	-0.10793259
3	0x3be4147d	0.00696045
4	0x3dd60179	0.104495
5	0xbd920955	-0.07130686
6	0x3d6d5a46	0.05794742
7	0x3d8c971d	0.0686476
8	0xbc3b325b	-0.01142558
9	0x3d5c4792	0.053779192
10	0xbd95c8be	-0.07313679
11	0x3d7d4fb9	0.061843608
12	0x3d0afdbb	0.033933382
13	0x3d01511a	0.031571485
14	0xbd7fbe7c	-0.06243752
15	0x3e02251a	0.12709466

module.fc1.weight f4 [120, 400]
0	0xbd11ce5e	-0.035597198
1	0xbd560dfd	-0.052259434
2	0xbd3eae92	-0.046553202
3	0x3d07315b	0.033006053
4	0xbcd28ec1	-0.025702836
5	0x3c99ef0c	0.018790744
6	0xbb3d265a	-0.002886197
7	0x3c02cf9a	0.007984066
8	0xbcafa335	-0.021440128
9	0xbc092c05	-0.0083723115
10	0xbce1623e	-0.027512666
11	0x3a01b7e8	0.00049483636
12	0xbc9c1eab	-0.019057592
13	0xbad8ffd2	-0.0016555733
14	0x3d0a80f5	0.03381439
15	0xbc6439bd	-0.0139297815
16	0x3d1f29ab	0.038858097
17	0xbd0a1255	-0.03370889
18	0x3c4a2614	0.01233818
19	0xbb6ab456	-0.0035813055
20	0x3d19527f	0.03743219
21	0x3d12ad57	0.03580984
22	0xbcf671f4	-0.030083634
23	0xbc80c3af	-0.01571831
24	0x3cfd2831	0.030902954
25	0x3c01a48f	0.007912769
26	0xbcd4f488	-0.025995508
27	0x3bd685fb	0.0065467334
28	0xbd5d7437	-0.05406591
29	0xbc0057c9	-0.00783343
30	0x3b9ff9ba	0.0048820646
31	0x3bf68ab9	0.0075238612
32	0xbb7418a8	-0.0037246142
33	0xbb7f5c57	-0.003896495
34	0xbd1810ca	-0.037125386
35	0x3ce47454	0.0278875
36	0x3c975199	0.018471526
37	0xb9de0ca9	-0.00042352572
38	0xbc126280	-0.008934617
39	0x3d1fa490	0.0389753
40	0xbce3c076	-0.027801733
41	0xbd26fadb	-0.04076658
42	0xbcd1cde4	-0.025610872
43	0xbd148a0a	-0.036264457
44	0xbd0a4de8	-0.033765703
45	0xbcd55ae2	-0.026044313
46	0xbb3e73b4	-0.0029060664
47	0xbd462e1c	-0.048383817
48	0xbc9bc903	-0.019016748
49	0xbd28f6ed	-0.04125111
50	0x3d168efe	0.03675746
51	0xbd4737f3	-0.04863734
52	0xbd52287a	-0.051308133
53	0x3c9a3c19	0.018827485
54	0xbd061592	-0.032735415
55	0x3d4016a3	0.046896588
56	0xbc4c05e0	-0.012452573
57	0x3d3e7ad9	0.046503875
58	0xb9b8c723	-0.00035243583
59	0x3d13194d	0.0359128
60	0x3cc2cbb5	0.023778776
61	0xbac13e3b	-0.0014743278
62	0x3c5c666d	0.013452155
63	0xbd015bb3	-0.03158159
64	0x3cbfe3ab	0.02342399
65	0x3d25693a	0.040383555
66	0xbd20fdef	-0.03930467
67	0xbd18220a	-0.037141837
68	0xbd116f7d	-0.035506714
69	0x3d0c8f71	0.034316484
70	0xbcd2a8ab	-0.025715193
71	0x3c1b06d8	0.009462081
72	0xbd496c43	-0.049175512
73	0xbc1e8ee4	-0.0096776225
74	0x3c89a365	0.016801545
75	0xbd1a6f34	-0.037703708
76	0x3c62158e	0.013799084
77	0xbca86804	-0.020557411
78	0xbb175cc6	-0.0023096069
79	0xbd6c9fc2	-0.057769544
80	0x3cf0aef9	0.029380308
81	0xbd23af19	-0.039961908
82	0x3cd9853c	0.026552789
83	0x3cbb4b87	0.022863163
84	0x3d0661a2	0.032807954
85	0x3b071e1d	0.0020617314
86	0x3c7dfbd3	0.015501934
87	0x3d01c5a0	0.03168261
88	0xbd2809e4	-0.041025057
89	0x3c93af72	0.018027995
90	0xbcb5b346	-0.02218021
91	0xbd307240	-0.043077707
92	0xbce6c459	-0.028169798
93	0xbc87f14f	-0.016594557
94	0xbd0e4018	-0.034729093
95	0xbc87ac87	-0.01656176
96	0xbc21acfb	-0.009867902
97	0xbcfbc137	-0.03073178
98	0xbccdc4ef	-0.02511832
99	0x3b937f1e	0.0045012375
100	0x3d261a3a	0.040552355
101	0x3d042f3b	0.032271605
102	0x3bba4a0a	0.0056850957
103	0x3cc71c0d	0.024305368
104	0x3d2a123d	0.0415213
105	0x3d618def	0.055067
106	0x3d4ba09d	0.04971372
107	0xbbe04779	-0.0068444577
108	0x3bfed637	0.0077770012
109	0x3c0767f6	0.008264532
110	0x3d275ced	0.040860105
111	0xbbf8deb2	-0.0075949067
112	0x3d4ca4ee	0.049961977
113	0x3d33288a	0.043739833
114	0xbcd8978f	-0.026439456
115	0x3ab28b46	0.0013621829
116	0xbca1d336	-0.019754034
117	0x3d3aee02	0.04563714
118	0x3c7e0dbc	0.015506204
119	0x3c321d82	0.010871293
120	0xbcd6bd48	-0.026213303
121	0xbd0618b2	-0.032738395
122	0x3d442a17	0.047891703
123	0xbcf6c443	-0.030122882
124	0x3a3e9886	0.00072706526
125	0xbb0278e7	-0.001990849
126	0xbd4afb68	-0.049556166
127	0x3cad56c3	0.021159535
128	0x3c980039	0.018554794
129	0xbd40f698	-0.04711017
130	0xbd05cd6d	-0.032666612
131	0xbc42683c	-0.011865672
132	0xbcca2354	-0.024675049
133	0xbd07e0c4	-0.033173338
134	0xbd4b0ca7	-0.049572613
135	0x3d3a27ea	0.04544822
136	0x3d3a9f86	0.04556229
137	0xbd1ae4a0	-0.03781569
138	0xbcfcedc0	-0.030875087
139	0xbd0251ab	-0.031816166
140	0xbd41f2d4	-0.04735072
141	0xbd10c7ac	-0.035346672
142	0x3cfa0fc9	0.030525105
143	0x3c10ec15	0.008845349
144	0x3cf3e0cb	0.029770276
145	0xbd4d063f	-0.050054785
146	0xbd239c91	-0.039944235
147	0xbcb04dc1	-0.021521451
148	0xbc56d302	-0.013111832
149	0xbcf8d286	-0.030373823
150	0x3ceb4aab	0.028722128
151	0xbc15626c	-0.009117704
152	0xbd40094e	-0.046883874
153	0x3b8adb02	0.0042375335
154	0x3cd31d9c	0.025770955
155	0xbc607acd	-0.013701153
156	0xbd352ef2	-0.044234224
157	0x3c8cb8ce	0.017177965
158	0x3cf31cad	0.02967676
159	0x3ba326c8	0.0049789883
160	0x3c4f2e27	0.012645281
161	0x3b7db542	0.0038712774
162	0xbcf50453	-0.029909289
163	0x3c154fd2	0.009113269
164	0xbd07cfec	-0.033157274
165	0x3c3cf390	0.011532679
166	0x3c683a45	0.014174049
167	0xbc702adb	-0.014658655
168	0xbcf393a6	-0.02973349
169	0xbcd481d7	-0.025940819
170	0x3d1cfdd4	0.038328007
171	0xbb84ef1a	-0.0040568234
172	0xbd1fe9cd	-0.03904133
173	0x3cf0e88e	0.029407766
174	0x3c9fdf1e	0.01951557
175	0x3d478043	0.048706304
176	0xbc42cf23	-0.011890206
177	0xbce48ce8	-0.02789922
178	0x3d4e4f8d	0.050368834
179	0x3d02afc3	0.0319059
180	0x3ca85607	0.020548834
181	0x3d1e4e34	0.0386488
182	0x3d034798	0.0320507
183	0x3ba08584	0.004898729
184	0x3ce38163	0.027771657
185	0xbc31246a	-0.010811904
186	0xbd166139	-0.036713813
187	0xbd1e6863	-0.03867377
188	0xbc71fbd6	-0.014769515
189	0x3d26c9e3	0.040719878
190	0xbd155c39	-0.036464904
191	0x3d473e36	0.048643313
192	0x3cdbeb5d	0.026845628
193	0x3d1ba676	0.038000546
194	0x3c26b551	0.010175065
195	0x3d3bdc7d	0.04586457
196	0xbd092a71	-0.03348774
197	0xbd016800	-0.031593323
198	0x3d263519	0.04057798
199	0x3d0601ac	0.03271644
200	0x3bd378b8	0.0064536
201	0x3c2d5dbc	0.01058143
202	0xbca3bfd1	-0.019988926
203	0xbd10cfcb	-0.035354417
204	0xbcd38383	-0.025819546
205	0xbb446960	-0.0029970035
206	0xbcda8172	-0.026673052
207	0x3d5a6dd8	0.05332741
208	0xbccf0307	-0.025269998
209	0x3d26cfe1	0.040725593
210	0x3d26fb5c	0.04076706
211	0xbc21680d	-0.009851468
212	0x3c7960b5	0.015220811
213	0xbd015e89	-0.031584296
214	0x3d125965	0.035729785
215	0xbd15d5c0	-0.0365808
216	0xbb918d11	-0.0044418653
217	0xbccada0e	-0.02476218
218	0xbd58afb7	-0.05290195
219	0x3d1c68fc	0.03818606
220	0xbce1cc61	-0.027563276
221	0x3cc1bde6	0.023650121
222	0xbd64da66	-0.055872343
223	0xbd5be46e	-0.053684644
224	0xbc99c6f9	-0.018771635
225	0xbbd50df5	-0.006501908
226	0xbd41ebd1	-0.047344033
227	0x3d14de1e	0.03634464
228	0x3c40ef06	0.011775738
229	0x3cb9c2fb	0.022675982
230	0x3d358a4e	0.04432135
231	0x3c81de6e	0.015853133
232	0xbd165c6a	-0.036709227
233	0x3d242076	0.04007002
234	0xbd438937	-0.04773828
235	0x3d02203a	0.031769015
236	0xbc7708e5	-0.015077804
237	0x3c1b239b	0.009468938
238	0x3cedfdcf	0.02905169
239	0xbc6ba456	-0.014382442
240	0x3d5c6b44	0.053813234
241	0x3d2da036	0.042389117
242	0x3ae117f1	0.0017173273
243	0x3c5e623e	0.013573227
244	0xbb5ee0a8	-0.0034008417
245	0x3cc0444e	0.02347007
246	0xbc5d3690	-0.013501778
247	0x3cc04a81	0.023473026
248	0x3d26b4e1	0.040699843
249	0xbd40edd6	-0.047101818
250	0x3b50c002	0.0031852727
251	0xbc4105a1	-0.011781127
252	0x3ce0965c	0.027415447
253	0xbcc2dcb5	-0.023786882
254	0x3cc4abc6	0.02400769
255	0x3c04727b	0.008083935

module.fc1.bias f4 [120]
0	0x3d342bb8	0.043987006
1	0xba64c11a	-0.0008726284
2	0x3cc03c32	0.023466203
3	0x3c03cf11	0.008044974
4	0xbd3912ce	-0.04518395
5	0xbd2762e4	-0.040865794
6	0xbb604488	-0.0034220535
7	0x3d2b82fe	0.04187297
8	0xbd158c30	-0.036510646
9	0xbd12d51e	-0.035847776
10	0x3bce7982	0.006301106
11	0x3c877db5	0.016539434
12	0x3d08077f	0.033210274
13	0xbd8bc016	-0.06823747
14	0x3d0db99c	0.03460084
15	0x3b266134	0.0025387527
16	0x3d01ac1b	0.031658273
17	0x3d0efb2d	0.03490751
18	0xbcda4bce	-0.026647475
19	0x3ca4cd39	0.020117389
20	0x3cd7e6e8	0.026355222
21	0xbc5f6c77	-0.0136367
22	0x3cf17aa4	0.029477425
23	0xbba59c3f	-0.0050540264
24	0xbc9b839f	-0.01898366
25	0xbcff9c8c	-0.031202577
26	0x3b4ec189	0.0031548461
27	0xbb6e0655	-0.0036319692
28	0x3d2da444	0.042392984
29	0x3c85aa65	0.016316602
30	0xbca1e513	-0.019762551
31	0xbc399f0f	-0.011329426
32	0xbb8e4aa9	-0.0043423963
33	0xbd41fca3	-0.047360074
34	0x3d440d35	0.047864158
35	0x3d29a7f4	0.04141994
36	0x3d1b32c1	0.0378902
37	0xbb9a52cb	-0.0047095767
38	0x3d775e56	0.0603927
39	0x3d541b81	0.051784042
40	0x3d41b943	0.04729582
41	0x3d3a141f	0.045429345
42	0x3c78cf27	0.015186108
43	0xba4e0fbf	-0.0007860623
44	0x3cf4f7b9	0.02990328
45	0x3b06ee1c	0.0020588702
46	0xbc4c2738	-0.012460522
47	0x3d0d9be8	0.034572512
48	0x3cb9ec4c	0.022695683
49	0x3cc1c48c	0.023653291
50	0xbc294a36	-0.010332635
51	0xbd33eaa1	-0.04392493
52	0x3c0aca43	0.0084710745
53	0xbd672db2	-0.056440063
54	0x3d91b305	0.071142234
55	0xbd15808d	-0.03649955
56	0xbc9feca4	-0.019522019
57	0xbb0daa59	-0.0021616428
58	0x3d2039cb	0.039117616
59	0x3ce23851	0.027614744
60	0x3d6c4706	0.05768492
61	0xbd7c3407	-0.061573055
62	0x3d799231	0.060930435
63	0x3c2b8156	0.010467848
64	0xbcfef9a0	-0.03112489
65	0xbd28d8a7	-0.04122224
66	0xbd22181e	-0.03957378
67	0xbcbe8297	-0.02325563
68	0x3d8d0b3a	0.06886907
69	0x3d245a32	0.04012508
70	0x3d2ad4db	0.0417069
71	0xbd13fd63	-0.03613032
72	0xbcbd6f3e	-0.023124333
73	0xbd0c89dc	-0.03431116
74	0x3cbb1069	0.022834973
75	0xbd228ed8	-0.039687008
76	0xbc8a5422	-0.01688582
77	0x3d0fd89e	0.03511869
78	0x3d9cf95f	0.07664751
79	0xbd1755a3	-0.036946904
80	0xbd0b6ebb	-0.034041148
81	0x3cdb3669	0.026759343
82	0xbcb37d6a	-0.021910388
83	0x3d343d88	0.044003993
84	0x3d390af0	0.045176446
85	0x3d21bd60	0.039487243
86	0x3d2ae846	0.04172542
87	0xb9bec697	-0.00036387585
88	0xbc04781f	-0.00808528
89	0x3d6b28fa	0.057412125
90	0xbc42aa9a	-0.011881495
91	0x3c945a04	0.018109329
92	0x3d2048ff	0.039132114
93	0x3d2586b7	0.040411677
94	0xba98ef19	-0.0011667936
95	0x3d5caa2a	0.05387322
96	0xbb8cfc3a	-0.0043025287
97	0xbcd5ab53	-0.02608267
98	0x3d0145bb	0.03156064
99	0x3c09217c	0.0083698
100	0xbcfed45c	-0.03110712
101	0x38e7f2c4	0.00011060157
102	0xbd006176	-0.031342946
103	0xbd1bfe72	-0.038084455
104	0x3d4ad2fa	0.04951761
105	0xbcefa6c4	-0.029254325
106	0xbd34bd74	-0.04412599
107	0xbd2454c2	-0.040119894
108	0x3c7ceb82	0.015437009
109	0xbb07ca98	-0.002072012
110	0x3bade330	0.005306624
111	0xbcc81325	-0.024423191
112	0xbcee454b	-0.029085776
113	0xbc35715f	-0.011074393
114	0xbbb106a6	-0.005402404
115	0x3cfff025	0.03124244
116	0xbd1e033c	-0.038577303
117	0xbc2adc03	-0.010428431
118	0xbaba178f	-0.0014197695
119	0x3d4537da	0.048148967

module.fc2.weight f4 [84, 120]
0	0xbd8f121c	-0.06985876
1	0x398d70d8	0.0002697769
2	0xbca916a9	-0.020640688
3	0xbc8cecf3	-0.01720283
4	0xbd8c2aca	-0.06844099
5	0xbd155728	-0.03646007
6	0xbd137fb9	-0.036010478
7	0x3d430a8f	0.04761749
8	0x3d9988e9	0.07496817
9	0xbd4587fb	-0.048225384
10	0x3d65ccbf	0.056103464
11	0x3d31d47a	0.043415524
12	0xbd004dd0	-0.031324208
13	0x3d7a08b2	0.06104345
14	0xbbe48567	-0.0069739106
15	0xbcddb915	-0.027065793
16	0x3d9ccf9a	0.07656784
17	0x3ca635f9	0.020289408
18	0x3cc473ec	0.023981057
19	0x3d2de1cb	0.04245166
20	0xbd6eebcc	-0.058330342
21	0x3da7715f	0.08175921
22	0x3d71f49d	0.059071172
23	0x3bbb4a34	0.005715633
24	0x3dab6249	0.08368356
25	0x3d0413da	0.032245494
26	0x3d280be8	0.04102698
27	0xbda3140d	-0.07962809
28	0x3abc87df	0.0014383754
29	0xbda496b2	-0.08036555
30	0x3cbb5f5e	0.022872623
31	0x3c7b4336	0.015335849
32	0xbcbc6986	-0.022999536
33	0x3d8bbe0e	0.068233594
34	0x3d19a09e	0.037506692
35	0x3d45dd08	0.048306495
36	0x3da4702e	0.08029209
37	0x3db18711	0.0866834
38	0xbd7fd62b	-0.062460106
39	0xbd94da8b	-0.07268246
40	0x3d693caf	0.056942638
41	0x3c5fc848	0.013658591
42	0xbc817213	-0.015801465
43	0x3cc0f7af	0.023555605
44	0xbc8e9ee8	-0.017409757
45	0xbc92f066	-0.017936897
46	0xbce7cd2c	-0.028296076
47	0x3d2e54fb	0.042561512
48	0xbd11eb65	-0.03562488
49	0x3c476fa2	0.012172611
50	0x3d8e17c5	0.069381274
51	0x3b2ed74a	0.0026678615
52	0xbd82132f	-0.06351315
53	0xbd82228c	-0.063542455
54	0x3da732c1	0.081639774
55	0x3db36d4f	0.08761083
56	0x3d13b033	0.03605671
57	0xbd4a1db1	-0.049344722
58	0xbc7fb237	-0.015606455
59	0xbcfa2602	-0.030535702
60	0x3d6d7ed3	0.057982277
61	0x3d25d5b4	0.040487006
62	0xbda131c8	-0.07870823
63	0x3c5c32c7	0.013439841
64	0x3d4d0b7d	0.050059784
65	0x3dae7b3f	0.08519601
66	0x3d474d9f	0.04865801
67	0x3d9f3551	0.07773841
68	0xbbf8cc28	-0.0075926967
69	0x3d825ec3	0.063657306
70	0x3c6ed531	0.014577196
71	0x3d5f1d35	0.054471213
72	0xbc5a4be6	-0.01332376
73	0x3d871473	0.06595697
74	0x3c2e52b1	0.010639832
75	0x3d93740b	0.07199868
76	0xbd904897	-0.070450954
77	0xbd295cc7	-0.041348245
78	0xbda0fe97	-0.07861059
79	0xbd28da6c	-0.04122393
80	0xbcbac4ec	-0.022798978
81	0xbd9bf767	-0.076155476
82	0x3d141cc2	0.036160238
83	0x3c9801b0	0.018555492
84	0xbd9ac95f	-0.0755794
85	0x3d28f015	0.041244585
86	0x3db3cf06	0.08779721
87	0xbb9173ad	-0.0044388385
88	0x3d125417	0.035724726
89	0x3bb5bbab	0.0055460534
90	0xbd1bf4c0	-0.03807521
91	0xbc04ec6c	-0.008113008
92	0xbda0ea12	-0.07857145
93	0xbcf0b586	-0.029383432
94	0xbd96ab9d	-0.073569514
95	0xbdc11055	-0.09426943
96	0x3be5da2e	0.0070145344
97	0xbd876ac1	-0.066121586
98	0xbd6630f8	-0.056199044
99	0x3cdfc430	0.02731523
100	0xbd633b2a	-0.055476345
101	0x3d5ad8fe	0.053429596
102	0xbd4c48db	-0.049874168
103	0x3d6ead66	0.058270834
104	0xbd910f2e	-0.070829734
105	0xbd2face3	-0.042889487
106	0xbcaefb98	-0.021360204
107	0x3d8c38eb	0.06846794
108	0x3d9f362b	0.077740036
109	0x3a666802	0.0008789302
110	0xbd9de705	-0.07710079
111	0xbbd01c8f	-0.0063510607
112	0xbd09895c	-0.03357826
113	0xbd75005d	-0.0598148
114	0x3d24135d	0.04005753
115	0x3d779d13	0.060452532
116	0x3d912f59	0.07089109
117	0x3db18fe4	0.08670023
118	0xbc82929d	-0.015939051
119	0xbd9843b7	-0.074347906
120	0x3d5f557e	0.05452489
121	0x3d9f203f	0.07769822
122	0x3d4c20fe	0.04983615
123	0xbdc71212	-0.097202435
124	0x3df1f306	0.11813931
125	0xbd81bd18	-0.06334895
126	0x3d1d5e19	0.038419817
127	0xbc683946	-0.014173811
128	0xbcab2a79	-0.020894276
129	0xbb83561c	-0.004008068
130	0x3cc0859b	0.023501208
131	0x3da4b335	0.080419935
132	0x3b9507a4	0.00454803
133	0x3cf598fa	0.029980171
134	0x3d247126	0.04014697
135	0x3c0770fe	0.0082666855
136	0xbc0d6a89	-0.008631357
137	0xbc24339d	-0.010022071
138	0x3cf7c027	0.030242993
139	0xbc802017	-0.015640302
140	0xbd4430ee	-0.047898225
141	0x3d5bdaa9	0.053675327
142	0x3cf2f8dd	0.029659683
143	0xbb36bb91	-0.0027882794
144	0x3c3f1829	0.011663475
145	0xbd95817b	-0.07300087
146	0x3db43c45	0.08800558
147	0xbd7289ce	-0.059213452
148	0x3db03f73	0.08605852
149	0x3d1672a8	0.03673044
150	0xbda6e818	-0.08149737
151	0xbd964b64	-0.07338598
152	0x3ca0f7fe	0.019649502
153	0x3dbec14e	0.09314214
154	0x3d9b6fb9	0.07589669
155	0xbd585ca4	-0.052822724
156	0x3da3dc90	0.08001053
157	0xbdcfdeb1	-0.10149897
158	0xbd3b8145	-0.045777578
159	0xbdd19e90	-0.102353215
160	0x3c8e6f27	0.017386986
161	0x3da5665c	0.08076164
162	0xbd429ef4	-0.04751487
163	0x3c7eb78d	0.015546692
164	0x3d211072	0.039322324
165	0xbd1393e0	-0.036029696
166	0xbd0d9ce3	-0.034573447
167	0x3c0b2fdc	0.008495297
168	0x3c106ec4	0.008815471
169	0x3d6dd4a3	0.058064114
170	0x3d00192e	0.031274013
171	0xbd96a67a	-0.07355972
172	0x3d103de7	0.035215285
173	0x3ddc0fd4	0.107452065
174	0xbd1a56b4	-0.037680343
175	0xbd86dd6d	-0.06585202
176	0x3d286a6a	0.04111711
177	0xbd7093ad	-0.058734585
178	0xbd53b9c5	-0.051690836
179	0xbd383f98	-0.044982523
180	0x3d5914df	0.05299842
181	0xbc1bbbc3	-0.009505215
182	0xbd7f4cbd	-0.062329043
183	0x3d37fc90	0.044918597
184	0xbd49d704	-0.04927732
185	0x3c1ca1bb	0.009560044
186	0x3dee007c	0.11621186
187	0xbc73d2a4	-0.014881764
188	0x3d890a91	0.066914685
189	0x3d9082be	0.07056187
190	0x3d44a993	0.04801328
191	0x3b94ff27	0.004547018
192	0x3ab21d0a	0.0013588977
193	0xbd5fdfb7	-0.05465671
194	0x3d8bf64a	0.06834085
195	0xbc1fe820	-0.009759933
196	0xbcf22aa1	-0.029561343
197	0x3bfb0f06	0.007661703
198	0xbdee753a	-0.11643453
199	0xbb8d38db	-0.004309756
200	0xbda31862	-0.07963635
201	0xbd8e2604	-0.06940845
202	0xbd83aa68	-0.06428987
203	0xbd14c353	-0.03631909
204	0x3d0d1116	0.034440123
205	0x3d22851c	0.039677724
206	0x3bbc0359	0.0057377038
207	0x3beced19	0.0072304127
208	0x3d92aae0	0.07161498
209	0x3dd7b527	0.10532599
210	0x3bdb5f37	0.0066947
211	0xbd9f5abc	-0.07780978
212	0x3dab1c2a	0.08354981
213	0x3d845e89	0.06463344
214	0xbcd6f0c7	-0.026237858
215	0xbdb7a911	-0.08967794
216	0xbdba7571	-0.091044314
217	0xbc9eb591	-0.019373687
218	0xbd7499e2	-0.059717067
219	0x3dadb530	0.084818244
220	0x3db0bb0e	0.08629428
221	0xbd3633c7	-0.044482972
222	0xbda779cc	-0.08177528
223	0xbd4635cc	-0.04839115
224	0xbd908543	-0.07056668
225	0x3d20b361	0.03923357
226	0xbd6402f2	-0.05566687
227	0xbda2c106	-0.079469725
228	0x3cbdab06	0.02315284
229	0xbd038585	-0.032109756
230	0x3d1fe3a5	0.039035458
231	0x3b1de7a2	0.0024094363
232	0x3d823789	0.06358249
233	0x3cb03fee	0.021514859
234	0xbd8af32f	-0.06784665
235	0x3db1947c	0.08670899
236	0xbbe9e3a2	-0.0071377316
237	0x3d11445a	0.035465576
238	0x3c857e05	0.016295442
239	0xbdad590a	-0.084642485
240	0x3be70423	0.0070500537
241	0x3deff7e7	0.117172055
242	0xbd96b0ab	-0.073579155
243	0x3d51e47d	0.051243294
244	0x3acadb4c	0.0015476733
245	0xbdab653c	-0.08368918
246	0x3d97cbaa	0.07411893
247	0x3dbbf3e3	0.09177377
248	0xbdaa20df	-0.08307051
249	0x3d9eb46d	0.07749257
250	0x3d2c1420	0.04201138
251	0x3c8642c0	0.01638925
252	0x3d9de15c	0.077089995
253	0xbdad782e	-0.08470188
254	0x3cb29bbf	0.021802781
255	0x3dff9b98	0.12480849

module.fc2.bias f4 [84]
0	0xbda05438	-0.078285635
1	0x3d09d92b	0.033654373
2	0x3b5a1bdd	0.0033280768
3	0xbd5d971f	-0.0540992
4	0xbd3d583e	-0.046226732
5	0x3e014784	0.12624937
6	0xbd3e1265	-0.04640426
7	0xbd9a810a	-0.075441435
8	0x3b384cf8	0.0028122049
9	0x3dbfffbb	0.093749486
10	0x3da382b7	0.07983916
11	0xbd160798	-0.036628336
12	0xbd2ff3d3	-0.04295714
13	0xbd8cab55	-0.068686165
14	0xbc50d9ec	-0.012747269
15	0x3c2feab2	0.010737108
16	0xbc90d97b	-0.017681828
17	0x3e281175	0.1641291
18	0x3cfe78e6	0.031063508
19	0x3d8d87df	0.06910681
20	0xbd266350	-0.040622056
21	0x3d4f0330	0.05054015
22	0x3d56d0c7	0.0524452
23	0xbd03a8c9	-0.032143388
24	0x3daadf5a	0.08343382
25	0xbd48f638	-0.049062937
26	0x3dbeeb64	0.09322241
27	0x3dbfa70b	0.09358033
28	0x3d17892c	0.03699605
29	0x3d383b30	0.04497832
30	0xbcfe1a53	-0.031018412
31	0xb96be302	-0.00022495913
32	0xbd84180f	-0.06449901
33	0xbd99dcb4	-0.07512799
34	0xbdddc9b8	-0.108294904
35	0xbda0cbc8	-0.07851368
36	0x3caef540	0.021357179
37	0x3e049f6e	0.12951443
38	0x3c3a404f	0.011367871
39	0xbda2833b	-0.079351865
40	0x3ce393ec	0.027780496
41	0x3d31561b	0.043295007
42	0x3dedcdcf	0.116115205
43	0xbda14527	-0.07874518
44	0xbd87d8c9	-0.06633145
45	0x3d35ad89	0.04435495
46	0xbd309def	-0.043119367
47	0x3d6de3ad	0.058078457
48	0xbd87fa58	-0.06639546
49	0xbd2f4ecb	-0.042799752
50	0x3c47be34	0.012191344
51	0xbca569bc	-0.02019202
52	0x3dd00d6f	0.10158812
53	0x3cfac7f6	0.030612927
54	0x3cac07ff	0.020999907
55	0xbdb87d8c	-0.09008321
56	0x3d6f82a5	0.0584742
57	0x3d068202	0.03283883
58	0x3cf39dbc	0.0297383
59	0xbdc8a9ba	-0.09797998
60	0x3c012597	0.007882497
61	0xbdc37e47	-0.0954557
62	0x3c835e9b	0.016036322
63	0x3b4ba006	0.0031070723
64	0xbcc03de5	-0.023467014
65	0xbc660d3e	-0.014041243
66	0xbdb018b1	-0.085984595
67	0xbceae2f1	-0.028672667
68	0xbda4de21	-0.0805018
69	0x3d3f5c78	0.046719044
70	0x3d7b9dfa	0.061429955
71	0x3d027080	0.03184557
72	0x3c7889e7	0.015169597
73	0x3c80e734	0.015735246
74	0xbb29a3ea	-0.0025885054
75	0xbda94cc3	-0.08266594
76	0x3d792927	0.06083026
77	0x3db76253	0.08954301
78	0x3bc2f3ca	0.005949472
79	0x3d92c964	0.071673185
80	0x3ccc7469	0.024957852
81	0x3d331088	0.043716937
82	0x3e09c56f	0.13454221
83	0xbcd9ca1e	-0.026585635

module.fc3.weight f4 [10, 84]
0	0xbc33efe9	-0.010982492
1	0xbc1e6067	-0.009666539
2	0xbe20a573	-0.15688114
3	0xbd0c008a	-0.0341802
4	0xbd8b9b18	-0.06816691
5	0x3dae1784	0.08500579
6	0xbda849de	-0.08217214
7	0xbd77f690	-0.060537875
8	0xbc8186fa	-0.015811432
9	0xbcf39dbd	-0.029738301
10	0xbdb0ba89	-0.08629329
11	0x3d2b246d	0.041782785
12	0xbdf824fa	-0.12116428
13	0x3dd059d6	0.10173385
14	0x3d541834	0.051780894
15	0xbe073bb4	-0.13206369
16	0x3ddaf958	0.1069209
17	0x3dc7812c	0.097414345
18	0xbe1195db	-0.14217322
19	0x3d6d1664	0.05788268
20	0x3daf93fb	0.08573147
21	0x3d0b8e23	0.0340711
22	0xbd5ed079	-0.054398034
23	0x3df1a9eb	0.117999874
24	0x3d44def5	0.04806419
25	0x3d17b50c	0.037037894
26	0x3dad63dd	0.08466313
27	0x3e38293f	0.17984484
28	0x3da6ce0f	0.08144771
29	0x3d99de7c	0.07513139
30	0x3d87226f	0.065983646
31	0xbdb7dd19	-0.08977718
32	0x3d8fff7d	0.070311524
33	0x3d0bc5a2	0.034124024
34	0x3d02b842	0.031914003
35	0xbd9a315e	-0.07528947
36	0x3d828d5a	0.06374617
37	0x3e0c2e1a	0.13689461
38	0xbd9a00f2	-0.075197116
39	0xbd9317eb	-0.07182296
40	0x3d360d6c	0.044446394
41	0x3e327927	0.17429028
42	0xbc237f75	-0.009979119
43	0xbdbd222f	-0.09235036
44	0xbde61b85	-0.11235718
45	0xbddb3383	-0.107031845
46	0xbdc81578	-0.0976972
47	0xbccb3084	-0.024803407
48	0x3d119642	0.035543688
49	0xbdcc753c	-0.09983298
50	0xbe10e451	-0.14149596
51	0x3d9c36a2	0.07627608
52	0x3dcdbe17	0.100460224
53	0xbd5a287a	-0.053261258
54	0xbd85c4e9	-0.06531698
55	0xbc84a9b7	-0.016194208
56	0xbdfe6557	-0.12421673
57	0x3cc58bbb	0.02411448
58	0xbe0d14c5	-0.13777454
59	0xbd803182	-0.06259443
60	0xbde18ddb	-0.11013385
61	0x3bd5f1fc	0.006529091
62	0x3d663cdc	0.056210384
63	0x3d982c14	0.07430282
64	0xbc5fbff2	-0.013656603
65	0xbbf77eda	-0.0075529637
66	0xbde1369a	-0.109967425
67	0xbc7658cc	-0.015035819
68	0xbc91defb	-0.01780652
69	0xbcbe069b	-0.02319651
70	0xbca3215f	-0.019913374
71	0x3cf98b57	0.03046195
72	0xbd4feabd	-0.050760973
73	0xbc85252f	-0.016253082
74	0x3d91c152	0.07116951
75	0x3c0221bf	0.007942616
76	0xbd88bb87	-0.06676393
77	0xbddbe415	-0.107368626
78	0x3d121543	0.035664808
79	0x3dbcf737	0.0922684
80	0xbcb7dc33	-0.022443866
81	0xbc1b43c4	-0.009476606
82	0x3e3bd9d1	0.18344809
83	0xbd8e02ec	-0.06934151
84	0x3d7d91c6	0.0619066
85	0x3e027eab	0.12743632
86	0xbe55a6f8	-0.20864475
87	0x3c4109cf	0.011782124
88	0x3d052db3	0.032514285
89	0x3c4a0720	0.0123308
90	0x3d500b13	0.05079181
91	0x3dabadc9	0.08382756
92	0x3d90275a	0.07038756
93	0x3cf0c6f8	0.02939175
94	0xbdf5ae2f	-0.119961135
95	0x3e1d2b72	0.15348604
96	0x3e1f0c95	0.15532143
97	0xbbebc5f1	-0.0071952273
98	0x3de32b04	0.11092189
99	0xbdcdce08	-0.10049063
100	0xbdc7f171	-0.09762848
101	0xbdc8daf9	-0.09807391
102	0xbe0bc86a	-0.1365067
103	0x3e9891cf	0.29798743
104	0x3d9f4039	0.077759214
105	0x3ddacb38	0.10683292
106	0xbdd04e39	-0.1017117
107	0xbd50ee59	-0.051008556
108	0xbdc938cd	-0.09825287
109	0x3e273dfa	0.16332236
110	0xbdee8692	-0.11646761
111	0xbe2c1cec	-0.16807908
112	0x3bb27418	0.0054459684
113	0xbc70e063	-0.014701935
114	0xbd52375b	-0.051322322
115	0xbd131646	-0.035909913
116	0x3b16cf0a	0.0023011588
117	0x3e0e016f	0.13867734
118	0x3e47a72f	0.19497369
119	0x3cb05f2c	0.021529756
120	0xbd5bb725	-0.053641457
121	0xbdbfbd6b	-0.093623005
122	0x3cbf3063	0.023338502
123	0x3cc491fc	0.023995392
124	0x3c10a8d1	0.0088293115
125	0xbda29d27	-0.07940131
126	0xbd495ad4	-0.049158886
127	0x3d92b58f	0.07163536
128	0xbd9da4bd	-0.07697437
129	0x3cf8ead3	0.03038541
130	0xbddbaa07	-0.107257895
131	0x3dee54b3	0.11637249
132	0x3c6537b1	0.013990329
133	0x3c44d098	0.012012623
134	0xbd11f869	-0.035637293
135	0x3d308709	0.04309753
136	0x3d571029	0.052505646
137	0xbda33aad	-0.07970176
138	0x3c87daef	0.016583888
139	0xbd72c45d	-0.059269298
140	0xbdf69097	-0.12039297
141	0xbd837198	-0.06418151
142	0xbd959e54	-0.07305589
143	0xbd5d59a6	-0.054040574
144	0x3d24fd5f	0.040280696
145	0xbd914261	-0.07092739
146	0x3da2a9cb	0.07942542
147	0x3dc757fb	0.09733578
148	0x3e0076f0	0.12545371
149	0xbc4631b9	-0.012096816
150	0x3da1d78e	0.07902442
151	0x3c1e8df1	0.009677396
152	0xbd3f184c	-0.04665403
153	0xbcb75363	-0.02237863
154	0x3d8b5a67	0.06804352
155	0x3d0d78e5	0.034539122
156	0x3d672626	0.056432866
157	0xbe039e55	-0.12853368
158	0x3d172eab	0.03690974
159	0xbdc3e8ae	-0.095658645
160	0xbd76080f	-0.06006628
161	0xbd1bde2f	-0.038053688
162	0xbd965ef4	-0.073423296
163	0xbe19c877	-0.15017878
164	0xbd311daf	-0.0432412
165	0x3dbdf437	0.09275096
166	0xbdb463fd	-0.08808134
167	0x3b5ea21f	0.0033971143
168	0x3d324e3d	0.043531645
169	0x3d95d0d3	0.07315221
170	0x3e0ae93d	0.13565536
171	0xbd237b10	-0.039912283
172	0xbd7e8896	-0.062141977
173	0xbde9630c	-0.11395845
174	0xbd9090db	-0.07058879
175	0x3e08f86b	0.13376014
176	0xbb30e352	-0.0026990962
177	0x3c845d61	0.016157808
178	0x3e14609d	0.1448998
179	0x3bded437	0.0068002003
180	0xbdb48b68	-0.08815652
181	0x3c19e881	0.009393812
182	0x3d5db923	0.05413164
183	0xbdf1d53e	-0.11808251
184	0x3d2fd7d3	0.042930435
185	0x3e5bffdc	0.21484321
186	0x3d187e28	0.037229687
187	0xbe2eaa02	-0.1705704
188	0xbd2a041b	-0.04150782
189	0xbe1b2860	-0.1515212
190	0x3def849a	0.116952136
191	0x3dc4fdc5	0.09618715
192	0xbba81f56	-0.0051306887
193	0xbe06daab	-0.13169353
194	0x3dea2787	0.114333205
195	0xbd6a8b52	-0.057261772
196	0xbcddc15d	-0.027069742
197	0xbcd91db9	-0.02650343
198	0xbd856fd3	-0.065154694
199	0xbd9985d0	-0.07496226
200	0xbd60f08a	-0.054916896
201	0xbcb29408	-0.021799102
202	0xbd7b7390	-0.061389506
203	0xbd3f6dda	-0.046735622
204	0x3df3ff21	0.11913896
205	0x3da65548	0.08121735
206	0xbd98c34a	-0.074591234
207	0xbcd00413	-0.025392568
208	0x3b8267fd	0.0039796815
209	0xbd491d97	-0.049100485
210	0x3ca2b732	0.019862745
211	0xbc4e9426	-0.0126085635
212	0x3dabe601	0.08393479
213	0xbe062fe2	-0.13104203
214	0x3d4f70ce	0.05064469
215	0xbda6c9aa	-0.08143933
216	0xbc0fd867	-0.008779622
217	0xbd61e164	-0.05514659
218	0x3d1bdf5f	0.03805482
219	0x3d8cdafb	0.06877705
220	0x3da73786	0.08164887
221	0xbd1caa88	-0.03824857
222	0x3dbdb253	0.09262528
223	0xbd0c5ae3	-0.034266364
224	0x3ddd85d0	0.10816538
225	0x3dde31cf	0.10849344
226	0xbd7030eb	-0.0586404
227	0x3d0426ee	0.03226369
228	0x3b26ee39	0.0025471582
229	0x3de09728	0.10966331
230	0x3d5598b3	0.05214758
231	0xbd0b21e6	-0.033967875
232	0x3d5057f2	0.05086512
233	0x3de5b424	0.11216
234	0xbd58b532	-0.052907176
235	0xbd486322	-0.048922665
236	0xbda98034	-0.08276406
237	0x3cf91088	0.03040339
238	0xbd52bf21	-0.051451806
239	0x3e09daef	0.13462423
240	0xbdff8fba	-0.124785855
241	0x3ca8c81d	0.020603234
242	0xbd29d8a8	-0.041466385
243	0x3caeaeb0	0.021323532
244	0x3daecb54	0.085348755
245	0xbcd85ef3	-0.026412463
246	0x3c7cd30c	0.015431177
247	0x3d9e784e	0.0773779
248	0x3d820273	0.063481234
249	0x3d13fa07	0.036127117
250	0x3bd3b88a	0.0064612078
251	0x3d820214	0.063480526
252	0xbd4af50e	-0.04955011
253	0x3d94d26f	0.072666995
254	0x3e0ecf79	0.13946332
255	0x3b454e48	0.0030106474

module.fc3.bias f4 [10]
0	0x3da0397d	0.07823465
1	0xbe3a3f7c	-0.1818828
2	0x3d25593d	0.040368307
3	0xbca0e780	-0.019641638
4	0x3dda5d59	0.10662336
5	0xbdfcf862	-0.12352063
6	0xbdb77548	-0.089579165
7	0xbe2dfefa	-0.16991797
8	0x3e70d5cd	0.23519059
9	0xbe729e46	-0.23693189
