models/classifier_net_epoch_1_0.pth (torch_old, 249853 bytes, 10 tensors)

module.conv1.weight f4 [6, 3, 5, 5]
0	0x3e74eb96	0.23917994
1	0x3e151d6d	0.14562006
2	0x3dee710a	0.11642654
3	0x3e9aafcc	0.30212247
4	0x3ea65cb9	0.32492617
5	0x3eaf27ed	0.34210148
6	0x3cdd5e74	0.027022578
7	0x3dcf2f47	0.10116439
8	0x3e9f1c80	0.3107643
9	0x3ecdb98f	0.40180632
10	0x3e6fdca3	0.2342401
11	0x3d4640ad	0.048401523
12	0xbe8f1620	-0.27946568
13	0x3de244b2	0.11048259
14	0x3df46f85	0.11935333
15	0xbbc75acf	-0.0060838233
16	0xbe223110	-0.15839028
17	0xbe62521f	-0.22101639
18	0xbe6d9e5e	-0.23204944
19	0xbe45713a	-0.19281474
20	0xbc96b88e	-0.01839855
21	0xbdce231e	-0.10065292
22	0xbe4edb37	-0.20200811
23	0xbe403f1e	-0.18774077
24	0xbe773fd8	-0.24145448
25	0x3d4f0c3e	0.050548784
26	0xbe415af0	-0.18882346
27	0xbec0b0fd	-0.3763503
28	0xbe7410e6	-0.23834571
29	0xbe58715e	-0.21136996
30	0x3e769c95	0.24083169
31	0xbe89bfc5	-0.2690412
32	0xbed0b1c3	-0.4076062
33	0xbe08de5c	-0.13366073
34	0x3e021349	0.12702669
35	0x3df4cdf5	0.11953346
36	0xbde55f24	-0.11199787
37	0xbedd9af2	-0.43282276
38	0xbbc01194	-0.0058614705
39	0x3d95a351	0.07306541
40	0x3d49a9df	0.049234267
41	0x3c5d83f0	0.013520226
42	0xbeb062b0	-0.34450293
43	0xbd85000f	-0.06494152
44	0xbe33ce59	-0.17559184
45	0x3eb8dc94	0.36105788
46	0xbca3bcb4	-0.019987442
47	0x3cb898bb	0.022533765
48	0x3e017462	0.12642053
49	0xbd5ce112	-0.05392558
50	0xbd59344e	-0.053028397
51	0xbe18c91b	-0.14920466
52	0xbe87dd35	-0.26535955
53	0xbe1bd42c	-0.15217656
54	0xbde37176	-0.11105625
55	0x3e5167ea	0.20449796
56	0xbe4a7123	-0.1976972
57	0xbe8de7ed	-0.27716008
58	0x3c83248b	0.016008636
59	0xbd332e0b	-0.043745082
60	0x3e3ad137	0.18243872
61	0xbdea0486	-0.11426644
62	0xbe874e5b	-0.26426968
63	0x3ba8e651	0.005154409
64	0xbb2c6638	-0.0026306044
65	0x3e522b19	0.20524253
66	0x3df77eaf	0.1208471
67	0xbe0a4b1b	-0.13505213
68	0x3d2e486a	0.04254953
69	0x3cdfc14d	0.027313853
70	0x3ebafb48	0.36519837
71	0x3dafdcbb	0.08587023
72	0x3b0c17a1	0.0021376389
73	0x3dccf209	0.10007102
74	0x3e0b3a4e	0.1359646
75	0x3df59159	0.119906135
76	0x3e38be73	0.180414
77	0xbc5fea00	-0.01366663
78	0xbb5cf25c	-0.0033713793
79	0xbd0ef411	-0.03490073
80	0xbdacd51e	-0.084390864
81	0x3d811600	0.06303024
82	0xbda8565e	-0.08219598
83	0xbd79470a	-0.060858764
84	0xbcb391ca	-0.021920104
85	0xbe28da19	-0.16489448
86	0xbe6e690a	-0.23282257
87	0xbe4f45cc	-0.20241469
88	0xbd8d6f4c	-0.06905994
89	0xbe252e64	-0.16130978
90	0xbe65fec5	-0.22460468
91	0xbe863ad8	-0.2621677
92	0xbe613de6	-0.21996269
93	0xbdd928ee	-0.1060351
94	0xbe3305f5	-0.17482741
95	0xbe07ffbe	-0.13281152
96	0x3d9b4dda	0.075832084
97	0xbd3c4880	-0.04596758
98	0x3e169384	0.1470471
99	0x3e660787	0.22463809
100	0xbd0be098	-0.034149736
101	0x3e08840b	0.1333162
102	0x3cb0e3e6	0.021593045
103	0x3c0dd215	0.0086560445
104	0x3b516380	0.0031950176
105	0x3cb5c4d3	0.02218858
106	0x3dc4928c	0.09598264
107	0xbe055b99	-0.13023223
108	0xbd103340	-0.035205126
109	0xbd8015b9	-0.06254143
110	0x3d776f56	0.060408913
111	0xbd833142	-0.064058796
112	0xbdb4b162	-0.088228956
113	0xbde59a5a	-0.11211081
114	0xbd8705be	-0.06592892
115	0xbd2add9b	-0.041715246
116	0xbdc3b29e	-0.09555553
117	0xbe020696	-0.12697825
118	0xbda3d029	-0.07998688
119	0xbde5a811	-0.11213697
120	0x3db49d1b	0.08819028
121	0xbcf4d5b7	-0.029887063
122	0x3b161b86	0.002290459
123	0x3e051432	0.12995985
124	0x3e828f8c	0.25500143
125	0x3da6d1ba	0.08145471
126	0x3e1be0cc	0.15222472
127	0x3c5f3f95	0.013625999
128	0x3e21d972	0.15805605
129	0xbb6285b7	-0.0034564564
130	0x3d3568bd	0.04428934
131	0x3dacc9d4	0.08436933
132	0x3e017e0e	0.12645742
133	0x3b4e0b18	0.0031439718
134	0xbdd05e07	-0.10174184
135	0xbb58d5a3	-0.0033086322
136	0x3ccde2f8	0.025132641
137	0xbab57b5c	-0.0013845968
138	0xbe2ca1a1	-0.16858532
139	0xbe151fd4	-0.14562923
140	0xbc8c2ea5	-0.017112086
141	0xbe2d1af6	-0.16904816
142	0xbdca1cce	-0.09868775
143	0xbe124cb0	-0.14287066
144	0xbcd9ac24	-0.02657134
145	0xbadd403c	-0.0016880105
146	0xbc287dab	-0.010283868
147	0x3e5ebf28	0.21752608
148	0x3db3c51d	0.08777831
149	0x3e08707d	0.13324161
150	0xbe285c23	-0.16441397
151	0xbe60f526	-0.21968517
152	0xbe526920	-0.20547915
153	0xbe02abbc	-0.12760824
154	0xbdda4128	-0.10656959
155	0xbda99f9b	-0.082823955
156	0x3df6deec	0.12054238
157	0x3ca25873	0.019817566
158	0x3da4a756	0.08039729
159	0x3ba18ee0	0.004930362
160	0xbd74d600	-0.0597744
161	0x3d5b04d4	0.0534714
162	0x3e05d58a	0.1306974
163	0x3c4f1a24	0.01264051
164	0x3cde7e86	0.02715994
165	0xbe91b37a	-0.28457242
166	0xbe18b9ee	-0.14914677
167	0xbe02ee05	-0.1278611
168	0xbe7c1284	-0.24616438
169	0xbe683cf2	-0.22679499
170	0xbe05d447	-0.13069259
171	0xbe349068	-0.17633212
172	0xbdd793f8	-0.1052627
173	0xbdd08ce8	-0.10183126
174	0xbd2cfebb	-0.042235117
175	0xbe4c4eaf	-0.1995189
176	0xbe60d92d	-0.21957846
177	0xbb306299	-0.0026914238
178	0xbcf0bc07	-0.029386533
179	0xbd0aa967	-0.03385296
180	0x3e66dfd7	0.22546326
181	0x3e6e47ef	0.23269628
182	0x3e9ddf5b	0.3083447
183	0x3e6c0711	0.2304957
184	0x3e8f25f7	0.27958652
185	0x3e10fd22	0.14159063
186	0x3db55d12	0.088556424
187	0x3d8f60c8	0.070008814
188	0x3d08e4b5	0.033421237
189	0x3e028cf0	0.12749076
190	0xbe568c8b	-0.2095205
191	0xbe8e08ba	-0.27741033
192	0xbe2900a6	-0.16504154
193	0xbe4b865e	-0.19875476
194	0xbe029030	-0.12750316
195	0xbe159fd6	-0.14611754
196	0xbe3d65e2	-0.18495896
197	0xbdf5cbf9	-0.12001795
198	0x3b1f0da6	0.002426961
199	0x3d309f03	0.043120395
200	0xbd3832ee	-0.044970445
201	0x3deaf1da	0.11471911
202	0x3dffff9c	0.124999255
203	0x3d58cad5	0.05292781
204	0x3d3af75e	0.045646064
205	0x3eb02612	0.34404045
206	0x3e4f248a	0.20228782
207	0x3ec66505	0.38748947
208	0x3edb2b7e	0.4280662
209	0x3eb6e6b2	0.35722882
210	0x3e616ea9	0.2201487
211	0x3e81cb3e	0.25350374
212	0x3dfd5251	0.12369216
213	0x3e4bb30b	0.19892518
214	0x3e085f6c	0.1331765
215	0xbb9a25a3	-0.0047041937
216	0x3d6ed942	0.058312662
217	0xbdc80de6	-0.09768276
218	0xbdc74c70	-0.09731376
219	0xbc9ba5d6	-0.018999975
220	0x3d54e130	0.051972568
221	0x3d36cb18	0.04462728
222	0xbc2db70e	-0.010602726
223	0x3dd65ee2	0.10467316
224	0x3d7a8615	0.061163027
225	0xbb417137	-0.0029516944
226	0x3da46068	0.080262005
227	0xbd9ea0a7	-0.07745486
228	0x3e228a5a	0.1587309
229	0x3de51528	0.11185676
230	0xbc2a8eff	-0.0104100695
231	0xbe02a6f4	-0.12759
232	0xbd841853	-0.06449952
233	0x3de6c8a5	0.11268739
234	0x3e4252b0	0.18976855
235	0xbd7e8f18	-0.062148184
236	0xbda9d751	-0.082930215
237	0xbdcb8f9a	-0.09939499
238	0x3e370d87	0.17876254
239	0x3d7d5683	0.061850082
240	0xbe6fb553	-0.23409013
241	0xbe4acf41	-0.19805624
242	0xbc9e2323	-0.019303864
243	0x3d807f40	0.06274271
244	0x3e68fbb7	0.22752272
245	0xbd6345a2	-0.05548633
246	0xbe791cce	-0.24327394
247	0xbc63068e	-0.013856543
248	0x3e37401f	0.17895554
249	0x3cc8fd5c	0.024534874
250	0xbd7ea80d	-0.062171984
251	0xbdda1357	-0.1064822
252	0xbe4dc4c0	-0.20094585
253	0x3d550af2	0.05201239
254	0x3c9884b1	0.01861796
255	0xbe15997a	-0.14609328

module.conv1.bias f4 [6]
0	0xbd492ec2	-0.049116857
1	0xbead87ac	-0.33892572
2	0x3a4d2734	0.0007825971
3	0xbd84b0f7	-0.06479066
4	0xbe6addbd	-0.22936149
5	0x3e5fa793	0.21841268

module.conv2.weight f4 [16, 6, 5, 5]
0	0x3e674f39	0.22588815
1	0x3e1be17a	0.15222731
2	0x3e57c191	0.21069933
3	0x3c0e0004	0.008666996
4	0xbd812d9e	-0.06307529
5	0x3defde94	0.11712375
6	0xbdefa048	-0.11700493
7	0x3e4cdd0c	0.20006198
8	0x3e409330	0.18806148
9	0xbd36112c	-0.04444997
10	0x3d90e5b4	0.070750624
11	0xbdb7c87f	-0.089737885
12	0xbc4ef6ce	-0.012632085
13	0x3dfabd05	0.12243084
14	0x3c26e4d8	0.010186397
15	0xbc6c7932	-0.014433192
16	0x3d2a7dcd	0.04162388
17	0x3c8a580a	0.016887683
18	0x3d85979f	0.0652306
19	0x3d769ff3	0.060211133
20	0xbc992b7f	-0.018697498
21	0xbda1cd4e	-0.07900487
22	0xbdc083ff	-0.09400176
23	0xbd99f59c	-0.075175494
24	0x3dc3f736	0.09568636
25	0xbdb95d77	-0.0905103
26	0x3c74fd5f	0.0149529865
27	0xbce374d4	-0.027765669
28	0x3b6b8c3d	0.0035941743
29	0xbd2bfb29	-0.041987572
30	0xbe2ad7b3	-0.16683845
31	0xbd3161b2	-0.04330606
32	0xbdc4d89a	-0.09611626
33	0xbcdd52bd	-0.027016992
34	0xbd35adab	-0.044355076
35	0xbe31efc6	-0.17376623
36	0xbd155a92	-0.036463328
37	0x3a8a5b67	0.0010555804
38	0xbc1d7db7	-0.009612492
39	0xba0c4325	-0.00053505815
40	0xbe1a5042	-0.15069678
41	0xbd879edc	-0.06622097
42	0x3ba80639	0.005127695
43	0xbbecf905	-0.007231834
44	0x3d9afb93	0.07567515
45	0xbde51ac7	-0.11186748
46	0xba743fc0	-0.0009317361
47	0xbdbdc020	-0.092651606
48	0x3bb831ad	0.005621156
49	0x3dfd51ed	0.12369142
50	0xbc36d8ee	-0.0111601185
51	0xbca843b1	-0.02054009
52	0x3d162fee	0.036666803
53	0xbb73e3a4	-0.0037214542
54	0x3d7e53a3	0.06209148
55	0xbdc2b1e7	-0.095065884
56	0x3d080c1c	0.033214673
57	0x3c660735	0.014039804
58	0x3d3fa151	0.046784703
59	0xbafc0a88	-0.0019229213
60	0xbdea41c0	-0.11438322
61	0xbd6ace90	-0.0573259
62	0xbcfbb7f7	-0.03072737
63	0xbcf18ebe	-0.02948701
64	0xbd14802e	-0.036255054
65	0xbe0fbb67	-0.14036332
66	0xbb8465fa	-0.004040477
67	0x3d3593c1	0.044330362
68	0xbc517360	-0.012783855
69	0x3d0b2c81	0.03397799
70	0xbe21c1b4	-0.15796548
71	0xbd000abe	-0.031260245
72	0xbc723014	-0.0147819705
73	0x3cd538cf	0.026028065
74	0xbda56537	-0.08075946
75	0x3dbb0c5a	0.09133215
76	0x3dc9ba77	0.098500185
77	0x3d3be86d	0.045875955
78	0x3e82610f	0.25464675
79	0x3d0058db	0.03133474
80	0x3dd1ce11	0.10244382
81	0xbcc02e9d	-0.023459727
82	0xbc96f830	-0.018428892
83	0x3e2b3d7f	0.16722678
84	0x3e28d40b	0.16487138
85	0xbc882e58	-0.01662366
86	0xbd22f866	-0.039787672
87	0xbd6ca935	-0.057778556
88	0x3cf174ed	0.0294747
89	0x3e028d3f	0.12749194
90	0xbe20aa3c	-0.1568994
91	0x377173e6	1.4391704e-05
92	0xbddd0b46	-0.10793166
93	0xbdd86c5e	-0.105675444
94	0xbba7751b	-0.0051103956
95	0xbe48c2b6	-0.19605526
96	0xbd5127cf	-0.051063355
97	0xbd683f0e	-0.05670076
98	0xbc875be8	-0.016523317
99	0xbd815e58	-0.06316823
100	0xbcbae0d9	-0.022812294
101	0xbdb7d57c	-0.08976266
102	0xbd766aa2	-0.060160287
103	0x3d136028	0.035980374
104	0x3cded2e2	0.027200166
105	0xbd9753a7	-0.07389002
106	0x3c8c51b2	0.0171288
107	0xbce611d3	-0.028084671
108	0xbd35fc9e	-0.044430368
109	0xbcd34b49	-0.025792735
110	0x3b4a2bad	0.0030848787
111	0xbd588742	-0.052863367
112	0x3d9b6e49	0.075893946
113	0xbcbdd97d	-0.023174996
114	0x3d4d8dec	0.050184175
115	0xbccc263d	-0.024920577
116	0xbca9b3de	-0.02071565
117	0x3cdb3d46	0.026762616
118	0xbd73c9b0	-0.059518516
119	0x3d1ba3eb	0.03799812
120	0xbc9d0b62	-0.019170467
121	0x3ca123b0	0.019670337
122	0xbc5aa363	-0.0133446185
123	0x3c1d621e	0.0096059125
124	0x3db10188	0.0864287
125	0x3d1b9244	0.037981287
126	0xbc9765d7	-0.018481178
127	0xbdb47a83	-0.0881243
128	0xbca56aef	-0.020192591
129	0x3d131dc1	0.035917047
130	0x3d97ea0f	0.0741769
131	0x3d00ba7a	0.031427838
132	0xbd7017ce	-0.058616452
133	0x3ccb2383	0.024797207
134	0x3dcc2977	0.09968846
135	0x3d9cfac1	0.07665015
136	0x3d8465dd	0.064647414
137	0xbdb19b52	-0.08672203
138	0xbdc57723	-0.09641864
139	0x3da476d3	0.080304764
140	0xbc575b0d	-0.013144267
141	0x3d6cfd33	0.057858657
142	0xbce8176e	-0.028331485
143	0xbdbcbc7c	-0.09215638
144	0xbd37da58	-0.044885963
145	0x3b6d7190	0.0036231019
146	0x3d1b35d4	0.03789313
147	0xbd979659	-0.074017234
148	0xbdaec7fe	-0.08534239
149	0xbddca09d	-0.10772822
150	0xbd9151c7	-0.07095676
151	0xbd7922a9	-0.06082407
152	0xbd8720cd	-0.06598053
153	0xbd665afc	-0.056239113
154	0xbdeccaf8	-0.11562151
155	0x3e53cec8	0.2068435
156	0x3c8d3858	0.01723878
157	0xbe0c3153	-0.1369069
158	0xbd952bb2	-0.07283725
159	0x3b16df85	0.0023021412
160	0x3e79f6b6	0.24410519
161	0x3de21887	0.110398345
162	0xba8e3ecf	-0.0010852459
163	0xbc907461	-0.017633619
164	0xbd36c89c	-0.04462491
165	0x3e298d8e	0.16557905
166	0x3e8ecde2	0.2789145
167	0x3de07fad	0.10961852
168	0x3deaf5e0	0.11472678
169	0x3d8f585e	0.069992766
170	0xbdc3c854	-0.09559694
171	0x3dbd9506	0.092569396
172	0x3d1de373	0.03854699
173	0x3e0dc4fe	0.13844678
174	0x3ddb2fac	0.10702452
175	0xbdb0ba50	-0.08629286
176	0xbe18a656	-0.14907202
177	0xbd7df87c	-0.06200455
178	0xbd957501	-0.07297707
179	0xbe0f81ea	-0.14014402
180	0x3c308e2b	0.010776083
181	0xbdf35701	-0.11881829
182	0xbe109306	-0.14118585
183	0xbd8aa3fa	-0.06769557
184	0xbd9d3e58	-0.07677907
185	0xbd9f425d	-0.0777633
186	0x3db3729c	0.087620944
187	0xbdbab312	-0.09116186
188	0xbe00ed25	-0.12590463
189	0xbd2e57dd	-0.04256426
190	0x3da4de2d	0.08050189
191	0x3d50376d	0.05083411
192	0x3cf31fcf	0.029678253
193	0xbd7dadd6	-0.06193336
194	0x3d9a2b77	0.075278215
195	0x3d19c850	0.03754455
196	0x3e2751c5	0.16339786
197	0x3e761d4a	0.2403461
198	0x3e549b9b	0.20762484
199	0x3dd76002	0.10516359
200	0x3dcfef64	0.10153082
201	0x3da83c84	0.082146674
202	0x3d5ac8c1	0.05341411
203	0x3d3b5ef2	0.045744844
204	0x3d91d1e0	0.071201086
205	0xbc859d89	-0.01631047
206	0x3abf9679	0.0014616988
207	0x3cc26e96	0.023734372
208	0xbd2474ab	-0.040150326
209	0x3ca4fd39	0.020140277
210	0xbdaaf48d	-0.083474256
211	0x3c12470b	0.008928071
212	0x3ba2e6d8	0.0049713664
213	0xbd7d042f	-0.061771568
214	0xbd151930	-0.036400974
215	0xbe0a5972	-0.13510683
216	0x3d670816	0.056404196
217	0x3e3a26e3	0.18178897
218	0x3e18ec05	0.14933784
219	0xbb8dec35	-0.0043311366
220	0xbe4cfcb0	-0.20018268
221	0xbe41bd95	-0.18919976
222	0x398d89a0	0.00026996154
223	0xbd74c343	-0.05975653
224	0xbd097115	-0.03355511
225	0xbd2a42f4	-0.041567758
226	0xbd15bb31	-0.036555473
227	0xbe36c2ca	-0.17847744
228	0xbdc0d3a3	-0.094153665
229	0xbd1c7f1e	-0.038207166
230	0x3d24ff6d	0.040282656
231	0x3d4eb987	0.0504699
232	0x3d0fda3d	0.035120238
233	0xbacad7f6	-0.0015475738
234	0xbd58fe25	-0.052976746
235	0x3d4302ef	0.04761022
236	0x3e0036a0	0.12520838
237	0x3c1104f9	0.008851283
238	0x3d1e7d98	0.038693994
239	0xbd8f313f	-0.06991815
240	0xbded5008	-0.115875304
241	0x3d21921a	0.039445974
242	0x3e1fd632	0.15609053
243	0x3dbc91d5	0.09207503
244	0x3dce49cf	0.100726716
245	0xbe013b1a	-0.12620202
246	0xbe24c53b	-0.16090862
247	0xbcd53b60	-0.026029289
248	0xbce52092	-0.027969632
249	0xbca08f55	-0.019599596
250	0xbdc9c37a	-0.09851737
251	0xbd7a7737	-0.06114885
252	0xbe015127	-0.12628613
253	0xbdcd60b1	-0.10028208
254	0x3bf1f310	0.0073837116
255	0xbd5985d2	-0.053106137

module.conv2.bias f4 [16]
0	0x3dc69696	0.09696691
1	0xbea68a04	-0.32527173
2	0xbeb374c3	-0.3505002
3	0xbd934f9c	-0.07192919
4	0x3e604e75	0.21904929
5	0xbde4fd74	-0.11181155
6	0x3de526ef	0.111890666
7	0x3e295a5b	0.16538374
8	0xbe25767d	-0.16158481
9	0x3c9076fd	0.017634863
10	0xbe093113	-0.13397627
11	0x3eb13486	0.34610385
12	0x3880c3ef	6.140011e-05
13	0xbdc12de1	-0.09432579
14	0xbde47e40	-0.11156893
15	0x3ebb3a3b	0.36567864

module.fc1.weight f4 [120, 400]
0	0xbd26f2c4	-0.040758863
1	0xbd5f03c8	-0.054446965
2	0xbd6267a8	-0.055274636
3	0x3d0405e7	0.03223219
4	0xbd354717	-0.04425725
5	0x3ca43a81	0.020047428
6	0x3c122de4	0.008922074
7	0x3cb9aa44	0.022664197
8	0xbc287ea6	-0.010284102
9	0xbc3174f0	-0.010831103
10	0xbcfc1a93	-0.03077439
11	0x3b5a8c13	0.003334765
12	0xbc56eac7	-0.013117499
13	0x3c6a62b7	0.014305762
14	0x3d0617a5	0.032737393
15	0xbc3bf94d	-0.011473012
16	0x3d17e9f1	0.03708834
17	0xbcc7afd4	-0.024375834
18	0x3cbe7017	0.023246808
19	0xbbedd2dd	-0.007257803
20	0x3ca831f2	0.020531628
21	0x3d08affe	0.033370964
22	0xbcd616c8	-0.02613391
23	0xbbe96b28	-0.0071233697
24	0x3cbd4131	0.023102375
25	0x3d259b70	0.04043144
26	0x3a94106a	0.0011296396
27	0x3d07613d	0.033051718
28	0xbd35a076	-0.04434248
29	0xbba8a6e2	-0.005146847
30	0x3ccd4926	0.025059294
31	0x3c0906c5	0.00836343
32	0x3bd7dee6	0.006587851
33	0x3c9f2b62	0.019429866
34	0xbd0845fa	-0.03326986
35	0x3d3af3dd	0.045642722
36	0x3cc85562	0.024454776
37	0xbb2e8c1d	-0.0026633807
38	0xba37b74b	-0.0007008209
39	0x3cef2340	0.029191613
40	0xbd259c76	-0.040432416
41	0xbd42379d	-0.04741632
42	0xbd24de42	-0.040251024
43	0xbd077236	-0.033067904
44	0xbd108e81	-0.035292152
45	0xbd878f24	-0.06619099
46	0xbcdd4172	-0.027008746
47	0xbd76254e	-0.06009417
48	0xbcc92f32	-0.024558637
49	0xbcf27257	-0.029595537
50	0x3d816b4c	0.063192934
51	0xbcbe132f	-0.023202507
52	0xbd1f21bc	-0.03885053
53	0x3ca3083d	0.01990139
54	0xbd4b547a	-0.04964111
55	0x3d4b1284	0.049578205
56	0xbca899d8	-0.02058117
57	0x3cd29864	0.025707431
58	0xbc8042af	-0.015656797
59	0x3c2acd48	0.010424919
60	0x3c3fb385	0.011700516
61	0xbc44753b	-0.011990841
62	0xbb489db0	-0.0030611567
63	0xbcf2f0a1	-0.029655756
64	0x3c602a58	0.013681971
65	0x3d462a2c	0.048380062
66	0xbd2097f5	-0.039207418
67	0xbd2de322	-0.04245294
68	0xbd051ba7	-0.032497074
69	0x3d1e1bb4	0.03860064
70	0xbd5472e2	-0.051867373
71	0xb9369db6	-0.00017415624
72	0xbd76f1a2	-0.060289033
73	0xbc5caa88	-0.013468392
74	0x3cae1ed0	0.021254927
75	0xbd20d1d8	-0.039262623
76	0x3bba9eca	0.0056951987
77	0xbd12e494	-0.03586252
78	0xbc63fcdf	-0.01391527
79	0xbd8edb4b	-0.069754206
80	0x3d0c5bca	0.034267224
81	0xbd2029d6	-0.039102398
82	0x3cf22d70	0.029562682
83	0x3ce2b26b	0.027672967
84	0x3d30baf0	0.043147027
85	0xbbaaa1cb	-0.0052072755
86	0x3b984532	0.0046469206
87	0x3c67fd7f	0.014159559
88	0xbd0b3ef1	-0.033995572
89	0x3d333abe	0.043757193
90	0xbcaaf2a0	-0.020867646
91	0xbd2fadf4	-0.042890504
92	0xbd0d2400	-0.03445816
93	0xbc38f01e	-0.011287717
94	0xbcd3b61d	-0.025843674
95	0xbcd0da7e	-0.02549481
96	0xbc324dd8	-0.010882817
97	0xbcdb3ac3	-0.026761418
98	0xbc8645e2	-0.016390745
99	0x3a09d863	0.00052583794
100	0x3d8c6b20	0.0685637
101	0x3d4153ac	0.047198936
102	0x3ba0a8e6	0.0049029468
103	0x3d2a366e	0.041555814
104	0x3d869504	0.06571391
105	0x3d9823c1	0.074286945
106	0x3d822ef4	0.06356612
107	0xbcc3288b	-0.023823043
108	0x3bb7dafe	0.0056108227
109	0x3cb02e51	0.02150646
110	0x3d676a00	0.056497574
111	0x3b6106af	0.003433626
112	0x3d2cc0bf	0.042176004
113	0x3cca3afa	0.024686325
114	0xbcf8e992	-0.030384813
115	0x3d2912cd	0.041277695
116	0xbbc91686	-0.006136718
117	0x3d434c03	0.047679912
118	0x3b50916b	0.0031824957
119	0x3bffaab1	0.0078023304
120	0x3c7615fa	0.015019888
121	0xbca19091	-0.019722255
122	0x3d626712	0.055274077
123	0xbcc1e9c6	-0.023671042
124	0x3bc8cd8c	0.0061280187
125	0xbbb44a45	-0.0055020177
126	0xbd49404c	-0.049133584
127	0x3cc9fe84	0.024657495
128	0x3caedbca	0.021345038
129	0xbd4e82e3	-0.050417792
130	0xbd0100b7	-0.031494822
131	0xbba1a3ff	-0.00493288
132	0xbc51edc0	-0.012813032
133	0xbc64f965	-0.013975476
134	0xbd1c9a40	-0.03823304
135	0x3d41ab1d	0.047282327
136	0x3d5f2b7e	0.054484837
137	0xbced06de	-0.028933939
138	0xbc80a8e4	-0.015705533
139	0xbcbeda53	-0.023297464
140	0xbd326874	-0.043556646
141	0xbcdb848e	-0.026796605
142	0x3d274072	0.040832944
143	0x3c6bfcc1	0.014403523
144	0x3d0423d8	0.032260746
145	0xbd827c58	-0.06371373
146	0xbd5640c1	-0.052307848
147	0xbce7bab3	-0.028287267
148	0xbcdb4e37	-0.026770694
149	0xbd220944	-0.039559618
150	0x3cb14b70	0.021642417
151	0xbcb9631e	-0.02263027
152	0xbd282fd7	-0.04106125
153	0x3a8268da	0.0009949461
154	0x3d25e6b4	0.04050322
155	0xbc1ed5a0	-0.009694487
156	0xbd853752	-0.06504692
157	0x3b8df12d	0.004331729
158	0x3cde88b2	0.02716479
159	0x3cd78b9a	0.026311684
160	0x3c48dbaf	0.012259408
161	0xbd0182b5	-0.031618793
162	0xbd55de50	-0.052213967
163	0xb930c008	-0.00016856205
164	0xbbb44885	-0.005501809
165	0xbc652b79	-0.0139874155
166	0xbbbdd056	-0.005792658
167	0xbd110d74	-0.03541322
168	0xbd1cd51b	-0.03828917
169	0x3a69ad07	0.0008914028
170	0x3bf84ddd	0.0075776414
171	0xbb777d2f	-0.0037763824
172	0xbd32d2e5	-0.043658156
173	0x3cd313fd	0.025766367
174	0x3cf1d087	0.029518379
175	0x3d470d79	0.048596833
176	0xbbc4ee2c	-0.0060098376
177	0xbbc22fc4	-0.0059261043
178	0x3d78b800	0.06072235
179	0x3d40f532	0.047108836
180	0x3c933270	0.017968386
181	0x3d2395c2	0.039937742
182	0x3d355ef2	0.04428
183	0x3cbdc945	0.023167262
184	0x3d5df63d	0.05418991
185	0x3971a865	0.00023046283
186	0xbcce978f	-0.025218753
187	0xbd036417	-0.032077875
188	0xbc0fbdcc	-0.008773278
189	0x3d813d1b	0.06310483
190	0xbccdd10c	-0.025124095
191	0x3d529fc1	0.051421884
192	0x3ce9cc61	0.028539838
193	0x3d3dc9c4	0.046334997
194	0x3d1e09f2	0.038583703
195	0x3d6f95ee	0.058492593
196	0xbc96a928	-0.018391207
197	0xbc901cc0	-0.017591834
198	0x3d4e4b40	0.050364733
199	0x3d45415e	0.048158042
200	0x39f87518	0.00047389488
201	0x3cdc5246	0.0268947
202	0xbc909e15	-0.017653504
203	0xbd28983b	-0.041160803
204	0xbc8398ad	-0.016064012
205	0xbce74d1a	-0.028235007
206	0xbd1118c0	-0.035423994
207	0x3d3bf5d1	0.045888726
208	0xbc7009e6	-0.0146507975
209	0x3d833c4d	0.06407986
210	0x3d2df728	0.042472035
211	0x3c0d6974	0.008631099
212	0x3c8e1944	0.017346032
213	0xbcc5f3e3	-0.024164146
214	0x3d4f182d	0.050560165
215	0xbd3afeba	-0.045653082
216	0xbc2a9815	-0.010412236
217	0xbd0732eb	-0.033007544
218	0xbd6b6cf1	-0.05747694
219	0x3d0cb32b	0.034350555
220	0xbd331d00	-0.04372883
221	0x3c3c23ee	0.011483176
222	0xbd78ad12	-0.060711928
223	0xbd5f1a14	-0.05446823
224	0xbc9ae9b5	-0.018910268
225	0xbcf1fb3d	-0.029538745
226	0xbd9fd807	-0.07804876
227	0xbb3628ae	-0.0027795243
228	0xbcd13e43	-0.025542384
229	0xbcb82e24	-0.022482939
230	0x3d1b6224	0.03793539
231	0x3c317304	0.0108306445
232	0xbd2df256	-0.042467438
233	0x3d10d69c	0.035360917
234	0xbd812c65	-0.06307296
235	0x3d1e745e	0.038685195
236	0xbc23dc31	-0.010001228
237	0x3c0b925b	0.008518781
238	0x3cb1a6be	0.021685954
239	0xbce586a2	-0.0280183
240	0x3d620b45	0.05518653
241	0x3d418843	0.04724909
242	0x3bbf8f1b	0.005845917
243	0x3b30037c	0.0026857546
244	0xbcc125ba	-0.02357756
245	0x3d23b995	0.039971907
246	0x3b646af7	0.0034853795
247	0x3d29b2bd	0.041430224
248	0x3d01b29e	0.031664483
249	0xbda469c9	-0.080279894
250	0x3b9ad159	0.004724663
251	0xbc25a7f4	-0.010110844
252	0x3ce1205d	0.027481252
253	0xbc943583	-0.018091923
254	0x3cfd6515	0.030931989
255	0x3c50e9a2	0.012751015

module.fc1.bias f4 [120]
0	0x3dc33899	0.095322795
1	0xbc9306dc	-0.017947607
2	0xbd49b599	-0.04924545
3	0xbbe19c81	-0.006885112
4	0xbdeea422	-0.116523996
5	0xbd93d1df	-0.07217764
6	0x3cc7a99b	0.024372866
7	0x3d4c382a	0.04985825
8	0xbd5c1ab7	-0.053736415
9	0xbcb3eb29	-0.021962719
10	0xbc701be9	-0.014655092
11	0x3cd5a8af	0.026081411
12	0xbcdb89f0	-0.026799172
13	0xbe273419	-0.16328467
14	0x3d17b265	0.037035365
15	0x3d92af3c	0.071623296
16	0x3d399179	0.04530475
17	0x3d5f5a5e	0.05452954
18	0x3c9f6a9b	0.019460013
19	0x3bc29cc0	0.005939096
20	0x3cffa6d2	0.031207476
21	0x3b42e5c8	0.002973901
22	0xbc987453	-0.018610155
23	0xbc0249db	-0.007952179
24	0xbd39ea68	-0.045389563
25	0xbd03c764	-0.032172576
26	0xbc69f80d	-0.014280331
27	0x3d633bca	0.05547694
28	0x3e12325f	0.14277028
29	0x3d3ad4cb	0.04561309
30	0xbc960584	-0.018313177
31	0xbc99479c	-0.018710904
32	0x3c74cc83	0.0149413375
33	0xbd98fd2c	-0.07470164
34	0x3ca04a92	0.019566808
35	0x3dde99b2	0.10869159
36	0x3da02014	0.078186184
37	0x3ca462a6	0.02006657
38	0x3d3ec097	0.046570387
39	0x3dc66580	0.09687328
40	0x3d885b4b	0.06658038
41	0x3d924ff8	0.07144159
42	0xbdad1766	-0.084517285
43	0x3d2bf78d	0.04198413
44	0x3dad0d6b	0.08449825
45	0x3e22368e	0.15841123
46	0x3bbd7bd1	0.0057825823
47	0x3d9156c2	0.07096626
48	0x3cdc3923	0.026882714
49	0x3d52a8a5	0.051430363
50	0x3df69194	0.120394856
51	0xbd45bc92	-0.048275538
52	0x3d679783	0.056540977
53	0xbd517abb	-0.051142436
54	0x3dad51af	0.084628455
55	0xbc7e1737	-0.015508465
56	0xbd7f00e8	-0.062256724
57	0xbc819744	-0.0158192
58	0x3d2b18bc	0.041771635
59	0x3d03ee70	0.032209814
60	0x3e25f821	0.16207935
61	0xbd60539b	-0.054767232
62	0x3d9e468d	0.077283
63	0x3ceb4998	0.028721616
64	0xbc207042	-0.009792389
65	0xbd44b01b	-0.04801951
66	0xbdd222e9	-0.10260565
67	0xbdf6c5d5	-0.12049452
68	0x3d31dc24	0.043422833
69	0x3d5f5270	0.054521978
70	0x3d935960	0.07194781
71	0xbd25986d	-0.040428568
72	0xbcce6b44	-0.025197633
73	0xbd0bdc1e	-0.034145467
74	0x3c41c91e	0.011827735
75	0xbd44dfab	-0.04806487
76	0x3be7c7f8	0.0070733987
77	0x3d93583b	0.07194563
78	0x3d93cd87	0.072169356
79	0xbd1710be	-0.0368812
80	0xbd293b00	-0.041316032
81	0x3d196be0	0.037456393
82	0xbc813e8a	-0.015776891
83	0x3d5ce1af	0.053926166
84	0x3d8fa620	0.07014108
85	0x3e2df90c	0.16989535
86	0x3d8aae7a	0.0677156
87	0xbc47896d	-0.012178761
88	0xbe105b81	-0.14097406
89	0x3dfc7d56	0.123285934
90	0xbc9cb059	-0.019127058
91	0x3d7287f8	0.0592117
92	0x3d1e9faf	0.038726505
93	0x3cb013b6	0.021493774
94	0xbd211d49	-0.03933457
95	0x3dda9bd4	0.10674253
96	0x3c577d32	0.0131524075
97	0x3d4c3faa	0.049865402
98	0x3d73c1d8	0.059511036
99	0x3c34074a	0.010988066
100	0xbd252200	-0.040315628
101	0xbd39b7dd	-0.04534136
102	0xbcb8ff6e	-0.022582736
103	0xbcee81df	-0.029114662
104	0x3dddfd84	0.1083937
105	0xbe07cc74	-0.13261586
106	0xbd2e10fb	-0.042496663
107	0xbd3b7947	-0.045769956
108	0xbcb5318c	-0.022118352
109	0x3d860b58	0.065451324
110	0xbbfbcf4a	-0.007684623
111	0xbd18facb	-0.03734855
112	0xbc0ee88f	-0.0087224385
113	0xbc94c540	-0.018160462
114	0x3c27741b	0.010220553
115	0x3d730306	0.059329055
116	0xbd77c701	-0.06049252
117	0xbc53d20d	-0.012928498
118	0x3cffbf85	0.031219253
119	0x3da62620	0.081127405

module.fc2.weight f4 [84, 120]
0	0xbd9d08dc	-0.076677054
1	0x3cbfac9a	0.023397733
2	0xbba01ac7	-0.0048860046
3	0xbc6efb70	-0.014586315
4	0xbdc4e4d7	-0.0961396
5	0xbcc4c754	-0.024020828
6	0xbcd53b0d	-0.026029134
7	0x3d7638cd	0.060112763
8	0x3da373a4	0.07981041
9	0xbd50f4cd	-0.05101471
10	0x3d8631ab	0.06552442
11	0x3d60437a	0.05475185
12	0xbcd1306e	-0.025535788
13	0x3d52f02d	0.05149858
14	0xbc13da90	-0.009024277
15	0xbcf8889f	-0.030338584
16	0x3d9e37ee	0.077255115
17	0x3c436098	0.011924885
18	0x3cd2f392	0.025750909
19	0x3d3fbf2b	0.04681317
20	0xbd9072bd	-0.070531346
21	0x3db57e03	0.088619255
22	0x3d8d7b48	0.0690828
23	0x3ba5a3b3	0.005054915
24	0x3dce5080	0.10073948
25	0x3d01baa3	0.03167213
26	0x3d777f4e	0.06042414
27	0xbdd15e1e	-0.102230296
28	0x3cc3f173	0.023918843
29	0xbda833b0	-0.082129836
30	0x3cbe7d37	0.023253066
31	0x3c91727f	0.017754791
32	0xbcb9926d	-0.022652829
33	0x3d8a136c	0.06741986
34	0x3ca88751	0.020572336
35	0x3d1c2e38	0.038130015
36	0x3db94cfe	0.09047888
37	0x3daebe1e	0.08532356
38	0xbd913219	-0.070896335
39	0xbda7d45e	-0.08194803
40	0x3d5601e1	0.052247886
41	0x3d2c7c8d	0.04211097
42	0xbcf5e7dd	-0.030017788
43	0x3cc75d21	0.0243364
44	0xbca25b8e	-0.019819047
45	0xbcb5e0b9	-0.022201883
46	0xbd0b48a2	-0.034004815
47	0x3d91f469	0.07126696
48	0xbd1ac49c	-0.037785158
49	0x3be49f56	0.006977002
50	0x3d5c3dae	0.05376976
51	0xbbc3d6da	-0.00597654
52	0xbdc1ae7f	-0.094571106
53	0xbdac7818	-0.084213436
54	0x3d9c36da	0.076276496
55	0x3d9d3e7c	0.076779336
56	0x3d8f74da	0.070047095
57	0xbd64f839	-0.055900786
58	0xbca16994	-0.019703664
59	0xbcf81e2c	-0.030287825
60	0x3d6a3715	0.057181437
61	0x3d2d39ab	0.042291325
62	0xbdae8073	-0.085205935
63	0xbaf64336	-0.0018788341
64	0x3d8c09b1	0.06837786
65	0x3de169b2	0.11006488
66	0x3d82c93a	0.06386037
67	0x3d9bb36c	0.076025814
68	0x3aef6205	0.0018263465
69	0x3db1faaf	0.08690392
70	0xbc7fac74	-0.015605081
71	0x3d1689c5	0.03675248
72	0xbc5eea4a	-0.013605664
73	0x3d8a59b3	0.0675539
74	0x3ca62103	0.020279413
75	0x3d969d38	0.07354206
76	0xbd960053	-0.073242806
77	0xbd39df08	-0.045378715
78	0xbd8d3257	-0.06894367
79	0xbd2b813b	-0.04187129
80	0x39649811	0.00021800424
81	0xbdaa72dc	-0.08322689
82	0x3d53f53e	0.051747553
83	0x3c9cb67f	0.01912999
84	0xbdbae889	-0.09126384
85	0x3d4b8a7c	0.049692616
86	0x3db35418	0.08756274
87	0xbb18041a	-0.0023195804
88	0x3d04b543	0.032399427
89	0x3a0b56e1	0.0005315375
90	0xbd222761	-0.039588336
91	0xbc4dadaa	-0.012553612
92	0xbda4f76f	-0.08055007
93	0xbc106190	-0.008812323
94	0xbd284e50	-0.04109031
95	0xbdcb7c57	-0.09935825
96	0x3c0d27ac	0.008615416
97	0xbd2a117d	-0.041520584
98	0xbd63ba0d	-0.055597354
99	0x3d4a26ba	0.04935334
100	0xbd19abde	-0.03751742
101	0x3d756464	0.059910193
102	0xbd4929c4	-0.049112096
103	0x3d7216c5	0.059103746
104	0xbdc3e917	-0.09565943
105	0xbcb91561	-0.022593202
106	0xbcaa939a	-0.020822335
107	0x3d9369c8	0.071979105
108	0x3d987b27	0.074453644
109	0xbcd314d3	-0.025766766
110	0xbda13646	-0.0787168
111	0x3bdc20fa	0.0067177983
112	0xbcf82b81	-0.030294182
113	0xbd7b456b	-0.0613455
114	0x3d2bad5d	0.04191338
115	0x3d48ebcb	0.049052995
116	0x3d63652c	0.055516407
117	0x3db0aadb	0.08626338
118	0xbc4f128a	-0.012638697
119	0xbda44807	-0.080215506
120	0x3db8274c	0.0899187
121	0x3d8e2419	0.06940479
122	0x3c8cfd39	0.01721059
123	0xbde51b5d	-0.1118686
124	0x3e0bf531	0.13667752
125	0xbd97b0b1	-0.07406748
126	0x3d24451c	0.04010497
127	0xbd28aeb8	-0.04118225
128	0xbbaa6efb	-0.005201218
129	0xbcd4edf2	-0.025992367
130	0xbd0817af	-0.03322571
131	0x3da81a30	0.0820812
132	0xbd1bc3f0	-0.038028657
133	0x3d78c128	0.060731083
134	0x3d2a8de1	0.041639213
135	0x3cb77009	0.02239229
136	0x3c0fb6a9	0.008771577
137	0xbc2f3b53	-0.010695296
138	0x3c2fc113	0.010727185
139	0xbcd141e3	-0.025544113
140	0xbd873b81	-0.06603146
141	0x3a6ee2e9	0.0009112792
142	0xbb752e24	-0.0037411535
143	0xbb53f6db	-0.0032343182
144	0x3b3e551e	0.0029042433
145	0xbdb10f99	-0.08645553
146	0x3dde5d0f	0.10857593
147	0xbd69f029	-0.0571138
148	0x3dcd9405	0.10037998
149	0x3cfbe2bd	0.030747766
150	0xbda6876f	-0.08131301
151	0xbd8d751f	-0.06907105
152	0x3ba24495	0.0049520233
153	0x3dc79626	0.097454354
154	0x3d8900f8	0.06689638
155	0xbd793a90	-0.060846865
156	0x3db8a15d	0.090151526
157	0xbde44679	-0.11146254
158	0xbd1d52c0	-0.038408995
159	0xbdf813f3	-0.1211318
160	0x3cd5ead9	0.02611296
161	0x3d82f14e	0.063936815
162	0xbda4be0e	-0.080440626
163	0x3cef15ac	0.029185139
164	0x3cae07ae	0.021243896
165	0xbb7bc4c3	-0.003841684
166	0xbcb1c6d9	-0.021701263
167	0x3cdfac47	0.027303828
168	0x39c91b3e	0.00038358005
169	0x3d613b3b	0.054988127
170	0x3c8f41e8	0.017487481
171	0xbdb82639	-0.089916654
172	0x3cbe27ba	0.023212302
173	0x3ddaa9d8	0.106769264
174	0xbd1b5e11	-0.037931506
175	0xbd8175f1	-0.06321324
176	0x3ca04b9a	0.0195673
177	0xbd963cc4	-0.07335809
178	0xbd46b7e3	-0.04851521
179	0xbd46e19a	-0.048554994
180	0x3d596948	0.05307892
181	0xbd59f97c	-0.053216442
182	0xbdc0e98c	-0.094195455
183	0x3cc1151c	0.023569636
184	0xbd272f58	-0.040816635
185	0x3c4537aa	0.012037197
186	0x3e209771	0.1568277
187	0xbd197356	-0.03746351
188	0x3d4c2601	0.04984093
189	0x3deb63e2	0.114936605
190	0x3cf6f381	0.030145409
191	0x3c891b33	0.016736602
192	0xbb094051	-0.0020942877
193	0xbd71c0ec	-0.059021875
194	0x3d73c5e6	0.059514903
195	0xbb7d5ba1	-0.0038659351
196	0xbd532c25	-0.05155577
197	0x3c8130e0	0.015770376
198	0xbe0ae5bb	-0.13564198
199	0x3ab934b9	0.0014130092
200	0xbd614e52	-0.055006333
201	0xbdb3852a	-0.087656334
202	0xbd9a7a87	-0.075429015
203	0xbd1bc11c	-0.03802596
204	0x3d727b02	0.05919934
205	0x3d892209	0.06695945
206	0xbb6e5c11	-0.0036370794
207	0x3c12aa16	0.008951684
208	0x3d05107a	0.032486416
209	0x3e26f8be	0.16305825
210	0x3bdb4cf3	0.0066925227
211	0xbddedce4	-0.10881975
212	0x3dac89f6	0.084247515
213	0x3d76f3e3	0.060291182
214	0xbcad6272	-0.021165106
215	0xbdba04e5	-0.09082965
216	0xbdc22f4e	-0.09481679
217	0x3c4efcd2	0.012633519
218	0xbdb0db8c	-0.08635625
219	0x3e033b3d	0.12815566
220	0x3dafc9ba	0.08583398
221	0xbd56d58c	-0.052449748
222	0xbd8d4a8c	-0.06898984
223	0xbd3d41d4	-0.046205357
224	0xbdf8ecbd	-0.12154529
225	0x3cb6bf24	0.02230794
226	0xbd7d20d2	-0.061798878
227	0xbdac5a36	-0.08415644
228	0x3c72ab37	0.014811329
229	0xbdabf3c4	-0.08396104
230	0x3d0d32c4	0.034472242
231	0xb8089994	-3.2567958e-05
232	0x3d94a4cf	0.07257997
233	0x3ca35d09	0.019941824
234	0xbd89c42b	-0.06726869
235	0x3d926378	0.071478784
236	0xbcdd87ec	-0.027042352
237	0x3d0f7c62	0.03503073
238	0x3cfc6722	0.030810896
239	0xbdafe99b	-0.085894786
240	0x3cd89372	0.026437495
241	0x3dbf6b81	0.093466766
242	0xbdea2ec6	-0.114347026
243	0x3d42677f	0.047461983
244	0xbcd2ae35	-0.025717834
245	0xbd3ef897	-0.046623792
246	0x3dc74023	0.0972903
247	0x3d861388	0.06546694
248	0xbd9a6f5a	-0.0754077
249	0x3d8f8520	0.070078135
250	0x3c489702	0.012243034
251	0x3cd03121	0.025414051
252	0x3d153381	0.03642607
253	0xbd996a06	-0.074909255
254	0x3c88cbcb	0.016698739
255	0x3e027213	0.12738828

module.fc2.bias f4 [84]
0	0xbdd10d2a	-0.10207589
1	0xbcbe7320	-0.023248255
2	0x3e30543f	0.17219637
3	0xbd4a9617	-0.049459543
4	0xbd24267c	-0.040075764
5	0x3e4481aa	0.19190088
6	0xbd3f05e1	-0.046636466
7	0xbdca960a	-0.09891899
8	0xbbd36769	-0.0064515364
9	0x3e1cba4d	0.15305443
10	0x3eac6200	0.33668518
11	0x3b7c9d13	0.0038545772
12	0xbda23f4b	-0.079222284
13	0xbd250fab	-0.040298145
14	0xbc4ab5c9	-0.0123724425
15	0xbd98a156	-0.074526474
16	0x3cbaee64	0.022818752
17	0x3e887a6e	0.26655906
18	0x3d9a15f1	0.07523716
19	0xbc89dbfa	-0.016828526
20	0xbd45b5ce	-0.048269086
21	0xba12a7a4	-0.00055944384
22	0x3e1b46d9	0.15163745
23	0x3cde5e01	0.027144434
24	0x3d55cfb9	0.052200053
25	0xbda84c54	-0.082176834
26	0x3e2c72ad	0.1684062
27	0x3d66cd2e	0.05634802
28	0x3cf62351	0.030046137
29	0x3d9c0787	0.07618623
30	0xbd0dc806	-0.034614585
31	0xbcb16daa	-0.021658737
32	0xbda9f8ae	-0.08299385
33	0xbe4f9502	-0.20271686
34	0xbe50dc85	-0.20396622
35	0xbd9571ca	-0.07297094
36	0x3dbd10f0	0.09231746
37	0x3e14fe14	0.14550048
38	0x3c9aaf4c	0.018882416
39	0xbda3ac3f	-0.07991838
40	0x3d2cd1bd	0.04219221
41	0x3d94311c	0.07235929
42	0x3e7af333	0.24506836
43	0xbdb16155	-0.08661143
44	0x3ca74d85	0.020422706
45	0x3d938859	0.072037406
46	0xbd71b24b	-0.059007924
47	0x3c025879	0.007955664
48	0xbd923e37	-0.07140773
49	0xbd45094f	-0.04810458
50	0x3e140563	0.1445518
51	0xb917e902	-0.00014487284
52	0x3e239798	0.15975797
53	0x3d705882	0.058678158
54	0x3d8d7acc	0.06908187
55	0xbdbf9bbf	-0.09355878
56	0x3e4e4a77	0.20145594
57	0x3dc2c785	0.095107116
58	0x3db2c9fc	0.08729932
59	0xbdab607f	-0.083680145
60	0xbda1aefd	-0.078947045
61	0xbe1e84f7	-0.1548041
62	0x3d30f74f	0.0432046
63	0xbda00ce4	-0.07814959
64	0xbd88cea6	-0.0668004
65	0xbc7599f4	-0.014990319
66	0xbdae5541	-0.08512355
67	0x3b3dc7ce	0.0028958204
68	0xbdc18f49	-0.094511576
69	0x3d3577dc	0.04430376
70	0x3d639ff6	0.055572473
71	0x3d78e8dd	0.06076895
72	0xbd76f110	-0.06028849
73	0x3dadeab3	0.08492031
74	0xbc9f63a1	-0.019456686
75	0xbd93bd8a	-0.07213886
76	0x3dec52eb	0.11539253
77	0x3e1a65a0	0.1507783
78	0x39f25874	0.0004622374
79	0x3d8dac8e	0.06917678
80	0x3d13c0d3	0.036072563
81	0x3cd53c93	0.02602986
82	0x3e888a19	0.2666786
83	0xbcee2f33	-0.02907524

module.fc3.weight f4 [10, 84]
0	0xbc9b90eb	-0.01899
1	0x3df79ccf	0.12090456
2	0xbe88d19a	-0.26722413
3	0xbd8527ed	-0.06501756
4	0xbba4662c	-0.0050170626
5	0x3c53a539	0.01291781
6	0xbdf3126a	-0.118687466
7	0xbda0abaf	-0.07845246
8	0x3caef38d	0.021356368
9	0x3cf4d46a	0.029886443
10	0xbe0a5a8a	-0.135111
11	0x3d8be4f5	0.068307795
12	0xbe3bf426	-0.18354854
13	0x3e00f5a5	0.12593706
14	0x3db9b24c	0.090672106
15	0xbdfe6e61	-0.12423397
16	0x3e393f99	0.18090667
17	0x3daa9cbd	0.08330677
18	0xbe3df715	-0.18551286
19	0x3d5d838b	0.054080527
20	0x3d4650bd	0.04841684
21	0x3d0199d6	0.03164085
22	0xbd328c40	-0.043590784
23	0x3e0d227c	0.13782686
24	0x3cb7e698	0.022448823
25	0x3c668c79	0.014071577
26	0x3d831f2f	0.06402432
27	0x3e265e7e	0.16246983
28	0x3da41b08	0.08012968
29	0x3e19b395	0.15009911
30	0x3db8d67f	0.09025287
31	0xbdd370d6	-0.10324256
32	0x3e1bf905	0.15231712
33	0x3dc2d2f5	0.09512893
34	0x3db9bbef	0.090690486
35	0xbd88e8ad	-0.066850044
36	0x3dbe7023	0.09298732
37	0x3e0303fd	0.1279449
38	0xbda648ba	-0.0811934
39	0xbd8db854	-0.069199234
40	0x3cc75882	0.024334196
41	0x3e7f76a6	0.24947605
42	0xba67b99b	-0.0008839608
43	0xbd54ea81	-0.051981453
44	0xbe0448c6	-0.12918386
45	0xbdbe37d6	-0.092879936
46	0xbdb0858c	-0.08619222
47	0xbc0f9887	-0.008764393
48	0x3d1b9804	0.03798677
49	0xbdc8768b	-0.09788235
50	0xbdd9bea5	-0.10632066
51	0x3d9776fd	0.07395742
52	0x3e6fc2a2	0.2341409
53	0xbd7106ac	-0.058844253
54	0xbda81056	-0.08206241
55	0xbcd5af19	-0.02608447
56	0xbe3295ba	-0.17439929
57	0x3e1884e1	0.1489444
58	0xbe2e1ead	-0.1700389
59	0xbd28c7be	-0.041206114
60	0xbd9fda81	-0.07805348
61	0x3d0322c3	0.032015573
62	0x3d566918	0.05234632
63	0x3d40fc22	0.047115453
64	0xbcdd93d0	-0.027048022
65	0xbcc40dfa	-0.023932446
66	0xbe01ea87	-0.12687121
67	0xbd333cff	-0.043759342
68	0x3c89d26f	0.016823975
69	0xbc9d5ec5	-0.019210229
70	0xbcb32a6d	-0.021870816
71	0x3d8169f1	0.06319035
72	0xbda7a641	-0.08186007
73	0xbd95c270	-0.07312477
74	0x3dda54b6	0.106606886
75	0x3d0a9077	0.03382918
76	0xbdb54b76	-0.08852284
77	0xbe33fe24	-0.17577416
78	0x3cf893d7	0.030343933
79	0x3e1b8b53	0.15189867
80	0xbd3334a4	-0.043751374
81	0xb9d851f4	-0.0004125979
82	0x3e995dc7	0.2995436
83	0xbd7d76fb	-0.061881047
84	0x3dd16181	0.102236755
85	0x3dc0470e	0.093885526
86	0xbea52323	-0.3225337
87	0x3ce57a58	0.02801244
88	0x3b7192a8	0.0036861096
89	0x3bd34e46	0.00644854
90	0x3e05e935	0.13077243
91	0x3db9ffb1	0.090819724
92	0x3d8a83bb	0.06763407
93	0x3d8ef038	0.06979412
94	0xbe0dbaa3	-0.13840728
95	0x3e556954	0.2084096
96	0x3e49c265	0.19703062
97	0x3c89359c	0.016749196
98	0x3e0c1e8c	0.13683528
99	0xbdf056e3	-0.11735322
100	0xbe29b244	-0.16571909
101	0xbe38a18c	-0.18030375
102	0xbe08586d	-0.13314982
103	0x3eee1749	0.4650214
104	0x3dffdfbe	0.12493847
105	0x3e2c43c4	0.16822726
106	0xbe3991fb	-0.18122093
107	0xbda65c43	-0.08123066
108	0xbdf15f5c	-0.117857665
109	0x3e4aa66a	0.19790044
110	0xbe4be576	-0.19911751
111	0xbe4814a7	-0.19539128
112	0x3c57eae6	0.013178563
113	0xbcfa2162	-0.030533496
114	0xbc582fa8	-0.013194956
115	0xbcb36790	-0.021899968
116	0xbd14306e	-0.036179
117	0x3e520d25	0.20512827
118	0x3ea23e83	0.31688318
119	0x3d7bf04f	0.061508473
120	0xbdec29e3	-0.11531427
121	0xbdb4a043	-0.0881963
122	0x3cd0055a	0.025393177
123	0x3cace753	0.021106398
124	0x3ccf2302	0.025285248
125	0xbdd6d3f7	-0.10489648
126	0xbdbe99d2	-0.09306683
127	0x3dadf5d1	0.084941514
128	0xbdae2764	-0.08503607
129	0x3cd47de6	0.02593894
130	0xbdd60732	-0.10450591
131	0x3e1e40df	0.15454434
132	0x3c51c98e	0.012804402
133	0x3c47093d	0.012148199
134	0xbe15450f	-0.14577125
135	0x3ce24e7f	0.02762532
136	0x3cbdc439	0.023164855
137	0xbe116572	-0.14198855
138	0x3ae820c7	0.0017709964
139	0xbd724793	-0.05915029
140	0xbe4be236	-0.19910511
141	0xbdbde125	-0.092714585
142	0xbdd9eb68	-0.10640603
143	0xbdd2b47f	-0.10288333
144	0x3dae6eec	0.085172504
145	0xbd3f26cf	-0.04666787
146	0x3d90fe0c	0.070797056
147	0x3e170b14	0.1475032
148	0x3e44fbad	0.19236632
149	0xbd10f7fa	-0.03539274
150	0x3e016e8b	0.12639825
151	0x3a2ba6d3	0.0006547991
152	0xbd398879	-0.045296166
153	0xbd44cc78	-0.04804656
154	0x3d8e4610	0.06946957
155	0x3cda6cb6	0.026663166
156	0x3dd0c33f	0.1019349
157	0xbe1f0e13	-0.15532713
158	0x3cfd43ff	0.030916212
159	0xbe0c6ef9	-0.13714208
160	0xbd74d280	-0.05977106
161	0xbd837efe	-0.06420706
162	0xbda0a718	-0.078443706
163	0xbe49f55b	-0.19722502
164	0xbde3a67e	-0.1111574
165	0x3d795b33	0.06087799
166	0xbdf6415e	-0.120241866
167	0x3bf81b17	0.0075715887
168	0x3dbcc939	0.09218068
169	0x3d45b077	0.048263993
170	0x3de50df8	0.11184305
171	0xbdaf7676	-0.085675165
172	0xbda2b793	-0.0794517
173	0xbe107ebf	-0.1411085
174	0xbd91a724	-0.07111958
175	0x3deb5868	0.114914715
176	0xbd19b97d	-0.03753041
177	0xbc97957b	-0.018503895
178	0x3e3df7d7	0.18551575
179	0x3c79c838	0.01524549
180	0xbd7379a9	-0.059442196
181	0xbcd9ce70	-0.026587695
182	0x3d4fc7a3	0.050727498
183	0xbe207850	-0.15670896
184	0x3d6cc8e7	0.057808783
185	0x3e9bf33d	0.30459014
186	0x3ce1930b	0.027535936
187	0xbe31f20a	-0.17377487
188	0xbd5cdd8f	-0.053922232
189	0xbe4375bd	-0.19087882
190	0x3de08357	0.10962551
191	0x3ddaac43	0.106773876
192	0xbc8618af	-0.016369192
193	0xbe2e2440	-0.17006016
194	0x3e1d1c60	0.15342855
195	0xbd965ba6	-0.07341699
196	0xbce21f80	-0.027602911
197	0xbd1638bb	-0.036675196
198	0xbd1a05f2	-0.037603326
199	0xbdec1386	-0.11527161
200	0xbd2cd7b8	-0.042197913
201	0xbde2fa50	-0.110828996
202	0xbdb8f218	-0.09030551
203	0xbd57504f	-0.052566823
204	0x3dbad323	0.091223024
205	0x3da2e09a	0.079529956
206	0xbd8b91fe	-0.06814955
207	0xbcba7fbe	-0.02276599
208	0x3b86c78c	0.0041131433
209	0xbd622902	-0.05521489
210	0x3d8a3ba1	0.067496546
211	0xbd93d8cb	-0.07219084
212	0x3e1b06b9	0.15139283
213	0xbe40073d	-0.18752761
214	0x3d460bec	0.048351213
215	0xbdf129d0	-0.11775553
216	0xbbbdd8e5	-0.005793678
217	0xbd679570	-0.056539
218	0x3d46e9f5	0.048562963
219	0x3de97cab	0.11400732
220	0x3df04960	0.11732745
221	0xbc28b678	-0.01029741
222	0x3e1faa6a	0.15592352
223	0xbcd3626b	-0.025803765
224	0x3d289b32	0.04116363
225	0x3e50d662	0.2039428
226	0xbcc8d829	-0.024517136
227	0x3c09702e	0.008388562
228	0xbcedcae6	-0.029027414
229	0x3e44ac79	0.19206418
230	0x3d7bad17	0.06144437
231	0x3ca6b266	0.020348739
232	0xbc82bab1	-0.015958162
233	0x3daf1155	0.08548228
234	0xbd1ad966	-0.037804984
235	0xbdff9f7d	-0.12481592
236	0xbdeb36f0	-0.11485088
237	0x3ba1e51c	0.004940642
238	0xbd495757	-0.04915556
239	0x3e8a54a5	0.27017704
240	0xbe111469	-0.14167942
241	0x3cc9e533	0.024645424
242	0xbb8772c4	-0.004133554
243	0x3ceae651	0.028674277
244	0x3e1883ae	0.14893982
245	0x3cb79ee0	0.022414625
246	0xbc13747d	-0.008999941
247	0x3e1ab724	0.15108925
248	0x3d69a5d6	0.05704292
249	0x3db17668	0.08665162
250	0x3c49d5a1	0.0123189995
251	0x3dc76e75	0.09737865
252	0xbd986b35	-0.07442323
253	0x3d35e2eb	0.04440586
254	0x3e5e18b7	0.21689115
255	0x3ce2d6e3	0.027690357

module.fc3.bias f4 [10]
0	0xbcb2f969	-0.021847444
1	0xbeded325	-0.43520465
2	0x3e533e19	0.20629157
3	0x3dd77530	0.105203986
4	0x3e995d3d	0.29953948
5	0xbe59e2e8	-0.21277964
6	0x3db555cb	0.08854254
7	0xbed42fb9	-0.4144266
8	0x3ecabff5	0.39599577
9	0xbebea73f	-0.37236974
