models/classifier_net_epoch_0_10000.pth (torch_old, 249853 bytes, 10 tensors)

module.conv1.weight f4 [6, 3, 5, 5]
0	0x3e6e92c1	0.2329817
1	0x3e0644fe	0.13112256
2	0x3d9a3fe1	0.07531715
3	0x3e64dd86	0.2235013
4	0x3e93eacd	0.28890076
5	0x3eaf8341	0.34279826
6	0x3d8600ce	0.06543122
7	0x3e0e7221	0.13910724
8	0x3e8c4aa9	0.2740071
9	0x3ec90f8e	0.3926968
10	0x3e64d300	0.22346115
11	0x3db0fdb4	0.0864214
12	0xbe551c65	-0.20811613
13	0x3dbdc884	0.09266761
14	0x3dd031b8	0.10165733
15	0xbcd0dd72	-0.025496218
16	0xbe016fe2	-0.12640336
17	0xbe190897	-0.14944683
18	0xbe699e29	-0.2281424
19	0xbe3d0b04	-0.18461233
20	0xbd42db52	-0.04757244
21	0xbda1134a	-0.07865007
22	0xbe270bc9	-0.1631309
23	0xbe430eaa	-0.19048563
24	0xbe5c0b3e	-0.21488664
25	0x3daad550	0.083414674
26	0xbe0e3ca8	-0.13890326
27	0xbeadb7ce	-0.33929294
28	0xbe7e56c2	-0.24837783
29	0xbe498162	-0.19678262
30	0x3e6edc6f	0.23326276
31	0xbe5787cc	-0.21047896
32	0xbea815ae	-0.3282904
33	0xbe08d0cf	-0.13360904
34	0x3e145bc8	0.14488137
35	0x3d887d23	0.06664493
36	0xbdbb66c2	-0.09150459
37	0xbeb9b43c	-0.3627032
38	0xbccd5a30	-0.025067419
39	0x3d57a0f6	0.05264374
40	0xbcb15f02	-0.021651749
41	0x3c14f2f4	0.009091128
42	0xbe9ae063	-0.30249318
43	0xbdbac3cf	-0.09119379
44	0xbe4671d0	-0.19379354
45	0x3e8e1e59	0.27757528
46	0xbd29e776	-0.041480504
47	0x3c9e6112	0.019333396
48	0x3d9a55bf	0.07535886
49	0xbd99a72e	-0.0750259
50	0xbb7f1bf6	-0.0038926578
51	0xbdc71ad1	-0.09721912
52	0xbe688e6b	-0.22710578
53	0xbe1a7826	-0.15084895
54	0xbd9b5ccc	-0.07586059
55	0x3e59182c	0.21200627
56	0xbe12e7d5	-0.1434625
57	0xbe51291d	-0.2042584
58	0x3cade35f	0.021226583
59	0xbc09c7ec	-0.0084094815
60	0x3e17abd7	0.14811645
61	0xbdc31568	-0.09525567
62	0xbe4aed37	-0.19817053
63	0xbabbb793	-0.0014321677
64	0x3bc35963	0.0059615835
65	0x3e25e5cf	0.16200946
66	0x3e059199	0.13043822
67	0xbdac5c05	-0.08415989
68	0x3d310366	0.04321613
69	0x3d4ca71e	0.049964063
70	0x3ea226df	0.3167028
71	0x3db510ab	0.0884107
72	0x3c83e969	0.01610251
73	0x3da8c963	0.082415365
74	0x3e222b60	0.15836859
75	0x3dd8446b	0.10559925
76	0x3e20d489	0.15706076
77	0xbd5dcdbb	-0.054151278
78	0xbd2652fc	-0.040606484
79	0xbd83d4f4	-0.06437102
80	0xbdf2111f	-0.11819672
81	0x3cfd4de1	0.030920925
82	0xbdf0db4c	-0.117605776
83	0xbdd19891	-0.10234178
84	0xbd626e3d	-0.055280913
85	0xbe3c4a81	-0.18387796
86	0xbe6e4d7b	-0.23271744
87	0xbe480528	-0.19533217
88	0xbdab99f3	-0.08378973
89	0xbe3422eb	-0.17591445
90	0xbe618695	-0.22023995
91	0xbe7aab76	-0.2447947
92	0xbe50917d	-0.20368
93	0xbded28f6	-0.11580078
94	0xbe4786db	-0.19485037
95	0xbe062c0a	-0.13102737
96	0x3d8f14bc	0.06986377
97	0xbda386e0	-0.0798471
98	0x3dd239c5	0.10264925
99	0x3e36d45a	0.17854443
100	0xbd01333f	-0.031543013
101	0x3e021f2f	0.12707208
102	0x3b20ac1f	0.0024516655
103	0xbaac1a6a	-0.0013130431
104	0x3bbb37fe	0.005713462
105	0x3b5451bf	0.0032397357
106	0x3da3d5ca	0.079997614
107	0xbe14bfa6	-0.14526233
108	0xbd56d654	-0.052450493
109	0xbd89348b	-0.06699475
110	0x3d66a34f	0.056308087
111	0xbd5982ec	-0.053103372
112	0xbd8c0d25	-0.068384446
113	0xbddfd4ff	-0.10929298
114	0xbd626357	-0.05527052
115	0xbcef1602	-0.029185299
116	0xbd9d17fa	-0.07670589
117	0xbddc7c03	-0.10765841
118	0xbda7c1b0	-0.0819124
119	0xbde744d8	-0.11292428
120	0x3db5254f	0.08845007
121	0xbd1b4d20	-0.03791535
122	0xbd0339cd	-0.032037545
123	0x3db861b6	0.09003012
124	0x3e6358dd	0.22201867
125	0x3df0e1ee	0.11761843
126	0x3e36d7e8	0.17855799
127	0x3ce39dd2	0.027785216
128	0x3e3817a1	0.17977764
129	0x3cfb2a68	0.03065987
130	0x3d6159fe	0.055017464
131	0x3dc23762	0.0948322
132	0x3e0b8563	0.13625102
133	0x3c7cfae6	0.015440678
134	0xbd9c86da	-0.076429084
135	0x3c8665ff	0.016406057
136	0x3d6e06c5	0.058111925
137	0x3d2a53ad	0.041583706
138	0xbe0dcde6	-0.13848075
139	0xbddaa3cd	-0.10675774
140	0x3c9064cd	0.01762619
141	0xbe00c6cb	-0.12575833
142	0xbd555473	-0.05208249
143	0xbdeb2fac	-0.11483702
144	0x3b694941	0.0035596641
145	0x3c571403	0.01312733
146	0x3ac7ecf9	0.0015253118
147	0x3e54c17a	0.2077693
148	0x3d963911	0.07335103
149	0x3e051c89	0.12999167
150	0xbdfb5384	-0.12271789
151	0xbe388fd0	-0.1802361
152	0xbe2cdf4a	-0.16882053
153	0xbdd1cc72	-0.10244073
154	0xbdb01773	-0.085982226
155	0xbdb31a64	-0.08745268
156	0x3ddda166	0.108218
157	0x3c148111	0.009063975
158	0x3d7a76a6	0.06114831
159	0xbbee141d	-0.0072655813
160	0xbd885454	-0.06656709
161	0x3d2e7d0d	0.042599726
162	0x3de59de9	0.112117596
163	0xbc40e0a5	-0.011772309
164	0x3c4b9a35	0.012426903
165	0xbe99e7d8	-0.30059695
166	0xbe164f17	-0.14678608
167	0xbdf1034e	-0.117682084
168	0xbe7d43bf	-0.24732874
169	0xbe655fb2	-0.22399786
170	0xbe0b5e97	-0.13610302
171	0xbe334910	-0.1750834
172	0xbdc4a043	-0.0960088
173	0xbdda74ef	-0.106668346
174	0xbd1b8b32	-0.037974544
175	0xbe27775d	-0.16354127
176	0xbe4217d7	-0.18954407
177	0x3cc7a3cf	0.024370102
178	0xbc5c4b22	-0.013445647
179	0xbcd1cacf	-0.025609402
180	0x3e580b60	0.21098089
181	0x3e56fa4b	0.20993917
182	0x3e93323b	0.2874926
183	0x3e4f9c7f	0.20274542
184	0x3e83320d	0.25624123
185	0x3dfcf91d	0.12352202
186	0x3d8d4515	0.06897942
187	0x3d3d6b20	0.04624474
188	0x3bd5d95f	0.006526157
189	0x3dda9adf	0.106740706
190	0xbe74a813	-0.2389224
191	0xbe92a280	-0.28639603
192	0xbe26b920	-0.16281557
193	0xbe51a1e6	-0.20471916
194	0xbe08a080	-0.13342476
195	0xbe2d3124	-0.16913277
196	0xbe4ead90	-0.20183396
197	0xbe041547	-0.12898742
198	0xbca41cc7	-0.020033253
199	0x3ce0a1a1	0.02742082
200	0xbbe0b4c6	-0.0068574874
201	0x3e15386b	0.14572303
202	0x3e19c113	0.15015058
203	0x3d81a2be	0.06329869
204	0x3d3c1ece	0.045927815
205	0x3eaa5e29	0.33274963
206	0x3e3aa9a9	0.18228783
207	0x3ebb8639	0.3662584
208	0x3ecaa7ca	0.39581138
209	0x3ea77daa	0.32713062
210	0x3e4d7bee	0.20066807
211	0x3e705f57	0.2347387
212	0x3dcc3da0	0.099726915
213	0x3e2eabe4	0.17057759
214	0x3ddefdf3	0.10888281
215	0xbd34b0ef	-0.04411405
216	0x3d2372bc	0.03990434
217	0xbdd8aa80	-0.10579395
218	0xbde67c9e	-0.112542376
219	0xbd1c4404	-0.038150802
220	0x3c87c1a6	0.016571831
221	0x3c504c1b	0.012713457
222	0xbd176abc	-0.036967024
223	0x3d8724a2	0.06598784
224	0x3cce4121	0.02517754
225	0x3c13f680	0.009030938
226	0x3dafda55	0.085865654
227	0xbd741618	-0.059591383
228	0x3e2b5e8b	0.16735284
229	0x3e000803	0.12503056
230	0xbaed38b4	-0.0018098564
231	0xbde3ea8b	-0.1112872
232	0xbd3ec74d	-0.046576787
233	0x3de9ed89	0.11422259
234	0x3e4d1847	0.20028792
235	0xbd732343	-0.0593598
236	0xbd830951	-0.06398261
237	0xbdb32e31	-0.08749045
238	0x3e3273cc	0.17426986
239	0x3d8d86ce	0.069104776
240	0xbe6d4690	-0.23171449
241	0xbe3e7ac9	-0.18601526
242	0xbd06e121	-0.032929543
243	0x3d14feb8	0.03637573
244	0x3e523b9c	0.20530552
245	0xbd3b4734	-0.0457222
246	0xbe6a6284	-0.22889143
247	0xbcfc3a8e	-0.03078964
248	0x3e188666	0.14895019
249	0xbc86aa68	-0.016438678
250	0xbd1afc3c	-0.037838206
251	0xbdb5a9a8	-0.0887025
252	0xbe3a3a02	-0.1818619
253	0x3d46eb55	0.048564274
254	0x3c7869e6	0.015161967
255	0xbe0c34f3	-0.13692074

module.conv1.bias f4 [6]
0	0xbd394097	-0.045227613
1	0xbe771405	-0.2412873
2	0x3d867ef0	0.0656718
3	0xbd4d40fb	-0.0501108
4	0xbe62fcf9	-0.22166814
5	0x3e8403c4	0.25784123

module.conv2.weight f4 [16, 6, 5, 5]
0	0x3e4ed92e	0.20200035
1	0x3e1dd1ff	0.15412138
2	0x3e392ad2	0.18082741
3	0x3ce3421a	0.02774148
4	0xbcc9a005	-0.024612436
5	0x3dad58ca	0.08464201
6	0xbdbb1d8e	-0.091364965
7	0x3e21c174	0.15796453
8	0x3e299d32	0.16563872
9	0xbc835fbf	-0.016036866
10	0x3d2ed097	0.042679396
11	0xbdabfa00	-0.08397293
12	0xbd294cfc	-0.041333184
13	0x3db0e136	0.086367056
14	0x3ca31e73	0.01991198
15	0xbcf6ac3a	-0.03011142
16	0x3c800c66	0.015630912
17	0x3cbe27e7	0.023212386
18	0x3d8965d8	0.06708878
19	0x3d795ac6	0.060877584
20	0xbd0c3994	-0.0342346
21	0xbdd5d3ac	-0.10440764
22	0xbdcb1057	-0.09915226
23	0xbdbe9295	-0.09305302
24	0x3db8dabd	0.09026096
25	0xbdc758c0	-0.097337246
26	0x3cc04e68	0.023474887
27	0xbbbe0877	-0.005799349
28	0x3cf2a915	0.02962164
29	0xbc91774a	-0.017757077
30	0xbe01cd23	-0.1267591
31	0xbcf33b37	-0.029691322
32	0xbda7d597	-0.08195036
33	0xbc123520	-0.008923799
34	0xbd2d1d06	-0.042264007
35	0xbe1b72e1	-0.15180542
36	0xbd1043bc	-0.035220847
37	0x3b24a80f	0.0025124585
38	0xbbcda71d	-0.006276025
39	0xbb8d4ba2	-0.0043119946
40	0xbdf4603d	-0.119324185
41	0xbd5369b5	-0.051614482
42	0x3c3203ae	0.010865135
43	0xbc02af2d	-0.0079763355
44	0x3db7d92f	0.08976971
45	0xbdb4ff4d	-0.08837757
46	0x3c632460	0.013863653
47	0xbdad8e3e	-0.08474396
48	0x3a6775a4	0.00088294805
49	0x3def7a1c	0.116932124
50	0x3cd48938	0.025944337
51	0xbaa4285e	-0.0012524237
52	0x3d07e464	0.033176795
53	0xbc3fb0a3	-0.011699828
54	0x3d9af900	0.07567024
55	0xbdb4565c	-0.08805534
56	0x3d0eb0b1	0.034836475
57	0x3cf5dad4	0.030011572
58	0x3d74e50b	0.059788745
59	0x3bcbec63	0.006223248
60	0xbdded2b9	-0.10880036
61	0xbd50142c	-0.050800487
62	0xbcfb8c08	-0.03070642
63	0xbd0c31ca	-0.03422717
64	0xbd3817e7	-0.04494467
65	0xbe00b136	-0.125676
66	0x3b4ea7fa	0.0031533227
67	0x3d0733f9	0.03300855
68	0xbcbbf68f	-0.022944717
69	0x3cf413f0	0.029794663
70	0xbdf1322e	-0.11777149
71	0x3b96fcc5	0.004607769
72	0x3c1c6535	0.009545614
73	0x3d0d0aae	0.034434013
74	0xbd9b0ce8	-0.07570821
75	0x3d9b40a5	0.07580689
76	0x3debaa7c	0.11507127
77	0x3d6c2eb8	0.057661742
78	0x3e5f61a5	0.21814592
79	0x3d19d67e	0.03755807
80	0x3dde37ce	0.10850488
81	0xbbc78f52	-0.006090083
82	0x3baf61cf	0.005352236
83	0x3e0ac9f2	0.13553599
84	0x3e1d558a	0.15364662
85	0x3912b9b7	0.00013992829
86	0xbd47dfd6	-0.04879745
87	0xbd7c04ee	-0.06152814
88	0x3cf84d97	0.030310435
89	0x3dd4a82e	0.1038364
90	0xbe08a0fe	-0.13342664
91	0xbc9d2ee6	-0.019187402
92	0xbde675f9	-0.1125297
93	0xbdca5029	-0.098785706
94	0xbc0568ea	-0.008142689
95	0xbe30a640	-0.1725092
96	0xbd2a22b9	-0.04153702
97	0xbd2de9de	-0.04245936
98	0xbb959195	-0.004564474
99	0xbbc8fd00	-0.0061336756
100	0xbc01f5c5	-0.007932131
101	0xbd94b33b	-0.07260748
102	0xbd2afb77	-0.04174372
103	0x3d60ec02	0.054912575
104	0x3cf2d415	0.029642144
105	0xbdb04285	-0.086064376
106	0x3c31660f	0.010827555
107	0xbc8d54ad	-0.01725229
108	0xbd249645	-0.04018237
109	0xbd0971b9	-0.03355572
110	0xbcf1eadd	-0.029530937
111	0xbd98c9ea	-0.07460387
112	0x3d830b80	0.06398678
113	0xbd366cce	-0.044537358
114	0x3d0e5537	0.034749236
115	0xbd66fc79	-0.05639312
116	0xbd31f7fe	-0.043449394
117	0x39f591f8	0.00046838797
118	0xbdba7b53	-0.091055535
119	0x3c5c9454	0.013463099
120	0xbd3cc533	-0.0460865
121	0x3a01769b	0.0004938633
122	0xbd3b3b3f	-0.0457108
123	0xbc80be38	-0.015715703
124	0x3d84ecbe	0.064904675
125	0x3d4bf51f	0.049794313
126	0x3b81ec5c	0.003964944
127	0xbd49be32	-0.04925365
128	0xbd0ff58d	-0.035146285
129	0x3d01eeef	0.031722005
130	0x3db26308	0.08710295
131	0x3d399822	0.0453111
132	0xbce41767	-0.02784319
133	0x3c8671d1	0.016411694
134	0x3d9e7269	0.07736666
135	0x3da8e194	0.082461506
136	0x3d82f756	0.06394832
137	0xbdafb012	-0.085785046
138	0xbdbafd37	-0.09130328
139	0x3d82a67c	0.063794106
140	0xbc90ed1d	-0.01769119
141	0x3d3730b2	0.044724174
142	0xbcfeacc3	-0.031088239
143	0xbdad10aa	-0.08450444
144	0xbd31b2ee	-0.04338353
145	0xbbcf97b5	-0.0063352236
146	0x3ce02f18	0.027366206
147	0xbda15d81	-0.078791626
148	0xbd99ad29	-0.07503731
149	0xbd9eeea4	-0.07760361
150	0xbd7446c5	-0.059637804
151	0xbd43d2d0	-0.04780847
152	0xbd34adf4	-0.044111207
153	0xbd4cc41c	-0.049991712
154	0xbdd3aa6e	-0.10335241
155	0x3e0f224a	0.13977924
156	0xbba44d21	-0.0050140773
157	0xbdf948b9	-0.12172074
158	0xbda6bda3	-0.08141639
159	0x3c733045	0.014843051
160	0x3e2b6366	0.16737136
161	0x3dcab18d	0.098971464
162	0x3cad5461	0.021158399
163	0xb9c4622d	-0.0003745718
164	0xbd297266	-0.041368864
165	0x3df5f606	0.12009816
166	0x3e832337	0.25612804
167	0x3dd6ba34	0.10484734
168	0x3e0d3beb	0.13792388
169	0x3d992bf3	0.07479086
170	0xbd8481dd	-0.06470082
171	0x3db2ece8	0.087365925
172	0x3d02143e	0.031757586
173	0x3e0acbaa	0.13554254
174	0x3dbd8396	0.09253614
175	0xbd8ae501	-0.0678196
176	0xbdff8d7d	-0.124781586
177	0xbd29ebf5	-0.04148479
178	0xbd8e6dc9	-0.069545336
179	0xbe17e039	-0.14831628
180	0x3c0a0771	0.008424626
181	0xbe02145d	-0.1270308
182	0xbe1b5f25	-0.15173014
183	0xbda62979	-0.08113379
184	0xbdb55b38	-0.08855289
185	0xbdb219cb	-0.08696326
186	0x3d8e653b	0.06952902
187	0xbdce4e3d	-0.100735165
188	0xbdffab09	-0.12483794
189	0xbd329d4e	-0.04360705
190	0x3dc4865c	0.095959395
191	0x3d851e32	0.064999
192	0x3d71ec05	0.059062976
193	0xbd0bfb88	-0.034175426
194	0x3db3afc7	0.08773761
195	0x3d7b38bb	0.0613334
196	0x3e309039	0.17242517
197	0x3e6ea2d9	0.23304309
198	0x3e326c9e	0.17424247
199	0x3d676be8	0.05649939
200	0x3e016aba	0.12638369
201	0x3dc8eb77	0.09810536
202	0x3d7b786d	0.061394144
203	0x3d6e7ca8	0.05822435
204	0x3da8c17a	0.08240028
205	0x3b9505ef	0.0045478265
206	0xbc34da02	-0.011038305
207	0x3c587c15	0.013213177
208	0xbd419821	-0.047264222
209	0x3cb13810	0.021633178
210	0xbd00534c	-0.031329438
211	0x3d51d3e6	0.051227473
212	0x3d4018e9	0.046898756
213	0xbccb2909	-0.02479984
214	0xbbb2a41d	-0.0054516927
215	0xbdbddf9e	-0.09271167
216	0x3da88c2f	0.08229863
217	0x3e48b39a	0.19599763
218	0x3e1f6b52	0.15568283
219	0x3c8f848c	0.017519258
220	0xbe17a840	-0.14810276
221	0xbe29007b	-0.1650409
222	0x3b2446a3	0.0025066517
223	0xbd8d3cec	-0.068963856
224	0xbd3fc3b1	-0.046817485
225	0xbd80d1b1	-0.062899955
226	0xbcfa44a6	-0.030550312
227	0xbe046224	-0.12928063
228	0xbd4cae08	-0.049970657
229	0xbd48fabe	-0.04906725
230	0x3cd8ede6	0.026480626
231	0x3d39bb05	0.04534437
232	0x3d71e76a	0.059058584
233	0x3ca3589f	0.019939719
234	0xbd7326bc	-0.05936311
235	0x3d33ee5b	0.043928485
236	0x3df6c189	0.12048633
237	0xbbf17d07	-0.0073696407
238	0x3d3c345a	0.045948364
239	0xbd0a9c47	-0.033840444
240	0xbdc8d5ad	-0.098063804
241	0x3d3aa2f8	0.045565575
242	0x3e0b80e5	0.13623388
243	0x3dc8c5df	0.09803366
244	0x3e11b805	0.14230354
245	0xbdb0eed2	-0.08639301
246	0xbde1f524	-0.11033085
247	0x3c5c098c	0.0134300105
248	0x3bce993d	0.0063048885
249	0xbc2b5fff	-0.010459899
250	0xbdb230e7	-0.08700734
251	0xbd249efb	-0.040190678
252	0xbdd4623b	-0.103702985
253	0xbd8bd0ce	-0.06826936
254	0x3d284cdc	0.041088924
255	0xbceb70d4	-0.028740324

module.conv2.bias f4 [16]
0	0x3dd51341	0.10404063
1	0xbe8a6143	-0.2702733
2	0xbe9492dc	-0.29018295
3	0xbd139f60	-0.036040664
4	0x3e4232b6	0.18964657
5	0xbdd5a7c6	-0.10432391
6	0x3e039ede	0.12853572
7	0x3dd5ad8b	0.10433491
8	0xbe09cb00	-0.13456345
9	0x3cf56cc1	0.029959084
10	0xbddc8f25	-0.1076949
11	0x3e81d64f	0.25358817
12	0xbc0d0485	-0.008607035
13	0xbd83f2e1	-0.0644281
14	0xbdcfc866	-0.10145645
15	0x3ea92256	0.3303401

module.fc1.weight f4 [120, 400]
0	0xbd33ef58	-0.043929428
1	0xbd5fcb17	-0.05463704
2	0xbd5fadea	-0.054609217
3	0x3cd3a57a	0.025835741
4	0xbd221021	-0.039566163
5	0x3c8224a7	0.015886618
6	0x3bb8bfa4	0.0056380797
7	0x3c77e80a	0.015131006
8	0xbc9baa88	-0.019002214
9	0xbc019cca	-0.007910917
10	0xbd12d4eb	-0.035847586
11	0xbb8140bf	-0.003944486
12	0xbcae6726	-0.02128942
13	0x3b38a336	0.0028173453
14	0x3d146566	0.036229514
15	0xbc9d501c	-0.019203238
16	0x3d0d943a	0.034565188
17	0xbd142cb7	-0.036175456
18	0x3c3d7984	0.011564616
19	0xbc7e74ab	-0.0155307455
20	0x3cb6e7c2	0.022327308
21	0x3ceb68e4	0.02873654
22	0xbd043846	-0.03228023
23	0xbc8aa4f7	-0.016924364
24	0x3c9b6574	0.018969275
25	0x3cca273a	0.024676908
26	0xbc671ef9	-0.014106506
27	0x3ccfd89e	0.025371846
28	0xbd43791e	-0.04772293
29	0xbbf13a09	-0.0073616547
30	0x3c59680b	0.013269435
31	0x3b0424ef	0.0020163616
32	0x3af98a7d	0.0019038465
33	0x3c2248ed	0.009905082
34	0xbd0b5f75	-0.03402658
35	0x3d16bddc	0.036802158
36	0x3c8f73a9	0.017511206
37	0xbb9af308	-0.0047286786
38	0xbc71f7f2	-0.014768587
39	0x3d0174b2	0.03160543
40	0xbd246463	-0.0401348
41	0xbd395007	-0.045242336
42	0xbd0b643d	-0.03403114
43	0xbd1bcbe5	-0.038036246
44	0xbd13b66a	-0.036062635
45	0xbd7bde6a	-0.061491407
46	0xbc78a63e	-0.015176354
47	0xbd62d30c	-0.05537705
48	0xbcb18294	-0.02166871
49	0xbd1d5045	-0.03840663
50	0x3d538291	0.05163819
51	0xbd1bd1fc	-0.038042054
52	0xbd458267	-0.048220064
53	0x3c804daa	0.015662033
54	0xbd30412c	-0.043030903
55	0x3d21865f	0.039434787
56	0xbcf331d6	-0.02968685
57	0x3cf96932	0.030445669
58	0xbbcc912c	-0.006242892
59	0x3cc46ad8	0.023976728
60	0x3caf1d23	0.021376198
61	0xbc163c40	-0.009169638
62	0x3bac7d55	0.005263964
63	0xbcdf5006	-0.027259838
64	0x3cc5afb4	0.024131633
65	0x3d449154	0.04799016
66	0xbd079003	-0.033096325
67	0xbd154424	-0.036441937
68	0xbd0ad3a8	-0.033893257
69	0x3d06d96c	0.032922193
70	0xbd389e8c	-0.045073077
71	0xbb1def0a	-0.0024098777
72	0xbd6065de	-0.054784648
73	0xbbda587a	-0.0066633793
74	0x3cb8d466	0.022562217
75	0xbd298123	-0.04138292
76	0x3c240c8c	0.010012757
77	0xbd01e657	-0.03171381
78	0xbc58615d	-0.013206807
79	0xbd90b474	-0.07065669
80	0x3d0897df	0.03334796
81	0xbd110786	-0.035407566
82	0x3d030ba6	0.03199353
83	0x3cc120c0	0.023575187
84	0x3d1adec3	0.0378101
85	0x3ba5ed1e	0.005063667
86	0x3c85210d	0.016251111
87	0x3caee961	0.021351518
88	0xbd35e8be	-0.044411413
89	0x3cff1bd1	0.031141194
90	0xbcc9aab0	-0.024617523
91	0xbd42bf93	-0.04754598
92	0xbd18f9c4	-0.03734757
93	0xbccab0d7	-0.024742527
94	0xbd3111fa	-0.043230034
95	0xbd1f34fd	-0.038868893
96	0xbc3f39ca	-0.011671493
97	0xbd0a0732	-0.03369827
98	0xbcb013d2	-0.021493826
99	0xbc22cfd5	-0.009937246
100	0x3d53536a	0.05159322
101	0x3d22f34f	0.03978282
102	0x3b9af2a8	0.004728634
103	0x3d1d088e	0.038338237
104	0x3d7016d7	0.05861553
105	0x3d7ca3b1	0.061679546
106	0x3d7f2261	0.062288646
107	0xbc84e08d	-0.016220355
108	0x3c12bbe5	0.00895593
109	0x3c57a501	0.013161899
110	0x3d6914e6	0.056904696
111	0x3c17f39e	0.009274391
112	0x3d3a843e	0.045536272
113	0x3d099215	0.03358658
114	0xbceddf40	-0.029037118
115	0x3d245445	0.04011943
116	0xba7fd734	-0.0009759546
117	0x3d2dc312	0.04242236
118	0x3bbcf482	0.0057664523
119	0x3c465225	0.012104546
120	0x3c3e6e6f	0.011623009
121	0xbc83a0b7	-0.016067846
122	0x3d5918d5	0.053002197
123	0xbcc623f7	-0.024187071
124	0x3be15307	0.0068763527
125	0xbbcb7a71	-0.0062096645
126	0xbd5738bf	-0.05254435
127	0x3cabf468	0.020990565
128	0x3c9367d1	0.01799384
129	0xbd518443	-0.051151525
130	0xbceb0cb8	-0.028692588
131	0xbbd254e6	-0.006418812
132	0xbc82697c	-0.01591944
133	0xbc9e24d2	-0.019304667
134	0xbd235903	-0.03987981
135	0x3d3eb82e	0.046562366
136	0x3d59a0bf	0.053131815
137	0xbce55d2a	-0.027998526
138	0xbc422a66	-0.011850929
139	0xbc8ce5e3	-0.017199462
140	0xbd415145	-0.047196645
141	0xbd02848a	-0.03186468
142	0x3d05ba9a	0.03264866
143	0x3c16cf61	0.009204716
144	0x3ce6ca65	0.028172681
145	0xbd7767a9	-0.060401592
146	0xbd4f32f9	-0.05058572
147	0xbced7209	-0.02898504
148	0xbcbcbdb2	-0.023039673
149	0xbd1e2432	-0.038608737
150	0x3ccb3e56	0.024809998
151	0xbc88a987	-0.0166824
152	0xbd375927	-0.044762757
153	0xbc0d117a	-0.008610124
154	0x3cdeead6	0.027211588
155	0xbbb68c27	-0.0055709067
156	0xbd801db9	-0.06255669
157	0x3b9f2df9	0.0048577753
158	0x3cc9d34d	0.024636889
159	0x3bda93b8	0.0066704415
160	0x3c47afe8	0.012187935
161	0xbcc89e4e	-0.024489548
162	0xbd4899fb	-0.048974972
163	0xbaaa2873	-0.0012982026
164	0xbcd3a148	-0.02583374
165	0xbc468add	-0.0121180685
166	0xba051d43	-0.00050779077
167	0xbcff902f	-0.031196682
168	0xbd3f9aa3	-0.046778332
169	0xbc379fe8	-0.011207558
170	0x3b92935c	0.004473133
171	0xbc2e194c	-0.010626148
172	0xbd3ec64b	-0.046575826
173	0x3cb86bc8	0.022512332
174	0x3cc9a612	0.024615321
175	0x3d43b292	0.04777772
176	0xbc14b968	-0.009077407
177	0xbc37c5e9	-0.011216619
178	0x3d7b45e1	0.06134594
179	0x3d4ce0b6	0.05001899
180	0x3c8e0451	0.017336043
181	0x3d17399a	0.036920168
182	0x3d1a8b0b	0.037730258
183	0x3c68341d	0.014172581
184	0x3d201404	0.03908159
185	0x3a079449	0.00051719375
186	0xbcd06d44	-0.025442727
187	0xbd10fca3	-0.035397183
188	0xbc4be4bf	-0.012444674
189	0x3d43ddce	0.04781895
190	0xbcd6122f	-0.026131717
191	0x3d4f55c9	0.05061892
192	0x3ce3fca9	0.027830439
193	0x3d37d433	0.044880103
194	0x3ce9976a	0.028514583
195	0x3d60680a	0.05478672
196	0xbcc56f14	-0.024100818
197	0xbcc2b488	-0.023767725
198	0x3d442e4e	0.047895722
199	0x3d2a0bd6	0.041515194
200	0xbb12b918	-0.0022388157
201	0x3cb9de1a	0.022688914
202	0xbb46fda0	-0.0030363575
203	0xbcd0aa94	-0.025471963
204	0xbbdffaf0	-0.006835334
205	0xbcad4808	-0.021152511
206	0xbcdcdf48	-0.026961938
207	0x3d67ec35	0.05662175
208	0xbb32fbfa	-0.0027310834
209	0x3d8bdc15	0.06829087
210	0x3d20b9c9	0.03923968
211	0x3b45b432	0.003016722
212	0x3c8e909f	0.017402945
213	0xbcfdf9d9	-0.031002926
214	0x3d0ac017	0.033874597
215	0xbd3192b7	-0.04335281
216	0xbc4d4948	-0.012529679
217	0xbceeba53	-0.02914158
218	0xbd6bf13d	-0.05760311
219	0x3d031ae3	0.032008063
220	0xbd4046bc	-0.046942458
221	0x3c20ba45	0.009810035
222	0xbd66fb8d	-0.05639224
223	0xbd48f989	-0.0490661
224	0xbc82b009	-0.01595308
225	0xbc9ae30d	-0.018907094
226	0xbd861afe	-0.06548117
227	0x3c2130c1	0.009838284
228	0xbc920aca	-0.01782741
229	0xbc0d71e6	-0.008633113
230	0x3d27c6e1	0.04096115
231	0x3c8bc3ad	0.017061079
232	0xbd28b61f	-0.04118931
233	0x3d1e4385	0.03863861
234	0xbd73360a	-0.059377708
235	0x3d23167f	0.039816376
236	0xbc53b359	-0.012921178
237	0x3bd8cded	0.006616345
238	0x3ce0c6ec	0.027438603
239	0xbc9412f3	-0.018075442
240	0x3d689f73	0.056792688
241	0x3d4218ab	0.047386806
242	0x3b379331	0.0028011317
243	0x3c264d26	0.01015023
244	0xbbbe8510	-0.005814202
245	0x3d11d2ef	0.035601553
246	0xba9f08c7	-0.0012133353
247	0x3d0f510d	0.034989405
248	0x3d0711e7	0.032976057
249	0xbd8d1c00	-0.06890106
250	0x3b813b28	0.0039438196
251	0xbc41fe12	-0.01184036
252	0x3cd6231f	0.026139794
253	0xbccba052	-0.02485672
254	0x3cd59e51	0.026076468
255	0x3c584220	0.013199359

module.fc1.bias f4 [120]
0	0x3da08a72	0.07838906
1	0xbb9ba04c	-0.0047493335
2	0xbce5dae5	-0.028058479
3	0xbadb8c21	-0.0016750136
4	0xbdda431d	-0.10657332
5	0xbd975e7a	-0.07391067
6	0x3c4e3ddb	0.01258799
7	0x3d764cbc	0.060131773
8	0xbd4f8eee	-0.050673418
9	0xbcb57130	-0.022148699
10	0xbc3042d8	-0.010758124
11	0x3cbe9736	0.023265462
12	0xbbb16c0e	-0.0054144925
13	0xbe0bd497	-0.13655315
14	0x3d0e97bd	0.034812678
15	0x3d833ac5	0.06407694
16	0x3d369b27	0.04458156
17	0x3d52510a	0.051346816
18	0x3bb5cba6	0.0055479584
19	0x3c0f01a8	0.008728422
20	0x3cd99681	0.026561024
21	0xbaefe92d	-0.0018303745
22	0x39a42cfb	0.0003131403
23	0xbc027a74	-0.007963765
24	0xbd07eb14	-0.033183172
25	0xbce3467e	-0.027743574
26	0xbbdc7f07	-0.00672901
27	0x3d290281	0.041262154
28	0x3de35a95	0.111012615
29	0x3cffb4d1	0.03121415
30	0xbc92f53e	-0.017939206
31	0xbc8d4931	-0.017246814
32	0x3c1a0f05	0.009402995
33	0xbd998d6a	-0.07497676
34	0x3c597f9b	0.013275052
35	0x3daadfab	0.083434425
36	0x3d81e421	0.0634234
37	0x3c0f4ba7	0.008746064
38	0x3d5abda7	0.053403523
39	0x3db3e520	0.087839365
40	0x3d72b674	0.059256032
41	0x3d853133	0.06503525
42	0xbd8a923b	-0.067661725
43	0x3cd4dac6	0.025983226
44	0x3d8e0974	0.06935397
45	0x3df11375	0.11771289
46	0x3b8bea0e	0.004269845
47	0x3d82a67e	0.06379412
48	0x3cba95b7	0.022776468
49	0x3d221e78	0.03957984
50	0x3da2b3ac	0.07944426
51	0xbd3d7750	-0.046256363
52	0x3d549f26	0.05190959
53	0xbd724e57	-0.059156742
54	0x3da259eb	0.07927307
55	0xbcd5c4da	-0.026094843
56	0xbd4c1069	-0.049820337
57	0xbc94a95d	-0.018147165
58	0x3d1e4d9e	0.03864824
59	0x3d0aa084	0.033844486
60	0x3e0c6cb4	0.13713342
61	0xbd6ac567	-0.057317164
62	0x3d99a4b6	0.07502119
63	0x3cc45690	0.023967057
64	0xbc977f62	-0.018493358
65	0xbd43e3c0	-0.04782462
66	0xbd9928f1	-0.07478512
67	0xbdcf5406	-0.10123448
68	0x3d4fb507	0.05070975
69	0x3d6d12d5	0.057879288
70	0x3d6c4d6b	0.05769102
71	0xbcfde092	-0.030990873
72	0xbcd8a533	-0.02644596
73	0xbd0e891d	-0.03479873
74	0x3c147343	0.009060684
75	0xbd40c67e	-0.047064297
76	0x3b41e3f3	0.0029585331
77	0x3d802a6f	0.062580936
78	0x3d92365d	0.07139275
79	0xbd1391f8	-0.03602788
80	0xbd0f66b6	-0.035010062
81	0x3d0451cd	0.032304574
82	0xbcdc3837	-0.026882274
83	0x3d4dd19d	0.05024873
84	0x3d91786d	0.071030475
85	0x3e0a533a	0.13508311
86	0x3d818568	0.06324273
87	0xbbe69674	-0.0070369784
88	0xbdcd58ea	-0.10026725
89	0x3ddb5b08	0.10710722
90	0xbc961fe0	-0.018325746
91	0x3d4985e9	0.049199972
92	0x3d232590	0.039830744
93	0x3caf1272	0.0213711
94	0xbcde7d38	-0.027159318
95	0x3db61711	0.08891118
96	0x3bfe383a	0.0077581676
97	0x3cc19487	0.023630394
98	0x3d510ca3	0.051037442
99	0x3c516c4d	0.012782169
100	0xbd1fe79f	-0.03903925
101	0xbd29065e	-0.041265838
102	0xbcc5d7de	-0.024150785
103	0xbd05e0e6	-0.032685183
104	0x3dbf0664	0.09327391
105	0xbddebf9a	-0.10876389
106	0xbd39f0a0	-0.045395494
107	0xbd2b1a11	-0.041772906
108	0xbbadebb3	-0.0053076386
109	0x3d4744b9	0.048649523
110	0xb97debf7	-0.00024215864
111	0xbd106f6c	-0.03526251
112	0xbc9658e6	-0.018352937
113	0xbc6f40b7	-0.014602832
114	0x3c14d3f3	0.009083736
115	0x3d2d875e	0.042365424
116	0xbd64f920	-0.055901647
117	0xbc4b4387	-0.0124062365
118	0x3cbcf3a1	0.02306539
119	0x3d8c3183	0.06845381

module.fc2.weight f4 [84, 120]
0	0xbd8d85c8	-0.069102824
1	0x3d003c68	0.031307608
2	0x3b41b64b	0.0029558118
3	0xbc8a8cf3	-0.016912913
4	0xbda1f57c	-0.079081506
5	0xbcf75b72	-0.030194972
6	0xbcd81e58	-0.026381657
7	0x3d7ae502	0.061253555
8	0x3da4d3fe	0.08048247
9	0xbd3d0e65	-0.046156306
10	0x3d83f378	0.06442922
11	0x3d5aa5d2	0.053380795
12	0xbd078433	-0.03308506
13	0x3d740320	0.059573293
14	0xbc0acf07	-0.008472211
15	0xbc9e6bae	-0.019338455
16	0x3d95fc79	0.07323546
17	0x3c828042	0.015930299
18	0x3cdb1287	0.026742233
19	0x3d324d97	0.043531027
20	0xbd7e85fa	-0.06213949
21	0x3db9fe89	0.09081752
22	0x3d815969	0.06315882
23	0x3bb018a1	0.0053740297
24	0x3dc75581	0.097331055
25	0x3d0d1aef	0.034449514
26	0x3d7cf3e2	0.061756022
27	0xbdb2a412	-0.087227
28	0x3c66cf44	0.014087502
29	0xbdac4686	-0.08411889
30	0x3cbdda52	0.023175392
31	0x3c8ca0ba	0.017166484
32	0xbce24b7d	-0.027623886
33	0x3d9c5a38	0.07634395
34	0x3cf6e931	0.030140491
35	0x3d31795e	0.043328635
36	0x3dad2160	0.084536314
37	0x3db4f265	0.088352956
38	0xbd8534d8	-0.0650422
39	0xbda16680	-0.078808784
40	0x3d5e90e0	0.054337382
41	0x3d292ef0	0.04130453
42	0xbce41f1a	-0.027846862
43	0x3c9d2e75	0.019187192
44	0xbca0a5c8	-0.0196103
45	0xbc8dcbb1	-0.017309042
46	0xbd0eb40e	-0.034839682
47	0x3d8f5e9d	0.07000468
48	0xbd17f746	-0.037101053
49	0x3c2a361f	0.01038888
50	0x3d8af58b	0.06785115
51	0x3b230500	0.0024874806
52	0xbd95cd6a	-0.0731457
53	0xbda0a76d	-0.07844434
54	0x3d9cfec8	0.07665783
55	0x3d97a4a3	0.07404449
56	0x3d87a549	0.066233225
57	0xbd555239	-0.052080367
58	0xbc905ef7	-0.017623408
59	0xbcf2a120	-0.029617846
60	0x3d77ff79	0.060546372
61	0x3d55adff	0.05216789
62	0xbda473b0	-0.08029878
63	0x3bae81d0	0.0053255334
64	0x3d752c9e	0.059857003
65	0x3dc06336	0.09393923
66	0x3d76f301	0.06029034
67	0x3d9e6926	0.07734899
68	0x3b640f8e	0.003479931
69	0x3d9cdb4b	0.07659014
70	0xbb2e5940	-0.002660349
71	0x3d4c618f	0.049897727
72	0xbc59bdcd	-0.013289881
73	0x3d89ed46	0.067347094
74	0x3c768c63	0.015048119
75	0x3d98339c	0.07431719
76	0xbd9203af	-0.07129609
77	0xbd314508	-0.043278724
78	0xbd8aed69	-0.06783564
79	0xbd2d4f99	-0.04231224
80	0xbb5b078c	-0.0033421246
81	0xbd963dc8	-0.073360026
82	0x3d4e8bdb	0.050426345
83	0x3c9dd327	0.019265724
84	0xbdad3aa7	-0.08458453
85	0x3d352afe	0.044230454
86	0x3db61f4b	0.088926874
87	0xbaa5bc4d	-0.0012644619
88	0x3d46dd47	0.04855087
89	0xbb10c6c6	-0.0022091134
90	0xbd172292	-0.036898203
91	0xbbfd76dc	-0.0077351164
92	0xbda4dc34	-0.08049813
93	0xbc8e27a9	-0.017352896
94	0xbd618d43	-0.05506636
95	0xbdd0cf91	-0.1019584
96	0x3c2ba643	0.010476652
97	0xbd56b126	-0.052415036
98	0xbd61a89f	-0.05509245
99	0x3d0cf3ed	0.034412313
100	0xbd2820ac	-0.041046783
101	0x3d830aaa	0.063985184
102	0xbd4cfc0f	-0.05004507
103	0x3d7367f1	0.059425298
104	0xbdb8b9a6	-0.09019785
105	0xbcc2ca58	-0.023778126
106	0xbca7f29b	-0.020501425
107	0x3d8d29ce	0.06892739
108	0x3da41084	0.080109626
109	0xbc51f585	-0.012814884
110	0xbda49446	-0.080360934
111	0x3bbe3efe	0.005805849
112	0xbd0aad57	-0.033856716
113	0xbd77a6ba	-0.060461737
114	0x3d33462a	0.043768086
115	0x3d632fc4	0.055465475
116	0x3d812d19	0.0630743
117	0x3db0e5b6	0.08637564
118	0xbc8537ac	-0.016261898
119	0xbd9417c3	-0.07231095
120	0x3d97c210	0.07410061
121	0x3d88137f	0.066443436
122	0x3c2c2a98	0.010508202
123	0xbde10516	-0.10987298
124	0x3e0658d0	0.13119817
125	0xbd76594b	-0.06014375
126	0x3cf6602f	0.03007516
127	0xbd07a455	-0.033115704
128	0xbc399fd0	-0.011329606
129	0xbcb72000	-0.022354126
130	0xbceae4f0	-0.028673619
131	0x3da93f9b	0.08264085
132	0xbcd7cc86	-0.026342642
133	0x3d80c84b	0.06288203
134	0x3d1e3edd	0.03863417
135	0x3c67d3da	0.01414963
136	0xbbf18660	-0.007370755
137	0xbc4d05a4	-0.012513552
138	0x3c3317ec	0.010930996
139	0xbcc81849	-0.024425643
140	0xbd5f355f	-0.054494258
141	0x3c8d4294	0.017243661
142	0xbb3697cb	-0.0027861472
143	0xbb1738ef	-0.0023074707
144	0x3c83ffef	0.01611325
145	0xbda807b0	-0.08204591
146	0x3dcf66b2	0.101270095
147	0xbd99986b	-0.074997745
148	0x3dc2826a	0.09497531
149	0x3d0b8466	0.034061812
150	0xbda6bd8b	-0.08141621
151	0xbd8cca65	-0.06874541
152	0xbbfc9cc3	-0.007709117
153	0x3dd23908	0.10264784
154	0x3dad1c55	0.084526695
155	0xbd8ff255	-0.07028643
156	0x3daf7fa5	0.08569268
157	0xbdde8866	-0.1086586
158	0xbd393ee5	-0.045225997
159	0xbdf54290	-0.119755864
160	0x3c83a063	0.01606769
161	0x3d7edc47	0.06222179
162	0xbd8d2180	-0.06891155
163	0x3c8c1dfd	0.017104143
164	0x3cc79259	0.024361776
165	0xbcafa146	-0.021439206
166	0xbd25be45	-0.04046466
167	0x3cb63c1f	0.022245465
168	0x3be78db8	0.0070664547
169	0x3d85978d	0.06523047
170	0x3cedb533	0.029017067
171	0xbd9f0399	-0.07764358
172	0x3cacd458	0.021097347
173	0x3de2bb3a	0.11070867
174	0xbd02de47	-0.03195026
175	0xbd8ac687	-0.06776147
176	0x3caf9806	0.021434795
177	0xbd812736	-0.06306307
178	0xbd52655b	-0.05136619
179	0xbd46de97	-0.048552122
180	0x3d6888ac	0.056770965
181	0xbd4e4ac6	-0.05036428
182	0xbdb3311e	-0.08749603
183	0x3d0757d8	0.03304276
184	0xbd4a0fd2	-0.049331494
185	0xb7803661	-1.5284111e-05
186	0x3e206834	0.1566475
187	0xbc4a1fc6	-0.012336677
188	0x3d458c10	0.048229277
189	0x3dcca619	0.09992618
190	0x3d0c6811	0.034278933
191	0x3c612d0b	0.013743649
192	0xb9a52b2c	-0.00031503418
193	0xbd645bdb	-0.055751663
194	0x3d895639	0.06705899
195	0xbb1eaf87	-0.002421351
196	0xbd6b3916	-0.05742749
197	0x3bcd8d3a	0.006272939
198	0xbe0bc9a2	-0.13651136
199	0xba69b957	-0.00089158624
200	0xbd8a7be6	-0.06761913
201	0xbda9792f	-0.08275067
202	0xbd93d49f	-0.07218289
203	0xbd14b8bb	-0.036308985
204	0x3d0e8e5f	0.034803744
205	0x3d2fe323	0.042941224
206	0x37c7f54c	2.3836874e-05
207	0x3c4caf3a	0.012492949
208	0x3d31790f	0.04332834
209	0x3e106cd4	0.14104015
210	0x3ac46b2c	0.0014985553
211	0xbdddb9d3	-0.10826459
212	0x3db20043	0.08691456
213	0x3d84dbda	0.06487246
214	0xbcc7c5bc	-0.02438628
215	0xbdbc6c23	-0.09200313
216	0xbdbb2c6c	-0.09139332
217	0xba827abe	-0.0009954793
218	0xbdb11a66	-0.08647613
219	0x3dc34b56	0.095358536
220	0x3dafd616	0.085857555
221	0xbd32dcd0	-0.043667614
222	0xbd9d5ea5	-0.07684068
223	0xbd3c08a7	-0.04590669
224	0xbdcb1430	-0.0991596
225	0x3d0bbc3a	0.034115054
226	0xbd6f81be	-0.05847334
227	0xbda329af	-0.07966935
228	0x3cba7315	0.022759954
229	0xbd85410b	-0.065065466
230	0x3d09ff8f	0.033690985
231	0xba5534ea	-0.000813319
232	0x3d93df06	0.07220273
233	0x3cbe4f18	0.023231074
234	0xbd883407	-0.066505484
235	0x3d980ffd	0.074249245
236	0xbc9875a2	-0.01861078
237	0x3d0c962a	0.034322895
238	0x3c9cac55	0.019125143
239	0xbdb384a9	-0.08765537
240	0x3ca06885	0.019581089
241	0x3db97ff0	0.09057605
242	0xbdcbaf78	-0.099455774
243	0x3d3ac121	0.04559434
244	0x3ba0b849	0.004904781
245	0xbd4eedb2	-0.050519653
246	0x3de7be5c	0.11315605
247	0x3d8c2f3e	0.06844948
248	0xbd9692f5	-0.073522486
249	0x3d975f9d	0.07391284
250	0x3c6727ef	0.014108642
251	0x3ce13502	0.027491096
252	0x3d5802ef	0.052737173
253	0xbd888b95	-0.06667248
254	0x3c9edbd1	0.019391926
255	0x3e1045ba	0.14089099

module.fc2.bias f4 [84]
0	0xbdbb3bbd	-0.091422535
1	0xbc82c567	-0.01596327
2	0x3dfeccdf	0.1244142
3	0xbd493dc0	-0.049131155
4	0xbd055469	-0.032551203
5	0x3e3a4323	0.18189673
6	0xbd665aa5	-0.05623879
7	0xbdcd2508	-0.10016829
8	0xba3e38a2	-0.0007256364
9	0x3e0fc428	0.14039671
10	0x3e8aed78	0.271343
11	0xbc8154f2	-0.015787575
12	0xbda88a89	-0.082295485
13	0xbd57d36d	-0.052691866
14	0xbc8e727e	-0.017388579
15	0xbd5d9a12	-0.05410201
16	0x3c0ec922	0.008714946
17	0x3e72331f	0.23652314
18	0x3d8505b4	0.064952284
19	0xbbaa14d8	-0.005190473
20	0xbd43bbd6	-0.047786556
21	0x3c9826b7	0.018573148
22	0x3dff5c54	0.12468782
23	0x3be48e8f	0.006975002
24	0x3d6b6aae	0.057474785
25	0xbd96bbff	-0.07360076
26	0x3e1f593d	0.15561385
27	0x3d92389a	0.07139702
28	0x3d05b185	0.03264
29	0x3d88055e	0.06641649
30	0xbd199ffb	-0.037506085
31	0xbc5a142e	-0.013310475
32	0xbd9a8c92	-0.07546343
33	0xbe2aac94	-0.16667396
34	0xbe430a6a	-0.19046941
35	0xbd9de155	-0.07708994
36	0x3d9b247d	0.07575319
37	0x3e1268d5	0.14297803
38	0x3c20fd1a	0.009825969
39	0xbda3b66d	-0.07993779
40	0x3cf1d162	0.029518787
41	0x3d9d907c	0.07693574
42	0x3e5af5d3	0.21382837
43	0xbdaea8ac	-0.08528265
44	0xbaae44ba	-0.0013295629
45	0x3d741eae	0.05959957
46	0xbd6325ff	-0.055456158
47	0x3c86a4a6	0.016435932
48	0xbd90d22d	-0.07071338
49	0xbd3e36ea	-0.04643909
50	0x3de4e55d	0.1117656
51	0xbc4768d8	-0.012170993
52	0x3e1b477d	0.1516399
53	0x3d67999b	0.056542974
54	0x3d59f0a9	0.053208027
55	0xbdc0bae9	-0.0941065
56	0x3e224e3b	0.15850155
57	0x3db45503	0.08805277
58	0x3d88ef78	0.066863
59	0xbdbe73c4	-0.09299424
60	0xbd80be46	-0.06286292
61	0xbe0b4e1c	-0.13604015
62	0x3d081bac	0.033229515
63	0xbd7fce65	-0.062452693
64	0xbd68fd98	-0.05688247
65	0xbc77e3de	-0.015130011
66	0xbdb77039	-0.08956952
67	0xbc1e7900	-0.009672403
68	0xbdaf5d5d	-0.085627295
69	0x3d2ee5e7	0.04269972
70	0x3d78d9a7	0.060754444
71	0x3d517b80	0.05114317
72	0xbd5956c4	-0.05306126
73	0x3d8a0b9e	0.06740497
74	0xbc46ada3	-0.012126359
75	0xbd9ed2b2	-0.07755031
76	0x3dc5ca69	0.09657747
77	0x3e0994c9	0.13435663
78	0x3b860034	0.0040893797
79	0x3db48224	0.08813885
80	0x3ce801b0	0.028321117
81	0x3d1576f3	0.036490392
82	0x3e7c0954	0.24612933
83	0xbcd71a2d	-0.026257599

module.fc3.weight f4 [10, 84]
0	0xbb53df6c	-0.0032329215
1	0x3dba4c24	0.09096554
2	0xbe65f430	-0.22456431
3	0xbd4c24c4	-0.04983975
4	0xbc2ae682	-0.010430934
5	0x3d07d696	0.03316363
6	0xbda86985	-0.08223251
7	0xbd8c400b	-0.06848153
8	0xbb44eb0b	-0.0030047323
9	0x3ca5b4af	0.020227758
10	0xbdf8b2c7	-0.12143474
11	0x3d92f89b	0.07176324
12	0xbe26b028	-0.16278136
13	0x3ddb1c15	0.106987156
14	0x3d9ab78c	0.0755454
15	0xbddcf6e3	-0.107892774
16	0x3e2ddac0	0.16977978
17	0x3dcef09d	0.10104487
18	0xbe2eccf3	-0.1707037
19	0x3d29d28b	0.041460555
20	0x3d869abe	0.065724835
21	0x3ce0ee2d	0.027457321
22	0xbd30156e	-0.042989187
23	0x3e1292e8	0.14313853
24	0x3ceeeda7	0.029166056
25	0x3d2dee6b	0.0424637
26	0x3dac1471	0.084023364
27	0x3e352919	0.17691459
28	0x3da434eb	0.08017906
29	0x3de266c6	0.11054759
30	0x3d967a0c	0.07347497
31	0xbde43ca5	-0.111443795
32	0x3dfef899	0.1244976
33	0x3da84910	0.082170606
34	0x3d88cf16	0.066801235
35	0xbd812504	-0.06305888
36	0x3db55014	0.08853164
37	0x3e1118e6	0.14169654
38	0xbd895bf3	-0.06706991
39	0xbd8e9c79	-0.069634385
40	0x3d1b0fa9	0.03785673
41	0x3e57e6db	0.21084158
42	0x3bfd9d24	0.00773968
43	0xbd886160	-0.06659198
44	0xbde8b749	-0.11363084
45	0xbdc70eb3	-0.097196005
46	0xbdb28545	-0.087168254
47	0xbc888a5b	-0.016667536
48	0x3d1790c4	0.037003294
49	0xbdcb7a5e	-0.09935449
50	0xbdf4ff9e	-0.119628176
51	0x3d92dc81	0.07170964
52	0x3e43724d	0.19086571
53	0xbd2feee6	-0.04295244
54	0xbd8b12ee	-0.0679072
55	0xbcd72efe	-0.026267525
56	0xbe26b202	-0.16278842
57	0x3e08ed14	0.13371688
58	0xbe22b41a	-0.15889016
59	0xbd651219	-0.055925462
60	0xbd8e1574	-0.069376856
61	0x3d0ef443	0.034900915
62	0x3d7cd76b	0.061728876
63	0x3d8a2296	0.06744878
64	0x3b26dbe9	0.0025460667
65	0xbc9d13ed	-0.01917454
66	0xbdd878b8	-0.105699
67	0xbc9095b9	-0.017649518
68	0x3b4d666a	0.003134156
69	0xbb1965fb	-0.0023406732
70	0xbca5c183	-0.020233875
71	0x3d5cf68a	0.053946055
72	0xbd8a9452	-0.06766571
73	0xbcee59e5	-0.0290956
74	0x3dfb04fc	0.1225681
75	0x3c99a995	0.01875762
76	0xbda1c9fe	-0.07899855
77	0xbe1af1bf	-0.15131281
78	0x3d2f24dc	0.04275976
79	0x3e1ab699	0.15108718
80	0xbc6f9af1	-0.014624343
81	0x3bf88ac4	0.0075849015
82	0x3e885622	0.26628214
83	0xbd817d55	-0.06322733
84	0x3db59522	0.088663355
85	0x3ded395f	0.11583208
86	0xbe974219	-0.29542616
87	0x3cee664d	0.029101515
88	0x3bdb972d	0.006701371
89	0xbc4c5fed	-0.012474042
90	0x3de0ae62	0.10970761
91	0x3dbb89b5	0.09157125
92	0x3d95d40b	0.073158346
93	0x3d51f1c8	0.05125597
94	0xbe03fc93	-0.12889318
95	0x3e642a99	0.22281875
96	0x3e43cd37	0.19121252
97	0x3c0e11ed	0.008671266
98	0x3e165226	0.14679775
99	0xbde95147	-0.113924555
100	0xbe13d9fa	-0.1443862
101	0xbe1e5a43	-0.1546412
102	0xbe027d3b	-0.12743084
103	0x3ee13412	0.4398504
104	0x3e020b68	0.12699664
105	0x3e0ddcd4	0.1385377
106	0xbe1c9168	-0.15289843
107	0xbda39e4e	-0.079891786
108	0xbdefdd18	-0.11712092
109	0x3e399bab	0.18125789
110	0xbe43c5b5	-0.19118388
111	0xbe5b8063	-0.21435694
112	0x3c175649	0.009236881
113	0xbcae3199	-0.021263884
114	0xbc7c22f3	-0.015389192
115	0xbc5e21a4	-0.013557825
116	0xbcc8d9d2	-0.024517927
117	0x3e4f59af	0.20249055
118	0x3ea2b175	0.31776014
119	0x3d4feb95	0.050761778
120	0xbdd8d01b	-0.10586568
121	0xbdbfc75d	-0.093641974
122	0x3cb7b0ae	0.022423115
123	0x3ca952fb	0.020669451
124	0x3cd0375f	0.025417028
125	0xbdcac7e3	-0.099014066
126	0xbd957a1c	-0.07298681
127	0x3dcc5ce9	0.09978659
128	0xbdb054dc	-0.08609936
129	0x3cd9c18c	0.026581548
130	0xbdd53a4d	-0.104115106
131	0x3e1ed008	0.15509045
132	0x3c5a96ab	0.013341586
133	0x3c45c4e3	0.012070867
134	0xbe01f569	-0.12691273
135	0x3cf6e7ca	0.030139823
136	0x3cf0cd9d	0.029394919
137	0xbe0f2c31	-0.13981701
138	0x3b67640c	0.0035307435
139	0xbd7203f1	-0.05908579
140	0xbe314bd1	-0.17314078
141	0xbdc95adf	-0.098317854
142	0xbdc9b087	-0.09848123
143	0xbdc19728	-0.09452659
144	0x3da88d0d	0.08230028
145	0xbd4ed404	-0.050495163
146	0x3d8d3ff7	0.06896966
147	0x3e1544c2	0.1457701
148	0x3e336c64	0.17521816
149	0xbcd411e4	-0.025887437
150	0x3e017fcc	0.12646407
151	0xbb351dff	-0.0027636287
152	0xbd3bc105	-0.045838375
153	0xbd13b2bf	-0.036059137
154	0x3d8e7929	0.06956703
155	0x3d17e11e	0.037079923
156	0x3dcd5523	0.10026004
157	0xbe201988	-0.1563474
158	0x3cb170fc	0.02166032
159	0xbe07e21a	-0.13269845
160	0xbd5f0644	-0.054449335
161	0xbd801e3c	-0.06255767
162	0xbda9b264	-0.082859784
163	0xbe478594	-0.1948455
164	0xbdd03be4	-0.10167673
165	0x3d596308	0.05307296
166	0xbdfc5202	-0.12320329
167	0x3bacdb25	0.0052751475
168	0x3d893bc9	0.06700856
169	0x3d6146ac	0.05499904
170	0x3e04be86	0.12963304
171	0xbd9ed46e	-0.077553615
172	0xbda1e601	-0.07905198
173	0xbe0af7b9	-0.13571061
174	0xbda1d043	-0.07901051
175	0x3dd6dfcc	0.104919046
176	0xbcb64a69	-0.022252278
177	0xbc7f87e8	-0.015596367
178	0x3e3ddf63	0.18542247
179	0x3c90dc9f	0.017683325
180	0xbd8b8e12	-0.06814207
181	0xbc577fb4	-0.013153005
182	0x3d75474f	0.05988246
183	0xbe0cfa3e	-0.13767335
184	0x3d42d1c3	0.047563326
185	0x3e92714b	0.2860206
186	0x3c74f1f5	0.014950265
187	0xbe24e593	-0.161032
188	0xbd2d8d93	-0.042371344
189	0xbe3fecf0	-0.18742728
190	0x3ddf03ce	0.108893976
191	0x3dc0cdfb	0.09414288
192	0xbcac54a0	-0.021036446
193	0xbe113504	-0.1418038
194	0x3e035256	0.12824377
195	0xbd97e165	-0.074160375
196	0xbce18125	-0.027527401
197	0xbc84bfb4	-0.016204692
198	0xbd0596d2	-0.032614537
199	0xbde38593	-0.11109462
200	0xbd0a6925	-0.03379168
201	0xbdbe4680	-0.092907906
202	0xbd9a3fa3	-0.07531669
203	0xbd50d643	-0.050985586
204	0x3dece749	0.11567552
205	0x3d884563	0.066538595
206	0xbd9d7ce0	-0.07689834
207	0xbcc25555	-0.02372233
208	0xbc36ae11	-0.011149899
209	0xbd30c16c	-0.04315321
210	0x3d3d230f	0.046176013
211	0xbd7a3595	-0.061086256
212	0x3e0085af	0.12550996
213	0xbe404c2e	-0.1877906
214	0x3d47ecf1	0.04880995
215	0xbdecebf5	-0.11568443
216	0xbbcdfa6c	-0.006285956
217	0xbd631853	-0.05544312
218	0x3d5d0b4e	0.05396586
219	0x3dae8b41	0.08522654
220	0x3dbd9c34	0.09258309
221	0xbc6b74b7	-0.014371089
222	0x3e0e762f	0.13912271
223	0xbccf8d37	-0.025335891
224	0x3d86a347	0.065741114
225	0x3e2b36cb	0.1672012
226	0xbd025988	-0.031823665
227	0x3a76afb8	0.00094103394
228	0xbd1ba1a1	-0.03799594
229	0x3e185115	0.1487468
230	0x3d626608	0.055273086
231	0xbc91172f	-0.01771125
232	0xbc9e69c7	-0.019337548
233	0x3d83ec76	0.06441586
234	0xbd30d380	-0.043170452
235	0xbdd11493	-0.10209002
236	0xbdc0bfa6	-0.09411554
237	0xbc8232fb	-0.01589345
238	0xbd539ea1	-0.051664952
239	0x3e7aa079	0.24475278
240	0xbe1e9427	-0.15486203
241	0x3bab3bc7	0.005225632
242	0xbd10fb8d	-0.035396148
243	0x3d104e88	0.035231143
244	0x3df6aca9	0.12044651
245	0x3d07bbbc	0.03313802
246	0x3abd3ebb	0.0014438251
247	0x3e0d69f7	0.13809954
248	0x3cf09bbd	0.029371137
249	0x3d9621ab	0.073306404
250	0xb90b81c8	-0.0001330442
251	0x3da2a8a9	0.079423256
252	0xbd720839	-0.059089873
253	0x3d84dc27	0.06487303
254	0x3e4aac87	0.19792376
255	0x3ca00738	0.019534692

module.fc3.bias f4 [10]
0	0x3d104c81	0.03522921
1	0xbecc305b	-0.39880642
2	0x3e2c60cb	0.16833799
3	0x3d958ece	0.073026285
4	0x3e7d2a3f	0.24723147
5	0xbe43b088	-0.1911031
6	0x3d35f484	0.04442264
7	0xbec049fe	-0.37556452
8	0x3ebc0bb8	0.3672769
9	0xbea986de	-0.33110708
