models/classifier_net_epoch_8_12000.pth (torch_old, 249853 bytes, 10 tensors)

module.conv1.weight f4 [6, 3, 5, 5]
00000000: 7e53 8a3d a104 d13e 877b ef3e 9003 e23e
00000010: ddd4 873e 400c ab3d 6876 c1be e07a 243e
00000020: 4cf5 723f 565f 933d 9641 8f3e 089c d2be
00000030: 2cf9 9cbf b80e 5b3f 3a90 a53e 49e6 a13d
00000040: f6d8 2f3e 078e 7fbf 5cec 123d 1fa4 bcbd
00000050: cb15 31be 69cf 983d 2bfd 24bf cc24 233e
00000060: da45 9cbe 33db 01be 7bec debe 552e 32bf
00000070: 794e 9cbe b6c0 e7be a3d5 f83e cdd3 3cbf
00000080: 85f5 38bf 4d3e ed3e 2204 8fbe eef4 613f
00000090: c240 bfbe 24bd c2bf 641e 3f3f 7bc7 523e
000000a0: 95ef 193f fe15 ea3e 07f9 90bf c4b8 823e
000000b0: 121d ecbd 4846 f33e 3bc5 793e b262 a0be
000000c0: c8fc 203f 3707 88bb 2308 cdbd f6f7 d8bb
000000d0: ca80 1b3c c073 3c3e d26b 3fbe 3d85 c73e
000000e0: 16ee ebbe 73e4 58be 617d 413f 67d8 0fbf
000000f0: aade 463f 4a62 89be 052d 8abf a4b1 3f3f
00000100: 1b78 06be 66c2 0e3f 51e8 223f 1251 4cbf
00000110: 8afd 183e 2abe a5be 2745 883e 86f5 da3e
00000120: 01b1 52be 9b56 ab3e 84f8 d4be 0bdb 0dbe
00000130: 187c a13e 4b08 853e bdb9 723e 60e9 033e
00000140: 3312 d3bd 94b7 1b3f dff1 5d3e 53e1 19be
00000150: 55d4 c5bd bd9b 693e 159b 72bd 2a84 2cbf
00000160: 1e8a 16bf 3d60 73be 58be 27be 403f 55bf
00000170: bac2 2abf 46ed 04bd e400 363e ed35 aebd
00000180: b8d4 9b3d 1e93 c53e 2b51 263f e2b9 7d3e
00000190: c301 d4be 2b21 2abd cadd 0bbe 161b 1cbe
000001a0: bd0c 84be 8475 be3a 08db fa3e c186 ebbc
000001b0: d817 92be 47c0 b0be c762 da3e 68dc 153d
000001c0: be01 18bf 487c 1abf 2c5b 46be 2e80 4dbd
000001d0: ed4b 29bf 129d 0fbf 1a3b a2bc 64e1 1e3e
000001e0: 9101 80bd ff84 41be 7169 633e 502e d93e
000001f0: ae48 a63d a1b4 5ebe f08c c83d 2b30 423d
00000200: 327c 7f3e 3335 3f3d f394 043e 8197 293f
00000210: 96f7 083f c95f ab3d d856 9abd 49b6 0b3f
00000220: 77ff b23e 2c61 85be e47c e6be e04e 08be
00000230: 3bca 473e 3745 1cbf cdd6 f5be cf08 fabd
00000240: 0c52 1f3e 04b8 f13c 3104 13be 8c28 ab3e
00000250: 6914 3d3e 521f 52be f17c 9c3c 989d aabd
00000260: 92c7 38be 57fb 08bd 1367 25bd b91c 3c3e
00000270: 4ad6 b63e b38b 213e 5ba3 4d3e 64ee ec3d
00000280: 060d 36be d80e 13be 0a6a f5bd 30e6 24be
00000290: 2544 38bc e602 d9be 6879 dfbe c37c 0abf
000002a0: 83ad 16bf 1a02 c9be 7cb4 cabd b43e 97be
000002b0: 394b 91be ac26 b5be 3e09 5fbe ca99 c0be
000002c0: 2498 a8be abde 68be 0670 8dbe 77ae a8be
000002d0: ddcf 9f3e a136 ef3e 4e66 083f 5206 af3e
000002e0: b41f 773e fd03 fabc 5cd5 863c aa26 b13d
000002f0: 70a2 9e3d f4fb 003e 0949 a1be 5a2f d1be
00000300: cfc8 9ebe 42c2 89be f1e3 4ebe 5971 96bc
00000310: 1468 0fbe 7bcb 0cbd 8056 ef3c 0a17 c33c
00000320: 91ed a2be fbd3 ccbc 6f65 ecbd 8136 8ebe
00000330: 5dd5 d9be dada c43e 7ace ee3e 1a64 2a3f
00000340: 50b9 113f b94e 843e 4ca0 103e 3e47 ac3e
00000350: 56f6 9e3e 13b2 cf3e 76e2 7b3e 55b0 983d
00000360: 330d 803e cc96 203e 8a5c 493e 3178 563e
00000370: d4b7 ad3d 7719 253e 9a9f 783e abcd ab3e
00000380: dd7f 483e dbbd c23d 1e45 a33e 786f 5dbe
00000390: d5a9 95bc 17e9 8cbe 7866 b63e 40df 57be
000003a0: a78d 05bf c843 6c3e fdc6 a1bc 39ad f23e
000003b0: b8d5 e5be 8cab 05bf fedf 143f b1b9 9ebd
000003c0: 9823 05bd c84d 1ebf 21a4 debd 967a 023f
000003d0: 8162 093d 7963 23bd 7bf8 3cbe b9df 7a3e
000003e0: b8cf bf3e eac7 d8bd 6689 143e db3f 303e
000003f0: 114a 8cbe 6ec6 1e3e 10b9 b43d 24ea 653e
0.06754206 0.40823844 0.4677393 0.44143343 0.2652959 0.08351946 -0.3778565 0.16062498
0.94905543 0.07195918 0.27979726 -0.41134667 -1.2263541 0.85569334 0.323366 0.079052515
0.17172608 -0.9982609 0.03586994 -0.09210991 -0.1729347 0.07461435 -0.64448804 0.15932006
-0.30522043 -0.12681274 -0.43539795 -0.6960195 -0.3052862 -0.45264214 0.48600492 -0.7376068
-0.72249633 0.46336594 -0.2793284 0.8826436 -0.37354094 -1.5213971 0.7465575 0.20583908
0.601312 0.45719904 -1.1325997 0.2553159 -0.11528982 0.47514558 0.24391644 -0.313253
0.62885714 -0.0041512507 -0.100113176 -0.006621356 0.009491155 0.1840353 -0.18693474 0.3896884
-0.46080083 -0.21180896 0.7558194 -0.5618958 0.7768351 -0.268328 -1.0794989 0.74880433
-0.13131754 0.5576538 0.63635737 -0.79811203 0.14940467 -0.32371646 0.2661526 0.42765445
-0.20575334 0.33464512 -0.41595852 -0.1385309 0.3153999 0.2598289 0.23703666 0.12881994
-0.103062056 0.60826993 0.21674298 -0.1502736 -0.0965964 0.22813316 -0.05922993 -0.67389166
-0.588045 -0.2376718 -0.16381204 -0.83299637 -0.6670338 -0.032452844 0.17773777 -0.08506379
0.07608932 0.38588804 0.649676 0.2477794 -0.41407594 -0.041535538 -0.13658825 -0.15244707
-0.2579097 0.0014530872 0.48995233 -0.02875078 -0.28533816 -0.34521696 0.42653486 0.03658715
-0.5937766 -0.6034589 -0.19370717 -0.05017107 -0.6613148 -0.56099045 -0.019803572 0.15515667
-0.06250299 -0.1889839 0.22208191 0.42418146 0.08119331 -0.21748592 0.09792507 0.047409218
0.2494972 0.046681594 0.12947445 0.662468 0.53502786 0.08367879 -0.075360954 0.5457502
0.3496053 -0.260507 -0.4501716 -0.13311338 0.19510739 -0.61043113 -0.48015442 -0.12208711
0.15558642 0.02950669 -0.14357068 0.33429372 0.18464817 -0.2051976 0.019102545 -0.0833084
-0.1804488 -0.03344282 -0.040381502 0.18370332 0.35710365 0.15775947 0.20081846 0.11568907
-0.17778406 -0.14361131 -0.11983116 -0.16103435 -0.011246716 -0.42385024 -0.43647313 -0.5409662
-0.5885851 -0.39259416 -0.09897706 -0.29540026 -0.28377703 -0.35381067 -0.2178087 -0.37617332
-0.32928574 -0.22741191 -0.2762453 -0.32945606 0.31213275 0.46721366 0.53281105 0.3418451
0.24133188 -0.03051948 0.01645916 0.08649953 0.07745826 0.12596112 -0.31501034 -0.4085644
-0.3101258 -0.2690602 -0.2020414 -0.018364595 -0.14004546 -0.03437374 0.029216051 0.023814697
-0.31821874 -0.025003424 -0.115427844 -0.27775958 -0.42545596 0.3844822 0.46641904 0.6655899
0.5692339 0.2584131 0.14123648 0.33648103 0.31047314 0.40565547 0.24598107 0.07455508
0.2501007 0.15682524 0.19664207 0.20944287 0.08482328 0.16122995 0.24279633 0.3355535
0.19580026 0.09508868 0.3188867 -0.21624553 -0.018269459 -0.27521583 0.35625052 -0.21081257
-0.5216927 0.23072731 -0.019748205 0.47397783 -0.44889617 -0.52214885 0.58154285 -0.077502616
-0.032504648 -0.61837435 -0.10871149 0.509683 0.033541206 -0.039889786 -0.18454163 0.24499406
0.37463164 -0.105850056 0.14505538 0.17211859 -0.27400258 0.15505382 0.0882436 0.22452599

module.conv1.bias f4 [6]
00000000: 0b4f 72be 8915 34bf 0a7a 0dbd 2d96 b4be
00000010: 9834 78bd 23a0 b6be
-0.23662965 -0.7034536 -0.034540214 -0.35270825 -0.060597032 -0.3566905

module.conv2.weight f4 [16, 6, 5, 5]
00000000: 9a46 e53e ab78 f8bd ffad 0e3f 047d 62bd
00000010: dc9a 23be e699 593e 3247 f3bd 21c9 5d3e
00000020: 2d72 c53e 8ce5 9abc b62b 813e 1822 73bd
00000030: 5ffa 043d 33c8 903e 774a f9bd 2e6c 98bd
00000040: 14cf 153e 8d9b d13d 7094 273e 7c3f 2e3e
00000050: 257d e6bd df35 61bd 50ad 1dbe d003 0cbe
00000060: 14f1 1f3d 188f aabd ec4d 263e a155 6d3e
00000070: 920b 273d eb27 96bd b6e5 81be 8021 1bbd
00000080: a3a5 223e 0057 f13d 175f 483d e978 d9be
00000090: 4b97 00be ca43 d33d 55e7 263e 0cd7 003e
000000a0: 4fd5 bbbe e3ae a4be 82c0 1dbe 030c 763d
000000b0: cbe4 8c3d 9134 9bbe ca3a f8bd 63a6 3fbe
000000c0: 8a78 2bbd 8e6f c23d 5888 1ebe 05f7 40be
000000d0: 2e08 c6bd c77c b23d fb2f d73d 1df4 8cbe
000000e0: 2129 62be de2f 4bbe 3e73 e6bd 4f0f e2bd
000000f0: a620 d6be 65e8 a8be b8a8 a7be 2c19 88be
00000100: 4100 1dbe ff63 4dbe d1c4 e9bd 683b 11bd
00000110: 574c d9bd 2e60 e83d 1add afbd 7329 89bd
00000120: a314 f0bc 3525 693d 2ead 39bd da1b f03e
00000130: c73e 5e3d 811e f53d 9fac ee3e 0280 9dbc
00000140: 4bd1 113c 1114 913a 8375 07be bdd3 243e
00000150: 5ccf 2c3e d1fc 01be e7a0 1a3e 5e91 78be
00000160: 1ae0 06be 71dc 833e 4931 a0be ed2b 9e3d
00000170: eacb cabd 3622 95bd 2c54 f5ba 8c1c 84be
00000180: 4ed4 d0bc be5c 08be 7a44 1abe 5cdb adbe
00000190: a2f6 e4bd 3d54 f5bc 6836 8dbe dde7 ddba
000001a0: 439d e03d 25eb 49bd 1ee3 00bd 3b91 03be
000001b0: 3aad b3bd 3e11 0dbe b2ef 71bc 4d96 13bd
000001c0: d5d7 b23c 1a6e 153c fdc1 54bd c4cb 4dbd
000001d0: 6158 71bd 6ed3 a73c 798a 9a3d 640e 873c
000001e0: facf 1abe 3e43 b5bd 852e 823c 6800 373e
000001f0: df08 963d 9afa 7dbe 7aa8 1fbd afb4 6dbe
00000200: 0b6a 0c3d 3331 023d 01ed 93bd 8e12 25be
00000210: 6848 ffbd 3c8e 19bd 3e29 a33d 44b9 f3bc
00000220: b75d a6bd a3cb 56be 7fc9 aabd 7d65 c4bd
00000230: 9a86 39be cfe7 853e 0438 bcbd da90 38be
00000240: 557f a6be f266 ff38 dcaa 683d 3526 6d3d
00000250: f431 d8bb cb10 4cbe ea6e b0bd 447c 93bd
00000260: c278 f03d 95b8 56bd 9260 64bd d650 2dbe
00000270: 0a38 f33c 1204 983d 54a9 1d3d 9e1a 1d3e
00000280: 895b a83e f8a1 6fbe a3a2 08be ef16 873d
00000290: 4a28 89bd 4471 2a3f 32b9 463f 7418 0cbe
000002a0: d7a6 aebe 17b1 65be d84c babe b5fa 163a
000002b0: ca0e ce3e 3670 383e a6e9 ed3d 9140 06be
000002c0: 4bd9 56be 17e5 913c 883c bdbd 2674 6b3c
000002d0: 9616 68bd bf73 21be be27 7fbe 9c9c 05be
000002e0: 9480 833e c9f0 b13d 1bea 6fbd f69a edbe
000002f0: 6b7c 0bbe 2ca7 b13d c351 af3e ff33 d93d
00000300: ce66 6cbd a968 f8bd 1ba6 89bd 636b 93bd
00000310: af90 553e e2f9 7b3e 321f b93e 6d38 cf3d
00000320: 20dc 073e 00a8 ca3d 6d5d 803b bd15 6cbd
00000330: ca61 b93d 275b 3a3d 8006 1b3e 3456 2a3e
00000340: 6b71 173d e063 4ebb 788d 6ebd 2cc5 893e
00000350: 01c0 c23d d733 a53d 5090 33be 9db4 27bf
00000360: 8ed4 343d d285 c53e a24d 503e 92bc e5be
00000370: 4ef5 89be ae64 e2be 16cf 48bd 1eac 583e
00000380: dee7 c83e dd82 83ba 1f0f 52be aece 493d
00000390: 129c f43c c9ef 553e 20f7 de3d 43b7 d1bc
000003a0: 55ac ddbd b23d c63d 5b5a f6bd d8d4 57be
000003b0: 7305 3b3d f458 ebbd 8503 94bd 84df 2dbe
000003c0: 098a d3be b385 93be 81fa 383e 6bc7 3d3e
000003d0: 6c2a ad3e 994f c3be 6c2f 1dbf e0f8 c3be
000003e0: c1cf 19be fef3 3abe 8236 5bbe 6672 1dbe
000003f0: fcfd e6bd 4d1c c13d 75a7 003e 3ef6 95be
0.44780427 -0.121323906 0.55734247 -0.055295005 -0.15977043 0.21250114 -0.11878814 0.21658756
0.38563672 -0.018908285 0.2522866 -0.059358686 0.032465335 0.2827774 -0.12172406 -0.07442509
0.14629775 0.10234747 0.16365218 0.17016405 -0.11254338 -0.054983016 -0.15398145 -0.1367333
0.03904827 -0.08328074 0.16240662 0.23177196 0.04078252 -0.073318325 -0.25370568 -0.037873745
0.15883498 0.11784172 0.04891881 -0.4247506 -0.12557714 0.10315664 0.16299184 0.12582034
-0.3668618 -0.32164678 -0.15405467 0.06007005 0.06879576 -0.30313542 -0.12120588 -0.18715815
-0.041863002 0.094939336 -0.15481699 -0.1884423 -0.09669529 0.08715206 0.105071984 -0.27529994
-0.22086002 -0.19842479 -0.112524495 -0.11038076 -0.41821784 -0.32989803 -0.3274591 -0.26581705
-0.15332128 -0.20057677 -0.11414493 -0.035457045 -0.10610264 0.1134647 -0.08587094 -0.06697359
-0.029306715 0.05692025 -0.045331173 0.4689625 0.054259088 0.11968709 0.46616074 -0.019226078
0.008899997 0.0011068602 -0.13228421 0.16096397 0.16875976 -0.12694098 0.15100442 -0.24274203
-0.13171425 0.2575412 -0.31287602 0.07723222 -0.09902175 -0.07281916 -0.0018717102 -0.2580303
-0.02549186 -0.13316628 -0.15065184 -0.3395642 -0.11179854 -0.029947395 -0.2758057 -0.0016930063
0.10967495 -0.049296517 -0.031466596 -0.1284837 -0.08773275 -0.13776109 -0.0147666205 -0.03603201
0.021831432 0.009120489 -0.051942814 -0.050243154 -0.058922175 0.02048656 0.07545943 0.016486354
-0.151184 -0.08850716 0.015891323 0.17871249 0.07325911 -0.24802628 -0.03897903 -0.23213457
0.034280818 0.0317852 -0.07222939 -0.1612036 -0.12464982 -0.03748916 0.07966851 -0.029751427
-0.081233434 -0.20976119 -0.083392136 -0.0958967 -0.18117753 0.26153418 -0.09190372 -0.18024006
-0.32519022 0.000121785226 0.05680357 0.057897765 -0.0065977518 -0.19928281 -0.08614905 -0.07201436
0.11741783 -0.052422125 -0.05575616 -0.16925368 0.029689807 0.07422651 0.038491562 0.15342185
0.32882336 -0.2340163 -0.13343291 0.06596171 -0.06697138 0.6657908 0.77626336 -0.13681203
-0.34111664 -0.22430836 -0.36386752 0.0005759404 0.40245658 0.18011555 0.116168305 -0.13110568
-0.20981328 0.017809434 -0.09240061 0.014370954 -0.056662165 -0.1576681 -0.24917504 -0.13048023
0.25684035 0.08688504 -0.05857287 -0.46407288 -0.1362168 0.08674464 0.34242067 0.106056206
-0.05771523 -0.12129337 -0.06721135 -0.07198217 0.20855974 0.24607041 0.36156613 0.10118184
0.13267565 0.09895325 0.003917387 -0.05763792 0.09051855 0.045497086 0.15139198 0.16634446
0.0369734 -0.0031492636 -0.058240384 0.26908243 0.09509278 0.08066528 -0.1753552 -0.6550997
0.04414802 0.3857866 0.20342115 -0.4487043 -0.26944965 -0.44217438 -0.049025618 0.21159407
0.392394 -0.0010033507 -0.2051358 0.04926937 0.029859576 0.20892252 0.10886979 -0.025600081
-0.10823885 0.09679736 -0.12028953 -0.21077287 0.045659494 -0.11491576 -0.07227234 -0.16979796
-0.4131625 -0.28812942 0.1806431 0.18533103 0.33821428 -0.38146666 -0.61400485 -0.38275814
-0.15020658 -0.18257138 -0.21407512 -0.15375671 -0.112789124 0.09429226 0.1256388 -0.2928943

module.conv2.bias f4 [16]
00000000: 398d 7b3e e348 d1bf 378c 89bf 37bd eebd
00000010: 1d9e 733f ba62 d23e 72f0 173e 3f27 a03f
00000020: b602 bcbd a282 cabe baa7 83bf f407 d53f
00000030: d612 be3e de6a 29bf 0c92 b73d 1652 003f
0.24565591 -1.6350368 -1.0745915 -0.116571836 0.95163137 0.41090947 0.14837816 1.2511977
-0.091802046 -0.3955279 -1.0285561 1.6643052 0.37123746 -0.6617869 0.08963403 0.50125253

module.fc1.weight f4 [120, 400]
00000000: 493a 74bd 1c71 32bd 93df 3dbd 7743 36bc
00000010: e486 acbd eab9 ba3d e5d2 303d e24b 6a3b
00000020: 6fa5 103d 2704 ab3c a3d5 7f3c c1aa 49bc
00000030: 9963 87bd 743f bd3d b36c 763d 3db6 a93d
00000040: 1fce 7dbd f597 3dbe 2471 b5bc 0e50 513c
00000050: 1e39 ae3c c9f7 293d 58bc 90bd c91f 87bd
00000060: e196 893d d84f ad3d 0dbd 083c 8319 933d
00000070: 32d8 e73d bafc e73d 4c82 203d a18d ff3c
00000080: e86a b73d c60d d43d 46a8 073e 2857 833e
00000090: a12c d0bc c77e c9bc e99b c13c b89b 4b3b
000000a0: 3279 7f3c 5f96 56bd d097 63be 7a19 1c3b
000000b0: 4dce a73d 3b61 61be e3f5 2cbd 8c48 723c
000000c0: 5da9 8cbd 6be5 e23c c29e 513e bda1 4a3d
000000d0: 231a ecbc 303d 47bd ff42 26be 0814 3ebb
000000e0: c20f 3b3b c223 1b3c eab5 66bd f831 e3bd
000000f0: b2da 35bd becd b63d 223f 8dbd bc64 79bd
00000100: 7bd7 a0bd 5f5f 223e 6581 7b3d 8105 6bbd
00000110: ad94 4ebd 4723 92bd ba71 30be 40dd 44bc
00000120: 01f6 0abe 64ea febc 68b4 e5bc cdc5 97bd
00000130: 7f3c 85be e35a 39bd cd26 57bc b040 923d
00000140: 7397 01be b673 35be 9da8 bfbd 0e41 45bd
00000150: f3c3 e43d a103 f0bd aba5 8fbd ec5f 913d
00000160: 2e57 053d a3e0 55bc dcba 00be 5411 88bd
00000170: e79b 863c 4257 8fbd 0b1c 113d c529 ba3d
00000180: afa8 fe3d e865 5f3d 8b40 0dbd 5946 a63d
00000190: be4c fe3d 341f b03d ec6a e43d 3c87 803d
000001a0: f7c0 98bc cf84 613b 72cf 8d3d 98fe 0b3e
000001b0: c856 753d a75d 4cbd 3fe1 913d 6300 843d
000001c0: cffd 023e 0027 3c3e e335 15be 56eb 5b3c
000001d0: 1eb1 66bd 2ee5 26bc 4739 aebd 977f babd
000001e0: a416 843d 7d40 863c 025c 633c 5119 e1bd
000001f0: b84a 08be 6200 0bbd 9372 a9bc 2739 fd3d
00000200: 662f 403d 74ac c0bd 817d 44bc 11f2 d13c
00000210: 45d0 2a3d 735c 363c 234b b5bd e3c1 013d
00000220: a255 27bd a2c2 02be 538b dfbd 7614 19be
00000230: a39a a3bd fe53 1b3d f0d2 153d 4fc2 77bc
00000240: 62b4 1e3d b6ea b4bc 2f67 503d 4a3b f7bc
00000250: 7df9 2bbd 4222 19bc a7c0 8c3c bb40 45bd
00000260: 9e02 c9bd 78c2 e3bd dd7d 04bd 13e2 dc3d
00000270: 2938 b7bd ff9c 8bbd 87d5 6ebd 9565 38bd
00000280: 9459 4e3d e5e1 203d 11cb 32bb bab7 c8bd
00000290: bdef 6bbc 5c70 77bc 2ff5 3dbd 8e77 0cbe
000002a0: 77c4 68bd fd85 c9bc 4ce6 97bd 9433 9ebc
000002b0: 35c3 67bd e9fa 583d c740 e63d a67b 153d
000002c0: 139f 0abc 1f23 173d 5ee8 043e 9ef3 133e
000002d0: 7b0d a9bc dc2f aa3d 57a1 263e 5678 0a3d
000002e0: 0d10 003d 2658 d2bb 1386 123d 0577 8b3b
000002f0: 10fa 5ebc 6cdd 4b3d 66ec 59bd 97de 093d
00000300: bab2 15bd 9347 07bb 5edd 17bb bccb 4f3c
00000310: 8338 e9bb ff42 a3bd 32e2 fe3b a359 13be
00000320: c262 00be da33 06bd ff26 0dbe f72b 72be
00000330: 0ffb d3bd 36db f8bd 3c40 cebc d074 72ba
00000340: 1850 bfbd 8ea3 9b3c 1f10 5bbc 40a2 0b3d
00000350: a8fc 563d 74df 833c 7837 973d a681 c2bd
00000360: f5a3 fabd 81a6 0c3b 0ca7 0dbd cee0 953c
00000370: c012 46be 5f54 d4bd 8424 c9bd 1575 78bd
00000380: 61c4 16be f5f1 9b3d 67f4 dd3d a2cc 69bd
00000390: 9495 8dbd 5ca2 18be 5876 6a3d a29b 993d
000003a0: 7dc6 61bd 1b92 263d a155 cbbd 2d81 de3d
000003b0: e343 20bc 1450 a7ba 9b29 b63d 4ea7 29bd
000003c0: fba5 663e 3519 cc3d cd7b 693d beb1 e1ba
000003d0: e6d2 843d e68c 263e cb18 b43c 1e47 8c3d
000003e0: d93f 053e 04c4 5e3c 2a7e 78bd aa26 f6bd
000003f0: 2f4e 0bbe 1d56 27be 61ed 85bd 49b2 a5bd
-0.059625898 -0.0435649 -0.046355795 -0.011124483 -0.08424166 0.091174915 0.043169875 0.0035750796
0.03531402 0.020876003 0.0156149 -0.012308777 -0.066107936 0.09240618 0.060162257 0.08286712
-0.06196415 -0.18514998 -0.022148676 0.012775434 0.02126747 0.041496072 -0.07067174 -0.065978594
0.06718231 0.084624946 0.0083458545 0.071826 0.11320533 0.11327501 0.03918676 0.031195464
0.089559376 0.103541896 0.13247785 0.25652432 -0.025411906 -0.024596585 0.023633914 0.0031068157
0.01559286 -0.0523895 -0.2222588 0.0023818896 0.081936456 -0.22009747 -0.042226683 0.014787804
-0.06868241 0.027697286 0.20470718 0.049470652 -0.028821057 -0.048642337 -0.16236494 -0.0029003639
0.0028543328 0.009468975 -0.05632583 -0.11093515 -0.044398017 0.08925961 -0.06896807 -0.060887083
-0.078536 0.15856694 0.061402697 -0.057378296 -0.050434757 -0.07135635 -0.17230883 -0.012015641
-0.13570406 -0.031117626 -0.028040126 -0.074107744 -0.26022717 -0.045252692 -0.013131809 0.071412444
-0.1265543 -0.17719921 -0.09358332 -0.048157744 0.11170187 -0.11719442 -0.070140205 0.07098374
0.032553844 -0.013054046 -0.12571281 -0.0664393 0.016431762 -0.06999065 0.035427134 0.09089998
0.124345176 0.054540545 -0.03448538 0.081188865 0.12416981 0.085997015 0.11153206 0.06275794
-0.0186467 0.0034411435 0.06924333 0.13671339 0.059897214 -0.049894 0.071230404 0.06445386
0.12792133 0.18374252 -0.14571337 0.013422808 -0.056321256 -0.010186477 -0.085070185 -0.09106367
0.06449631 0.016388172 0.013876917 -0.10991157 -0.13309753 -0.033935912 -0.020684516 0.123644166
0.046920203 -0.09407893 -0.011992813 0.025628122 0.041702528 0.01113044 -0.08852222 0.031679045
-0.04085315 -0.12769559 -0.10915246 -0.14949211 -0.07988479 0.037921898 0.03657812 -0.01512201
0.038746245 -0.022084575 0.050879654 -0.030179638 -0.041985977 -0.009346547 0.017181708 -0.048157435
-0.09814952 -0.11121076 -0.032346595 0.10785308 -0.089462586 -0.06817054 -0.058309104 -0.04501875
0.050378397 0.03927793 -0.0027281682 -0.09800668 -0.01440042 -0.015102472 -0.046376403 -0.13717481
-0.05682799 -0.024600023 -0.074169725 -0.019311704 -0.05658265 0.05297366 0.11242824 0.036494873
-0.008460778 0.03689873 0.12979266 0.14448401 -0.02063631 0.0830991 0.16272484 0.033806168
0.031265307 -0.0064191995 0.035772394 0.0042561316 -0.013609424 0.04977171 -0.053203963 0.033659544
-0.0365474 -0.0020642027 -0.0023172717 0.012682851 -0.0071173324 -0.07971763 0.0077784294 -0.14389662
-0.12537673 -0.032764293 -0.13784407 -0.23649584 -0.1035062 -0.12151186 -0.025177114 -0.0009248974
-0.093414485 0.018998887 -0.013370543 0.03409028 0.052487046 0.016097762 0.07383627 -0.09497385
-0.122383036 0.0021461549 -0.034583136 0.018295672 -0.1934309 -0.10367655 -0.09821418 -0.060658533
-0.1472335 0.07614509 0.10837632 -0.05707992 -0.069132954 -0.14905685 0.057241768 0.07500388
-0.055120934 0.04066668 -0.09928442 0.10864482 -0.00978181 -0.0012764954 0.08894654 -0.04141932
0.22524254 0.09965745 0.05700283 -0.0017219109 0.06485538 0.16264686 0.021984478 0.06849502
0.13012637 0.013596538 -0.060667194 -0.12019093 -0.13604043 -0.16341443 -0.06539417 -0.08090646

module.fc1.bias f4 [120]
00000000: 90e4 353e b3d6 4abe e32f 49be 76dc 80bd
00000010: 4c33 73be ca40 6bbe c942 3e3d 6682 033c
00000020: bded 96bd 0fc1 c93b fa4e 853d c92f 783d
00000030: 4b0f 47be 86f3 cebe 8744 7abb b746 9d3e
00000040: acde 013c 5442 0f3e 033a 733e 7860 813d
00000050: ae68 c23d 8440 823c 13d5 1bbe 7bcb 38bc
00000060: f5b0 b8bd 3d51 cbbd 13ea 05be e516 6c3e
00000070: 5aa6 c33e ccbc 6dbc dc4a 183d 2df2 c2bc
00000080: 8484 993c 1102 00be 4e14 473d c942 8f3e
00000090: 40d1 2b3e 4aa8 173e bdd1 02bc cb45 793e
000000a0: cc1d 183e 5a5a f83d 03e1 71be fcaa 203e
000000b0: d287 6c3e 97c4 f33e fcdd 72bd 0432 853e
000000c0: aca4 d3bc cce1 ed3d 0c2b cb3e bbe7 b6bd
000000d0: bf6c ae3d 1801 2d3d 7776 383e 5dd7 df3c
000000e0: 3848 04be 2322 ec3d b828 c93d 3971 d53d
000000f0: 9813 f93e 6d48 bd3d 904a 833e 46f0 ed3c
00000100: d16a 9f3d 34be 46bd 9d48 9fbe 95c1 c8be
00000110: 0e2a bd3c 8bd8 03bc 80e2 6c3e b3d9 f3bd
00000120: b5b6 10bc f072 a93a 7f32 14be 7631 e8bd
00000130: fb16 ef3d 4b1d b03d 10ff 503d 9302 16bd
00000140: e1d5 27be 4a2b 473e c006 c93d 0ce5 273e
00000150: 66c9 a33d 9e47 ec3e e9bd 533e 4f76 5abe
00000160: 2c56 a0be 2df4 1b3e 95af f9bb f9f9 953e
00000170: ffb2 9a3d 1315 00bd c6e1 61be 9a4b c13e
00000180: 1b30 073e bcf5 553e 5937 193e b243 49be
00000190: ff38 5ebd c551 abbc 47c8 52bc 1e90 1d3b
000001a0: 0c3f ac3e 87c6 b8be 0cdd eebc b032 18be
000001b0: c3a1 6bbe ac13 833e 475a 89bd 4d39 c0bd
000001c0: c297 b33d c7d6 3abd 8c9e 123d 0dbd 163d
000001d0: f223 34bd 7335 53bc 97f7 2b3e 581c aa3e
0.17762971 -0.19808464 -0.19647174 -0.062920496 -0.23750037 -0.22973934 0.04645041 0.008026695
-0.07369564 0.0061570476 0.06509204 0.060592446 -0.19439428 -0.4042017 -0.0038187818 0.30718014
0.007926624 0.13990146 0.23752598 0.06317228 0.09492622 0.015899904 -0.15218 -0.011278982
-0.09018127 -0.09927604 -0.13077573 0.23055609 0.38212854 -0.014510345 0.037180766 -0.023797119
0.018739946 -0.12500788 0.04860335 0.2798064 0.16779041 0.14810291 -0.007984576 0.2434303
0.14855117 0.12126608 -0.23620991 0.15690225 0.23098686 0.47610924 -0.059293732 0.2601472
-0.025835358 0.11615333 0.3968128 -0.08930918 0.085168354 0.04223737 0.18013941 0.027324373
-0.12918174 0.115299486 0.098222196 0.10421986 0.4864776 0.0924233 0.25642824 0.029045235
0.077840455 -0.048521236 -0.31110087 -0.3921019 0.023091342 -0.008047233 0.23133278 -0.11906757
-0.008832623 0.0012927931 -0.14472388 -0.11337559 0.11674305 0.08599337 0.051024497 -0.03662355
-0.16390182 0.19450107 0.098157406 0.16395968 0.07997398 0.4614839 0.20677914 -0.21334194
-0.31315744 0.15229864 -0.007619808 0.29292277 0.07553672 -0.031270098 -0.22058782 0.37752992
0.13201945 0.20894521 0.1496252 -0.1965473 -0.054253574 -0.020913014 -0.012865133 0.00240422
0.3364185 -0.36088964 -0.029158138 -0.14863086 -0.23010926 0.25600946 -0.06706672 -0.09385929
0.0876918 -0.045614984 0.035795733 0.036801387 -0.043979593 -0.012891161 0.16793667 0.3322475

module.fc2.weight f4 [84, 120]
00000000: 4bfe 2fbe f98c dcbd 220e 083d 97d7 c03d
00000010: f145 e4bd d7c5 043e 00df 52bd dbb5 733e
00000020: 2e0d 4f3e 346d 06be 9225 bc3d f095 443d
00000030: 0c3a 453d ccc9 873c 7b52 93bd 433b 2dbe
00000040: d5e6 d43d 42db a73c 9c9d 833d 61c7 a63d
00000050: eaf9 d9bd 3d00 973d 63cf c33d 608f 93ba
00000060: e868 233e 4503 b6bd 0aa9 5d3d 0736 29be
00000070: c32f bfbd e8e4 8dbd 77af 9dbd 3ca7 013c
00000080: 4477 dcbd 85bf bdbd 4cab 1abe f7f8 1abe
00000090: 9aca e43d ec99 473c dc8e 5fbd 9810 50be
000000a0: bfd3 0cbd 3264 3c3e ae5d 44bb b81e 99bd
000000b0: 80e0 98bd 9a53 38be 906f 03be 8723 333e
000000c0: f1a0 113d 2ee7 813b af82 3cbb 8b35 74bd
000000d0: 48bc 15be 1253 4ebe 618f 0c3e 18ea 393d
000000e0: e4c6 413e c255 01bd 15db f43c 3e85 3cbe
000000f0: d6cf cbbd 1b5c 573c d992 14be 7190 fdbd
00000100: 85bd 783c 473a 913d 6306 ae3d 5ad0 0d3d
00000110: 9252 f1bd 58cd e93b 8efc 06be 98b5 06be
00000120: 6b33 bb3d 4e19 febb 8040 993d 180e 3f3e
00000130: 03bd 2cbe 32f2 7d3c 11bc 02be b328 a2bd
00000140: fb2d e6bc 71cd 0abe be73 0fbe b60a 34bd
00000150: 2459 b7bd deb9 f1bd 4639 213e c3ad 67bd
00000160: 6c50 903d b4f5 d9bc 3107 1dbe 851b 84bd
00000170: e3c8 e6bd 54d9 203c e83f 153d bf84 753d
00000180: 91ae 97bd 41e8 12bd 4f6d dabd 6b1d 31bd
00000190: c728 7fbd 8d6e ad3b 26a8 bcbd bb12 86bd
000001a0: 4da2 2ebe de9d b9bc 7dc2 43bd ae8b 213e
000001b0: 94a1 913d 2743 c1bd 02ac 0abe 0da4 76bd
000001c0: 2011 d13d 61a4 2abe f6c9 fd3d f1be 0f3d
000001d0: e669 f3bd 43ea b23d 9b12 09bd 6049 053d
000001e0: 2a13 4abb 407e 233e 0934 f53d 9daf 70be
000001f0: 2055 c13d 333f 78bd ded3 283e 584c 82bd
00000200: 2f9b 98bc 65bd 40bd 94d3 53be 03db 383e
00000210: 1dae 01be 9845 30bc f2d7 4a3d c38f 9c3d
00000220: c07c 8fbd e9b1 d93c a507 2abd 7e5c 01bd
00000230: d5ac d8bd 398f 40be 6574 26be 4bd9 b0ba
00000240: ccf5 093d 0570 79be d1ad 8f3d 9982 86bd
00000250: a0cb 273e c206 12bc c30a 73be 850f f7bd
00000260: 2ed6 6bbe f5da fe3d b0e0 4bbd 2318 af3c
00000270: 18a8 663d 1978 6ebe 46b7 34bd f340 48be
00000280: e5b4 123c df04 193e 0dca 03be bd42 123e
00000290: 9900 a2bd 390c 313e 0451 423e e77a 863c
000002a0: 431b 10bc 77ae 1e3d f945 953d e796 6fbe
000002b0: c237 d1bd 7c80 4ebd 49bf acbd 382b 983d
000002c0: 6321 cdbd 05a4 a4be a3a3 c7bd 0431 05bd
000002d0: a432 19bd 5c5c bbbd 5570 00be cffa e53d
000002e0: 1e59 02be b836 de3d 86f3 593e c0c5 7ebd
000002f0: 1e64 b4bd 5212 823e e3ee b63d 5d17 2f3d
00000300: 9326 d5bd 8e77 2cbe 303b 3dbd 704a 0e3d
00000310: c227 65be 8f07 8c3d a238 92be 9b39 8c3c
00000320: 99ac 83bd 13fe c2bd a984 66be 2f47 823c
00000330: 2819 94bd 6a91 b9bb 3e64 bbbc ad46 37bd
00000340: 12a3 f6bd d300 5e3e 9426 42bd 65a2 1cbe
00000350: ea25 df3d 52ae ef3d 9da7 9ebd d743 16be
00000360: 690b e7bd 32c4 d53c 97f1 4bbe 0dae 3a3e
00000370: 43fb 8e3d 2d2b 40be a44d 34bd f474 17be
00000380: 4494 acbd 0041 213d 0898 87bd 6557 55bd
00000390: 196b ce3c b2a6 21be 96eb d1bc c9c9 bc3c
000003a0: f5a5 363e 9d3d 463e ca9f 963d 0675 603d
000003b0: d74f 7ebd b5e9 f83c 1ee8 1d3d 3e8f 35be
000003c0: 34d9 06bc bf3d 563d 8642 41be e1d4 96bd
000003d0: 8d28 03be 75d0 babd fb55 a43c 470d 1d3e
000003e0: ed7e 01be 3e58 fc3c b1bb 79bd 8896 ef3d
000003f0: 993c 093d 2024 e53b fe2f c33c f7c2 a13d
-0.17186849 -0.10769076 0.033216603 0.094161205 -0.11146153 0.12966095 -0.0514822 0.23799841
0.20219871 -0.13127595 0.091868535 0.047994554 0.04815106 0.016575716 -0.07193466 -0.16917138
0.1039559 0.020490292 0.06426546 0.08143497 -0.106433704 0.07373092 0.0956104 -0.0011257939
0.15957987 -0.08887342 0.054116286 -0.16524516 -0.09335282 -0.06928426 -0.07699483 0.007913407
-0.107649356 -0.09265045 -0.15104407 -0.15134035 0.11171456 0.012182694 -0.0545796 -0.2031883
-0.034381624 0.18397596 -0.0029963064 -0.07476562 -0.07464695 -0.18000641 -0.12835526 0.17494021
0.035553876 0.0039643263 -0.0028764417 -0.059621375 -0.14622605 -0.20148876 0.1372657 0.045389265
0.18923527 -0.031575926 0.029889623 -0.18410203 -0.09951751 0.013144518 -0.14509143 -0.12381066
0.015181904 0.07091194 0.08497312 0.034622528 -0.11783327 0.0071350746 -0.1318228 -0.1315521
0.091406666 -0.0077544814 0.074830055 0.1865772 -0.16868977 0.015499638 -0.12767054 -0.07917919
-0.028098097 -0.13554932 -0.14008996 -0.043955527 -0.08952549 -0.118030295 0.15744504 -0.056562196
0.07046589 -0.026606418 -0.15334775 -0.064505614 -0.11268785 0.00981744 0.0364379 0.05994105
-0.07406343 -0.035866026 -0.1066538 -0.043240946 -0.062294748 0.0052927197 -0.09211759 -0.06546541
-0.170541 -0.022658285 -0.0477929 0.1577594 0.07110897 -0.094366364 -0.13542178 -0.060215045
0.102083445 -0.16664268 0.123920366 0.035094205 -0.11885433 0.08736088 -0.03346501 0.03254068
-0.0030834177 0.1596613 0.119728155 -0.23504491 0.094400644 -0.060607146 0.16487071 -0.06362218
-0.018628685 -0.04705562 -0.2068618 0.18052296 -0.12664075 -0.01075878 0.049522348 0.07644608
-0.07006216 0.026574092 -0.041511197 -0.031582348 -0.1057984 -0.18804635 -0.16255338 -0.0013492493
0.033681676 -0.24359138 0.07015575 -0.06567878 0.1638627 -0.008912744 -0.23734574 -0.12063507
-0.23030922 0.124441065 -0.049774826 0.021373814 0.05631265 -0.23288001 -0.044120096 -0.19556026
0.008954261 0.14943264 -0.12870045 0.14283271 -0.0791027 0.17289819 0.18976218 0.016416026
-0.008795562 0.0387406 0.07288737 -0.23397408 -0.10215713 -0.0504155 -0.08434922 0.07430118
-0.10016134 -0.32156387 -0.09748008 -0.032517448 -0.03740181 -0.091484755 -0.12542851 0.112294786
-0.12729308 0.108502805 0.21284303 -0.062200308 -0.08808158 0.25404602 0.08932283 0.04274689
-0.10407748 -0.16842481 -0.046199024 0.034738958 -0.22378448 0.06837379 -0.28558832 0.017117312
-0.06429405 -0.09521117 -0.22511543 0.015903084 -0.07231361 -0.0056630867 -0.022874948 -0.044745136
-0.12042822 0.21680002 -0.047400072 -0.15296324 0.108959034 0.11703171 -0.077468134 -0.14674316
-0.11281473 0.02609453 -0.19916378 0.18230458 0.06981518 -0.1876647 -0.044019356 -0.14790708
-0.08426717 0.03936863 -0.066207945 -0.0520853 0.025197553 -0.15786245 -0.025625031 0.023045437
0.17836745 0.19359441 0.07354696 0.054799102 -0.06208786 0.030384878 0.038551442 -0.17730424
-0.008230496 0.05230498 -0.18873033 -0.07364822 -0.12808438 -0.09121791 0.02006053 0.15337096
-0.12646075 0.030803796 -0.060970012 0.116986334 0.033505056 0.006992832 0.023826595 0.07898515

module.fc2.bias f4 [84]
00000000: 9c22 7cbd 3cf6 563c 4137 593f 2731 e13d
00000010: 8698 a5bc aa46 1b3f 45ef 303e 6379 2d3e
00000020: aafe ad3c c457 d33e a809 7b3f e0d3 143e
00000030: 9946 fbbd e1e7 5c3e 6b9c 30bd a032 243e
00000040: a9fe d53d 5ac8 623f a460 bd3e 44b5 993d
00000050: c0c9 2abd d4e1 163e d57e 243f e3a0 a03e
00000060: b5c6 a33e 655a 2f3e e90f 883e 8bde d63e
00000070: 6aa0 e23c 0491 813e 247a 223b e04a 813b
00000080: 70e4 76bd c9fb 77be 799a f9be 5d67 11be
00000090: 1309 dd3e 9273 ab3e 0541 953d f111 e0bd
000000a0: 6013 223e fe56 ee3d d8c4 333f 4404 36bd
000000b0: b649 243e 779e b23e 8e6c 05bd 7eae af3d
000000c0: 1d1d 593b 897f 793d 717b 283f cb2b 7d3d
000000d0: 38d1 bd3e 531c 973e e76e 413e 0d4f a8bd
000000e0: bcf9 513f eda2 383e d213 d33e 6c47 363c
000000f0: b533 53bd dbc6 8bbd 5c2d f03d ec8a cfbc
00000100: 3c03 ef3d 059e fc3d 7367 98bd 69a4 893e
00000110: a93c d33d 1a2b 9c3e 8dca df3d daea 573e
00000120: 8e46 823d f1b4 bf3e e01d f9bd 39b5 aebd
00000130: b113 5e3e bc56 ca3e 7ea6 863d 434b 323e
00000140: 0c77 7f3e 95f0 cf3d 9c56 1d3f 867b c0bc
-0.061556444 0.01312023 0.84849936 0.10995703 -0.02021433 0.606547 0.17278774 0.16940837
0.021239597 0.41277897 0.9806161 0.14533949 -0.12269325 0.2157283 -0.04311792 0.16034937
0.10448963 0.8858696 0.36987793 0.07505277 -0.04169631 0.14734584 0.6425603 0.31372747
0.3198754 0.17124327 0.26574638 0.41966662 0.027664382 0.2530595 0.002479204 0.0039456934
-0.06027645 -0.24217142 -0.48750666 -0.14199586 0.43170986 0.3348661 0.07287792 -0.10940922
0.15827703 0.11637686 0.70222235 -0.04443766 0.16043743 0.34886524 -0.03257423 0.085782036
0.0033128925 0.060912643 0.65813357 0.061809342 0.37073684 0.29513797 0.18889962 -0.08218203
0.8202169 0.18030901 0.4122606 0.011125427 -0.051562984 -0.06825038 0.117274016 -0.025334798
0.11670539 0.12334827 -0.074416064 0.26883247 0.103143044 0.30501634 0.10927305 0.21085683
0.063611135 0.37442735 -0.12163901 -0.08530659 0.21687199 0.39519298 0.065747246 0.17411523
0.24947757 0.10153309 0.6146028 -0.0234964

module.fc3.weight f4 [10, 84]
00000000: dfd1 07bd 49e5 ed3d 92a9 8ebe 0486 803d
00000010: 2992 843c f56c 02bd 3545 84be 5808 f1bd
00000020: 0c6f 923d d80e c83d f600 80be 1e95 4c3d
00000030: 321b 8abe 5640 1c3e 83e8 713e 7dc3 3cbe
00000040: 3d3b 033e 75d5 193e 4064 9ebe 9f23 0f3e
00000050: 9c04 583d 036b 773e c18a ce3d 871f 1b3e
00000060: b749 123e 2216 283e 9da7 873d af9a 013e
00000070: 8c7b d43d db42 8c3e 3ae6 283e d253 26be
00000080: 5e6a 6c3e 517e 9a3e 9f50 a73d ec4d adbc
00000090: 31b9 303e ff4a 2f3e d974 3cbd 81e8 bbbd
000000a0: 92cf b5bc a6bc 803e 8afc 8d3b e8b2 60bd
000000b0: f6f2 a6bd 1a6d 23be 53d1 38be 15fb 903d
000000c0: 9c19 7b3d 13ad 56be 862e a3bd 6bd7 403e
000000d0: cbfe 723e 29ad 1ebc 3134 58be a83e b33c
000000e0: 3154 c7be 5548 463e 96d0 d3be d30f 3d3e
000000f0: eb51 2bbd df78 b33b abf7 b0bd 793a 3d3e
00000100: 4eab 36be 2200 6ebd af46 3abe 74ac 14be
00000110: 0cf2 ad3d e6a2 1bbb 70ca f8bc 85a4 053e
00000120: 5700 1cbe d9fc 9bbd fd6a 6f3e 6aeb 0d3e
00000130: 2c2c 64bd b963 8fbe d0a6 203d 129a 6e3e
00000140: 3014 15be 6372 523d 853c 853e 3c70 96bc
00000150: 103f 753e db69 2f3e ce3e ddbe 34d8 96bc
00000160: 4a5c 32bd 9f72 3d3d 3d4e 1a3e 191e adbd
00000170: 9aa3 4c3e fd6e 273e 36d9 02be 3222 653e
00000180: 0c1b 2d3e 5e2c ce3d 5659 793e 0607 dabc
00000190: 2926 9bbe ddef 4bbe d12b 04be 3983 e23e
000001a0: 8df9 5e3e 2637 703e 81a2 a8be 0dd7 4cbe
000001b0: 9f03 81be af39 1b3e 011d 34be 669a 8bbe
000001c0: 1a82 ef3d e3c6 fc3c a644 8b3d 4d63 903c
000001d0: 9f14 26be 82e0 1d3e 6aa1 6d3e 7856 653e
000001e0: cd22 1abe a679 a1bd cde8 533d 6e3c 413d
000001f0: 1c44 8e3b 9618 3abe ba40 e5bd 8311 5b3e
00000200: 61d1 6f3c 2861 bb3d ebe6 fcbd 36c8 503e
00000210: f7dc 8fbd 7e85 2b3d 363a 07be 584b b43d
00000220: db50 a6bc e010 11be c58f 243c 1e77 26bd
00000230: b00b 11be 426b 41be d4b1 4ebd 60bc c6bd
00000240: 27f1 8d3d 9140 b93d 50eb 153e 717a 983e
00000250: 9296 883e 3453 89bd b67f 2f3e 2bcc bdbb
00000260: 68ca eebd 1ca1 89bd 763a 5f3e db8a 033d
00000270: 1781 ac3d 72e6 50be 3af3 e2bc 1130 efbd
00000280: e6d1 e6bc 4fc6 a8bc e638 6cbc f678 aebe
00000290: 371f e9bd b9f9 133e f656 13bd 7d2b 8d3d
000002a0: 4bf9 553d 8712 323d 2043 733e 6303 3dbe
000002b0: f8de cabd 99d7 0fbe 07e1 8abd 6e51 a23d
000002c0: ebe6 1bbe 69d5 0dbe f1d3 913e 60ee 91bb
000002d0: 3200 4d3c 4309 1fbe ea39 373d 6508 10be
000002e0: a8ef 6f3e 8b86 123e 104c 483e cdb7 16be
000002f0: a9e7 b4bd f02b 82be 2baa f53d ecef 5d3e
00000300: 0478 aa3d 9f83 e1bd 115f 1a3e 230d 83bd
00000310: b596 1bbd 4fa7 edbc bab1 bb3c 6c61 28bd
00000320: 7114 0c3d 7ae4 91bd 2546 4f3c 0b8c 61bd
00000330: ea48 163d 4b9e a03d 5261 e6bd cbc0 e13c
00000340: 1c6a ecbd cfce 3d3d d845 373e f077 d2bd
00000350: 6105 883e 155f 93bd 20d0 ae3d 96ac e9bc
00000360: 1313 993c fed0 21bd d637 093e 4fbf 1c3e
00000370: e8b3 263e 2c2c f2bc 2a33 da3d 8a35 cc38
00000380: 5780 093d 1173 8a3e 7d8a 043d fbf0 ba3c
00000390: 1bfb a8bd d21d 653e df39 0b3e 9347 c8bc
000003a0: 4135 fa3d 4d73 873d 62d3 9fbd 9b93 65be
000003b0: 58b1 2ebe 2d89 853d b860 75bd 8853 7b3e
000003c0: f33f e2bd 486a ba3c c893 883d 5a9a b339
000003d0: 328c a13e 1454 9abd 6a61 68bc a44b 0b3e
000003e0: f668 ef3d 9740 f93d 0e49 2dbc ed9a 5d3e
000003f0: 3f9d dfbd 7811 963d bb4c 613e f02e 543d
-0.033159133 0.11615998 -0.27863747 0.062755615 0.016182976 -0.03184219 -0.2583405 -0.117691696
0.07150087 0.09768456 -0.25000733 0.049946897 -0.26973873 0.15258917 0.23623852 -0.18433948
0.12815566 0.15022834 -0.3093586 0.13978432 0.05273877 0.24161915 0.10085059 0.15148745
0.14285932 0.16414693 0.066237666 0.12656663 0.10375127 0.27394757 0.16494074 -0.16242912
0.23087451 0.30174497 0.08169674 -0.02115532 0.17258145 0.17118452 -0.046009872 -0.09175206
-0.022193704 0.25143927 0.0043330835 -0.05485812 -0.0815181 -0.15959588 -0.18048601 0.0707914
0.06130372 -0.2096446 -0.07967858 0.18832175 0.23730008 -0.009684839 -0.2111366 0.021880463
-0.3893142 0.1936353 -0.41370076 0.18463068 -0.04182617 0.0054770554 -0.08640989 0.18479337
-0.17838785 -0.058105595 -0.18191026 -0.1451891 0.084934324 -0.0023748218 -0.030369967 0.1305104
-0.15234505 -0.07616586 0.23380657 0.13859335 -0.055706188 -0.2800577 0.039221585 0.2330096
-0.14558482 0.05137862 0.26022735 -0.018364064 0.23949838 0.17130224 -0.4321198 -0.01841364
-0.043545045 0.04625189 0.15068908 -0.08453006 0.19984284 0.16350932 -0.12778172 0.22376326
0.16904849 0.10067056 0.24350485 -0.026614677 -0.3030255 -0.1991572 -0.1290734 0.4424074
0.21774884 0.23458537 -0.3293648 -0.2000391 -0.25198075 0.15158723 -0.17589189 -0.27266234
0.11694737 0.030856555 0.06800203 0.017625475 -0.16218804 0.15417674 0.23206106 0.22396266
-0.15052338 -0.07884531 0.051735688 0.04717677 0.0043416154 -0.18173441 -0.11193986 0.21393399
0.014637322 0.091493905 -0.123487316 0.20388874 -0.070245676 0.041875355 -0.132058 0.08803433
-0.020302227 -0.14166594 0.010044043 -0.040640943 -0.14164615 -0.18888572 -0.05046256 -0.097038984
0.06930762 0.09045518 0.14640546 0.29780915 0.26677376 -0.06705323 0.17138562 -0.005792161
-0.116597 -0.06720182 0.21799645 0.032114845 0.084230594 -0.20400408 -0.02770387 -0.1167909
-0.02817626 -0.020602373 -0.0144178625 -0.3407666 -0.11382907 0.1445073 -0.035971604 0.0689306
0.052239697 0.0434747 0.23756075 -0.18458323 -0.09905809 -0.14047088 -0.06781202 0.07925688
-0.15224807 -0.13850941 0.2848201 -0.0044534653 0.012512254 -0.15530877 0.044732966 -0.14065702
0.23431265 0.14309137 0.19560266 -0.14718552 -0.08833248 -0.25424147 0.119953476 0.21673554
0.083236724 -0.11011433 0.15075327 -0.0639899 -0.037985522 -0.029010443 0.022911895 -0.041108534
0.034199182 -0.071236566 0.012651001 -0.055065196 0.03669063 0.07842692 -0.11249031 0.027557751
-0.11543676 0.046339806 0.17897737 -0.102767825 0.26566604 -0.0719587 0.085357904 -0.028524678
0.018685853 -0.03950595 0.13400206 0.15307353 0.16279566 -0.029562078 0.1065429 9.7374505e-05
0.03356966 0.27040914 0.032358635 0.022819987 -0.082510196 0.22374657 0.13596295 -0.024448192
0.122171886 0.06613789 -0.0780399 -0.22419588 -0.17059839 0.06520305 -0.05990669 0.24543583
-0.110473536 0.022755757 0.06668812 0.0003425654 0.31552273 -0.07535568 -0.014183382 0.13603073
0.116899416 0.12170523 -0.0105765 0.21641131 -0.10918664 0.07327551 0.22001927 0.051802576

module.fc3.bias f4 [10]
00000000: 5d47 5cbe 8eff 8bbf 6bf0 81bd 89ce 1b3f
00000010: a459 3a3f cf77 e0bd 9c26 5f3c a567 a3be
00000020: 67a4 e93e 96a4 bbbe
-0.21511598 -1.0937364 -0.06344684 0.6086202 0.7279303 -0.10960352 0.013620045 -0.31915012
0.45633242 -0.36649007
