models/classifier_net_epoch_9_4000.pth (torch_old, 249853 bytes, 10 tensors)

module.conv1.weight f4 [6, 3, 5, 5]
0.06147417 0.43592927 0.49633223 0.5050444 0.3248798 0.049119085 -0.36767474 0.18913516
0.97925335 0.050782315 0.2869967 -0.38440174 -1.223985 0.89153045 0.34230042 0.05240742
0.16910097 -1.0540751 0.027209718 -0.07787926 -0.21997784 0.056041785 -0.7242175 0.091001146
-0.34418407 -0.14078276 -0.44188052 -0.72011083 -0.2832818 -0.42027703 0.44601536 -0.7552543
-0.7367634 0.45868242 -0.32906643 0.8948921 -0.35942623 -1.548358 0.75696915 0.19542275
0.6015789 0.45550767 -1.1968464 0.24044223 -0.12237457 0.47304 0.2443865 -0.37811452
0.57047033 -0.050762698 -0.119546086 -0.019528396 -0.02334245 0.19234976 -0.16042107 0.355576
-0.48268548 -0.22688808 0.7577029 -0.5981504 0.8010288 -0.23968814 -1.0854822 0.7814295
-0.12189364 0.58614177 0.6706938 -0.8273964 0.15713459 -0.3072736 0.28593618 0.46181563
-0.2375242 0.29791448 -0.44791922 -0.13640273 0.30836004 0.2776412 0.26847503 0.16022523
-0.10638044 0.58950204 0.19904712 -0.17638166 -0.116389684 0.238092 -0.061278567 -0.69051117
-0.6462836 -0.26861554 -0.16626267 -0.8553251 -0.6803537 -0.052565258 0.16996157 -0.09459607
0.06637286 0.39123052 0.6442586 0.2347791 -0.4397559 -0.08333532 -0.15457255 -0.14224686
-0.26197675 -0.029384125 0.4463825 -0.06139348 -0.30836293 -0.3750424 0.43419763 0.033842977
-0.6083012 -0.6431215 -0.21780315 -0.042865146 -0.6686913 -0.5583714 -0.016559875 0.15632592
-0.059915647 -0.18305166 0.23416556 0.43066123 0.076684855 -0.2649919 0.042231444 0.035771586
0.2873763 0.07694961 0.08168052 0.6221732 0.5281166 0.0945463 -0.07228588 0.5420002
0.3521198 -0.25119922 -0.46365008 -0.13278471 0.19932331 -0.61904544 -0.4694043 -0.108277984
0.16683461 0.023331786 -0.14659145 0.3408996 0.18878382 -0.20828246 0.054252714 -0.05684329
-0.17574759 0.013179847 0.026806423 0.24389343 0.38687524 0.17314015 0.22555548 0.15140153
-0.1412748 -0.13697183 -0.12583652 -0.14378814 0.028899448 -0.4300014 -0.47094086 -0.5909372
-0.6061161 -0.3851763 -0.13225538 -0.33682972 -0.32162273 -0.3954919 -0.27607924 -0.36133763
-0.3120726 -0.22987112 -0.24814716 -0.30383283 0.34990042 0.48340127 0.535269 0.346585
0.24392791 -0.0073175244 0.013844839 0.07413607 0.07688816 0.13661808 -0.31485885 -0.4377424
-0.3422527 -0.27875465 -0.20387408 -0.042946883 -0.17589943 -0.060726717 -0.0020671533 -0.03343868
-0.33996975 -0.019862691 -0.115414955 -0.24139641 -0.39628676 0.40074468 0.47905645 0.6812851
0.6001999 0.2814353 0.16094062 0.3445008 0.32060006 0.4392086 0.28970924 0.08642727
0.24556316 0.15840617 0.23026532 0.2502304 0.06984741 0.14358015 0.24003719 0.33716905
0.1710505 0.12482489 0.36017132 -0.17305058 0.02089428 -0.24528626 0.38266647 -0.18609461
-0.50343275 0.2725932 -0.0033532593 0.4921626 -0.46301836 -0.5427467 0.6095566 -0.09666453
-0.036329195 -0.64598835 -0.12412057 0.5356987 0.005201984 -0.051271424 -0.21665931 0.24467231
0.3843576 -0.120357856 0.15451929 0.18687887 -0.26199654 0.17348103 0.108203694 0.22939105
00000000: 57cc 7b3d 1f32 df3e 421f fe3e 974a 013f
00000010: a556 a63e 1831 493d dd3f bcbe a6ac 413e
00000020: 59b0 7a3f 1e01 503d 3bf1 923e 4ed0 c4be
00000030: 8aab 9cbf 573b 643f 0042 af3e 2aa9 563d
00000040: ce28 2d3e efeb 86bf eae6 de3c 297f 9fbd
00000050: df41 61be 128c 653d 5166 39bf cf5e ba3d
00000060: e538 b0be 5b29 10be 2a3e e2be 2f59 38bf
00000070: 500a 91be 8d2e d7be 205c e43e 5958 41bf
00000080: 879c 3cbf 6cd8 ea3e 657b a8be a617 653f
00000090: b706 b8be 9830 c6bf bbc8 413f e71c 483e
000000a0: 1301 1a3f 4d38 e93e 4332 99bf 7d36 763e
000000b0: 859f fabd 4d32 f23e 7440 7a3e 3a98 c1be
000000c0: 580a 123f 8cec 4fbd 94d4 f4bd 04fa 9fbc
000000d0: aa38 bfbc 56f7 443e 6c45 24be 0f0e b63e
000000e0: 8d22 f7be 5955 68be d1f8 413f 6220 19bf
000000f0: 3910 4d3f cf70 75be 15f1 8abf c40b 483f
00000100: 5fa3 f9bd 630d 163f 97b2 2b3f 40d0 53bf
00000110: e4e7 203e f752 9dbe 3a66 923e 1973 ec3e
00000120: 8b39 73be 3f88 983e ab55 e5be 28ad 0bbe
00000130: 5ee1 9d3e fd26 8e3e 8f75 893e 1512 243e
00000140: fddd d9bd 9be9 163f 02d3 4b3e 659d 34be
00000150: b75d eebd 64ce 733e 3cff 7abd 57c5 30bf
00000160: d872 25bf fa87 89be c340 2abe 96f6 5abf
00000170: a92b 2ebf ab4e 57bd 680a 2e3e 96bb c1bd
00000180: 7eee 873d 5e4f c83e 22ee 243f ef69 703e
00000190: af27 e1be b5ab aabd 4448 1ebe 29a9 11be
000001a0: d121 86be fab6 f0bc 3f8c e43e bb77 7bbd
000001b0: bfe1 9dbe 8f05 c0be 274f de3e ef9e 0a3d
000001c0: a1b9 1bbf 9ca3 24bf ca07 5fbe 5d93 2fbd
000001d0: 5a2f 2bbf 6ef1 0ebf 93a8 87bc e713 203e
000001e0: 1c6a 75bd e571 3bbe 19c9 6f3e a17f dc3e
000001f0: f30c 9d3d 05ad 87be e1fa 2c3d 3a85 123d
00000200: fd22 933e c297 9d3d 1e48 a73d be46 1f3f
00000210: a632 073f 7ea1 c13d 9f0a 94bd 86c0 0a3f
00000220: 0c49 b43e 2f9d 80be 8b63 edbe b7f8 07be
00000230: 691b 4c3e c379 1ebf c355 f0be d9c0 ddbd
00000240: b1d6 2a3e 4d22 bf3c 121c 16be 648a ae3e
00000250: 8c50 413e ff47 55be 1838 5e3d 82d4 68bd
00000260: 2df7 33be 49f0 573c 2599 db3c 33bf 793e
00000270: 8314 c63e a74b 313e 04f8 663e 0109 1b3e
00000280: 57aa 10be 5842 0cbe 4adb 00be 333d 13be
00000290: 89be ec3c 2529 dcbe 291f f1be a947 17bf
000002a0: 6d2a 1bbf d435 c5be f46d 07be f274 acbe
000002b0: bcab a4be ea7d cabe 425a 8dbe 3f01 b9be
000002c0: fbc7 9fbe 5663 6bbe 4a1a 7ebe fa8f 9bbe
000002d0: 2626 b33e 5f80 f73e 6407 093f 9773 b13e
000002e0: 3dc8 793e d8c7 efbb 77d5 623c a7d4 973d
000002f0: 8a77 9d3d 9ce5 0b3e 2e35 a1be c61f e0be
00000300: bf3b afbe eeb8 8ebe 5ec4 50be 12e9 2fbd
00000310: fb1e 34be 94bc 78bd 1479 07bb fff6 08bd
00000320: 8410 aebe 15b7 a2bc ad5e ecbd 9f30 77be
00000330: 19e6 cabe 682e cd3e e346 f53e b368 2e3f
00000340: b3a6 193f 4a18 903e 9ecd 243e 6962 b03e
00000350: b125 a43e f3df e03e c554 943e c800 b13d
00000360: e974 7b3e 3a35 223e acca 6b3e 331e 803e
00000370: 290c 8f3d ad06 133e 4fcc 753e 6ca1 ac3e
00000380: dd27 2f3e 31a4 ff3d 6068 b83e 2c34 31be
00000390: 7b2a ab3c 522c 7bbe dcec c33e 968f 3ebe
000003a0: f8e0 00bf 5691 8b3e 5bc2 5bbb bcfc fb3e
000003b0: be10 edbe 73f1 0abf e70b 1c3f 0ef8 c5bd
000003c0: eccd 14bd 7e5f 25bf ed32 febd 8d23 093f
000003d0: 6875 aa3b fc01 52bd f0db 5dbe 618b 7a3e
000003e0: 85ca c43e 2e7e f6bd 4e3a 1e3e 2d5d 3f3e
000003f0: 6924 86be 03a5 313e e699 dd3d 7de5 6a3e

module.conv1.bias f4 [6]
-0.27029175 -0.77676606 -0.08509528 -0.27462548 -0.0444418 -0.32566956
00000000: ae63 8abe 24da 46bf 6f46 aebd b69b 8cbe
00000010: 9b08 36bd 29be a6be

module.conv2.weight f4 [16, 6, 5, 5]
0.49460688 -0.12512651 0.5947707 -0.07862705 -0.18845476 0.20825744 -0.17090698 0.27473903
0.3974546 -0.020346476 0.256594 -0.13965727 0.10332647 0.36679333 -0.07745875 -0.10971843
0.09704286 0.09621557 0.16687413 0.22386447 -0.14365563 -0.11105981 -0.15593588 -0.15846688
0.08180293 -0.09722904 0.13433151 0.22981732 0.046225484 -0.048025254 -0.2471058 -0.021467559
0.19716136 0.14903699 0.0980942 -0.4196444 -0.14266449 0.09780459 0.20002146 0.15122017
-0.38523984 -0.31380987 -0.124624476 0.102326356 0.10142384 -0.29434976 -0.1029501 -0.19442861
-0.03724393 0.10954243 -0.15978962 -0.18997173 -0.06958714 0.114335254 0.11786832 -0.24674693
-0.19301859 -0.17531975 -0.07348011 -0.05741896 -0.41075826 -0.32685181 -0.32048255 -0.26109606
-0.123738214 -0.2088208 -0.122401506 -0.03973304 -0.10687776 0.13891283 -0.1057502 -0.09045156
-0.05513897 0.040482324 -0.038867094 0.45003542 0.051915493 0.090851106 0.4813117 -0.00848125
-0.024374288 -0.007661706 -0.14348426 0.187572 0.19689465 -0.13627216 0.15423243 -0.2853113
-0.08289755 0.28311285 -0.28710142 0.07388509 -0.13070245 -0.030992469 -0.005070706 -0.24827513
-0.028736087 -0.11756847 -0.16114013 -0.33608925 -0.103813246 -0.020000655 -0.29114616 -0.039712533
0.087845095 -0.067773215 -0.04738998 -0.1500454 -0.13971351 -0.17132606 -0.056609396 -0.053405225
0.0061185784 -0.02430837 -0.068266205 -0.06832301 -0.05442244 0.0072359983 0.07544194 0.00067262567
-0.16341001 -0.09282108 0.012373294 0.21303388 0.061528433 -0.23363444 -0.061052058 -0.24116454
0.037658714 0.033223227 -0.08661048 -0.17749724 -0.14704852 -0.041070808 0.1071995 -0.058948856
-0.070768766 -0.21001688 -0.08388033 -0.06482225 -0.18524419 0.27500677 -0.07952951 -0.2102708
-0.34081098 4.38916e-05 0.06384576 0.07789083 -0.00825527 -0.19996254 -0.0870869 -0.04387463
0.09195342 -0.044306137 -0.07062965 -0.126857 0.057448488 0.05804585 0.07282383 0.18678777
0.3018768 -0.20773885 -0.11395364 0.08000964 -0.06490647 0.693633 0.8325389 -0.10977844
-0.3261056 -0.20668583 -0.3085848 0.09816614 0.39339927 0.13932218 0.11328187 -0.09565803
-0.19464725 0.09124405 -0.055074334 0.029271573 -0.01201843 -0.11063266 -0.22177109 -0.12865628
0.29568148 0.10572042 -0.021933561 -0.46772936 -0.15066643 0.081359394 0.36499444 0.15754294
-0.085570596 -0.13173993 -0.10137907 -0.024210084 0.257295 0.2960563 0.44345838 0.13296859
0.1318575 0.0987182 0.0037211094 -0.059586886 0.06706519 0.030061675 0.13124645 0.15474136
0.0297182 -0.027393647 -0.08921267 0.238931 0.07704058 0.07304167 -0.19307102 -0.6684478
0.05802148 0.42068675 0.22943984 -0.4424877 -0.24161401 -0.4230052 -0.0075236806 0.24653217
0.43306094 0.021610428 -0.20353533 0.0019849467 0.035422377 0.16877358 0.14676026 -0.013651628
-0.074299894 0.08693929 -0.13328013 -0.18819094 0.07378709 -0.07345517 -0.08489029 -0.15065326
-0.43090776 -0.2588378 0.1551972 0.16989669 0.35911748 -0.38207728 -0.58482236 -0.45053053
-0.16981007 -0.16673513 -0.1952773 -0.14119223 -0.09185003 0.09212447 0.13728167 -0.32234332
00000000: 1d3d fd3e 2a21 00be e542 183f 3807 a1bd
00000010: 49fa 40be 7041 553e 3d02 2fbe 98aa 8c3e
00000020: 2b7f cb3e a7ad a6bc 4a60 833e 5102 0fbe
00000030: d49c d33d 56cc bb3e b1a2 9ebd 0eb4 e0bd
00000040: 68be c63d ab0c c53d 0de1 2a3e ba3c 653e
00000050: 761a 13be 5373 e3bd a8ad 1fbe 2445 22be
00000060: 4b88 a73d 0520 c7bd 338e 093e 3b55 6b3e
00000070: ef56 3d3d 21b6 44bd 4e09 7dbe bcdc afbc
00000080: abe4 493e 279d 183e 9de5 c83d a1db d6be
00000090: a416 12be c64d c83d 6dd2 4c3e 76d9 1a3e
000000a0: 283e c5be b0ab a0be 1e3b ffbd 7b90 d13d
000000b0: 4db7 cf3d 03b5 96be 81d7 d2bd 4b18 47be
000000c0: 178d 18bd c857 e03d e49f 23be f387 42be
000000d0: b483 8ebd 9a28 ea3d f264 f13d 3aab 7cbe
000000e0: aaa6 45be 0587 33be bd7c 96bd 2530 6bbd
000000f0: e84e d2be 1f59 a7be 4a16 a4be 62ae 85be
00000100: 766a fdbd 1fd5 55be a4ad fabd 1dbf 22bd
00000110: bae2 dabd 2a3f 0e3e 9093 d8bd ab3e b9bd
00000120: 67d9 61bd cbd0 253d 1a33 1fbd 0b6b e63e
00000130: 57a5 543d 2510 ba3d 7d6e f63e f1f4 0abc
00000140: 96ac c7bc 0c0f fbbb 8aed 12be e012 403e
00000150: c09e 493e ee8a 0bbe 1bef 1d3e 5314 92be
00000160: 31c6 a9bd 2bf4 903e f5fe 92be 1151 973d
00000170: ddd6 05be ebe3 fdbc 2a28 a6bb d63b 7ebe
00000180: f167 ebbc bdc7 f0bd eb01 25be e413 acbe
00000190: 0a9c d4bd 6ad8 a3bc 1c11 95be 9ca9 22bd
000001a0: 21e8 b33d afcc 8abd ff1b 42bd 80a5 19be
000001b0: 0f11 0fbe 1970 2fbe 41df 67bd 70bf 5abd
000001c0: 5b7e c83b 5922 c7bc 27cf 8bbd efec 8bbd
000001d0: 10ea 5ebd f41b ed3b 4e81 9a3d 2553 303a
000001e0: f454 27be fa18 bebd 5bb9 4a3c 8e25 5a3e
000001f0: 3d05 7c3d de3d 6fbe b911 7abd d6f3 76be
00000200: 0640 1a3d 1415 083d d660 b1bd d6c1 35be
00000210: e393 16be dd39 28bd 698b db3d 5b74 71bd
00000220: 37ef 90bd aa0e 57be 73c9 abbd 87c1 84bd
00000230: a7b0 3dbe b0cd 8c3e 5ee0 a2bd 3b51 57be
00000240: c77e aebe 3f18 3838 91c1 823d 3a85 9f3d
00000250: 1d41 07bc fbc2 4cbe 9e5a b2bd e2b5 33bd
00000260: 1352 bc3d 5a7a 35bd 47a6 90bd cde6 01be
00000270: 1b4f 6b3d 7cc1 6d3d a924 953d 4b45 3f3e
00000280: 998f 9a3e 7eb9 54be 8760 e9bd 18dc a33d
00000290: afed 84bd ef91 313f 4521 553f 85d3 e0bd
000002a0: 50f7 a6be 73a5 53be d4fe 9dbe 540b c93d
000002b0: a16b c93e 79aa 0e3e 5300 e83d 5be8 c3bd
000002c0: 9c51 47be 29de ba3d a095 61bd f0ca ef3c
000002d0: f3e8 44bc 6093 e2bd f617 63be 79be 03be
000002e0: 9063 973e f383 d83d 03ae b3bc 397a efbe
000002f0: 4d48 1abe c19f a63d 8de0 ba3e f052 213e
00000300: a33f afbd d5e6 06be d49f cfbd 3a54 c6bc
00000310: 2cbc 833e b194 973e fa0c e33e eb28 083e
00000320: a705 073e c52c ca3d dbdd 733b 6111 74bd
00000330: 7959 893d e743 f63c 7865 063e 8574 1e3e
00000340: 9573 f33c a468 e0bc 22b5 b6bd 54aa 743e
00000350: 74c7 9d3d df96 953d 69b4 45be 651f 2bbf
00000360: eea7 6d3d 4164 d73e 47f2 6a3e bf8d e2be
00000370: aa69 77be 2394 d8be 3589 f6bb ee72 7c3e
00000380: 2aba dd3e 5a08 b13c 916b 50be e115 023b
00000390: 0e17 113d fbd2 2c3e 5248 163e 14ab 5fbc
000003a0: 8b2a 98bd 3a0d b23d 967a 08be 20b5 40be
000003b0: b01d 973d aa6f 96bd f6da adbd d944 1abe
000003c0: f19f dcbe 6386 84be 04ec 1e3e 66f9 2d3e
000003d0: 3fde b73e a29f c3be ebb6 15bf f0ab e6be
000003e0: b1e2 2dbe 9dbc 2abe c6f6 47be b294 10be
000003f0: de1b bcbd c1ab bc3d 9193 0c3e 2f0a a5be

module.conv2.bias f4 [16]
0.2621976 -1.6534268 -1.0860246 -0.12569316 0.97005874 0.3955377 0.15663216 1.2382463
-0.11816445 -0.4086043 -1.0612153 1.7058401 0.35403624 -0.6431935 0.076138265 0.5075581
00000000: c43e 863e 7da3 d3bf db02 8bbf b5b5 00be
00000010: c555 783f eb83 ca3e 2e64 203e db7e 9e3f
00000020: 3400 f2bd 9534 d1be e7d5 87bf f858 da3f
00000030: 3d44 b53e 54a8 24bf 61ee 9b3d 54ef 013f

module.fc1.weight f4 [120, 400]
-0.06033062 -0.049469255 -0.05560451 -0.02105951 -0.0852137 0.09899555 0.037973993 -0.012022192
0.013664122 0.01376728 -0.0048400383 -0.008981233 -0.054281596 0.06943018 0.038598463 0.093321644
-0.098109335 -0.17668954 -0.020692691 0.021327527 0.031111438 0.025205947 -0.07324426 -0.048926882
0.09354813 0.06665887 -0.0055298535 0.06589732 0.09342541 0.089707784 0.04204697 0.0142017715
0.07533601 0.105446115 0.1339678 0.27952814 -0.02720614 -0.03335315 0.016651165 0.020959174
-0.0013786099 -0.059324503 -0.21776046 -0.01309883 0.08285956 -0.23943047 -0.041396834 0.008827319
-0.093299866 0.015123844 0.22067729 0.036885913 -0.025058366 -0.040378094 -0.16700023 0.007306395
0.007844548 0.0043305866 -0.056516875 -0.10047973 -0.04597021 0.106356315 -0.05821627 -0.04373549
-0.06383314 0.17840888 0.07993155 -0.03678194 -0.03291035 -0.050066672 -0.16516006 -0.013377416
-0.14048655 -0.029551364 -0.02297073 -0.07980417 -0.2623117 -0.040340625 -0.0039918614 0.061335515
-0.134395 -0.16985089 -0.06634531 -0.056288395 0.10856392 -0.09379135 -0.07088664 0.09872262
0.028748171 -0.037083287 -0.10385708 -0.04497565 0.052180354 -0.08732224 0.04402117 0.11585187
0.13576946 0.087310374 -0.035887104 0.091865756 0.12887089 0.08904872 0.12026566 0.06725798
0.007747212 0.0024229358 0.075587675 0.13281019 0.053703457 -0.040137134 0.06142324 0.06138758
0.12638524 0.18185855 -0.13129683 0.013502386 -0.057151116 -0.039422046 -0.080772795 -0.08660223
0.04978003 0.0019061737 -0.022066902 -0.11439616 -0.12840924 -0.024985824 -0.02308216 0.1077447
0.04533231 -0.092373654 0.009524613 0.024808424 0.033775512 0.016235035 -0.083818875 0.034098502
-0.01948259 -0.11321954 -0.096739136 -0.13581279 -0.078131944 0.07937604 0.05602087 -0.0069428114
0.07679742 -0.004375488 0.054791722 -0.0246618 -0.04650475 -0.0032108512 0.019141642 -0.069243126
-0.1000653 -0.11037492 -0.026703043 0.11259976 -0.09170693 -0.064700276 -0.04494889 -0.039465107
0.045540214 0.03707837 0.016515713 -0.081135 -0.0061283526 -0.010975155 -0.054917976 -0.12922984
-0.048780575 -0.013465913 -0.08004715 -0.019943498 -0.04976283 0.051400296 0.10427665 0.032989606
0.006076295 0.059856806 0.13664132 0.13637766 -0.03591038 0.076103985 0.1551047 0.048034355
0.054438032 -0.00044538412 0.028224178 -0.008984687 -0.022355719 0.052153572 -0.057671968 0.026775599
-0.03973663 -0.0056462362 -0.005594866 0.006163995 -0.008783256 -0.08238329 0.008359669 -0.15491405
-0.12130105 -0.033467118 -0.12983765 -0.24348168 -0.108206555 -0.11166634 -0.0148390075 -0.007615495
-0.10048791 0.015178704 0.0015915527 0.06780436 0.07994959 0.024143396 0.096024916 -0.078677736
-0.12218161 0.010992637 -0.032211646 0.013314466 -0.2050156 -0.10522803 -0.10829877 -0.0776314
-0.16274321 0.07915773 0.1188296 -0.06867883 -0.0764585 -0.15727706 0.05967619 0.06825008
-0.06913953 0.044563852 -0.09471048 0.1096832 -0.0048528854 -0.033596307 0.07091326 -0.05094669
0.2214609 0.08390493 0.039965086 -0.008244453 0.052709017 0.18537807 0.009052979 0.038063135
0.12906986 0.010770663 -0.052755956 -0.10499559 -0.14703943 -0.17632863 -0.07301169 -0.06867293
00000000: 3d1d 77bd 46a0 4abd 8ec1 63bd fe84 acbc
00000010: 8584 aebd 2ebe ca3d 9e8a 1b3d baf8 44bc
00000020: 7bdf 5f3c 2890 613c 2f99 9ebb 0626 13bc
00000030: 6156 5ebd 6931 8e3d 6c19 1e3d 6b1f bf3d
00000040: 8ced c8bd 1aee 34be b883 a9bc 11b7 ae3c
00000050: 6add fe3c b47c ce3c 1601 96bd 8e67 48bd
00000060: 2996 bf3d 7284 883d c633 b5bb 2df5 863d
00000070: d255 bf3d b7b8 b73d 7239 2c3d 8cae 683c
00000080: c449 9a3d 22f4 d73d db2e 093e 501e 8f3e
00000090: 69df debc 509d 08bd 0668 883c 93b2 ab3c
000000a0: 79b2 b4ba 40fe 72bd 99fc 5ebe 7a9c 56bc
000000b0: 46b2 a93d 432d 75be ba8f 29bd 76a0 103c
000000c0: 0014 bfbd 00ca 773c 3af9 613e af15 173d
000000d0: 3447 cdbc 8063 25bd 1c02 2bbe 7c6a ef3b
000000e0: 6b86 003c 98e7 8d3b 3d7e 67bd 51c8 cdbd
000000f0: 424b 3cbd 57d1 d93d 2f74 6ebd fc23 33bd
00000100: f3ba 82bd d1b0 363e 27b3 a33d a9a8 16bd
00000110: 01cd 06bd b612 4dbd b81f 29be f32c 5bbc
00000120: b5db 0fbe b415 f2bc 1d2d bcbc 5e70 a3bd
00000130: b84d 86be 363c 25bd 29ce 82bb f33a 7b3d
00000140: d89e 09be 64ed 2dbe 0de0 87bd a98e 66bd
00000150: c356 de3d ae15 c0bd 042d 91bd 162f ca3d
00000160: 4981 eb3c a5e4 17bd 05b3 d4bd 6338 38bd
00000170: 11bb 553d 01d6 b2bd 8b4f 343d bf43 ed3d
00000180: 2607 0b3e c8cf b23d 5bfe 12bd 1d24 bc3d
00000190: bbf6 033e 2d5f b63d d84d f63d 8dbe 893d
000001a0: 53dc fd3b 1eca 1e3b b6cd 9a3d 65ff 073e
000001b0: 28f8 5b3d d666 24bd ef96 7b3d 8b71 7b3d
000001c0: 226b 013e 2139 3a3e ad72 06be 1d39 5d3c
000001d0: 4a17 6abd 0379 21bd 356c a5bd 835c b1bd
000001e0: 25e6 4b3d 93d8 f93a a6c5 b4bc 8948 eabd
000001f0: b67d 03be 12af ccbc cc16 bdbc 41a9 dc3d
00000200: 5fae 393d 662e bdbd 1f0d 1c3c 093b cb3c
00000210: 3158 0a3d 56ff 843c 3ba9 abbd dfaa 0b3d
00000220: f499 9fbc a5df e7bd 2b1f c6bd 8212 0bbe
00000230: a403 a0bd e88f a23d 2476 653d 8680 e3bb
00000240: f747 9d3d 4160 8fbb 496d 603d 8b07 cabc
00000250: c47b 3ebd 256d 52bb efce 9c3c 57cf 8dbd
00000260: 09ef ccbd 3f0c e2bd 57c0 dabc b49a e63d
00000270: d8d0 bbbd 9481 84bd 541c 38bd 2aa6 21bd
00000280: 6088 3a3d 7ddf 173d f64b 873c 1b2a a6bd
00000290: 59d0 c8bb 23d1 33bc acf1 60bd d454 04be
000002a0: 24ce 47bd 22a0 5cbc c3ef a3bd 8c60 a3bc
000002b0: 1cd4 4bbd 1e89 523d ff8e d53d 1c20 073d
000002c0: a81b c73b 692c 753d b4eb 0b3e 96a6 0b3e
000002d0: c316 13bd 68dc 9b3d c4d3 1e3e acbf 443d
000002e0: 6afa 5e3d 7282 e9b9 6436 e73c 8234 13bc
000002f0: 5723 b7bc fc9e 553d 7139 6cbd 8058 db3c
00000300: e0c2 22bd 1004 b9bb 2355 b7bb 56fb c93b
00000310: a5e7 0fbc 92b8 a8bd fef6 083c caa1 1ebe
00000320: af6c f8bd d114 09bd 29f4 04be 4353 79be
00000330: 669b ddbd 52b1 e4bd 4f1f 73bc 678b f9bb
00000340: 9bcc cdbd 19b0 783c a69b d03a 03dd 8a3d
00000350: 9cbc a33d 5fc8 c53c b6a8 c43d cb21 a1bd
00000360: 5a3a fabd 761a 343c 5cf0 03bd eb24 5a3c
00000370: 9cef 51be cb81 d7bd bfcb ddbd 36fd 9ebd
00000380: 28a6 26be 731d a23d ef5c f33d 7da7 8cbd
00000390: 4696 9cbd 3d0d 21be 056f 743d b3c6 8b3d
000003a0: 0799 8dbd 9688 363d 91f7 c1bd 96a1 e03d
000003b0: f404 9fbb 489c 09bd f93a 913d 7aad 50bd
000003c0: a5c6 623e 59d6 ab3d 6eb2 233d be13 07bc
000003d0: 69e5 573d c0d3 3d3e f252 143c 17e8 1b3d
000003e0: e42a 043e 6f77 303c a116 58bd ee07 d7bd
000003f0: 8191 16be 7e8f 34be 2787 95bd 65a4 8cbd

module.fc1.bias f4 [120]
0.17415513 -0.20742114 -0.19938962 -0.06377351 -0.2377011 -0.23036028 0.04410228 0.008523796
-0.07516719 0.009310657 0.06780435 0.06901295 -0.19690801 -0.4094984 -0.0023680064 0.30769545
0.0070528854 0.13463628 0.24273355 0.06814771 0.098131105 0.0083872415 -0.16167805 -0.010719524
-0.08748654 -0.10620734 -0.12856984 0.23836318 0.3805935 -0.010760103 0.03923521 -0.022560596
0.015300241 -0.120719716 0.051174738 0.2785603 0.17606078 0.15182188 -0.01036621 0.23531672
0.14887393 0.11596939 -0.24205574 0.15841193 0.22537978 0.4793752 -0.06549923 0.26530454
-0.024371793 0.11547279 0.40118673 -0.09069957 0.08157173 0.044393077 0.18856992 0.02812652
-0.12952161 0.11244689 0.102261975 0.1079386 0.48015937 0.089467525 0.2631164 0.023487842
0.07839396 -0.042552795 -0.32365254 -0.40069878 0.021878194 -0.011877409 0.2358873 -0.11892841
-0.009561304 0.0004664977 -0.14499477 -0.11446825 0.11641797 0.08888628 0.047602966 -0.03921677
-0.1649122 0.2003311 0.102720305 0.16854963 0.07370877 0.46778205 0.21300888 -0.21938129
-0.3225899 0.14917585 -0.0023599502 0.2970309 0.07760515 -0.028323982 -0.2221781 0.38909492
0.13045114 0.20747256 0.14717919 -0.20852536 -0.05444913 -0.020257637 -0.016368235 -0.003428782
0.33936813 -0.36090708 -0.025212692 -0.14860907 -0.23376803 0.25237408 -0.06393007 -0.09849033
0.09057858 -0.04743727 0.036057256 0.036219884 -0.038625054 -0.010747567 0.17417705 0.34134912
00000000: b955 323e 3566 54be cb2c 4cbe b09b 82bd
00000010: eb67 73be 91e3 6bbe 98a4 343d 64a7 0b3c
00000020: 41f1 99bd ba8b 183c 02dd 8a3d a956 8d3d
00000030: 41a2 49be c6a9 d1be 8e30 1bbb 428a 9d3e
00000040: e41b e73b 18de 093e 258f 783e 0791 8b3d
00000050: f6f8 c83d a46a 093c ee8e 25be f1a0 2fbc
00000060: 252c b3bd 3c83 d9bd d0a7 03be 7a15 743e
00000070: 27dd c23e 254b 30bc 19b5 203d 00d1 b8bc
00000080: ddad 7a3c e63b f7bd 9a9c 513d 759f 8e3e
00000090: 4749 343e 3277 1b3e 09d7 29bc def6 703e
000000a0: 6872 183e 5c81 ed3d 76dd 77be bd36 223e
000000b0: f5c9 663e ab70 f53e 7624 86bd ffd5 873e
000000c0: 5ba7 c7bc 007d ec3d 5968 cd3e b2c0 b9bd
000000d0: 140f a73d 84d5 353d 7918 413e 9669 e63c
000000e0: 50a1 04be 8e4a e63d ba6e d13d ea0e dd3d
000000f0: 73d7 f53e c03a b73d 31b7 863e 9369 c03c
00000100: 038d a03d d74b 2ebd c9b5 a5be 6428 cdbe
00000110: e639 b33c 7799 42bc 718c 713e bd90 f3bd
00000120: 04a7 1cbc 4394 f439 8279 14be 546e eabd
00000130: 8b6c ee3d 030a b63d 54fb 423d c4a1 20bd
00000140: bede 28be 9923 4d3e 065f d23d 4698 2c3e
00000150: a0f4 963d 2181 ef3e 001f 5a3e 7da5 60be
00000160: 812a a5be 8ec1 183e 65a9 1abb 6f14 983e
00000170: 73ef 9e3d b207 e8bc a882 63be 7337 c73e
00000180: fc94 053e b073 543e 24b6 163e ac87 55be
00000190: 0d06 5fbd 58f3 a5bc ad16 86bc 6bb5 60bb
000001a0: a9c1 ad3e d0c8 b8be d98a cebc fa2c 18be
000001b0: e360 6fbe 2d37 813e c5ed 82bd 4cb5 c9bd
000001c0: 4381 b93d 954d 42bd c6b0 133d 4d5b 143d
000001d0: 4e35 1ebd 9016 30bc 785b 323e 50c5 ae3e

module.fc2.weight f4 [84, 120]
-0.15748183 -0.05125242 0.055462997 0.10955134 -0.09487985 0.13693458 -0.0563159 0.18760072
0.21912634 -0.101379044 0.1519629 0.04969143 0.039794043 0.05756161 -0.0714076 -0.16553703
0.11216454 0.050418753 0.06397929 0.05500429 -0.124957785 0.042162992 0.11225757 -0.0023984425
0.1645657 -0.10470517 0.09209355 -0.18527603 -0.05949593 -0.07022028 -0.0678637 0.0038183331
-0.11212308 -0.12404801 -0.12726505 -0.094493315 0.16606107 0.022110842 -0.054717027 -0.202505
-0.044789452 0.16881421 -0.032004934 -0.09348215 -0.08580097 -0.1650053 -0.111968845 0.13877168
0.02536717 0.018683279 0.013954029 -0.06487745 -0.13823768 -0.17908514 0.12545982 0.06415779
0.21722072 -0.013120944 0.027063327 -0.21559536 -0.12322457 0.054747697 -0.15209539 -0.12931642
0.06431335 0.068536915 0.057482798 0.019322637 -0.07178727 0.008416482 -0.13353024 -0.15371177
0.111094885 0.0005489505 0.078048825 0.20382418 -0.14873236 0.028951457 -0.13743204 -0.094043635
-0.047634352 -0.16278115 -0.18808976 -0.054113436 -0.10755445 -0.13611099 0.16323343 -0.08582392
0.051479436 -0.026596157 -0.16458401 -0.054656237 -0.14026035 0.059379064 0.019097956 0.10656071
-0.06151269 -0.06366597 -0.10021715 -0.05288752 -0.057915926 -0.0063755023 -0.12635319 -0.063494675
-0.17614515 -0.035981894 -0.052905403 0.17552622 0.094967075 -0.102943674 -0.11647068 -0.020603772
0.096289836 -0.16694163 0.11237623 0.033022482 -0.15993202 0.09373658 -0.03101109 0.03805138
0.00024378495 0.17020793 0.11988471 -0.22390422 0.12306591 -0.06556477 0.14171898 -0.04184646
-0.041862536 -0.03927861 -0.21041963 0.19814146 -0.13293904 -0.0028769793 0.08950427 0.08601541
-0.026786812 0.027029615 -0.026262473 -0.021385634 -0.13529973 -0.17393143 -0.17647235 0.003378919
0.056907687 -0.24296379 0.09390113 -0.057143655 0.17444238 -0.0031919566 -0.22234496 -0.13683207
-0.22126468 0.10297792 -0.054136813 0.02351246 0.10365825 -0.21987462 -0.01810708 -0.19385527
0.019715074 0.12947102 -0.13277991 0.17513551 -0.047064763 0.18397717 0.22678775 0.054621547
-0.036155216 0.06954776 0.09652974 -0.21239573 -0.10819157 -0.009234525 -0.05441382 0.10890039
-0.11273541 -0.31226325 -0.08283104 -0.05550994 -0.028826252 -0.08734683 -0.12308172 0.061037794
-0.19128591 0.10947645 0.1957851 -0.06722326 -0.036194008 0.28353462 0.080928475 0.08451135
-0.10369664 -0.16013423 -0.088431984 0.04837026 -0.24252707 0.06753345 -0.30335993 0.014289095
-0.09238595 -0.070535965 -0.23799232 -0.0003313007 -0.07483245 0.013861651 -0.018770987 -0.083975606
-0.096086465 0.24757308 -0.034579974 -0.13610289 0.10053039 0.11274884 -0.0898549 -0.11417546
-0.13168542 0.012692051 -0.17799781 0.22534941 0.057554312 -0.21093383 -0.046497196 -0.13487412
-0.10058084 0.028274992 -0.061936777 -0.04861599 -0.0013255379 -0.18167813 -0.030522678 0.03708349
0.17949618 0.19958484 0.079218596 0.060862385 -0.081594944 0.022585308 0.043649446 -0.142996
-0.045209456 -0.0060183024 -0.22376171 -0.09370775 -0.11157107 -0.09811868 -0.003461861 0.20066741
-0.13064547 0.06775706 -0.08798087 0.024903642 0.04007971 -0.036305003 0.010489091 0.0888135
00000000: eb42 21be 0fee 51bd 2b2d 633d 745c e03d
00000010: 5e50 c2bd 9438 0c3e 80ab 66bd 671a 403e
00000020: a862 603e d19f cfbd 2a9c 1b3e 3e89 4b3d
00000030: 14ff 223d b9c5 6b3d 263e 92bd 8a82 29be
00000040: 86b6 e53d e583 4e3d 9307 833d 2e4c 613d
00000050: dee9 ffbd 1ab3 2c3d 4ce7 e53d 302f 1dbb
00000060: e983 283e aa6f d6bd 8b9b bc3d 00b9 3dbe
00000070: 01b2 73bd a6cf 8fbd 20fc 8abd 003d 7a3b
00000080: c9a0 e5bd e20c febd c551 02be b685 c1bd
00000090: ea0b 2a3e cc21 b53c f61e 60bd 795d 4fbe
000000a0: 2575 37bd a2dd 2c3e 9b17 03bd 9273 bfbd
000000b0: 6bb8 afbd 26f7 28be ec4f e5bd 2a1a 0e3e
000000c0: d0ce cf3c ad0d 993c 719f 643c 78de 84bd
000000d0: 2e8e 0dbe 1862 37be 8a78 003e 2965 833d
000000e0: 1c6f 5e3e 3af9 56bc e9b3 dd3c 08c5 5cbe
000000f0: 2a5d fcbd 1f3f 603d e5be 1bbe 866b 04be
00000100: b8b6 833d 155d 8c3d 1573 6b3d 824a 9e3c
00000110: 3405 93bd 49e5 093c 27bc 08be 9e66 1dbe
00000120: b785 e33d 72e7 0f3a 10d8 9f3d 49b7 503e
00000130: 4c4d 18be 9b2b ed3c fcba 0cbe f399 c0bd
00000140: 3d1c 43bd 1ab0 26be 9a9a 40be 0da6 5dbd
00000150: 8245 dcbd ae60 0bbe aa26 273e 74c4 afbd
00000160: 1adc 523d 2fe0 d9bc b688 28be 38df 5fbd
00000170: 69a0 0fbe 7637 733d 5173 9c3c 803c da3d
00000180: bbf4 7bbd 4e63 82bd a63e cdbd 96a0 58bd
00000190: 4039 6dbd 97e9 d0bb bb62 01be 7f09 82bd
000001a0: 655f 34be c061 13bd 56b3 58bd 25bd 333e
000001b0: 197e c23d 22d4 d2bd 2e88 eebd 3ec9 a8bc
000001c0: 9b33 c53d bff2 2abe 8225 e63d 9542 073d
000001d0: 38c5 23be f7f8 bf3d f80a febc c4db 1b3d
000001e0: 86a0 7f39 fd4a 2e3e 1d86 f53d 2647 65be
000001f0: fb09 fc3d d246 86bd c81e 113e 3267 2bbd
00000200: 0d78 2bbd 9ce2 20bd 3e78 57be 98e5 4a3e
00000210: 2c21 08be b48b 3cbb 044e b73d d928 b03d
00000220: 0470 dbbc 366d dd3c 6624 d7bc ed30 afbc
00000230: 038c 0abe 151b 32be 2bb5 34be db70 5d3b
00000240: 0918 693d 80cb 78be 3c4f c03d 770f 6abd
00000250: 06a1 323e 2530 51bb 66ae 63be b51d 0cbe
00000260: 3593 62be 16e6 d23d 90be 5dbd 349d c03c
00000270: c74a d43d d026 61be 4d55 94bc ff81 46be
00000280: 8281 a13c 0d94 043e 75f7 07be b956 333e
00000290: fbc6 40bd 8364 3c3e 0c3b 683e d8ba 5f3d
000002a0: 7e17 14bd 0e6f 8e3d 62b1 c53d 447e 59be
000002b0: 8b93 ddbd 684c 17bc 07e1 5ebd 2b07 df3d
000002c0: d3e1 e6bd f8e0 9fbe 52a3 a9bd 645e 63bd
000002d0: 0825 ecbc e5e2 b2bd 4512 fcbd c402 7a3d
000002e0: 74e0 43be 3035 e03d e47b 483e 59ac 89bd
000002f0: 2b40 14bd 732b 913e d4bd a53d 4914 ad3d
00000300: e75e d4bd 3afa 23be d41b b5bd e51f 463d
00000310: 0459 78be fa4e 8a3d fe51 9bbe cf1c 6a3c
00000320: d834 bdbd 2975 90bd 42b4 73be 6db2 adb9
00000330: c141 99bd fa1b 633c 9dc5 99bc 67fb abbd
00000340: fbc8 c4bd cc83 7d3e bba3 0dbd 8e5e 0bbe
00000350: e1e2 cd3d dde8 e63d d905 b8bd d3d4 e9bd
00000360: 8bd8 06be 52f2 4f3c 0f45 36be ffc1 663e
00000370: 12be 6b3d 0aff 57be d873 3ebd 711c 0abe
00000380: 54fd cdbd f5a0 e73c 6bb1 7dbd 8f21 47bd
00000390: acbd adba d509 3abe b20a fabc dce4 173d
000003a0: d9cd 373e f85f 4c3e 5c3d a23d d64a 793d
000003b0: 401b a7bd d304 b93c c3c9 323d 8b6d 12be
000003c0: 8d2d 39bd 2e35 c5bb ca21 65be d9e9 bfbd
000003d0: 607f e4bd 72f2 c8bd 64e0 62bb c27b 4d3e
000003e0: edc7 05be 37c4 8a3d 502f b4bd b902 cc3c
000003f0: 9f2a 243d 8eb4 14bd 70da 2b3c dae3 b53d

module.fc2.bias f4 [84]
-0.05250657 0.026874397 0.85424316 0.11377859 -0.009309209 0.6247961 0.17171659 0.18815167
0.024520176 0.42629263 1.0072559 0.15259957 -0.12403868 0.23351815 -0.044889204 0.16669878
0.10747423 0.9032654 0.37105587 0.069972835 -0.02273812 0.15838897 0.6555916 0.30791512
0.3387666 0.1775458 0.27293608 0.43167838 0.021064578 0.25461987 0.007334433 -0.008213355
-0.063610926 -0.2311006 -0.48684585 -0.14901832 0.44246456 0.3360385 0.06944362 -0.099979445
0.15948956 0.12045709 0.7157399 -0.04499594 0.14424743 0.3656174 -0.03502782 0.091092944
0.011905453 0.07658819 0.67486966 0.057388045 0.37792358 0.29720926 0.19513558 -0.08115175
0.84846395 0.18257588 0.40255818 0.017664472 -0.0481392 -0.063056484 0.120716326 -0.035591967
0.12355114 0.12148188 -0.08163485 0.26967403 0.09672395 0.3081183 0.11159941 0.21992992
0.07263896 0.38296455 -0.12636386 -0.07689052 0.22000834 0.41064215 0.059039865 0.18093166
0.2456177 0.13038976 0.61188763 -0.022614589
00000000: 2111 57bd b227 dc3c aeaf 5a3f c004 e93d
00000010: a785 18bc a3f2 1f3f 79d6 2f3e d5aa 403e
00000020: 89de c83c 0743 da3e c3ed 803f 1043 1c3e
00000030: fe07 febd 621f 6f3e bedd 37bd 16b3 2a3e
00000040: 731b dc3d 673c 673f 09fb bd3e eb4d 8f3d
00000050: 4b45 babc b830 223e dad4 273f 0da7 9d3e
00000060: d172 ad3e 91ce 353e 47be 8b3e f304 dd3e
00000070: 9f8f ac3c 895d 823e af55 f03b 4f91 06bc
00000080: 7246 82bd a3a5 6cbe dc43 f9be 4298 18be
00000090: b78a e23e 3d0d ac3e 7538 8e3d 06c2 ccbd
000000a0: 3b51 233e 35b2 f63d bb3a 373f aa4d 38bd
000000b0: 99b5 133e 3432 bb3e 5579 0fbd f08e ba3d
000000c0: 170f 433c 45da 9c3d 42c4 2c3f ba0f 6b3d
000000d0: 337f c13e d02b 983e 9fd1 473e e432 a6bd
000000e0: ef34 593f 2cf5 3a3e 1b1c ce3e 15b5 903c
000000f0: 9c2d 45bd c223 81bd 1f3a f73d e2c8 11bd
00000100: 6108 fd3d 7ecb f83d 2c30 a7bd b712 8a3e
00000110: 3517 c63d afc1 9d3e 3b8e e43d 4f35 613e
00000120: bcc3 943d ee13 c43e 8765 01be c778 9dbd
00000130: de49 613e b03f d23e c9d3 713d 2646 393e
00000140: 3583 7b3e e584 053e aba4 1c3f 3b42 b9bc

module.fc3.weight f4 [10, 84]
-0.027501462 0.17048518 -0.24386632 0.039664052 -0.021646397 -0.0015771932 -0.23578428 -0.1294824
0.11352144 0.11274587 -0.22710882 0.03803052 -0.28927886 0.1433299 0.21400851 -0.18546718
0.17332453 0.14100243 -0.28308862 0.15949774 0.020138659 0.21389319 0.11477778 0.14303686
0.16501327 0.13745768 0.02280054 0.11126255 0.09711212 0.19464941 0.12935057 -0.1594475
0.22666165 0.31039187 0.09593914 -0.014769649 0.15570605 0.15786274 -0.06430073 -0.10374757
-0.0263396 0.2742003 0.030600566 -0.05746955 -0.119657874 -0.14544651 -0.19308054 0.00057110935
0.08411276 -0.2019671 -0.08307491 0.17720667 0.26840684 -0.0063450933 -0.1616103 0.024811948
-0.3970054 0.22413364 -0.3874563 0.22668433 -0.016907312 0.02769205 -0.12053521 0.16378929
-0.16924627 -0.040691115 -0.14499152 -0.17005755 0.072643496 -0.021501372 -0.015782028 0.12875813
-0.15418226 -0.08515624 0.17175062 0.15920831 -0.04922114 -0.27571905 0.044631097 0.190937
-0.16426267 0.092777506 0.21122713 -0.03189685 0.28028098 0.14322412 -0.4015384 0.013179776
-0.01074758 0.034323223 0.18522994 -0.09592656 0.14895643 0.12752186 -0.11079701 0.25591382
0.17734617 0.111395955 0.19053133 -0.027844524 -0.3159911 -0.18430355 -0.13531226 0.41446668
0.23463896 0.20845725 -0.32042262 -0.20864236 -0.25971603 0.15854731 -0.19219485 -0.311478
0.12044334 0.04407733 0.048822813 0.012007427 -0.16319054 0.12977038 0.25361648 0.21669033
-0.1373158 -0.0841173 0.051776975 0.04592146 0.0028839018 -0.20898342 -0.10736734 0.23158747
0.026403064 0.11427664 -0.16822925 0.1918043 -0.070770025 0.031247396 -0.15223284 0.06588073
-0.048798133 -0.14171663 0.00089411915 -0.051241804 -0.1535012 -0.22138324 -0.05994081 -0.09477705
0.12454007 0.08111463 0.1624937 0.24408749 0.2564338 -0.06606417 0.2149081 0.009873133
-0.11926302 -0.06645664 0.23310143 0.02724409 0.07138505 -0.21091159 -0.04148227 -0.12854141
-0.054274473 -0.024326682 0.022748629 -0.3390927 -0.14787616 0.14463566 -0.038818777 0.11174266
0.03636303 0.0894476 0.23326167 -0.18122378 -0.11972554 -0.12629713 -0.071375564 0.04947993
-0.14857428 -0.18603785 0.24888603 -0.026711682 -0.0010013295 -0.16880894 0.0954713 -0.10781524
0.24095401 0.21014097 0.18542214 -0.13018191 -0.112111546 -0.23520376 0.11531381 0.1980436
0.022581976 -0.074092306 0.20213518 -0.04857874 -0.08659458 -0.041293982 0.07562672 -0.067097835
-0.0034829578 -0.1424525 0.011854144 -0.053052794 0.0035521633 0.10352352 -0.108394116 0.0118105905
-0.095253356 0.015541223 0.12784438 -0.13777621 0.2933585 -0.08816555 0.0914324 -0.029545894
0.0465836 -0.038478382 0.05880304 0.149958 0.16133156 0.00088932505 0.10555994 -0.012623226
-0.011614587 0.28021744 0.05356563 -0.026662072 -0.1071306 0.27325806 0.14146987 -0.032824546
0.12257825 0.04277818 -0.07293643 -0.20261496 -0.19035053 -0.0016256081 -0.07384733 0.26338974
-0.13582154 0.055905074 0.062469654 -0.0020916564 0.3131481 -0.03548039 -0.011325076 0.19023424
0.097866304 0.09445081 0.0063713375 0.27097684 -0.113326155 0.0627303 0.17934841 0.002783948
00000000: bf4a e1bc ab93 2e3e 18b8 79be c676 223d
00000010: c953 b1bc d2b9 ceba 6f71 71be 0997 04be
00000020: ee7d e83d 4fe7 e63d 378f 68be e4c5 1b3d
00000030: 5c1c 94be 13c5 123e 0c25 5b3e 1ceb 3dbe
00000040: fc7b 313e f162 103e fef0 90be 6053 233e
00000050: d4f9 a43c d106 5b3e 9d10 eb3d 4178 123e
00000060: 3df9 283e b5c1 0c3e 33c8 ba3c 9fdd e33d
00000070: b8e2 c63d 2d52 473e 7a74 043e 3546 23be
00000080: fe19 683e afeb 9e3e bd7b c43d 66fc 71bc
00000090: 6871 1f3e c5a6 213e 1ab0 83bd 9b79 d4bd
000000a0: 25c6 d7bc fb63 8c3e 0aae fa3c 3165 6bbd
000000b0: 300f f5bd eeef 14be e8b6 45be 80b6 153a
000000c0: 5043 ac3d 77d0 4ebe 2e23 aabd aa75 353e
000000d0: 9f6c 893e 80ea cfbb 2c7d 25be 6d42 cb3c
000000e0: 4b44 cbbe 4a83 653e ac60 c6be f01f 683e
000000f0: 3481 8abc 70da e23c 2adb f6bd 61b8 273e
00000100: e54e 2dbe baab 26bd a878 14be 9123 2ebe
00000110: 1dc6 943d a523 b0bc 5049 81bc 2cd9 033e
00000120: f4e1 1dbe 6566 aebd 65df 2f3e 8107 233e
00000130: 1b9c 49bd 0c2b 8dbe 19cf 363d fd84 433e
00000140: 7934 28be 2202 be3d ed4b 583e 45a6 02bd
00000150: fd80 8f3e 58a9 123e 7196 cdbe fdef 573c
00000160: 9e16 30bc 8296 0c3d ebac 3d3e 2575 c4bd
00000170: 0988 183e 1795 023e 8be9 e2bd 2307 833e
00000180: 3c9a 353e 9023 e43d a51a 433e 331a e4bc
00000190: 96c9 a1be 12ba 3cbe 4c8f 0abe fa34 d43e
000001a0: 3245 703e d175 553e 6f0e a4be 58a6 55be
000001b0: 80f9 84be 3a5a 223e bace 44be 0b7a 9fbe
000001c0: ffaa f63d 6e8a 343d 6efa 473d cdba 443c
000001d0: 6c1b 27be 87e2 043e 05da 813e 12e4 5d3e
000001e0: 839c 0cbe b145 acbd 1814 543d 2418 3c3d
000001f0: d8ff 3c3b c0ff 55be 68e3 dbbd 4425 6d3e
00000200: 3d4b d83c df09 ea3d 4a44 2cbe 5968 443e
00000210: e0ef 90bd 8afa ff3c ede2 1bbe 7aec 863d
00000220: 8de0 47bd 2a1e 11be 5263 6a3a ede2 51bd
00000230: 6b2f 1dbe 4ab2 62be 7f84 75bd 781a c2bd
00000240: dd0e ff3d 6d1f a63d c064 263e 12f2 793e
00000250: 4b4b 833e a74c 87bd de10 5c3e ecc2 213c
00000260: 2c40 f4bd 6b1a 88bd 24b2 6e3e ff2e df3c
00000270: 5332 923d 35f9 57be 50e9 29bd 5ca0 03be
00000280: e94e 5ebd c048 c7bc 555b ba3c 8f9d adbe
00000290: d96c 17be 5f1b 143e 7000 1fbd 56d9 e43d
000002a0: 67f1 143d 4e30 b73d 26dc 6e3e ba92 39be
000002b0: aa32 f5bd 0954 01be 5a2d 92bd 78ab 4a3d
000002c0: db23 18be b580 3ebe fbdb 7e3e 75d2 dabc
000002d0: 0b3f 83ba 40dc 2cbe 7586 c33d 3dce dcbd
000002e0: a6bc 763e 322f 573e 4ddf 3d3e 684e 05be
000002f0: bd9a e5bd 41d9 70be a629 ec3d f1cb 4a3e
00000300: d6fd b83c b5bd 97bd 86fc 4e3e 80fa 46bd
00000310: 8058 b1bd e123 29bd 2fe2 9a3d 976a 89bd
00000320: 5642 64bb 11df 11be e237 423c e34d 59bd
00000330: 69cb 683b 2404 d43d bcfd ddbd 3581 413c
00000340: 3114 c3bd 9da0 7e3c a3e9 023e 3515 0dbe
00000350: 1633 963e 2490 b4bd e940 bb3d 3b0a f2bc
00000360: 72ce 3e3d 829b 1dbd 75db 703d 978e 193e
00000370: 1a34 253e 9821 693a cf2f d83d a6d1 4ebc
00000380: 1c4b 3ebc a978 8f3e a267 5b3d 6b6a dabc
00000390: 4a67 dbbd 7be8 8b3e 7add 103e 0873 06bd
000003a0: 4e0a fb3d 2c38 2f3d b25f 95bd 4c7a 4fbe
000003b0: 40eb 42be 5b12 d5ba 453d 97bd 05db 863e
000003c0: cd14 0bbe b8fc 643d 2ee0 7f3d 2c14 09bb
000003d0: f354 a03e e353 11bd d08c 39bc c4cc 423e
000003e0: 216e c83d 6d6f c13d a7c6 d03b 7abd 8a3e
000003f0: 8b17 e8bd be78 803d 1ca7 373e e672 363b

module.fc3.bias f4 [10]
-0.23896088 -1.1133875 -0.09038927 0.6328679 0.72692233 -0.067278676 0.02536242 -0.33209065
0.4703384 -0.3744248
00000000: 29b2 74be 7b83 8ebf 021e b9bd a103 223f
00000010: 9517 3a3f 67c9 89bd dac4 cf3c c907 aabe
00000020: 32d0 f03e 9bb4 bfbe
