models/classifier_net_epoch_5_8000.pth (torch_old, 249853 bytes, 10 tensors)

module.conv1.weight f4 [6, 3, 5, 5]
000000 d7 21 e4 3d b3 8b a4 3e e4 0c bf 3e 1f 9d 10 3f
       0.11139267 0.32137832 0.37314522 0.5648975
000010 3f 5c 84 3e f6 0b 16 3e 6f 0c 78 be a7 a3 f5 3d
       0.25851628 0.14653 -0.24223493 0.11994105
000020 13 73 68 3f 8b 09 ec 3d 78 46 8b 3e aa 06 85 be
       0.9080059 0.11525258 0.272022 -0.25981647
000030 65 61 6c bf b2 81 49 3f c1 77 85 3e fd 84 9e 3d
       -0.9233611 0.78713524 0.26067927 0.07740209
000040 33 b5 ed ba fe 33 4d bf 06 6f 84 3d 0f f7 ef bd
       -0.0018135667 -0.8015746 0.064664885 -0.117170446
000050 62 f1 1f be 0b 8a 20 bd 21 3f 13 bf 2d 0d ba 3d
       -0.15619424 -0.039194148 -0.575182 0.09084544
000060 24 0e a0 be 68 0c 59 bd f6 93 c5 be a3 41 1c bf
       -0.31260788 -0.052990347 -0.38589448 -0.61037654
000070 dc 22 43 be b6 0b e2 be e5 18 d5 3e 7d aa 1c bf
       -0.19056267 -0.4414956 0.41620556 -0.61197644
000080 02 0f 30 bf b3 a2 be 3e 25 21 72 be 73 e9 33 3f
       -0.687729 0.37233505 -0.23645456 0.7027809
000090 ee 62 93 be 36 2e 99 bf 20 9e 1e 3f e6 e2 05 3e
       -0.28786415 -1.1967227 0.6196003 0.13074836
0000a0 56 ed 08 3f b9 80 8f 3e dc e1 72 bf fa 2b 62 3e
       0.53487146 0.28027895 -0.94875884 0.22087088
0000b0 98 25 2b be 7f 3d 06 3f 6c ad 23 3e 76 70 8b be
       -0.1671356 0.52437586 0.15984124 -0.27234238
0000c0 f7 80 f9 3e 0f 1b 51 bd 51 bf 86 bd 98 c6 12 bd
       0.48731205 -0.051051196 -0.065794595 -0.035833925
0000d0 2d 85 97 bc 70 84 4f 3e dd 99 5e be 70 d8 9e 3e
       -0.01849612 0.20265365 -0.21738382 0.31024504
0000e0 a6 14 be be 96 6f 75 be 55 67 21 3f 57 46 00 bf
       -0.37125129 -0.23968348 0.630483 -0.5010733
0000f0 fc c8 1a 3f ad d9 66 be f2 03 57 bf c6 90 15 3f
       0.6046293 -0.22543974 -0.83990395 0.5842403
000100 73 98 40 be a9 a5 0a 3f 0a 54 da 3e 02 ea 2a bf
       -0.18808155 0.5415903 0.42642242 -0.6676332
000110 a7 ef 15 3e 15 1d 8e be 5e a0 cb 3e 20 90 ac 3e
       0.14642201 -0.27756563 0.39770788 0.3370371
000120 3a b1 56 be 32 90 76 3e 81 ae 8f be 77 27 1c be
       -0.20966044 0.24078444 -0.28062823 -0.1524943
000130 82 89 6c 3e 8f ed 39 3e c7 8e 2d 3e 68 29 8f ba
       0.2309933 0.18157028 0.16948996 -0.0010922374
000140 fe c3 39 bc 22 b7 f8 3e 38 e0 1c 3e ba 43 9f bd
       -0.011338232 0.4857722 0.15319908 -0.0777659
000150 14 34 e0 bd 42 f3 4e 3e 1a fd d5 bd b8 cb 05 bf
       -0.10947433 0.20209983 -0.10448666 -0.52263975
000160 90 fb d4 be e8 43 77 be a5 87 49 be 3a e9 2c bf
       -0.41598177 -0.24146998 -0.1968065 -0.67543375
000170 70 0d 09 bf f2 1c b8 bd 54 53 73 3d 1b e9 b9 bd
       -0.5353613 -0.08989896 0.05940564 -0.090776645
000180 26 9f 9b 3d 41 2e 93 3e 7a c4 06 3f 9b 5e a0 3e
       0.075987145 0.28746226 0.5264355 0.31322178
000190 7d bc c6 be c0 5c 95 bb 71 15 5d bd 95 ea 9d bd
       -0.3881568 -0.004558176 -0.053975526 -0.077107586
0001a0 a1 6e 58 be 01 75 40 3d 1b 99 ce 3e a8 cf bf bc
       -0.21135952 0.046986584 0.40351185 -0.023414448
0001b0 63 2b 27 be 81 95 8d be 0b 53 c5 3e 39 2f 06 3d
       -0.16325144 -0.27653125 0.3853992 0.03275988
0001c0 a0 af d1 be 7b 02 e7 be f0 43 47 be 64 73 30 bd
       -0.40954304 -0.4511908 -0.1945951 -0.043078795
0001d0 27 fb f7 be cc 57 d7 be 64 b3 d0 bd 3d 4e 9c 3c
       -0.48433802 -0.4205917 -0.10190466 0.019080276
0001e0 98 f4 d8 3c 5c 67 ee bd 8b ad 51 3e c7 89 b3 3e
       0.026483819 -0.11640808 0.20476358 0.35066053
0001f0 ec 25 2e 3e 5d f1 27 be a3 bd ec 3d 50 9a 99 3d
       0.17006654 -0.16400667 0.11559608 0.07500136
000200 75 2a 81 3e fe c0 ca 3c cb 20 2a 3e 6b 07 07 3f
       0.25227705 0.024750229 0.16614072 0.52745694
000210 a8 1d e0 3e 8f 83 cd 3d 8b 25 aa bd 4d 5d e1 3e
       0.43772626 0.100348584 -0.08307942 0.44016495
000220 c0 d0 91 3e b1 f5 28 be c0 ec ba be 3d 31 13 be
       0.28479576 -0.16499974 -0.3650875 -0.14374252
000230 5a 5a bf 3d 81 c0 fa be 26 d8 c8 be da a7 3f be
       0.09343405 -0.48974994 -0.39227408 -0.18716374
000240 04 8f a9 3d 9c 17 53 bc 53 33 0f be 2d f4 93 3e
       0.08279231 -0.012884047 -0.13984422 0.2889723
000250 4b 27 2f 3e a3 05 4f bd 33 7f 03 3c ab db b4 bd
       0.17104833 -0.050542485 0.008025932 -0.08830961
000260 22 4a 29 be 2d e2 4f bd e5 e0 7a bd 6d 8d d8 3d
       -0.16532186 -0.050752807 -0.061249632 0.1057385
000270 82 c3 9d 3e 7f 74 11 3e a4 15 1f 3e 41 60 ad 3d
       0.30813223 0.14204596 0.15535599 0.084656246
000280 e6 b3 1f be 7c a3 90 bd 5b 53 d2 3c 53 ec 28 bd
       -0.1559597 -0.07062432 0.025674513 -0.041241
000290 59 89 ae 3c 2e d5 de be 0f 8e d6 be 35 d2 e1 be
       0.021305727 -0.43522018 -0.41905257 -0.44105688
0002a0 a9 fa fc be 79 ec cc be d8 20 24 be b6 a8 9b be
       -0.4940999 -0.40024164 -0.16028154 -0.30402154
0002b0 ba d4 80 be 87 f5 82 be ab f4 2d be 52 01 90 be
       -0.25162297 -0.25577947 -0.16987865 -0.28126007
0002c0 d3 98 98 be 92 e8 3c be 46 ff 5a be 00 41 88 be
       -0.29804096 -0.18448094 -0.21386442 -0.2661209
0002d0 a6 c5 8c 3e 8d 31 b4 3e 6f e2 dc 3e 48 3c 8f 3e
       0.27494544 0.35194054 0.43141505 0.27975678
0002e0 21 32 80 3e 8b ca 90 3b b5 56 d4 3b 43 e6 c3 3d
       0.25038245 0.0044186763 0.006480063 0.09565403
0002f0 f0 6d e3 3d e8 c4 17 3e 00 36 9d be 36 8d d7 be
       0.11104953 0.14821208 -0.3070526 -0.42099923
000300 cc a2 98 be fc b1 82 be 70 83 4c be eb 4f 7d bd
       -0.29811704 -0.25526416 -0.19972014 -0.061843794
000310 77 f0 28 be 05 7a b7 bd 30 58 17 3d 1d e3 66 3d
       -0.1649798 -0.0895882 0.036949337 0.056368936
000320 2c aa 44 be 9a 2f 87 3b d3 2a 87 bd 8b d6 2a be
       -0.1920554 0.0041255476 -0.06599965 -0.16683404
000330 b0 a8 8f be c9 93 c0 3e ee 73 a7 3e 44 eb 0c 3f
       -0.28058386 0.3761275 0.32705635 0.55046487
000340 e1 9b 01 3f e5 7a 9f 3e 15 98 24 3e dd 30 88 3e
       0.5062848 0.3114845 0.1607364 0.2659978
000350 3f f1 81 3e ce 60 bf 3e 90 25 69 3e c7 09 0f 3d
       0.2537937 0.37378544 0.22768235 0.034921434
000360 85 c7 00 3e 70 ee 9b 3c dc 33 93 3d 65 42 dc 3d
       0.1257611 0.019034594 0.07187626 0.10754851
000370 91 53 eb 3d a3 cf 06 3e bf bc 20 3e 70 eb 92 3e
       0.114905484 0.13165145 0.15697001 0.2869525
000380 54 11 4b 3e 82 49 2d 3e 33 1e 90 3e 5f 9d 53 be
       0.19830829 0.16922572 0.2814804 -0.20665501
000390 fa 3c 07 3d 9e 35 0c be 75 00 a2 3e ee a5 55 be
       0.033017136 -0.13692328 0.31640974 -0.20864078
0003a0 7c 39 d0 be 1a c6 3d 3e 42 12 c3 3d 8c f3 8f 3e
       -0.40668857 0.18532601 0.09524967 0.281155
0003b0 81 56 bc be 44 d0 c5 be 38 83 f0 3e 7e 5f c9 3c
       -0.36784747 -0.38635457 0.46975112 0.024581667
0003c0 9c 7b f3 bd be c2 03 bf b0 5e 85 bd 0b 69 cf 3e
       -0.11888811 -0.5146903 -0.06512201 0.4050983
0003d0 4b 16 05 3e b0 ce 20 bc 7d 08 80 be 1d 84 1c 3e
       0.12996785 -0.009814903 -0.25006476 0.15284772
0003e0 c4 07 c1 3e 09 a4 bc bd 1a 15 b5 3d e1 02 80 3d
       0.37701237 -0.09210975 0.088419154 0.06250549
0003f0 bd 17 90 be 30 a3 e9 3d 86 0b 50 3d e1 dd 26 3e
       -0.2814311 0.11408079 0.05079224 0.16295578

module.conv1.bias f4 [6]
000000 46 fe 8e be dd 7c 28 bf ab db 1f 3c 32 67 59 be
       -0.2792837 -0.65815526 0.009756963 -0.21230772
000010 2f 76 b8 bd 33 1d 84 be
       -0.09006917 -0.25803527

module.conv2.weight f4 [16, 6, 5, 5]
000000 cf 04 c0 3e 5d 5b 7a bd 21 1a f9 3e 66 f3 c6 3c
       0.3750367 -0.061122287 0.48652747 0.024285983
000010 db bf 85 bd c8 2a 45 3e 50 31 f6 bd 04 22 91 3e
       -0.06530734 0.19254601 -0.12021124 0.28346264
000020 39 b1 9b 3e 82 64 6b bc 97 b6 2c 3e 88 52 df bd
       0.30408648 -0.014367225 0.16866527 -0.109044135
000030 67 16 d1 3d ed 5a 99 3e 78 04 b5 bd c8 a9 68 bd
       0.10209351 0.29952183 -0.08838743 -0.05680254
000040 ee c8 47 3d 42 ce a7 3d 2c 67 32 3e 67 9f 85 3d
       0.048775606 0.081936374 0.1742217 0.06524544
000050 19 03 c1 bd 06 76 04 be fa 09 35 be 0c 93 04 be
       -0.09424419 -0.12935647 -0.17679587 -0.12946719
000060 0c f0 14 bd 43 d1 b5 bd f5 ab 2f 3e eb 32 1e 3e
       -0.03636174 -0.08877804 0.1715544 0.15449111
000070 76 c7 21 3c 13 c0 49 bd 03 25 76 be 84 c4 b8 bc
       0.009874215 -0.049255442 -0.24037556 -0.022554643
000080 e8 9f 52 3d f1 2d b3 bb ed 5d 00 3d 5f 63 9d be
       0.05142203 -0.005468123 0.031339575 -0.30739877
000090 76 07 79 bd c4 20 ee 3d 24 7d d4 3d 41 3c 03 3e
       -0.06079813 0.11627343 0.10375431 0.12815954
0000a0 35 cf ad be 65 cc 8f be 66 95 92 bd ca 48 93 3d
       -0.3394715 -0.28085628 -0.07157402 0.07191618
0000b0 1d dd 39 3d df 8f 8c be 22 fb c0 bd 7a ff 0a be
       0.045376886 -0.27453515 -0.094229 -0.13574019
0000c0 1e 51 76 bd 91 7b 56 3c a4 43 c1 bb 88 9d 25 bd
       -0.060135953 0.013090984 -0.005897956 -0.040433437
0000d0 d6 ad 3f bd 05 ca 1d 3d d8 29 e1 3c 68 fd 8d be
       -0.046796642 0.03852274 0.027485773 -0.27732396
0000e0 6c e6 2e be f3 d5 05 be f6 3d 94 bd bb 8d de bd
       -0.17080086 -0.13069896 -0.072383806 -0.10866877
0000f0 c5 08 a9 be e8 f2 8c be b9 81 89 be 6a da 31 be
       -0.33014503 -0.27529073 -0.26856783 -0.17368475
000100 f3 4b e1 bd 36 4a 36 be be 72 2d bd 3d bf 73 3c
       -0.11000814 -0.17801747 -0.042345755 0.014877138
000110 46 f6 a1 bd 54 f2 9c 3d 42 c0 1f be a4 53 68 bd
       -0.07908301 0.07663408 -0.15600684 -0.05672039
000120 b1 0a 07 bd 8f c7 59 3d 94 f0 e0 bc 30 48 b3 3e
       -0.03296918 0.05316883 -0.027458467 0.35016012
000130 da b8 94 3d d7 e8 51 bc 8d 51 c6 3e fd 8f 33 3d
       0.0726182 -0.012811861 0.38734093 0.04383849
000140 93 61 8c bb ab 2a 80 b9 e6 41 12 be 67 d1 13 3e
       -0.0042840927 -0.00024445853 -0.14282951 0.1443535
000150 04 cf 2e 3e 38 41 93 bd 91 c3 8f 3d 30 c6 4d be
       0.17071158 -0.07190174 0.07019723 -0.20095134
000160 37 be 20 be 33 1b 8a 3e db 50 7a be 8c 9a 94 3d
       -0.15697561 0.26973876 -0.24444906 0.0725604
000170 e2 64 e3 bd 82 66 43 be ae 62 89 3d 28 8c a9 be
       -0.11103226 -0.19082072 0.06708275 -0.33114743
000180 82 68 1c 3d 78 fe c7 bd b4 e0 30 be 78 9d 8d be
       0.038185604 -0.09765333 -0.17273217 -0.27659202
000190 fd ad 42 bd ab 37 c5 bd f8 a3 60 be 28 b4 a5 ba
       -0.04752921 -0.096297584 -0.21937549 -0.0012642192
0001a0 4d c3 27 3d 79 a6 ae bd 76 26 89 bd 08 97 08 be
       0.040957738 -0.08527846 -0.06696789 -0.13338864
0001b0 25 8e c3 bd 8d a8 04 be 7a 1f 63 bd 00 a8 15 bd
       -0.09548596 -0.12954922 -0.05544994 -0.03653717
0001c0 5c d9 e3 3c d1 c6 72 bb 94 99 67 bd d4 62 62 bd
       0.027813606 -0.0037044773 -0.056542948 -0.05527003
0001d0 eb 34 8c b8 e1 72 0a 3d 8e b0 1f 3d 3f 3d 26 ba
       -6.685577e-05 0.033800963 0.038986735 -0.0006341524
0001e0 2e 09 b9 bd 65 3b 91 bc 18 92 0d 3d 21 5e 25 3e
       -0.09034954 -0.017728517 0.034563154 0.16149189
0001f0 c6 af fa 3d d7 6a 31 be e8 6a 1d bd 9f 13 38 be
       0.122405574 -0.17325912 -0.038432032 -0.17976235
000200 99 f7 27 bc 21 40 02 3a bb 09 af bd e0 fa da bd
       -0.010251903 0.00049686624 -0.08546778 -0.10692382
000210 dc 75 e4 bd 62 f3 0e bd f7 49 27 3d 8a 9b 5c 3d
       -0.111552924 -0.034900077 0.040842023 0.05385927
000220 c4 88 6c bc 3c 55 60 be 7d 8d 35 be 4b 41 c3 bd
       -0.014436904 -0.21907514 -0.17729755 -0.09533938
000230 8e d3 f1 bd dc 6c 0e 3e 58 8a 00 be cf 6d 34 be
       -0.11807929 0.13908714 -0.12552774 -0.17620014
000240 c5 b4 55 be 34 23 6e bb e2 e0 85 3d 91 0d 65 3c
       -0.2086974 -0.00363369 0.065370336 0.013980285
000250 33 3e f6 bc 8b 0e 27 be df d7 98 bd a4 f7 bd bc
       -0.030058956 -0.16314141 -0.07463049 -0.023189373
000260 a2 a8 9b 3d 9e a3 b6 bd 12 ae 59 3d 61 01 bc bd
       0.076005235 -0.08917926 0.053144522 -0.091799505
000270 24 6f 06 3d f7 19 b0 bc a8 e7 71 3d be a8 c7 3d
       0.032820836 -0.021496756 0.059058815 0.09748982
000280 5a e4 c8 3e 5c e7 15 be 31 c2 30 be 9b 32 d0 3c
       0.39236718 -0.14639038 -0.17261578 0.025414756
000290 4c 99 7e bd cb 1d 09 3f bd 79 24 3f 27 32 9b 3c
       -0.062157914 0.53561085 0.6424826 0.018944813
0002a0 c5 59 34 be a4 3a 72 be d8 2e ba be ff 15 3a 3c
       -0.1761237 -0.23655182 -0.36363864 0.011357783
0002b0 d0 ac a7 3e eb 6b 7b 3e a9 37 29 3e cc 95 35 bd
       0.32749033 0.24552886 0.16525139 -0.04433231
0002c0 ea 06 5d be f8 70 d5 bc 7d 68 c1 bc ad 41 21 bd
       -0.21584669 -0.026054844 -0.023609394 -0.039369274
0002d0 fc 97 39 3c 6e c1 3c be 00 5b 77 be 13 a7 15 be
       0.01132774 -0.18433163 -0.24155807 -0.14614515
0002e0 d5 0a 0b 3e 3b 4b 40 3d 9f a3 56 bd 81 c1 9c be
       0.13578351 0.046946745 -0.052402135 -0.30616382
0002f0 1c eb f8 bd bd 02 af 3d 61 c9 28 3e 42 76 eb 3d
       -0.121542186 0.08545444 0.1648307 0.11497165
000300 77 85 1d 3d 36 8f 02 be f3 d3 f8 bc 9c c5 79 bc
       0.03845736 -0.12749943 -0.030374503 -0.015244868
000310 04 82 4c 3e 60 23 0b 3e 3c ad 89 3e e0 c0 00 3e
       0.19971472 0.13587713 0.2688998 0.12573576
000320 00 a6 cd 3d 57 2b 05 3e 88 af 52 3d 00 ba a8 bb
       0.100414276 0.13004814 0.05143693 -0.005149126
000330 88 a3 d1 3d 6d 71 0b 3d 73 f7 cd 3d bf b0 d9 3d
       0.10236269 0.034043718 0.10056963 0.10629415
000340 b4 cf ef 3c 83 dc 99 bc 64 3d 32 bd f3 4f 59 3e
       0.029273845 -0.018781906 -0.043515578 0.21221904
000350 df 07 f8 3d eb 55 7f 3d 75 a6 9f bd 36 5b 18 bf
       0.12110876 0.062337797 -0.07795421 -0.59514177
000360 cd ad b3 3c 28 82 a4 3e 3d 22 27 3e 43 f0 b4 be
       0.02193346 0.3213055 0.16321655 -0.35339555
000370 28 13 86 be 82 7c a5 be ac a3 b5 3c 9f bf 32 3e
       -0.2618649 -0.32321554 0.022172771 0.1745591
000380 e8 d8 91 3e 11 d5 53 bd f6 9e 2f be f3 e3 9e bd
       0.284858 -0.051716868 -0.17150483 -0.077583216
000390 4b 75 10 bb 3a 83 ff 3d d2 5e aa 3c 4c 31 bf 3a
       -0.0022042568 0.12476201 0.020797167 0.0014586835
0003a0 a7 f0 dd bc 10 2c 1b 3d e5 cb 0d be ab 74 8a bd
       -0.027092291 0.03788382 -0.13847311 -0.06760534
0003b0 0d 6a 27 3e 88 3a 66 bd f0 79 a1 bd 5e 22 28 be
       0.16349049 -0.056208163 -0.07884586 -0.1641936
0003c0 0e 4e 98 be da 2e 13 be d7 ec 44 3e 10 c1 33 3e
       -0.2974705 -0.14373341 0.19230972 0.17554116
0003d0 98 a7 8c 3e 54 ab b6 be da ab 07 bf 0a ee be be
       0.27471614 -0.35677588 -0.529966 -0.37290984
0003e0 5e be 40 be b2 63 a1 bd 49 da 07 be fc 9d d2 bd
       -0.1882262 -0.078803435 -0.13266863 -0.102840394
0003f0 96 42 c2 bd 81 14 98 3d 3f 68 7a 3d 26 46 0a be
       -0.094853565 0.07425786 0.061134573 -0.13503322

module.conv2.bias f4 [16]
000000 77 f7 59 3e 88 43 ae bf 33 75 5c bf d7 dd c7 bd
       0.21285807 -1.3614359 -0.8611633 -0.097591095
000010 fe 60 44 3f df 69 66 3e 5b 4f f0 3d d6 0a 77 3f
       0.767105 0.22501324 0.11733886 0.9650091
000020 e7 cf 51 be 72 48 7c be f6 17 40 bf ee c8 a5 3f
       -0.20489465 -0.2463701 -0.7503656 1.2951944
000030 a0 7b bd 3e 28 5c 09 bf 2d 79 f3 3d d0 24 11 3f
       0.3700838 -0.53656244 0.11888347 0.56696796

module.fc1.weight f4 [120, 400]
000000 e2 f4 be bc da f2 0e 3b d1 e7 39 bd 0d 99 fb 3b
       -0.023310129 0.0021812231 -0.045387093 0.007678157
000010 90 60 90 bd 3b 13 bb 3d 1f 9d d4 3c 03 a6 36 3d
       -0.07049668 0.09134527 0.025953827 0.044591915
000020 35 e4 88 3c 00 1c 33 3c 72 31 d3 3c 7e a5 fa bb
       0.01671038 0.010931969 0.025780413 -0.0076491227
000030 d6 18 17 bd 11 3a 26 3d 2d 31 5d 3d b4 08 48 3d
       -0.03688892 0.04058272 0.054001976 0.048836425
000040 39 91 aa bc 32 fe 10 be 02 b8 43 bc 53 4d b3 bc
       -0.0208212 -0.14159468 -0.011945726 -0.021887457
000050 d4 13 b5 3c e6 d9 6d ba 0b b3 69 bd e2 96 71 bd
       0.022104181 -0.0009073302 -0.057055514 -0.058981784
000060 b3 7f 22 3d 76 ba b8 3d 63 ed 1c 3c 87 96 20 3d
       0.039672565 0.090199396 0.009578082 0.039206054
000070 81 23 f4 3d 0b 3c 0d 3e 5a 07 87 3d 8c 3e 01 3d
       0.11920834 0.13792436 0.06593199 0.03155379
000080 c2 cf 0a 3d c5 21 a0 3d c5 50 08 3e f4 d4 52 3e
       0.03388954 0.07818941 0.13312061 0.20589048
000090 e4 49 38 3d 0a e2 d8 bb 05 a4 03 3d 92 f0 33 3c
       0.044992343 -0.006618743 0.032138843 0.010982649
0000a0 6a a1 26 bd 1e b0 fa bc a0 55 2e be 11 cd 52 bd
       -0.04068128 -0.030601557 -0.17024851 -0.051465098
0000b0 34 50 9e 3c 1c 4d 53 be 56 b8 58 bd cf be 16 bd
       0.019325353 -0.20634884 -0.05291017 -0.036803063
0000c0 7a 4a da bd 80 22 ec bb 6d 0d 00 3e 2d ad 38 3a
       -0.106587365 -0.007206261 0.12505122 0.0007044848
0000d0 f3 8f 17 3c 5d d0 d2 bb fd 46 12 be 0b 86 81 3b
       0.009250629 -0.0064335302 -0.14284892 0.0039527467
0000e0 21 26 5d bd 9e fd 92 3b 64 9b e4 bb c5 cb 8d bd
       -0.05399144 0.0044858 -0.006976532 -0.069236316
0000f0 ae 98 b7 3b 1d e5 8d 3d 9f 77 b9 bd 36 8e cb bd
       0.0056029176 0.069284655 -0.09056019 -0.09939234
000100 2e 02 9e bd a5 b8 c5 3d 18 7e de 3b ff 4a 9a bd
       -0.077152595 0.09654359 0.006789934 -0.075338356
000110 cb 8b b5 bd 0e e5 9b bd 7c b0 19 be 3e 1f f6 bb
       -0.08864554 -0.07612048 -0.1500873 -0.0075110486
000120 cd 6f cb bd 64 2c 20 bd 2a fd f3 bc 49 d6 70 bc
       -0.09933434 -0.039104834 -0.029783804 -0.014699527
000130 94 30 e3 bd 14 62 d7 bc 57 f0 99 bc 44 c2 22 bc
       -0.1109325 -0.026291884 -0.01879136 -0.009934012
000140 53 13 c7 bc b6 af be bd 81 23 89 bd 7a 8f 66 bd
       -0.024301207 -0.09310858 -0.06696225 -0.056289174
000150 f7 86 75 3d 52 3f bc bd 44 8d a0 bd 7c 1b 51 ba
       0.059943166 -0.09191765 -0.07839444 -0.0007976813
000160 81 95 42 bd 31 80 e8 3c 28 7d ad bd 33 7f a1 bd
       -0.04750586 0.028381439 -0.08471137 -0.078855895
000170 85 4b bf bc 79 49 89 bd 2f 5b 90 3d ef c3 ca 3d
       -0.02335144 -0.06703467 0.07048642 0.099006526
000180 3b 4c 42 3d d9 04 bb 3c 61 f7 9b bb f3 1a d8 3d
       0.04743598 0.02282946 -0.0047597145 0.10552015
000190 69 88 bd 3d 50 32 5c 3d 89 db e3 3d ce a1 31 3d
       0.09254534 0.05375892 0.111258574 0.0433672
0001a0 ae b4 42 bd 3b cd 05 3d 52 4f 45 3d 89 c4 03 3e
       -0.04753559 0.032666426 0.04817135 0.12867941
0001b0 44 69 2e 3d bc 25 4b bd 5f 52 35 3d ed fe 1a 3d
       0.042580858 -0.049596533 0.04426801 0.037840772
0001c0 32 e8 0f 3e 9a a8 0f 3e 02 1d d8 bd 0a 52 b9 3c
       0.14053419 0.1402916 -0.10552408 0.022622127
0001d0 5d 0f 08 bd 39 74 a3 3c 71 ab f7 bc 1b 31 37 bd
       -0.033217777 0.01995288 -0.030233117 -0.044724565
0001e0 fd 9f a1 3d 4a 94 5b ba e0 9a 99 3a 4c df d9 bd
       0.078918435 -0.0008376284 0.001171913 -0.106382936
0001f0 87 e9 a6 bd 2d 23 f0 bc d1 55 08 bd c2 30 96 3d
       -0.081500106 -0.029313648 -0.033284966 0.073335186
000200 45 82 26 3c b5 4f f4 bd 66 b5 88 bd e7 64 59 3a
       0.010162895 -0.119292654 -0.06675224 0.00082929287
000210 56 52 70 3c 44 4c f2 3a e1 20 cd bd 9b cd 03 3d
       0.014668068 0.0018485864 -0.10016037 0.032178503
000220 d3 ab 18 3d 0a ee b0 bd ae b0 9f bd 9a 0c 18 be
       0.03727324 -0.08639152 -0.07797371 -0.14848557
000230 bc a7 2d bd 3b 3e 96 bb 27 0a e8 3c be 41 e1 3a
       -0.042396292 -0.004585055 0.028325154 0.001718573
000240 91 53 97 bc d1 00 5d bd 0f ae 15 bd 56 58 78 bc
       -0.018472465 -0.053955857 -0.03654295 -0.01515778
000250 c4 9c 19 bd 60 79 38 3b 7f bc a3 3c 84 fd e5 3c
       -0.03750302 0.0028148517 0.019987343 0.028074987
000260 06 db 89 bd 59 cb fc bd 8e 23 3a bd 26 de b5 3c
       -0.067312285 -0.12343473 -0.045444064 0.022200655
000270 88 18 c2 bd ba df 96 bc 5b 2e 86 bd 31 70 d9 bc
       -0.09477335 -0.018417228 -0.0655181 -0.026542755
000280 32 de cf b9 f6 4d 85 bc 33 9e d1 bc dc 22 90 bd
       -0.00039647665 -0.016272526 -0.02558813 -0.07037899
000290 54 89 14 bd 20 58 09 bd b8 2b 28 bd 5c 93 9f bd
       -0.03626378 -0.03353131 -0.04105732 -0.077917784
0002a0 77 1e 4c bd cf d0 73 bd d3 62 3e bd 51 27 c2 bc
       -0.04983374 -0.059525307 -0.046480965 -0.023700388
0002b0 bd eb eb bc f9 b2 9d 3c b7 ef 96 3d 28 a8 ac 3d
       -0.028798932 0.01925038 0.07369941 0.08430511
0002c0 cc 1c 0c bb 7a ab c7 3c 69 dd 04 3e d7 d5 25 3e
       -0.002137947 0.024373759 0.12975086 0.16194855
0002d0 53 ed da 3c 58 0a 92 3d ec 54 0f 3e 07 44 69 3d
       0.026724493 0.07130879 0.13997239 0.05694964
0002e0 f1 dc 85 3d 4d cd d9 bc 78 54 be 3c 4d 88 ba 3b
       0.06536282 -0.026587153 0.023233637 0.005692518
0002f0 74 6d 60 bc 0b 2b 57 3d b5 95 8b bd 2f 2b a2 3b
       -0.013697971 0.052531283 -0.06815664 0.0049489955
000300 16 a3 0e bd b8 93 77 3b 87 7c a2 3c c8 04 83 3c
       -0.0348235 0.0037777256 0.01983477 0.01599349
000310 83 ee e2 ba 53 ab 10 bd 12 05 c6 3c 1a a4 5c bd
       -0.0017313514 -0.035319638 0.02417234 -0.053867437
000320 f5 4c b6 bd 98 2d 29 3a 53 2a 22 be 16 e1 44 be
       -0.08901397 0.00064536324 -0.15836458 -0.19226488
000330 59 f9 ac bd c4 68 33 bd 8a fd dd bc b6 6c 87 bc
       -0.08445997 -0.043801084 -0.027098436 -0.01653133
000340 43 2f e5 bd 62 c4 22 bb a2 42 0c 3d b4 bc 2e 3d
       -0.11190655 -0.0024836292 0.034243234 0.04266043
000350 58 17 3d 3d f6 9a b7 bc c0 9f b5 3d f9 34 49 bd
       0.04616484 -0.022412758 0.088683605 -0.049122784
000360 ba df c6 bd 61 b7 28 bd 42 8e 0d bd 04 fb 81 3d
       -0.09710641 -0.04119051 -0.034559496 0.063467056
000370 92 92 0b be ba 01 f1 bc 81 0c a7 bd 70 33 92 bd
       -0.13630131 -0.029419769 -0.08156682 -0.07138717
000380 e3 ba cb bd bd ad 74 3c 04 7b 89 3a e3 f8 70 bd
       -0.09947755 0.014934001 0.0010488932 -0.058831107
000390 b8 e9 63 bd f8 0a 0f be da dd 55 3d c4 1b 16 3d
       -0.055642813 -0.13969028 0.052213527 0.036647573
0003a0 b7 3a b9 3c 0c bd b7 3c b0 d9 18 be 5a 8f c4 3d
       0.022611005 0.022429012 -0.14926791 0.09597655
0003b0 b9 62 2f bc a2 70 53 3b 5f d0 f7 3d b2 e6 99 bd
       -0.01070469 0.003226318 0.121002905 -0.07514705
0003c0 f2 bc 33 3e c2 0a 0a 3e a7 9f ed 3c b3 a7 86 3d
       0.17552546 0.13480666 0.029006792 0.06574955
0003d0 bd 78 1d 3d d6 ee 24 3e a3 ae 2c 3c 42 c5 03 3e
       0.038445223 0.16106734 0.0105396835 0.12868217
0003e0 90 56 e3 3d fc 65 d8 bc 6c cd f4 bc e1 b5 bd bc
       0.11100495 -0.026415817 -0.029883109 -0.023158016
0003f0 94 4d 89 bd 5b 7d 00 be 1e 4e 16 bd a1 1d 39 bd
       -0.0670425 -0.1254782 -0.036695592 -0.045194272

module.fc1.bias f4 [120]
000000 4e bf 3b 3e ae 5f 22 be 4b f4 1e be ac ec 53 bd
       0.18334696 -0.15856811 -0.15522878 -0.05173938
000010 39 41 5e be 50 49 41 be df ee 53 3d 0b 25 3e 3d
       -0.21704568 -0.18875623 0.051741477 0.046422046
000020 fa 5f 7a bd 5f bd 9a ba 5a 93 4e 3d ff b8 1c 3d
       -0.061126687 -0.0011805705 0.050433494 0.038262364
000030 44 5b 13 be 4b 6f b6 be f7 38 2b ba be 58 88 3e
       -0.14390284 -0.35631785 -0.0006531621 0.26630205
000040 bd 7b e4 3c e2 89 e8 3d 92 22 38 3e 60 9a 59 3d
       0.027891034 0.11354424 0.17981938 0.05312574
000050 b4 1b 89 3d 8f 6b a8 3c b0 0f e7 bd fd 3c 2b bc
       0.06694737 0.0205591 -0.11282289 -0.010451552
000060 fe f9 ae bd 62 39 9b bd 5f e2 d4 bd 4b 35 48 3e
       -0.08543776 -0.07579304 -0.10394739 0.1955158
000070 6d 47 a7 3e 58 27 de 3c db cb 0e 3c 32 0e 12 bd
       0.3267168 0.02711837 0.008715595 -0.03565807
000080 fe 3b 2c 3d a9 3d fc bd 4c 5e 79 3d 11 e8 87 3e
       0.0420494 -0.12316448 0.060880944 0.2654424
000090 9b 0a 1b 3e 83 50 da 3d 41 7f e7 3b fa a7 6a 3e
       0.15140764 0.10659888 0.0070647304 0.2291564
0000a0 23 fb f7 3d 28 23 f5 3d b3 9b 2f be 81 a2 18 3e
       0.121084474 0.11969596 -0.17149238 0.1490574
0000b0 e9 78 54 3e a0 28 d2 3e d2 ec 29 bd 72 8b 62 3e
       0.20749249 0.4104662 -0.041485615 0.22123507
0000c0 73 c9 11 3d 66 02 0a 3e f5 65 a3 3e 1f 35 a0 bd
       0.035592508 0.13477477 0.31913725 -0.07822632
0000d0 66 c9 bc 3d 52 fe 2a 3d 68 ff 35 3e af f5 20 3c
       0.09218101 0.041746445 0.17773211 0.0098242005
0000e0 e1 d7 ce bd 65 4d 9d 3d d8 d3 9f 3d e8 8c 9b 3d
       -0.100997694 0.076807775 0.07804078 0.07595235
0000f0 85 75 d4 3e cc 29 23 3d 4c 30 5a 3e c3 22 36 3d
       0.4149591 0.039834782 0.21307486 0.044466745
000100 15 8c 79 3d b8 b0 1b bd 39 af 8b be a2 69 a7 be
       0.06092461 -0.03801033 -0.27282122 -0.3269778
000110 46 3d 3c 3d f7 11 08 3d c5 3b 36 3e 95 50 a3 bd
       0.045956872 0.033220258 0.17796238 -0.07974354
000120 30 22 2d bc c0 a8 55 bc 3b fe a9 bd 47 3a b9 bd
       -0.010567233 -0.013040721 -0.08300444 -0.09044319
000130 21 86 d3 3d 76 50 d2 3d 78 d2 89 3d 09 da 0e bd
       0.103283174 0.10269253 0.06729597 -0.034875903
000140 70 0b 15 be 58 bc 09 3e c1 3c a7 3d 99 c9 da 3d
       -0.14555144 0.13450754 0.08165885 0.10682983
000150 77 84 c2 3d 08 8a d8 3e 56 98 34 3e 9e fc 20 be
       0.09497922 0.4229281 0.17636237 -0.15721366
000160 5c e1 95 be bc 39 1c 3e 5f 15 f6 bc c8 15 65 3e
       -0.29273498 0.15256399 -0.030039487 0.2237159
000170 bc a4 80 3d 0a 52 6f bc 89 7b 1a be 17 07 9b 3e
       0.062814206 -0.014606962 -0.15086187 0.30278847
000180 0f ae b7 3d 82 56 3b 3e 95 b6 24 3e 0f ab 0a be
       0.08968746 0.18294719 0.16085275 -0.13541816
000190 52 ac 4c bd 75 bc d2 bc 55 ab 9a bc f0 d8 2f bc
       -0.049969025 -0.025724629 -0.018880526 -0.010732874
0001a0 53 76 8a 3e 21 a3 99 be 78 e4 f0 bc 3d 92 e0 bd
       0.270434 -0.3000727 -0.029405817 -0.10965393
0001b0 ac c4 24 be d4 f1 6e 3e 06 fa 42 bd f4 9d 83 bd
       -0.1609065 0.23334438 -0.047601722 -0.064266115
0001c0 6a 62 82 3d 03 10 0a bd 88 03 f7 3c 53 d7 8b 3d
       0.06366427 -0.033706676 0.030153051 0.06828179
0001d0 ae d8 42 bd d8 d6 78 bc 0e c5 ed 3d a7 02 90 3e
       -0.047569923 -0.0151879415 0.11609851 0.28127024

module.fc2.weight f4 [84, 120]
000000 cc d8 3d be fc 96 dc bb 50 50 73 bd a9 fc 0b 3c
       -0.18539733 -0.006731866 -0.059402764 0.008544126
000010 e5 2c 4b be c0 b2 88 3d 27 60 d1 3c 25 34 f1 3d
       -0.19841345 0.06674719 0.025558544 0.11777524
000020 a1 74 2b 3e 52 b0 d1 bd dd 10 08 3c be 8f 82 3d
       0.16743709 -0.102387086 0.008304802 0.06375073
000030 89 13 04 3d 46 71 d8 38 90 8b 92 bd e3 b7 f0 bd
       0.032245193 0.000103207814 -0.07155526 -0.117538236
000040 5b 78 f2 3d 48 d7 b9 3c 05 ed 16 3b 9f 7e bd 3d
       0.11839362 0.022685662 0.0023029458 0.09252667
000050 48 84 5d bd 8b 01 8a 3d 49 06 8b 3d 93 0c 15 3b
       -0.05408123 0.067385755 0.06788308 0.002274309
000060 84 50 14 3e eb 5e ff bc 04 1f 06 3e 8c 98 22 be
       0.1448384 -0.03117319 0.13097769 -0.15878505
000070 2d 7d 1d bd cd cf 67 bc 66 a6 40 bc df 2f 8a 3c
       -0.038449455 -0.014148665 -0.0117584225 0.01686853
000080 f1 0b 0c be 7b 52 54 bd d2 de 01 bd e2 a7 00 be
       -0.1367643 -0.051836472 -0.03170664 -0.12564042
000090 79 4f c8 3d b5 29 8c 3d 2b 6c bf bd 37 4b f1 bd
       0.09780783 0.068438925 -0.09346803 -0.11781924
0000a0 b2 ad c5 3a 0c bc d4 3d c1 31 a6 3a f8 91 4e 3c
       0.0015081672 0.103874296 0.0012679623 0.012608044
0000b0 96 f6 0d bd 92 9e cd bd 25 60 ea bd 38 6e 08 3e
       -0.03465899 -0.100400105 -0.11444119 0.13323295
0000c0 f7 d5 18 3d ea db 04 bd c2 c1 5d bb d2 f4 5d bd
       0.037313428 -0.03243629 -0.0033837412 -0.054188557
0000d0 f9 83 42 be 21 bf 02 be de b9 b2 3d 34 f8 50 3d
       -0.18995656 -0.12768222 0.087268576 0.051017955
0000e0 5c a6 14 3e b2 c1 41 bd 9c 12 e1 bb 5d 45 f0 bd
       0.14516586 -0.047303863 -0.0068686735 -0.1173198
0000f0 3a 7b 94 bd 26 2e f5 3c ca be 03 be 54 50 97 bd
       -0.07250066 0.029929232 -0.12865749 -0.07388368
000100 fc 19 d8 3c be 4f 53 3d 3d f2 56 3d 93 a4 e1 3c
       0.026379578 0.05158972 0.05247711 0.027544295
000110 0f 4b e7 bd 6f 59 9e 3d 84 d2 ec bd 08 a7 e1 bd
       -0.11293613 0.07731902 -0.1156359 -0.11018187
000120 9f f6 c8 3d 30 ec 59 3d a7 d7 56 3d 99 ec 1f 3e
       0.09812664 0.05320376 0.052451756 0.15617599
000130 b9 2b 07 be 39 0a 77 bd e5 e3 ed bd 8a 7e 6a bd
       -0.13200273 -0.060312483 -0.11615733 -0.057249583
000140 ff b1 95 bd 52 0c 31 be 0d 6b 62 bd 55 60 01 bd
       -0.07309341 -0.17289856 -0.055277873 -0.03158601
000150 7e 57 c3 bc 26 e0 a4 bd a0 3b 0a 3e 19 53 b9 bc
       -0.02384543 -0.080505654 0.13499308 -0.022622632
000160 e7 fe 81 3d 59 ed a5 bd 47 4d e5 bd fc 38 39 3a
       0.06347447 -0.08101911 -0.1119638 0.0007065681
000170 df 9f fb bd 6a 74 74 3b 2a 5d 37 3c 65 b8 04 bd
       -0.12286352 0.0037300834 0.011191646 -0.032402415
000180 f2 80 61 bd 0c 59 eb 3c 65 40 87 bd 15 80 07 bc
       -0.055054612 0.028728984 -0.06604079 -0.008270283
000190 39 83 49 bd 0c 4c db 3b 01 1b 9f bd 3f f0 e8 3b
       -0.04919741 0.006692415 -0.077688225 0.0071087177
0001a0 2d 9a 29 be be d2 73 bd bf a6 3c bd a1 fd cc 3d
       -0.1656272 -0.05952715 -0.04605746 0.100093134
0001b0 8f 81 9d 3d 5f a0 71 bc 4a f4 ab bd 6b 59 ad 3c
       0.07690727 -0.014747708 -0.08396204 0.021160802
0001c0 04 a4 e9 3c 52 fa c6 bd 57 cc e0 3c 54 ac 6a 3d
       0.028520592 -0.097157136 0.027441187 0.05729325
0001d0 d9 bc 36 bd 69 8f aa 3d 29 f8 22 bd 38 54 82 bc
       -0.044613693 0.083281346 -0.039787445 -0.0159093
0001e0 f9 a6 c8 3d 10 26 13 3e f3 c7 26 3d bc bd 60 be
       0.097974725 0.14369988 0.04071803 -0.21947378
0001f0 4c 7d 87 3d 0c 90 05 be d2 c2 0f 3e 6b 03 ce bd
       0.06615695 -0.13043231 0.14039162 -0.10059246
000200 99 ff 14 3d a7 24 89 bc 4e 01 e8 bd 3d 08 63 3e
       0.03637657 -0.01674111 -0.11328374 0.22171111
000210 fc c2 66 bd 21 26 86 3d cc ae 0c 3d 7a 66 a9 3d
       -0.056338295 0.06550241 0.034346387 0.08271499
000220 02 4c d4 3c aa f3 5b bd 67 50 b5 bc 4f be 16 3d
       0.02591515 -0.053699173 -0.022133065 0.036802586
000230 1e ed 01 be 0d c0 2d be 4a b3 b1 bd 67 cf 08 bb
       -0.1268811 -0.16967793 -0.08676775 -0.0020875575
000240 2d 78 29 3d 60 64 ca bd c4 40 0f 3e ff d7 8c bd
       0.041374374 -0.09882426 0.1398955 -0.068771355
000250 b0 e2 34 3e c6 ad 1c 3c bc b0 e2 bd cf ca db bd
       0.176646 0.009562915 -0.11068866 -0.10732042
000260 9f 6a 77 be e4 89 b5 3d a3 9c 27 ba a3 32 a9 3c
       -0.24161766 0.08864191 -0.0006393885 0.020654028
000270 c5 91 04 3e c2 a3 1f be 6d f7 36 bd ba 35 50 be
       0.12946232 -0.15589812 -0.044669557 -0.20332995
000280 fa 60 b1 bc f2 4e 62 3e bd 6d 2f be 41 5a 1c 3e
       -0.021652687 0.22100428 -0.17131706 0.15268804
000290 8a 29 0d 3d 1f 97 dd 3d 14 1c be 3d 5a d9 5a 3d
       0.034463443 0.1081984 0.09282699 0.05342994
0002a0 db e9 da 3c 9f ba c9 3c d0 85 d2 3d 48 50 09 be
       0.02672284 0.02462512 0.10279429 -0.13409531
0002b0 1a a9 1a bd d4 65 9a 3c 01 2a b8 bd da 7d 6c 3d
       -0.037758924 0.018847384 -0.089923866 0.05773721
0002c0 ee a5 c9 bd 28 cc 8b be e1 5b d8 bd 02 61 17 bd
       -0.09846102 -0.27304196 -0.105643995 -0.03695775
0002d0 93 7f 26 3d 4c 61 e5 bd ed 96 1b be b0 db b7 3c
       0.040649008 -0.112001985 -0.15194292 0.022443622
0002e0 d5 67 92 bd 1f ad a2 3d 2a 4e 4c 3e d7 f8 3d bd
       -0.07148711 0.079431765 0.19951692 -0.04637989
0002f0 ee 59 01 bd 9e c8 7e 3e f1 57 11 3e 7b da aa 3d
       -0.031579904 0.24881217 0.14193703 0.08342453
000300 94 6f 86 bd 2f bb d5 bd 7d c7 20 37 ee 2f 7b 3d
       -0.065642506 -0.10436093 9.58319e-06 0.061325006
000310 72 6f 16 be bf 69 2c 3c 3a 30 8b be 34 99 c3 3c
       -0.1469095 0.010523259 -0.2718523 0.023876764
000320 bf 94 67 bd be 3d 54 bd bd 9e 3a be b1 74 78 bd
       -0.05653834 -0.051816694 -0.18224616 -0.06065816
000330 78 d0 91 3c c9 1f 61 3c 71 bf a6 bc 87 02 08 bd
       0.017799601 0.013740488 -0.020354958 -0.033205535
000340 db b0 59 bd 16 e1 51 3e 3f a9 97 bc 41 59 1f be
       -0.05314718 0.2049602 -0.01851332 -0.15561391
000350 b0 11 df 3d 99 2e 83 3b be d9 52 bd 28 a5 d0 bd
       0.108920455 0.0040033576 -0.051477186 -0.10187751
000360 d0 2d 12 be 50 a1 09 3d 85 f0 5d be 85 b3 a6 3d
       -0.14275289 0.033601105 -0.21673782 0.081397094
000370 99 64 5b 3d a5 3f 19 be 91 c9 fd bc ba 99 0f be
       0.053562734 -0.14965685 -0.030979903 -0.14023486
000380 9c 9e 05 be c6 82 56 3c b9 81 48 bd 6d db 3c bd
       -0.13048786 0.013092702 -0.04895184 -0.0461077
000390 34 e8 05 3d c6 0a 6f bd 10 ef 34 bd 60 dd 32 3d
       0.03269215 -0.058359884 -0.0441733 0.04366815
0003a0 58 73 db 3d 78 cf 99 3d 99 4e f2 bc 73 6b b8 bc
       0.107153594 0.07510275 -0.029578494 -0.022512173
0003b0 85 1a 7e bd 7b ea 10 3d c2 5c e2 3c 6e ac f9 bd
       -0.06203701 0.035379868 0.027632121 -0.121910915
0003c0 6c 8f 87 bc 8d 97 96 3d 56 6a 2e be 82 2f c1 bc
       -0.016547881 0.07353125 -0.17032751 -0.023582224
0003d0 ce a8 5d bd 05 db a9 bd d7 0d 3f 3c d2 e8 71 3d
       -0.054116063 -0.08293728 0.0116610145 0.059059925
0003e0 40 fc 17 be fd ae 9a 3d a2 30 44 bd 9a 03 61 3d
       -0.1484232 0.075529076 -0.047897942 0.054935075
0003f0 33 6c af 3c 6d a4 8f bc c5 3d b1 ba a2 cc 67 3d
       0.021413898 -0.017534459 -0.0013522437 0.056591637

module.fc2.bias f4 [84]
000000 04 11 a0 bd b2 4f 46 3c 3d 4f 2d 3f 97 24 5e 3d
       -0.078157455 0.012103962 0.67699033 0.054234114
000010 5e 11 ae bc 38 88 08 3f c5 b0 fb 3d 2b 04 9e 3d
       -0.021248516 0.53332853 0.122895755 0.07715639
000020 0a bb fa 3c 21 17 af 3e ab 0e 4c 3f 22 2c 93 3d
       0.030606765 0.34197333 0.7970988 0.07186152
000030 1d e5 e4 bd 8f 8b fa 3d ed eb 24 bc 5a 36 af 3d
       -0.111765124 0.1223365 -0.010066015 0.085552886
000040 06 88 bc 3d 99 fb 2a 3f 07 ac 98 3e ac a9 50 3d
       0.09205632 0.6679016 0.29818746 0.05094306
000050 30 b9 59 bc 31 2e d1 3d 6b d6 03 3f 5c e3 5e 3e
       -0.013288781 0.102138884 0.5149905 0.21766418
000060 1c 86 74 3e 44 11 de 3d b8 e1 84 3e e7 4d a9 3e
       0.23879284 0.10843137 0.2595346 0.33067247
000070 ba d1 d4 3c 4e cd 61 3e eb 94 37 bb 4c 1b 22 bb
       0.025978912 0.22050974 -0.0028012346 -0.0024735508
000080 1d 0f 99 bd 62 a9 73 be d8 6d d6 be e0 04 df bd
       -0.07473586 -0.23795083 -0.4188068 -0.10889602
000090 d5 f6 a2 3e e6 84 8e 3e 51 d9 2b 3d e4 7e b1 bd
       0.31828943 0.27835768 0.041955296 -0.086667806
0000a0 46 f4 ef 3d f7 81 c2 3d 1d f9 0d 3f 28 0c 37 bd
       0.11716513 0.09497445 0.5545824 -0.044689327
0000b0 57 e0 23 3e c1 0a 92 3e 8c d6 80 bd 37 69 30 3d
       0.16003548 0.2852383 -0.062909216 0.04306909
0000c0 94 80 27 bd b8 3c a2 bb a2 4e fe 3e c1 0f 85 3d
       -0.040894106 -0.004951086 0.49669367 0.064971454
0000d0 b1 4b a3 3e 06 b3 7d 3e 6b 1f 00 3e 72 ec b4 bd
       0.31893685 0.24775323 0.12511985 -0.08834161
0000e0 3d 1e 23 3f 29 73 11 3e 5f e6 9c 3e db 64 c3 bc
       0.63718015 0.14204086 0.3064451 -0.023851803
0000f0 ac ca ae bd 4f e4 e0 bd 27 14 00 3e db 62 22 bd
       -0.0853475 -0.109810464 0.12507688 -0.039645057
000100 09 19 69 3d 9c 30 b2 3d a2 69 a3 bd 9d d9 3d 3e
       0.05690864 0.08700678 -0.07979132 0.18540044
000110 b1 62 1d 3d 8c a4 63 3e a4 e0 6b 3d 43 1c f2 3d
       0.038424198 0.22230738 0.05758728 0.11821797
000120 4e fb 05 3d 3c 94 8e 3e 0c 90 69 bd e1 a3 a3 bd
       0.032710366 0.2784747 -0.05702214 -0.07990242
000130 9c 06 39 3e 83 c5 9f 3e d3 2e 75 3d 6e f6 22 3e
       0.18068928 0.31205377 0.05985911 0.15914318
000140 27 58 51 3e 74 81 61 3d 41 b3 0d 3f 10 df bb bc
       0.20443784 0.055055097 0.55351645 -0.022933513

module.fc3.weight f4 [10, 84]
000000 af d1 b1 3c 00 54 34 3e 77 fa 97 be 2e 1a 5f 3d
       0.02170643 0.17610168 -0.29683277 0.054468326
000010 67 5c ab bd a1 a9 b3 3b 11 91 53 be 24 2f e6 bd
       -0.08367234 0.005482868 -0.20660807 -0.1123946
000020 44 7c 5a 3d f4 e5 5e 3d 58 26 8b be dd 74 a8 bc
       0.053341165 0.05441852 -0.2717769 -0.020563537
000030 d7 38 89 be 3f c0 0d 3e 5a f0 5b 3e 3d 92 26 be
       -0.26801178 0.13842867 0.21478406 -0.16266723
000040 ad ad 44 3e c0 27 ab 3d ed 57 9f be 25 f1 0a 3e
       0.19206877 0.08357191 -0.3112177 0.13568552
000050 01 53 8f 3d 27 01 3e 3e 98 d2 86 3d 7f df 4c 3e
       0.069982536 0.18555127 0.06583136 0.20007132
000060 b8 0e ef 3d b4 70 a8 3d 05 90 8c 3b d5 26 08 3e
       0.11672729 0.082246214 0.0042896294 0.13296063
000070 08 0f 67 3d 57 08 66 3e 9a d8 10 3e 09 08 1c be
       0.05641082 0.22464119 0.14145127 -0.1523744
000080 42 8d 4c 3e 19 13 8b 3e cb e6 01 3e 72 c7 40 bd
       0.1997576 0.27163008 0.12685697 -0.047065206
000090 7f 48 2d 3e 59 ea 2b 3e 31 c2 22 bd 95 b3 c8 bc
       0.16922186 0.16788615 -0.039735977 -0.024499694
0000a0 52 23 d4 bb 32 d3 54 3e 1c 9a 3e 3c 61 4b 7f bd
       -0.006473937 0.2078369 0.011633422 -0.062327746
0000b0 90 96 f6 bd f6 3a 38 be f6 c4 fc bd 0d db 8c 3d
       -0.12040436 -0.17991242 -0.12342255 0.06877718
0000c0 bb 04 4f 3d 02 d5 31 be 3f ed fe bd dc b0 c8 3d
       0.05054162 -0.17366412 -0.12447595 0.09799358
0000d0 83 fc 8f 3e 87 aa 30 bd 26 a5 1d be fe 20 22 bc
       0.2812234 -0.043131378 -0.1539503 -0.009895561
0000e0 ee 71 ca be 8d 6c 56 3e 17 a0 b4 be 27 15 db 3d
       -0.39540046 0.20939846 -0.3527839 0.10697394
0000f0 49 56 5b bc e0 76 45 b9 e7 02 dd bd b5 51 05 3e
       -0.013387271 -0.00018831668 -0.10791569 0.1301945
000100 d9 e7 3a be 1a 94 21 bd 9f 2a 20 be a6 c8 26 be
       -0.18252505 -0.03944788 -0.15641259 -0.16287479
000110 91 fb 74 3d 59 d5 ad bc 67 1e 53 3b 46 1c 28 3e
       0.059810225 -0.021219896 0.0032214166 0.16417035
000120 39 cb df bd 03 cb ce bd ed b5 48 3e 76 da 1f 3e
       -0.109274335 -0.10097315 0.19600649 0.1561068
000130 4f 92 e4 bd 6c 88 a4 be a0 a6 fb 3c 90 ca 41 3e
       -0.11160719 -0.32135332 0.030719101 0.18924928
000140 c7 66 2c be 4a 9f c0 bb 82 e3 97 3e 67 5d 11 bd
       -0.16836081 -0.0058783637 0.29665762 -0.035489466
000150 fd 93 3a 3e 17 f7 e0 3d 58 4f ca be 70 56 15 3b
       0.18220516 0.10984629 -0.3951366 0.0022787116
000160 90 f6 99 bb e6 a3 43 39 1d c3 3a 3e c8 24 00 bd
       -0.004698582 0.00018657706 0.18238492 -0.031285077
000170 c9 8f f6 3d 81 29 3b 3e 7c 21 ac bd 7a 3c 56 3e
       0.120391436 0.18277551 -0.08404824 0.20921507
000180 31 a6 42 3e 5d e6 c5 3d 24 8e 3d 3e b9 1a ac bd
       0.1900871 0.09663079 0.18511254 -0.084035344
000190 11 dd 8a be cd e0 6a be e7 d9 0a be 64 1b da 3e
       -0.27121785 -0.22937317 -0.13559686 0.42599022
0001a0 6f 02 63 3e 13 e8 4a 3e 5e ce a0 be 51 14 23 be
       0.22168897 0.19815092 -0.31407446 -0.15925719
0001b0 a5 47 5a be 1a 48 1a 3e 7a d4 5e be e8 1c 80 be
       -0.21316393 0.15066567 -0.21760741 -0.25022054
0001c0 d9 14 98 3d a4 40 34 bd 67 d1 d5 3c 76 67 e9 bb
       0.074258514 -0.04400696 0.026100827 -0.007122929
0001d0 31 b8 fd bd d3 69 06 3e d5 09 7d 3e f6 6e 3d 3e
       -0.12388647 0.13126306 0.24710782 0.1849936
0001e0 79 40 06 be b5 fd 3c bd 07 0d b4 3c 2b 0b ce 3c
       -0.13110532 -0.04614039 0.021978868 0.02515181
0001f0 f4 cd 03 3c a1 82 31 be 2e 4a 8b bd c0 47 36 3e
       0.0080447085 -0.17334987 -0.06801258 0.17800808
000200 db 33 f9 bc 16 85 9d 3d de b4 2e be f2 ad 26 3e
       -0.030420234 0.076914 -0.17061183 0.16277292
000210 82 54 ae bc e0 d1 12 3c b8 a9 14 be d6 e3 a3 3d
       -0.02128053 0.008961171 -0.14517868 0.08002441
000220 37 52 e2 3c 5b c2 df bd 01 28 ff bb 9b e3 bc bd
       0.027627094 -0.10925742 -0.0077867513 -0.092231
000230 23 a5 14 be 3d 79 4c be 43 de 79 bd bb a4 dc bd
       -0.1451612 -0.19968124 -0.06100298 -0.10773607
000240 33 20 ab 3d 7d 87 44 3d f2 20 b5 3d 9c 86 47 3e
       0.08355751 0.047980774 0.088441744 0.19484943
000250 7b 2c 90 3e d2 83 5a bd fa 54 16 3e 8f a9 c5 3c
       0.28158936 -0.05334837 0.14680853 0.024128703
000260 2d 70 06 be 7b 48 3e bd 42 56 f1 3d eb 93 8e 3c
       -0.13128729 -0.04645584 0.117840305 0.017404517
000270 d3 24 b8 3d 9c 8d 51 be d1 2d 85 3d 10 ae 1a be
       0.08991399 -0.20464176 0.065028794 -0.15105462
000280 b0 e3 7e bd dd 28 55 bd 3b 6f 8a bd e7 3e 9a be
       -0.06222886 -0.052040923 -0.06759497 -0.30126116
000290 34 d4 23 be a4 60 d2 3d 48 3d c9 bb 97 a1 9d 3d
       -0.15998918 0.10272339 -0.0061413385 0.076968364
0002a0 3b 8a a7 3d a3 41 99 bc 27 29 4e 3e 39 1d 48 be
       0.08180662 -0.018708056 0.20132886 -0.19542398
0002b0 3e f2 93 bd 62 e9 06 be 13 77 c1 bd 32 81 53 3d
       -0.072239384 -0.13174966 -0.0944654 0.051636882
0002c0 54 1e f6 bd bc 12 0c be ae 5d a7 3e 1b f2 23 bd
       -0.120175034 -0.13679022 0.3268866 -0.04002581
0002d0 07 d2 9d 3b c6 2e fc bd 30 01 98 3d 04 d0 40 be
       0.004816297 -0.12313609 0.074221015 -0.18829352
0002e0 21 c9 49 3e b2 0c 6d 3e 07 5e 51 3e 31 3f fe bd
       0.19705631 0.23149374 0.20446025 -0.124143966
0002f0 9b 6d 1c be a6 a2 62 be ab 81 18 3e 3d c6 2e 3e
       -0.15276186 -0.22132358 0.14893214 0.1706781
000300 ad c0 94 3d da cf e4 bd 50 01 39 3e eb 04 a2 bd
       0.072633125 -0.11172457 0.18066907 -0.07911094
000310 dc 60 5c bd ed 3d c2 bd e0 f9 d9 ba d5 75 7b bd
       -0.05380331 -0.09484468 -0.0016630255 -0.06139167
000320 4a 3f ce bb f4 ef d1 bd e1 15 08 bd 0c bc 3a bd
       -0.0062941657 -0.102508456 -0.03322399 -0.04558949
000330 a2 c2 11 3d 00 f7 1d 3e fd 9b f6 bd 2a f5 4e bc
       0.035586007 0.15426254 -0.12041471 -0.012631694
000340 b3 28 9f bd 4c 55 56 bd 8a 31 39 3e 9c 1a e6 bd
       -0.07771435 -0.05232744 0.18085304 -0.11235544
000350 fb 19 90 3e 68 81 17 be 92 64 3d 3d f4 7a 97 bd
       0.28144822 -0.14795458 0.04623849 -0.07396498
000360 96 98 73 bc fa 36 4d bd d5 6c ce 3d 13 de 0d 3e
       -0.014867922 -0.050101258 0.10079352 0.13854246
000370 2a bc 45 3e 39 74 2c 3c 19 d1 04 3e cb 10 03 bb
       0.1931006 0.0105257565 0.1297039 -0.0019999023
000380 e9 b5 92 3c bb 06 60 3e 08 50 6a bc dc cc cb 3b
       0.017909007 0.21877567 -0.0143013075 0.0062194895
000390 81 41 50 bd 1d 65 7f 3e 27 78 07 3e ea a1 09 3d
       -0.05084372 0.24940915 0.13229428 0.03360168
0003a0 c0 45 92 3d 33 16 35 3d 52 27 8b bd f7 5f 73 be
       0.0714221 0.044210624 -0.06794609 -0.23767076
0003b0 92 39 2a be 5d b5 5d ba e9 d3 34 bd 96 a3 88 3e
       -0.16623524 -0.0008457506 -0.044147406 0.26687306
0003c0 d0 9b 15 be c7 ac 64 3d 31 e3 f8 3c 20 6c 50 bd
       -0.14610219 0.055828836 0.03038177 -0.050884366
0003d0 b6 19 9d 3e f0 ae 5d bd bc c6 87 bd 67 19 43 3e
       0.30683678 -0.05412191 -0.066297024 0.19052659
0003e0 e7 5d 92 3d 8d 1a 03 3e d5 9b 2d 3c b1 b9 59 3e
       0.07146817 0.12803097 0.010596235 0.21262242
0003f0 db ea d3 bd 02 52 c8 3d 58 a2 48 3e 56 17 30 3d
       -0.103475295 0.09781267 0.19593179 0.042991005

module.fc3.bias f4 [10]
000000 99 85 66 be 5d 1b 65 bf 48 a2 54 bd c8 a3 f8 3e
       -0.22511901 -0.8949488 -0.051912576 0.48562455
000010 f0 7a 32 3f 25 dd 16 be e5 25 92 3c f3 aa b8 be
       0.6971884 -0.14732797 0.017840335 -0.36067924
000020 9d 8f fe 3e 75 fe c1 be
       0.49718943 -0.37889448
