models/classifier_net_epoch_7_8000.pth (torch_old, 249853 bytes, 10 tensors)

module.conv1.weight f4 [6, 3, 5, 5]
000000 4a fa dc 3c 64 1d b9 3e 39 b3 e6 3e b7 3e 10 3f
       0.026974816 0.36155236 0.4505861 0.56345695
000010 18 83 90 3e 20 3a 8b 3d da cc 96 be c1 ce 29 3e
       0.28225017 0.06798196 -0.29453164 0.16582777
000020 dc 1f 78 3f 29 67 8d 3d 03 56 8a 3e 01 df a4 be
       0.96923614 0.06904442 0.27018747 -0.32201388
000030 f2 fd 8e bf b3 8d 5b 3f e8 a3 ae 3e 3f 4c c8 3d
       -1.1171248 0.8576309 0.34109426 0.09780168
000040 24 cb 18 3e 2d ee 65 bf 78 11 8e 3d c0 b9 b5 bd
       0.14921242 -0.8981655 0.06936926 -0.088733196
000050 4d 67 2a be b0 0a 24 3d d0 df 1a bf cd 7b 1c 3e
       -0.16640969 0.040049255 -0.6049776 0.15281601
000060 68 b3 9b be 67 fe d3 bd 3a 14 d2 be 54 58 2a bf
       -0.30410314 -0.10351258 -0.41031057 -0.6654103
000070 2c ce 58 be dd 82 dc be d7 c5 e4 3e 58 12 28 bf
       -0.21172398 -0.4306859 0.4468219 -0.6565299
000080 2e a2 35 bf 65 91 f0 3e 23 8b 83 be 8f 25 4f 3f
       -0.7095059 0.46985927 -0.2569209 0.80916685
000090 44 88 9f be 37 bc b4 bf b4 70 3a 3f 30 df 67 3e
       -0.3115865 -1.4119939 0.7282822 0.22643733
0000a0 11 03 17 3f 4f a6 d5 3e d2 30 88 bf ea 30 7a 3e
       0.58989054 0.41728446 -1.0639899 0.24432722
0000b0 fa 39 18 be 42 72 00 3f 6e 54 4a 3e b6 56 ab be
       -0.14865866 0.50174344 0.1975877 -0.33464593
0000c0 73 c9 0b 3f 16 39 8f bd df c6 c2 bd a2 4a e9 bc
       0.5460426 -0.0699331 -0.09510588 -0.02847797
0000d0 d4 3a 2e bd 59 80 62 3e 74 2a 43 be 0a 50 b3 3e
       -0.04253657 0.22119273 -0.19059163 0.35022002
0000e0 af 67 d2 be d3 a2 81 be 9e 66 3d 3f db d9 06 bf
       -0.4109473 -0.25319538 0.73984706 -0.5267617
0000f0 45 18 33 3f b8 e0 7c be 7b 7b 83 bf 2b cf 35 3f
       0.6995891 -0.24695098 -1.0272058 0.7101924
000100 71 6b d8 bd b0 f9 0f 3f 6c b0 0e 3f fc bf 45 bf
       -0.10567368 0.5624037 0.5573795 -0.7724607
000110 ba 6f 23 3e 36 0d a3 be 9b a4 ad 3e 4f 67 be 3e
       0.15960589 -0.31846017 0.33914647 0.37188193
000120 a7 5a 87 be 27 ff 92 3e 60 ac ca be 12 6c 01 be
       -0.2643635 0.2871029 -0.39584637 -0.12638882
000130 a4 97 93 3e cb ba 7b 3e f8 24 86 3e 4a b1 c1 3d
       0.2882663 0.24582975 0.2620008 0.09457643
000140 e6 de ed bc f1 06 15 3f a4 cd 37 3e f0 42 05 be
       -0.02903695 0.58213717 0.1794954 -0.13013816
000150 24 26 d7 bd d1 1b 90 3e 6e 11 02 bd 1c 48 22 bf
       -0.105053216 0.28146222 -0.031754903 -0.6339128
000160 19 a6 0b bf 42 54 6b be d8 63 1c be 5b 0f 42 bf
       -0.5455032 -0.2298136 -0.15272462 -0.7580468
000170 7f 5d 21 bf 93 3a 96 bd 81 1d 1a 3e b7 be b3 bd
       -0.6303329 -0.07335391 0.15050317 -0.0877661
000180 6a 90 b1 3d e6 09 aa 3e 47 c1 18 3f 38 10 8a 3e
       0.08670123 0.33210677 0.5966992 0.269655
000190 cc 88 d4 be 07 da 1b bd ba 9c a6 bd aa d4 7e bd
       -0.41510618 -0.038049724 -0.08135362 -0.06221453
0001a0 0d 45 51 be de 91 24 3d 0e f4 ee 3e 59 e8 f6 bc
       -0.20436497 0.040178172 0.46670574 -0.030140089
0001b0 5f dd 79 be b8 8f a7 be f2 37 eb 3e 06 35 86 3d
       -0.24400853 -0.32726836 0.4594112 0.06553082
0001c0 e2 99 0e bf 2a ef 17 bf 36 fd 59 be c1 8a f9 bc
       -0.55703557 -0.5934931 -0.21287999 -0.03046167
0001d0 b8 60 15 bf 6e b0 06 bf 4c d2 a9 bd 20 c4 ca 3d
       -0.58350706 -0.5261296 -0.08292064 0.09900689
0001e0 4c 13 17 bd 91 8f 10 be 9d e9 6a 3e ce e5 d0 3e
       -0.036883637 -0.14117266 0.22940679 0.40800327
0001f0 87 2b de 3d 58 f8 6e be 23 cf 92 3d b7 98 7f 3d
       0.10848146 -0.23336923 0.071684144 0.0624015
000200 9b c7 94 3e 11 64 7e 3d 66 51 0e 3e c5 9a 19 3f
       0.29058537 0.06210715 0.13898239 0.60001785
000210 24 a1 f3 3e e7 08 9a 3d b9 a2 bc bd 93 c8 08 3f
       0.47583878 0.07521229 -0.092107244 0.5343105
000220 fd 50 aa 3e bc 88 8c be c9 28 f1 be dc ee 2e be
       0.33264914 -0.2744807 -0.4710143 -0.17083305
000230 d7 8a 27 3e 78 87 11 bf 5e 03 f4 be 00 ef 35 be
       0.16361557 -0.56847334 -0.4765882 -0.17766953
000240 23 65 df 3d 6a fd b6 ba 5c 19 05 be d3 58 a7 3e
       0.10907962 -0.0013961021 -0.12997955 0.32684955
000250 b7 cd 50 3e 06 03 12 be 1f ff 3e ba 2d 0b 97 bd
       0.20390974 -0.14258966 -0.0007285941 -0.073751785
000260 cb f9 37 be 86 73 9f bc 03 5e f3 bb 81 a9 1e 3e
       -0.17966382 -0.019464266 -0.0074269786 0.15494348
000270 14 0f b2 3e 90 e2 2c 3e e2 8f 5b 3e 3d 58 11 3e
       0.3477713 0.16883302 0.21441606 0.14193816
000280 7e 98 05 be 2f 77 6d bd 12 69 54 bc 76 34 62 bd
       -0.13046452 -0.05797499 -0.012964504 -0.055225812
000290 79 ae 13 3d 60 c5 d1 be 0a a7 c5 be 48 81 eb be
       0.036055062 -0.40970898 -0.38604003 -0.4599707
0002a0 fd 4f 00 bf d4 90 bf be 46 19 e7 bd 72 90 90 be
       -0.5012205 -0.37415183 -0.112841174 -0.28235203
0002b0 40 4d 8c be 4a 6f ad be 46 a2 69 be e5 02 b6 be
       -0.27402687 -0.3387397 -0.22815809 -0.35549083
0002c0 83 75 9f be 8c b5 59 be 48 ce 6f be fa c0 8a be
       -0.31144342 -0.21260661 -0.23418534 -0.27100354
0002d0 bf cd 94 3e 70 48 d6 3e 85 e4 01 3f 7f 59 b1 3e
       0.29063222 0.4185214 0.5073932 0.34638593
0002e0 65 68 8d 3e ae a8 ad bb 96 d7 0b 3d ac 8d e5 3d
       0.2761871 -0.005299649 0.034141146 0.112086624
0002f0 6f 74 02 3e 40 30 1e 3e 8b 1b a2 be 41 db ce be
       0.12739728 0.15448093 -0.3166164 -0.40401652
000300 7e 30 98 be 19 67 76 be 02 b9 44 be 8c 65 f6 bc
       -0.29724497 -0.24062766 -0.192112 -0.030077718
000310 a7 d4 16 be 42 81 9f bd d4 8d 1d bc ca f1 ff ba
       -0.14729558 -0.07788326 -0.009616334 -0.0019527015
000320 67 eb 90 be ee d2 36 bc ff d2 c4 bd 98 0c 5d be
       -0.28304598 -0.011158688 -0.09610557 -0.21586835
000330 58 49 a9 be ea 1c c6 3e 50 8e d0 3e aa ff 1f 3f
       -0.3306377 0.38693935 0.40733576 0.6249949
000340 a2 b2 0f 3f 26 d5 9e 3e c9 c6 37 3e de 72 ab 3e
       0.5613195 0.31021994 0.17946924 0.33486074
000350 59 76 9c 3e 60 1b d7 3e a2 70 86 3e 44 a8 92 3d
       0.30559042 0.42013073 0.26257807 0.07161
000360 31 a7 5e 3e 3a a4 f4 3d 69 21 3d 3e 80 6c 4d 3e
       0.21743466 0.11945386 0.18469776 0.2006092
000370 42 ba 02 3e ab b1 2c 3e 38 21 59 3e f1 1d 9e 3e
       0.12766364 0.1686465 0.21204078 0.30882218
000380 9f 9c 50 3e e3 be 15 3e 7e 1d 9b 3e 87 89 61 be
       0.20372246 0.14623599 0.30295938 -0.22025119
000390 91 b5 8d bb 00 bc 70 be 85 3b 97 3e 42 03 72 be
       -0.004324623 -0.23509216 0.29537597 -0.23634055
0003a0 4d 4f 06 bf bf bf 40 3e 93 67 32 37 01 1d c3 3e
       -0.52464753 0.18823145 1.0633742e-05 0.38108066
0003b0 38 d2 d2 be e4 ee f0 be bc 89 08 3f 1e 96 82 bd
       -0.4117601 -0.4705726 0.53335166 -0.06376289
0003c0 ad 0b 96 bd e1 a1 15 bf d1 9c e7 bd 02 eb e3 3e
       -0.07326446 -0.5845013 -0.11309207 0.44515234
0003d0 46 8c 1d 3d 6d e4 57 bd 47 27 7a be f1 bd 4d 3e
       0.038463853 -0.05270808 -0.24429046 0.20091988
0003e0 88 fe c3 3e 1b 35 dc bd 5b 8d 32 3e ba 5f 31 3e
       0.3828013 -0.107523166 0.17436735 0.17321673
0003f0 16 2f 82 be 6b 5b 10 3e a1 4f 7b 3d f4 07 4f 3e
       -0.2542655 0.14097373 0.061355237 0.20217878

module.conv1.bias f4 [6]
000000 f6 2f 9d be 0f 0e 39 bf e4 8f 24 bd 62 99 ae be
       -0.30700654 -0.72287077 -0.040176287 -0.34101397
000010 28 0c ce bd 96 04 60 be
       -0.10060912 -0.2187675

module.conv2.weight f4 [16, 6, 5, 5]
000000 ea 8d ce 3e af 8c 91 bd cf 1f 0a 3f f0 3e 7f bd
       0.40342647 -0.071069114 0.53954786 -0.06231588
000010 f1 84 11 be 83 9f 6c 3e f4 2f 3c be 51 2b 8b 3e
       -0.1421087 0.23107724 -0.18377668 0.27181485
000020 7a 89 b2 3e 5a 98 08 bc 21 79 8a 3e 1c 75 fa bd
       0.3487051 -0.008337105 0.2704554 -0.12229368
000030 8d 7d 8c 3d 15 0e 8f 3e 8d b9 da bd 3d 00 eb bc
       0.068598844 0.2794043 -0.10679922 -0.028686637
000040 33 a2 eb 3d 9d 4b 02 3d 18 43 33 3e 42 1f ce 3d
       0.115055464 0.03181039 0.17506063 0.10064556
000050 3a 0d f2 bd 99 b1 a0 bd 6f d6 35 be 27 18 d3 bd
       -0.11818929 -0.07846374 -0.17757581 -0.10307341
000060 a8 40 2e bc 4e a2 02 bd 1c 16 21 3e a4 09 6d 3e
       -0.010635532 -0.031893067 0.1573109 0.23148209
000070 68 29 51 3d 06 4b 42 bd c8 51 5c be 54 c9 c9 bb
       0.05106488 -0.04743483 -0.21515572 -0.0061580334
000080 68 8d 15 3e 02 5f af 3d 5c 1d 4c 3d 8e 09 ac be
       0.14604723 0.08563043 0.049832687 -0.3360104
000090 30 43 32 bd 96 d1 e4 3d 4f 46 13 3e bb 73 2f 3e
       -0.043521106 0.11172788 0.1438229 0.17133991
0000a0 ce 94 a4 be e6 65 b1 be b8 36 14 be 62 5d c0 3d
       -0.3214478 -0.34648055 -0.14473999 0.09392811
0000b0 00 c7 c6 3d f8 8f 84 be a1 ab fb bd 31 ef 27 be
       0.09705925 -0.2589109 -0.12288595 -0.16399838
0000c0 c6 96 ab bd d9 e9 c2 3c 92 f9 17 be 09 c4 36 be
       -0.08378367 0.023793148 -0.14841297 -0.17848219
0000d0 bd f7 93 bd 6a de f9 3d 7e 7b 08 3e 28 bc 8f be
       -0.07224987 0.12200625 0.13328359 -0.2807324
0000e0 3d 47 7f be 12 9a 52 be 23 95 cd bd 17 d3 c5 bd
       -0.24929519 -0.20566586 -0.10038211 -0.09659403
0000f0 39 3e c5 be 68 a7 9b be 1f fc 99 be 54 58 56 be
       -0.38524035 -0.30401158 -0.30075166 -0.20932132
000100 34 e4 c8 bd 13 35 3c be 79 47 b3 bd e9 41 a8 bc
       -0.09809151 -0.18379621 -0.08753867 -0.02053924
000110 b0 6f c2 bd 0c ab 00 3e 80 f9 00 be 77 9c 73 bd
       -0.09493959 0.12565249 -0.12595177 -0.05947539
000120 2f 79 ba bc ff 69 25 3d 8d e3 5a bd 29 e8 d1 3e
       -0.022762863 0.04038429 -0.053439666 0.40997437
000130 a5 cf c3 3d 88 40 81 3c 8e f8 e7 3e 79 f5 1b bd
       0.095610894 0.015777841 0.4530682 -0.038075898
000140 00 53 fb 3b 3f 06 2e 3d a8 4b 06 be 76 17 07 3e
       0.0076698065 0.042486425 -0.13114798 0.13192543
000150 45 49 19 3e 61 9a d9 bd 99 9c 03 3e a0 68 74 be
       0.14969356 -0.106251486 0.12852706 -0.23868036
000160 76 08 e6 bd 4a 08 7f 3e c9 ab 8a be c7 0b 9a 3d
       -0.112320825 0.24905506 -0.27084187 0.075217776
000170 54 99 18 be 71 f6 c3 bd 2b 87 5d 3c 64 6b 6e be
       -0.1490224 -0.09568489 0.013520996 -0.23283154
000180 7c 0d 8d bc d3 f2 1b be 8d cc 05 be ab c9 8e be
       -0.017218344 -0.15229349 -0.13066311 -0.27888235
000190 fb 04 c2 bd 89 c2 8e bd 4a 4b 81 be 3f 6d 2d bd
       -0.09473606 -0.069706984 -0.25252753 -0.042340513
0001a0 22 ee f7 3c aa 91 bf bd 72 5b 0f bd a6 83 07 be
       0.030264918 -0.09353955 -0.03499932 -0.13233814
0001b0 02 ff df bd 06 98 32 be 62 a0 80 bd 5e 2f 80 bd
       -0.10937311 -0.17440805 -0.062805906 -0.062590346
0001c0 4f bb 99 3b be 6c 8e bc ca c9 82 bd 9a d3 9e bd
       0.0046915184 -0.017385837 -0.063861445 -0.077552035
0001d0 f8 d5 78 bd 34 b6 c0 3c ba 58 36 3d 37 3e 14 bd
       -0.06075093 0.023524381 0.04451821 -0.036192145
0001e0 1c c7 ef bd 6d bd 21 bd a5 63 2d 3b a4 51 29 3e
       -0.11707899 -0.03948729 0.0026457098 0.1653505
0001f0 ab ae 92 3d bd d8 57 be cf 32 d9 bc 78 51 6f be
       0.071622215 -0.21078773 -0.026513485 -0.23370922
000200 d9 66 e5 bc 2c 5e 8d 3b 6c b8 ca bd 05 e0 b2 bd
       -0.028003143 0.0043142047 -0.09898457 -0.087341346
000210 ac 5e cf bd 4e f1 f0 bc 4e 8f cf 3d 2f 1a 8f bb
       -0.10125479 -0.029411938 0.10134755 -0.004367135
000220 48 e9 4f bd 54 38 74 be 8d 28 ef bd 7d c8 c5 bd
       -0.050759584 -0.23849612 -0.11677656 -0.09657381
000230 1b 92 d4 bd 3d a1 61 3e ac 6e 1a be a8 22 4e be
       -0.1037943 0.22034164 -0.1508128 -0.20130408
000240 5b 6f 97 be b2 e5 62 3b a0 7f 9d 3d f9 c5 c9 3d
       -0.29577145 0.0034621772 0.07690358 0.098522134
000250 7e 75 ab bb 1f 50 08 be d5 a9 08 be dc dc d3 bd
       -0.005232512 -0.13311814 -0.13346036 -0.1034486
000260 47 0b a3 3d c1 9b 87 bd e7 f5 a2 bd 51 ba d6 bd
       0.07961135 -0.066215046 -0.079570584 -0.10484756
000270 3e aa 0c bd fb 04 16 bb 52 d3 65 3d 37 f6 dc 3d
       -0.034342043 -0.0022891152 0.056109734 0.10789149
000280 77 26 a7 3e 4b 99 20 be 97 27 30 be 19 f9 8c 3d
       0.32646534 -0.15683477 -0.17202602 0.06883449
000290 53 5e 48 bd 57 32 19 3f 56 58 43 3f 00 b3 ee bd
       -0.04891808 0.5984244 0.76306665 -0.11655235
0002a0 4a 46 7b be 5c b5 99 be 84 4e bc be 89 9e dd 3c
       -0.24538532 -0.3002118 -0.36778653 0.027053135
0002b0 70 aa b5 3e 52 ce 73 3e 38 2d 0d 3e 6f eb fe bd
       0.35481596 0.23809174 0.13786781 -0.12447249
0002c0 8a 85 67 be bd 67 9b 3c b9 df 20 bd d0 52 e0 3b
       -0.22609535 0.018970365 -0.03927586 0.0068458095
0002d0 b2 2f 99 bd a7 26 27 be 44 f2 82 be d5 e4 ff bd
       -0.074798 -0.16323338 -0.2557546 -0.12494818
0002e0 3f b2 57 3e 5c db ae 3d 8f 4c a0 bd 38 ff e7 be
       0.21064089 0.08537933 -0.078271024 -0.45311904
0002f0 2e 1b 1a be e8 8c 2f 3d 4c c7 89 3e 4b 16 d2 3d
       -0.1504943 0.042858988 0.26909864 0.10258158
000300 2a f8 ac 3c 19 e9 e1 bd 01 be 72 bd 4a e8 81 3c
       0.021114428 -0.11030788 -0.059263233 0.015857834
000310 72 af 8e 3e 69 89 7c 3e b5 6e bc 3e 46 ac 27 3e
       0.2786823 0.24661793 0.36803213 0.16374311
000320 86 06 6d 3d 0a dd 68 3d be 56 46 3a eb aa 77 bd
       0.05786755 0.056851424 0.0007566026 -0.060465734
000330 7c 45 7d 3d af 9c ba bb c3 5a d2 3d 18 92 04 3e
       0.061833844 -0.0056949477 0.10271218 0.12946355
000340 8d fb 00 3d cf 0a 1c bd 22 9f d2 bd a2 4f 25 3e
       0.031489898 -0.038096245 -0.102842584 0.16143659
000350 b9 b8 89 3d b0 3f 90 3d 0d 91 16 be c7 49 1e bf
       0.06724686 0.070433974 -0.1470377 -0.61831325
000360 98 f4 38 3d 4a d1 c4 3e 2f f6 62 3e 58 1b ca be
       0.045155138 0.38440925 0.22164224 -0.39473987
000370 a2 14 82 be a0 5c c6 be 56 7f 11 bd ee 5a 1d 3e
       -0.25406367 -0.38742542 -0.035521828 0.15366718
000380 c1 71 9c 3e 5e e6 99 3d af ad 18 be 78 b0 b2 bc
       0.30555537 0.07514642 -0.14910005 -0.021812662
000390 00 e9 f6 3b e0 bf 50 3e e3 4b f1 3d 2a 9d c7 3c
       0.0075351 0.20385695 0.11782052 0.024366934
0003a0 1a 5f 8f bd 66 8a 01 3d c4 76 ab bd 1d 71 09 be
       -0.07000561 0.031626128 -0.08372262 -0.13422056
0003b0 7a 5a 03 3e 19 34 c2 bd 3b 16 ba bd 41 ff 65 be
       0.12827483 -0.09482593 -0.090862714 -0.22460653
0003c0 91 33 a5 be 7f 41 67 be ce 27 21 3e bd 4c 24 3e
       -0.32265905 -0.22583579 0.1573784 0.16044898
0003d0 02 64 92 3e cb 73 c5 be c4 96 12 bf 6b bd c7 be
       0.28591925 -0.38564906 -0.572613 -0.39011702
0003e0 5f fc 45 be c4 1d f2 bd 1b 22 54 be 4c 20 08 be
       -0.19334553 -0.118220836 -0.20716135 -0.1329357
0003f0 8a 45 9c bd dd 21 fa 3d 46 81 16 3e 1a f9 80 be
       -0.07630451 0.1221349 0.14697751 -0.2519005

module.conv2.bias f4 [16]
000000 92 0a 82 3e a8 90 c3 bf 11 b9 81 bf b1 9d 80 bd
       0.2539869 -1.527852 -1.0134603 -0.06280077
000010 7c e0 5c 3f 8e 4f b6 3e d6 a0 f0 3d 64 45 90 3f
       0.86280036 0.3560757 0.11749427 1.1271176
000020 d2 5e 0e be 18 92 a2 be 36 f9 70 bf fa 5d ca 3f
       -0.13903359 -0.31752086 -0.94130266 1.5809929
000030 5e 0b ae 3e 01 cd 18 bf c8 00 b3 3d 55 66 08 3f
       0.33993047 -0.5968781 0.087403834 0.53281146

module.fc1.weight f4 [120, 400]
000000 53 c7 45 bd 50 c3 07 bd 62 ad 47 bd 1b bf 7b ba
       -0.048285794 -0.03314525 -0.048749335 -0.0009603367
000010 9e 1c aa bd 02 6a b7 3d a5 09 a0 3c 4d ef 7c bc
       -0.083062395 0.08955766 0.019535849 -0.015437913
000020 f3 f1 0b 3c 3f 72 94 3c e5 d4 81 3c 80 c4 28 bd
       0.008541572 0.018120883 0.015848586 -0.041203022
000030 b0 46 81 bd f0 99 8b 3d b9 ae 82 3d 59 bb 46 3d
       -0.06312311 0.068164706 0.06380982 0.048518512
000040 af 49 78 bd 0b b0 29 be fe b5 8b bc 24 f3 da 3c
       -0.060617145 -0.16571061 -0.017054554 0.026727267
000050 d8 20 de 3c c2 4f ca 3b ce c9 95 bd 28 b6 98 bd
       0.02711527 0.0061740587 -0.07313882 -0.074566185
000060 d1 e2 65 3d 5f 5d ad 3d b5 e8 ff bc b8 f6 a5 3d
       0.056124512 0.08465075 -0.031238893 0.081036985
000070 c2 b9 d9 3d a9 b0 f6 3d d2 29 39 3d 37 65 4c 3d
       0.106311336 0.12045414 0.0452059 0.049901213
000080 1d e4 27 3d d8 a1 46 3d 1e 32 d2 3d ad d8 86 3e
       0.04098903 0.04849419 0.10263465 0.26337186
000090 29 66 30 bd 2f e2 0d bc 9d 79 f6 39 6b b8 1b bd
       -0.043066178 -0.008659883 0.00047011385 -0.03801767
0000a0 98 13 26 bd 15 07 1d bd f5 09 6d be d2 96 76 bd
       -0.04054603 -0.038336832 -0.2314833 -0.060202427
0000b0 08 45 1c bc 5d 2f 60 be a3 53 2c bd f6 ff 80 bc
       -0.009537943 -0.21893068 -0.04207195 -0.015747052
0000c0 ef 94 d3 bd 1f 9b 26 bb 2a 89 41 3e 0a a7 28 3d
       -0.10331141 -0.002542205 0.1889998 0.041174926
0000d0 cf dc 18 bc 56 be 53 bd 60 82 25 be d5 a7 29 bc
       -0.009329989 -0.05169519 -0.16163015 -0.010354956
0000e0 68 37 87 bd e6 d4 15 bd fb de 99 bd 7c 67 c9 bd
       -0.06602365 -0.03657999 -0.07513233 -0.09834191
0000f0 f6 39 99 ba 3a e1 51 3d c8 c0 ba bd ad 12 94 bd
       -0.0011690247 0.051240183 -0.09118801 -0.072301246
000100 b6 0c ac bd 9d 7f 0d 3e 2a d6 2d 3d ce 66 85 bd
       -0.08400862 0.13818212 0.04244057 -0.06513749
000110 15 c6 6c bd 01 c1 b0 bd 29 dd 26 be 90 0d 3e bc
       -0.057806093 -0.086305626 -0.16295303 -0.011599913
000120 25 4e ef bd 3c 2c 1b bd ea 88 05 bd 51 66 8c bd
       -0.11684827 -0.037883982 -0.032601275 -0.06855453
000130 6a 11 63 be 15 bb 0a bd e9 c2 10 bd ed 31 37 3d
       -0.22174612 -0.03386982 -0.03534213 0.044725347
000140 87 bb c4 bd 84 52 10 be c4 32 b2 bd ee 70 36 bd
       -0.096060805 -0.14093977 -0.08701089 -0.044541292
000150 d0 96 92 3d ca a6 c0 bd 43 37 93 bd 9d d3 93 3c
       0.071576715 -0.094068125 -0.07188275 0.018045241
000160 0d ba 32 3c 72 bb 5e 3c 2a 20 fb bd 55 0b a3 bd
       0.010908616 0.013594495 -0.12261994 -0.07961146
000170 4f 94 34 3d 3e fd 44 bd 3e 6b 4f 3d a4 fb e5 3d
       0.04408675 -0.048093073 0.050639383 0.11229637
000180 c4 6a ff 3d 19 d8 b7 3d ad 21 a1 bc a8 4c 8d 3d
       0.12471536 0.08976764 -0.019669378 0.06899387
000190 7d aa a8 3d 6d 3b 7e 3d b6 8f dd 3d dc 15 76 3d
       0.08235643 0.06206839 0.10818426 0.06007944
0001a0 b9 94 09 bd 0e 0e ac bb b8 f4 66 3d 70 5a f3 3d
       -0.0335891 -0.005250699 0.056385726 0.11882484
0001b0 f4 0a 24 3d 17 ae 6e bd 8e cb 38 3d 83 f0 50 3d
       0.04004951 -0.058271494 0.045116 0.05101062
0001c0 13 60 0c 3e b6 ae 26 3e 27 c7 04 be cf 4a 1a 3c
       0.13708524 0.16277584 -0.12966596 0.00941725
0001d0 b7 63 1f bd d5 60 9a 3a fe a8 82 bd c5 d8 75 bd
       -0.038913455 0.0011778126 -0.06379889 -0.06002118
0001e0 66 2d 44 3d 5a cc a0 bb 8b 79 46 bb a1 da 0a be
       0.047894858 -0.004907173 -0.0030284848 -0.13559963
0001f0 b9 f0 0c be 69 68 49 bc 6c bf 05 bd 27 9c f0 3d
       -0.13763703 -0.01229296 -0.032653257 0.11748534
000200 94 6f f0 3c ed 32 04 be 30 e4 3f bd bd 01 4a ba
       0.02935008 -0.12910052 -0.046848476 -0.00077059475
000210 2b 43 c0 3c 77 f5 e3 b9 83 73 da bd e8 83 06 3d
       0.023469528 -0.000434797 -0.10666563 0.03284064
000220 05 f3 a4 bc a2 6e ed bd 23 16 e2 bd 6c d0 15 be
       -0.020135412 -0.11593367 -0.110393785 -0.14630288
000230 d7 ca 6a bd 76 49 1b 3c 66 c1 d9 3c 7e 39 bb 3a
       -0.05732235 0.009477964 0.026581477 0.0014284102
000240 21 55 2a 3d 7c 3b 3d bd 1e 13 71 3c fd 1b 22 bd
       0.04158509 -0.046199307 0.014714031 -0.039577473
000250 11 b6 51 bd 87 92 4f bb e8 07 53 3c 95 ba a8 bc
       -0.051199023 -0.003167303 0.012880303 -0.020596782
000260 52 35 b5 bd ce 13 e3 bd 09 00 0f bd a6 b2 9a 3d
       -0.08848061 -0.11087762 -0.034912143 0.07553606
000270 05 75 f8 bd 69 88 6a bd 78 ba 3d bd f2 65 10 bd
       -0.12131695 -0.057258997 -0.04632041 -0.035253473
000280 fa c5 6b 3d 2c 13 00 3b aa 7f 36 3b b1 1e 7a bd
       0.057561852 0.0019542677 0.002784709 -0.061064426
000290 f7 5c d3 bc d1 81 84 bc 1d 57 19 bd c7 fe d5 bd
       -0.025801165 -0.016175183 -0.037436593 -0.104489855
0002a0 41 26 a0 bc 01 d7 df bc d8 56 69 bd ba 2b 6c bc
       -0.01954949 -0.027324202 -0.056967586 -0.014414722
0002b0 43 f9 f6 bc 2f 03 c3 3d e6 9e f0 3d f2 02 1c 3d
       -0.030148154 0.095220916 0.117490575 0.038088746
0002c0 bf 1b b0 bc 1e 3f 78 3c 20 93 fe 3d dd 14 04 3e
       -0.021497605 0.015151767 0.124304056 0.12898584
0002d0 dc 41 23 bc 54 50 cf 3d d2 48 27 3e 61 68 0f 3d
       -0.009964433 0.10122743 0.16336372 0.035011653
0002e0 6b ac a4 bb a5 f3 ca bc a2 86 8d 3c fc 11 54 bc
       -0.0050254366 -0.024774382 0.017276112 -0.012943741
0002f0 9b fe 40 bb b3 7f a3 3c 84 ac 79 bd c9 b6 98 3c
       -0.0029448632 0.019958353 -0.06095554 0.018641846
000300 00 63 37 bd 10 a9 53 bc 7e d6 b5 bc 2e c5 04 3d
       -0.044772148 -0.012918726 -0.022197004 0.032414608
000310 80 57 08 bc 59 70 7b bd 88 f8 8f 3c d2 cd b2 bd
       -0.008321643 -0.06138644 0.017574564 -0.08730663
000320 e0 d4 d7 bd 15 be bc bc 7b c0 0f be d8 53 68 be
       -0.105386496 -0.023039857 -0.14038269 -0.22688234
000330 1b fb d0 bd 4f 98 a3 bd 50 b2 d0 bc 01 4f 2e 3a
       -0.102041446 -0.07988035 -0.025475651 0.0006649346
000340 e6 75 cd bd 75 c5 01 3d 6d 12 8f 3c 1e 1d e3 3c
       -0.10032253 0.03168245 0.01746484 0.027723845
000350 7d 3c 7d 3d 87 19 cb 3b 9f 3e 56 3d 4c ab 9a bd
       0.061825264 0.0061981115 0.052305814 -0.075522035
000360 ab 86 e3 bd 06 a2 19 bd 19 24 5e bd 7d 70 91 3c
       -0.1110967 -0.037508033 -0.054233644 0.017753834
000370 29 af 3a be ab de a7 bd 3d 59 ce bd ae e3 6a bd
       -0.18230881 -0.081967674 -0.100756146 -0.05734604
000380 af 2f f7 bd 2c 88 a6 3d e0 60 80 3d 10 91 5a bd
       -0.12069642 0.081314415 0.062684774 -0.053361
000390 00 8b 34 bd e3 ef 0e be 88 79 7c 3d c4 9c 48 3d
       -0.044077873 -0.13958697 0.06163934 0.04897763
0003a0 f4 a1 44 bd 03 f1 03 3d 34 ac ca bd 2c 68 03 3e
       -0.048006013 0.03221227 -0.098961264 0.12832707
0003b0 ef 56 57 bb ce ae 04 bc 1d 3a 8e 3d 6d 68 a0 bd
       -0.0032858213 -0.008098317 0.06944678 -0.07832418
0003c0 f1 06 4e 3e 8b 6a 19 3e d0 62 2f 3d 20 9c 23 3d
       0.20119835 0.14982049 0.042818844 0.039943814
0003d0 d3 60 1f 3d 9a e7 00 3e f1 70 47 bc bd ae c6 3d
       0.0389107 0.12588349 -0.012172923 0.097012974
0003e0 80 17 db 3d 9f 73 6d bb 33 87 94 bd e1 a1 c5 bd
       0.10697842 -0.0036232246 -0.0725235 -0.096500166
0003f0 d3 3e cc bd 52 05 18 be ab 38 52 bd af dd 61 bd
       -0.0997292 -0.1484578 -0.051323574 -0.055143055

module.fc1.bias f4 [120]
000000 f6 da 36 3e 4e e0 35 be 0b aa 35 be b5 c3 70 bd
       0.17856964 -0.17761347 -0.17740647 -0.05878039
000010 69 96 65 be bd e6 59 be b6 c0 34 3d a6 0a b4 3c
       -0.22420658 -0.21279426 0.044129096 0.021977734
000020 39 59 85 bd b2 df 29 3b 68 f2 6a 3d bd f2 51 3d
       -0.065111585 0.0025920686 0.057360083 0.051256884
000030 11 00 32 be d4 b7 c7 be b4 9a c4 bb 9e ad 90 3e
       -0.17382838 -0.39007437 -0.0059998874 0.2825746
000040 27 1e 5d 3c 0b 54 04 3e 0a 88 5e 3e aa 82 5d 3d
       0.013495958 0.12922685 0.21731582 0.05407969
000050 41 34 ad 3d d6 f0 90 3c 30 af 0c be 18 6e 36 bc
       0.08457232 0.017692965 -0.13738704 -0.011134647
000060 86 9c ba bd 0f ac b6 bd d2 7a fa bd b4 31 58 3e
       -0.09111886 -0.08919536 -0.12230457 0.2111271
000070 bc d8 bb 3e 3f 54 08 3c e5 a8 f5 3c 2c de ea bc
       0.36688793 0.008320867 0.029987762 -0.028670393
000080 d7 c6 97 3c 33 e2 05 be 36 7b 56 3d da 83 8d 3e
       0.018527431 -0.1307457 0.052363597 0.27639657
000090 94 55 24 3e 61 bf 07 3e 66 7b 44 3b e7 29 6d 3e
       0.1604827 0.13256599 0.0029980778 0.23160516
0000a0 6d ba 10 3e d7 13 fe 3d b8 2e 56 be 7e 90 24 3e
       0.14133616 0.12406128 -0.2091626 0.16070744
0000b0 f0 54 5d 3e 54 d7 e7 3e 0e b3 62 bd c5 bc 79 3e
       0.21614432 0.4528147 -0.05534654 0.24388416
0000c0 80 e5 c6 3b 1e 2c fd 3d 99 3b c1 3e b5 a4 a5 bd
       0.006069839 0.1236193 0.37740782 -0.08088056
0000d0 a3 68 b1 3d 16 7f 5b 3d ed 5d 35 3e ec af 8e 3c
       0.08662536 0.053587995 0.17711611 0.01741787
0000e0 89 10 f8 bd ce dc e4 3d 50 d1 b3 3d 1e 46 c8 3d
       -0.12112529 0.11174928 0.087801576 0.09778999
0000f0 ee 81 e9 3e 90 7b 90 3d 48 29 79 3e 4a 58 1c 3d
       0.4560694 0.07054818 0.24332154 0.038170137
000100 62 26 7e 3d a7 43 1f bd 0a ae 95 be 6c e2 bb be
       0.062048323 -0.038882878 -0.29234344 -0.36696184
000110 c0 7c 0f 3d 3e 6a 1d 3c 67 b9 53 3e 90 5e da bd
       0.03503108 0.00960785 0.20676194 -0.106625676
000120 1f 07 6b bc e7 7b 14 bc b5 a8 fe bd 16 dc de bd
       -0.0143449595 -0.009062744 -0.12434522 -0.10881822
000130 7b 2e f2 3d e0 a6 b6 3d b6 5c 69 3d 22 0c 19 bd
       0.11825272 0.08918548 0.05697318 -0.037365086
000140 b2 71 19 be 58 99 32 3e 29 3a bf 3d 06 d2 14 3e
       -0.14984778 0.17441308 0.09337265 0.14533243
000150 cf c6 b6 3d 9d 45 e3 3e 84 22 4a 3e 1e e2 40 be
       0.089246385 0.44389048 0.19739729 -0.18836257
000160 9d 40 9b be b1 59 1f 3e 37 e8 b5 bc 8b 3e 8a 3e
       -0.30322734 0.15561558 -0.022205455 0.27000841
000170 13 ef 9d 3d 25 a1 ec bc d6 ac 4f be 0d c6 b6 3e
       0.077116154 -0.028885433 -0.20280775 0.35697976
000180 95 3a f3 3d 81 bf 3f 3e bf 8b 1a 3e ef ab 30 be
       0.11876408 0.18725397 0.15092371 -0.17253087
000190 b6 a3 59 bd 2b 68 97 bc 5b 3e 8d bc 63 cf 9d bb
       -0.053134643 -0.018482288 -0.017241647 -0.004815982
0001a0 d6 b5 a0 3e b5 02 ab be d0 28 fb bc a8 b6 04 be
       0.3138873 -0.33400503 -0.03065911 -0.12960303
0001b0 fa f1 55 be a4 f1 7f 3e aa 92 7f bd 97 2a af bd
       -0.20893088 0.24994522 -0.06239573 -0.08553045
0001c0 db 6d a8 3d 90 6b 24 bd c1 5a 13 3d 89 af 4c 3d
       0.08224078 -0.040141642 0.03597522 0.04997209
0001d0 39 80 3a bd d8 e8 42 bc 43 bb 18 3e 5e 6b a0 3e
       -0.04553244 -0.011896335 0.14915185 0.31331915

module.fc2.weight f4 [84, 120]
000000 ff aa 30 be 22 3d f1 bc 88 01 93 3c e6 f1 90 3d
       -0.1725273 -0.029448096 0.017945066 0.070773885
000010 3a d2 f0 bd 9b a4 b9 3d 2c a2 02 bd 69 de 2d 3e
       -0.117588475 0.09064599 -0.03189294 0.16979374
000020 3c 5b 34 3e 27 7d f7 bd 8f 09 79 3d f9 bb ca 3c
       0.17612928 -0.12084418 0.06080013 0.024747835
000030 17 09 9f 3c d4 8f 33 3c 7e 1d 7d bd c6 84 cd bd
       0.019413514 0.010959584 -0.061795704 -0.1003509
000040 a1 55 18 3e 2f 2b bc 3c 27 b7 8b 3b 44 03 4c 3d
       0.14876415 0.02296981 0.004263777 0.0498078
000050 44 f0 a4 bd 76 bd b2 3d a4 53 47 3d 13 3b b3 38
       -0.080536395 0.08727543 0.04866375 8.5463886e-05
000060 24 3a 38 3e 22 68 b6 bd f0 c2 3c 3e ad ce 37 be
       0.17990929 -0.089065805 0.18433738 -0.17949934
000070 b8 ac 81 bd e5 b2 eb bc 0e b5 8b bd 91 65 99 3b
       -0.063317716 -0.028771827 -0.06821643 0.004681297
000080 14 fd e1 bd 52 37 d2 bd 87 64 0a be 47 85 02 be
       -0.11034599 -0.10264458 -0.1351491 -0.12746154
000090 0e d4 0e 3e d5 98 45 3d a9 3b be bd 14 16 35 be
       0.1394808 0.048241455 -0.09288723 -0.17684203
0000a0 cb 82 96 3b 3b 93 21 3e b2 cd b7 bc 14 4f 9f 3c
       0.0045932285 0.1577882 -0.02243695 0.019446887
0000b0 69 9c 2f bd f5 e0 2b be 04 bd ef bd 6f a5 fb 3d
       -0.042873774 -0.16785033 -0.11705974 0.12287413
0000c0 0c 35 1e 3d 30 26 25 bd 5a 7c 89 bc 52 57 38 bd
       0.03862481 -0.04031962 -0.016782928 -0.04500515
0000d0 a9 59 27 be ec a7 40 be 67 b2 ea 3d d8 ad 8d 3d
       -0.16342796 -0.18814057 0.11459809 0.06917924
0000e0 0d 66 6d 3e 77 89 7c bb d8 94 07 3c ca 38 32 be
       0.2318346 -0.0038534084 0.008275233 -0.17404476
0000f0 3b 0c 94 bd 4a e6 b1 3c 2d a8 16 be 74 e2 cd bd
       -0.07228895 0.021716256 -0.14712591 -0.10052958
000100 d1 28 1f 3d 87 63 66 3d 3d bd 5f 3d c1 e8 85 bb
       0.038857285 0.05624726 0.05462383 -0.0040865843
000110 14 67 18 be 76 1e 6c 3d 15 83 23 be 8b 84 1e be
       -0.14883071 0.057646237 -0.15967973 -0.15480249
000120 42 55 db 3d 68 d5 3c 3c 95 16 91 3d b4 a7 46 3e
       0.10709621 0.011525489 0.07084385 0.19399911
000130 2b db 12 be 48 be ad 3c 09 94 10 be 42 f9 80 bd
       -0.14341418 0.021208897 -0.14118971 -0.06297542
000140 0d 1f 12 3c 69 86 25 be 10 b5 09 be e0 e3 58 bd
       0.008918536 -0.16164555 -0.13447976 -0.052951694
000150 3e 75 0d bd e4 4d e2 bd 30 1c 29 3e 0c 30 6d bc
       -0.03453564 -0.11050013 0.16514659 -0.014476787
000160 6b 4f 85 3d 5a be 79 bd da 59 0d be 26 d3 b6 bc
       0.065092884 -0.06097255 -0.13803807 -0.02231748
000170 6d c6 c8 bd be 4b 58 3d c8 c9 b7 3c 0e 86 b1 3b
       -0.09803472 0.05280661 0.022435084 0.005417592
000180 34 9d 99 bd f3 6a d5 bc f4 b5 b0 bd 92 23 97 bd
       -0.07500687 -0.026051974 -0.08628455 -0.073798314
000190 23 32 ed bc 95 29 39 bb 2c 79 8f bd 7b e3 5e bd
       -0.028954571 -0.0028253545 -0.070055336 -0.05441616
0001a0 c1 58 21 be e2 d5 8f bd 52 9c 92 bd ed 71 da 3d
       -0.15756513 -0.07023217 -0.07158722 0.10666261
0001b0 84 e5 d3 3d 4a 3f b0 bc 31 2d c7 bd c7 15 07 bc
       0.10346511 -0.021514554 -0.097254165 -0.008244938
0001c0 c2 d0 49 3d a8 72 13 be a8 c4 8b 3d 8a 97 8f 3d
       0.049271353 -0.14399207 0.068246186 0.07011326
0001d0 1c 34 c3 bd fd eb a7 3d 2e 2b 29 bd 7b 5f 53 bc
       -0.095314234 0.08199308 -0.041300945 -0.012901182
0001e0 9e 1a 9c 3c 85 4f f3 3d c4 3c c2 3d de be 78 be
       0.01905566 0.118804015 0.094842464 -0.2429156
0001f0 a6 33 98 3d 5d db dc bd 57 9c 30 3e f2 6c b3 bd
       0.07431726 -0.10784028 0.17247139 -0.08761014
000200 19 47 d7 3c 0e bb 5a 3c a6 70 22 be 4e ce 6a 3e
       0.02627902 0.013350261 -0.15863284 0.22930261
000210 5f 08 db bd 8d 2a fb 3c fa c0 21 3d 68 0f 7c 3d
       -0.10694956 0.030659938 0.039490677 0.06153813
000220 0d 52 10 3b 69 6b d7 ba 51 4d 0c bb 10 17 73 bb
       0.0022021562 -0.0016435209 -0.002140839 -0.0037092604
000230 da 52 bf bd c0 09 4d be 5d 1c e5 bd 82 97 26 bb
       -0.093419746 -0.2002325 -0.111870505 -0.0025419896
000240 b3 6e 63 3d 8c b7 1d be 8d 47 e5 3d 56 97 9e bd
       0.055525493 -0.15402049 0.11195288 -0.07743709
000250 e6 b0 5a 3e 87 0d 0a bc f4 62 25 be 23 ac ca bd
       0.21356544 -0.008426077 -0.16151029 -0.09896114
000260 d5 2a 56 be 8d 22 f1 3d fb a1 21 3d 05 25 56 3c
       -0.20914777 0.11774168 0.039461117 0.01307035
000270 5c 86 60 3d 87 2a 57 be 82 fc aa 3c 24 6c 46 be
       0.054815635 -0.21012317 0.020872358 -0.1937719
000280 a2 f3 11 bd ec cf 33 3e 67 56 0c be f0 2e e3 3d
       -0.035632737 0.17559785 -0.13704835 0.11092937
000290 25 f0 cd bc b4 c5 25 3e 57 76 34 3e 77 bd 58 bc
       -0.025138924 0.16188699 0.17623268 -0.013228766
0002a0 0f 7b e1 3c e1 33 77 3d c7 d3 cc 3d 26 b8 4c be
       0.0275245 0.06035221 0.10001331 -0.19992122
0002b0 e0 4d 78 bd 0e 37 62 bc a2 07 69 bd f1 2e 84 3d
       -0.060621142 -0.013807071 -0.056892045 0.06454266
0002c0 67 a6 a4 bd 3b 7a 97 be 13 83 de bd 7e 6a 89 bd
       -0.08039551 -0.29585442 -0.10864844 -0.06709765
0002d0 18 07 00 bd 15 3c 17 bd 1a fc 16 be b1 04 11 3e
       -0.031256765 -0.036922533 -0.14744607 0.14161946
0002e0 b4 50 bc bd d9 06 9f 3d f9 8e 31 3e 70 ed a8 bc
       -0.091950804 0.07764978 0.17339696 -0.020621032
0002f0 79 1d cb bd 50 4e 8e 3e e6 02 dd 3d e5 a3 37 3d
       -0.09917731 0.27794123 0.107915685 0.044834036
000300 45 b2 bd bd 9e 96 34 be c2 a5 66 bb 0a e4 e1 3c
       -0.09262518 -0.17635581 -0.0035194014 0.027574558
000310 f1 fe 53 be e6 7f 27 3d de 45 8d be cc be ae 3c
       -0.20702721 0.040893458 -0.27592367 0.021331213
000320 82 54 4c bd 6e 36 e0 bd e9 08 4b be b7 7d d4 bb
       -0.04988528 -0.10947882 -0.19827618 -0.006484713
000330 b1 f3 ca bc 7b 9a ce 3c a4 71 ac bc f1 d2 65 bd
       -0.024774404 0.025220146 -0.021050282 -0.056109373
000340 95 2c d8 bd c9 3f 5d 3e 07 79 ed bc 33 5f 27 be
       -0.10555378 0.21606363 -0.028988374 -0.1634491
000350 15 f3 0b 3e 08 62 84 3d 81 8b 8b bd 52 8a 06 be
       0.13666947 0.064640105 -0.06813718 -0.13138703
000360 ee 57 b7 bd 95 2b 84 3c 67 d9 55 be e7 60 eb 3d
       -0.08952318 0.016134063 -0.20883714 0.11493092
000370 93 d2 8d 3c bf 03 39 be bc a9 42 bd 0a 35 2d be
       0.017312324 -0.18067835 -0.047525153 -0.16914764
000380 9f e0 03 be c3 23 e4 3b af 1f 81 bd 17 cd 58 bd
       -0.12878655 0.006962271 -0.06304871 -0.052929964
000390 3d cb 42 3d 34 11 04 be c4 bd c4 3c 40 63 39 3c
       0.047557104 -0.12897187 0.024016269 0.011315167
0003a0 f2 44 2d 3e 9d 96 0a 3e 6f e5 16 3d 6b 9a 1b 3d
       0.16920832 0.13534017 0.0368399 0.03798906
0003b0 76 d4 84 bd cb 35 bf 3c 58 7f 32 3d 77 c1 07 be
       -0.06485836 0.02334108 0.043578476 -0.13257395
0003c0 af a4 f6 bc 49 49 9d 3d a6 e5 21 be 93 27 eb bd
       -0.030107824 0.07679994 -0.1581026 -0.114821576
0003d0 0c 2b d7 bd 9e 82 cf bd f1 e3 d8 ba f0 c5 4c 3e
       -0.105062574 -0.10132335 -0.0016547424 0.19997382
0003e0 b1 9d ef bd 81 78 9f 3d 3f 40 5b bd 8b d6 77 3d
       -0.11699999 0.07786656 -0.053528067 0.06050734
0003f0 1e b2 a4 3d 38 96 16 bd 09 1f 54 3d 96 db a3 3d
       0.08041786 -0.036764354 0.05178741 0.08000867

module.fc2.bias f4 [84]
000000 43 3a 8f bd d7 71 c1 3c 32 14 4d 3f ce e5 a2 3d
       -0.069935344 0.023613853 0.8010894 0.07953988
000010 b2 ef 9f bc 20 3a 0f 3f 9d a2 27 3e 57 00 18 3e
       -0.019523475 0.55948067 0.16370626 0.1484388
000020 79 f5 bb 3c c3 7f cb 3e b1 d0 6b 3f 20 74 fb 3d
       0.022944199 0.39745912 0.9211531 0.122780085
000030 1c 98 ef bd 31 a9 33 3e ac 2c ea bc a2 f8 12 3e
       -0.116989344 0.1754501 -0.028585754 0.14352658
000040 9d b8 ba 3d 1e 10 4f 3f 42 b5 aa 3e d4 bc 79 3d
       0.091172434 0.8088397 0.33341414 0.060971096
000050 8e be ea bc 26 25 05 3e 3f cb 1c 3f 26 87 8a 3e
       -0.028655317 0.13002452 0.6124763 0.27056235
000060 77 29 8e 3e 1d 02 16 3e 2d 98 89 3e 4a f0 c2 3e
       0.2776601 0.14649244 0.26873913 0.3807395
000070 60 54 82 3c 31 58 71 3e 8e 02 a1 ba ea e8 26 ba
       0.015909374 0.23568799 -0.0012284087 -0.00063671044
000080 71 19 6a bd c0 61 76 be 7a 5d ed be 20 ec 02 be
       -0.05715317 -0.24060726 -0.4636038 -0.12785387
000090 48 c1 c7 3e af 94 97 3e 05 af 78 3d 54 86 d6 bd
       0.3901465 0.29605624 0.060713787 -0.1047484
0000a0 50 81 1a 3e ff cd f2 3d 52 df 27 3f f0 46 1c bd
       0.15088391 0.11855697 0.65575135 -0.03815359
0000b0 1e e8 17 3e 11 f2 a4 3e 62 f5 30 bd 07 b4 a0 3d
       0.1483464 0.32215932 -0.043202765 0.078468375
0000c0 fa ba 7d bc ab 94 1d 3d d7 46 19 3f 63 7a 93 3d
       -0.015486473 0.03847186 0.5987372 0.07201078
0000d0 bd 2f ae 3e d1 08 88 3e 18 f9 26 3e 1d 66 b5 bd
       0.34020796 0.26569226 0.16305959 -0.08857367
0000e0 f6 fc 47 3f 8c 1a 2f 3e 16 47 c0 3e 84 ea 0e ba
       0.7812036 0.1709997 0.37554234 -0.00054518157
0000f0 d2 76 81 bd dc 66 8a bd d5 2d da 3d 86 a2 2c bd
       -0.06321491 -0.067579 0.10653273 -0.042147182
000100 da 82 dc 3d 4d de d0 3d 12 4c a1 bd eb 1d 7e 3e
       0.107671455 0.101986505 -0.078758374 0.248161
000110 ea f8 91 3d b0 15 94 3e d8 77 a6 3d 08 69 38 3e
       0.07127555 0.28922796 0.08128327 0.18008816
000120 e4 5d 57 3d 54 33 a4 3e 8b 67 ec bd 9e 56 af bd
       0.052579775 0.3207041 -0.11543187 -0.08561443
000130 c4 02 58 3e d1 d1 c0 3e 78 2c 85 3d ce 64 26 3e
       0.21094805 0.37660077 0.06502622 0.16249391
000140 a2 06 74 3e 77 25 8c 3d 40 01 14 3f da f3 0a bd
       0.23830655 0.06843083 0.5781441 -0.03392396

module.fc3.weight f4 [10, 84]
000000 df 37 b2 3c 37 95 a2 3d 12 5a 91 be 4a 18 42 3d
       0.021755157 0.07938617 -0.2838903 0.047386445
000010 67 b1 d7 bc 07 71 89 3c 5b b2 60 be 4b f9 b9 bd
       -0.02632971 0.016777528 -0.21943037 -0.09080752
000020 5a ca d2 3d 12 95 2c 3e c4 ee 87 be 95 8e cb 3d
       0.10292502 0.16853741 -0.2654935 0.09939305
000030 8b 38 91 be 79 7c 1c 3e 75 04 72 3e 0d b6 31 be
       -0.2836345 0.15281858 0.23634513 -0.17354603
000040 cd e4 13 3e ee 16 9b 3d 3f 0c a5 be 8f 9b 5d 3e
       0.1444275 0.07572733 -0.32235906 0.21641372
000050 10 e2 a4 3d 2b 45 37 3e 3f 24 eb 3c 74 cd 0c 3e
       0.080509305 0.17897479 0.028703807 0.13750249
000060 84 8e 0c 3e 41 fb b3 3d fc ad a3 3d 0c 28 20 3e
       0.1372624 0.08788157 0.07992169 0.15640277
000070 1c 6c 96 3d d1 53 5d 3e 61 85 24 3e 3d 61 11 be
       0.07344839 0.21614005 0.16066505 -0.1419725
000080 bf 6e 43 3e 1f 2e a0 3e c1 e0 ad 3d 77 70 5a bc
       0.19085215 0.31285188 0.08490134 -0.013332478
000090 e3 f0 fa 3d c8 0c 48 3e 5e 2d e3 bc f8 d3 94 bd
       0.12252977 0.19536126 -0.027731594 -0.07266992
0000a0 85 49 df bc 5d 56 55 3e 50 6b 2e 3d 6a 28 97 bd
       -0.027256737 0.20833726 0.04258281 -0.07380755
0000b0 10 3c 14 be d7 bc 38 be 75 b1 10 be fb df 1f 3d
       -0.14476037 -0.18040787 -0.14130194 0.039031964
0000c0 b6 b6 9b 3d 51 37 5a be e1 b0 ea bd f4 60 37 3e
       0.07603209 -0.21310164 -0.11459518 0.17908078
0000d0 65 36 46 3e 07 bb fe bc 19 58 3d be 4c b7 b6 3c
       0.19356687 -0.031095041 -0.18490638 0.0223042
0000e0 f3 fa c9 be 76 93 40 3e da a9 dd be bd 8f 16 3e
       -0.39449272 0.18806252 -0.4329365 0.1470327
0000f0 82 5b 4a bd b8 b7 e1 bc a5 88 bc bd 0e 70 49 3e
       -0.049403675 -0.027553424 -0.092057504 0.19671652
000100 fb ac 40 be 91 7a 6e bd 2d 45 23 be ca 04 24 be
       -0.18815987 -0.058222357 -0.15944357 -0.16017452
000110 98 e6 24 3d ca f3 5d bb 08 5c b5 bc 95 95 dc 3d
       0.040258974 -0.0033867233 -0.02213861 0.10770718
000120 55 aa e1 bd f9 50 86 bd 64 db 58 3e 8a 31 da 3d
       -0.110188164 -0.06558413 0.21177441 0.1065398
000130 e0 74 bb bd c8 16 96 be e3 9c ab bb 51 7c 59 3e
       -0.091531515 -0.29314256 -0.005237208 0.21238829
000140 91 26 fb bd d6 7b 2d 3d c3 b2 85 3e 32 98 1d bd
       -0.12263215 0.042354427 0.26112947 -0.038475223
000150 86 56 85 3e 78 fe e2 3d 55 35 d4 be 39 f1 3b bd
       0.26042575 0.11083692 -0.4144694 -0.045884345
000160 ce 19 4a bd 33 77 be 3c 1d d3 3b 3e 17 2d 63 bd
       -0.049341016 0.023250198 0.18342252 -0.055462923
000170 bf d0 4b 3e ad 09 33 3e ad 94 f9 bd fa f9 46 3e
       0.19903849 0.1748416 -0.12186561 0.19431296
000180 1d c2 3c 3e de dd ae 3d ce bb 65 3e b2 bc 5e bd
       0.18433423 0.085384116 0.22434923 -0.054379173
000190 8f bc 94 be 14 24 4f be d9 17 11 be a0 3d db 3e
       -0.2905011 -0.20228606 -0.14169253 0.42820454
0001a0 02 a8 49 3e 82 ce 65 3e 69 de a3 be c9 57 35 be
       0.19692996 0.22442058 -0.32005623 -0.17709269
0001b0 f3 e7 61 be 78 96 39 3e 11 80 48 be a9 42 80 be
       -0.22061138 0.18123806 -0.19580103 -0.25050858
0001c0 23 59 f2 3d 0c a8 42 3c 5a 51 7a 3d 5f 12 be 3c
       0.11833408 0.011880886 0.06111274 0.02320212
0001d0 58 c1 17 be 65 34 f8 3d b6 ac 81 3e 9b e3 43 3e
       -0.14819849 0.121193685 0.2532708 0.19129793
0001e0 1b dd 1a be e3 70 97 bd 8e e3 18 3d 2b 93 25 3d
       -0.15123408 -0.07394578 0.037326388 0.040423553
0001f0 c1 c2 cd bc 7d e1 29 be 22 75 c9 bd 1c de 45 3e
       -0.02511728 -0.16589923 -0.098367944 0.19323009
000200 de 81 45 3c af fc ad 3d be 40 35 be 20 a5 3d 3e
       0.0120548885 0.08495461 -0.17700478 0.18520021
000210 a6 80 4b bd c7 85 93 3c 0b 70 09 be d8 38 be 3d
       -0.049683236 0.018008126 -0.13421647 0.09288186
000220 e7 57 32 3d ad 00 19 be 9c 9d 54 3b b3 c7 89 bd
       0.04354086 -0.14941664 0.0032442575 -0.06727543
000230 b5 9d ba bd df cc 4e be 15 a4 78 bc 96 da 1a be
       -0.091121115 -0.2019534 -0.015175839 -0.15122446
000240 b3 af da 3d 68 ca d3 3d 8f 65 12 3e 31 60 43 3e
       0.10678043 0.1034134 0.14296554 0.19079663
000250 f8 bf 93 3e 04 16 3b bd 01 d9 17 3e 21 1f 33 3c
       0.28857398 -0.045675293 0.14828874 0.010932715
000260 9e 0b ed bd 19 99 1c be 60 6e 2f 3e 66 14 2f 3d
       -0.115744814 -0.15292777 0.17131948 0.042744063
000270 e4 75 5f 3d 1a e4 53 be 6c 31 1d bb 68 e1 1d be
       0.05455579 -0.20692483 -0.0023985757 -0.15418017
000280 32 8f 16 bd 9a 15 bb bc 9f 09 4d bd 6d f0 9f be
       -0.036757655 -0.022837449 -0.050058004 -0.31238118
000290 67 05 06 be 5f 62 fe 3d 3c b7 5d bd cc 1d b9 3d
       -0.13087998 0.124211065 -0.054129824 0.090388864
0002a0 b0 a9 3e 3d a8 b6 f2 3c f1 3a 35 3e 36 0b 2c be
       0.046548545 0.029628113 0.17698266 -0.16801152
0002b0 d0 53 a3 bd f6 fd 44 be 3c 8b 77 bd 7e d8 af 3d
       -0.0797497 -0.19237503 -0.06043552 0.085862145
0002c0 e7 85 1d be f0 5b 0d be 99 95 86 3e a3 1c 9b ba
       -0.15383111 -0.13804603 0.2628601 -0.0011834096
0002d0 ef 4e 4e 3d 3a 46 31 be 52 bf 84 3d b8 21 28 be
       0.050368246 -0.17311946 0.06481804 -0.16419113
0002e0 1b 50 58 3e 13 48 49 3e 9a dc 35 3e b1 fc 29 be
       0.21124308 0.196564 0.17759934 -0.166003
0002f0 be ac e5 bd 4f 56 8a be 60 9c 16 3e a4 e3 61 3e
       -0.112145886 -0.27018973 0.1470809 0.22059494
000300 19 61 11 3e e4 46 a4 bd 3e 38 46 3e 83 cb 90 bd
       0.14197196 -0.08021334 0.19357392 -0.07070067
000310 e0 df 52 bd 71 4f 27 bd 4d 58 39 bc e6 66 6f bd
       -0.051483035 -0.040847246 -0.011312556 -0.05844774
000320 57 c9 19 3d cc 1b 8d bd a5 47 47 b9 b3 19 07 bd
       0.03754553 -0.068900675 -0.00019004809 -0.032983493
000330 3c c5 39 3c 58 80 b0 3d b8 d4 01 be 66 4a 6f bb
       0.011338528 0.0861823 -0.12678802 -0.003651285
000340 d9 eb d0 bd 11 61 c7 3c f9 59 23 3e d3 85 e1 bd
       -0.10201234 0.024338277 0.1595229 -0.11011853
000350 9c 0f 9b 3e 63 16 21 be 7a 71 80 3d e1 51 18 bc
       0.30285347 -0.15731196 0.06271644 -0.009296865
000360 f3 b3 83 3c ae 70 1a bd f1 38 b9 3d 1e cb 07 3e
       0.016077017 -0.037705116 0.09044064 0.13261077
000370 13 fb 1e 3e 4f 40 38 bc 00 95 15 3e 8d cf cb 3c
       0.15525465 -0.011245801 0.1460762 0.024879241
000380 89 1e ee 3b 9b e8 84 3e db 8e 3a bc 62 c2 0d 3c
       0.0072668237 0.25958714 -0.011386598 0.0086523015
000390 0f 26 c4 bd 2b 2b 82 3e bb 09 f8 3d 16 af 79 bd
       -0.095775716 0.2542356 0.12111231 -0.06095799
0003a0 8a ec b9 3d 10 4f 39 3d 55 99 96 bd 5d 7c 66 be
       0.09078319 0.045241416 -0.073534645 -0.22508378
0003b0 4e 6b 2b be c9 59 7c 3b df 32 b3 bc d7 d8 65 3e
       -0.16740152 0.0038505665 -0.021874843 0.22445999
0003c0 e8 aa c5 bd 70 5e a9 3d 34 75 d5 3d f6 89 4a 3c
       -0.096517384 0.08269966 0.10422745 0.012361994
0003d0 1c 05 aa 3e 2c ed 3b bd 6d 8e 50 bd bb 0c 82 3e
       0.33207023 -0.04588048 -0.050917078 0.25400338
0003e0 03 c3 f0 3d aa 65 93 3d 55 72 fd 3c bd d8 66 3e
       0.117559455 0.07197125 0.030938307 0.22543617
0003f0 32 fa 08 be 32 a5 38 3d bc 2f 26 3e f6 d7 84 3c
       -0.13376692 0.045079418 0.16229147 0.01621626

module.fc3.bias f4 [10]
000000 31 5a 7b be bd 96 82 bf 76 86 99 bc 42 8e 06 3f
       -0.24546124 -1.0202252 -0.018740874 0.5256082
000010 7a 13 43 3f b8 98 09 be 0f f9 42 3d a5 7c aa be
       0.76201594 -0.13437164 0.047600802 -0.3329822
000020 9c 0b e5 3e ea 9e c8 be
       0.4473542 -0.39183742
