models/classifier_net_epoch_7_0.pth (torch_old, 249853 bytes, 10 tensors)

module.conv1.weight f4 [6, 3, 5, 5]
0.056412186 0.39466062 0.43525568 0.53460574 0.2905184 0.10080932 -0.23634012 0.14503276
0.91735196 0.10834427 0.2539549 -0.29413226 -1.0735523 0.8006364 0.28326425 0.039116822
0.08351824 -0.88442546 0.04325713 -0.11818313 -0.18325323 0.007819063 -0.6114808 0.11676706
-0.31912518 -0.079066746 -0.3506364 -0.6207319 -0.21744019 -0.40649548 0.4386167 -0.6221319
-0.7049062 0.4240538 -0.20633444 0.74726206 -0.32603696 -1.36949 0.68016016 0.1848733
0.513782 0.34186038 -1.049617 0.22339924 -0.15714693 0.48575798 0.17382182 -0.343325
0.5095039 -0.058206458 -0.05961953 0.022229932 0.0013173054 0.21783417 -0.15713976 0.3646375
-0.37893042 -0.25118968 0.69315135 -0.48008314 0.6804593 -0.24562712 -0.98126966 0.6661117
-0.14390513 0.539979 0.5149341 -0.7424717 0.15609771 -0.2940896 0.3792252 0.38731557
-0.24956983 0.2706691 -0.33223534 -0.120234065 0.28261757 0.22876255 0.2701819 0.11134125
-0.038259506 0.5405698 0.1517204 -0.11385343 -0.10150116 0.2742478 -0.046038903 -0.6334819
-0.5126569 -0.20240209 -0.15582174 -0.74087566 -0.6469363 -0.09742105 0.13987468 -0.09990106
0.06361496 0.25840256 0.5156408 0.2471637 -0.41351297 -0.022241361 -0.08573016 -0.06723702
-0.19506042 0.0163337 0.43646386 -0.044260256 -0.2315792 -0.31317568 0.43445936 0.05375983
-0.5419425 -0.55496883 -0.17705832 -0.052543357 -0.5786888 -0.54457825 -0.11440666 0.07879181
-0.053580318 -0.16814338 0.14994164 0.31749368 0.08049715 -0.22302875 0.077413104 0.03924777
0.27331364 0.06758917 0.111723416 0.54893404 0.44227743 0.07956501 -0.07187881 0.5071685
0.3178051 -0.26175526 -0.4279244 -0.10457766 0.14290069 -0.5518389 -0.48519427 -0.18000124
0.1492438 -0.010106652 -0.1414968 0.27032408 0.16576502 -0.10175286 0.024842355 -0.084202826
-0.1951559 -0.049129613 -0.04180466 0.16609482 0.3613371 0.1837067 0.16780978 0.10022765
-0.111275494 -0.033411227 0.021089304 -0.07238538 0.011470423 -0.37819847 -0.37019226 -0.4484517
-0.51943845 -0.40695974 -0.12161598 -0.28189194 -0.26931065 -0.3174457 -0.22324577 -0.31920108
-0.31942752 -0.22203869 -0.24181107 -0.27294967 0.30537456 0.41670904 0.5051397 0.3013942
0.25877059 0.010909502 0.042885568 0.11766521 0.09784666 0.13558698 -0.29468602 -0.40024108
-0.3068482 -0.27343214 -0.22329824 -0.046070293 -0.15361091 -0.08348894 0.0064954357 0.011021856
-0.23081093 -0.014111909 -0.095874846 -0.19446729 -0.29490095 0.40542167 0.39752734 0.6261344
0.53734547 0.324136 0.17032616 0.30909592 0.2847985 0.38009942 0.23694925 0.06336951
0.17828253 0.06250371 0.10955306 0.13164711 0.1037638 0.13737589 0.18201998 0.2992056
0.19331175 0.13428251 0.28674945 -0.21901241 0.029203888 -0.20556757 0.32041815 -0.22254519
-0.49407616 0.20113914 -0.011102249 0.35382903 -0.41387683 -0.45403883 0.5170605 -0.083399914
-0.10116247 -0.6027356 -0.10115144 0.42902812 0.0378648 -0.05760488 -0.2959649 0.16210023
0.37948453 -0.090074115 0.11870858 0.10770327 -0.27707124 0.15059948 0.065125376 0.20253757
00000000: 7710 673d f510 ca3e d5d9 de3e ecdb 083f
00000010: d4be 943e 1e75 ce3d 2503 72be 7883 143e
00000020: 94d7 6a3f 9ae3 dd3d 6006 823e 8198 96be
00000030: 296a 89bf 82f6 4c3f 0308 913e f638 203d
00000040: 9c0b ab3d b569 62bf 632e 313d ff09 f2bd
00000050: bca6 3bbe 871b 003c 018a 1cbf 9123 ef3d
00000060: 6064 a3be bfed a1bd 9d86 b3be 49e8 1ebf
00000070: a4a8 5ebe 2d20 d0be 5e92 e03e 0944 1fbf
00000080: bc74 34bf 941d d93e 5649 53be 914c 3f3f
00000090: 51ee a6be 734b afbf fa1e 2e3f 6d4f 3d3e
000000a0: 3887 033f 5308 af3e da59 86bf c5c2 643e
000000b0: 20eb 20be 45b5 f83e 59fe 313e 4bc8 afbe
000000c0: d96e 023f e569 6ebd 9c33 74bd 8c1b b63c
000000d0: 6fa9 ac3a ec0f 5f3e 3fe9 20be c4b1 ba3e
000000e0: 2b03 c2be ef9b 80be 5e72 313f 75cd f5be
000000f0: 9532 2e3f ad85 7bbe 7d34 7bbf 4c86 2a3f
00000100: de5b 13be 103c 0a3f b9d2 033f a012 3ebf
00000110: 14d8 1f3e e992 96be ce29 c23e 3a4e c63e
00000120: 3c8f 7fbe 2495 8a3e c01a aabe 473d f6bd
00000130: 40b3 903e bb40 6a3e 4855 8a3e e206 e43d
00000140: 00b6 1cbd c862 0a3f 985c 1b3e fd2b e9bd
00000150: d7df cfbd 356a 8c3e 4a93 3cbd df2b 22bf
00000160: 7c3d 03bf 7e42 4fbe bc8f 1fbe 07aa 3dbf
00000170: 9e9d 25bf b084 c7bd 4f3b 0f3e ed98 ccbd
00000180: 8f48 823d 574d 843e 0901 043f 7b18 7d3e
00000190: f9b7 d3be 8433 b6bc 4b93 afbd 90b3 89bd
000001a0: ebbd 47be 40ce 853c 3178 df3e 3e4a 35bd
000001b0: 1923 6dbe 9058 a0be 7571 de3e 4433 5c3d
000001c0: bebc 0abf 7012 0ebf c74e 35be b437 57bd
000001d0: f324 14bf 7b69 0bbf 0a4e eabd 9a5d a13d
000001e0: 0977 5bbd c72d 2cbe 4d8a 193e 888e a23e
000001f0: b1db a43d a661 64be c38a 9e3d 45c2 203d
00000200: c4ef 8b3e 316c 8a3d 3fcf e43d f186 0c3f
00000210: 3072 e23e fbf2 a23d 3335 93bd cbd5 013f
00000220: 5ab7 a23e c904 86be e818 dbbe d02c d6bd
00000230: 8f54 123e 5045 0dbf 626b f8be 3f52 38be
00000240: 5ed3 183e 5f96 25bc 8ae4 10be eb67 8a3e
00000250: 4ebe 293e ce63 d0bd 3282 cb3c 8872 acbd
00000260: f3d6 47be 223c 49bd 5d3b 2bbd c314 2a3e
00000270: 2d01 b93e 9c1d 3c3e 54d6 2b3e 2744 cd3d
00000280: 68e4 e3bd 36da 08bd 7ac3 ac3c c93e 94bd
00000290: 71ee 3b3c 3ba3 c1be d789 bdbe 769b e5be
000002a0: ebf9 04bf 075d d0be cd11 f9bd 2454 90be
000002b0: 16e3 89be 3e88 a2be 8a9a 64be 536e a3be
000002c0: 018c a3be 1c5e 63be 529d 77be 0fc0 8bbe
000002d0: 0e5a 9c3e e35a d53e d650 013f 5750 9a3e
000002e0: 947d 843e c5bd 323c c7a8 2f3d 75fa f03d
000002f0: d463 c83d 50d7 0a3e 16e1 96be 66ec ccbe
00000300: 351b 9dbe 4cff 8bbe 4ba8 64be 34b4 3cbd
00000310: 2e4c 1dbe 40fc aabd aad7 d43b 0495 343c
00000320: b359 6cbe a335 67bc 085a c4bd 6f22 47be
00000330: 42fd 96be 6e93 cf3e b488 cb3e 584a 203f
00000340: 798f 093f 27f5 a53e fb69 2e3e d241 9e3e
00000350: 1cd1 913e 649c c23e d3a2 723e e0c7 813d
00000360: b28f 363e f201 803d 5b5d e03d 80ce 063e
00000370: 1d82 d43d 44ac 0c3e 7263 3a3e 7a31 993e
00000380: 84f3 453e 5b81 093e d3d0 923e ca44 60be
00000390: fe3c ef3c 4e80 52be d90d a43e e3e2 63be
000003a0: 8df7 fcbe 6bf7 4d3e 35e6 35bc 1429 b53e
000003b0: aae7 d3be c777 e8be 145e 043f 93cd aabd
000003c0: 452e cfbd e14c 1abf 7c28 cfbd 93a9 db3e
000003d0: 1f18 1b3d 18f3 6bbd b688 97be 9afd 253e
000003e0: cc4b c23e c778 b8bd 7c1d f33d 8893 dc3d
000003f0: 48dc 8dbe c036 1a3e 7460 853d 0266 4f3e

module.conv1.bias f4 [6]
-0.30476663 -0.7045891 -0.014415684 -0.3050348 -0.0922672 -0.2692324
00000000: 5f0a 9cbe f45f 34bf c32f 6cbc 852d 9cbe
00000010: 96f6 bcbd d4d8 89be

module.conv2.weight f4 [16, 6, 5, 5]
0.4054962 -0.06491998 0.53603125 -0.033080626 -0.12701097 0.18616909 -0.17328946 0.24696599
0.34713033 0.0029555135 0.20394298 -0.11209845 0.020732665 0.2558605 -0.053321343 -0.05646843
0.09965829 0.023692876 0.121596865 0.08487659 -0.10769396 -0.07613216 -0.1602722 -0.15120435
-0.05830186 -0.065321796 0.121939324 0.18484904 0.0037631076 -0.04697255 -0.23152074 -0.008837618
0.11038339 0.037367105 0.02386299 -0.35600975 -0.057478473 0.09421042 0.10849213 0.12630178
-0.2969325 -0.28981918 -0.091458544 0.08479121 0.06617178 -0.25442082 -0.079093546 -0.115554705
-0.075225316 0.041558996 -0.12048003 -0.15910225 -0.0969541 0.05078774 0.07299221 -0.2725974
-0.22701599 -0.1901962 -0.09873448 -0.11063452 -0.3688624 -0.3123877 -0.3157478 -0.20899306
-0.08157093 -0.177847 -0.081596635 -0.019992521 -0.10597033 0.109107055 -0.1402686 -0.0570686
-0.029055158 0.04656277 -0.042725064 0.45150894 0.08736535 0.016196104 0.44029963 -0.0024750337
0.024354227 -0.007814511 -0.13313018 0.13395196 0.24591975 -0.08313884 0.0637995 -0.23253228
-0.13804747 0.3152899 -0.29311576 0.053047083 -0.15091667 -0.07843844 0.05048811 -0.3072827
-0.01442308 -0.14115511 -0.089145124 -0.30352175 -0.08269362 -0.05985342 -0.23305233 -0.015665112
0.03989943 -0.102920376 -0.041805655 -0.116621844 -0.10938525 -0.15653576 -0.068861865 -0.04429467
0.028824503 0.0019805518 -0.035574395 -0.063668184 -0.04312479 0.02987665 0.042260323 0.002794086
-0.1174161 -0.044893034 -0.00010507598 0.1591397 0.09871657 -0.19180317 -0.017997459 -0.19441706
0.009272263 0.004770316 -0.11872963 -0.13475253 -0.097150534 -0.038767654 0.08538761 0.037793864
-0.042921707 -0.23705895 -0.13826643 -0.1115024 -0.13737655 0.15930897 -0.18156727 -0.18435663
-0.27032304 -0.005094443 0.045655 0.020636491 -0.03433046 -0.1310061 -0.15117668 -0.04961985
0.07358073 -0.042344965 -0.019568758 -0.10220723 -0.037176467 -0.0142038185 0.056810804 0.13908266
0.4026265 -0.20282114 -0.19025506 0.03452723 0.034893714 0.5926565 0.73185223 -0.053288907
-0.23026633 -0.19067685 -0.4056582 0.039832186 0.36436805 0.24268937 0.16883989 -0.08292547
-0.24535836 -0.0018689891 -0.025334103 0.0317249 -0.034433126 -0.1535122 -0.22648461 -0.09773461
0.24566226 0.092917204 -0.045376707 -0.3895759 -0.15302879 0.049642023 0.22959517 0.109398924
0.034030408 -0.12140453 -0.047861293 -0.0049203765 0.23442888 0.19679847 0.34175017 0.1761638
0.06588152 0.09767452 0.028024344 -0.022722682 0.09713232 0.025221681 0.13889493 0.14404373
0.045904215 -0.0033162015 -0.02370474 0.22136813 0.07365977 0.023797166 -0.16687268 -0.6010835
0.023957059 0.35144773 0.20860024 -0.38811007 -0.19717824 -0.35108075 0.0009830991 0.1992191
0.3197424 0.004031144 -0.1628009 -0.057054747 0.099766605 0.2495707 0.081445806 -0.026473582
-0.09066033 0.11143144 -0.036440674 -0.1445907 0.101042576 -0.07053165 -0.05187607 -0.14545716
-0.350709 -0.21605328 0.19323516 0.1497236 0.2682449 -0.36578843 -0.55272025 -0.37415978
-0.22370648 -0.13314109 -0.19361289 -0.13408636 -0.10893336 0.09129372 0.15147945 -0.2155867
00000000: 339d cf3e c4f4 84bd 5839 093f 8d7f 07bd
00000010: 2a0f 02be 1ca3 3e3e cb72 31be a7e4 7c3e
00000020: 11bb b13e 4ab1 413b 6ed6 503e df93 e5bd
00000030: 8dd7 a93c 2600 833e 7b67 5abd 714b 67bd
00000040: a519 cc3d 9017 c23c c707 f93d c7d3 ad3d
00000050: a78e dcbd 2eeb 9bbd 651e 24be 50d5 1abe
00000060: eecd 6ebd 6fc7 85bd 53bb f93d 1149 3d3e
00000070: 789e 763b 4a66 40bd c613 6dbe a8cb 10bc
00000080: b010 e23d 400e 193d 517c c33c e946 b6be
00000090: 8c6e 6bbd 65f1 c03d 1f31 de3d 4155 013e
000000a0: 8907 98be 2e63 94be 9e4e bbbd 04a7 ad3d
000000b0: 1285 873d 7243 82be ccfb a1bd f2a7 ecbd
000000c0: bb0f 9abd c439 2a3d 3cbe f6bd b3eb 22be
000000d0: df8f c6bd ce06 503d f17c 953d e391 8bbe
000000e0: e176 68be cbc2 42be 4e35 cabd 5a94 e2bd
000000f0: 88db bcbe 48f1 9fbe b2a9 a1be 4702 56be
00000100: a90e a7bd 861d 36be 231c a7bd 5bc7 a3bc
00000110: f906 d9bd 8573 df3d 92a2 0fbe c4c0 69bd
00000120: 1505 eebc 9ab8 3e3d 7a00 2fbd 2e2c e73e
00000130: 9bec b23d b1ad 843c f46e e13e 2d34 22bb
00000140: 8482 c73c 6f08 00bc 4753 08be b42a 093e
00000150: 63d2 7b3e b244 aabd 50a9 823d f11c 6ebe
00000160: 515c 0dbe ae6d a13e 4513 96be e647 593d
00000170: e689 1abe 55a4 a0bd 9fcc 4e3d 2854 9dbe
00000180: c84e 6cbc f78a 10be b891 b6bd 3467 9bbe
00000190: 465b a9bd dc28 75bd 45a5 6ebe 1f54 80bc
000001a0: 966d 233d ebc7 d2bd 683c 2bbd 6fd7 eebd
000001b0: 6005 e0bd e94a 20be 7307 8dbd 546e 35bd
000001c0: 5d21 ec3c 25cc 013b 75b6 11bd 7764 82bd
000001d0: 9fa3 30bd e0bf f43c 2919 2d3d fc1c 373b
000001e0: da77 f0bd c2e1 37bd 3d5c dcb8 84f5 223e
000001f0: ea2b ca3d 0d68 44be 686f 93bc 4415 47be
00000200: b1ea 173c 5050 9c3b 8528 f3bd 91fc 09be
00000210: dcf6 c6bd d5ca 1ebd b3df ae3d bdcd 1a3d
00000220: acce 2fbd 95bf 72be b795 0dbe 5f5b e4bd
00000230: 70ac 0cbe e421 233e c5ec 39be fcc7 3cbe
00000240: c867 8abe 49ef a6bb bd00 3b3d dc0d a93c
00000250: 199e 0cbd 7726 06be 0fce 1abe 2f3e 4bbd
00000260: 7eb1 963d ea71 2dbd a94e a0bc 0652 d1bd
00000270: 5a46 18bd 22b7 68bc 72b2 683d af6b 0e3e
00000280: 1025 ce3e 58b0 4fbe 39d2 42be 6d6c 0d3d
00000290: b6ec 0e3d 56b8 173f ab5a 3b3f 7845 5abd
000002a0: f0ca 6bbe cb40 43be 6eb2 cfbe 1327 233d
000002b0: 738e ba3e 9083 783e 5de4 2c3e d4d4 a9bd
000002c0: 393f 7bbe def8 f4ba 7789 cfbc f8f1 013d
000002d0: c009 0dbd 4d32 1dbe 95eb 67be 1529 c8bd
000002e0: e38e 7b3e 604b be3d eddc 39bd 7e76 c7be
000002f0: 94b3 1cbe 6f55 4b3d ff1a 6b3e 8b0c e03d
00000300: 7863 0b3d f0a2 f8bd 340a 44bd 1c3b a1bb
00000310: 200e 703e 8a85 493e e1f9 ae3e 4864 343e
00000320: e4ec 863d 9409 c83d 4f93 e53c eb24 babc
00000330: 4fed c63d b39d ce3c 793a 0e3e 3380 133e
00000340: 0f06 3c3d a154 59bb 7130 c2bc 54ae 623e
00000350: efda 963d 46f2 c23c ace0 2abe 9ce0 19bf
00000360: 9841 c43c f5f0 b33e 4d9b 553e 5db6 c6be
00000370: 18e9 49be dbc0 b3be 55db 803a 1700 4c3e
00000380: 47b5 a33e b017 843b 47b5 26be 3db2 69bd
00000390: 6f52 cc3d 768f 7f3e 0fcd a63d 20df d8bc
000003a0: 20ac b9bd 2b36 e43d d142 15bd 960f 14be
000003b0: 69ef ce3d e672 90bd 017c 54bd b9f2 14be
000003c0: 2190 b3be 123d 5dbe 70df 453e 2551 193e
000003d0: 6557 893e 9f48 bbbe 137f 0dbf df91 bfbe
000003e0: 5013 65be 2356 08be 7542 46be ef4d 09be
000003f0: 7418 dfbd 34f8 ba3d 6e1d 1b3e c3c2 5cbe

module.conv2.bias f4 [16]
0.2117392 -1.4803679 -0.934273 -0.085214734 0.80922604 0.3140787 0.11681411 1.0912547
-0.15772799 -0.30503565 -0.8548162 1.4633156 0.35280386 -0.5711178 0.11423217 0.51236725
00000000: 29d2 583e b27c bdbf 842c 6fbf 1085 aebd
00000010: 7029 4f3f ecce a03e 3c3c ef3d 3cae 8b3f
00000020: 7283 21be a22d 9cbe 3cd5 5abf ed4d bb3f
00000030: b5a2 b43e c734 12bf 8ef2 e93d 802a 033f

module.fc1.weight f4 [120, 400]
-0.04064764 -0.0146957245 -0.045363955 0.0061482014 -0.07346487 0.10761875 0.04830881 0.027221818
0.025864683 0.02113922 0.029809814 -0.022563364 -0.037377648 0.07723809 0.063143596 0.05151806
-0.050881058 -0.16648678 -0.029656842 0.019965092 0.015923152 0.005109276 -0.05099022 -0.069575354
0.034688074 0.10910631 0.010827962 0.073979676 0.1532864 0.14205007 0.075863376 0.055940658
0.040268052 0.06245809 0.14864178 0.25117612 -0.005357121 -0.015233027 -0.029686868 -0.017329743
-0.04392943 -0.045189504 -0.21467581 -0.030981481 0.016949186 -0.2229575 -0.048356146 -0.026290482
-0.10986621 0.011775106 0.18944475 0.04604952 0.010791327 -0.03213062 -0.14807276 0.008487073
-0.042100508 -0.004624642 -0.0630959 -0.09824082 -0.020081157 0.03959119 -0.09476254 -0.079442054
-0.06224817 0.1366807 0.05198545 -0.057079487 -0.04969897 -0.06756042 -0.16786548 -0.018391429
-0.105520815 -0.024124285 -0.0326426 -0.062362973 -0.19046588 -0.037277184 -0.028377434 0.011033022
-0.07557174 -0.13385567 -0.07318444 -0.050494045 0.06316485 -0.08572747 -0.07238823 0.0034629628
-0.0038794696 0.026212197 -0.12920043 -0.08289111 0.030989828 -0.052220758 0.056716092 0.09142817
0.09842461 0.08768409 -0.019289829 0.038741753 0.0931221 0.043634918 0.12049415 0.053917505
-0.030569568 0.011760446 0.048103973 0.11683437 0.05414428 -0.047931977 0.06870936 0.041588344
0.12114201 0.17115106 -0.10739467 0.0122906305 -0.042937655 -0.023900071 -0.05917306 -0.04272449
0.073655866 0.01222622 -0.007441532 -0.14188288 -0.11435375 -0.013401028 -0.027901579 0.094650105
0.020777233 -0.13144921 -0.038197815 0.007049063 0.025963312 0.003959233 -0.09836474 0.042247705
-0.00045509925 -0.10555855 -0.09520381 -0.13990997 -0.046598356 0.021001175 0.037629757 0.00066657056
0.03456072 -0.054837894 0.0050441874 -0.03059958 -0.042191382 -0.0063967756 0.032675162 -0.0044393255
-0.07135365 -0.10857924 -0.035714157 0.0769503 -0.11913975 -0.03249661 -0.050789937 -0.029861428
0.060056433 -0.007473465 -0.006005306 -0.061585773 -0.034512833 -0.01669021 -0.041451905 -0.103325166
-0.0208856 -0.036227334 -0.059188116 -0.02719864 -0.049382765 0.091691524 0.10696372 0.040627588
-0.027738167 0.023698026 0.1356752 0.15102509 -0.008637683 0.07457314 0.13404411 0.04329847
0.033265386 -0.029309578 0.014451364 0.006372588 -0.0057696505 0.027236331 -0.061581884 0.026362788
-0.0417825 -0.012253406 -0.014985161 0.028065987 0.00061228534 -0.04977256 0.022322062 -0.07019582
-0.09798505 -0.0069264527 -0.14452001 -0.23155257 -0.108240254 -0.07443259 -0.0222598 -0.004421919
-0.0919612 0.053799484 0.00591992 0.018168546 0.049293794 -0.014155394 0.043141156 -0.06936245
-0.103148036 -0.014212662 -0.031109001 0.02875492 -0.16361295 -0.06844194 -0.09828305 -0.060286894
-0.10025325 0.06747874 0.060221866 -0.043869793 -0.036247324 -0.12328423 0.06908764 0.05647549
-0.008482847 0.04670641 -0.11041466 0.12031354 0.0006250854 0.009347657 0.093696564 -0.06715901
0.22456926 0.13180481 0.031535625 0.06933159 0.050662756 0.15971197 -0.006546279 0.09187136
0.09679102 -0.024681743 -0.05077688 -0.04664791 -0.09095243 -0.1404332 -0.03914819 -0.052903846
00000000: 247e 26bd 56c6 70bc 8ecf 39bd da76 c93b
00000010: c074 96bd 3867 dc3d 75df 453d 4a00 df3c
00000020: 2ce2 d33c 282c ad3c b633 f43c ced6 b8bc
00000030: 4e19 19bd 012f 9e3d 6e51 813d 9a04 533d
00000040: a868 50bd 837b 2abe e8f2 f2bc d58d a33c
00000050: 4571 823c b76b a73b 1fdb 50bd 867d 8ebd
00000060: 1515 0e3d 2173 df3d c467 313c a882 973d
00000070: 1cf7 1c3e 9375 113e 425e 9b3d 0822 653d
00000080: 1df0 243d 0ed4 7f3d 8d35 183e 289a 803e
00000090: ca8a afbb f293 79bc e031 f3bc 1bf7 8dbc
000000a0: 59ef 33bd a118 39bd fad3 5bbe e0cc fdbc
000000b0: 05d9 8a3c f94e 64be 1811 46bd 235f d7bc
000000c0: 8901 e1bd 60ec 403c cefd 413e 6c9e 3c3d
000000d0: 1bce 303c 669b 03bd 63a0 17be 5d0d 0b3c
000000e0: 9571 2cbd 4f8a 97bb 6c38 81bd 7c32 c9bd
000000f0: 3d81 a4bc 5f2a 223d dd12 c2bd 84b2 a2bd
00000100: f0f7 7ebd 07f6 0b3e b2ee 543d 2ecc 69bd
00000110: 2691 4bbd 1e5d 8abd eee4 2bbe 9fa9 96bc
00000120: 4c1b d8bd 4ba0 c5bc 3fb4 05bd 5170 7fbd
00000130: 7d09 43be f6af 18bd cb77 e8bc d9c3 343c
00000140: 5bc5 9abd 7611 09be b9e1 95bd d8d2 4ebd
00000150: 935c 813d e291 afbd 4840 94bd e0f2 623b
00000160: b33e 7ebb f6ba d63c 1e4d 04be d0c2 a9bd
00000170: 61de fd3c 6fe5 55bd 224f 683d b13e bb3d
00000180: d892 c93d b793 b33d b405 9ebc acaf 1e3d
00000190: cdb6 be3d 87ba 323d a3c5 f63d 9ad8 5c3d
000001a0: 086d fabc e3ae 403c ac08 453d dc46 ef3d
000001b0: 64c6 5d3d 5254 44bd 7eb7 8c3d 8a58 2a3d
000001c0: 4d19 f83d 3942 2f3e bdf1 dbbd a45e 493c
000001d0: 65df 2fbd 15ca c3bc 735f 72bd e0ff 2ebd
000001e0: e3d8 963d 7c50 483c 18d8 f3bb bf49 11be
000001f0: 4d32 eabd fc8f 5bbc da91 e4bc ead7 c13d
00000200: 0435 aa3c 9f9a 06be 5075 1cbd d4fb e63b
00000210: 03b1 d43c 74bc 813b 7473 c9bd ee0b 2d3d
00000220: 639a eeb9 152f d8bd 37fa c2bd 8f44 0fbe
00000230: ebdd 3ebd a80a ac3c a921 1a3d cbbc 2e3a
00000240: 8b8f 0d3d b39d 60bd b649 a53b f8ab fabc
00000250: dfd0 2cbd 0b9c d1bb 64d6 053d c377 91bb
00000260: dd21 92bd cb5e debd 0249 12bd 1e98 9d3d
00000270: 8bff f3bd 2a1b 05bd 1c09 50bd f49f f4bc
00000280: bcfd 753d f8e3 f4bb 28c8 c4bb 5d41 7cbd
00000290: 545d 0dbd e8b9 88bc 79c9 29bd 259c d3bd
000002a0: 4718 abbc 1d63 14bd 3d6f 72bd afcf debc
000002b0: 9545 4abd c4c8 bb3d cb0f db3d 1d69 263d
000002c0: 273b e3bc 5d22 c23c 71ee 0a3e 52a6 1a3e
000002d0: 1185 0dbc cdb9 983d dc42 093e bd59 313d
000002e0: 4941 083d a41a f0bc 6ac5 6c3c 25d1 d03b
000002f0: 560f bdbb ba1e df3c 493d 7cbd c6f6 d73c
00000300: 2024 2bbd 83c2 48bc 5284 75bc a4ea e53c
00000310: c681 203a 50de 4bbd c2dc b63c d3c2 8fbd
00000320: 63ac c8bd 4cf7 e2bb 0efd 13be 1e1c 6dbe
00000330: 11ad ddbd 1d70 98bd 2f5a b6bc bfe5 90bb
00000340: 2756 bcbd d95c 5c3d e3fb c13b 34d6 943c
00000350: 4ae8 493d 07ec 67bc c8b4 303d e60d 8ebd
00000360: 473f d3bd 3adc 68bc 4ed8 febc 708f eb3c
00000370: 278a 27be 4a2b 8cbd a048 c9bd 64ef 76bd
00000380: 9351 cdbd 4b32 8a3d 34ab 763d d0b0 33bd
00000390: 1378 14bd 717c fcbd d27d 8d3d d852 673d
000003a0: a4fb 0abc 384f 3f3d 1521 e2bd f266 f63d
000003b0: c5dc 233a ea26 193c fce3 bf3d aa8a 89bd
000003c0: 7cf5 653e d7f7 063e 802b 013d b8fd 8d3d
000003d0: c083 4f3d 898b 233e 2b82 d6bb 0d27 bc3d
000003e0: 5f3a c63d 5e31 cabc 6bfb 4fbd e111 3fbd
000003f0: 4545 babd b9cd 0fbe da59 20bd b4b1 58bd

module.fc1.bias f4 [120]
0.1834122 -0.17218885 -0.16617963 -0.054654937 -0.2154515 -0.2148139 0.050482683 0.019783562
-0.061320674 -0.003571759 0.052720938 0.05018269 -0.15735789 -0.38465792 -0.0029303916 0.27854812
0.016285991 0.12118307 0.20391148 0.05388695 0.08507113 0.016033433 -0.12775826 -0.01136685
-0.08696637 -0.084415846 -0.11451812 0.21412478 0.35989386 0.0161282 0.022547795 -0.03071919
0.028180411 -0.12836231 0.058552254 0.27799326 0.15760039 0.12707454 0.0022942435 0.2336015
0.13280235 0.12325704 -0.19054565 0.15900452 0.21468265 0.4390422 -0.046842817 0.24216682
0.017464995 0.12715504 0.35777032 -0.07720186 0.0873759 0.0505014 0.1812447 0.012039554
-0.115019135 0.10111168 0.083777934 0.096039884 0.44702145 0.066601075 0.23434117 0.03989172
0.06255442 -0.034198623 -0.28861725 -0.35764453 0.034181684 0.016710166 0.19624321 -0.10168958
-0.014283841 -0.015880946 -0.11321626 -0.09723598 0.11506091 0.08970817 0.058248166 -0.040635757
-0.15432425 0.16373368 0.08498513 0.13314818 0.09819082 0.4376292 0.1851512 -0.18130289
-0.2960224 0.1587735 -0.02403468 0.25425804 0.06976561 -0.016833836 -0.18645392 0.3360531
0.11045697 0.19197607 0.15210317 -0.16028859 -0.04979568 -0.020520857 -0.02377691 -0.007938266
0.29375446 -0.3244619 -0.02743482 -0.12684017 -0.19158305 0.2515867 -0.050977338 -0.075970665
0.07680626 -0.036791336 0.033288136 0.05968206 -0.04524981 -0.013233155 0.13431765 0.2995532
00000000: 68d0 3b3e 4652 30be fe2a 2abe dbdd 5fbd
00000010: 519f 5cbe 2df8 5bbe eec6 4e3d 2311 a23c
00000020: 632b 7bbd 2c14 6abb e9f1 573d 5d8c 4d3d
00000030: 6d22 21be e2f1 c4be d00b 40bb dc9d 8e3e
00000040: 336a 853c d42e f83d 2cce 503e 90b8 5c3d
00000050: c639 ae3d 8c58 833c 10d3 02be 063c 3abc
00000060: 6d1b b2bd 37e2 acbd 7a88 eabd 8743 5b3e
00000070: 0244 b83e 491f 843c 27b6 b83c d0a6 fbbc
00000080: 9bda e63c 6971 03be 7dd4 6f3d 2255 8e3e
00000090: ff61 213e d41f 023e 055b 163b 3b35 6f3e
000000a0: 57fd 073e 306e fc3d 661e 43be 15d2 223e
000000b0: c5d5 5b3e 24ca e03e 41de 3fbd 94fa 773e
000000c0: c012 8f3c ee34 023e ac2d b73e 021c 9ebd
000000d0: 23f2 b23d 8eda 4e3d 3698 393e 8d41 453c
000000e0: 278f ebbd a413 cf3d c493 ab3d 8fb0 c43d
000000f0: ffdf e43e 2566 883d 22f7 6f3e 8065 233d
00000100: 881c 803d db13 0cbd a4c5 93be 2f1d b7be
00000110: 1802 0c3d c2e3 883c fbf3 483e a042 d0bd
00000120: c506 6abc c218 82bc eddd e7bd a823 c7bd
00000130: 0ea5 eb3d ebb8 b73d a195 6e3d ae71 26bd
00000140: 2d07 1ebe cda9 273e af0c ae3d ff57 083e
00000150: 4518 c93d ef10 e03e 4798 3d3e 77a7 39be
00000160: 3f90 97be 8595 223e 61e4 c4bc 1c2e 823e
00000170: 46e1 8e3d 1de7 89bc c7ed 3ebe 270f ac3e
00000180: 4437 e23d 6095 443e efc0 1b3e b122 24be
00000190: 8ef6 4bbd 5b1b a8bc cbc7 c2bc 800f 02bc
000001a0: fc66 963e df1f a6be fdbe e0bc 64e2 01be
000001b0: 592e 44be f9cf 803e 9dcd 50bd 8296 9bbd
000001c0: 9a4c 9d3d 83b2 16bd 2459 083d 2d75 743d
000001d0: dd57 39bd e0cf 58bc 918a 093e 095f 993e

module.fc2.weight f4 [84, 120]
-0.1909398 -0.028683208 0.00726638 0.07428994 -0.1738149 0.11537587 -0.022164816 0.15465787
0.18343848 -0.13129234 0.058351185 0.03918888 0.005047932 0.025006743 -0.08374215 -0.11635099
0.12817015 0.022405896 0.0030017374 0.020557813 -0.07543261 0.11189318 0.051532324 0.00039197537
0.11927273 -0.07630611 0.1583707 -0.1807598 -0.06834184 -0.044584744 -0.03286151 -0.003450831
-0.10424755 -0.09585665 -0.08451824 -0.12479519 0.0631362 0.046356283 -0.068401456 -0.15822992
-0.013320107 0.16165677 -0.0023338518 0.009614803 -0.060096104 -0.14378549 -0.09746478 0.1075198
0.030530388 -0.0382835 -0.015529269 -0.06194048 -0.16515927 -0.18520187 0.104313664 0.055556897
0.17300557 -0.03273073 -0.0068904 -0.15960768 -0.0636236 0.0056674806 -0.14567733 -0.10162038
0.017469713 0.05369618 0.016615825 -0.0059905713 -0.112424485 0.061822295 -0.15732868 -0.1708031
0.087195165 0.010886191 0.06108166 0.14436302 -0.13202716 0.010035636 -0.13185853 -0.05652084
-0.02567611 -0.1680724 -0.12702073 -0.056295607 -0.07524366 -0.07961864 0.15413631 -0.0014552075
0.035284385 -0.07088162 -0.13222665 -0.0113553405 -0.10108102 0.039182037 0.040771488 -0.0044836174
-0.07815585 -0.021188457 -0.07355962 -0.044521812 -0.05127387 -0.024622314 -0.060610767 -0.031484094
-0.15789515 -0.08512126 -0.08283337 0.11587569 0.067675404 -0.012880827 -0.09705257 0.001190818
0.03139228 -0.13412094 0.031313885 0.06596666 -0.09033398 0.08270544 -0.019768002 -0.01783139
0.04413406 0.16105932 0.09705794 -0.24484025 0.08804141 -0.11936057 0.1488849 -0.13738905
-0.0038969533 -0.017337536 -0.13870806 0.2317424 -0.12595893 0.03913374 0.0490945 0.08049731
0.013265199 -0.019632977 -0.014659769 -0.0019546086 -0.08080312 -0.16982101 -0.09855536 -0.0028861263
0.030407833 -0.14508013 0.14986125 -0.08664929 0.16880645 -0.007878795 -0.15569629 -0.10680259
-0.21902041 0.122798614 -0.010822317 -0.027665645 0.05098405 -0.21011873 -0.002778539 -0.20138904
-0.032139443 0.20065384 -0.16027357 0.11292955 -0.019879574 0.14822426 0.1401362 -0.03164536
-0.012996957 0.03340856 0.08726435 -0.17495614 -0.051550668 -0.0056383726 -0.06547635 0.07368411
-0.061663523 -0.27885294 -0.12564845 -0.081860386 -0.0027974339 -0.0700318 -0.13682513 0.08355057
-0.0932764 0.09782336 0.15470861 -0.03924313 -0.055602275 0.26026496 0.08675713 0.04974487
-0.091203585 -0.1588764 0.019856488 0.02863073 -0.190444 0.032740995 -0.2676047 0.021935292
-0.0155619895 -0.088885345 -0.17940317 -0.0067828693 -0.020236924 0.026711315 -0.01564442 -0.008759509
-0.092938736 0.20717101 -0.037683424 -0.16318697 0.113267414 0.017992215 -0.08481495 -0.13027315
-0.12767668 0.0070826407 -0.20084016 0.12314268 0.043730672 -0.16966632 -0.038503464 -0.17550783
-0.115058675 0.03691097 -0.058036968 -0.04352549 0.049791187 -0.14798912 0.010367505 0.005965038
0.1531647 0.13657069 0.024340773 0.026084982 -0.06131804 0.030825095 0.025958102 -0.16221042
-0.025230642 0.052552555 -0.17639115 -0.10357351 -0.08988455 -0.114610106 0.04890827 0.17606182
-0.12996598 0.075981684 -0.032194637 0.06221195 0.019134672 -0.019227728 0.0065816026 0.08112325
00000000: b985 43be 0cf9 eabc d01a ee3b 5325 983d
00000010: 88fc 31be 2f4a ec3d fd92 b5bc a25e 1e3e
00000020: 4cd7 3b3e 8071 06be a701 6f3d 8584 203d
00000030: 1f69 a53b f1da cc3c 0181 abbd 6e49 eebd
00000040: 093f 033e 928c b73c ccb8 443b dc68 a83c
00000050: 6a7c 9abd 4028 e53d 8f13 533d 0b82 cd39
00000060: 4345 f43d 6146 9cbd ee2b 223e 1919 39be
00000070: cef6 8bbd 7e9e 36bd ca99 06bd 5627 62bb
00000080: bd7f d5bd 7e50 c4bd e617 adbd 9f94 ffbd
00000090: 8d4d 813d 16e0 3d3d 1016 8cbd 0607 22be
000000a0: 943c 5abc 5a89 253e 89f3 18bb 6887 1d3c
000000b0: 5527 76bd 813c 13be 9d9b c7bd 5733 dc3d
000000c0: dd1a fa3c 29cf 1cbd 7a6e 7ebc 4db5 7dbd
000000d0: 831f 29be 8fa5 3dbe 67a2 d53d a18f 633d
000000e0: 5f28 313e a810 06bd ddc8 e1bb 3270 23be
000000f0: 174d 82bd 46b6 b93b 702c 15be 591e d0bd
00000100: a51c 8f3c 87f0 5b3d e91d 883c 8e4c c4bb
00000110: cf3e e6bd 6039 7d3d c51a 21be 02e7 2ebe
00000120: 6193 b23d ff5b 323c c330 7a3d e6d3 133e
00000130: 2132 07be 826c 243c ec05 07be 6582 67bd
00000140: b556 d2bc 2c1b 2cbe b911 02be 3996 66bd
00000150: 5919 9abd 190f a3bd e9d5 1d3e a9bc beba
00000160: 5c86 103d 622a 91bd 6c66 07be c00b 3abc
00000170: 9103 cfbd 587d 203d 0100 273d 4feb 92bb
00000180: 2d10 a0bd 6a93 adbc 6da6 96bd 815c 36bd
00000190: 8d04 52bd bcb4 c9bc ff42 78bd 77f5 00bd
000001a0: 44af 21be 0e54 aebd 8ba4 a9bd 3c50 ed3d
000001b0: 6799 8a3d 1b0a 53bc 7fc3 c6bd 3915 9c3a
000001c0: 3195 003d 0057 09be fd42 003d 8719 873d
000001d0: 0601 b9bd 7861 a93d 81f0 a1bc 2313 92bc
000001e0: ebc5 343d bcec 243e 50c6 c63d 67b7 7abe
000001f0: 0e4f b43d 5173 f4bd 4975 183e b7af 0cbe
00000200: 0764 7fbb 7307 8ebc 7c09 0ebe e14d 6d3e
00000210: 61fb 00be b34a 203d 5017 493d c6db a43d
00000220: 4756 593c 56d5 a0bc 872f 70bc e418 00bb
00000230: 1b7c a5bd 8fe5 2dbe 65d7 c9bd 2a25 3dbb
00000240: d919 f93c e38f 14be 3a75 193e 2f75 b1bd
00000250: 99db 2c3e 1016 01bc d96e 1fbe 51bb dabd
00000260: e346 60be d77d fb3d 1650 31bc 10a3 e2bc
00000270: a7d4 503d 5d29 57be 2618 36bb ee38 4ebe
00000280: a6a4 03bd 3378 4d3e c11e 24be 9c47 e73d
00000290: 7dda a2bc 1ac8 173e dd7f 0f3e 919e 01bd
000002a0: 30f1 54bc 6ad7 083d a7b7 b23d b427 33be
000002b0: cb26 53bd 19c2 b8bb 7718 86bd b2e7 963d
000002c0: e492 7cbd d0c5 8ebe fda9 00be 6ba6 a7bd
000002d0: 2755 37bb d56c 8fbd e31b 0cbe 901c ab3d
000002e0: b207 bfbd 9d57 c83d ef6b 1e3e 67bd 20bd
000002f0: 36bf 63bd 7341 853e b9ad b13d 47c1 4b3d
00000300: f2c8 babd 7fb0 22be 13aa a23c fe8a ea3c
00000310: c003 43be 6c1b 063d 7c03 89be a4b1 b33c
00000320: b7f7 7ebc 8509 b6bd 77b5 37be d542 debb
00000330: e8c7 a5bc b0d1 da3c ba28 80bc 0b84 0fbc
00000340: aa56 bebd a324 543e ef59 1abd 7c1a 27be
00000350: bff8 e73d 6964 933c 76b3 adbd 5366 05be
00000360: adbd 02be 7f15 e83b 0ba9 4dbe 3b32 fc3d
00000370: ef1e 333d 02bd 2dbe cfb5 1dbd 53b8 33be
00000380: e2a3 ebbd f52f 173d 2cb8 6dbd c947 32bd
00000390: d8f1 4b3d 768a 17be 78dc 293c 5e76 c33b
000003a0: 35d7 1c3e 30d9 0b3e 4d66 c73c 2cb0 d53c
000003b0: a028 7bbd e984 fc3c 16a6 d43c 7d1a 26be
000003c0: 7eb0 cebc 5941 573d e29f 34be 591e d4bd
000003d0: 6415 b8bd b4b8 eabd 0a54 483d 8d49 343e
000003e0: cd15 05be 499c 9b3d 86de 03bd f5d1 7e3d
000003f0: 51c0 9c3c 7883 9dbc 7caa d73b f223 a63d

module.fc2.bias f4 [84]
-0.07574489 0.013798154 0.77173907 0.070939384 -0.01814519 0.5548611 0.15497659 0.122034505
0.026708215 0.36828 0.89306515 0.113237604 -0.11243864 0.14660645 -0.023827167 0.13795458
0.10275007 0.7608133 0.32836553 0.060650837 -0.02626069 0.110188104 0.6019283 0.26085582
0.27035552 0.14461723 0.25754964 0.3707555 0.02018287 0.23495385 -0.007688558 -0.005846636
-0.05298939 -0.22635224 -0.44895083 -0.12437545 0.37661487 0.2897217 0.054061487 -0.102474354
0.1415297 0.115237385 0.61664414 -0.04634323 0.15249099 0.31911582 -0.044511873 0.07838351
-0.024785802 0.022061955 0.5793485 0.06805548 0.34579626 0.258312 0.13581862 -0.08538486
0.7376053 0.16264974 0.35246867 -0.004452882 -0.06398432 -0.079793006 0.11298874 -0.033932634
0.100037165 0.100943655 -0.07476735 0.22719091 0.059141196 0.25694674 0.070397556 0.17157078
0.06395306 0.31107444 -0.0778727 -0.07559092 0.20545979 0.3598116 0.06518323 0.176731
0.2328551 0.060081888 0.5889651 -0.041182976
00000000: 2320 9bbd a711 623c b190 453f ab48 913d
00000010: 39a5 94bc 610b 0e3f 2fb2 1e3e 3aed f93d
00000020: 30cb da3c 328f bc3e eb9f 643f 1ee9 e73d
00000030: 3b46 e6bd 0020 163e 3131 c3bc f743 0d3e
00000040: a16e d23d a9c4 423f 871f a83e 036d 783d
00000050: a920 d7bc 4daa e13d f917 1a3f e58e 853e
00000060: 0a6c 8a3e 8a16 143e 8cdd 833e aad3 bd3e
00000070: 8c56 a53c be97 703e 4df0 fbbb 2395 bfbb
00000080: 670b 59bd e2c8 67be e2dc e5be 8eb8 febd
00000090: aad3 c03e 6756 943e 946f 5d3d 13de d1bd
000000a0: 29ed 103e 9401 ec3d 64dc 1d3f 66d2 3dbd
000000b0: 9926 1c3e 2663 a33e 1552 36bd 8987 a03d
000000c0: 980b cbbc 46bb b43c 2f50 143f ac60 8b3d
000000d0: 350c b13e 7841 843e 0914 0b3e 42de aebd
000000e0: b3d3 3c3f a78d 263e c676 b43e 7be9 91bb
000000f0: 360a 83bd 846a a3bd a466 e73d f2fc 0abd
00000100: 49e0 cc3d 8cbb ce3d a01f 99bd bca4 683e
00000110: 0a3e 723d 868e 833e 982c 903d 40b0 2f3e
00000120: d2f9 823d 2645 9f3e b97b 9fbd 6acf 9abd
00000130: 0d64 523e 3a39 b83e c97e 853d f9f8 343e
00000140: 9171 6e3e 6d18 763d 6bc6 163f 7baf 28bd

module.fc3.weight f4 [10, 84]
0.038213734 0.12403864 -0.2702347 0.050752368 -0.05732634 -0.005100545 -0.23481034 -0.06886362
0.059876833 0.07492074 -0.30547303 0.018864572 -0.26728648 0.11977121 0.22505848 -0.1332658
0.16125776 0.12196938 -0.33642706 0.12928686 0.057938453 0.19471149 0.08642343 0.18284556
0.15521513 0.15141736 0.031064969 0.15787704 0.06729376 0.21693876 0.10645693 -0.15173437
0.18246861 0.29899192 0.106543116 -0.027557364 0.13636209 0.16620798 -0.032075673 -0.07005543
-0.027908849 0.24281432 0.052808028 -0.07252355 -0.124924235 -0.18546613 -0.13892321 0.04261725
0.07669194 -0.17023665 -0.14075312 0.12004771 0.29847714 -0.0228791 -0.1583724 0.006362735
-0.4045371 0.22182332 -0.39958057 0.16175793 -0.008512501 0.010985157 -0.10472165 0.13461928
-0.19130906 -0.062398072 -0.1418488 -0.1635377 0.028419085 0.005443557 -0.0058398033 0.14985852
-0.1097087 -0.108242445 0.18620001 0.16839589 -0.12681344 -0.27672833 0.026082393 0.23554485
-0.105642274 -0.009413673 0.26473624 0.005457579 0.265464 0.14975324 -0.43876567 -0.020191958
-0.03156242 0.01878244 0.18762606 -0.042151783 0.19199269 0.17667192 -0.106923856 0.22258241
0.21559472 0.08256042 0.20257418 -0.02431945 -0.31797728 -0.19488761 -0.1350169 0.45776337
0.19871312 0.2926135 -0.30898365 -0.19105488 -0.19668178 0.17221725 -0.21019684 -0.26559427
0.10162279 -0.0035971224 0.06194592 0.01407245 -0.14838035 0.19181985 0.25346258 0.17680696
-0.13487285 -0.06471352 0.031691205 0.039180957 -0.029381098 -0.18238099 -0.0996402 0.21128051
0.011357777 0.121014014 -0.15953124 0.17983001 -0.07405488 0.0053915777 -0.1327072 0.08352058
0.016643368 -0.119474456 -0.0054826443 -0.06732918 -0.1257605 -0.19951476 -0.006757866 -0.12221047
0.1562199 0.04950377 0.11661146 0.2499225 0.2864929 -0.052265164 0.1593462 0.016255831
-0.129971 -0.08865719 0.14456311 0.05599976 0.07125629 -0.19876987 0.047228612 -0.160323
-0.05406551 -0.047718696 -0.05329768 -0.30235118 -0.10740049 0.14713421 -0.035887305 0.0488304
0.06583445 0.0525848 0.19009672 -0.14295526 -0.09939187 -0.16354781 -0.06056534 0.0853521
-0.1205389 -0.12096616 0.26601863 -0.040822215 0.02500146 -0.11309998 0.059644494 -0.13970606
0.20112002 0.17679702 0.18431106 -0.10779663 -0.04744598 -0.24426413 0.15698975 0.18459488
0.07951798 -0.056688208 0.23606378 -0.0738638 -0.036263052 -0.06538342 -0.024499713 -0.044525
-0.0030427752 -0.069949545 -0.020543827 -0.040340766 0.06339477 0.058406066 -0.109103866 -0.009988728
-0.08453933 -0.062526 0.1830038 -0.1113088 0.24431375 -0.10327427 0.067265496 -0.027966628
0.012821023 -0.028236518 0.10939023 0.12149795 0.122832865 -0.034718014 0.11941521 0.045864448
0.031201806 0.26220006 0.033021316 0.0010249426 -0.066518165 0.26357523 0.14525911 -0.029922916
0.11888248 0.07292704 -0.061857577 -0.23530999 -0.14588623 0.008568458 -0.03222393 0.20477396
-0.09128687 0.08842689 0.08745844 -6.058535e-05 0.33340007 -0.04150099 0.0472124 0.20508726
0.08346213 0.105704635 0.02399152 0.21282879 -0.08742804 0.03478644 0.22193895 0.020877114
00000000: 0186 1c3d f807 fe3d 345c 8abe b7e1 4f3d
00000010: 06cf 6abd 7922 a7bb 1f72 70be 5f08 8dbd
00000020: 6941 753d 0c70 993d f666 9cbe e089 9a3c
00000030: c6d9 88be 9c4a f53d bb75 663e d476 08be
00000040: c120 253e 15cb f93d 2b40 acbe c663 043e
00000050: df50 6d3d 7362 473e c4fe b03d de3b 3b3e
00000060: b7f0 1e3e 270d 1b3e f67b fe3c 85aa 213e
00000070: 50d1 893d 3225 5e3e 1706 da3d 4160 1bbe
00000080: 0dd9 3a3e 7815 993e 4733 da3d fbbf e1bc
00000090: 81a2 0b3e 6d32 2a3e c861 03bd 3979 8fbd
000000a0: 19a1 e4bc 51a4 783e 3b4d 583d 3a87 94bd
000000b0: 47d8 ffbd d5ea 3dbe e341 0ebe 6d8f 2e3d
000000c0: aa10 9d3d 8452 2ebe 9621 10be 93db f53d
000000d0: ffd1 983e f36c bbbc 602c 22be 7d7e d03b
000000e0: 7d1f cfbe a725 633e d395 ccbe dfa3 253e
000000f0: 0478 0bbc 17fb 333c 4e78 d6bd a3d9 093e
00000100: 86e6 43be 1f95 7fbd d040 11be 6d76 27be
00000110: 24cf e83c de5f b23b d25b bfbb 8374 193e
00000120: f4ae e0bd 37ae ddbd 37ab 3e3e f96f 2c3e
00000130: 62db 01be 56af 8dbe beaa d53c ab32 713e
00000140: fa5a d8bd ce3b 1abc 828b 873e 7ed5 b23b
00000150: e6ea 873e ea58 193e e5a5 e0be 9b69 a5bc
00000160: 9947 01bd a2dd 993c 0c21 403e 59a7 2cbd
00000170: bb99 443e 7ce9 343e e5fa dabd a5ec 633e
00000180: ddc4 5c3e 7015 a93d 9b6f 4f3e 9539 c7bc
00000190: ebcd a2be 9e90 47be df41 0abe f65f ea3e
000001a0: 747b 4b3e 70d1 953e 1b33 9ebe e4a3 43be
000001b0: f366 49be b859 303e d73d 57be f9fb 87be
000001c0: 9c1f d03d b3bd 6bbb 01bb 7d3d 2290 663c
000001d0: 05f1 17be 6c6c 443e d9c5 813e e20c 353e
000001e0: 1c1c 0abe 8688 84bd a3ce 013d 367c 203d
000001f0: a1b0 f0bc 15c2 3abe 2910 ccbd eb59 583e
00000200: f815 3a3c 32d6 f73d 285c 23be 5c25 383e
00000210: 16aa 97bd d5ab b03b 65e4 07be d60c ab3d
00000220: ac57 883c 06af f4bd c1a7 b3bb e2e3 89bd
00000230: 5cc7 00be 994d 4cbe 1771 ddbb 7c49 fabd
00000240: 1cf8 1f3e 77c4 4a3d fdd1 ee3d afeb 7f3e
00000250: 33af 923e ff13 56bd a62b 233e f32a 853c
00000260: 1e17 05be e791 b5bd 5a08 143e 0160 653d
00000270: d1ee 913d 548a 4bbe ca72 413d b62b 24be
00000280: cc73 5dbd ae74 43bd ab4e 5abd c6cd 9abe
00000290: caf4 dbbd 5aaa 163e 91fe 12bd 6302 483d
000002a0: 36d4 863d 2963 573d b7a8 423e dd62 12be
000002b0: f78d cbbd 1479 27be 5d13 78bd 15cd ae3d
000002c0: 19dd f6bd 1bbd f7bd 9833 883e 3235 27bd
000002d0: ddcf cc3c f6a0 e7bd c94d 743d 1b0f 0fbe
000002e0: 68f2 4d3e 470a 353e 0abc 3c3e 7bc4 dcbd
000002f0: b756 42bd 6020 7abe ecc1 203e 7106 3d3e
00000300: 53da a23d e531 68bd b4ba 713e e745 97bd
00000310: 9188 14bd bee7 85bd 9fb3 c8bc d95f 36bd
00000320: 4c69 47bb b541 8fbd 874b a8bc 5c3c 25bd
00000330: 1ed5 813d 333b 6f3d d971 dfbd c3a7 23bc
00000340: f522 adbd a20d 80bd 5965 3b3e def5 e3bd
00000350: 622d 7a3e 7681 d3bd 7ec2 893d 451a e5bc
00000360: 450f 523c 4550 e7bc fc07 e03d ebd3 f83d
00000370: cc8f fb3d 7a34 0ebd f68f f43d 5cdc 3b3d
00000380: ee9a ff3c 163f 863e 5c41 073d 5e57 863a
00000390: ad3a 88bd 55f3 863e cebe 143e e720 f5bc
000003a0: a878 f33d c65a 953d 5f5e 7dbd 1af5 70be
000003b0: 3363 15be b862 0c3c 3dfd 03bd 44b0 513e
000003c0: 9cf4 babd 2819 b53d 691d b33d 061d 7eb8
000003d0: 6ab3 aa3e f1fc 29bd ca61 413d 6502 523e
000003e0: 31ee aa3d ac7b d83d dd89 c43c caef 593e
000003f0: 790d b3bd 3a7c 0e3d f743 633e 7b06 ab3c

module.fc3.bias f4 [10]
-0.21424226 -0.96626407 -0.014626844 0.5388916 0.71951056 -0.1446792 0.024395103 -0.35012016
0.43992895 -0.3938347
00000000: 5362 5bbe 155d 77bf 6ea5 6fbc cdf4 093f
00000010: d831 383f c926 14be 3dd8 c73c f342 b3be
00000020: 5e3e e13e b4a4 c9be
