models/classifier_net_epoch_8_8000.pth (torch_old, 249853 bytes, 10 tensors)

module.conv1.weight f4 [6, 3, 5, 5]
0	0x3cd29e07	0.025710119
1	0x3ec035c8	0.37541032
2	0x3eeeac3b	0.46615776
3	0x3f03f441	0.51544577
4	0x3ea7c1fb	0.32765183
5	0x3cf0a7dd	0.029376918
6	0xbec33c77	-0.3813207
7	0x3e281fe0	0.1641841
8	0x3f7c2b43	0.9850351
9	0x3dbe352c	0.092874855
10	0x3e64dc82	0.22349742
11	0xbecf3472	-0.404697
12	0xbf97ba42	-1.1853716
13	0x3f5cf99d	0.8631838
14	0x3e9ec570	0.31010008
15	0x3d07d27c	0.033159718
16	0x3e08a7c8	0.13345253
17	0xbf739a12	-0.9515697
18	0x3db10372	0.08643235
19	0xbdb74bd3	-0.08950009
20	0xbe56a14e	-0.2095997
21	0x3cdec6de	0.027194437
22	0xbf25405d	-0.64551336
23	0x3e48e2ea	0.19617811
24	0xbea61fed	-0.32446232
25	0xbe0a9a97	-0.13535534
26	0xbee96e3b	-0.45591912
27	0xbf3225b3	-0.69588774
28	0xbe8b58b5	-0.27216116
29	0xbee4e364	-0.44704735
30	0x3ee848f3	0.45368156
31	0xbf3cf242	-0.73807156
32	0xbf3af44c	-0.7302902
33	0x3eea9a21	0.45820716
34	0xbe9a4442	-0.30130202
35	0x3f589ba9	0.8461252
36	0xbeb206de	-0.34770864
37	0xbfbcb82a	-1.4743702
38	0x3f3c2610	0.7349558
39	0x3e2e347b	0.17012207
40	0x3f137839	0.5760532
41	0x3ede6ac2	0.43440825
42	0xbf8afdbf	-1.0858687
43	0x3e9766cf	0.29570624
44	0xbe04696e	-0.12930843
45	0x3ee78dbc	0.45225322
46	0x3e47cce2	0.1951175
47	0xbeaa4fca	-0.33264
48	0x3f23fb6a	0.640555
49	0xbd3512a8	-0.044207245
50	0xbdd373fd	-0.103248574
51	0xbd1e889d	-0.038704503
52	0xbc0bde3f	-0.008536874
53	0x3e4d26a8	0.20034277
54	0xbe497945	-0.19675167
55	0x3ebd2f4a	0.3695014
56	0xbeea87b1	-0.4580665
57	0xbe649b8b	-0.2232496
58	0x3f423976	0.7586893
59	0xbf1272f5	-0.5720666
60	0x3f40ac24	0.75262666
61	0xbe6dbe8e	-0.23217222
62	0xbf8565dc	-1.042171
63	0x3f3bef31	0.7341185
64	0xbe20820f	-0.15674613
65	0x3f0e4532	0.55574334
66	0x3f1fb42b	0.6238429
67	0xbf43a5ea	-0.7642504
68	0x3e3c0632	0.18361738
69	0xbea5f5ba	-0.32414037
70	0x3e93f38e	0.28896755
71	0x3ecf5e33	0.40501556
72	0xbe61d4fd	-0.22053905
73	0x3eb61fde	0.35571188
74	0xbedbeb1a	-0.42952806
75	0xbe32f500	-0.17476273
76	0x3e8fde00	0.2809906
77	0x3e542763	0.2071815
78	0x3e330ab3	0.1748455
79	0x3d8f3638	0.06992763
80	0xbddf772e	-0.109114036
81	0x3f1349b0	0.57534313
82	0x3e3ed1dc	0.18634742
83	0xbe3e69fe	-0.1859512
84	0xbe0639ea	-0.1310803
85	0x3e7538ea	0.23947492
86	0xbd84f4f1	-0.06492031
87	0xbf2cbb87	-0.67473644
88	0xbf195996	-0.5990232
89	0xbe801ba8	-0.250211
90	0xbe1d656a	-0.15370718
91	0xbf4fa553	-0.8111164
92	0xbf2e7bc3	-0.68157595
93	0xbd8a3693	-0.067486905
94	0x3e17a930	0.14810634
95	0xbd8ee7f8	-0.06977838
96	0x3dad053d	0.08448265
97	0x3eb63aa5	0.35591617
98	0x3f1bea6a	0.6090456
99	0x3e79b3bd	0.24384971
100	0xbee21792	-0.44158608
101	0xbd702000	-0.058624268
102	0xbe1e68b0	-0.15469623
103	0xbe3001f0	-0.17188239
104	0xbe8a4432	-0.27005154
105	0xbae1c221	-0.0017223993
106	0x3ef0b89a	0.4701584
107	0xbd033552	-0.032033272
108	0xbe91e8c8	-0.2849791
109	0xbeac4bc0	-0.33651543
110	0x3ee28b13	0.4424673
111	0x3d3b6629	0.045751724
112	0xbf127b05	-0.5721896
113	0xbf173fbd	-0.5908163
114	0xbe369f70	-0.17834258
115	0xbd04f84f	-0.032463368
116	0xbf211e86	-0.629372
117	0xbf0f8b5b	-0.56072015
118	0xbd1bb194	-0.03801115
119	0x3e152489	0.14564718
120	0xbd1baf8e	-0.03800922
121	0xbe32454f	-0.17409252
122	0x3e53fe6a	0.2070252
123	0x3ecc9dd5	0.39964166
124	0x3dc3fac3	0.095693134
125	0xbe782623	-0.24233298
126	0x3d9d824d	0.076908685
127	0x3cd4b4be	0.02596509
128	0x3e7683f4	0.24073774
129	0x3d5717b8	0.052512854
130	0x3df67b73	0.12035265
131	0x3f21f875	0.6326974
132	0x3f05ef21	0.52318007
133	0x3db2f4f9	0.08738131
134	0xbd4e24fd	-0.050328244
135	0x3f0d7865	0.5526183
136	0x3eb068a3	0.3445483
137	0xbe7b56ca	-0.24544826
138	0xbedc53f5	-0.43032804
139	0xbdd13cb1	-0.10216654
140	0x3e59f2c5	0.21284015
141	0xbf146f82	-0.5798265
142	0xbef36901	-0.4754105
143	0xbdf6023b	-0.12012144
144	0x3e2abc96	0.16673502
145	0x3d7f2dc3	0.0622995
146	0xbdf68dd0	-0.12038767
147	0x3ea922b3	0.33034286
148	0x3e3863ac	0.18006772
149	0xbe2eeca5	-0.1708246
150	0x3d0f7b88	0.035029918
151	0xbd48bb2f	-0.049006637
152	0xbe25e1b2	-0.16199377
153	0xbc96dc07	-0.018415464
154	0xbc90fdd2	-0.017699156
155	0x3e526f37	0.20550238
156	0x3ecae319	0.39626387
157	0x3e3fd2e7	0.18732797
158	0x3e5d89cf	0.21634601
159	0x3e119adc	0.1421923
160	0xbe108282	-0.14112285
161	0xbdd08c3f	-0.10183
162	0xbda619eb	-0.08110412
163	0xbe15b821	-0.14621021
164	0xbc0a3f03	-0.008437875
165	0xbedaaea0	-0.42711353
166	0xbed618e2	-0.4181586
167	0xbf039c0a	-0.5140997
168	0xbf128fa6	-0.5725044
169	0xbece4955	-0.40290323
170	0xbdefe99d	-0.1171448
171	0xbe94c08d	-0.29053155
172	0xbe918479	-0.2842138
173	0xbeb647a3	-0.3560153
174	0xbe66e6ed	-0.22549029
175	0xbec08533	-0.37601623
176	0xbea323c7	-0.31863233
177	0xbe6531bd	-0.22382255
178	0xbe87257a	-0.2639578
179	0xbe99cdc8	-0.3003981
180	0x3e9f27ab	0.31084952
181	0x3ef27e16	0.4736182
182	0x3f096792	0.5367366
183	0x3eb37dee	0.35057014
184	0x3e8bb6cb	0.27287897
185	0xbbb6cdb1	-0.0055787195
186	0x3d0dd967	0.03463116
187	0x3dc8ffb2	0.09814395
188	0x3d9d66cd	0.07685623
189	0x3df93d9d	0.12169955
190	0xbea117d9	-0.31463507
191	0xbeca58ea	-0.3952096
192	0xbe99fc89	-0.30075482
193	0xbe88931e	-0.26674742
194	0xbe5cd9ef	-0.2156751
195	0xbcb22a6e	-0.021748748
196	0xbe052dba	-0.13005725
197	0xbd4bc011	-0.049743716
198	0x3c89dbf8	0.016828522
199	0x3c7dd2d8	0.015492164
200	0xbeaa9d7d	-0.3332328
201	0xbcf5c502	-0.030001167
202	0xbdf07afd	-0.11742208
203	0xbe85bd74	-0.26121104
204	0xbec24dcc	-0.3794998
205	0x3ebf323e	0.3734302
206	0x3eec2316	0.46120518
207	0x3f29dade	0.6634959
208	0x3f11c871	0.56946474
209	0x3e96945f	0.29410073
210	0x3e27273f	0.16323565
211	0x3eb27715	0.34856477
212	0x3ea130a5	0.31482425
213	0x3ec8970e	0.39177746
214	0x3e70e89e	0.23526236
215	0x3d98d8f9	0.07463259
216	0x3e828072	0.2548862
217	0x3e1f0c46	0.15532026
218	0x3e41539a	0.18879548
219	0x3e4363c4	0.19081026
220	0x3dbf44f4	0.09339324
221	0x3e31475f	0.17312382
222	0x3e6823bc	0.22669882
223	0x3ea2e451	0.31814817
224	0x3e420c80	0.18950081
225	0x3dcf1897	0.10112112
226	0x3e9a0f78	0.30089927
227	0xbe7b90bd	-0.24566932
228	0xbd4a2e1c	-0.04936038
229	0xbe95836e	-0.29201835
230	0x3ea1fae9	0.31636742
231	0xbe743416	-0.23847994
232	0xbf091dab	-0.53560895
233	0x3e61e0af	0.22058366
234	0xbd294774	-0.04132791
235	0x3ed7cb7a	0.42147428
236	0xbeeb7dfa	-0.4599455
237	0xbf037c43	-0.51361483
238	0x3f162553	0.586507
239	0xbddc9320	-0.10770249
240	0xbd0c98c1	-0.034325365
241	0xbf1d08dc	-0.61341643
242	0xbe00a99a	-0.12564698
243	0x3f012296	0.504434
244	0x3d063648	0.03276661
245	0xbd1fb070	-0.038986623
246	0xbe4c862a	-0.19973055
247	0x3e5d36a0	0.21602869
248	0x3ec2fc0d	0.38082924
249	0xbde3c0bb	-0.11120745
250	0x3e0fb368	0.14033282
251	0x3e1a1f70	0.15051055
252	0xbe9b50bf	-0.30335042
253	0x3de79e9b	0.113095485
254	0x3d77e73a	0.06052325
255	0x3e50900d	0.20367451

module.conv1.bias f4 [6]
0	0xbe90577c	-0.28191745
1	0xbf469c82	-0.7758256
2	0xbdac3929	-0.0840934
3	0xbe88693f	-0.26642796
4	0xbd281e2a	-0.04104439
5	0xbea37450	-0.31924677

module.conv2.weight f4 [16, 6, 5, 5]
0	0x3ee16143	0.44019517
1	0xbd9b97ed	-0.07597337
2	0x3f045e75	0.5170663
3	0xbc09f5f8	-0.00842046
4	0xbe1c9aed	-0.15293474
5	0x3e3940a3	0.18091063
6	0xbe0ec74d	-0.13943215
7	0x3e65a61f	0.22426651
8	0x3ed2af35	0.41149297
9	0xbcea9147	-0.028633727
10	0x3e72a16a	0.23694387
11	0xbe0a5de7	-0.13512383
12	0x3d76964d	0.06020193
13	0x3e925bfd	0.28585806
14	0xbde5b4e7	-0.11216145
15	0xbccfc7ca	-0.025363822
16	0x3dd2a993	0.1028625
17	0x3d73b517	0.059498873
18	0x3e14ed4a	0.14543644
19	0x3e2efcfe	0.17088696
20	0xbdb4851d	-0.08814452
21	0xbd8349ce	-0.064105615
22	0xbe5e312e	-0.21698448
23	0xbe1fefd5	-0.15618832
24	0x3cc21668	0.023692325
25	0xbde22a12	-0.110431805
26	0x3e154534	0.1457718
27	0x3e44dc3b	0.19224636
28	0x3b84aa08	0.0040485896
29	0xbd87f7bb	-0.06639048
30	0xbe90ea84	-0.2830392
31	0xbd1c4d53	-0.03815968
32	0x3e2bf936	0.16794285
33	0x3dc3b4d8	0.095559776
34	0x3d59408a	0.053040065
35	0xbed8abb3	-0.42318496
36	0xbdf46877	-0.119339876
37	0x3dc7af27	0.097502045
38	0x3e10cd3b	0.14140789
39	0x3dc39957	0.09550732
40	0xbead6699	-0.33867338
41	0xbe9c6b5b	-0.30550656
42	0xbdf6a2c5	-0.120427646
43	0x3d3c69b5	0.045999248
44	0x3da73df5	0.08166114
45	0xbe834ff7	-0.25646946
46	0xbdc3c9a3	-0.095599435
47	0xbe3105ec	-0.17287415
48	0xbd972736	-0.07380526
49	0x3d6e9b60	0.058253646
50	0xbe121c3c	-0.14268583
51	0xbe38a584	-0.18031889
52	0xbd8ac315	-0.0677549
53	0x3df132ca	0.11777265
54	0x3e0a30f2	0.13495234
55	0xbe8342fe	-0.25637048
56	0xbe6185a7	-0.2202364
57	0xbe3b154b	-0.18269841
58	0xbdb52a23	-0.088459276
59	0xbdb307dd	-0.08741734
60	0xbed5a2ed	-0.41725865
61	0xbea95839	-0.3307512
62	0xbea95388	-0.33071542
63	0xbe8c9c46	-0.27462977
64	0xbe1e78e2	-0.154758
65	0xbe5b29f2	-0.2140272
66	0xbde7dc52	-0.1132132
67	0xbd4a27e7	-0.04935446
68	0xbdfd61d8	-0.12372178
69	0x3dde4d65	0.108546056
70	0xbdc43cc6	-0.09581904
71	0xbd7cebf0	-0.061748445
72	0xbc89882f	-0.01678857
73	0x3d7e9fdc	0.062164173
74	0xbd0b9159	-0.03407416
75	0x3efbdd68	0.49192357
76	0x3d6191bd	0.055070627
77	0x3d505a17	0.050867166
78	0x3ee55cd2	0.4479738
79	0xbc92e973	-0.017933583
80	0x3cbade0c	0.022810958
81	0xbb1373db	-0.0022499475
82	0xbe23c66f	-0.15993665
83	0x3e183522	0.14864019
84	0x3e5e5ba9	0.21714653
85	0xbddd0452	-0.1079184
86	0x3e27f7cf	0.16403125
87	0xbe83e4ca	-0.2576049
88	0xbdac66ab	-0.0841802
89	0x3eadc616	0.3394019
90	0xbe94f2c5	-0.29091468
91	0x3dcf3fca	0.10119589
92	0xbdc1e856	-0.09468143
93	0xbc616b17	-0.013758442
94	0x3d5c3359	0.053759906
95	0xbe7ee6bf	-0.2489271
96	0x3c749a22	0.014929326
97	0xbde5a58d	-0.11213217
98	0xbdc15588	-0.09440142
99	0xbe8bd613	-0.27311763
100	0xbdf201ef	-0.11816775
101	0xbd1d4973	-0.038400125
102	0xbe8bb532	-0.2728668
103	0xbd1672d3	-0.0367306
104	0x3da39422	0.079872385
105	0xbdb1a396	-0.0867378
106	0xbcdfd85a	-0.027324844
107	0xbe10fa55	-0.14157994
108	0xbe0184af	-0.12648271
109	0xbe3fc20e	-0.1872637
110	0xbd42ad29	-0.04752842
111	0xbd48f514	-0.04906185
112	0x3c929830	0.017894834
113	0xbcc6bfe1	-0.024261417
114	0xbd7ced7c	-0.06174992
115	0xbd414629	-0.04718605
116	0xbd5cb847	-0.053886678
117	0x3cbc5430	0.022989362
118	0x3d8fcb64	0.070212156
119	0x3d10b725	0.03533091
120	0xbe1143ae	-0.14185974
121	0xbd9fc721	-0.07801653
122	0x3d1bde9d	0.038054097
123	0x3e614510	0.21999002
124	0x3dfc5552	0.12320961
125	0xbe819bc6	-0.25314158
126	0xbd524c46	-0.05134227
127	0xbe6cf52a	-0.23140398
128	0x3b2243dd	0.0024759688
129	0xbbd58a80	-0.0065167546
130	0xbdb97be9	-0.09056837
131	0xbe210584	-0.1572476
132	0xbe1ee0af	-0.15515397
133	0xbd25facc	-0.04052238
134	0x3d9b111e	0.07571624
135	0xbd401c05	-0.04690172
136	0xbd694bfe	-0.056957237
137	0xbe77afae	-0.2418811
138	0xbdb5db18	-0.088796794
139	0xbdb6a39c	-0.08917925
140	0xbe394df8	-0.18096149
141	0x3e7b6413	0.24549894
142	0xbe1f9a01	-0.15586092
143	0xbe62637e	-0.22108266
144	0xbe9e9d95	-0.309796
145	0x3cfb7dbc	0.030699603
146	0x3d3d852f	0.046269592
147	0x3d06322a	0.032762684
148	0xbc961f45	-0.018325457
149	0xbe294476	-0.16530022
150	0xbdae2417	-0.08502977
151	0xbd342504	-0.043980613
152	0x3dec7752	0.11546196
153	0xbdcdc469	-0.10047228
154	0xbd2ed9c6	-0.042688154
155	0xbe18c01a	-0.14917031
156	0x3d3f0bca	0.046642102
157	0x3d9543e9	0.072883435
158	0x3c57846c	0.01315413
159	0x3db77886	0.08958535
160	0x3eb7302c	0.3577894
161	0xbe513058	-0.20428598
162	0xbe2ab861	-0.16671897
163	0x3d751d27	0.059842255
164	0xbd4f6335	-0.05063172
165	0x3f2eab3f	0.6823005
166	0x3f456220	0.7710285
167	0xbdef7e11	-0.11693967
168	0xbe958d13	-0.29209194
169	0xbe70736b	-0.23481528
170	0xbebe2436	-0.37137002
171	0xbc5bea2f	-0.013422533
172	0x3ec97c79	0.39352778
173	0x3e807836	0.25091714
174	0x3e0e5cf1	0.13902642
175	0xbe129729	-0.14315476
176	0xbe683f1a	-0.22680321
177	0x3d090429	0.033451233
178	0xbd4784a4	-0.04871048
179	0x3b6772af	0.003531616
180	0xbd248b91	-0.040172163
181	0xbe15b04d	-0.14618035
182	0xbe5bdaa9	-0.21470131
183	0xbdf807c5	-0.12110857
184	0x3e67bb90	0.22630143
185	0x3de41b2d	0.11137996
186	0xbce9b4ed	-0.028528655
187	0xbedf2ea2	-0.43590266
188	0xbe270f58	-0.16314447
189	0x3d8c307b	0.068451844
190	0x3eac7ed5	0.33690515
191	0x3dfbd88d	0.12297163
192	0xbd1a70dd	-0.03770529
193	0xbe06cedd	-0.1316485
194	0xbd059626	-0.032613896
195	0xbd258850	-0.0404132
196	0x3e85ec7d	0.2615699
197	0x3e690c14	0.22758514
198	0x3eca6030	0.3952651
199	0x3e44ae07	0.19207011
200	0x3e02945e	0.1275191
201	0x3ddedbf0	0.108817935
202	0x3bf387af	0.007431946
203	0xbdac479b	-0.08412095
204	0x3ceb07bd	0.028690213
205	0x3d34220a	0.043977775
206	0x3e044582	0.1291714
207	0x3e09ee0d	0.13469715
208	0xbbaaf225	-0.005216854
209	0xbd6dcf59	-0.05805907
210	0xbcc1a0e6	-0.023636293
211	0x3e835199	0.25648192
212	0x3db52d64	0.08846548
213	0x3d8c6860	0.068558455
214	0xbe265192	-0.16242054
215	0xbf283190	-0.65700626
216	0x3c8e0a2a	0.017338831
217	0x3ebf4aac	0.37361658
218	0x3e64c181	0.22339441
219	0xbedaae5d	-0.42711154
220	0xbe900f69	-0.28136757
221	0xbeecb00e	-0.4622807
222	0xbda2db43	-0.07951977
223	0x3e4aa429	0.19789185
224	0x3ecb12af	0.39662692
225	0xbb2d7860	-0.0026469454
226	0xbe62d031	-0.22149731
227	0xbc2e5bf3	-0.01064204
228	0xbc2af04e	-0.01043327
229	0x3e6bc47a	0.23024169
230	0x3dc0edf9	0.0942039
231	0xbda84b36	-0.0821747
232	0xbded633f	-0.11591195
233	0x3db2c580	0.087290764
234	0xbdcbe662	-0.099560514
235	0xbe1f7e29	-0.1557547
236	0x3ca5831f	0.020204125
237	0xbdded812	-0.10881056
238	0xbd83f868	-0.06443864
239	0xbe230101	-0.15918352
240	0xbeabda1b	-0.3356484
241	0xbea55416	-0.32290715
242	0x3e4108ae	0.18850967
243	0x3e32b13c	0.17450422
244	0x3ea8efc7	0.32995436
245	0xbebdc73f	-0.37066075
246	0xbf20e676	-0.62851655
247	0xbec4a605	-0.38407913
248	0xbe41c6fa	-0.1892356
249	0xbe4271f9	-0.1898879
250	0xbe392f21	-0.18084385
251	0xbdf6b1b7	-0.12045615
252	0xbd8a7f30	-0.0676254
253	0x3dd19769	0.10233957
254	0x3df5b91a	0.11998196
255	0xbe91f1d6	-0.2850482

module.conv2.bias f4 [16]
0	0x3e80b4e8	0.2513802
1	0xbfceb90f	-1.6150225
2	0xbf84cf84	-1.0375829
3	0xbddc74d3	-0.1076447
4	0x3f68fa86	0.9100727
5	0x3ec3cad2	0.38240677
6	0x3e1d39ec	0.15354127
7	0x3f9b9c3e	1.2157056
8	0xbde2c347	-0.110724024
9	0xbec64584	-0.3872491
10	0xbf813b69	-1.0096256
11	0x3fcfbb06	1.622895
12	0x3eb45707	0.35222647
13	0xbf239602	-0.6390077
14	0x3db137a0	0.08653188
15	0x3f01d41e	0.5071429

module.fc1.weight f4 [120, 400]
0	0xbd5ad1ce	-0.05342274
1	0xbd169f22	-0.036772855
2	0xbd2e6f72	-0.04258675
3	0x3b4389f7	0.0029836872
4	0xbdb72ed0	-0.08944476
5	0x3dc15c19	0.09441394
6	0x3d25d591	0.040486876
7	0x3bb7f368	0.005613733
8	0x3d36affe	0.044601433
9	0x3caff066	0.021476936
10	0x3c3ceb65	0.011530732
11	0x3b89c8cd	0.0042048455
12	0xbdb4e1d6	-0.08832137
13	0x3dcd73fb	0.10031887
14	0x3d9cc8cd	0.07655487
15	0x3dc5aec3	0.09652474
16	0xbd21d872	-0.03951306
17	0xbe3883d5	-0.1801904
18	0xbc8fc4c3	-0.017549878
19	0x3cd3ae41	0.025839927
20	0x3d1dfbbc	0.03857015
21	0x3d270373	0.040774774
22	0xbd984c44	-0.074364215
23	0xbda674a1	-0.08127714
24	0x3d3fa731	0.046790306
25	0x3dabe09a	0.08392449
26	0xbb6afda3	-0.0035856746
27	0x3d635498	0.055500597
28	0x3dd2b7f6	0.10288994
29	0x3dd28e1f	0.10281014
30	0x3d5088c4	0.05091168
31	0x3cdccd63	0.026953405
32	0x3da11628	0.07865554
33	0x3d3b675f	0.04575288
34	0x3e17454e	0.14772531
35	0x3e8ccb11	0.27498677
36	0xbc221954	-0.009893734
37	0xbd0baa5a	-0.034098007
38	0x3c486341	0.012230695
39	0x3bc982c6	0.0061496226
40	0x3ad8bff2	0.0016536696
41	0xbc734140	-0.0148471
42	0xbe725d39	-0.23668374
43	0xbcc74373	-0.024324154
44	0x3cbfe65f	0.02342528
45	0xbe7a1029	-0.24420227
46	0xbd002b89	-0.03129152
47	0x3b648eef	0.0034875234
48	0xbdccc310	-0.09998143
49	0x3ba8fa9c	0.005156828
50	0x3e4d438c	0.20045298
51	0x3d2fedfe	0.042951576
52	0xbcddf99d	-0.027096564
53	0xbd854873	-0.06507959
54	0xbe397889	-0.18112387
55	0xbae0740b	-0.0017124427
56	0xbb80729e	-0.0039199134
57	0xbb295e32	-0.0025843498
58	0xbda1f58d	-0.07908163
59	0xbe02e07d	-0.12780948
60	0xbd3856dc	-0.04500471
61	0x3d9b8575	0.07593814
62	0xbd61309f	-0.05497801
63	0xbd62d805	-0.055381794
64	0xbda92a43	-0.08260014
65	0x3e27979b	0.16366427
66	0x3d57bfb5	0.05267306
67	0xbd8569cf	-0.06514322
68	0xbd472c10	-0.048626006
69	0xbd8e0835	-0.06935159
70	0xbe3e916c	-0.18610162
71	0xbce3169c	-0.027720742
72	0xbe0a72b0	-0.13520312
73	0xbca4b665	-0.020106504
74	0xbd1768cd	-0.03696518
75	0xbd91aa42	-0.07112552
76	0xbe7e86c5	-0.24856098
77	0xbd3686a3	-0.044561993
78	0xbcdba08a	-0.02680995
79	0x3d6f697a	0.0584502
80	0xbe06a32b	-0.13148181
81	0xbe3fd64f	-0.18734096
82	0xbde1ddaf	-0.11028611
83	0xbd4d610f	-0.05014139
84	0x3de2e0d6	0.1107804
85	0xbe061fc3	-0.13098054
86	0xbd9f5213	-0.07779326
87	0x3d59cbb3	0.05317278
88	0xba811ecb	-0.0009851096
89	0xbc9c0f85	-0.019050369
90	0xbde51e2d	-0.11187396
91	0xbd495015	-0.049148638
92	0xbb6ef442	-0.0036461507
93	0xbdac2691	-0.084057935
94	0x3d0a53c3	0.033771288
95	0x3dcbcdc5	0.09951357
96	0x3e0c8e75	0.13726218
97	0x3d4ebc3b	0.05047248
98	0xba59f64d	-0.0008314595
99	0x3d775fa4	0.060393944
100	0x3df7dcf3	0.121026896
101	0x3d8f1602	0.069866195
102	0x3de8924c	0.11356029
103	0x3d9f0c1a	0.0776598
104	0xbcbedb0e	-0.023297813
105	0xbaf3b7fc	-0.001859426
106	0x3d950e7d	0.07278154
107	0x3e01fab7	0.12693296
108	0x3daa7e19	0.083248325
109	0xbd65c9ac	-0.056100532
110	0x3d84277e	0.06452845
111	0x3d85ccb7	0.06533187
112	0x3e15a037	0.14611898
113	0x3e3deaa0	0.18546534
114	0xbe06af7a	-0.13152876
115	0x3be429b4	0.006962979
116	0xbdaee057	-0.08538883
117	0xbba601e7	-0.0050661447
118	0xbd812832	-0.06306495
119	0xbd84e48c	-0.06488904
120	0x3d932d6e	0.071863994
121	0xbbd1b4da	-0.006399733
122	0x3a9ae211	0.0011816641
123	0xbde2ff0a	-0.11083801
124	0xbdf9742a	-0.1218036
125	0xbd0843a2	-0.033267625
126	0xbcc62924	-0.02418954
127	0x3df08343	0.11743786
128	0x3d11537e	0.035480015
129	0xbdf36663	-0.11884763
130	0xbcfbe71d	-0.030749852
131	0x3c46e66c	0.012139898
132	0x3d341649	0.043966565
133	0x3aa5d471	0.0012651813
134	0xbdcd4c9c	-0.10024378
135	0x3d304891	0.043037955
136	0xbce96dae	-0.028494682
137	0xbdf9e8a5	-0.122025765
138	0xbde6db03	-0.11272242
139	0xbe1fb9c1	-0.15598203
140	0xbd90f65a	-0.07078238
141	0x3d340f0c	0.043959662
142	0x3d561640	0.052267313
143	0xbb1c5eab	-0.0023860137
144	0x3d6aa252	0.057283707
145	0xbd3d12f8	-0.046160668
146	0x3d05477a	0.03253887
147	0xbcd89fed	-0.026443446
148	0xbcc72878	-0.02431129
149	0xbc7c557d	-0.015401241
150	0x3cbe06bb	0.023196569
151	0xbd1d1973	-0.03835435
152	0xbdcb7206	-0.099338576
153	0xbdd8630a	-0.10565765
154	0xbd36191f	-0.04445755
155	0x3de13212	0.10995878
156	0xbdbc3d16	-0.09191339
157	0xbd82b86d	-0.06382833
158	0xbd3d8e16	-0.04627808
159	0xbd15d087	-0.03657582
160	0x3d7c1a56	0.061548553
161	0x3ce5b7e4	0.028041787
162	0x3bfddcc4	0.0077472646
163	0xbdaf092f	-0.085466735
164	0x398e5270	0.0002714577
165	0xbc4cb9c2	-0.01249546
166	0xbd55f6bf	-0.05223727
167	0xbdeebff9	-0.1165771
168	0xbcd027ca	-0.025409598
169	0xbd01f000	-0.031723022
170	0xbd8a1a7e	-0.06743334
171	0xbbf7205d	-0.0075417
172	0xbcc82cf6	-0.024435502
173	0x3db03d0c	0.08605394
174	0x3dcb900d	0.09939585
175	0x3c9e55f8	0.019328102
176	0xbc30a02d	-0.010780376
177	0x3bed9e0d	0.007251507
178	0x3dd911f3	0.10599127
179	0x3e0f85b2	0.14015844
180	0xbc9b3954	-0.018948235
181	0x3d7bfb3d	0.061518896
182	0x3e251d10	0.16124368
183	0x3cdd6e73	0.027030205
184	0x3d1e0b83	0.038585197
185	0xbbd1e650	-0.006405629
186	0x3d2475a8	0.04015127
187	0xbb31e3b3	-0.0027143776
188	0xbd14da3d	-0.03634094
189	0x3d2fe60e	0.042944007
190	0xbd81cdad	-0.06338058
191	0x3d1a577a	0.03768108
192	0xbd39d59e	-0.045369737
193	0xbb47ff67	-0.0030517222
194	0xbb163dd6	-0.002292504
195	0x3c99c29f	0.01876956
196	0x39d92c56	0.00041422498
197	0xbd956d7b	-0.07296272
198	0x3c7d7db5	0.015471865
199	0xbdfa0186	-0.12207322
200	0xbdffd046	-0.12490897
201	0xbcda71a6	-0.02666552
202	0xbe0bba4e	-0.13645288
203	0xbe748dd8	-0.23882234
204	0xbdde3f98	-0.10851973
205	0xbdc7ae7f	-0.09750079
206	0xbc7d78b2	-0.015470671
207	0x3b282563	0.002565705
208	0xbdb5c7d8	-0.08876008
209	0x3cc24b5a	0.023717571
210	0x3cbf3551	0.023340853
211	0x3da2cfa4	0.079497606
212	0x3d3548b7	0.0442588
213	0x3c092b2b	0.008372108
214	0x3dabe497	0.083932094
215	0xbddf4edd	-0.10903714
216	0xbe1d11ab	-0.15338771
217	0xbcd6e91f	-0.026234208
218	0xbd6b36fb	-0.05742548
219	0xb993ca07	-0.00028188547
220	0xbe47fb6e	-0.19529507
221	0xbdc7fb99	-0.09764785
222	0xbdaedbf9	-0.0853805
223	0xbd6621a4	-0.056184426
224	0xbe19c2ab	-0.15015666
225	0x3d90d91e	0.07072662
226	0x3dd76122	0.105165735
227	0xbd19e99e	-0.03757631
228	0xbd800c8b	-0.062523924
229	0xbe20a696	-0.15688547
230	0x3d97e0c3	0.07415917
231	0x3d3534e0	0.04423988
232	0xbcf6306c	-0.030052386
233	0x3d38f773	0.04515786
234	0xbde282cd	-0.110601045
235	0x3e0ae7f5	0.13565047
236	0xbc31e562	-0.010857912
237	0xbd246fa9	-0.04014555
238	0x3db824ac	0.089913696
239	0xbd3955ed	-0.04524796
240	0x3e4f0793	0.20217733
241	0x3e10c39d	0.1413712
242	0x3d7b2f4e	0.06132441
243	0x3d089d4c	0.033353135
244	0x3d84ef18	0.06490916
245	0x3e32c2d0	0.17457128
246	0x3ccfd0d1	0.025368126
247	0x3d9db78b	0.07701024
248	0x3dfd0c91	0.123559125
249	0x3d028970	0.031869352
250	0xbd6dd25a	-0.058061935
251	0xbdd9341e	-0.10605644
252	0xbdff6e61	-0.12472225
253	0xbe2601dc	-0.16211647
254	0xbd7e44fb	-0.062077504
255	0xbdaac1da	-0.083377555

module.fc1.bias f4 [120]
0	0x3e37da2b	0.17954318
1	0xbe476c6d	-0.19474955
2	0xbe46aa46	-0.19400892
3	0xbd881971	-0.066454776
4	0xbe72b83d	-0.23703094
5	0xbe67c433	-0.22633438
6	0x3d46fc67	0.048580553
7	0x3c0d7552	0.008633928
8	0xbd94d7af	-0.07267701
9	0x3bdff3f9	0.0068345037
10	0x3d86ddb4	0.06585255
11	0x3d8740d1	0.066041596
12	0xbe464ea0	-0.1936593
13	0xbecf9310	-0.40541887
14	0xbbba3183	-0.005682172
15	0x3e996b66	0.2996475
16	0x3c0b0342	0.008484663
17	0x3e0cd744	0.13753992
18	0x3e6a1963	0.22861247
19	0x3d7c07b1	0.061530773
20	0x3dbb2e1c	0.09139654
21	0x3c468acf	0.0121180555
22	0xbe1cffcb	-0.15331952
23	0xbc30e9cd	-0.01079793
24	0xbdb48cce	-0.08815919
25	0xbdc1ca18	-0.094623744
26	0xbdff6638	-0.124706686
27	0x3e6be0f8	0.23035038
28	0x3ec18590	0.37797213
29	0xbc05da2e	-0.008169694
30	0x3d056b9b	0.032573324
31	0xbcc3f57f	-0.023920773
32	0x3cb70829	0.022342758
33	0xbe07fdef	-0.13280462
34	0x3d45261d	0.04813205
35	0x3e8f129f	0.27943894
36	0x3e32e0b3	0.17468528
37	0x3e130028	0.14355528
38	0xbbfccd0d	-0.0077148736
39	0x3e72c88e	0.23709318
40	0x3e12a53e	0.14320847
41	0x3df99f81	0.12188626
42	0xbe6891b1	-0.22711827
43	0x3e2213f9	0.15827931
44	0x3e641c65	0.22276457
45	0x3ef0d02a	0.47033817
46	0xbd63f1ff	-0.055650707
47	0x3e861321	0.2618647
48	0xbc898a2a	-0.016789515
49	0x3e000885	0.1250325
50	0x3ec94755	0.39312235
51	0xbdb45b86	-0.08806519
52	0x3db35deb	0.08758148
53	0x3d29c078	0.041443318
54	0x3e3aa458	0.18226755
55	0x3d000352	0.031253166
56	0xbe04b280	-0.12958717
57	0x3de3f6d1	0.11131061
58	0x3dc0d7e0	0.09416175
59	0x3dd7c48b	0.105355345
60	0x3ef1e941	0.4724827
61	0x3daa7438	0.08322948
62	0x3e7da210	0.24768853
63	0x3cf2779e	0.029598054
64	0x3d9c789a	0.076401904
65	0xbd54e8cb	-0.05197982
66	0xbe9b3a4d	-0.30317917
67	0xbec6280a	-0.38702422
68	0x3cda269d	0.02662974
69	0xbc12865c	-0.008943167
70	0x3e61f184	0.22064787
71	0xbde8de06	-0.113704726
72	0xbc6a7f15	-0.014312525
73	0xbb39ba77	-0.0028339901
74	0xbe1118dd	-0.14169641
75	0xbde7c172	-0.11316194
76	0x3df0cc3c	0.117577046
77	0x3db6ac95	0.08919636
78	0x3d4be506	0.04977896
79	0xbd22143f	-0.03957009
80	0xbe208fed	-0.15679903
81	0x3e445b40	0.19175434
82	0x3dc291f4	0.095004946
83	0x3e21504a	0.15753284
84	0x3da268b7	0.07930129
85	0x3eebaa37	0.460283
86	0x3e52b65b	0.20577376
87	0xbe543a15	-0.20725282
88	0xbe9e7843	-0.30951127
89	0x3e19252d	0.14955588
90	0xbc20db0a	-0.009817848
91	0x3e91bfef	0.28466746
92	0x3d9ee301	0.07758141
93	0xbd01e5a5	-0.031713147
94	0xbe581d0a	-0.21104828
95	0x3ebe08ec	0.37116182
96	0x3e046f5f	0.1293311
97	0x3e4d6c7b	0.20060913
98	0x3e17272d	0.14761038
99	0xbe3c01d3	-0.18360071
100	0xbd49cb0e	-0.049265914
101	0xbcc8067c	-0.024417154
102	0xbc5f0939	-0.013613039
103	0xbc22b21f	-0.009930163
104	0x3eaabd2f	0.3334746
105	0xbeb462fc	-0.3523177
106	0xbcb3b6c3	-0.021937734
107	0xbe1332ba	-0.1437482
108	0xbe633edc	-0.22191948
109	0x3e81f9d4	0.25385916
110	0xbd8c73f8	-0.06858057
111	0xbdb9c59c	-0.09070894
112	0x3dabacde	0.08382581
113	0xbd32dd88	-0.0436683
114	0x3d1e6f14	0.03868015
115	0x3d1cd55c	0.038289413
116	0xbd3da05e	-0.046295516
117	0xbc5804bd	-0.013184723
118	0x3e26fcdd	0.16307397
119	0x3ea73269	0.32655647

module.fc2.weight f4 [84, 120]
0	0xbe29cbd7	-0.16581665
1	0xbda25918	-0.079271495
2	0x3d79d9c7	0.060998704
3	0x3dc265c3	0.09492066
4	0xbe089674	-0.13338643
5	0x3dea127b	0.11429306
6	0xbc3b3850	-0.011427
7	0x3e1fa65c	0.15590805
8	0x3e604931	0.2190292
9	0xbdffeaab	-0.12495931
10	0x3db2fda9	0.08739788
11	0x3d86277c	0.065505
12	0x3cc8f210	0.024529487
13	0x3d898155	0.06714121
14	0xbdc03d4e	-0.09386693
15	0xbe1e6e71	-0.15471818
16	0x3de60f96	0.112334415
17	0x3cf89905	0.030346403
18	0x3d19cca5	0.03754868
19	0x3daf1cf2	0.08550443
20	0xbdc6a7b6	-0.09699957
21	0x3da425c1	0.080150135
22	0x3d876554	0.06611124
23	0xbad147aa	-0.0015966792
24	0x3e2783e7	0.1635891
25	0xbd87c20f	-0.066288106
26	0x3e042f4f	0.12908672
27	0xbe39844c	-0.18116874
28	0xbdc1af51	-0.09457267
29	0xbdb014e9	-0.08597738
30	0xbd886e92	-0.066617146
31	0xb9d8b053	-0.00041330102
32	0xbdeaa49c	-0.11457178
33	0xbd8da28f	-0.06915771
34	0xbe1c3e1d	-0.1525807
35	0xbe1c880e	-0.15286276
36	0x3dffbb39	0.12486882
37	0x3c9e867c	0.019351237
38	0xbd6b7d70	-0.057492673
39	0xbe5a4d48	-0.21318543
40	0xbcc0daec	-0.02354189
41	0x3e513f1b	0.20434229
42	0x3a79a98e	0.0009523862
43	0xbdc0ccea	-0.09414084
44	0xbdc3d640	-0.09562349
45	0xbe381972	-0.17978457
46	0xbdf559e9	-0.119800396
47	0x3dfee473	0.12445917
48	0x3d62eec5	0.05540349
49	0xbcadc996	-0.021214288
50	0xbce76d2e	-0.028250303
51	0xbd30b6b8	-0.043143004
52	0xbe0f0474	-0.13966542
53	0xbe300e5a	-0.17192975
54	0x3e04cedc	0.12969536
55	0x3d414abd	0.047190417
56	0x3e3e84fb	0.18605416
57	0xbd120997	-0.035653677
58	0x3c9763a3	0.018480128
59	0xbe1e787a	-0.15475646
60	0xbd637aa5	-0.055536885
61	0x3c3dbce9	0.011580684
62	0xbe088338	-0.13331306
63	0xbe1335ff	-0.14376067
64	0x3c9a00ca	0.018799204
65	0x3d23231d	0.03982841
66	0x3d8f982c	0.07011446
67	0xbb3208d9	-0.0027165918
68	0xbe0e1715	-0.13875993
69	0x3c053f6c	0.008132797
70	0xbe088666	-0.13332519
71	0xbe010fe2	-0.12603715
72	0x3ded8038	0.115967214
73	0xbc0fcce0	-0.008776873
74	0x3db4e0d8	0.08831948
75	0x3e4416dd	0.19149347
76	0xbe1a26ed	-0.15053912
77	0x3c5839a3	0.013197335
78	0xbe111426	-0.14167842
79	0xbdaa1193	-0.08304133
80	0xbccacbbd	-0.024755353
81	0xbe194f58	-0.14971673
82	0xbe0b5447	-0.13606368
83	0xbd24cf6e	-0.040236883
84	0xbd995b7f	-0.074881546
85	0xbde63232	-0.11240043
86	0x3e2d4ee6	0.16924629
87	0xbd823634	-0.06357995
88	0x3d73d93c	0.059533343
89	0xbcb73ae3	-0.022366947
90	0xbe1b9b3a	-0.15195933
91	0xbd34c841	-0.04413629
92	0xbe01dd11	-0.12681986
93	0x3d2f8212	0.042848654
94	0x3cae0fda	0.021247793
95	0x3d60877d	0.05481671
96	0xbda40b12	-0.08009924
97	0xbc1db644	-0.009625975
98	0xbde093a7	-0.109656624
99	0xbd40585a	-0.04695926
100	0xbd399a6d	-0.045313288
101	0x3c7dfb00	0.015501738
102	0xbdc86b84	-0.09786132
103	0xbd757cd6	-0.059933506
104	0xbe301265	-0.17194517
105	0xbd72f979	-0.059319947
106	0xbda927e2	-0.0825956
107	0x3e0ee1ca	0.13953319
108	0x3d1a4ccd	0.0376709
109	0xbd943376	-0.07236378
110	0xbe0223a1	-0.12708904
111	0xbcb7e73c	-0.022449128
112	0x3d994096	0.07483022
113	0xbe245e1c	-0.16051525
114	0x3e048fd3	0.1294549
115	0x3d675cb4	0.056484893
116	0xbdf33441	-0.11875201
117	0x3da2d980	0.07951641
118	0xbd381f62	-0.044951804
119	0x3d064ab7	0.032786097
120	0xbc2b32fd	-0.010449168
121	0x3e3a1b79	0.18174542
122	0x3dcf927b	0.10135361
123	0xbe71881d	-0.2358708
124	0x3d97a546	0.0740457
125	0xbcfa17a2	-0.030528847
126	0x3e23dadb	0.16001455
127	0xbd87d1cc	-0.066318125
128	0xbc90c67c	-0.01767277
129	0xbd1d72c5	-0.03843953
130	0xbe57e62b	-0.21083896
131	0x3e4ba73f	0.19888018
132	0xbe10c9cf	-0.14139484
133	0x3d248785	0.040168304
134	0x3d317058	0.04332003
135	0x3e074a44	0.13211924
136	0xbd5323f4	-0.05154796
137	0x3c8938e2	0.016750757
138	0xbcace510	-0.02110532
139	0xbd0ef3cd	-0.034900475
140	0xbda2256d	-0.07917295
141	0xbe2979bc	-0.16550344
142	0xbe269e84	-0.16271406
143	0xbb28905f	-0.0025720818
144	0x3ce46582	0.027880434
145	0xbe4eca20	-0.20194292
146	0x3d5c57ba	0.0537946
147	0xbd789109	-0.06068519
148	0x3e2d717c	0.16937822
149	0xbd27fe97	-0.04101428
150	0xbe590e17	-0.21196781
151	0xbdf05277	-0.11734479
152	0xbe765fd0	-0.24059987
153	0x3dbf9581	0.093546875
154	0xbcad669f	-0.021167098
155	0x3caeccb1	0.021337839
156	0x3cf89596	0.030344766
157	0xbe723b18	-0.23655355
158	0xbc729837	-0.014806799
159	0xbe4630a1	-0.19354488
160	0x3cc1e1fd	0.02366733
161	0x3e4bd500	0.19905472
162	0xbe0940f9	-0.13403691
163	0x3de2f3a1	0.11081625
164	0xbda446de	-0.08021329
165	0x3e24dad5	0.16099103
166	0x3e40cc3f	0.18827914
167	0xbc6769cb	-0.014124344
168	0xbd0ab658	-0.033865303
169	0x3d0fc52b	0.035100143
170	0x3db17411	0.08664716
171	0xbe58e064	-0.21179348
172	0xbde44928	-0.11146766
173	0xbd1367a7	-0.035987522
174	0xbd919e48	-0.07110268
175	0x3da5e844	0.08100942
176	0xbdda2f90	-0.10653603
177	0xbea57fc5	-0.32324043
178	0xbdeca17d	-0.11554239
179	0xbd66b9a8	-0.0563294
180	0xbd03651e	-0.032078855
181	0xbdae93bc	-0.08524272
182	0xbe0b99a1	-0.13632824
183	0x3da1ef86	0.079070136
184	0xbdffa0c3	-0.12481835
185	0x3d7d5ef7	0.061858144
186	0x3e2c92a1	0.1685281
187	0xbc578225	-0.0131535875
188	0xbddc6cce	-0.1076294
189	0x3e876a96	0.26448506
190	0x3dd5d690	0.10441315
191	0x3d0c3331	0.034228507
192	0xbde93a3d	-0.11388061
193	0xbe4a250c	-0.19740695
194	0xbd82b0cc	-0.063813776
195	0xbb5ae8ee	-0.0033402997
196	0xbe5f9807	-0.21835338
197	0x3d99b6c3	0.07505562
198	0xbe9530de	-0.29138845
199	0x3c5e9d4e	0.013587309
200	0xbd9e8f5b	-0.07742187
201	0xbdd4ac7e	-0.10384463
202	0xbe6413bc	-0.22273153
203	0x3c357ef3	0.01107763
204	0xbdb3e888	-0.08784586
205	0x3b99a479	0.004688796
206	0xbca52226	-0.020157885
207	0xbd5fca44	-0.054636255
208	0xbdcef4a9	-0.10105259
209	0x3e76170e	0.24032232
210	0xbd271887	-0.040794875
211	0xbe14d39e	-0.1453385
212	0x3dd3084a	0.103043154
213	0x3d9a4c2c	0.0753406
214	0xbd751459	-0.05983386
215	0xbe0689c0	-0.13138485
216	0xbdf7c211	-0.12097562
217	0x3d2ed2a6	0.04268136
218	0xbe5d8ced	-0.2163579
219	0x3e2fb713	0.17159681
220	0x3d300531	0.0429737
221	0xbe423b5f	-0.18967961
222	0xbd850fdd	-0.06497166
223	0xbe1657cb	-0.14681928
224	0xbdb2911b	-0.08719083
225	0x3bf48948	0.0074626543
226	0xbdaddbd9	-0.08489198
227	0xbd4ec335	-0.050479133
228	0x3c9ea66a	0.019366462
229	0xbe0bfd08	-0.13670743
230	0xbd25ae8d	-0.040449668
231	0x3cacf89e	0.021114644
232	0x3e2dcda9	0.16972984
233	0x3e1598e8	0.1460911
234	0x3db61968	0.088915646
235	0x3d3288af	0.043587383
236	0xbd506ff1	-0.050888006
237	0x3cae6ccb	0.02129211
238	0x3cf67e53	0.030089533
239	0xbe3c1294	-0.18366462
240	0xbd2d53e0	-0.042316318
241	0x3d9aacaa	0.07552464
242	0xbe68cb19	-0.22733726
243	0xbd97d0ee	-0.07412897
244	0xbdf3ac62	-0.11898114
245	0xbde32876	-0.11091702
246	0xbc0a2041	-0.0084305415
247	0x3e0f6a78	0.14005458
248	0xbe17469b	-0.14773028
249	0x3d92c22a	0.0716594
250	0xbd418b10	-0.04725176
251	0x3d988462	0.07447125
252	0x3d66e166	0.0563673
253	0xbd810cee	-0.06301294
254	0x3d3bd82e	0.045860462
255	0x3d86720b	0.06564721

module.fc2.bias f4 [84]
0	0xbd7f4780	-0.062324047
1	0x3c8c0558	0.017092392
2	0x3f528df4	0.82247853
3	0x3dd01c5f	0.10161661
4	0xbc623c72	-0.013808357
5	0x3f1864f2	0.5952903
6	0x3e35d4a2	0.17756894
7	0x3e27c73b	0.16384594
8	0x3c91069c	0.017703347
9	0x3ed691f5	0.4190823
10	0x3f76fa7b	0.9647595
11	0x3e02df86	0.1278058
12	0xbdff2856	-0.12458865
13	0x3e508eef	0.20367025
14	0xbd3c1295	-0.04591616
15	0x3e1e3595	0.15450127
16	0x3dc30310	0.095220685
17	0x3f5bfba1	0.8593083
18	0x3eb9fc23	0.36325178
19	0x3d8ca1d1	0.068668015
20	0xbd238197	-0.03991851
21	0x3e076934	0.13223726
22	0x3f28b536	0.65901506
23	0x3e96687a	0.29376584
24	0x3e988135	0.29786077
25	0x3e24daca	0.16099086
26	0x3e860223	0.26173505
27	0x3ed267e3	0.41094884
28	0x3c7635f4	0.015027512
29	0x3e803074	0.25036967
30	0x3acb6dd9	0.0015520408
31	0x3bef3a79	0.0073006717
32	0xbd81d74a	-0.06339891
33	0xbe763a5b	-0.24045698
34	0xbeffa1b1	-0.49928048
35	0xbe0e7c58	-0.13914621
36	0x3ed798bd	0.42108718
37	0x3ea6157f	0.32438275
38	0x3d9c205b	0.07623359
39	0xbdd55255	-0.10416094
40	0x3e1acede	0.15117976
41	0x3df95890	0.12175095
42	0x3f2fe043	0.6870157
43	0xbd029175	-0.031877
44	0x3e1e63e7	0.15467797
45	0x3eb3ee2a	0.35142642
46	0xbd08cc44	-0.033397928
47	0x3db9b394	0.09067455
48	0xbb0ab634	-0.002116573
49	0x3d5f0dc0	0.054456472
50	0x3f27988c	0.65467143
51	0x3d5b62ee	0.053561144
52	0x3eb5b35c	0.35488403
53	0x3e92dd4a	0.28684455
54	0x3e4021c9	0.18762888
55	0xbdaaba73	-0.083363436
56	0x3f515690	0.8177271
57	0x3e3b2e6c	0.18279427
58	0x3eca3afe	0.39498132
59	0x3c931e2a	0.01795872
60	0xbd7fe717	-0.062476244
61	0xbda3258d	-0.079661466
62	0x3dfedbe5	0.12444285
63	0xbd016f95	-0.031600554
64	0x3de9605c	0.11395332
65	0x3ded2883	0.115799926
66	0xbda41320	-0.0801146
67	0x3e88d7f3	0.26727256
68	0x3dc6775d	0.096907355
69	0x3e95f947	0.29291746
70	0x3dd0f709	0.10203368
71	0x3e52dbc6	0.2059165
72	0x3d70595a	0.058678962
73	0x3ebc5501	0.36783603
74	0xbdfbbfba	-0.12292428
75	0xbdc173ed	-0.09445939
76	0x3e4f17f0	0.20223975
77	0x3eca2f5b	0.39489254
78	0x3d85e883	0.06538489
79	0x3e36cd0e	0.1785166
80	0x3e775278	0.24152553
81	0x3dc0d80b	0.09416207
82	0x3f185fa1	0.5952092
83	0xbccaa593	-0.024737155

module.fc3.weight f4 [10, 84]
0	0xbc8cc116	-0.017181914
1	0x3e0fe373	0.14051609
2	0xbe9466d2	-0.28984696
3	0x3db47984	0.0881224
4	0x3d111e18	0.03542909
5	0xbd91ce64	-0.07119444
6	0xbe789c60	-0.24278402
7	0xbe04c595	-0.12965997
8	0x3d8bccff	0.06826209
9	0x3d90b7f8	0.07066339
10	0xbe7c35b3	-0.2462986
11	0x3daf5dbb	0.085627995
12	0xbe7f8427	-0.24952756
13	0x3e274e05	0.16338356
14	0x3e75ccfb	0.24003975
15	0xbe4ef49c	-0.20210499
16	0x3e0dd1ad	0.13849516
17	0x3e176bad	0.14787169
18	0xbea5f38b	-0.3241237
19	0x3e1e4e6b	0.15459602
20	0x3d224f3e	0.039626352
21	0x3e1e2ad5	0.15446027
22	0x3d8ad597	0.0677902
23	0x3e38c0a3	0.18042235
24	0x3df0f3a5	0.117652215
25	0x3d9deda5	0.07711343
26	0x3d5cd092	0.053909846
27	0x3ded8de0	0.11599326
28	0x3dad20f2	0.084535494
29	0x3e81798e	0.2528805
30	0x3e0dd579	0.13850965
31	0xbe25d7ed	-0.1619565
32	0x3e4d2552	0.20033768
33	0x3ea1837b	0.31545624
34	0x3dd084f3	0.10181608
35	0xbb410fea	-0.0029458948
36	0x3dec0f20	0.11526322
37	0x3e25fe75	0.16210349
38	0xbd2f9dc6	-0.042875074
39	0xbd88ecb1	-0.0668577
40	0xbcddef95	-0.02709178
41	0x3e520269	0.20508732
42	0x3d4ff0a7	0.050766613
43	0xbded2db0	-0.1158098
44	0xbe1abc64	-0.15110928
45	0xbe46e4e2	-0.1942325
46	0xbe4597be	-0.19296166
47	0x3d7905ba	0.060796477
48	0x3d82d39e	0.06388019
49	0xbe54f135	-0.20795138
50	0xbdf49afd	-0.11943624
51	0x3e0069b0	0.12540317
52	0x3e6f0440	0.23341465
53	0xbd3efef9	-0.04662988
54	0xbe569467	-0.20955049
55	0x3d0bea0c	0.03415875
56	0xbebc0893	-0.36725292
57	0x3e518712	0.20461681
58	0xbed31098	-0.41223598
59	0x3e2a5909	0.16635527
60	0xbdafc3d8	-0.08582276
61	0xbb85f172	-0.0040876204
62	0xbdbd7573	-0.09250917
63	0x3e1be14f	0.15222667
64	0xbe36c1fe	-0.1784744
65	0xbd8d79d0	-0.069079995
66	0xbe3e0fe2	-0.18560746
67	0xbdfb32a3	-0.122655176
68	0x3d80cbe4	0.06288889
69	0xbd00cea1	-0.031447057
70	0xbc02fdcf	-0.007995083
71	0x3e15992d	0.14609213
72	0xbe24a5ea	-0.16078916
73	0xbd9b1297	-0.07571905
74	0x3e0a434e	0.13502237
75	0x3e1a3886	0.15060624
76	0xbdaa1335	-0.08304445
77	0xbe8f0e32	-0.27940518
78	0x3b0d43e0	0.002155535
79	0x3e1b535e	0.15168521
80	0xbe071592	-0.13191822
81	0x3d10bf83	0.03533889
82	0x3e68b875	0.22726615
83	0xbd2332cc	-0.039843366
84	0x3e86fa4a	0.2636283
85	0x3e1a1f16	0.15050921
86	0xbed6ab9e	-0.4192781
87	0xbbbad30e	-0.005701429
88	0xbcf9a036	-0.030471902
89	0x3d3c30d9	0.045945022
90	0x3e385322	0.18000463
91	0xbda024ce	-0.0781952
92	0x3e4ca441	0.19984533
93	0x3e23e4d4	0.1600526
94	0xbde192e2	-0.11014344
95	0x3e717b79	0.23582257
96	0x3e504ffb	0.2034301
97	0x3dc5fcf5	0.09667388
98	0x3e55c087	0.20874225
99	0xbcfdf722	-0.031001631
100	0xbe9e1fba	-0.3088358
101	0xbe5fb2d0	-0.21845555
102	0xbe2a54f4	-0.1663397
103	0x3ed56167	0.41675875
104	0x3e584415	0.21119721
105	0x3e9ec1f3	0.31007347
106	0xbea97ea7	-0.3310444
107	0xbe58b6d2	-0.2116349
108	0xbe88248c	-0.26590383
109	0x3e23876d	0.1596963
110	0xbe515efc	-0.2044639
111	0xbe9eb051	-0.30993894
112	0x3e02a994	0.12760001
113	0xbc9c498a	-0.019078035
114	0x3d277479	0.04088256
115	0x3c722b9c	0.014780905
116	0xbe2768d2	-0.1634858
117	0x3e20c1f7	0.15698992
118	0x3e8bc1c2	0.27296263
119	0x3e341594	0.17586356
120	0xbe1d489b	-0.15359728
121	0xbd8eaf3f	-0.06967019
122	0x3d360071	0.044434015
123	0x3d61e2cc	0.05514793
124	0x3b65ca0d	0.0035063059
125	0xbe691567	-0.2276207
126	0xbe03f86c	-0.12887734
127	0x3e99f444	0.30069172
128	0x3d2b3273	0.04179616
129	0x3de00b69	0.10939676
130	0xbe198388	-0.14991581
131	0x3e71440c	0.23561114
132	0xbd6afb3f	-0.057368513
133	0x3d1da345	0.038485784
134	0xbe30948b	-0.17244165
135	0x3dc2d4e9	0.09513266
136	0xbceb4ca4	-0.028723069
137	0xbe25452f	-0.16139673
138	0xbbd98962	-0.0066386918
139	0xbd809609	-0.06278617
140	0xbe0cfc95	-0.13768227
141	0xbe3d9fd8	-0.18518007
142	0xbd7e6476	-0.062107526
143	0xbdce6b00	-0.100790024
144	0x3e0e68e6	0.13907203
145	0x3d9619f6	0.073291704
146	0x3e380bdd	0.17973275
147	0x3e76ffa4	0.24120957
148	0x3e76b214	0.24091369
149	0xbd88365d	-0.06650994
150	0x3e228a00	0.15872955
151	0x3d2e360d	0.042532016
152	0xbe350bb9	-0.17680253
153	0xbd83a7ce	-0.064284906
154	0x3e57429d	0.21021505
155	0x3d448f2e	0.04798811
156	0x3daa6edd	0.08321927
157	0xbe5e6b6d	-0.21720667
158	0xbd308b35	-0.04310151
159	0xbe144a26	-0.1448141
160	0xbc9834c6	-0.018579852
161	0xbd539a09	-0.05166057
162	0xbc146689	-0.009057649
163	0xbeb04e15	-0.34434572
164	0xbdc108f1	-0.094255336
165	0x3e022340	0.1270876
166	0xbcc65f5b	-0.02421539
167	0x3d8e0bed	0.069358684
168	0x3d8f8fe0	0.07009864
169	0x3cb2c105	0.021820555
170	0x3e6c8f1b	0.23101465
171	0xbe3a4fc3	-0.18194489
172	0xbdfaff8d	-0.12255774
173	0xbe3887ac	-0.18020505
174	0xbd9094f8	-0.070596635
175	0x3df8d830	0.121506095
176	0xbe28e51e	-0.16493651
177	0xbe12f97e	-0.14352986
178	0x3e799b6a	0.24375692
179	0xbc8bf417	-0.017084165
180	0x3d0ea175	0.034821946
181	0xbe26c3c8	-0.16285622
182	0x3db1ee82	0.0868807
183	0xbdef4ab6	-0.11684172
184	0x3e841a0e	0.25801128
185	0x3e395451	0.1809857
186	0x3e7223f2	0.23646525
187	0xbe10f9f5	-0.14157851
188	0xbd75de51	-0.06002647
189	0xbe893680	-0.26799393
190	0x3e2e1f93	0.17004232
191	0x3e2561e5	0.16150625
192	0x3de74589	0.1129256
193	0xbdf28904	-0.1184254
194	0x3e5c5daa	0.21520105
195	0xbd3d9350	-0.046283066
196	0xbd45e884	-0.048317447
197	0xbd2b55ad	-0.041829754
198	0x3b68ecd3	0.003554155
199	0xbd411ca5	-0.04714646
200	0x3d32fb5a	0.04369674
201	0xbd64af4d	-0.055831242
202	0x3d2615d0	0.040548146
203	0xbd3cdde0	-0.046110034
204	0x3d60a147	0.054841306
205	0x3d9c0c4c	0.07619533
206	0xbe059701	-0.13045885
207	0xbcb084b8	-0.02154766
208	0xbd90bb00	-0.070669174
209	0x3d403f90	0.046935618
210	0x3e4d5942	0.2005358
211	0xbdca071b	-0.098646365
212	0x3e8a3d01	0.26999667
213	0xbdc07d26	-0.0939887
214	0x3dc45924	0.09587315
215	0xbd09f9b4	-0.0336854
216	0x3bdbd4b2	0.006708705
217	0xbd3e2bc1	-0.046428446
218	0x3dc261bd	0.09491298
219	0x3e11081b	0.14163248
220	0x3e31e4c6	0.17372426
221	0xbd23a87d	-0.039955605
222	0x3d9e8663	0.07740476
223	0xbb50cfa7	-0.0031862052
224	0xbd1c0ca3	-0.03809799
225	0x3e687918	0.22702444
226	0x3d1e510e	0.03865152
227	0x3c6e0201	0.014526845
228	0xbdc3f971	-0.095690615
229	0x3e4981a3	0.19678359
230	0x3dcc4aaa	0.099751785
231	0xbc3b52e7	-0.01143334
232	0x3dce0e88	0.10061365
233	0x3da25e22	0.07928111
234	0xbd985984	-0.07438949
235	0xbe446ead	-0.19182844
236	0xbe1aac3a	-0.15104762
237	0x3cec3ea9	0.028838472
238	0xbd71bb73	-0.059016656
239	0x3e8b71a5	0.2723514
240	0xbdda8b72	-0.10671128
241	0x3d60d512	0.0548907
242	0x3ddffc2b	0.10936769
243	0xbd235808	-0.039878875
244	0x3e9fca72	0.3120914
245	0xbdf037b9	-0.11729378
246	0xbd00dfad	-0.031463314
247	0x3e79c2a1	0.24390651
248	0x3dd1ce40	0.10244417
249	0x3d27043e	0.04077553
250	0x3cf01073	0.029304719
251	0x3e68519f	0.22687386
252	0xbd8f5234	-0.06998101
253	0x3de53a20	0.11192727
254	0x3e2ae7af	0.16689943
255	0x3d279491	0.04091317

module.fc3.bias f4 [10]
0	0xbe780a51	-0.24222685
1	0xbf8b958a	-1.0905011
2	0xbdb1030b	-0.086431585
3	0x3f13756a	0.57601035
4	0x3f3ebc00	0.74505615
5	0xbd8ed480	-0.06974125
6	0x3d487459	0.048939083
7	0xbeab6d46	-0.33481807
8	0x3ef0e01d	0.47045985
9	0xbec16cdb	-0.37778363
