models/classifier_net_epoch_9_0.pth (torch_old, 249853 bytes, 10 tensors)

module.conv1.weight f4 [6, 3, 5, 5]
0	0x3d3f9e83	0.046782028
1	0x3ec4e6f6	0.3845746
2	0x3ee9c031	0.45654443
3	0x3edcfe23	0.4316264
4	0x3e84689f	0.2586107
5	0x3d95abe6	0.07308178
6	0xbec5d41d	-0.38638392
7	0x3e276823	0.16348319
8	0x3f720875	0.94544154
9	0x3d7805ef	0.060552534
10	0x3e8df54c	0.2772621
11	0xbed0a4e4	-0.40750802
12	0xbf9b6dca	-1.214288
13	0x3f5f1a57	0.87149566
14	0x3ea838d8	0.32855868
15	0x3da8a0cd	0.08233795
16	0x3e3bf8a4	0.18356568
17	0xbf7d6543	-0.9898264
18	0x3d1ea1d3	0.038728546
19	0xbd9b878c	-0.07594213
20	0xbe379c75	-0.17930777
21	0x3d99cd08	0.0750981
22	0xbf265aff	-0.649826
23	0x3e184411	0.14869715
24	0xbe946c9a	-0.28989106
25	0xbdf77203	-0.12082293
26	0xbee06120	-0.438241
27	0xbf2fff13	-0.6874859
28	0xbe965f4e	-0.29369587
29	0xbee01f04	-0.43773663
30	0x3effbf84	0.49950802
31	0xbf3b4981	-0.73159033
32	0xbf343c45	-0.70404464
33	0x3ef47e6e	0.47752708
34	0xbe8cbfec	-0.27490175
35	0x3f66e776	0.9019693
36	0xbeb5f9c2	-0.35542113
37	0xbfbf727e	-1.4956815
38	0x3f46a123	0.77589625
39	0x3e675fff	0.22595213
40	0x3f207d5b	0.6269128
41	0x3ef79c02	0.48361212
42	0xbf8dbae3	-1.1072658
43	0x3e8dd887	0.2770426
44	0xbda45f57	-0.08025997
45	0x3efa6973	0.48908576
46	0x3e83dba9	0.25753525
47	0xbe9a85cd	-0.30180207
48	0x3f2378d7	0.6385626
49	0x3cf69eea	0.030105073
50	0xbdbfcb87	-0.09364992
51	0xbc4d3350	-0.012524441
52	0x3c4ee067	0.012626744
53	0x3e46bc11	0.19407679
54	0xbe3573d5	-0.17719968
55	0x3ecbc832	0.39801174
56	0xbeed4926	-0.4634487
57	0xbe4f961d	-0.20272107
58	0x3f43833b	0.76372117
59	0xbf10a2f2	-0.56498635
60	0x3f493975	0.786033
61	0xbe85f9c0	-0.26167107
62	0xbf8851d0	-1.0649967
63	0x3f454a70	0.7706671
64	0xbdf4aec3	-0.11947396
65	0x3f127d55	0.5722249
66	0x3f268fa4	0.6506293
67	0xbf481931	-0.7816344
68	0x3e2628c9	0.16226496
69	0xbe995c51	-0.29953244
70	0x3e8a386c	0.2699617
71	0x3edc9add	0.430869
72	0xbe4e8980	-0.2016964
73	0x3eaafea0	0.33397388
74	0xbeca4b80	-0.39510727
75	0xbe106e79	-0.14104642
76	0x3e9e09f9	0.30866984
77	0x3e81eb4e	0.25374836
78	0x3e745ab6	0.23862728
79	0x3e0b910c	0.1362955
80	0xbdd94b75	-0.106100954
81	0x3f1b737a	0.6072308
82	0x3e57bb8c	0.21067637
83	0xbe1a90e5	-0.15094335
84	0xbdb6be88	-0.0892306
85	0x3e6e1e8d	0.23253842
86	0xbd3de853	-0.04636414
87	0xbf29e364	-0.66362596
88	0xbf147d4e	-0.580037
89	0xbe662017	-0.22473179
90	0xbe2b1d0b	-0.16710298
91	0xbf521fbb	-0.82079667
92	0xbf26771d	-0.650255
93	0xbc46d0e2	-0.0121347625
94	0x3e503394	0.20332175
95	0xbdbfc0f0	-0.09362972
96	0x3da64e47	0.08120399
97	0x3ecc3afa	0.39888746
98	0x3f2b67c6	0.6695522
99	0x3e8bed98	0.27329707
100	0xbedf6c35	-0.43637243
101	0xbd86f60e	-0.065899
102	0xbe1f78b8	-0.15573394
103	0xbe28f1dd	-0.16498514
104	0xbe893da6	-0.26804847
105	0xbcabab09	-0.02095558
106	0x3ef28cf4	0.47373164
107	0xbd36c610	-0.04462248
108	0xbe98a95c	-0.2981671
109	0xbeb58b1c	-0.35457695
110	0x3ed69b37	0.41915295
111	0x3d28309f	0.041061994
112	0xbf17326f	-0.5906133
113	0xbf1ae1e9	-0.6050096
114	0xbe49c29f	-0.19703148
115	0xbd69a2b4	-0.05703993
116	0xbf26b7be	-0.6512412
117	0xbf0c496a	-0.5479952
118	0xbc0cae28	-0.008586444
119	0x3e26db54	0.16294605
120	0xbd97dfad	-0.0741571
121	0xbe3f2c44	-0.1866923
122	0x3e6ae1f4	0.22937757
123	0x3eddcaa4	0.43318665
124	0x3dba3a0a	0.09093101
125	0xbe75074d	-0.23928566
126	0x3d98295b	0.07429763
127	0x3cff129f	0.031136809
128	0x3e77f026	0.24212703
129	0x3d300e89	0.04298261
130	0x3ddeebaa	0.10884793
131	0x3f265313	0.6497051
132	0x3f06681e	0.5250262
133	0x3d9c5101	0.07632638
134	0xbda4379b	-0.080184184
135	0x3f0a8516	0.54109323
136	0x3eb6cb46	0.3570196
137	0xbe82477e	-0.2544517
138	0xbee6baea	-0.4506448
139	0xbe080b5f	-0.13285588
140	0x3e44447f	0.19166754
141	0xbf19c4fa	-0.6006619
142	0xbef0b66e	-0.47014183
143	0xbde71e66	-0.11285095
144	0x3e2abe2b	0.16674106
145	0x3cad5a49	0.021161215
146	0xbe11b8d0	-0.14230657
147	0x3eacca9b	0.33748326
148	0x3e446d84	0.19182402
149	0xbe464e81	-0.19365884
150	0x3c3e9ea4	0.011634503
151	0xbdafb2f7	-0.08579057
152	0xbe31cdca	-0.17363659
153	0xbc992a32	-0.018696878
154	0xbc99c872	-0.018772338
155	0x3e3b9d7b	0.18321793
156	0x3eafe364	0.34353173
157	0x3e182176	0.14856514
158	0x3e531356	0.20612845
159	0x3e023308	0.1271478
160	0xbe35e79a	-0.1776413
161	0xbe1f247b	-0.1554126
162	0xbe024bd1	-0.12724234
163	0xbe21c40e	-0.15797445
164	0xbaff3dd9	-0.0019473388
165	0xbedc0b4a	-0.42977363
166	0xbee33610	-0.44377184
167	0xbf0d744f	-0.552556
168	0xbf19f5d5	-0.60140735
169	0xbecc9269	-0.39955452
170	0xbdd3b323	-0.10336902
171	0xbe9e1e13	-0.3088232
172	0xbe9e1c11	-0.30880788
173	0xbec35661	-0.3815184
174	0xbe7b65fd	-0.24550624
175	0xbec52e15	-0.3851172
176	0xbeaab485	-0.3334085
177	0xbe6212ae	-0.22077438
178	0xbe850c7c	-0.25986087
179	0xbe9dd041	-0.30822948
180	0x3e9e933b	0.30971703
181	0x3ee7db68	0.4528458
182	0x3f0641ed	0.52444345
183	0x3eb36489	0.3503764
184	0x3e821a05	0.25410476
185	0xbcedd48e	-0.029032018
186	0x3bff5ddc	0.0077931713
187	0x3dadb62d	0.08482013
188	0x3db55dd5	0.08855788
189	0x3e109395	0.14118798
190	0xbea04dba	-0.313093
191	0xbed01649	-0.40642002
192	0xbe9e15ee	-0.30876106
193	0xbe8991d4	-0.2686907
194	0xbe4bc495	-0.19899209
195	0xbc470ef4	-0.012149561
196	0xbe127d60	-0.1430564
197	0xbd3e1489	-0.046406303
198	0x3c64a781	0.013955952
199	0x3bb9ab5e	0.0056661805
200	0xbea41abc	-0.32051647
201	0xbc9b5d7d	-0.018965477
202	0xbdc5e4c8	-0.09662777
203	0xbe7ee0ba	-0.24890414
204	0xbec94f0e	-0.39318126
205	0x3ec7376a	0.38909465
206	0x3eec17c7	0.4611189
207	0x3f2b3e87	0.66892284
208	0x3f179431	0.592105
209	0x3e920ce6	0.28525466
210	0x3e1bbd6b	0.15208976
211	0x3ead38a1	0.33832267
212	0x3ea4c0ea	0.32178432
213	0x3edd354d	0.43204728
214	0x3e8e3b56	0.27779645
215	0x3db2601e	0.08709739
216	0x3e871760	0.2638502
217	0x3e2f69e6	0.17130241
218	0x3e57a1c4	0.21057802
219	0x3e695964	0.22788006
220	0x3dd9b33c	0.10629889
221	0x3e303933	0.1720932
222	0x3e78e661	0.24306633
223	0x3eaac34d	0.33352128
224	0x3e43deb0	0.19127917
225	0x3dd1183c	0.102097005
226	0x3e9f5797	0.31121513
227	0xbe5cebb8	-0.21574295
228	0xbc238a4f	-0.009981706
229	0xbe83487b	-0.25641236
230	0x3ebbc563	0.36674032
231	0xbe572f42	-0.21014121
232	0xbf03c7f2	-0.5147697
233	0x3e7ff0b3	0.24994163
234	0x3be59f4b	0.0070075146
235	0x3ef8b795	0.48577562
236	0xbee2a3d7	-0.44265625
237	0xbf04b347	-0.51836056
238	0x3f184090	0.59473515
239	0xbd60d565	-0.05489101
240	0xbd08a227	-0.033357766
241	0xbf1feec4	-0.624737
242	0xbdf1e6af	-0.118115775
243	0x3f02f9ea	0.5116259
244	0x3d49fb16	0.04931172
245	0xbd323f34	-0.043517306
246	0xbe47bc4c	-0.19505423
247	0x3e787697	0.24263988
248	0x3ebf525c	0.37367523
249	0xbdc71176	-0.09720127
250	0x3e124e31	0.1428764
251	0x3e2086ae	0.15676376
252	0xbe8ea265	-0.27858272
253	0x3e25cd44	0.16191584
254	0x3dd9f957	0.10643261
255	0x3e66ddfe	0.22545621

module.conv1.bias f4 [6]
0	0xbe9d9dd2	-0.3078447
1	0xbf33d17d	-0.7024153
2	0xbd86fb65	-0.065909185
3	0xbe9b2612	-0.30302483
4	0xbdced103	-0.100984596
5	0xbeb82dfd	-0.35972586

module.conv2.weight f4 [16, 6, 5, 5]
0	0x3ed73ff4	0.4204098
1	0xbe04d592	-0.12972096
2	0x3f0cd7d0	0.55016804
3	0xbd84b55b	-0.06479903
4	0xbe2affba	-0.16699114
5	0x3e49de33	0.19713669
6	0xbe014802	-0.12625125
7	0x3e48740b	0.19575517
8	0x3ebaf92d	0.3651823
9	0xbca32054	-0.019912876
10	0x3e82608f	0.25464293
11	0xbd769e67	-0.060209658
12	0x3cd559e1	0.026043834
13	0x3e80b5d4	0.25138724
14	0xbdf7a0c2	-0.12091209
15	0xbd8c3e20	-0.06847787
16	0x3e0d8450	0.13820004
17	0x3dbb2532	0.09137954
18	0x3e110443	0.14161782
19	0x3e16aa01	0.14713289
20	0xbdebc3ca	-0.11511953
21	0xbd906763	-0.070509695
22	0xbe2b9a27	-0.16758023
23	0xbe09ee89	-0.134699
24	0x3c0333dd	0.008007971
25	0xbde29ce8	-0.11065084
26	0x3e0b14dc	0.13582176
27	0x3e5bb9c3	0.21457581
28	0x3ce371cb	0.027764222
29	0xbdc4d6dd	-0.096112944
30	0xbe851f41	-0.26000407
31	0xbd5bdbb0	-0.053676307
32	0x3e11c061	0.14233543
33	0x3dcdc1c7	0.10046726
34	0x3d0ceb0b	0.034403842
35	0xbee1696a	-0.44025737
36	0xbe16dc0f	-0.14732383
37	0x3dd03b88	0.10167605
38	0x3e264c09	0.16239943
39	0x3deadf8b	0.11468419
40	0xbec0032f	-0.3750243
41	0xbea73b97	-0.3266265
42	0xbe288548	-0.16457093
43	0x3d447454	0.0479625
44	0x3d7a0973	0.061044168
45	0xbe9cf995	-0.30659166
46	0xbdf0cc36	-0.117577
47	0xbe3d01c0	-0.18457699
48	0xbd5d42d9	-0.05401883
49	0x3d9ecf7d	0.07754419
50	0xbe23ac90	-0.15983796
51	0xbe4f28fb	-0.20230477
52	0xbddcaba0	-0.10774922
53	0x3da2f6a1	0.07957197
54	0x3dbfd7ce	0.09367333
55	0xbe8bc4e6	-0.2729866
56	0xbe5dc5e2	-0.21657518
57	0xbe45d585	-0.19319732
58	0xbddeade2	-0.10873009
59	0xbdd53857	-0.104111366
60	0xbedab4e5	-0.42716137
61	0xbeacb600	-0.33732605
62	0xbea35d99	-0.31907347
63	0xbe84cfa6	-0.25939673
64	0xbe179a8a	-0.14805046
65	0xbe52959b	-0.20564882
66	0xbdf82b72	-0.121176615
67	0xbd25557d	-0.04036473
68	0xbdd81477	-0.10550778
69	0x3de66217	0.11249178
70	0xbdc43ae6	-0.095815465
71	0xbd93af78	-0.072112024
72	0xbd1870a7	-0.03721681
73	0x3d3c10a6	0.045914315
74	0xbd640e24	-0.055677548
75	0x3ef26fee	0.4735102
76	0x3d4b930b	0.049700778
77	0x3db2f2ab	0.087376915
78	0x3ee3751c	0.44425285
79	0xbc05ffda	-0.008178676
80	0xbb9ad2be	-0.0047248295
81	0x3b4ad2ab	0.0030948322
82	0xbe22bc52	-0.15892151
83	0x3e0e448c	0.13893336
84	0x3e2acfc2	0.16680816
85	0xbe0dae9b	-0.13836138
86	0x3e0cd5d1	0.1375344
87	0xbe8878c0	-0.26654625
88	0xbe157b74	-0.14597875
89	0x3e7fdc0e	0.24986288
90	0xbea56fae	-0.32311767
91	0x3d907793	0.07054057
92	0xbdda8648	-0.10670143
93	0xbd9b51a8	-0.07583934
94	0xbc275565	-0.010213231
95	0xbe8dcdcf	-0.27696082
96	0xbd04eb75	-0.03245111
97	0xbe02f2e3	-0.12787966
98	0xbe1246ed	-0.14284869
99	0xbeb0e91b	-0.34552845
100	0xbdce33d9	-0.10068483
101	0xbcba10f6	-0.022713166
102	0xbe8d8e49	-0.27647617
103	0xbb8804ca	-0.0041509615
104	0x3de0b9a6	0.1097291
105	0xbd498ea5	-0.049208302
106	0xbd3148e8	-0.04328242
107	0xbe0719ab	-0.13193385
108	0xbdb48647	-0.08814674
109	0xbe132a65	-0.14371641
110	0xbccf99f1	-0.02534196
111	0xbd4c9f14	-0.049956396
112	0x3c565455	0.01308163
113	0x3c02d989	0.007986435
114	0xbd697aa8	-0.05700174
115	0xbd56568c	-0.05232863
116	0xbd8036f4	-0.062604815
117	0x3c7770f5	0.015102615
118	0x3d8d8984	0.06910995
119	0x3c2355ae	0.009969158
120	0xbe20e8ef	-0.15713857
121	0xbdc220eb	-0.09478935
122	0x3b0fc81a	0.0021939338
123	0x3e293c6f	0.1652696
124	0x3d82c7a1	0.063857324
125	0xbe806048	-0.25073457
126	0xbd4b82d5	-0.049685318
127	0xbe801b76	-0.2502095
128	0x3cfa22ac	0.030534111
129	0x3ccf465e	0.025302108
130	0xbda584cb	-0.08081969
131	0xbe3267fa	-0.17422476
132	0xbe072954	-0.13199359
133	0xbd2b01bf	-0.041749712
134	0x3d8db831	0.06919897
135	0xbd1af1ee	-0.03782838
136	0xbda99abb	-0.082814656
137	0xbe6122c7	-0.21985923
138	0xbdb3281a	-0.08747883
139	0xbde99092	-0.11404528
140	0xbe3a7516	-0.18208727
141	0x3e82b39a	0.2552765
142	0xbde2bf5d	-0.11071656
143	0xbe41ca38	-0.18924797
144	0xbeae00a8	-0.33984876
145	0xbc02c210	-0.007980838
146	0x3d27d22c	0.04097192
147	0x3d46a097	0.048492994
148	0xbc678389	-0.0141304815
149	0xbe4c2da7	-0.1993929
150	0xbdbebb6f	-0.09313094
151	0xbd6ccba4	-0.057811394
152	0x3deca560	0.1155498
153	0xbd671357	-0.05641493
154	0xbd5b919c	-0.05360566
155	0xbe302b27	-0.17203961
156	0x3d3c08de	0.045906894
157	0x3d965c48	0.0734182
158	0x3d0ce700	0.034399986
159	0x3e2d6809	0.16934218
160	0x3ead4ccf	0.33847663
161	0xbe81603c	-0.25268734
162	0xbe119169	-0.14215626
163	0x3d51f122	0.051255353
164	0xbd463adf	-0.048395988
165	0x3f2c201d	0.672365
166	0x3f46a113	0.7758953
167	0xbdfff6ad	-0.124982215
168	0xbeb2cf29	-0.34923676
169	0xbe601a44	-0.2188502
170	0xbeb4ab14	-0.35286772
171	0x3bdbf4d4	0.0067125354
172	0x3ec6ad52	0.38804108
173	0x3e3caf14	0.18426162
174	0x3de924af	0.1138395
175	0xbde3393d	-0.11094902
176	0xbe48b3b1	-0.19599797
177	0x3cfaabba	0.030599464
178	0xbdc8e55a	-0.0980937
179	0x3c2abbad	0.010420722
180	0xbd4d7893	-0.050163817
181	0xbe0f24d0	-0.13978887
182	0xbe78177c	-0.24227709
183	0xbdf91b4b	-0.12163409
184	0x3e8e4c58	0.2779262
185	0x3dce2d78	0.10067266
186	0xbd4aba94	-0.04949434
187	0xbeeab7d2	-0.4584337
188	0xbdfab56e	-0.12241636
189	0x3ddbd832	0.10734595
190	0x3eb55f3d	0.35424224
191	0x3e020a70	0.12699294
192	0xbd5f2467	-0.054478075
193	0xbdcd91cd	-0.10037575
194	0xbd7c5b86	-0.06161072
195	0xbda77d72	-0.08178224
196	0x3e4dfa95	0.2011512
197	0x3e805080	0.25061417
198	0x3ec419c4	0.38300908
199	0x3dc095d6	0.09403579
200	0x3e19414e	0.14966318
201	0x3df397eb	0.118942104
202	0x3cdfa656	0.027300995
203	0xbd34d917	-0.044152346
204	0x3dde16aa	0.108441666
205	0x3d8b1702	0.06791498
206	0x3e28ca15	0.16483338
207	0x3e42772a	0.1899077
208	0x3d855ecc	0.06512222
209	0x3cc6caec	0.024266683
210	0xbd32bc7c	-0.043636784
211	0x3e94d65b	0.2906979
212	0x3de47abd	0.11156223
213	0x3db5e06c	0.08880696
214	0xbe35369b	-0.17696612
215	0xbf27dc77	-0.6557078
216	0x3d50a476	0.050938092
217	0x3ecb4e43	0.39708146
218	0x3e639280	0.22223854
219	0xbede0744	-0.43364918
220	0xbe885e3e	-0.266344
221	0xbee08734	-0.43853152
222	0xbd5e65a8	-0.054296166
223	0x3e541397	0.20710598
224	0x3ecca42d	0.39969006
225	0x3c710313	0.014710206
226	0xbe4725c7	-0.19448005
227	0x3d54a75c	0.05191742
228	0x3cb335a8	0.021876171
229	0x3e5568c9	0.20840754
230	0x3e0319f3	0.12802868
231	0xbca2005c	-0.019775562
232	0xbde47a24	-0.11156109
233	0x3d9baa47	0.07600837
234	0xbdc6ad07	-0.09700971
235	0xbe4d4333	-0.20045166
236	0x3d03d2d9	0.032183502
237	0xbe081a73	-0.1329134
238	0xbdb44ad4	-0.08803335
239	0xbe0d3615	-0.13790162
240	0xbed46285	-0.41481414
241	0xbe993e3b	-0.2993029
242	0x3e23fc3b	0.16014187
243	0x3e327539	0.1742753
244	0x3ec63334	0.3871094
245	0xbec9a47b	-0.393833
246	0xbf1bdce1	-0.6088391
247	0xbed1060a	-0.4082492
248	0xbe2c38e3	-0.16818576
249	0xbe1895b7	-0.14900862
250	0xbe4d9c02	-0.20079044
251	0xbe165f64	-0.14684826
252	0xbde0574c	-0.109541506
253	0x3ddaa059	0.10675115
254	0x3e0d28bc	0.1378507
255	0xbe952de0	-0.29136562

module.conv2.bias f4 [16]
0	0x3e77c62a	0.24196687
1	0xbfd16298	-1.6358213
2	0xbf8862cd	-1.0655152
3	0xbe02a073	-0.12756519
4	0x3f758d12	0.9591838
5	0x3eca7fb2	0.3955055
6	0x3e2748c4	0.16336352
7	0x3f9f27af	1.2433985
8	0xbdd119ed	-0.10210023
9	0xbecfeb0f	-0.40609023
10	0xbf84762f	-1.0348567
11	0x3fd3af0f	1.6537799
12	0x3ebfa9f2	0.37434345
13	0xbf2591e2	-0.64675725
14	0x3db48fd6	0.08816497
15	0x3f0266e4	0.5093825

module.fc1.weight f4 [120, 400]
0	0xbd7287b8	-0.059211463
1	0xbd2f3a21	-0.042780045
2	0xbd53240f	-0.05154806
3	0xbc556183	-0.013023737
4	0xbdad438d	-0.0846015
5	0x3dc2a2fe	0.095037445
6	0x3d380974	0.04493089
7	0xbbe0ce19	-0.0068605063
8	0x3d0a3069	0.033737574
9	0x3cae276c	0.021259032
10	0x3c61de58	0.013785921
11	0xbbf1c313	-0.007377991
12	0xbd829faa	-0.0637811
13	0x3dbff253	0.093723916
14	0x3d5b3a2d	0.053522278
15	0x3da8d4c4	0.08243707
16	0xbd81778f	-0.06321632
17	0xbe3c2174	-0.18372136
18	0xbcb23f9d	-0.021758849
19	0x3c8a8eb1	0.016913744
20	0x3cb31917	0.02186255
21	0x3d0da66c	0.03458254
22	0xbd946c73	-0.072472475
23	0xbd8d2d8c	-0.06893453
24	0x3d9b373c	0.075788945
25	0x3d92f980	0.071764946
26	0xbacd833d	-0.0015679371
27	0x3dae20f6	0.085023805
28	0x3dfac7ff	0.122451775
29	0x3de16f81	0.11007596
30	0x3d0eca54	0.034860924
31	0x3d022dd2	0.03178198
32	0x3dab6801	0.083694465
33	0x3ddb4f19	0.10708446
34	0x3e02b40f	0.12764
35	0x3e835890	0.25653505
36	0xbce4f2e6	-0.027947854
37	0xbd01c76e	-0.03168433
38	0x3cc546ba	0.024081577
39	0xb8b8ea85	-8.8174864e-05
40	0x3c3a62d9	0.011376106
41	0xbd43a84c	-0.047767922
42	0xbe624dce	-0.22099993
43	0xbbeebb10	-0.007285483
44	0x3d9beddb	0.07613727
45	0xbe663b63	-0.22483592
46	0xbd212e55	-0.039350826
47	0x3c4d1428	0.012517013
48	0xbd9030e2	-0.07040574
49	0x3c69e414	0.0142755695
50	0x3e5ac536	0.21364293
51	0x3d6136d7	0.05498394
52	0xbd03b9a0	-0.032159448
53	0xbd492379	-0.049106095
54	0xbe2dd058	-0.16974008
55	0x3b55628b	0.0032559957
56	0x3c5e1b7e	0.013556359
57	0x3c782aab	0.015146892
58	0xbd5e94ed	-0.054341245
59	0xbde57b50	-0.112051606
60	0xbd3b3994	-0.045709208
61	0x3db6ef46	0.089323565
62	0xbd7758f8	-0.06038758
63	0xbd426ff2	-0.04747004
64	0xbd8bf7d8	-0.06834382
65	0x3e250429	0.16114868
66	0x3d834175	0.06408969
67	0xbd66bcca	-0.056332387
68	0xbd437508	-0.04771903
69	0xbd88c6ab	-0.06678518
70	0xbe2d0f43	-0.16900353
71	0xbc561c62	-0.01306829
72	0xbe0eae85	-0.13933761
73	0xbd06779b	-0.03282891
74	0xbcf35dcd	-0.029707814
75	0xbd920628	-0.071300805
76	0xbe83a331	-0.25710443
77	0xbd3b6f9f	-0.045760747
78	0xbc5701c8	-0.013122983
79	0x3d8bce54	0.06826463
80	0xbdef62fb	-0.11688801
81	0xbe2fe9fb	-0.171791
82	0xbdbf30e2	-0.093354955
83	0xbd636c1c	-0.055523023
84	0x3dd872e5	0.105687894
85	0xbdf04386	-0.11731629
86	0xbd8ef87d	-0.06980989
87	0x3d84685f	0.0646522
88	0x3cd97c8a	0.026548643
89	0xbce2ea06	-0.027699482
90	0xbe055545	-0.13020809
91	0xbd981f19	-0.074278064
92	0x3c862cdf	0.016378818
93	0xbda57203	-0.08078387
94	0x3d1b21ed	0.03787415
95	0x3dba90c7	0.09109645
96	0x3e010e5c	0.12603134
97	0x3d86999d	0.06572268
98	0xbd139abc	-0.036036238
99	0x3da1a7ba	0.078933194
100	0x3dff64ff	0.12470435
101	0x3d9f1eeb	0.07769569
102	0x3ddd9710	0.108198285
103	0x3d83cea8	0.06435901
104	0xbc2b9810	-0.010473266
105	0x3b6f2bde	0.0036494653
106	0x3d90c0e6	0.070680425
107	0x3e091c94	0.13389808
108	0x3d713265	0.05888595
109	0xbd2c2979	-0.04203174
110	0x3d8303ea	0.06397231
111	0x3d96b7cf	0.073592775
112	0x3e0e671b	0.13906519
113	0x3e429925	0.19003733
114	0xbe16c4f9	-0.14723577
115	0x3c52781a	0.012846017
116	0xbd51b5dd	-0.05119883
117	0xbbb47e96	-0.0055082543
118	0xbd9c4903	-0.076311134
119	0xbdb381d3	-0.087649964
120	0x3d82c0de	0.06384443
121	0x3c7367e7	0.014856315
122	0x3c0cb2d7	0.008587561
123	0xbde63f18	-0.11242503
124	0xbe09f27c	-0.13471407
125	0xbd0f436a	-0.0349764
126	0xbcb3d7c7	-0.021953477
127	0x3df6ba87	0.12047296
128	0x3d4b8175	0.049684007
129	0xbdc12a44	-0.0943189
130	0xbc4cd1d2	-0.012501197
131	0x3cc49c7c	0.024000399
132	0x3d2f9ae1	0.042872313
133	0x3c7aed27	0.015315331
134	0xbdad7dc2	-0.08471252
135	0x3cd5937a	0.026071299
136	0xbd167d9e	-0.03674089
137	0xbe024a5e	-0.12723681
138	0xbddf6288	-0.10907465
139	0xbe15634a	-0.14588657
140	0xbda9efde	-0.08297704
141	0x3d3e0d4e	0.046399407
142	0x3d200498	0.03906688
143	0xbcb72892	-0.022358213
144	0x3d20c7ef	0.03925317
145	0xbcb1055d	-0.021609003
146	0x3d4e4968	0.050362974
147	0xbd0a97a6	-0.03383603
148	0xbd377817	-0.04479226
149	0xbc7c9934	-0.015417386
150	0x3cbe0a6c	0.023198329
151	0xbd32f6a9	-0.043692265
152	0xbdc36cb0	-0.09542215
153	0xbdeb6093	-0.114930294
154	0xbd12cd65	-0.03584041
155	0x3df19c8b	0.11797436
156	0xbdb2c5ed	-0.087291576
157	0xbd8335ef	-0.064067714
158	0xbd7ea8c7	-0.062172677
159	0xbd425c86	-0.04745152
160	0x3d5999cf	0.0531252
161	0x3d2e0b6c	0.04249136
162	0xbb7b4aa2	-0.0038344045
163	0xbdc90bba	-0.0981669
164	0xbca58c44	-0.020208485
165	0xbc5c043e	-0.013428746
166	0xbd338a9d	-0.043833364
167	0xbe11584c	-0.14193839
168	0xbd6edbc2	-0.058315046
169	0xbccbbf3d	-0.024871463
170	0xbd98b989	-0.07457263
171	0xbc5819ba	-0.013189727
172	0xbd754532	-0.059880443
173	0x3d705fe5	0.058685202
174	0x3df31b1e	0.118704066
175	0x3d009b0c	0.031397864
176	0xbc38949f	-0.011265903
177	0x3d317ee1	0.04333389
178	0x3e03f478	0.12886226
179	0x3e092517	0.13393055
180	0xbd044e40	-0.032301188
181	0x3d943270	0.07236183
182	0x3e21362f	0.15743326
183	0x3d1e5bda	0.038661815
184	0x3d07fb1f	0.033198472
185	0xbbb7c949	-0.005608712
186	0x3cf76393	0.030198848
187	0x3ac651ec	0.0015130616
188	0xbca284a1	-0.019838633
189	0x3d42f118	0.047593206
190	0xbd50afb1	-0.050948802
191	0x3d0c3d04	0.034237877
192	0xbd1f090f	-0.038827
193	0xbb1e5e86	-0.0024165227
194	0xbb77129b	-0.0037700299
195	0x3c2873a5	0.010281478
196	0xbc32cf69	-0.010913708
197	0xbda9da69	-0.082936116
198	0x3ba97cfa	0.005172369
199	0xbe175b45	-0.1478091
200	0xbe00980a	-0.12557998
201	0xbd053f8b	-0.032531302
202	0xbe0c21d9	-0.13684787
203	0xbe75060c	-0.23928088
204	0xbddfa974	-0.109209925
205	0xbdfb5b20	-0.1227324
206	0xbcf2fe66	-0.029662322
207	0xbbfa9232	-0.0076468224
208	0xbdca7147	-0.09884887
209	0x3ca369fa	0.019947995
210	0xbc560eb6	-0.013065031
211	0x3d25a13d	0.040436972
212	0x3d6f1838	0.058372706
213	0x3c8c02e8	0.01709123
214	0x3d9bffc7	0.07617145
215	0xbdaeb20c	-0.085300535
216	0xbde20d8e	-0.110377416
217	0x3c456e4c	0.012050223
218	0xbceb1d7e	-0.028700586
219	0x3c9a20a6	0.018814396
220	0xbe45f74d	-0.19332619
221	0xbdd2a755	-0.10285822
222	0xbdce29ab	-0.10066541
223	0xbd8abb9d	-0.06774066
224	0xbe217e5d	-0.1577086
225	0x3d9df600	0.077129364
226	0x3defafed	0.11703477
227	0xbd74ef4a	-0.059798516
228	0xbd8d24b5	-0.06891767
229	0xbe1d7081	-0.15374948
230	0x3d5997d2	0.053123303
231	0x3d97e902	0.074174896
232	0xbd7d4b54	-0.061839417
233	0x3d1fe5d1	0.03903753
234	0xbdc977ba	-0.09837289
235	0x3df01095	0.11721913
236	0xbc0ed6a1	-0.008718164
237	0xbc91d5c5	-0.017802129
238	0x3da2e95b	0.07954665
239	0xbd428d08	-0.04749778
240	0x3e6a5ce1	0.22886993
241	0x3ddf80e2	0.10913254
242	0x3d49411c	0.04913436
243	0xbc7534a9	-0.014966168
244	0x3d53d8e2	0.051720507
245	0x3e357010	0.1771853
246	0x3caced90	0.021109372
247	0x3d6d8cc6	0.05799558
248	0x3e023773	0.12716465
249	0x3c9caf09	0.019126432
250	0xbd5a1b1c	-0.05324851
251	0xbdf079e7	-0.11742001
252	0xbe0c6657	-0.13710915
253	0xbe2591e0	-0.16168928
254	0xbd842b9d	-0.06453631
255	0xbdabbed6	-0.083860084

module.fc1.bias f4 [120]
0	0x3e34a9b6	0.17642865
1	0xbe4d5f0d	-0.2005579
2	0xbe48bacc	-0.19602507
3	0xbd7d4601	-0.06183434
4	0xbe6f46f0	-0.23366904
5	0xbe6cdfca	-0.23132244
6	0x3d3fd0f2	0.046830125
7	0x3c112edb	0.008861269
8	0xbd8da751	-0.06916679
9	0x3c23bfd3	0.009994465
10	0x3d88b3e8	0.066749394
11	0x3d760c1a	0.060070135
12	0xbe47933a	-0.19489756
13	0xbecf4d03	-0.40488443
14	0xbb04311d	-0.0020170875
15	0x3e9c7d5d	0.30564395
16	0x3c4aef68	0.01238618
17	0x3e0f68a9	0.14004768
18	0x3e707713	0.23482923
19	0x3d84df35	0.06487886
20	0x3dc207b2	0.09474124
21	0x3c753dcc	0.014968347
22	0xbe1ca40e	-0.15296957
23	0xbc2695d5	-0.010167559
24	0xbdb48dc5	-0.08816103
25	0xbdd1a014	-0.102356106
26	0xbe0576b9	-0.1303357
27	0x3e6f0d76	0.23344979
28	0x3ec28f6c	0.38000047
29	0xbc602764	-0.013681266
30	0x3d28f4bc	0.041249022
31	0xbcbd6e23	-0.023123806
32	0x3c8fc657	0.01755063
33	0xbdfc977b	-0.1233358
34	0x3d5188d9	0.0511559
35	0x3e8fafdb	0.28063855
36	0x3e2d71bb	0.16937916
37	0x3e1834d8	0.14863908
38	0xbc11657a	-0.008874292
39	0x3e783086	0.2423726
40	0x3e142417	0.14466892
41	0x3df7a888	0.12092692
42	0xbe707fb2	-0.23486212
43	0x3e27368d	0.16329403
44	0x3e6b3d26	0.22972545
45	0x3ef4cf92	0.47814614
46	0xbd80593d	-0.06267021
47	0x3e85a993	0.26105937
48	0xbcb9c236	-0.022675615
49	0x3dee0d70	0.11623657
50	0x3eccb310	0.39980364
51	0xbdae17e0	-0.085006475
52	0x3dac79bc	0.084216565
53	0x3d314561	0.043279056
54	0x3e3bf41d	0.1835484
55	0x3cd96644	0.026538022
56	0xbe01e650	-0.12685513
57	0x3de2a9c6	0.11067538
58	0x3dc32e72	0.09530343
59	0x3dd1a780	0.10237026
60	0x3ef95fed	0.48705998
61	0x3dbd614e	0.09247075
62	0x3e855923	0.26044568
63	0x3d0656ec	0.03279774
64	0x3d9cbbf8	0.0765304
65	0xbd39248a	-0.045200862
66	0xbea0e2c5	-0.3142301
67	0xbec8d29b	-0.3922318
68	0x3cccc2cb	0.024995228
69	0xbc1e5f66	-0.009666299
70	0x3e6aea20	0.22940874
71	0xbdfbdfb7	-0.122985296
72	0xbc091caf	-0.008368655
73	0x3b0c67a2	0.0021424075
74	0xbe150eef	-0.14556478
75	0xbde90f66	-0.1137989
76	0x3dec26e6	0.11530857
77	0x3dbc1176	0.09183018
78	0x3d47f010	0.048812926
79	0xbd130ac2	-0.03589893
80	0xbe29e642	-0.16591743
81	0x3e44e6aa	0.19228616
82	0x3dcd0284	0.100102454
83	0x3e25dbff	0.16197203
84	0x3da1e7cc	0.0790554
85	0x3eebb5b4	0.46037066
86	0x3e547023	0.20745902
87	0xbe59253c	-0.2120561
88	0xbe9faaad	-0.31184903
89	0x3e1e8346	0.15479764
90	0xbbccde18	-0.0062520616
91	0x3e947902	0.28998572
92	0x3d9f8c67	0.077904515
93	0xbceb7f49	-0.028747218
94	0xbe60018c	-0.2187559
95	0x3ec1bd80	0.3783989
96	0x3e05706b	0.13031165
97	0x3e50dc42	0.20396522
98	0x3e161f59	0.14660396
99	0xbe481c04	-0.19541937
100	0xbd6ab1e6	-0.057298563
101	0xbcb10e6b	-0.02161332
102	0xbc8954f4	-0.016764142
103	0x3aa12b5c	0.0012296247
104	0x3eac5c59	0.33664206
105	0xbeb7b9bb	-0.3588389
106	0xbce77aff	-0.028256891
107	0xbe15a210	-0.14612603
108	0xbe6a6306	-0.22889337
109	0x3e8332db	0.25624737
110	0xbd8aae70	-0.067715526
111	0xbdbfce27	-0.09365492
112	0x3db81da2	0.08990027
113	0xbd393327	-0.0452148
114	0x3d0d82a9	0.034548435
115	0x3d14a23a	0.036287524
116	0xbd31c0b4	-0.043396667
117	0xbc35c2fb	-0.01109385
118	0x3e29acce	0.16569826
119	0x3eaad67a	0.33366758

module.fc2.weight f4 [84, 120]
0	0xbe3235c5	-0.17403324
1	0xbdbc0a3a	-0.09181638
2	0x3d0db2fd	0.034594525
3	0x3dd33594	0.103129536
4	0xbdecfed3	-0.11572041
5	0x3e04091b	0.12894098
6	0xbd8d1f03	-0.06890681
7	0x3e75ec7d	0.24015994
8	0x3e5651af	0.20929597
9	0xbe06086a	-0.13089147
10	0x3dc55f48	0.09637314
11	0x3d572935	0.052529532
12	0x3d352cf1	0.044232313
13	0x3aa9ee37	0.001296467
14	0xbd93a25f	-0.07208704
15	0xbe2714ef	-0.1631658
16	0x3de657ce	0.11247216
17	0x3cc3c476	0.02389739
18	0x3d8705c4	0.065928966
19	0x3da89a63	0.08232572
20	0xbde38e85	-0.11111168
21	0x3d939b5a	0.07207365
22	0x3daf8131	0.08569563
23	0xba9d8a93	-0.0012019448
24	0x3e23c2b9	0.1599225
25	0xbdb4d59c	-0.08829805
26	0x3d5cf288	0.053942233
27	0xbe2a5504	-0.16633993
28	0xbd9a9ad8	-0.07549065
29	0xbd8100ee	-0.062990054
30	0xbd92bda5	-0.07165078
31	0x3bda3acc	0.006659841
32	0xbdc408b8	-0.095719755
33	0xbdbfb97c	-0.0936155
34	0xbe15f7c3	-0.14645295
35	0xbe18782d	-0.14889593
36	0x3dff9e26	0.12481336
37	0x3c5956e9	0.01326535
38	0xbd683524	-0.056691304
39	0xbe4fa7a8	-0.202788
40	0xbd08e713	-0.033423495
41	0x3e523201	0.20526887
42	0x3b2937de	0.0025820653
43	0xbd8a5eb4	-0.067563444
44	0xbd8a75d3	-0.067607544
45	0xbe35c385	-0.17750366
46	0xbdfe4780	-0.12415981
47	0x3e406576	0.18788704
48	0x3d2dc7bb	0.042426806
49	0x3b81630f	0.0039485763
50	0x3a163cba	0.0005731095
51	0xbd80290f	-0.06257831
52	0xbe1e81e0	-0.15479231
53	0xbe49c22f	-0.19702981
54	0x3e1a7280	0.15082741
55	0x3d4df7e7	0.050285246
56	0x3e4f3f8c	0.20239085
57	0xbccf43cb	-0.02530088
58	0x3ce30f4d	0.027717257
59	0xbe3c8e33	-0.1841362
60	0xbdcfd58d	-0.101481535
61	0x3d01197a	0.031518437
62	0xbe16f069	-0.14740147
63	0xbdf51da5	-0.11968545
64	0x3c8c4bc6	0.017125975
65	0x3db06e00	0.08614731
66	0x3dcd4a14	0.10023895
67	0x3cccb493	0.024988448
68	0xbdf3ea7d	-0.119099595
69	0x3a8b9a04	0.0010650759
70	0xbe03cbb6	-0.12870678
71	0xbe0aa55c	-0.13539642
72	0x3dd3876c	0.10328564
73	0xbb1c830a	-0.0023881816
74	0x3d891791	0.06693948
75	0x3e3a7c58	0.18211496
76	0xbe2d8196	-0.16943964
77	0x3c64c83a	0.013963753
78	0xbe04e236	-0.12976918
79	0xbd9f9b72	-0.07793321
80	0xbcf77d3b	-0.030211082
81	0xbe0add6a	-0.13561025
82	0xbe18b1b7	-0.14911543
83	0xbd3076a3	-0.04308189
84	0xbdb96a20	-0.09053445
85	0xbdeec8f5	-0.11659423
86	0x3e24a2f4	0.16077787
87	0xbd60a2d0	-0.05484277
88	0x3d9bcaa5	0.07607011
89	0xbce88568	-0.028383926
90	0xbe17320f	-0.1476519
91	0xbd771e4d	-0.06033163
92	0xbdd081bb	-0.10180994
93	0x3c8d4d5e	0.017248806
94	0x3d0fef3a	0.035140254
95	0x3d84e2e8	0.064885914
96	0xbd886057	-0.06659
97	0xbd288afa	-0.041148163
98	0xbdd43c03	-0.10363009
99	0xbd607e78	-0.05480811
100	0xbd78f551	-0.060780827
101	0x3bbfd69d	0.0058544413
102	0xbdc23d60	-0.094843626
103	0xbd831bb2	-0.06401767
104	0xbe31361a	-0.17305794
105	0xbcc021e5	-0.023453662
106	0xbd2c46d2	-0.042059727
107	0x3e239b6b	0.15977256
108	0x3da1d74c	0.07902393
109	0xbd97a382	-0.074042335
110	0xbe0f4c28	-0.13993895
111	0xbd60758d	-0.054799605
112	0x3ddd389e	0.108018145
113	0xbe2d2b33	-0.1691101
114	0x3ddbb95d	0.107287146
115	0x3d0bf851	0.03417236
116	0xbdd963ef	-0.10614764
117	0x3db929b1	0.09041155
118	0xbcc78f90	-0.024360448
119	0x3caaa190	0.020828992
120	0xbc9788ea	-0.018497903
121	0x3e214f6a	0.1575295
122	0x3ddf60ee	0.1090716
123	0xbe6cef8c	-0.23138255
124	0x3dac81f3	0.08423223
125	0xbd738d52	-0.059460945
126	0x3e2381e3	0.15967517
127	0xbd5a3ed2	-0.053282566
128	0xbcb17bd6	-0.021665495
129	0xbd525a2d	-0.05135553
130	0xbe5aef8f	-0.21380447
131	0x3e45cf29	0.19317307
132	0xbdeebd72	-0.116572276
133	0xbcbd73e5	-0.023126552
134	0x3d4c52cd	0.049883652
135	0x3d903c32	0.07042731
136	0xbd9d0fa1	-0.076689966
137	0x3cc55550	0.024088532
138	0xbd0e3f4c	-0.034728333
139	0xbce17ca7	-0.02752526
140	0xbddd1264	-0.10794523
141	0xbe44e837	-0.19229208
142	0xbe21dae2	-0.15806153
143	0xbaa62e56	-0.0012678604
144	0x3d0a5266	0.033769988
145	0xbe6e770a	-0.23287597
146	0x3d94bf83	0.072630905
147	0xbd7cff7a	-0.06176708
148	0x3e26435f	0.16236638
149	0xbb952361	-0.0045513366
150	0xbe728003	-0.23681645
151	0xbdf9b426	-0.12192564
152	0xbe598ca7	-0.21245061
153	0x3deee4d2	0.11664738
154	0xbd3c0fb0	-0.0459134
155	0x3d07bf82	0.03314162
156	0x3d7a4e36	0.061109744
157	0xbe6bc995	-0.23026116
158	0xbd2412e8	-0.040057093
159	0xbe473d68	-0.19457018
160	0x3c0065d4	0.007836778
161	0x3e226bd4	0.15861446
162	0xbe00fe6a	-0.12597051
163	0x3e18a90e	0.14908239
164	0xbd9457ed	-0.07243333
165	0x3e28b7c7	0.16476355
166	0x3e4d4dbd	0.20049186
167	0x3d5fbbb9	0.054622386
168	0xbab7fa71	-0.0014036429
169	0x3d822b22	0.06355883
170	0x3d6be2ca	0.05758933
171	0xbe6dc917	-0.23221241
172	0xbdb84b81	-0.08998776
173	0xbd4e0174	-0.050294355
174	0xbd7e1936	-0.06203576
175	0x3da1d801	0.079025276
176	0xbddb28b9	-0.107011266
177	0xbea4ceae	-0.32188934
178	0xbdc9151d	-0.0981848
179	0xbd2666a8	-0.040625244
180	0xbcd324a9	-0.025774317
181	0xbdd55e93	-0.10418429
182	0xbdf9c027	-0.12194853
183	0x3de7e768	0.11323434
184	0xbe079160	-0.1323905
185	0x3e090e25	0.13384302
186	0x3e61f93d	0.22067733
187	0xbd547f6b	-0.051879328
188	0xbdabc15e	-0.08386491
189	0x3e8927ca	0.2678817
190	0x3dcf11f3	0.101108454
191	0x3d4126bc	0.04715608
192	0xbdbbca5f	-0.091694586
193	0xbe28d94f	-0.16489147
194	0xbd2f2ff5	-0.042770345
195	0x3cd4040a	0.025880832
196	0xbe6aea44	-0.22940928
197	0x3d8cdd0f	0.06878101
198	0xbe920bc2	-0.28524595
199	0x3cac37f9	0.021022784
200	0xbda12ba1	-0.0786965
201	0xbdb3b338	-0.08774418
202	0xbe63e020	-0.22253466
203	0x3c9de652	0.019274864
204	0xbdb17180	-0.086642265
205	0x3bad8061	0.005294845
206	0xbcac7d92	-0.02105597
207	0xbd845a30	-0.064625144
208	0xbdf30f6d	-0.118681766
209	0x3e79d3de	0.24397227
210	0xbd2d8132	-0.04235954
211	0xbe167668	-0.14693606
212	0x3de297eb	0.11064132
213	0x3e004330	0.1252563
214	0xbd948800	-0.072525024
215	0xbe0fd512	-0.14046124
216	0xbde13bde	-0.10997747
217	0x3d145d10	0.036221564
218	0xbe4bf935	-0.19919284
219	0x3e3ac356	0.18238577
220	0x3d869323	0.06571033
221	0xbe3decc1	-0.18547346
222	0xbd360821	-0.044441346
223	0xbe0f609e	-0.140017
224	0xbdac34bf	-0.08408498
225	0x3d06f398	0.032947153
226	0xbd7c36da	-0.061575748
227	0xbd42c5a6	-0.047551773
228	0x3cdc72eb	0.026910266
229	0xbe119ef7	-0.14220797
230	0xbcc518b1	-0.024059625
231	0x3cef98d5	0.02924768
232	0x3e3e6914	0.18594772
233	0x3e464b7f	0.19364737
234	0x3d8fde77	0.07024854
235	0x3d45c0bb	0.048279505
236	0xbd81468b	-0.06312283
237	0x3d0464ea	0.0323228
238	0x3d4489ec	0.047983095
239	0xbe2305c7	-0.15920173
240	0xbb2072d1	-0.0024482498
241	0x3d882468	0.06647569
242	0xbe3d3709	-0.18478025
243	0xbd9580b4	-0.07299939
244	0xbdfd3a08	-0.12364584
245	0xbdb2f20f	-0.08737575
246	0x3c777ca0	0.0151053965
247	0x3e1eeeae	0.15520737
248	0xbde91bf4	-0.11382285
249	0x3d3bceb4	0.045851424
250	0xbd7e9152	-0.062150307
251	0x3dd7531e	0.105139
252	0x3cef64c0	0.029222846
253	0xbb8672c9	-0.004103039
254	0x3cb4ff83	0.022094494
255	0x3d9f3dfb	0.07775494

module.fc2.bias f4 [84]
0	0xbd69a56b	-0.05704252
1	0x3c99f78d	0.0187948
2	0x3f5a146b	0.85187405
3	0x3dde6202	0.10858537
4	0xbca066e8	-0.01958032
5	0x3f1d5bec	0.61468387
6	0x3e36b278	0.17841518
7	0x3e291a4c	0.16513938
8	0x3cc8ee74	0.024527766
9	0x3ed3e717	0.41387245
10	0x3f7c18f7	0.98475593
11	0x3e153df5	0.14574416
12	0xbdfd792c	-0.12376627
13	0x3e5b3705	0.21407707
14	0xbd2febb7	-0.042949405
15	0x3e28d7ad	0.16488524
16	0x3dd9327b	0.106053315
17	0x3f621a09	0.88320976
18	0x3ebc2390	0.36745882
19	0x3d8f6cc8	0.0700317
20	0xbd1c9b60	-0.038234115
21	0x3e17e6c3	0.14834122
22	0x3f2641a4	0.6494391
23	0x3e9f2221	0.31080726
24	0x3ea1d0fe	0.3160476
25	0x3e2fa51f	0.17152832
26	0x3e87f9bd	0.26557723
27	0x3ed88ad9	0.42293432
28	0x3ca711a8	0.020394161
29	0x3e82f7dc	0.25579727
30	0x3b0bddd1	0.002134193
31	0x3ba84165	0.0051347488
32	0xbd7b24a8	-0.061314255
33	0xbe73d2c5	-0.23810871
34	0xbef871ae	-0.4852423
35	0xbe145437	-0.1448525
36	0x3eddef21	0.43346503
37	0x3ea9492c	0.33063638
38	0x3d928687	0.07154565
39	0xbddd4d18	-0.1080572
40	0x3e21f3ce	0.1581566
41	0x3df5bd35	0.11998979
42	0x3f33efe1	0.702879
43	0xbd3099af	-0.043115314
44	0x3e24fe83	0.16112714
45	0x3eb53fa4	0.35400116
46	0xbd02a602	-0.0318966
47	0x3daf941a	0.0857317
48	0xba6d259e	-0.0009046438
49	0x3d7d8322	0.061892636
50	0x3f298605	0.6622012
51	0x3d860cce	0.06545411
52	0x3ebe086b	0.37115797
53	0x3e96b544	0.2943517
54	0x3e413692	0.18868473
55	0xbdaa6bc7	-0.08321338
56	0x3f52b77a	0.82311213
57	0x3e35ca37	0.1775292
58	0x3ed3fe44	0.41404927
59	0x3c5b2bd0	0.013377145
60	0xbd3e3cca	-0.04644469
61	0xbd94b3a1	-0.07260824
62	0x3df6e6a0	0.12055707
63	0xbcd27591	-0.025690826
64	0x3dfd5c5f	0.12371134
65	0x3dfe7bb3	0.124259375
66	0xbd86f31e	-0.0658934
67	0x3e8738bf	0.2641048
68	0x3dca7b24	0.098867685
69	0x3e9e2445	0.30887046
70	0x3de2d4a0	0.11075711
71	0x3e5aba68	0.21360171
72	0x3d87cb6f	0.06630599
73	0x3ec00cef	0.37509868
74	0xbdfe5ca1	-0.12420011
75	0xbdac7126	-0.08420019
76	0x3e5adf98	0.21374357
77	0x3eca3949	0.3949683
78	0x3d850a93	0.064961575
79	0x3e2de9ac	0.1698367
80	0x3e7e35d3	0.2482522
81	0x3dd5da5f	0.104420416
82	0x3f1cae58	0.6120353
83	0xbce63af0	-0.028104275

module.fc3.weight f4 [10, 84]
0	0xbd104302	-0.035220154
1	0x3e1e802e	0.15478584
2	0xbe8fc83b	-0.2808245
3	0x3d5f6610	0.054540694
4	0x3bf44391	0.0074543436
5	0xbd365c94	-0.044521883
6	0xbe88f5aa	-0.26749927
7	0xbdf00c82	-0.11721136
8	0x3da7066c	0.08155522
9	0x3da90730	0.08253324
10	0xbe7eedef	-0.24895452
11	0x3d6052f3	0.054766607
12	0xbe8f39ba	-0.2797373
13	0x3e270c3a	0.16313258
14	0x3e680385	0.22657593
15	0xbe4d3bec	-0.2004239
16	0x3e1a6023	0.15075736
17	0x3e40dac1	0.18833448
18	0xbe9a7066	-0.30163878
19	0x3e2124d4	0.15736705
20	0x3d499a53	0.04921944
21	0x3e59dc46	0.21275434
22	0x3dddd250	0.108311296
23	0x3e1e30e6	0.15448341
24	0x3e0f80fa	0.14014044
25	0x3e11e497	0.14247356
26	0x3d5f8c16	0.054576956
27	0x3ddc7f4f	0.1076647
28	0x3dd607e1	0.104507215
29	0x3e8ed364	0.27895653
30	0x3e32e39a	0.17469636
31	0xbe26b1dc	-0.16278785
32	0x3e679a44	0.22617441
33	0x3e9b50f0	0.30335188
34	0x3dabf45d	0.08396218
35	0xbca83ee0	-0.020537794
36	0x3e325257	0.17414223
37	0x3e248578	0.1606654
38	0xbd82c8d6	-0.06385963
39	0xbdb7bbb0	-0.089713454
40	0xbceaac4e	-0.028646614
41	0x3e7dfe26	0.24803981
42	0x3be26d0d	0.0069099725
43	0xbd520cf2	-0.051281877
44	0xbdaaeeef	-0.08346354
45	0xbe2af089	-0.1669332
46	0xbe3aaa63	-0.1822906
47	0x3d947342	0.07248546
48	0x3d6c2585	0.05765297
49	0xbe5b119e	-0.21393439
50	0xbd88ab51	-0.06673301
51	0x3e4951ba	0.19660082
52	0x3e7cda14	0.24692565
53	0xbc8a625b	-0.016892603
54	0xbe4f051f	-0.20216797
55	0x3cd31736	0.025767904
56	0xbec7831c	-0.38967216
57	0x3e543434	0.20723039
58	0xbed2d524	-0.41178238
59	0x3e40df66	0.1883522
60	0xbd6f6f18	-0.058455557
61	0x3ca09cdd	0.019606048
62	0xbdb9b22b	-0.09067186
63	0x3e47b419	0.19502296
64	0xbe3ec44b	-0.18629567
65	0xbd80f59d	-0.06296847
66	0xbe2c1a54	-0.16806918
67	0xbe1ae1f5	-0.15125258
68	0x3d5384c9	0.051640306
69	0xbc43c07d	-0.011947748
70	0xbcb08051	-0.021545561
71	0x3e2b8f3c	0.16753858
72	0xbe1e2b40	-0.15446186
73	0xbda7ccea	-0.08193381
74	0x3e5b4705	0.2141381
75	0x3e1cb5bd	0.15303703
76	0xbd5867d4	-0.052833393
77	0xbe8d1f41	-0.27562907
78	0x3d1e8e06	0.038709663
79	0x3e6e9c13	0.23301725
80	0xbe25cb5f	-0.16190861
81	0x3d6f0a26	0.058359288
82	0x3e626796	0.22109827
83	0xbc6a9595	-0.01431789
84	0x3e6e164e	0.23250696
85	0x3e2144bc	0.15748876
86	0xbed951e7	-0.424453
87	0xbca1213e	-0.019669171
88	0xbd591b48	-0.053004533
89	0x3d69776f	0.056998666
90	0x3e2c88bc	0.16849035
91	0xbdb6438e	-0.08899604
92	0x3e4c15a3	0.19930129
93	0x3e3ea92e	0.18619224
94	0xbdfbb7e8	-0.12290937
95	0x3e63de5b	0.2225279
96	0x3e26531c	0.16242641
97	0x3da3c6a9	0.07996876
98	0x3e84fa8c	0.25972402
99	0xbcf64dff	-0.030066488
100	0xbe9c063e	-0.30473512
101	0xbe5198f6	-0.20468506
102	0xbe00a267	-0.12561952
103	0x3edb87a7	0.42876932
104	0x3e565892	0.20932224
105	0x3e66ca87	0.22538196
106	0xbea8fe01	-0.3300629
107	0xbe51ab92	-0.20475605
108	0xbe833d70	-0.2563281
109	0x3e0b1321	0.13581516
110	0xbe3816b5	-0.17977412
111	0xbe913103	-0.28357705
112	0x3dde0016	0.1083986
113	0x3d15aba3	0.03654064
114	0x3d72cbaa	0.05927626
115	0x3be2d867	0.00692277
116	0xbe26150a	-0.16218963
117	0x3e1512bc	0.14557928
118	0x3e472342	0.19447044
119	0x3e5adf9e	0.21374366
120	0xbe1717a8	-0.14755118
121	0xbda64f8e	-0.081206426
122	0x3d4e3aef	0.050349172
123	0x3d40941e	0.047016256
124	0x3c299329	0.010350027
125	0xbe4bb942	-0.19894889
126	0xbdd7bb25	-0.10533742
127	0x3e4ba98c	0.19888896
128	0x3cbb8592	0.02289084
129	0x3dd2d7b0	0.102950454
130	0xbe0348f2	-0.12820795
131	0x3e534c4c	0.20634574
132	0xbd8b325d	-0.067967154
133	0x3d28378f	0.04106861
134	0xbe1052f7	-0.14094149
135	0x3d957eb5	0.07299558
136	0xbcb71d0e	-0.022352722
137	0xbe19c5b8	-0.1501683
138	0x3c3819a3	0.011236581
139	0xbd282261	-0.04104841
140	0xbe0f29db	-0.1398081
141	0xbe43ae36	-0.19109425
142	0xbd771b6e	-0.060328893
143	0xbdd7e4b7	-0.10541671
144	0x3d6d52d1	0.057940308
145	0x3dd29446	0.10282187
146	0x3dfea9d0	0.12434733
147	0x3e936a40	0.28792
148	0x3e8dee7d	0.27721015
149	0xbd88c958	-0.06679028
150	0x3e32749f	0.174273
151	0xbb1e96fb	-0.0024198878
152	0xbe0050b3	-0.12530784
153	0xbd68a551	-0.056798283
154	0x3e629bfe	0.22129819
155	0x3bc39651	0.005968847
156	0x3da50383	0.080573104
157	0xbe55a3c6	-0.20863256
158	0xbcfb579d	-0.030681426
159	0xbdf29cf3	-0.11846342
160	0xbd0244be	-0.03180384
161	0xbd00c406	-0.031436943
162	0xbc8031be	-0.015648719
163	0xbeaccfc1	-0.33752254
164	0xbde10daf	-0.10988938
165	0x3de76b20	0.11299729
166	0xbc58d4a2	-0.013234289
167	0x3d93619b	0.07196351
168	0x3d34b00a	0.044113196
169	0x3cf2eca3	0.029653853
170	0x3e738dfa	0.23784629
171	0xbe406c31	-0.18791272
172	0xbdc83074	-0.09774867
173	0xbe1b65d2	-0.1517556
174	0xbd4d47d4	-0.05011733
175	0x3db3cf79	0.08779807
176	0xbe2334b8	-0.1593808
177	0xbe248609	-0.16066755
178	0x3e85633a	0.26052266
179	0xbcafb0ec	-0.021446668
180	0x3c5819b9	0.0131897265
181	0xbe28e1f3	-0.16492443
182	0x3d268a6d	0.040659357
183	0xbe16cd93	-0.14726858
184	0x3e5c5773	0.21517734
185	0x3e2ad375	0.16682227
186	0x3e5eb599	0.21748962
187	0xbe1877f7	-0.14889513
188	0xbddb8d77	-0.10720342
189	0xbe82f40e	-0.25576824
190	0x3dc37d33	0.09545364
191	0x3e46b3ea	0.1940457
192	0x3db16628	0.08662063
193	0xbdf09564	-0.11747244
194	0x3e2b2566	0.16713485
195	0xbd92af83	-0.071623825
196	0xbd4aae1c	-0.04948245
197	0xbd10839b	-0.03528176
198	0x3d10fb2c	0.035395786
199	0xbd2d6a5c	-0.04233776
200	0x3d38f392	0.04515416
201	0xbd8b79b5	-0.06810323
202	0xbc890dcf	-0.016730217
203	0xbd487762	-0.048941977
204	0x3ccc5f7c	0.024947874
205	0x3d948d4d	0.072535135
206	0xbde27434	-0.1105732
207	0x3d267f8f	0.040648993
208	0xbdbf6f61	-0.09347416
209	0x3d687fc0	0.056762457
210	0x3e25b112	0.16180828
211	0xbdcdcc7c	-0.10048768
212	0x3e6cfb30	0.23142695
213	0xbdc0b507	-0.09409528
214	0x3da9ade0	0.08285117
215	0xbcc875d0	-0.02447024
216	0x3cbbe79e	0.022937592
217	0xbcfbb52d	-0.03072604
218	0x3e06608f	0.13122772
219	0x3e29f49c	0.16597217
220	0x3dfd33fd	0.123634316
221	0xbc1dbd42	-0.009627642
222	0x3d99b272	0.07504739
223	0x39bd7ca8	0.00036141765
224	0x3d181911	0.03713328
225	0x3e7b507a	0.24542418
226	0x3d71e7dc	0.05905901
227	0x3cb639cd	0.022244358
228	0xbd9b1c0a	-0.075737074
229	0x3e6edf9f	0.23327492
230	0x3df1c8aa	0.11805852
231	0xbcfb5059	-0.030677961
232	0x3e068bd1	0.13139273
233	0x3d5e9964	0.054345503
234	0xbdb6aa60	-0.08919215
235	0xbe5defac	-0.21673459
236	0xbe3f8af4	-0.1870535
237	0x3d80f043	0.06295826
238	0xbd51b231	-0.051195327
239	0x3e790540	0.24318409
240	0xbdd31410	-0.10306561
241	0x3cc4f052	0.024040375
242	0x3d99a317	0.0750181
243	0xbc04ec35	-0.008112957
244	0x3ea3e7a1	0.32012656
245	0xbda4b11c	-0.080415934
246	0xbd0cc262	-0.034365065
247	0x3e25c3d9	0.16187991
248	0x3e00cf5f	0.12579106
249	0x3d826b93	0.063681744
250	0xbcba439c	-0.022737317
251	0x3e43f4f8	0.19136417
252	0xbdccac60	-0.099938154
253	0x3d3999d7	0.04531273
254	0x3e75517d	0.23956867
255	0x3d45f6fa	0.04833124

module.fc3.bias f4 [10]
0	0xbe6d77b6	-0.23190197
1	0xbf8c3128	-1.0952501
2	0xbda9123c	-0.08255431
3	0x3f25a5cc	0.6470611
4	0x3f3724ea	0.715407
5	0xbdf8a347	-0.12140518
6	0x3d0e8c10	0.034801543
7	0xbea368ce	-0.31915897
8	0x3ee9cf73	0.45666084
9	0xbebaba1b	-0.36470112
