models/classifier_net_epoch_0_12000.pth (torch_old, 249853 bytes, 10 tensors)

module.conv1.weight f4 [6, 3, 5, 5]
00000000: d086 6f3e 2e45 0c3e ee2a ea3d 5b9d 963e
00000010: 3dcb a03e ed9c a93e 41ef d73c 2e6b ec3d
00000020: 6aed a13e 2e73 d03e f33d 623e 6511 593d
00000030: 0ced 86be 7e8b e93d 49e1 003e 009c 1dbd
00000040: 4b16 32be 6f1b 62be c2e8 75be e781 4ebe
00000050: 9d03 62bd 1a9c fbbd c62c 56be 3df3 48be
00000060: e1b3 7dbe e7d3 563d 0a58 3bbe f3c4 b6be
00000070: 8f6e 69be 5a89 55be 2fe1 6e3e ac14 86be
00000080: 56c1 c2be acf5 f0bd 3ed3 0f3e 8421 e53d
00000090: 8c44 cdbd f4ff d0be 81af 613b c754 ad3d
000000a0: d265 003d 6edd 3a3c 2d13 aabe 8f29 86bd
000000b0: c3f3 35be 2229 b13e b775 b6bc 222d 023d
000000c0: 6abc 053e 7844 4abd 4042 1cbd d1b1 0bbe
000000d0: 37f9 77be 6fdf 0dbe 8d49 d9bd a9c6 563e
000000e0: 393d 3ebe c29f 80be 4034 ea3c c0da 10bd
000000f0: 6c65 3e3e 7026 c9bd 0228 76be f567 423c
00000100: 6c33 833b bc35 503e 63ba 053e 6d4c eebd
00000110: 8ce6 3b3d daa1 cf3c ff9a be3e cc31 cf3d
00000120: 1711 bd3c c95c e83d 1151 153e 3f71 fc3d
00000130: 3064 373e 390e 90bc ed2a 37bc a90b 4dbd
00000140: 06bd b8bd d789 693d 8fda b8bd 047a 96bd
00000150: 14cc 25bd a44a 2fbe f1ce 73be 6c1d 57be
00000160: 3c2d a6bd e1e4 39be 2389 6ebe 702a 87be
00000170: 5780 64be de0d f2bd 7493 47be f218 12be
00000180: 6d8a 8f3d 7ab3 5ebd a622 083e cd7d 503e
00000190: 888d 07bd 1fa5 073e feba bf3c c667 453c
000001a0: 940a 423b 5b6f 7d3c c7b4 b93d 3c2e 09be
000001b0: 0de6 22bd 84a1 8ebd 3a5f 623d 8dcc 8cbd
000001c0: c8f9 bfbd e359 f4bd 7b9d a1bd 8bb9 4abd
000001d0: 4797 cbbd 9ccc 07be 9b57 bcbd 5edf 02be
000001e0: a5e8 9e3d 204e 1bbd 365b 29bc d303 e93d
000001f0: 2ad3 713e f2e0 ba3d d985 213e 0585 ac3c
00000200: 886c 2b3e d1db 5f3b b318 3a3d 1fa0 aa3d
00000210: 3007 ff3d 4cc1 0a3b c0d5 d6bd 9816 3939
00000220: bd26 cf3c c953 8dbb 3441 31be d9ca 1ebe
00000230: f419 5ebc de36 28be a2ab c8bd 4508 19be
00000240: 505b 16bd d2bc 16ba 0167 04bc 476f 5b3e
00000250: 37d0 a13d 276f f93d ca8f 2abe cf36 61be
00000260: 360f 4fbe 5734 01be 7127 c6bd 9199 acbd
00000270: 2e0c f03d 4953 543c 2311 933d d7d1 843b
00000280: 37fc 79bd 74a2 4f3d 6b07 fa3d aff5 663a
00000290: 56e7 b33c be66 90be 59c5 16be ec5f 06be
000002a0: ac2f 83be d16f 6cbe 8f27 03be 47cc 36be
000002b0: f5d0 e8bd c7d3 eabd 0506 43bd cef1 4bbe
000002c0: a59b 5ebe bb1c 413b 79b6 d7bc fe66 bebc
000002d0: b390 623e 4680 6a3e b503 9b3e 6239 653e
000002e0: 2681 8f3e bb7d 083e 991f a93d 0ff9 7a3d
000002f0: 7dce c73c b8eb ff3d 71a4 5ebe 2a9a 90be
00000300: 9af3 2fbe 2980 54be 3bc0 05be 6f03 1ebe
00000310: d2c6 48be 03d5 09be 202a 40bc 10b3 1a3d
00000320: a205 38bd 4a45 ec3d bf85 043e af40 603d
00000330: 37a6 613d 7178 ad3e f862 493e 8020 c33e
00000340: 2484 d73e c508 b73e 9dab 573e 0f62 7d3e
00000350: 29ee ed3d ee96 443e 200b 073e b2b5 37bc
00000360: 1744 653d 6781 cebd f194 d0bd ff1d 99bc
00000370: efbb 4a3d 86d8 233d 6230 8fbc 99b3 c93d
00000380: 8371 7e3d 8f57 d7bb 940a a03d 66b9 9bbd
00000390: 7fa6 223e 7434 e43d a51f 54bc 8d15 fdbd
000003a0: 9458 7fbd a060 e03d 2f3b 413e 58dd 8bbd
000003b0: abd3 abbd be8b d1bd 0f8e 2e3e 9440 633d
000003c0: 026a 79be eefd 53be c9a1 ffbc bce2 5a3d
000003d0: cdb0 5f3e e501 85bd be5f 82be 4181 f6bc
000003e0: a659 2c3e 3f5b 553c a3b1 54bd e8eb c6bd
000003f0: dae3 42be 573f 6c3d 676d 9d3c cd77 0dbe
0.2339127 0.13698265 0.114339694 0.29416928 0.31405059 0.33127537 0.026359202 0.115438804
0.31626445 0.40712875 0.22093944 0.052995104 -0.26352727 0.11403559 0.1258594 -0.03847885
-0.17391317 -0.22080778 -0.24014571 -0.20166741 -0.055179227 -0.122856334 -0.20915517 -0.19624038
-0.2477565 0.05244818 -0.18295303 -0.35697135 -0.22796081 -0.20853177 0.23328088 -0.26187646
-0.3803813 -0.11765608 0.14045426 0.11188033 -0.1002284 -0.40820277 0.0034436884 0.084634356
0.031347103 0.011405332 -0.33217755 -0.065508954 -0.17768769 0.34601694 -0.022272928 0.031781323
0.13060156 -0.049381703 -0.03814912 -0.1364205 -0.24216162 -0.13854764 -0.10609732 0.2097422
-0.18578042 -0.25121886 0.028589368 -0.035364866 0.18593377 -0.098217845 -0.240387 0.011865606
0.0040039327 0.20332998 0.13059382 -0.11635671 0.045874164 0.025345732 0.37227628 0.1011692
0.023079438 0.11345822 0.14581706 0.123262875 0.17909312 -0.017584907 -0.011179668 -0.050059948
-0.09020428 0.05701622 -0.09026062 -0.073474914 -0.040477827 -0.17118317 -0.2380941 -0.21007317
-0.081140965 -0.18153717 -0.23294501 -0.26399565 -0.22314583 -0.11819051 -0.19489843 -0.14267328
0.070088245 -0.05437038 0.13294467 0.20360489 -0.03309396 0.13246582 0.023404595 0.012048667
0.0029608356 0.015468444 0.09067684 -0.13396543 -0.039770175 -0.069644004 0.055266596 -0.068749525
-0.09373814 -0.11931207 -0.07891365 -0.049493354 -0.09940963 -0.13261646 -0.09196397 -0.1278052
0.07759217 -0.037916303 -0.010336688 0.113776825 0.23615709 0.09124936 0.15773715 0.021059522
0.1674062 0.003415812 0.04543371 0.08331322 0.12452543 0.0021172343 -0.10489988 0.00017651392
0.025287027 -0.0043129665 -0.1731003 -0.15507068 -0.013555992 -0.1642718 -0.09798361 -0.14944561
-0.036708176 -0.00057501823 -0.008081199 0.21429168 0.07901042 0.12179404 -0.16656414 -0.21993564
-0.20220646 -0.12617622 -0.096754916 -0.08427728 0.11721073 0.01295931 0.07181003 0.004053335
-0.061031546 0.050692037 0.12208446 0.00088104134 0.021960896 -0.28203386 -0.1472372 -0.13122529
-0.25622308 -0.2308953 -0.12808059 -0.17851363 -0.113679804 -0.114661746 -0.047613163 -0.1991646
-0.21739061 0.0029466588 -0.026332127 -0.02324247 0.22125511 0.22900495 0.30276266 0.22385171
0.2802822 0.13329212 0.0825798 0.061272677 0.024390453 0.12496132 -0.21742417 -0.28242618
-0.1718277 -0.20752014 -0.13061611 -0.15430997 -0.19607094 -0.13460164 -0.011728793 0.037768424
-0.044927247 0.11536653 0.12941645 0.054749187 0.055090155 0.33880952 0.1966666 0.38110733
0.42093003 0.35748878 0.21061559 0.24744438 0.11617691 0.191982 0.13187838 -0.011212753
0.05597314 -0.10083275 -0.10184658 -0.018691061 0.049495634 0.040001415 -0.017479125 0.09848709
0.062119972 -0.006571717 0.078145176 -0.07603721 0.15883826 0.11142817 -0.012946998 -0.12357626
-0.062340334 0.1095593 0.18870233 -0.06829327 -0.08389982 -0.10231732 0.17046379 0.05548151
-0.24356845 -0.20702335 -0.031205075 0.053438887 0.21844788 -0.06494502 -0.2546367 -0.03009093
0.16831073 0.013022243 -0.05192722 -0.09712964 -0.19032231 0.057677593 0.019217206 -0.13815232

module.conv1.bias f4 [6]
00000000: 7ccf b7bd eba0 9bbe 5c3f 4d3d b656 93bd
00000010: ade6 79be 01b8 643e
-0.089751214 -0.30396208 0.050109252 -0.07194273 -0.24404402 0.22335817

module.conv2.weight f4 [16, 6, 5, 5]
00000000: 859c 673e 04ce 1c3e e26c 5d3e f328 a73c
00000010: 0ee0 41bd e59e d23d a6be f6bd 69f3 463e
00000020: 70d6 3a3e 0d5c 09bd 3fb6 5f3d 44c7 c3bd
00000030: c093 abbc b2e6 e23d 09ad 7b3c 1e7f 08bd
00000040: 4736 cf3c fea2 703c e28e 833d 4775 943d
00000050: 5496 35bd 731a cebd d0a6 ddbd 216c bebd
00000060: 4d3f c93d 4dda bebd 369b 833c 20fc 76bc
00000070: 1168 8e3c 0faf c5bc 477a 1bbe fe68 1bbd
00000080: 9df8 adbd cf5d 6cbc d122 00bd b990 2ebe
00000090: ccfd 17bd 1c9c a53b 5269 f7bb 2579 dd39
000000a0: 59f7 15be 0378 76bd 1869 333c 2630 793b
000000b0: 3ae4 bf3d 7013 eebd 8d79 e3ba 3afb b7bd
000000c0: 9c0f 403c 4c70 073e b72b 56bb fbb3 43bc
000000d0: 2586 123d 5ef7 53bc 8824 4a3d 141c c3bd
000000e0: 9ea0 003d 6063 683c 0b0d 1c3d 489c 88bc
000000f0: cbd6 f4bd 1357 85bd 3611 2bbd b9f6 27bd
00000100: 33a4 5abd ed7a 0fbe 6da1 e6bb 63e2 0e3d
00000110: 8aef babc f11d d23c a1da 1cbe cff1 bfbc
00000120: dcbf eabb 03f2 d43c a513 aebd 40f7 aa3d
00000130: c2e7 d63d 779b 183d f2f8 703e 789d da3c
00000140: 6539 bc3d 9475 0dbd 6a64 8bbc 63cf 183e
00000150: d930 263e cf46 9ebc 53cd 73bd 744b 69bd
00000160: c85e aa3c 907a 073e 694c 1cbe 4f6a 90bc
00000170: 8327 e3bd 5060 ebbd 657c e53b cf1a 43be
00000180: a4d2 6cbd 0d7d 51bd 89f7 fcbc 368e 32bd
00000190: 141b 97bc 7986 a3bd fb8f 68bd e906 123d
000001a0: a8cf a93c b238 9bbd 6710 833c f749 01bd
000001b0: 6425 4ebd b484 19bd a4e4 96bb 8d3f 71bd
000001c0: 7a04 873d b76f 0abd 6960 1c3d 5eb8 fcbc
000001d0: 4dd4 d6bc aae0 303c 0493 90bd 8aa2 f43c
000001e0: 7f83 d3bc e609 593c d983 efbc 6ce9 eeba
000001f0: 2016 9e3d af5c 1b3d 056d 81bc 259b b6bd
00000200: 1cb1 0ebd ddfc d13c 5125 973d 5631 d73c
00000210: 5255 64bd 6d9d 743c e55c b73d df90 a43d
00000220: ae35 573d f90a b9bd 2422 cdbd 1e4b a73d
00000230: 08b9 19bc 93e5 413d a47b 08bd 78d1 cbbd
00000240: 80ae 25bd 3d2d 0a3c 8512 073d 5672 91bd
00000250: 7610 b3bd 0cd3 d2bd c984 92bd e0ff 6ebd
00000260: 4fc5 83bd 5beb 50bd 026b e2bd 1e6b 423e
00000270: 774b 313c 32c5 0cbe d22b a3bd 7442 213c
00000280: fd82 5e3e 52db d53d e642 563b 7e40 bbbc
00000290: 5179 44bd b8bd 133e e49f 883e 81e1 dd3d
000002a0: 771c e23d 8d88 713d f764 dabd 9be3 ab3d
000002b0: e5ac 203d 6ef0 093e bcc2 c83d 4105 9fbd
000002c0: 8cf4 0ebe bd12 53bd bfce 81bd 78e7 06be
000002d0: 7bd7 8f3c b270 edbd c773 0ebe 35cb 88bd
000002e0: 9d80 9fbd eef9 90bd deed a93d 23a0 c8bd
000002f0: 9ca5 00be f0ae 21bd 515c a73d f994 4f3d
00000300: 0818 303d 1eee 55bd 4bc8 a03d 749e 3c3d
00000310: 1573 2f3e 7829 7c3e 2780 533e 5736 c53d
00000320: d88b e03d 0d13 b33d c0b6 563d c5ee 323d
00000330: e0b4 8b3d 5276 96bb 2870 09b9 19a1 803c
00000340: 0e38 62bd 15f8 1b3c 4d80 90bd 1faa 833c
00000350: 4bac 433c 597f 67bd 558c 14bd 0d76 01be
00000360: b538 953d 4040 4b3e 0f3e 203e 4c44 9bba
00000370: 0ccf 42be 72fc 3cbe 48b0 8cbb cdb5 89bd
00000380: f91e 26bd f58f 51bd 7bbb 09bd 3e14 38be
00000390: 99f0 c0bd 758a 35bd 141d 013d 0a14 1e3d
000003a0: cc09 023d e686 89bb c042 81bd 4f78 463d
000003b0: abe9 de3d de84 1bbc c48c 0b3d 4f0a 98bd
000003c0: 6558 e0bd 5097 8c3c fbd0 013e da97 af3d
000003d0: 5399 d63d 6728 f8bd ef75 2dbe 3aef 2cbd
000003e0: 913a 09bd e5cc c2bc f9bd c3bd 21ab 64bd
000003f0: 5e13 febd 4e75 c8bd 9551 fe3b a818 38bd
0.22618301 0.15312964 0.21623567 0.020405268 -0.047332816 0.10284213 -0.12048082 0.19428791
0.18245864 -0.033535052 0.054617163 -0.09559491 -0.020944476 0.11079158 0.015361079 -0.033324353
0.025294436 0.014687298 0.06423737 0.072489314 -0.044332817 -0.100636385 -0.108228326 -0.09297968
0.09826527 -0.09318981 0.016065221 -0.01507476 0.017383607 -0.024131326 -0.15183364 -0.037941925
-0.08494685 -0.014426663 -0.031283204 -0.17047395 -0.037107274 0.00505401 -0.007550397 0.00042242664
-0.14645137 -0.060173046 0.010950349 0.0038023083 0.09369703 -0.11624801 -0.001735495 -0.089834645
0.011722472 0.13226432 -0.0032679865 -0.011944766 0.03577246 -0.012937395 0.049351245 -0.0952684
0.031403176 0.014183849 0.038098376 -0.016676083 -0.11955031 -0.06510749 -0.04176446 -0.041006777
-0.05337925 -0.14011736 -0.0070382864 0.034883868 -0.0228193 0.025649043 -0.15317775 -0.023430733
-0.0071639847 0.025994306 -0.08499841 0.083479404 0.10493423 0.037257638 0.23532465 0.026686415
0.09190635 -0.03453596 -0.017015655 0.14922862 0.16229571 -0.019320874 -0.059521984 -0.056956723
0.020797148 0.13230348 -0.15263523 -0.017628817 -0.11091521 -0.114929795 0.0070033544 -0.19053195
-0.05781807 -0.05114465 -0.030879753 -0.043592654 -0.018445529 -0.07984633 -0.056777935 0.03565112
0.020728901 -0.07579173 0.015999032 -0.03156468 -0.050328627 -0.03748007 -0.004604893 -0.058898497
0.06592651 -0.033797946 0.03817788 -0.030849632 -0.02622428 0.010795752 -0.07059291 0.02986266
-0.025819538 0.013246989 -0.029237675 -0.0018227524 0.07719064 0.037930187 -0.015799055 -0.0891631
-0.034836873 0.02563327 0.073801644 0.026268642 -0.05574543 0.014930111 0.08953265 0.080354445
0.052541427 -0.09035296 -0.100162774 0.08168624 -0.009382494 0.04733808 -0.033321038 -0.09952062
-0.04044962 0.008433637 0.032976646 -0.07101886 -0.08743374 -0.1029416 -0.07154233 -0.05834949
-0.06434118 -0.051005702 -0.11055566 0.18986174 0.010821215 -0.13747099 -0.079673424 0.009842504
0.21729656 0.10442223 0.0032693683 -0.0228579 -0.04796726 0.1442784 0.26684487 0.10834027
0.110405855 0.058968116 -0.10663789 0.08393022 0.039227385 0.13470623 0.09802768 -0.07764674
-0.13960475 -0.051531542 -0.06338262 -0.13174236 0.017558804 -0.115937606 -0.13911353 -0.06679384
-0.07788203 -0.0707892 0.08297323 -0.09796169 -0.12563175 -0.039473474 0.08171905 0.05067918
0.042991668 -0.05222904 0.07850703 0.04604955 0.17133744 0.24625194 0.20654355 0.09629505
0.10964173 0.08743868 0.052420378 0.04368474 0.068216085 -0.0045917416 -0.0001310712 0.015701817
-0.05522924 0.009519597 -0.070557214 0.016072331 0.011942933 -0.056517933 -0.036266644 -0.12642689
0.07286207 0.19848728 0.15648673 -0.0011845916 -0.19024295 -0.18455675 -0.0042934753 -0.06724129
-0.04055688 -0.05116268 -0.03362606 -0.17976472 -0.0942089 -0.044321496 0.03152187 0.03859333
0.031747624 -0.0041969894 -0.0631156 0.04845458 0.108844124 -0.009492127 0.03406979 -0.07423841
-0.1095436 0.017161995 0.12677376 0.08573885 0.10478463 -0.12117081 -0.1693952 -0.04222033
-0.03350312 -0.023779342 -0.09557719 -0.055827264 -0.12406038 -0.09787999 0.00776119 -0.04494539

module.conv2.bias f4 [16]
00000000: e311 b23d 3cdf a6be ed98 b4be 4a87 88bd
00000010: 0a07 563e 5772 f0bd c966 f13d 6589 093e
00000020: 3876 15be 0163 853c 6cee 02be 4aaa a53e
00000030: 09e1 353c 9aee b9bd 7b22 cabd 29ec b43e
0.08694818 -0.3259219 -0.35272923 -0.06666429 0.20901123 -0.117405586 0.11787183 0.13431318
-0.14595878 0.01628256 -0.12786263 0.32356483 0.011101016 -0.09078713 -0.09869858 0.35336426

module.fc1.weight f4 [120, 400]
00000000: 948c 2ebd 08c8 5ebd 4a57 62bd be08 033d
00000010: 4cb9 33bd b203 903c 3b00 2f3c 6ace b33c
00000020: 7ee9 4ebc 4bda 20bc 19d6 09bd 8c89 623b
00000030: 2184 8ebc 4b53 463c 49fd fc3c 66fb 43bc
00000040: 2d05 213d 5a33 cebc 7705 d03c 197c d9bb
00000050: efd7 aa3c f8e6 0d3d 1f73 d8bc 7b35 f3bb
00000060: 9f50 9c3c 7448 163d 91ee 15bb 9e96 013d
00000070: 0c76 3ebd 47fd e8ba dd9c c33c 386e d53a
00000080: b476 e03b 5548 8a3c 8be3 f3bc 296b 453d
00000090: e820 e03c 8540 af3b 477a 3f3b 4a26 103d
000000a0: f1ef 2ebd c432 3ebd cfaa 1bbd e151 06bd
000000b0: 112e 13bd 38c0 88bd 56c2 bdbc 9e07 66bd
000000c0: 90bf b2bc 3ada f1bc 805f 783d 27f5 f5bc
000000d0: 4d7d 29bd 07f9 bd3c c98a 2dbd 3d8a 4a3d
000000e0: 6c11 a6bc 6a56 d93c 744c 4dbc 706f 883c
000000f0: 1635 703c c598 91bb 98e3 233c 7e2d a3bc
00000100: f370 b83c a701 443d a0de 11bd d6d6 29bd
00000110: 61d0 10bd 6319 0f3d 2f72 4fbd 335b 193b
00000120: 3796 68bd 9758 46bc 38c8 a63c 4432 22bd
00000130: d42e 443b eb12 11bd 0731 89bc facf 93bd
00000140: f083 fa3c 3dca 22bd d840 013d ba71 c53c
00000150: 7ea1 2d3d c441 f0bb c347 103c 811b 6a3c
00000160: 9732 0bbd d620 2d3d 1adf b2bc b80c 13bd
00000170: dd61 00bd 4e86 2dbc 68d5 c8bc 4f2f e6bc
00000180: a450 3ebc 03ab c5bc fb3a 69bc e6a8 13bb
00000190: cbe0 7a3d a014 3d3d b88a 1b3c 4954 3a3d
000001a0: 1ef7 8a3d bdfe 8a3d 4148 803d cda7 9abc
000001b0: 2da9 313c 1444 9d3c 37db 653d fdfe 333b
000001c0: 9929 3b3d 0386 d93c 4202 08bd 1f48 2b3d
000001d0: 38cf 94bb 2e34 3f3d a201 323b 9d72 c63b
000001e0: 498c 953c 2d0b 8abc b139 603d 6482 ccbc
000001f0: 546f bb3b e176 29bb 5556 42bd 2249 cf3c
00000200: e1b9 ac3c 377b 4fbd a2c7 e5bc be72 47bb
00000210: 2aef 4abc 4b53 83bc 6c1f 1ebd 947f 3c3d
00000220: 9754 5e3d 0c38 e0bc 8594 4dbc 9aaf a2bc
00000230: db05 2bbd e76e cebc 6592 2d3d 67a1 773c
00000240: a94a 0f3d f4fa 76bd 28ac 49bd 1003 d4bc
00000250: b9d1 bdbc 18b1 1bbd b2cb b53c 55b0 afbc
00000260: 1f94 23bd b1fc 56bb 6f59 1b3d 2061 90bb
00000270: 2350 89bd d87a 0d3b d8b9 c73c 2f2e a63c
00000280: cd61 663c 5e3c 02bd ef5e 5bbd 88b1 a1bb
00000290: 8ffc e7bb e3ea 49bc 2bd4 03bb 2283 14bd
000002a0: 213c 37bd d950 ff3b 7cd0 083c 9a7e f1bb
000002b0: d8b2 39bd a20e b33c 537e 1b3d dbe2 503d
000002c0: ae40 d9bb 5a87 a4bb d455 803d 0bb9 483d
000002d0: 7042 9e3c 2677 2c3d fb67 393d 0d22 bb3c
000002e0: c4ae 4e3d c118 153a 327b bfbc c201 02bd
000002f0: 435a 19bc 2aef 6c3d abea cabc 2aaa 513d
00000300: 4e84 e23c 52e7 403d 299a 183d 4bd5 6b3d
00000310: f547 9fbc af1e 99bc bc09 583d b848 4e3d
00000320: 8b52 ccbb 3b00 c53c bf7c 3dbc a39a 1abd
00000330: 5202 5cbc 1fa1 e5bc 62a9 02bd a481 4d3d
00000340: ee1e dcbb 529f 973d 7e5e 363d b6aa 863c
00000350: 16e6 e13c 6ed9 8dbc e9ee 5d3d c2c7 3dbd
00000360: e96d 10bc 4f89 eebc 7f15 6cbd 79da 023d
00000370: 9faa 49bd ffa3 2c3c e709 6fbd 19ed 5abd
00000380: 017d a3bc 8cee eabc 6841 a1bd 66c7 173a
00000390: 4739 c6bc 4e39 a8bc 6b13 193d 8de6 333c
000003a0: f2d3 2bbd 3c25 163d 1647 83bd ff2b 243d
000003b0: cc30 30bc c6ce fb3b 43c2 bd3c fc48 d3bc
000003c0: b60f 6a3d 2cc0 453d 3eb3 d03b ed04 de3b
000003d0: ec03 73bc 94ba 2e3d 1431 be3b 5bf2 223d
000003e0: 684c 0a3d 4d11 99bd 6e87 cc3b f6b2 24bc
000003f0: 645b e23c 5634 98bc 813b 003d 52b3 483c
-0.042614534 -0.054389983 -0.055259027 0.03199076 -0.043877885 0.017579887 0.010681207 0.021949012
-0.012628911 -0.00981767 -0.033651445 0.0034566848 -0.017396988 0.0121048195 0.030882495 -0.0119617935
0.039311577 -0.02517097 0.02539323 -0.006637108 0.020854918 0.034644097 -0.026422082 -0.007422147
0.019081412 0.03669019 -0.0022877792 0.03163778 -0.046499297 -0.0017775678 0.02387851 0.0016283458
0.006850088 0.016880194 -0.029771587 0.0481979 0.02735944 0.0053482675 0.002921717 0.035192765
-0.042709295 -0.046435133 -0.038004693 -0.03279293 -0.035932604 -0.06677288 -0.023163956 -0.056159608
-0.02181986 -0.029523004 0.06063795 -0.030024124 -0.04137926 0.023190035 -0.042368684 0.04944824
-0.02027198 0.026530463 -0.012530435 0.0166547 0.014661094 -0.0044432604 0.010002993 -0.019919153
0.022514796 0.04785314 -0.035612702 -0.04146465 -0.035354976 0.03493632 -0.050646003 0.0023400306
-0.05678388 -0.012106082 0.020359144 -0.03959872 0.0029935138 -0.035418432 -0.01674701 -0.07217403
0.03058049 -0.03974365 0.03155598 0.02410208 0.04239034 -0.0073320586 0.008806172 0.014288784
-0.033983793 0.042267643 -0.021834899 -0.0359008 -0.03134333 -0.010591103 -0.024515823 -0.02809873
-0.011615906 -0.024129396 -0.014235253 -0.0022531091 0.061249536 0.046162248 0.009493522 0.045490537
0.06785415 0.06786869 0.06263781 -0.018878842 0.010843557 0.019197501 0.056117263 0.0027465217
0.045693967 0.02655316 -0.03320528 0.041816827 -0.004541304 0.04668062 0.0027161618 0.0060561434
0.01825537 -0.016851032 0.05474252 -0.024964519 0.0057200585 -0.002585821 -0.047445614 0.025303427
0.021084728 -0.050654616 -0.028049294 -0.0030433382 -0.012386123 -0.016030928 -0.038604185 0.046020105
0.05427989 -0.027370475 -0.012547617 -0.019859124 -0.04175363 -0.025199367 0.04237594 0.015114165
0.03498331 -0.06029792 -0.049236447 -0.025880367 -0.023171293 -0.038010687 0.022191856 -0.021446386
-0.03993618 -0.0032804424 0.037927087 -0.0044061095 -0.06704738 0.0021588113 0.02438061 0.020285694
0.014061403 -0.031795852 -0.053557333 -0.0049344935 -0.007079668 -0.012324068 -0.0020115476 -0.03625787
-0.044735078 0.00779162 0.008350488 -0.0073698284 -0.045336574 0.021857563 0.03796227 0.050997596
-0.006630025 -0.005021018 0.062663704 0.049004596 0.01931879 0.042105816 0.04526518 0.022843385
0.05045964 0.00056875875 -0.023374174 -0.031739958 -0.009359899 0.057845272 -0.024770102 0.05118767
0.027650978 0.047095604 0.037256394 0.05757646 -0.019443491 -0.018691389 0.05274366 0.05036232
-0.006235426 0.024047961 -0.011565386 -0.03774513 -0.013428288 -0.02803093 -0.031899817 0.050172463
-0.0067175543 0.07403435 0.04452371 0.016438823 0.027575534 -0.017315593 0.05418292 -0.046333082
-0.008815267 -0.029118208 -0.057637688 0.031946633 -0.049234983 0.010537147 -0.058359053 -0.05344877
-0.019957067 -0.028678201 -0.078738034 0.00057899056 -0.024197234 -0.020535138 0.037372034 0.010980261
-0.041950174 0.036656603 -0.06410043 0.04008102 -0.010753822 0.0076845614 0.02316392 -0.025791638
0.05714389 0.048278973 0.0063690236 0.0067754895 -0.014832478 0.042658404 0.0058041904 0.03978191
0.033764273 -0.07474003 0.0062417304 -0.010052433 0.02763147 -0.018579643 0.031306747 0.012249785

module.fc1.bias f4 [120]
00000000: d4cf c03d 4d20 5bbc 0b81 36bd e455 cbbb
00000010: 5fa2 edbd cff7 97bd c70e a93c bc63 353d
00000020: f904 5ebd 100c b3bc d99b 59bc fe03 ca3c
00000030: 4156 b0bc 2669 1fbe baf7 143d 26b1 893d
00000040: 7136 493d d2c9 583d ea70 353c 6f31 e83b
00000050: 2043 053d 9194 47bb 94c7 6bbc 1550 e7bb
00000060: 2958 35bd 10dc 04bd b1c4 69bc 29f4 4d3d
00000070: 033b 093e 1e36 2b3d 1902 99bc 7458 9cbc
00000080: e738 873c f5a7 93bd d825 9e3c a4e3 d23d
00000090: b639 8f3d 9782 9f3c 374c 3a3d 2bfd c03d
000000a0: 9367 873d c65e 933d 6283 a5bd ac45 193d
000000b0: c9a4 a23d e6e5 183e 89de 903b 9b60 8a3d
000000c0: 56b9 cc3c 582a 3b3d 4b1d df3d 4ab0 3fbd
000000d0: 454d 5b3d 5902 64bd 267c a43d c07b 9abc
000000e0: 4648 80bd d52a 93bc 019b 293d ddb2 fb3c
000000f0: 3eb7 203e a4c9 71bd d84b 9d3d a774 bd3c
00000100: ae67 32bc 3a48 3ebd e02b bcbd 4c33 f3bd
00000110: b99b 3f3d fc21 6b3d 737d 853d 6bf7 29bd
00000120: ce81 d2bc 65d3 07bd 20a3 4b3c 40f6 49bd
00000130: 5dda d53a dfe2 963d b193 903d 746e 16bd
00000140: 6a92 2dbd 68d5 053d 8116 8cbc 85f8 5d3d
00000150: 968c 8d3d 3616 273e a870 853d 2e22 26bc
00000160: b54c 05be 0807 fd3d afc6 6dbc d5cc 683d
00000170: 26da 1f3d 88e9 bb3c 7dae 23bd 61d6 d93d
00000180: 8fda 313c f4f9 283d fce1 623d 90e9 3f3c
00000190: d23e 20bd cb73 43bd d35d b0bc 3717 f4bc
000001a0: 7fd1 d33d aff2 03be 4af3 2bbd e68f 3bbd
000001b0: 24a6 96bc d3ab 873d b813 ecbb 2c88 1abd
000001c0: 20d1 2dbc ef44 96bc a1b1 e83b 539c 763d
000001d0: 0ff5 73bd 0a1f 54bc a71d fd3c e65c 973d
0.0941464 -0.0133744 -0.04455666 -0.0062053073 -0.116032355 -0.074203126 0.02063693 0.044284567
-0.05420396 -0.021856338 -0.013281786 0.024660107 -0.021525504 -0.15567455 0.036369063 0.067232415
0.049124185 0.052926846 0.011074284 0.007085971 0.03253472 -0.0030453543 -0.014390845 -0.007059107
-0.04427353 -0.03243643 -0.014268086 0.050281677 0.13401417 0.041799657 -0.018677758 -0.019085146
0.016506625 -0.0720977 0.019305155 0.10297325 0.06993429 0.01947145 0.04548284 0.09423288
0.06611552 0.07195811 -0.080817 0.03741996 0.079415865 0.1493145 0.0044210595 0.06756707
0.024990719 0.04569468 0.10894259 -0.04679898 0.053540487 -0.0556663 0.08031492 -0.018857837
-0.06263785 -0.01796476 0.04140759 0.030724937 0.15694901 -0.05903019 0.07680482 0.023126913
-0.010888977 -0.0464556 -0.09188056 -0.118750185 0.046779368 0.057405457 0.06518068 -0.04149572
-0.025696661 -0.033160586 0.012429029 -0.049307108 0.0016315688 0.07367491 0.0705942 -0.03672643
-0.04237596 0.032674223 -0.017100574 0.054192085 0.0691158 0.16317067 0.06515628 -0.010139985
-0.13017543 0.12354857 -0.014512702 0.056835968 0.039026402 0.022938505 -0.039961327 0.10636593
0.010855331 0.041254 0.055391297 0.0117134005 -0.03912241 -0.04771785 -0.021529114 -0.029796226
0.103426926 -0.12885545 -0.041980065 -0.04579153 -0.018389769 0.0662457 -0.007204499 -0.03772752
-0.010608941 -0.018343417 0.007101253 0.060207676 -0.059559878 -0.012946853 0.030897928 0.07390766

module.fc2.weight f4 [84, 120]
00000000: fd85 95bd 4f4e 8b3c 120f ea37 357a 70bc
00000010: f7b8 c0bd 19c8 d0bc f33c c3bc 700e 6e3d
00000020: c2b5 a33d ebe1 4abd e8d5 893d a626 613d
00000030: e1f4 19bd 93c9 273d 23a4 0dbc d3e5 b9bc
00000040: 9f5a 993d bec9 453c d7de f63c a314 253d
00000050: b76d 88bd 115a b53d 5763 8c3d f9bd a83b
00000060: 564e c63d abe7 003d 775d 823d 72f5 cbbd
00000070: 5163 9f3c 97d0 a9bd 0b1f be3c 686f 903c
00000080: 7373 e3bc 217f 8f3d 8b1c cb3c 2508 2b3d
00000090: 82ef b23d 08e5 af3d 83d3 90bd 8c23 a4bd
000000a0: 967f 573d c961 373d 3f6d febc 03c9 bc3c
000000b0: e816 78bc cded 98bc ee25 fcbc 7be4 923d
000000c0: c972 19bd 2267 333c 1af8 663d f989 a2bb
000000d0: e7b0 bbbd 8f15 b8bd b032 953d c7cc 9e3d
000000e0: d2a9 8e3d d11e 62bd acb9 a9bc 6614 f1bc
000000f0: 01c7 6e3d d695 393d dfe4 a6bd 7908 2ebb
00000100: 9ec3 893d e7f6 d93d d184 833d dc8d 933d
00000110: c270 173a ea0d a93d 4c14 27bc bb70 1b3d
00000120: 6da6 5abc 958e 8b3d bbc4 763c 8f5b 953d
00000130: f18c 91bd 045b 3bbd 7cc7 84bd 83a5 2cbd
00000140: 3f94 2cba ee6d a3bd 7c35 613d 479e 973c
00000150: 4bbc b7bd dce3 473d b1cb b53d b6e5 46bb
00000160: e7cd dc3c ea5e e8ba 9e7f 1ebd e59e fcbb
00000170: eb8a a3bd b2a8 1abc 2553 2fbd 0a3c cdbd
00000180: 7aab 003c c732 2bbd 5110 61bd 2c00 333d
00000190: 0cdf 18bd be17 793d 4216 4ebd 7864 783d
000001a0: 155e c4bd 2f1c d7bc 3f26 9cbc 0c7f 923d
000001b0: a307 933d 5528 c2bc e31d a5bd 2224 b43b
000001c0: e267 02bd 9dcd 79bd aad8 343d f5fa 4f3d
000001d0: 8ce1 633d fef9 b03d f75a 72bc 9396 a5bd
000001e0: 6cdc bc3d 999f 793d 3005 743c 358d e0bd
000001f0: 5b65 0b3e 7b1a 81bd 82be 2e3d 6f6f 48bd
00000200: b1c3 8bbb 2f63 c1bc b709 f1bc 8f0b ad3d
00000210: 7fc4 62bd e47a 653d 0329 1e3d 8322 f33c
00000220: 8eef cbba 2a50 3ebc b6fe ad3c 702f 06bd
00000230: 26cd 77bd 5ea4 f73b 789d 80bc 4d3a 52bb
00000240: 7f93 d13a a967 afbd e848 dd3d 5887 77bd
00000250: 06b1 cc3d b310 1c3d faef a6bd 2ccb 8dbd
00000260: 70bf 893a ddd6 c63d 80db a83d 0156 58bd
00000270: e8e9 ae3d 59b5 e4bd 8900 1abd 1f46 f0bd
00000280: f9fd e83c 35de 883d fa07 a4bd 4758 103d
00000290: ef5d 023d 653b f839 0f7a b4bc 4378 eb3c
000002a0: 128b ee3b feb6 803d 2c1c d33c f1f7 b4bd
000002b0: cc17 b53c dac0 ca3d 2d92 24bd cbd1 6abd
000002c0: d228 ce3c 4a35 91bd cfc1 53bd 2bfa 2cbd
000002d0: 1c7b 743d 49d9 54bd fb14 bcbd e7ae 053d
000002e0: 17a0 31bd be8f 0d3c 4722 203e 6b35 a1bc
000002f0: 3d54 483d cfeb de3d 16e9 113d ba9a 7b3c
00000300: 003f 1abb c583 72bd 3642 813d 3326 56bb
00000310: c0cd 42bd d59b b63c 2ce3 0cbe f5b0 6b3a
00000320: dbf8 65bd 573f a0bd 86db 98bd b3df 19bd
00000330: 99a7 6a3d 5420 803d 28b3 f83a d701 023c
00000340: 4353 bf3c f27a 263e afba c43a 4599 dabd
00000350: 49be af3d a5f3 8b3d 6b8c c4bc a625 b4bd
00000360: 82fa bdbd 3a8b 933c e8f3 a6bd c414 f23d
00000370: 1a1f ac3d aaf6 4dbd 6793 91bd 2cc9 33bd
00000380: 0f02 f1bd f203 d03c 0635 7dbd 29a3 a9bd
00000390: 18e7 853c 5194 a4bd 87f9 0e3d ad5c 3438
000003a0: fe29 983d fcaf 9f3c 7aea 88bd 2345 9f3d
000003b0: 8c04 aabc 4324 103d 8e40 ea3c 5cc6 adbd
000003c0: bd88 e83c 9b64 b03d 2a03 e8bd 3740 493d
000003d0: 2891 bebc 64f2 26bd 6e4c d23d 912b 7b3d
000003e0: fb29 95bd de0b 9d3d 2887 9c3c 9450 d43c
000003f0: 871d e63c 00bd 9bbd ca9e 573c 843f 013e
-0.07300947 0.017005114 2.7901991e-05 -0.014677574 -0.09410279 -0.025486039 -0.023832774 0.058119237
0.07993652 -0.04953186 0.067302525 0.0549685 -0.03758705 0.04096372 -0.00864509 -0.022692597
0.07487988 0.012072025 0.030135555 0.040302884 -0.066615514 0.088550694 0.06854885 0.0051495996
0.0968291 0.031470936 0.06365483 -0.09958924 0.019456537 -0.082917385 0.023208162 0.017631248
-0.027765011 0.0700667 0.024793884 0.041755814 0.08737089 0.08588606 -0.07071593 -0.080145925
0.05261191 0.04477099 -0.031057952 0.023045069 -0.01514218 -0.01866808 -0.030779805 0.071724854
-0.037462983 0.010949882 0.05638895 -0.0049602953 -0.09164601 -0.08988487 0.072850585 0.07753902
0.069659844 -0.05520517 -0.020718418 -0.029428672 0.058295254 0.04530891 -0.081491224 -0.0026555343
0.06726764 0.10642796 0.06421817 0.07204792 0.0005776995 0.08254607 -0.01019771 0.037949305
-0.013345343 0.06814305 0.015061553 0.07292854 -0.071069606 -0.045741096 -0.06483361 -0.04215003
-0.00065833697 -0.07979952 0.054982647 0.01850809 -0.08971461 0.048801288 0.08876742 -0.003034932
0.02695365 -0.0017728482 -0.038695924 -0.0077093714 -0.07985481 -0.009439634 -0.042803902 -0.10021217
0.007853383 -0.041796472 -0.0549472 0.043701336 -0.03732209 0.060813658 -0.050314195 0.06064269
-0.09588257 -0.026258556 -0.019061206 0.071531385 0.07179191 -0.023700872 -0.08062341 0.0054974714
-0.03183735 -0.060987104 0.04415194 0.05077644 0.05563502 0.08641432 -0.0147921955 -0.080853604
0.0922173 0.06094322 0.014893815 -0.10964433 0.13612883 -0.06303879 0.04266215 -0.048934396
-0.0042652716 -0.023606865 -0.029423578 0.0844947 -0.055363175 0.0560254 0.03861333 0.029679542
-0.0015559064 -0.011615792 0.02123962 -0.032760084 -0.06049838 0.007557436 -0.015700087 -0.0032078207
0.0015989392 -0.085646935 0.108049214 -0.06043181 0.09994702 0.038101863 -0.08151241 -0.069235176
0.0010509323 0.09708951 0.08244991 -0.052816395 0.08540708 -0.11167402 -0.037598167 -0.117321245
0.028441416 0.06683008 -0.08009334 0.035240438 0.031827863 0.00047346498 -0.022030858 0.028743869
0.007279762 0.06284903 0.02577027 -0.088363536 0.022106074 0.09900065 -0.040178467 -0.05732898
0.025165949 -0.07090242 -0.051698502 -0.042230766 0.05968772 -0.05196503 -0.09183689 0.032637503
-0.043365564 0.008640228 0.15638076 -0.019678792 0.04890846 0.10884821 0.03562268 0.015356714
-0.0023536086 -0.059207696 0.06311457 -0.0032676577 -0.0475595 0.022291103 -0.13758534 0.0008990907
-0.05614553 -0.07824581 -0.07463746 -0.03756685 0.05728874 0.06256166 0.0018974291 0.007935009
0.023355132 0.16257837 0.0015009249 -0.10673765 0.08581216 0.06833581 -0.023992738 -0.08796243
-0.09276296 0.018010724 -0.0815199 0.11820367 0.0840437 -0.050284065 -0.07108193 -0.043893024
-0.11767971 0.025392506 -0.061818145 -0.082830735 0.016345546 -0.080361016 0.034905937 4.3001655e-05
0.074298844 0.019493096 -0.06685348 0.07776859 -0.020754121 0.035190832 0.028595235 -0.084851
0.028385514 0.08612939 -0.113287285 0.049133506 -0.023262575 -0.040758505 0.10268484 0.061320845
-0.07283398 0.07668279 0.019107416 0.025917329 0.028090252 -0.07604408 0.013160417 0.12621886

module.fc2.bias f4 [84]
00000000: 051b cdbd f9a3 a3bc 8261 293e 6b3b 56bd
00000010: 8589 1bbd 3a2b 433e fc85 52bd c397 c4bd
00000020: 87ae a9bb 3a9e 1c3e cd49 a53e 8287 8bba
00000030: 916e 9fbd 7d7b 2cbd 8d7e 41bc 9374 9dbd
00000040: 763c 9b3c 2baa 853e 3e2b 923d 80b8 b4bc
00000050: 1a96 45bd a689 8d3b 8b48 123e 479a ad3c
00000060: d69b 673d ff5d a2bd 21f3 273e f4c8 523d
00000070: d433 fb3c 0793 953d fc56 0dbd fd25 a5bc
00000080: 81ce adbd ff03 4ebe 5249 4dbe f398 9ebd
00000090: e0b4 c23d 183e 103e 5e7a 823c b716 a4bd
000000a0: ac99 1a3d 746f 973d 2549 743e 1b1c aebd
000000b0: e369 853c 9ebc 8e3d ee3d 73bd e77f 3c3c
000000c0: 60b8 92bd 533b 3dbd a9a5 0c3e bc29 03bb
000000d0: 8412 243e 0921 783d e18f 923d 4fd7 bfbd
000000e0: 45b0 3d3e 12ae c63d 5bc3 a53d 9292 b3bd
000000f0: 1eb1 a4bd bc1a 22be 1505 453d 17ef 96bd
00000100: 89bd 82bd 50e0 86bc ec72 a8bd b59f 87ba
00000110: 5817 bdbd d47e 263d 3189 683d 9f70 633d
00000120: acb4 73bd c49b ac3d d971 bfbc 9b57 94bd
00000130: d9ad dd3d e05d 1a3e d7b4 acba 1766 8f3d
00000140: f9f1 e63c 4118 c23c 66d9 863e f003 c0bc
-0.10014919 -0.01997565 0.16541103 -0.05230276 -0.037972946 0.19059458 -0.05139731 -0.09599259
-0.005178276 0.15294734 0.32282868 -0.0010645243 -0.07784761 -0.042109955 -0.011809957 -0.076882504
0.018949728 0.2610639 0.07137154 -0.022060633 -0.04823885 0.0043193875 0.14285485 0.02119173
0.0565451 -0.079280846 0.1640134 0.051461175 0.030664362 0.07303434 -0.034506783 -0.020159716
-0.08486653 -0.20118712 -0.200475 -0.077440165 0.095071554 0.14086187 0.01592749 -0.08012145
0.03774421 0.07394305 0.23856027 -0.085014544 0.016285842 0.069695696 -0.059385233 0.011505104
-0.07164073 -0.046199154 0.1373507 -0.002001389 0.16022688 0.06057838 0.07156349 -0.09367239
0.18524273 0.0970117 0.08093902 -0.087681904 -0.08041595 -0.15830511 0.04810055 -0.073698215
-0.06383807 -0.016464382 -0.082250446 -0.0010347279 -0.09232968 0.040648296 0.05677146 0.055527326
-0.059498474 0.084281474 -0.023369716 -0.07243272 0.108241744 0.15074873 -0.0013176453 0.07001894
0.028191553 0.023693206 0.26337737 -0.023439378

module.fc3.weight f4 [10, 84]
00000000: 6837 34bc 602a fc3d 91d1 77be f82d 88bd
00000010: b09a 10bc 2c6d 9c3b 33c6 ecbd 77d6 a2bd
00000020: 1dee df3a 9d48 9e3c 10a4 fdbd 35ea 913d
00000030: a545 40be d6fd f23d 2b3b 933d b52a e4bd
00000040: 1780 383e ed66 b83d 8263 3abe 8c50 1d3d
00000050: 0d98 543d 9c19 c83c 632f 0bbd 57ea 083e
00000060: a285 9e3c 8fcb 933c 71a3 843d 7530 1b3e
00000070: 691e a13d 8b8c 083e 3941 b03d 437a d5bd
00000080: 6bfd 183e 9510 c53d 5490 9e3d 02d3 83bd
00000090: dc44 bc3d 3787 f13d e86c 97bd 1194 8cbd
000000a0: c84a ab3c 072f 6c3e e9b0 293b dba0 66bd
000000b0: 4db6 fcbd c22b cebd 4a43 afbd 4c72 c1bc
000000c0: 439e 1b3d bf79 c9bd 6757 d8bd 2b0c 843d
000000d0: 78c8 603e d211 4dbd d1cb 9ebd 34e0 d0bc
000000e0: dc12 29be bf1c 1a3e dbbd 27be e2a4 22bd
000000f0: 0665 aabd d37f f43c d392 483d 35f5 4d3d
00000100: 2929 cbbc fcfc f9bc 2659 fabd 020b 0dbd
00000110: 2c4a 903c 1f15 cbbc 7de1 a9bc d85d 853d
00000120: a4d1 b4bd cf82 8bbd 7b0b e13d a69c df3c
00000130: 3c8e adbd 1ec5 30be 4145 053d c3cf 1e3e
00000140: deff 18bd 1730 663b 1b63 8b3e b737 87bd
00000150: 34b0 cf3d 8154 d93d c27d a3be f387 e83c
00000160: f4d3 703a 308e a939 5ac4 fc3d be63 be3d
00000170: 7703 8c3d 3549 773d 5f17 0ebe 82ad 493e
00000180: a4df 453e 772f e83b 3930 063e 8aa4 e9bd
00000190: 676c 2abe 437b 3bbe d036 06be 2164 df3e
000001a0: 2ba4 023e b153 1d3e e428 3abe 9cde acbd
000001b0: 31cc fabd 0f7a 593e f9ca 4bbe e9bc 43be
000001c0: e345 543c 6fef b5bc 3d44 b0bc fdf8 95bc
000001d0: 4ddd eebc c148 433e 96fc 9e3e cca3 6e3d
000001e0: db9a eebd 342a aebd 9b88 ec3c cacb af3c
000001f0: d0f4 a73c f489 d2bd ceba c6bd f23b a33d
00000200: ca09 b1bd bda7 d63c 6e87 d5bd 5e0d 0f3e
00000210: e21c 523c a1c5 433c dc97 0fbe 5d81 ef3c
00000220: fe40 9c3c 4a99 07be 60b4 7a3b 1562 73bd
00000230: 3ab5 48be 3ccd b9bd db66 e1bd c3dd d2bd
00000240: 350d a83d 5028 34bd e65f 933d 738f 1a3e
00000250: 5882 393e 8ebe 03bd 58fe f43d a4cd 36ba
00000260: c421 3bbd 64a9 44bd 085c 8e3d 302c fe3c
00000270: 6924 d63d 2a9d 1ebe afbb 013d 0d6e 0cbe
00000280: ef04 5fbd 4fdf 7abd 6ea6 a6bd 45b6 40be
00000290: 2b80 d7bd e61a 8e3d c42d fdbd 10cd 8c3b
000002a0: 5e83 bd3d 0c7c 863d 9bc0 ff3d c30c a3bd
000002b0: 35cf a5bd 81ac 08be 10ad 87bd 61fc ea3d
000002c0: 9660 02bd cec8 bbbc 02b6 4d3e 77e3 c63b
000002d0: 9bbd 6fbd 5806 b8bc f9f0 733d 19ca 18be
000002e0: 70fb 683d 979d 943e 777e 303d 0f82 32be
000002f0: 0b6e 3bbd 01c9 50be ea9b d33d bf1b e73d
00000300: 6b4e ddbb a62e 25be 9d03 0c3e 3dd5 79bd
00000310: 205a e0bc f2bb febc b586 21bd a492 eabd
00000320: a7df 40bd 5621 f0bd d47d a6bd b3c6 52bd
00000330: 068d c93d 6206 a93d 265a 8fbd f455 c4bc
00000340: 04c9 9139 2a66 48bd 459e 943d ba70 a0bd
00000350: c19f 243e 691b 4bbe 39cc 413d 7d98 f9bd
00000360: 22bd bdbb 0b48 64bd 18ad 8a3d 5133 d93d
00000370: 9cf9 043e c5e0 93bc eed1 273e a6ba d6bc
00000380: cade 863d 6430 4d3e 533d bebc 58b7 c13b
00000390: c6e3 33bd 3776 2c3e f4e4 763d dbe0 8b3c
000003a0: 2d29 a1bc 7ae7 a33d 26a3 14bd a31d eabd
000003b0: 3d6d e5bd ef4f e9bb a8bb 4cbd 1cb2 823e
000003c0: 869a 0dbe 5079 e63c 7a14 c3bb a736 e33c
000003d0: ea30 0b3e be7a 383d 9db3 f7bb 88d0 0d3e
000003e0: 0f89 1f3d 257b b03d 85a2 e33c 03ea c83d
000003f0: 8cb4 8ebd 4517 083d dd2e 3e3e 1c9d c43c
-0.010999538 0.1231277 -0.24201037 -0.06649393 -0.008825943 0.0047737565 -0.11561241 -0.07951062
0.0017084513 0.019321734 -0.12384808 0.071247496 -0.18776567 0.118648216 0.0718902 -0.11140958
0.18017612 0.090040065 -0.18202022 0.038406894 0.05190282 0.024426274 -0.03398074 0.13370644
0.01935083 0.0180414 0.064764865 0.15155204 0.078671284 0.13334863 0.0860619 -0.1042371
0.14940421 0.096223034 0.07742372 -0.06436731 0.091928214 0.11793368 -0.07393819 -0.06864179
0.020909682 0.23064815 0.00258928 -0.056305747 -0.123394586 -0.1006694 -0.08557756 -0.023614071
0.037992727 -0.09837674 -0.10563546 0.06447633 0.21951473 -0.050065823 -0.07753719 -0.025497533
-0.165111 0.15050028 -0.16381018 -0.039708026 -0.0832005 0.029846108 0.048968147 0.050282676
-0.0247999 -0.03051614 -0.12224035 -0.034434326 0.017613493 -0.024790345 -0.020737404 0.0651204
-0.08829048 -0.06812059 0.10988518 0.027296375 -0.08474395 -0.17262694 0.03253675 0.15508942
-0.03735339 0.0035123879 0.2722405 -0.06602424 0.1014103 0.10611821 -0.31931883 0.028385138
0.0009186857 0.0003234013 0.123421386 0.09296368 0.06836598 0.06037255 -0.13876103 0.19695094
0.19323593 0.0070857364 0.13104333 -0.114083365 -0.16642915 -0.1830874 -0.13106847 0.4363108
0.12757938 0.15363957 -0.18179661 -0.08440897 -0.12245978 0.21237968 -0.19901647 -0.19115032
0.012956115 -0.022208897 -0.021516914 -0.018307203 -0.029158259 0.19070722 0.31052083 0.058261678
-0.1165063 -0.08504143 0.028873732 0.021459479 0.020502478 -0.10280219 -0.09703599 0.07970418
-0.08644445 0.02620303 -0.10426222 0.13969943 0.012824269 0.011948974 -0.14022774 0.02923649
0.01907396 -0.13242069 0.0038254485 -0.05941971 -0.19600382 -0.090723485 -0.11005946 -0.10296204
0.08205644 -0.043983757 0.071960256 0.15093784 0.18116128 -0.03216415 0.11962575 -0.0006973392
-0.0456865 -0.048013106 0.06951147 0.03102693 0.104561634 -0.15489641 0.03167313 -0.13713856
-0.054448064 -0.06124812 -0.08137213 -0.1881953 -0.10522493 0.06938724 -0.12362245 0.0042969063
0.09253572 0.06566629 0.124879085 -0.079614185 -0.08096162 -0.13347055 -0.06624806 0.11473919
-0.031830393 -0.0229229 0.20088962 0.0060695964 -0.05853043 -0.022463962 0.05955598 -0.14920844
0.056880414 0.29026482 0.043089356 -0.17432426 -0.045759242 -0.20389177 0.103324726 0.11284589
-0.006753733 -0.16131076 0.13673253 -0.060994375 -0.027386725 -0.031095479 -0.039435107 -0.11453751
-0.04708829 -0.11725108 -0.081294686 -0.051459026 0.09841351 0.082531705 -0.06999616 -0.023966767
0.00027806323 -0.048925556 0.0725675 -0.07834001 0.16076566 -0.19834675 0.047313903 -0.12187288
-0.0057903687 -0.055732768 0.06771296 0.10605491 0.12985843 -0.018051514 0.16388676 -0.026212048
0.065854624 0.20037991 -0.023222601 0.005911749 -0.043918394 0.1684197 0.06027694 0.017074993
-0.019672954 0.08003135 -0.036288403 -0.11431434 -0.11202476 -0.0071201245 -0.04998365 0.25526512
-0.13828477 0.028134018 -0.0059533687 0.027736021 0.13592878 0.04503893 -0.0075592534 0.1384908
0.03894907 0.08617238 0.027787456 0.09810259 -0.0696803 0.033225317 0.18572564 0.024000697

module.fc3.bias f4 [10]
00000000: 9548 89bc e73d d8be 1894 533e 3757 dd3d
00000010: 2325 9b3e d99e 59be 96d5 903d 0fa5 d5be
00000020: c787 cb3e 8397 c1be
-0.016758243 -0.42234728 0.20661962 0.108076505 0.3030177 -0.21252002 0.07071988 -0.41727492
0.39752027 -0.37810907
