models/classifier_net_epoch_6_2000.pth (torch_old, 249853 bytes, 10 tensors)

module.conv1.weight f4 [6, 3, 5, 5]
00000000: 1318 963d 42f6 b13e bb3b ce3e f0c1 0a3f
00000010: a37b 7e3e 3e66 e83d 795f 84be 8b75 033e
00000020: ed5f 623f 7f45 e03d 9613 8f3e d84b 89be
00000030: 9fc7 7bbf 8e6a 493f c96b 943e 05c5 743d
00000040: a340 4e3d 4662 58bf 7dc1 603d d84b eebd
00000050: 3c2c 19be 6922 82bb d51b 16bf 327d 063e
00000060: 72cb 94be f8f0 7abd 277a b6be 2692 17bf
00000070: 7cee 54be 3717 e7be f733 dc3e aa62 1dbf
00000080: bf78 30bf 5f89 b13e 39b3 73be 6947 403f
00000090: 7e13 8cbe f025 9fbf 5e7e 213f 123a 2b3e
000000a0: f39f 093f 55c5 b13e 0b45 78bf 99e8 693e
000000b0: 1b84 21be 6a8a 053f 2c61 3f3e 68d2 98be
000000c0: cf49 043f 1bbc 07bd cc87 c2bd 0812 f5bc
000000d0: 370c a8bc 2e2d 423e 644d 4ebe c030 a03e
000000e0: efa8 c9be c3ba 85be d028 1b3f 35bd f7be
000000f0: bf85 243f c5d1 5ebe cd5b 62bf b963 1b3f
00000100: 77a2 10be 87fc 073f 6097 f93e 2bc1 2fbf
00000110: 229a 1c3e ea7d 94be 58cb c13e a572 b33e
00000120: 26af 7abe bea9 7e3e 0515 a1be 3ff6 27be
00000130: c475 7b3e 887a 453e 1c2d 563e 6e06 723d
00000140: 6ee4 85bd 6199 023f 13e8 193e 042d c6bd
00000150: a8f1 b5bd 895b 643e a7ad 81bd e7ba 10bf
00000160: aa16 ebbe f811 4bbe dd8a 3dbe 099b 30bf
00000170: 4ef9 15bf 1d93 d4bd a954 9e3d caaf e0bd
00000180: 7ffe a13d d24b 963e 8e8d 073f ab9d 8f3e
00000190: 3265 dcbe 62a8 03bd ad5a b6bd a949 bbbd
000001a0: 29aa 56be 4357 c6bb d051 d03e 995d 49bd
000001b0: d9d8 51be 7025 92be 967e ca3e 3680 603d
000001c0: af65 efbe 72fc ffbe eb3c 21be 71b7 4ebd
000001d0: 5ce9 ffbe afa9 efbe 8b68 d2bd 8224 523d
000001e0: 7526 15bc 6ad0 dbbd ee8b 633e 59e5 c03e
000001f0: 449d 2f3e 5183 43be 3fee cb3d 2fb1 3b3d
00000200: 9738 813e f12b 373d 6c3c fe3d 6167 0c3f
00000210: e270 df3e def0 af3d 72d8 8cbd e701 f13e
00000220: d71a a93e abf7 47be 01c6 c8be 7d9f cbbd
00000230: 93c6 f63d ff11 f6be 9b7c d8be a825 3abe
00000240: 23fa e23d 2768 29bc afcf e5bd ff49 9e3e
00000250: b581 413e 68da 6bbd b892 5f3b 558e d4bd
00000260: 85ab 35be 8353 12bd d125 71bd bc44 063e
00000270: a3e5 a83e c109 3c3e eb4b 363e 2548 be3d
00000280: 1813 27be 4cb1 8abd 4ee8 593d d815 0abd
00000290: 46f9 b03c a910 d1be 1604 c4be a40a d9be
000002a0: bbe3 01bf 47f6 d2be 0bc4 fbbd e9fd 8cbe
000002b0: be31 85be dae3 9cbe a99e 66be 8c2a a4be
000002c0: 0e50 acbe 78c7 58be 14a4 62be 8532 8dbe
000002d0: 6a5a 8b3e 145e b93e 4102 f13e 3bb2 953e
000002e0: b326 7f3e f9f1 93bc b154 9c3b b7e4 003e
000002f0: 4ba1 f13d 147c 173e fa67 92be ec75 c6be
00000300: f056 91be 3c8f 89be 607d 5abe 5508 a4bc
00000310: 5026 02be 4cd3 a9bd 1cec 7a3b 0ed2 7f3c
00000320: 376d 5cbe ae55 80bb acf9 7abd 2d60 0fbe
00000330: 14a3 86be 3e40 c23e 62d2 b53e ccb5 1c3f
00000340: 7ef6 0c3f 4f7d ae3e 0129 173e dded 8d3e
00000350: 13ad 993e a3dd cf3e 1b45 853e 19e9 9b3d
00000360: 96bf 3b3e 37a8 7d3d 62f7 bd3d a0cb 083e
00000370: 2cf2 1c3e 6187 3a3e 0fe5 3c3e 9988 913e
00000380: 4dfe 433e 92ff 2e3e 3169 9b3e 7516 5abe
00000390: d75b e93c 8acc 28be 632e a63e 8d4f 4bbe
000003a0: f249 e3be a004 323e 5f58 383d 8556 9a3e
000003b0: 1b50 c5be e6bf d7be 6661 fc3e b5ae e0bc
000003c0: 9b5d 04be ff4b 11bf 13b0 d4bd 8581 e33e
000003d0: 44cc eb3d 8e56 e2bc dafd 91be 7431 0d3e
000003e0: d656 d73e fe90 3ebd 4da3 f23d c81a d23d
000003f0: 2265 8cbe 168d 063e 1af2 523d 9bdf 4e3e
0.073288105 0.34758192 0.40279946 0.54202175 0.24851851 0.11347626 -0.2585409 0.12837808
0.8842762 0.10950755 0.2794463 -0.26815677 -0.9835147 0.78678215 0.28988484 0.059758205
0.05035461 -0.84524953 0.054872025 -0.1163556 -0.1495828 -0.003971387 -0.5863622 0.13133696
-0.29061466 -0.061264962 -0.3564007 -0.5920738 -0.207941 -0.451349 0.43008396 -0.61478674
-0.68934244 0.34675118 -0.23798837 0.75108963 -0.2735862 -1.2433453 0.63083446 0.16721371
0.5375969 0.34720865 -0.9698035 0.22842635 -0.1577305 0.5216433 0.18689412 -0.29848027
0.5167512 -0.033138376 -0.094985574 -0.029915825 -0.020513637 0.18962547 -0.2014671 0.31287193
-0.393867 -0.2611905 0.6060915 -0.4838654 0.6426658 -0.21759708 -0.88421327 0.6069904
-0.14124475 0.531197 0.48748302 -0.68654126 0.15293172 -0.29002315 0.3785045 0.35048404
-0.24480876 0.24869439 -0.3146135 -0.16402529 0.24556643 0.19285023 0.20915645 0.059088163
-0.0653771 0.5101529 0.15029936 -0.09676555 -0.08883983 0.22300543 -0.0633195 -0.5653519
-0.4591573 -0.19831073 -0.18510003 -0.68986565 -0.58583534 -0.10379622 0.077309914 -0.10971029
0.079098694 0.2935472 0.5295037 0.2804998 -0.43045956 -0.032143004 -0.08904014 -0.09144909
-0.20963348 -0.006052883 0.40687418 -0.049161527 -0.20492877 -0.28544188 0.39549702 0.05480977
-0.46757266 -0.49997288 -0.15745895 -0.050467912 -0.49982727 -0.46809146 -0.10273846 0.051304348
-0.009103407 -0.10733111 0.22221348 0.37674978 0.17149836 -0.19093062 0.09957551 0.045823272
0.25238487 0.04471964 0.12413868 0.54845244 0.4364081 0.08590864 -0.06877221 0.47071764
0.3302829 -0.19528072 -0.39213565 -0.09942529 0.12049594 -0.48060605 -0.42282566 -0.18178427
0.11082866 -0.010339773 -0.11221253 0.3091583 0.18897136 -0.057581335 0.003411455 -0.1037871
-0.17741211 -0.035724174 -0.058873955 0.13112158 0.329877 0.18363096 0.17802398 0.09291104
-0.16315877 -0.06772098 0.05320006 -0.033712238 0.021603238 -0.40833023 -0.38284367 -0.4239093
-0.50738114 -0.4120352 -0.122932516 -0.27537468 -0.26014513 -0.30642587 -0.22521462 -0.3206371
-0.33654827 -0.21169841 -0.22132903 -0.27577606 0.27217418 0.36204588 0.47072032 0.29237542
0.24917106 -0.018059717 0.004770838 0.12587248 0.11798342 0.14793426 -0.28594953 -0.38761842
-0.2838664 -0.26867092 -0.2133689 -0.020023504 -0.12709928 -0.08292255 0.0038287705 0.015614046
-0.21526037 -0.003916464 -0.061273262 -0.14001532 -0.26296294 0.37939638 0.35512072 0.612149
0.5506362 0.34079978 0.14761735 0.27720538 0.30014858 0.40598783 0.26029286 0.07612819
0.18334803 0.061928 0.092757 0.13358927 0.15326756 0.18215705 0.18446754 0.28424528
0.19139977 0.1708968 0.30353692 -0.21297629 0.028486175 -0.16484275 0.32457265 -0.19854565
-0.44392353 0.17384577 0.045006152 0.30144134 -0.38537678 -0.42138594 0.4929306 -0.027427057
-0.12926333 -0.56756586 -0.10385146 0.44434753 0.1151357 -0.027629163 -0.28513986 0.13788396
0.42058438 -0.046524994 0.118475534 0.10259014 -0.27420908 0.13139758 0.051500417 0.20202486

module.conv1.bias f4 [6]
00000000: d367 8ebe e84b 26bf db46 ecba 2d5b 44be
00000010: 28a9 94bd 44b3 92be
-0.27813587 -0.64959574 -0.0018026488 -0.19175406 -0.072588265 -0.28652394

module.conv2.weight f4 [16, 6, 5, 5]
00000000: d6bf b93e b350 abbd 69e1 f43e 0f86 023c
00000010: 8154 f9bd 72d5 2c3e 399c bebd 4357 673e
00000020: e29e 973e 5bd9 4cbc dedc 373e 07e2 b9bd
00000030: 2a54 3d3d a475 883e 2910 90bd ff6a 5cbd
00000040: c34d bb3d 6791 3a3d 406c 083e e071 f03d
00000050: f9f2 ffbd 33f6 babd 1e60 06be c7d6 28be
00000060: 2ebd ef3a 53a8 82bd 21fa 183e 0ed4 213e
00000070: 4aad 6a3b 59d0 4dbd 18f7 69be db6a 00bc
00000080: 0573 9d3d ea74 933c efa3 843c 1bc5 94be
00000090: 6296 3dbd 867a 0e3e edf8 d23d 6751 ff3d
000000a0: 58e2 99be a570 90be a6ce 87bd 12f7 b93d
000000b0: 9ec3 b43d a31e 8bbe ac72 c5bd 4a0f 07be
000000c0: ae49 5cbd 67bb 303d c711 89bd eb02 b4bd
000000d0: 3122 34bd 4798 963d 3c65 a23d e7e1 93be
000000e0: a29f 42be dceb 0abe 6721 8dbd 544e cdbd
000000f0: 9bad b0be 2155 93be 28fa 90be 73fa 39be
00000100: d757 c2bd 185c 51be c3df b8bd 9595 f5bc
00000110: 68f1 ecbd d98b 943d abde 35be c8c3 c0bd
00000120: c35a 80bd ce10 003d 611c 31bd 3699 d43e
00000130: 7b36 133e 9bbe b8bb 7f22 f03e fa94 043d
00000140: b0df e33b fdda 413d a234 20be 9168 5e3e
00000150: 77ab 3c3e 26fa a3bd 6818 b73d f1c8 60be
00000160: 510b f8bd b8cf 9a3e 062f 86be b620 7a3d
00000170: 4e97 0abe d208 28be 98b9 ad3d 59da a2be
00000180: 548c 08bd 59fb 19be 018f 26be 5237 7abe
00000190: 78a6 89bd 9fca d2bd 944b 70be 03bc 2ebc
000001a0: 729c 3b3d bc5c 95bd c488 7abd 0e4d 02be
000001b0: b48a cfbd 23cb 08be 4f7b 4ebd ac4c 06bd
000001c0: 1707 d33c e10d 903b 2511 4ebd b51c 90bd
000001d0: 5e30 87bc 82f0 393c 701e f53c 4cb1 12bd
000001e0: fabb cabd a166 8fbc 255a 593c adaf 1b3e
000001f0: 6753 bb3d 9329 4cbe ec81 583c a34b 1fbe
00000200: ea7d 14bd 2c34 59bb 6582 aabd 733b c0bd
00000210: 8643 b5bd 7ea7 24bd 0ef0 073c a238 6c3d
00000220: feb0 8abc 7033 6ebe a531 4ebe 3bd0 87bd
00000230: 0f96 02be e767 0f3e 5353 03be 432b 47be
00000240: 4ced 62be ac07 083d e0a1 3b3d 4759 793b
00000250: dd1a 13bd 1d7b 03be 68d2 f2bd 1325 75bd
00000260: 765c 8d3c 1ee8 80bd 9160 e53c 2f3f 9dbd
00000270: f661 6b3d fc41 19bd cf20 303d a491 1f3e
00000280: 4c40 dc3e adc1 0bbe a038 38be 807a 503d
00000290: c489 bd3c 5d4d 103f e77c 283f 115f 2cbd
000002a0: e3d9 63be bf0f 60be d8b5 b4be 3b07 abbb
000002b0: be80 a43e 0586 703e 161f 1e3e a837 66bd
000002c0: 6ae3 65be b511 f4bc ca0f 7dbd b925 4abd
000002d0: 04cf 393c 85b1 34be fc70 6dbe 4b97 14be
000002e0: 4595 273e 8c5a 943d 2360 03bd edc3 b2be
000002f0: 4250 f7bd 6cf6 b93d 5063 833e ca6c e63d
00000300: 457d 823d bced 63bd 3bd7 dfbb 354d 573c
00000310: 5693 5d3e c23c 4f3e 2fa3 973e fbab 0e3e
00000320: dce0 8e3d 5570 0b3e f274 573d 0e22 f3bc
00000330: 9d2c 823d f51f 993c 75d0 e03d d970 143e
00000340: 7aac 383d d347 fdbc 054d d6bc 5c48 5a3e
00000350: b686 c03d 46c0 4f3d 013d 01be 1c06 1bbf
00000360: f704 1a3d 428e bd3e c02e 413e b026 c2be
00000370: a03a 85be 6618 b8be 9763 4cbc 92f3 123e
00000380: c7d0 973e e019 bcbc 99ba 45be 2242 b8bd
00000390: b4d4 e73c 8559 3a3e 0daf 843d e330 11bd
000003a0: 7a2f 0dbd 7a9b 3d3d 2368 a2bd 6a8a aebd
000003b0: 9216 1f3e 6f41 3dbd bdc2 a8bd 926a 12be
000003c0: 91c7 90be 395e 15be 22b8 2d3e ddad 423e
000003d0: d379 a33e 8fc9 9fbe a30c 0ebf 5aae dbbe
000003e0: d6ce 12be 1cdd babd cee4 c8bd 1178 a3bd
000003f0: fa1d bbbd 5937 c03d 24f7 ee3d f6a8 01be
0.36279172 -0.083650015 0.47828224 0.007966532 -0.12174321 0.16878298 -0.09307141 0.22591881
0.29613405 -0.012502993 0.17955348 -0.090763144 0.046222843 0.26652253 -0.07034332 -0.053812977
0.09145691 0.045548823 0.13322544 0.1174047 -0.12497515 -0.0912899 -0.13122603 -0.16488181
0.0018290633 -0.063797615 0.14939167 0.15803549 0.0035808855 -0.050247524 -0.22848165 -0.007837976
0.07687954 0.018000085 0.01619145 -0.2905663 -0.046285994 0.13913926 0.10301385 0.12466698
-0.300555 -0.2821094 -0.06631212 0.09080328 0.088263735 -0.2717181 -0.096410125 -0.13189426
-0.053781204 0.04314747 -0.06692844 -0.08789619 -0.04397792 0.07353263 0.07929465 -0.28883287
-0.19006208 -0.13566536 -0.068911366 -0.100247055 -0.3450745 -0.28775886 -0.28315854 -0.18161945
-0.0948941 -0.20445287 -0.09027054 -0.029978553 -0.11569482 0.07253236 -0.17760722 -0.09412342
-0.062673114 0.031266026 -0.043239955 0.4152314 0.14376251 -0.0056379563 0.46901318 0.032368638
0.006954156 0.047327984 -0.15645078 0.21719576 0.18424784 -0.080066964 0.08940202 -0.21951653
-0.121115334 0.30236602 -0.2620775 0.06106635 -0.1353428 -0.16409615 0.08482665 -0.3180721
-0.033336952 -0.15037288 -0.16265489 -0.24435166 -0.067212045 -0.10292553 -0.23466331 -0.010664943
0.045803495 -0.07293078 -0.061165586 -0.12724707 -0.101338774 -0.1335874 -0.050410565 -0.032787964
0.025760217 0.0043961857 -0.05030932 -0.070367254 -0.016502555 0.011348845 0.02992174 -0.035813615
-0.09899135 -0.017504992 0.013266121 0.15203734 0.09146767 -0.19937734 0.01321457 -0.15556197
-0.036252894 -0.003314267 -0.08325652 -0.09386339 -0.0885077 -0.040198795 0.00829698 0.057671197
-0.0169301 -0.2326181 -0.20136125 -0.06631514 -0.12752555 0.1400448 -0.12824754 -0.19450097
-0.22160834 0.03321044 0.045808673 0.0038047598 -0.03591429 -0.12839933 -0.11856538 -0.05984981
0.017256003 -0.06294273 0.028000148 -0.07678067 0.05746647 -0.037416443 0.04300004 0.15582901
0.43017805 -0.136481 -0.1799035 0.050898075 0.02313698 0.56368047 0.65815586 -0.04208285
-0.22251086 -0.21881007 -0.35294986 -0.005219368 0.32129472 0.23488624 0.15441546 -0.05620542
-0.22450033 -0.0297936 -0.061782636 -0.04935238 0.01134086 -0.17645843 -0.23187631 -0.14510839
0.16365536 0.07243833 -0.032074105 -0.34915105 -0.12075855 0.09080204 0.25661707 0.112512186
0.063715495 -0.055646643 -0.0068310774 0.013140966 0.21638235 0.20238021 0.29616687 0.13932793
0.06976482 0.1361707 0.052601762 -0.029679324 0.063561656 0.018691996 0.1097726 0.14496173
0.04508636 -0.030918038 -0.026159773 0.21316665 0.09400694 0.050720476 -0.12620927 -0.605562
0.03760239 0.37022597 0.1886549 -0.3792014 -0.2602129 -0.35956115 -0.012474916 0.14350727
0.29651472 -0.022961557 -0.19309463 -0.08996989 0.028299667 0.18198211 0.06478701 -0.035447013
-0.034469105 0.046290852 -0.07930019 -0.08522494 0.15535954 -0.04620498 -0.082402684 -0.14298466
-0.28277257 -0.14586724 0.16964772 0.19011636 0.31928882 -0.31208465 -0.5548803 -0.42906457
-0.14336714 -0.091242045 -0.09809266 -0.07981885 -0.09136577 0.09385557 0.11668232 -0.1266211

module.conv2.bias f4 [16]
00000000: 1260 723e 85a9 b2bf c58e 6abf aa5a 7cbd
00000010: 345a 4e3f e103 7a3e 74e6 153e b800 843f
00000020: 3622 6cbe 6c80 8bbe be64 4cbf c9af ad3f
00000030: 6352 a73e 035f 11bf 5cbc c13d 9af6 083f
0.2366946 -1.3957983 -0.916241 -0.0616099 0.8060639 0.24415542 0.14638692 1.0312719
-0.23059925 -0.27246416 -0.7984122 1.356927 0.32680044 -0.567856 0.09459755 0.53501284

module.fc1.weight f4 [120, 400]
00000000: 719a c9bc 721d 5dbc 9a38 5dbd 524f 58bb
00000010: 4c9d 91bd 4389 cc3d 4244 453d 9350 443c
00000020: 6278 853c bbec 593b 1dc5 2bbb 28b5 cdba
00000030: c5ac 1cbd 2bf9 173d 78db 6b3d 60ac cf3c
00000040: 923b 03bd a796 27be ba12 83bc 07e7 86bc
00000050: 21be 093c c1cc 1f3c a8dd 7fbd cea9 82bd
00000060: 1879 2f3d 37d4 b33d 9d59 223d 7dbe 903d
00000070: 93ab cd3d 21e8 f53d 08f6 fc3c f66f 84bc
00000080: 339b 6a3d 0eb6 8f3d 371c d93d dff6 723e
00000090: f277 b93b 9a34 f4bc 7c2d 423c 638b 4dbc
000000a0: 4a38 29bd ea4b 43bd b28b 43be aa9e 6bbd
000000b0: bd39 ee3b d248 5abe 1761 70bd 2794 24bd
000000c0: 50cb cfbd b564 8cbc 963a 1d3e 0441 193c
000000d0: 2781 403b 0668 bebc b938 1abe 909a a03b
000000e0: 2dae 3fbd dadf 74bb 6c7b 0fbd 7968 9bbd
000000f0: 0960 87ba c0e0 533d 433c c3bd 900b c9bd
00000100: 1bcc 84bd bbbf 0e3e 0af5 cc3c d530 a8bd
00000110: e2fc 93bd 0d2c a9bd 97ee 16be e2ff d13b
00000120: cd62 bfbd 359c 06bd 9d7a 2ebd a565 30bd
00000130: f956 1bbe aef4 49bd 9db7 04bd e154 973c
00000140: eee8 73bd c0aa 02be 593a 9fbd bd21 28bd
00000150: 6da6 823d 853e c5bd 4844 b8bd c67b 0cbb
00000160: 879f 97bc b7cd b83c a90a bdbd 6db0 a8bd
00000170: 823c 09bc 99e2 86bd ae88 163d 5ac7 ec3d
00000180: 5187 823d 1f7f 613d c898 97bc 6e0d 833d
00000190: 3cf5 c63d 5761 503d cc45 d03d 626b 573d
000001a0: 1667 50bd d10d 043d e7a4 8d3d 489e ce3d
000001b0: 5e1a db3c 51e5 81bd 1a6a 433d 0fd2 8e3d
000001c0: c3fd 0a3e 3afe 0c3e b6fb debd bf64 9f3c
000001d0: 737f cabc f2d5 403c c4b3 45bd 9d1a 26bd
000001e0: 6846 953d 0668 36bb 58bf 0d3a 8c61 01be
000001f0: f6fc b6bd cf4e 2fbc eee0 f0bc 0fe9 ae3d
00000200: 438f 7b3c d514 edbd 78a6 5cbd a043 77b9
00000210: f4b0 a83c 4e3d 07bb 50bd ccbd 483d 653d
00000220: c9e1 ca3c ab1f aebd e1e5 c6bd b178 14be
00000230: 9546 20bd fc51 de3b 61e9 cf3c 226b f0ba
00000240: 372f 0fbc 2144 91bd 1673 67bc be7d 16bd
00000250: 7617 43bd f9ad 15bc 93b3 703c d706 96bc
00000260: ccd1 8cbd 3a46 f5bd a0b4 84bd a76f 113d
00000270: db73 0dbe 9eeb 0dbd de82 9ebd 197e bdbc
00000280: e375 f13c 21db 05bd 35ae f1bc 5d2e 8fbd
00000290: 379f 85bc 8824 efbc 468c 30bd f73e d3bd
000002a0: 0bf9 1bbd 8373 eabc 7766 7dbd 4b93 40bc
000002b0: 229b 84bd 6844 1d3d 9a20 e43d 0e0c 5f3d
000002c0: b15f cbb8 abe5 e03c f43d 163e 2843 183e
000002d0: 67bc 053d ebb0 8c3d b54f 003e 567d 2b3d
000002e0: f8df 3a3d ed71 43bc 787c 263c 9440 383c
000002f0: 433f 59bb 7e0b fd3c 45fd 81bd bed6 843c
00000300: 7699 b1bc 340b 6f3b b43d 87bb d3ca b43c
00000310: d050 213a 013a 21bd 3d6e a43c 6a3d 85bd
00000320: c956 c9bd 68a8 73bc d286 14be 1394 3bbe
00000330: 78a7 c0bd ebd2 78bd 6756 a2bc 11fd 3f3b
00000340: 6aac cbbd 4c9e eb3c 4ba1 593c 2cd2 163d
00000350: f2ef 373d 89ad 0abd 8258 3b3d 7ab9 49bd
00000360: 2475 c4bd 6e3d 16bc 1e8b c3bc fa3b 663d
00000370: 1203 19be 1e0f 84bd 8a66 d5bd 14f3 9abd
00000380: cdc3 dcbd 4bcf 173d 90ff 173c 458e 55bd
00000390: a528 42bd a216 09be 124d d73d 7479 d43c
000003a0: cc3c 1ebc 40d4 1b3d 8192 02be f847 e53d
000003b0: b829 983c c802 92bc 84a7 c03d 7e8c 8ebd
000003c0: f8d9 2d3e b69a 053e 1a35 fb3c aa82 313d
000003d0: b6f8 303d bacf fe3d 5313 00bc 1aa3 b93d
000003e0: b589 be3d 63b1 a3bc a2ab 44bd 0a97 13bd
000003f0: b797 cfbd 66cb 12be 397e 51bd 1579 60bd
-0.024609776 -0.01349579 -0.054009058 -0.0033006263 -0.0711008 0.09987118 0.0481608 0.011982101
0.016292755 0.0033252675 -0.0026210018 -0.0015694248 -0.038250703 0.03710286 0.05758235 0.02535075
-0.032039233 -0.16366063 -0.01600014 -0.016467584 0.008407147 0.009753407 -0.062467247 -0.06380044
0.042840093 0.08780711 0.039636243 0.07067583 0.10042491 0.12007166 0.030879036 -0.016166668
0.057276916 0.07017146 0.10601085 0.23726986 0.0056600505 -0.029810239 0.011851665 -0.012545439
-0.041313447 -0.04767982 -0.19096258 -0.05752436 0.0072700665 -0.21316841 -0.058686342 -0.04018035
-0.10146201 -0.017137865 0.1535438 0.00935388 0.0029373856 -0.023242962 -0.150607 0.004901238
-0.046796966 -0.0037364871 -0.035029814 -0.07588286 -0.0010328303 0.05172801 -0.095329784 -0.098166585
-0.064842425 0.13940327 0.025019187 -0.08212439 -0.07225968 -0.08260355 -0.14739452 0.0064086774
-0.09345017 -0.032863814 -0.042597402 -0.043065686 -0.15169896 -0.04930561 -0.03240167 0.01847309
-0.05954831 -0.12760448 -0.07774801 -0.0410478 0.063793994 -0.09631065 -0.089973986 -0.002143608
-0.018508686 0.02255903 -0.09230549 -0.082367755 -0.008376243 -0.06586189 0.03675144 0.11561461
0.06373466 0.055052873 -0.018505469 0.06399046 0.097147435 0.05087408 0.10169563 0.052592643
-0.05087956 0.03223974 0.06916218 0.100887835 0.026745971 -0.06342567 0.04770861 0.06973659
0.13573365 0.13768855 -0.10887854 0.01945722 -0.024718976 0.011769759 -0.04826714 -0.040552724
0.072888196 -0.0027833 0.00054072356 -0.12634867 -0.08934967 -0.010699942 -0.02940413 0.08540546
0.0153539805 -0.11576239 -0.053869694 -0.00023580948 0.02059219 -0.0020635906 -0.09997046 0.055966645
0.024765866 -0.08502134 -0.09711815 -0.14499165 -0.039129812 0.0067846756 0.025379838 -0.0018342475
-0.008739284 -0.07093073 -0.01412656 -0.03674101 -0.047629796 -0.009135717 0.014691251 -0.018313808
-0.06875953 -0.11976285 -0.06479764 0.03550687 -0.13813727 -0.03464853 -0.07739805 -0.023131417
0.029475158 -0.03267968 -0.029502014 -0.06991265 -0.016311271 -0.029192224 -0.043102525 -0.10314744
-0.038079303 -0.028619533 -0.061865296 -0.011753867 -0.06474902 0.038395315 0.11139031 0.054454856
-9.697618e-05 0.027453264 0.1467207 0.14869368 0.032650378 0.06869682 0.12530406 0.041867577
0.04562375 -0.0119290175 0.010161512 0.011245865 -0.003314928 0.030889269 -0.063471355 0.016215678
-0.021679621 0.0036475183 -0.0041272286 0.02206937 0.00061537046 -0.039361957 0.020072097 -0.065058544
-0.09831006 -0.014871694 -0.14504555 -0.18318205 -0.09406942 -0.060748022 -0.01981659 0.0029295126
-0.09944995 0.028762005 0.013283084 0.03682153 0.044906564 -0.033856902 0.045738705 -0.04924915
-0.09592655 -0.009169919 -0.023870047 0.05620954 -0.14942577 -0.06448196 -0.104199484 -0.07565895
-0.107795335 0.037062924 0.009277239 -0.052137632 -0.047402043 -0.1338754 0.10512747 0.02593682
-0.00965805 0.038044214 -0.127512 0.111953676 0.01857458 -0.017823592 0.09406951 -0.069603905
0.1697768 0.13047299 0.03066497 0.0433375 0.04320594 0.124419644 -0.007817107 0.09064312
0.09303609 -0.019982046 -0.048015244 -0.036032714 -0.10136359 -0.14335403 -0.051145766 -0.054802973

module.fc1.bias f4 [120]
00000000: 903f 3a3e e797 27be 995d 26be 6807 5dbd
00000010: 90e7 64be 5f7b 50be 77a5 573d a00e 1b3d
00000020: 5c4c 79bd 6e37 b4bb cf90 543d 3b1d 473d
00000030: 8842 12be 703a bdbe 7e08 e1ba 5830 873e
00000040: 337c c03c b031 f53d 00b7 403e 2135 5c3d
00000050: 3b80 973d 47ec 843c e5ad 01be a70b 35bc
00000060: 2527 acbd 4c07 99bd 1b64 dabd 3933 4c3e
00000070: ba35 ad3e e92c 923c c55e 7c3c d90d 11bd
00000080: e696 123d d183 04be 38ea 613d 17da 873e
00000090: f420 213e c6cf e83d 4652 993b ea23 6a3e
000000a0: 082c fe3d 847a 023e a92d 36be 13a9 153e
000000b0: 8502 593e 4341 d73e 9f7e 25bd c22c 6e3e
000000c0: 0c8a b83c 3a48 073e 039b ac3e f82d 9ebd
000000d0: dcef ba3d 03cd 573d 1f73 3c3e 27d1 2b3c
000000e0: d90e dbbd 7ec9 b13d f739 a43d 9ade a83d
000000f0: 2bce da3e 35d7 4d3d b4cf 643e d559 253d
00000100: a66b 6f3d c01f 01bd 0c9b 8abe 25f1 adbe
00000110: 417b 233d feff 0d3d 32f3 3b3e 37bc b3bd
00000120: e126 84bc 7a1f 8ebc 75ea c5bd 44e4 bbbd
00000130: 244f df3d 8d6c ca3d 784f 843d f640 17bd
00000140: e6c5 19be b957 153e f8cb a83d 253e f63d
00000150: cfbb b73d 8973 d73e f062 363e 1896 29be
00000160: 0695 94be 72f9 233e 711a 08bd 2de3 6e3e
00000170: b2d3 8a3d 3e50 39bc 789e 2bbe c172 a03e
00000180: 6724 c33d 2953 423e 2548 203e e747 15be
00000190: 8746 43bd dfdb debc a27d aabc a7fc a5bb
000001a0: 526b 923e 3ad4 9dbe c4b4 dfbc 6ac7 e9bd
000001b0: 7e7f 2cbe b3c0 7a3e 0bfc 35bd bdbb 94bd
000001c0: 6590 813d 58e9 fcbc eefa ea3c 58b1 813d
000001d0: d29e 44bd 3841 72bc 5196 fb3d fac4 903e
0.1818831 -0.1636654 -0.16246642 -0.05396214 -0.22353959 -0.20359562 0.052648034 0.037855744
-0.060863838 -0.005499772 0.051895913 0.04861186 -0.14283192 -0.36958647 -0.0017168669 0.2640407
0.023496723 0.11972368 0.18819809 0.053761605 0.07397505 0.016225947 -0.12663992 -0.011050141
-0.08405904 -0.07472095 -0.10663625 0.19941415 0.33830053 0.01784368 0.015403454 -0.035413597
0.03578844 -0.12940909 0.05515501 0.26533577 0.15735227 0.11367755 0.004678997 0.22865263
0.12410742 0.12742049 -0.17790855 0.14615278 0.21192367 0.42041978 -0.04040396 0.23259261
0.022526763 0.13211146 0.33712015 -0.077236116 0.09127781 0.05268575 0.1840329 0.0104868775
-0.10696191 0.0868101 0.080188684 0.08245583 0.4273542 0.050254066 0.22344857 0.040368874
0.05845227 -0.03152442 -0.27071416 -0.3397304 0.039912466 0.03466796 0.1835449 -0.087761335
-0.01613182 -0.017348994 -0.0966386 -0.091743976 0.10903767 0.09883986 0.0646047 -0.036927186
-0.15016899 0.14584245 0.08242029 0.12023572 0.089713685 0.42080334 0.17811179 -0.16561162
-0.29019946 0.16013125 -0.03322834 0.23328848 0.06778659 -0.011310635 -0.1675967 0.3133755
0.095284276 0.18977036 0.15652521 -0.1457821 -0.047674682 -0.027204452 -0.02081186 -0.005065519
0.28597504 -0.3082598 -0.027307875 -0.11414988 -0.1684551 0.24487571 -0.04442982 -0.07262371
0.06326369 -0.030872986 0.028684106 0.06332654 -0.048003025 -0.014786057 0.1228453 0.2827528

module.fc2.weight f4 [84, 120]
00000000: 0c82 37be bee1 a9bb d6d3 ae3c eaad 1e3d
00000010: 9359 42be 8d4c a23d ef8c 4b3c 07be 383e
00000020: d231 3b3e 4be4 d0bd 6414 2b3d d5f2 963d
00000030: 8b5f 2d3d 233c 2f3c 8432 85bd 49b0 11be
00000040: e012 fc3d 3adb 273c 8244 283b 6256 7f3d
00000050: c93e 6bbd d853 8a3d 0c01 943d e954 a03a
00000060: 6b86 223e da4c 02bd 2b27 3d3e 1adf 36be
00000070: 3880 1ebd 18f6 9f38 b958 8e3b 69a8 133c
00000080: e349 00be b9f3 98bd fa7b 3bbd d8f5 e4bd
00000090: 619e fd3d 1ec0 823d 18f5 89bd 94cd 00be
000000a0: c429 af3c b696 273e ea72 b5ba de7c 613c
000000b0: 3d5a 71bd 2c74 edbd c2d8 d1bd 7810 363e
000000c0: 8c96 9f3d b84d 42bd ef2a 34bc bf52 63bd
000000d0: 4f57 30be 39d8 0dbe a4c0 f53d 8709 5a3d
000000e0: db9a 143e 34b5 a0bc 04fa ce3a 0dc9 19be
000000f0: 1cce 81bd 6d9b 473d 1f4d 09be d39f afbd
00000100: 7249 0b3d 5c1f 1a3d a743 613d 04aa 243b
00000110: ff59 0cbe ea76 013e 3d77 f5bd c1a4 ffbd
00000120: 6441 b83d 47b6 1c3d d6c3 993d a4c8 243e
00000130: a163 d5bd 7024 2dbc 4ba8 e7bd 574d 63bd
00000140: 0726 39bd 4065 37be 4c02 84bd 319b 8abc
00000150: bd6c 9dbc 0217 84bd b71c 123e 7fb4 29bd
00000160: ad88 7d3d 7874 9dbd 2c83 08be 4e63 093b
00000170: 6532 e1bd 0a72 b83c 30c9 6bbb b065 15bd
00000180: 82e5 68bd a122 cf3c 38ed 93bd 156b 313b
00000190: 19b0 80bd 962a 073c 4090 79bd 434b e03a
000001a0: f217 2cbe c282 eebc adc1 65bd 3887 dd3d
000001b0: 8ce6 8d3d e78c 643d b4aa a7bd b575 283c
000001c0: bbc3 fc3c 1f43 e6bd 7589 fd3c 9059 863d
000001d0: 4372 86bd 006d a53d ec8e f6bc 6386 363c
000001e0: 19c1 2f3d 9979 323e 7f04 923d d867 76be
000001f0: 7d42 d53d d0ad f1bd 56bd 233e 220a 10be
00000200: 9e4f 5a3c aa26 cbbb 9cc4 e5bd 6888 5f3e
00000210: 8414 c5bd 710d 133c 8ccf 2c3c 0ff1 ae3d
00000220: 26e2 5a3c cffd 59bd 4b26 8abc 2722 ffbb
00000230: 0348 e3bd 21b5 2ebe 5a18 b4bd 3189 5fbb
00000240: a206 413d 9268 dfbd 65fc 023e 9170 5ebd
00000250: bff5 493e 1c24 2b3d 3550 01be b1dd ecbd
00000260: 8889 7bbe b70b c43d f6b5 89bb c8ce 51bc
00000270: 442b 093e a310 2ebe 45e5 fdbc 1669 3abe
00000280: b5aa f6bc a2c3 4b3e eccb 2fbe 8c4c e73d
00000290: 50e8 ae3b 6fe5 e73d 4261 073e da46 2e3d
000002a0: b015 033d b5e4 0b3c eed9 043e b583 0ebe
000002b0: a52b 11bd 33f5 a83c d457 70bd d259 673d
000002c0: e91a 68bd 0c90 85be e81a d6bd 12bb 96bd
000002d0: 4e3f 493d 91d1 a1bd b612 19be 39fa 893d
000002e0: 9df1 dcbd 42f4 ff3d fa16 463e 6cfe 79bd
000002f0: 9071 59bd 7252 7a3e 60df f53d b461 303d
00000300: 56d8 99bd c4b4 0ebe 8bf4 1b3d e6fc 293d
00000310: 8aed 28be 691d 183d ce6c 91be d718 d53c
00000320: 7090 3fbd 3e01 97bd b2f8 18be c84c 3abd
00000330: fa59 2ebc 8656 973c 6ebd 17bd d8b4 fbbc
00000340: 99ff 41bd 959f 473e 2b65 21bd 4d10 28be
00000350: 707d d73d e012 26bc 5cde b0bd f2d4 04be
00000360: 9840 02be e3c6 bfbb 33e1 71be d0eb 153e
00000370: 46ba ca3c 1ba5 25be f44a 25bd af44 18be
00000380: da63 10be a65e 9a3c 14bb 43bd 21a3 52bd
00000390: 26ee 09bb 6054 78bd aca0 53bd b665 e63c
000003a0: a4f9 df3d 1811 f33d 3c4f a2bc 029a af3c
000003b0: 2628 9fbd 4989 103d 49ef 7a3c b77f 19be
000003c0: 3243 31bd 9823 873d d7d4 2ebe 50e7 77bd
000003d0: 13ad c2bd 9613 c8bd 453a f53b 7f7d cb3d
000003e0: a9e5 05be 7b50 813d a13c 45bd cf9f 863d
000003f0: b19f 9e3d 20f9 d1bc 1858 693c 9825 5c3d
-0.17920703 -0.0051843813 0.021341246 0.038740076 -0.18979482 0.07924757 0.012423738 0.1804124
0.18280724 -0.101997934 0.041767493 0.07370535 0.042327445 0.01069549 -0.06503776 -0.14227404
0.123082876 0.010245139 0.00256756 0.06233824 -0.057432923 0.06754273 0.07226762 0.0012232336
0.15871589 -0.031811573 0.18471973 -0.17858544 -0.038696498 7.627549e-05 0.0043440727 0.00901232
-0.12528186 -0.074683614 -0.04577253 -0.111797035 0.12383724 0.063843 -0.06736201 -0.12578422
0.02138222 0.16366085 -0.0013843451 0.013762681 -0.05892395 -0.11594424 -0.102464214 0.1777972
0.077923864 -0.0474374 -0.010996564 -0.055498835 -0.17220806 -0.13852014 0.11999634 0.053231742
0.14512198 -0.019617654 0.0015791063 -0.15018101 -0.0633814 0.04873221 -0.13408326 -0.08575406
0.03400559 0.037627563 0.05499616 0.0025125751 -0.13706206 0.12643018 -0.119856335 -0.12482596
0.08996847 0.03825977 0.07508056 0.16092163 -0.10419393 -0.010567769 -0.11311396 -0.05549368
-0.04520228 -0.17909718 -0.064457506 -0.016919704 -0.01921689 -0.06449701 0.14268766 -0.0414319
0.061897922 -0.0768823 -0.13331288 0.0020963731 -0.1099594 0.022515316 -0.0035978071 -0.03647393
-0.0568595 0.025285067 -0.0722298 0.0027071883 -0.06283588 0.008249899 -0.060928583 0.0017112273
-0.1680601 -0.029115085 -0.056092907 0.108168066 0.06928739 0.055798437 -0.08186856 0.01028197
0.03085505 -0.11243271 0.030949334 0.065600514 -0.065647624 0.08077431 -0.030097447 0.011140439
0.04290876 0.17429198 0.07129764 -0.24063051 0.10413072 -0.1180073 0.15990195 -0.14066365
0.013324646 -0.0061996775 -0.11219141 0.21829379 -0.09623054 0.008975373 0.01054753 0.08542072
0.013359582 -0.053220566 -0.016863963 -0.0077860537 -0.110977195 -0.17061283 -0.08793707 -0.0034108872
0.047125466 -0.10908617 0.12791593 -0.05430657 0.19722651 0.041782483 -0.12628253 -0.11565722
-0.24564183 0.09572547 -0.0042025996 -0.012805648 0.13395411 -0.16998534 -0.030993113 -0.1820415
-0.030110696 0.19898847 -0.17167634 0.11293897 0.0053377524 0.11323058 0.13220695 0.042548038
0.032003105 0.008538415 0.12973759 -0.1391743 -0.035442013 0.020624733 -0.05867751 0.056482144
-0.05666629 -0.26086462 -0.10454351 -0.073598996 0.049132638 -0.079013 -0.14948544 0.06737179
-0.107882716 0.1249776 0.19344702 -0.06103365 -0.053086817 0.24445513 0.12005496 0.043061927
-0.07511966 -0.13936144 0.03807501 0.04150095 -0.16496864 0.037137423 -0.28403324 0.026012821
-0.046768606 -0.07373284 -0.1493862 -0.04548338 -0.010641569 0.018473875 -0.03704589 -0.030725881
-0.047362898 0.1949447 -0.039403122 -0.16412468 0.10521972 -0.010136336 -0.08636162 -0.12971857
-0.12719953 -0.0058525666 -0.23621063 0.14640737 0.024747025 -0.16176264 -0.040354684 -0.1486995
-0.1410059 0.01884396 -0.047785833 -0.051425103 -0.0021046489 -0.06062734 -0.0516669 0.028124671
0.10936287 0.11868495 -0.019813173 0.021435741 -0.077713296 0.035287175 0.015315839 -0.14990126
-0.043276973 0.06598586 -0.1707338 -0.06052333 -0.095056675 -0.09769361 0.007483753 0.09936046
-0.1307589 0.063141786 -0.048153523 0.0657345 0.077453025 -0.025631487 0.014242195 0.05374679

module.fc2.bias f4 [84]
00000000: aac2 59bd dc35 163c f4a5 3b3f 9d7c 1d3d
00000010: b9b4 b9bc 9e9b 0a3f 147d f63d c6fa c23d
00000020: 1c8e e93c a936 ae3e 4926 583f 8de4 b33d
00000030: f317 ddbd 27e2 053e 0f06 3bbc bb4e d23d
00000040: 1982 d23d 6e60 323f 766d a23e a427 693d
00000050: b008 c8bc 4d45 d13d d455 0b3f 726c 803e
00000060: 0346 703e 89c8 d13d a01d 883e 908d b33e
00000070: 6d4d 023d 47c5 673e 5346 4fbc 2064 813a
00000080: 29b9 65bd b11f 76be b55f d8be 0381 f8bd
00000090: 11a0 ad3e 615e 963e 18f6 743d ccf2 b2bd
000000a0: 9d5c fc3d d84c c53d 1a93 143f cbc1 69bd
000000b0: 8a94 103e c400 953e c555 5ebd e5bc 5f3d
000000c0: 28c2 2abd db68 2d39 8e7f 093f bafb 8f3d
000000d0: f735 ab3e 399a 803e 9d07 083e 9bed aabd
000000e0: bee5 283f fb6d 223e d89c a53e ad86 cbbc
000000f0: de16 96bd 8199 abbd b74e eb3d d864 13bd
00000100: bdcd ab3d 85c2 b63d 1419 abbd 30d9 4d3e
00000110: 026e 733d 95f8 773e 1b48 643d b329 183e
00000120: bd3b 373d 7afe 983e 89ef 90bd 5336 95bd
00000130: 2ae5 463e cf32 ac3e d935 833d 7288 373e
00000140: 7f19 5c3e 9f6a 913d fd49 0f3f a157 a5bc
-0.05316416 0.0091681145 0.733001 0.03844892 -0.022669183 0.54143703 0.120355755 0.095204875
0.028510146 0.34026077 0.8443342 0.08783827 -0.107955836 0.13074552 -0.011415019 0.10268923
0.102787204 0.6967839 0.31724137 0.05692257 -0.024418205 0.10218296 0.5442784 0.25082737
0.23464207 0.10243327 0.26585102 0.3506894 0.03181212 0.22633849 -0.012651044 0.0009871759
-0.056084786 -0.24035527 -0.4226052 -0.12133982 0.33911183 0.2936888 0.059805006 -0.08737716
0.12322352 0.096337974 0.5803696 -0.05706958 0.14119163 0.29102147 -0.054281015 0.054623503
-0.041689068 0.00016537627 0.5371026 0.07030435 0.3343961 0.25117663 0.13284154 -0.08346101
0.6597556 0.15862267 0.32346225 -0.024844492 -0.0732858 -0.08378888 0.11489623 -0.035984844
0.08388851 0.089238204 -0.08354393 0.20102382 0.059431084 0.2421592 0.055732828 0.14859657
0.044734705 0.2988165 -0.07076938 -0.07285752 0.19423357 0.33632514 0.06406755 0.17923144
0.21494101 0.071004145 0.5597227 -0.020183386

module.fc3.weight f4 [10, 84]
00000000: 6a15 93bc 50c8 ff3d 7cf2 95be 1818 933d
00000010: 73ee cbbd 82a6 e3bb 0ffe 5ebe 967f b9bd
00000020: f19c ad3d c008 c43d 5bde 9bbe 7185 a3bc
00000030: 6ef1 99be 923e 073e c88c 3f3e 23e1 15be
00000040: 2569 263e bba1 a43d 9fec a7be 8942 313e
00000050: 5239 a63d 0704 3d3e 6eca 473d 555e 3f3e
00000060: ea1e f43d 8dce c83d 5ae8 5b3d 1dc8 333e
00000070: 1722 7a3d 10d1 623e 1800 183e fd1e 29be
00000080: 732e 453e 2ac5 943e c7d0 c33d d79f 05bd
00000090: c0e5 1b3e 4b7d 5c3e 7891 2bbd 931b e7bc
000000a0: 9ff6 873c 80b9 7d3e 139d 213d d5f9 82bd
000000b0: 8191 00be 0aeb 41be 3681 14be 6ff7 393d
000000c0: 83ee 153d 198b 3fbe 903b 0abe 49be fa3d
000000d0: 9a3d 833e 0170 adbc 8cac 1abe c503 abbc
000000e0: 7ff7 bebe ba55 273e edc7 bbbe 6d7a 233e
000000f0: 96f9 c73b b7e8 7a3d 4841 0dbe 4f4a 123e
00000100: 8cef 50be aee4 0bbd 804e 01be 7446 35be
00000110: 5567 753d 4dee 9e3a 1ed0 a1bc 8bbb 0c3e
00000120: cfa4 b0bd 589a e8bd 20be 323e 62c3 223e
00000130: 951d 9fbd cdb7 a8be 00da 573c 2c37 433e
00000140: d3b2 13be cfd7 b9bc 7ca3 943e ed64 49bc
00000150: 9703 853e 9beb d33d f493 d8be b795 523b
00000160: c025 c4bc 16b7 153d d68a 7a3e fa28 53bd
00000170: 3357 313e a98e 2c3e c6db aabd 8a98 443e
00000180: e84d 503e 7b3b c63d 8086 373e 75d5 9fbd
00000190: f836 9bbe afaf 4ebe 9bf3 05be 6447 d73e
000001a0: c8e7 4c3e c31f 393e 385a acbe 5654 53be
000001b0: ebc3 52be b08c 253e 6e9f 76be c921 79be
000001c0: a00e e13d 4392 d0bc 83a4 503c 01d4 4d3d
000001d0: 0ac9 01be c375 113e 9858 8a3e 10f1 2c3e
000001e0: dd5b dfbd ee3d 8bbd bc51 683d 43b1 123d
000001f0: 69f8 34bd a3a2 29be c1e3 98bd 74ea 323e
00000200: cf1e 11bd 57e6 c63d 8742 2cbe 4f41 1c3e
00000210: 5f73 25bd 6e43 f7bb 8af8 05be 385c a33d
00000220: e6d5 09bb c5c5 f3bd 0643 cdbc df54 a7bd
00000230: e326 13be 6121 44be 4985 35bd 47e7 d3bd
00000240: 34a8 c33d cadd d03d 42e5 a43d acb3 713e
00000250: 4d5c 923e 2286 72bd e0d4 3b3e 3cd9 813d
00000260: 78e7 fdbd 6974 77bd 3203 103e 5901 11bc
00000270: e8eb 9c3d b78c 51be 575b 823d eb26 22be
00000280: 1884 83bd 3456 a5bd 02f7 6abd 96a3 99be
00000290: 406b 16be f0e5 fa3d e659 3bbd 47a9 b23d
000002a0: b2b4 643d 0a9f 863c 6817 4d3e 2abb 26be
000002b0: ec1e 7dbd 58f6 1bbe f96f 45bd 46fe 463d
000002c0: e7c6 d2bd 40e2 32be e1a0 9d3e 4428 723b
000002d0: 80d9 0f3d b8ff fcbd 7aad 413d c3b9 4fbe
000002e0: 98bf 5a3e 0e6c 843e 5f3d 323e b356 1dbe
000002f0: b7bb eebd 8f75 7cbe 3457 373e ee4e 503e
00000300: b042 003d 087c b9bd 415a 373e f457 8bbd
00000310: 95b0 2abd db46 aabd 2f97 31bc 0e45 60bd
00000320: 372a a6bc b1e3 69bd 9417 583b fbfe 01bd
00000330: 279e bf3c e3bb 193e 6d36 f9bd e90c c9bc
00000340: d987 b2bd 16b0 abbc a253 283e 9553 d8bd
00000350: b68f 8d3e c4d2 c5bd 908a 6e3d 1f6e 15bd
00000360: 1279 04bc b9ec 44bc ad77 a13d 70fd f33d
00000370: 33f1 1c3e 2976 89bc 0a14 983d badd 223d
00000380: 937c 1a3c 51ca 5e3e f30d 0b3c d9da eabc
00000390: 6a23 b8bd 801d 873e f5c2 f43d e9d4 bbbc
000003a0: 9be6 793d f3d0 463d 8621 83bd 35c9 3bbe
000003b0: 42f9 1dbe adf9 bcbc 5bf9 25bd a8ff 8c3e
000003c0: cdb8 e5bd 7e1b e13d 1568 c63c de11 98bd
000003d0: b6e9 953e 02f1 b2bd 1dc4 cebc 4b26 673e
000003e0: de61 c03d 2c9a 163e 2823 8f3b 79f9 763e
000003f0: b44a 35be 8d95 a53d f5c4 163e db08 193d
-0.017954547 0.124893785 -0.29286563 0.0718233 -0.0995759 -0.0069473395 -0.21776603 -0.09057538
0.084772 0.095719814 -0.3044308 -0.01996109 -0.3006701 0.13207462 0.18706048 -0.14636664
0.16251047 0.0803866 -0.32797715 0.17310537 0.08116402 0.18458568 0.048777036 0.18688329
0.11919959 0.098050214 0.053688385 0.17556806 0.061067667 0.22150064 0.14843786 -0.16515727
0.19256 0.29056674 0.095613055 -0.03262314 0.15224361 0.2153217 -0.041886777 -0.02821139
0.01659709 0.24777794 0.03945644 -0.06395308 -0.12555505 -0.18937317 -0.14502415 0.045401987
0.036604416 -0.18705405 -0.13499284 0.12243325 0.25632936 -0.021171572 -0.15104884 -0.02087582
-0.372982 0.16341296 -0.3667597 0.1596467 0.006102751 0.06125709 -0.13794434 0.14286159
-0.2040388 -0.034153633 -0.12627602 -0.17702657 0.059913 0.0012125463 -0.019752558 0.13743417
-0.08625185 -0.11357564 0.1745534 0.15894845 -0.07769314 -0.3295273 0.013174534 0.19064015
-0.14423685 -0.022685913 0.2903098 -0.012292129 0.259793 0.103476726 -0.4230038 0.0032132694
-0.023943782 0.036551557 0.24467024 -0.05155275 0.1731842 0.16851296 -0.083427 0.19198814
0.20342219 0.09679314 0.17922401 -0.078043856 -0.30315375 -0.20184205 -0.1308121 0.42046654
0.20010293 0.18078522 -0.3366258 -0.2063764 -0.2058255 0.1616695 -0.24084255 -0.24329294
0.109891176 -0.025460368 0.012734535 0.05025101 -0.12674347 0.14205079 0.27020717 0.16888833
-0.109061934 -0.067989215 0.056718573 0.03581358 -0.044182215 -0.16565947 -0.074653156 0.1747225
-0.035429772 0.097119026 -0.16822253 0.15259288 -0.04039323 -0.00754588 -0.13083091 0.07976574
-0.0021032034 -0.11902956 -0.025056373 -0.08170485 -0.14370303 -0.19153358 -0.044316564 -0.10346847
0.095535666 0.10198553 0.0805154 0.23603696 0.28586045 -0.05920995 0.18342924 0.06340262
-0.12397665 -0.06041375 0.14063719 -0.008850419 0.07662183 -0.20463835 0.06365078 -0.15835159
-0.06421679 -0.080730826 -0.05736447 -0.3000762 -0.1468935 0.12250888 -0.04574003 0.08723693
0.055836387 0.016433258 0.2002846 -0.16282335 -0.061797068 -0.15230691 -0.04820249 0.048582338
-0.10291844 -0.1746912 0.30786803 0.003695027 0.035119534 -0.12353462 0.04728458 -0.20285706
0.2136215 0.2586369 0.17406224 -0.15365104 -0.116568975 -0.2465422 0.17904359 0.2034261
0.0313136 -0.0905686 0.17905523 -0.06803885 -0.041672308 -0.08314296 -0.010839268 -0.054753356
-0.020283801 -0.05710191 0.0032973038 -0.03173731 0.023390843 0.1501308 -0.12168584 -0.024542289
-0.08717317 -0.020957988 0.16438153 -0.10562817 0.27648705 -0.09659341 0.058237612 -0.036481973
-0.008085506 -0.01201933 0.078841545 0.11913574 0.15326385 -0.016779976 0.07425697 0.039762236
0.009429115 0.21756865 0.0084872125 -0.028668808 -0.0899113 0.26389694 0.119512476 -0.022928672
0.06101094 0.048539113 -0.064028785 -0.18338473 -0.15427116 -0.023068273 -0.040521007 0.275388
-0.112168886 0.10991572 0.024219552 -0.07425283 0.2927987 -0.08737375 -0.025239998 0.22573201
0.09393667 0.1470725 0.0043682046 0.24118604 -0.17704278 0.08085165 0.1472357 0.03736196

module.fc3.bias f4 [10]
00000000: 15ae 81be 11dd 6fbf 0dda a8bb dbc8 f43e
00000010: a5ff 363f 2c65 e3bd 4dc7 ab3b 8983 afbe
00000020: c13a f33e 8423 c5be
-0.25328127 -0.93696696 -0.005152947 0.4780949 0.7148383 -0.111032814 0.0052422644 -0.3428004
0.47505763 -0.3850366
