models/classifier_net_epoch_4_6000.pth (torch_old, 249853 bytes, 10 tensors)

module.conv1.weight f4 [6, 3, 5, 5]
000000 a6 37 3e 3d d7 de 67 3e 97 10 9a 3e da 56 05 3f
       0.04643979 0.226436 0.30090782 0.5208565
000010 36 ac 66 3e 3f 40 d9 3d 49 bb 8a be 70 1f 1c 3d
       0.22526631 0.10607957 -0.27096012 0.03811592
000020 e0 ee 4d 3f 16 1a 1b 3e ec 25 7e 3e 02 f8 81 be
       0.8044262 0.1514667 0.24819154 -0.25384527
000030 fc bf 5f bf 0b 3d 2a 3f b5 a9 78 3e 0a e7 b0 3d
       -0.8740232 0.66499394 0.24283488 0.08637817
000040 e5 9b 9b bd 2c c8 39 bf 42 4c ec 3c d5 bf e3 bd
       -0.07598094 -0.72571063 0.028844956 -0.111205734
000050 bc ed be bd 66 c4 c7 bd 51 e8 00 bf 2e eb b9 3d
       -0.09322688 -0.09754257 -0.50354487 0.0907806
000060 5c 97 94 be 52 d7 b2 bd 26 00 cb be b9 64 12 bf
       -0.29021728 -0.08732475 -0.3964855 -0.5718494
000070 d1 52 21 be 36 6e c4 be a2 d0 b0 3e b6 94 1c bf
       -0.15754248 -0.38365334 0.34534174 -0.61164415
000080 a8 00 32 bf 38 9f 9f 3e fc 30 18 be d3 29 19 3f
       -0.6953225 0.31176162 -0.14862436 0.59829444
000090 02 82 93 be 83 4f 8c bf ed 32 0b 3f ef bc 26 3e
       -0.28810126 -1.0961765 0.5437458 0.1628301
0000a0 a3 54 02 3f 70 3d 5b 3e a6 86 58 bf d5 ce 62 3e
       0.50910395 0.21410155 -0.8458046 0.22149213
0000b0 25 39 f3 bd 5c bc 17 3f 2d 37 f6 3d 17 d2 5c be
       -0.11876134 0.5927179 0.12022243 -0.21564518
0000c0 f0 50 ef 3e 48 6a 1f bd 5c a6 21 bd c4 0a 86 bd
       0.46741438 -0.038919717 -0.039465293 -0.06545022
0000d0 68 41 86 bd d5 86 43 3e 78 2f 3a be 11 67 ad 3e
       -0.06555444 0.19094403 -0.1818217 0.33867696
0000e0 f1 7c ab be 17 2d 89 be 75 39 10 3f 9d bf cd be
       -0.3349376 -0.26792213 0.5633767 -0.40185252
0000f0 77 24 14 3f 12 b0 4f be 02 22 44 bf e2 2c f9 3e
       0.5786814 -0.20282009 -0.7661439 0.48667055
000100 f2 59 1d be 26 33 0e 3f f4 61 b6 3e ef 87 19 bf
       -0.15366343 0.55546796 0.35621607 -0.59973043
000110 5c f5 03 3e 9a 97 71 be fe da 01 3f 6f 49 94 3e
       0.12886566 -0.23592988 0.5072478 0.28962275
000120 46 77 57 be 0a 65 4b 3e ba 95 7d be 76 2c 24 be
       -0.21041593 0.19862762 -0.24764147 -0.16032586
000130 c9 eb 58 3e 1f ed fc 3d b5 36 06 3e 2f 51 37 bb
       0.21183695 0.12349915 0.13106807 -0.0027971973
000140 63 e0 cd bc c9 28 d5 3e 52 53 ce 3d 04 e3 a3 bd
       -0.02513141 0.4163268 0.10074486 -0.08002284
000150 3d 2f 63 bd f4 5c 19 3e 7d 34 08 be 62 1e ef be
       -0.05546497 0.14976865 -0.13301273 -0.46702868
000160 8f 00 b7 be bf 6e 5b be b3 62 45 be 36 4c 18 bf
       -0.35742614 -0.21428965 -0.19275932 -0.5949129
000170 a0 15 00 bf a6 4f 07 be b9 40 2e 3c 79 a1 0e be
       -0.50033 -0.13213977 0.010635548 -0.13928784
000180 7e 2c 2d 3d 57 c9 2c 3e ed 43 d7 3e 6b 7f 9f 3e
       0.04227876 0.1687368 0.4204401 0.311519
000190 3e e0 c3 be d2 0c cf 3b f0 b2 60 bd 30 06 4f bd
       -0.3825702 0.006318667 -0.054858148 -0.05054301
0001a0 af 70 15 be 87 a1 17 3d b7 23 b2 3e 73 68 6b bd
       -0.14593767 0.03701928 0.34792873 -0.057472657
0001b0 cb 09 1c be ab 69 4a be f9 1c a6 3e 2d 4e 1b bc
       -0.1523811 -0.19766872 0.3244398 -0.009479088
0001c0 b6 99 c2 be 0d b1 d9 be d5 59 38 be be fb 45 bd
       -0.38007897 -0.42517892 -0.18003018 -0.048335783
0001d0 65 cd d9 be ba de d1 be 2b ab 1e be f2 09 07 bd
       -0.42539516 -0.4099024 -0.15494983 -0.03296847
0001e0 7d 10 55 38 82 e9 05 be 87 4c ed 3d b4 cc 8e 3e
       5.0798513e-05 -0.13077357 0.11586862 0.2789055
0001f0 db a2 48 3e 61 21 4f be 03 11 9f 3d 04 f9 ad 3c
       0.19593374 -0.20227577 0.077669166 0.021236904
000200 5d b1 52 3e 88 48 e9 bc 04 8c 01 3e 66 36 e0 3e
       0.20575471 -0.028476968 0.12651068 0.43791503
000210 8e 8d b4 3e 3a 17 48 3d 50 3a c5 bd 01 b7 bb 3e
       0.35264248 0.048850276 -0.09630263 0.36663058
000220 1d 23 6f 3e 7e f7 12 be c0 e3 b3 be b1 dd 29 be
       0.23353238 -0.14352223 -0.35134697 -0.16588475
000230 a6 6b d2 3d 71 d5 ce be 7b 6a ae be fc 3e 4d be
       0.102744386 -0.40397218 -0.34065613 -0.20043558
000240 00 51 24 3d bf 3d 24 3a 68 9b d6 bd f3 4f 89 3e
       0.04011631 0.00062653044 -0.1047886 0.2681881
000250 74 9c 30 3e d0 14 a9 3c 9c b2 c1 3a 09 b3 a4 bd
       0.17247182 0.020639807 0.0014777961 -0.08041961
000260 8e b2 2e be e5 59 ca bd 5f c2 f7 bd 5c 16 f8 3d
       -0.170603 -0.09880427 -0.1209762 0.1211364
000270 50 a1 ac 3e f0 d0 15 3e 9b d4 03 3e fa 3f 50 3d
       0.33716822 0.14630485 0.12874071 0.050842263
000280 c2 c0 f2 bd 97 6d 7b 3a c3 28 da 3d 19 b4 f3 3c
       -0.11853172 0.00095912203 0.10652306 0.029748963
000290 a9 df 75 3d 0d 29 d7 be 78 54 c3 be 0e c3 c4 be
       0.060027752 -0.42023507 -0.38150382 -0.38430065
0002a0 f8 e0 d7 be ae 43 b8 be 1f 34 31 be ad 52 98 be
       -0.42163825 -0.35989136 -0.17305039 -0.29750577
0002b0 1d 6d 82 be 12 7b 90 be 30 c3 4c be 58 1c 7d be
       -0.25473872 -0.28218895 -0.19996333 -0.24717844
0002c0 5e e7 8e be 59 90 3a be 3c 38 6b be 94 5c 8d be
       -0.27910894 -0.18219127 -0.2297067 -0.27609694
0002d0 e9 35 9a 3e 9c fa b5 3e bb cf c9 3e 07 38 6f 3e
       0.30119255 0.35542762 0.39416298 0.23361216
0002e0 4b 95 6e 3e 0f 3c 1e 3d 8e 4e fd 3c 44 a8 c4 3d
       0.23299138 0.038631495 0.030921247 0.096024066
0002f0 f8 92 f1 3d ae f6 31 3e 81 eb 95 be ce a2 d8 be
       0.1179561 0.17379257 -0.29281238 -0.4231171
000300 4d 0e a1 be 9a 23 7e be f2 0d 32 be 0c 9f 5f bd
       -0.31456223 -0.24818268 -0.17388132 -0.05459504
000310 b9 38 25 be b5 9c f5 bd 68 61 62 bc 38 91 27 3d
       -0.16134919 -0.1199278 -0.013817169 0.040909976
000320 59 1a 11 be f9 9a f7 3c b6 05 67 bd 7b 0b 16 be
       -0.14170207 0.030225264 -0.05640193 -0.14652817
000330 d7 5c 68 be 84 69 c9 3e 13 be 9d 3e 41 f2 f8 3e
       -0.22691666 0.39338315 0.30809078 0.48622325
000340 4e 51 e9 3e d5 be 9b 3e 65 e3 32 3e 6a c9 81 3e
       0.45569843 0.3041903 0.17469557 0.2534898
000350 81 f5 59 3e 13 84 b0 3e f7 28 5f 3e 84 ed bd 3c
       0.21285059 0.34475765 0.2179297 0.023184545
000360 5c b0 97 3d d3 0d 57 bd dd d9 b9 3c d9 eb a0 3d
       0.07406685 -0.05250342 0.022686893 0.07857484
000370 73 66 07 3e be 6c f8 3d 7d e5 d9 3d d2 b4 56 3e
       0.13222675 0.12130116 0.106394745 0.20967415
000380 d0 c5 23 3e 99 b7 5f 3e c3 09 71 3e e4 08 77 be
       0.15993428 0.2184738 0.2353888 -0.24124485
000390 a0 c3 32 3b 01 ab 0b be a7 90 9e 3e 24 b6 52 be
       0.0027277246 -0.13639452 0.30969736 -0.20577294
0003a0 43 53 c6 be c1 8b bd 3d b1 c5 68 3d de 97 6f 3e
       -0.387354 0.092551716 0.05682916 0.23397776
0003b0 4b 91 9a be c2 e4 b1 be 41 ae ac 3e 76 0e 03 bd
       -0.30188975 -0.3474484 0.33726695 -0.031996213
0003c0 8e 84 10 be 7e c4 ed be 8f bc b1 bd ea aa 92 3e
       -0.14113066 -0.46438974 -0.08678543 0.28646022
0003d0 53 f1 0d 3e de 7e ea bc 08 d4 9c be 54 17 c1 3d
       0.13861589 -0.028624948 -0.30630517 0.094282776
0003e0 af fc bb 3e 93 59 c4 bc bb 9f d3 3d 4c 8b 00 3d
       0.3671622 -0.023968494 0.103332005 0.031382844
0003f0 f5 ac 85 be e3 45 04 3e bf 7b a3 3d 94 b7 2b 3e
       -0.26108518 0.12917285 0.07982587 0.16769248

module.conv1.bias f4 [6]
000000 7a 5b 4b be de 0e 11 bf d6 de 7c bd 57 cf 60 be
       -0.19859114 -0.5666331 -0.06173595 -0.21954094
000010 61 9d a4 bd 2b 9f 52 be
       -0.0803783 -0.2056853

module.conv2.weight f4 [16, 6, 5, 5]
000000 e6 36 a4 3e d7 7d db bd d8 39 04 3f bd e7 a7 3c
       0.32073134 -0.107173614 0.5165076 0.020496244
000010 21 b5 a0 bc f4 d7 51 3e a6 98 48 be 53 5f 8b 3e
       -0.019617619 0.20492536 -0.19589481 0.27221164
000020 9e 90 98 3e 74 fa 0d bc ac ed 20 3e ac 22 ea bd
       0.29797834 -0.00866567 0.15715665 -0.114323944
000030 4c b9 79 3d 22 dd a5 3e 35 55 b8 bd 4c e7 93 bd
       0.06096773 0.32395273 -0.09000627 -0.07221851
000040 2b 68 95 3d 06 56 a5 3c bb d1 70 3e 38 c8 15 3c
       0.07295259 0.02018262 0.23517506 0.009141974
000050 1d b2 01 be 4a a6 07 be 7a 4a 46 be 29 5f 9c bd
       -0.12665601 -0.13247028 -0.19364348 -0.07635338
000060 ac ac b4 bc 92 4e dd bd dc 63 0b 3e 69 2e 0c 3e
       -0.022054993 -0.10806002 0.13612312 0.13689579
000070 c7 94 15 3c da 76 9d bb 70 8b 3f be 60 cc 03 3d
       0.00912971 -0.004805428 -0.18705535 0.03217733
000080 f9 ba 56 3c 22 2a 59 bb cc 02 ea bc b0 9e 6f be
       0.013106101 -0.0033136685 -0.028565787 -0.23400378
000090 d1 a0 77 3c 96 86 1e 3e 36 12 7b 3d 3a e3 9b 3d
       0.015114025 0.15481028 0.061296664 0.076116994
0000a0 a9 57 9a be 79 8b 6c be 07 27 72 bd 67 29 86 3d
       -0.30145004 -0.2310008 -0.05911925 0.065508656
0000b0 3e 60 28 3d 34 ba 72 be b6 3a 94 bd a6 f0 e7 bd
       0.04110741 -0.23703843 -0.07237761 -0.11325197
0000c0 07 05 74 bd d7 36 64 bb fe cf bd bc db 64 0a bd
       -0.059575107 -0.0034822726 -0.023170467 -0.03378759
0000d0 41 99 90 bc 4e 1d 05 3d 32 b3 44 3d ea 1d 63 be
       -0.017651202 0.03249865 0.048022456 -0.2217938
0000e0 7c 92 e5 bd f5 62 b8 bd 5b de 36 bd a5 92 e7 bd
       -0.1120958 -0.090032496 -0.04464565 -0.11307267
0000f0 33 39 9c be bd 11 7c be 38 0a 69 be 63 31 18 be
       -0.3051239 -0.24616142 -0.22757804 -0.1486259
000100 c2 94 07 be 78 41 37 be 8a 39 2d bd 2a dd b8 3c
       -0.1324034 -0.17896068 -0.0422912 0.022566397
000110 23 39 7f bd 39 92 57 3d b5 e5 4c be 05 70 cc bd
       -0.06231035 0.052629683 -0.20009501 -0.099823035
000120 62 4d 99 bd 81 85 df 3b 63 27 4b bd b6 95 af 3e
       -0.07485463 0.006821335 -0.04959811 0.34293908
000130 ee 92 80 3d 2d 7d e0 3b 18 5e b8 3e e9 88 ad 3c
       0.062780246 0.0068508596 0.36009288 0.021183448
000140 3c bd 20 3d 52 e8 fa 3c eb d0 d6 bd 2a c1 30 3e
       0.039242968 0.030628357 -0.10489067 0.17261186
000150 03 4a 5b 3e ff d3 1b bd 33 60 52 3d 0f 6b 15 be
       0.21414952 -0.038043972 0.051361274 -0.14591621
000160 b0 8b c4 bd de 9b 87 3e d4 37 2d be 2e db 39 3d
       -0.09596956 0.26486105 -0.16915828 0.04537504
000170 b4 e0 e0 bd 16 79 2d be 8b 3f 93 3d 91 77 83 be
       -0.10980359 -0.16940722 0.07189854 -0.2567716
000180 96 7f 23 bd 79 8f 00 be d3 06 13 be b2 2c 89 be
       -0.039916597 -0.1255473 -0.14358072 -0.26791912
000190 02 22 8e b9 db 0b af bc ff 72 08 be 4f 41 8d 3c
       -0.00027109688 -0.021367958 -0.13325118 0.017243056
0001a0 26 ce 28 3d 0a 9f 62 bd 11 b2 19 bd 9b 0f d5 bd
       0.041212223 -0.055327453 -0.037523333 -0.10403367
0001b0 48 18 8b bd 26 91 e2 bd 54 8b ad bc 4c 2a 84 bd
       -0.06791741 -0.11062841 -0.0211846 -0.0645338
0001c0 80 72 35 3b 9d fd 3c bd ee a9 22 bd 6b fa 1a 3c
       0.0027686656 -0.046140302 -0.03971284 0.009459118
0001d0 28 b6 5f 3c ed 21 eb b9 49 92 2e bc 02 e0 91 bb
       0.013654269 -0.0004484797 -0.010654994 -0.0044517526
0001e0 51 a9 37 3b 47 57 e7 3c 75 a7 04 3d b9 f0 d6 3d
       0.0028024504 0.02823986 0.032386262 0.10495133
0001f0 d0 b4 f8 3d 0a c1 7a bd de ec e5 bc cf 06 58 be
       0.12143862 -0.061219253 -0.028067049 -0.21096347
000200 15 57 b8 bc 7b 18 4e bc 4a 0e bd bc 04 2a 38 bd
       -0.022502461 -0.012579079 -0.023078103 -0.044961944
000210 75 17 d1 bd 06 da fe bc 9d d9 94 3c 2c a1 6d 3d
       -0.10209552 -0.031109821 0.018170172 0.058015034
000220 a5 fa 34 3d 5d 06 59 be ee 44 1d be 66 64 90 bd
       0.044184346 -0.21193834 -0.15358326 -0.070503995
000230 72 0b c0 bd ed a4 15 3e 22 c4 d1 bd 37 e8 32 be
       -0.09377183 0.14613695 -0.102424875 -0.17471395
000240 c8 97 10 be ea 7a 03 3d 64 ae 2f 3d 54 7d c5 b9
       -0.141204 0.03209964 0.04289092 -0.00037668145
000250 53 13 a2 bd 91 e6 fd bd ae 78 df bd 34 91 6e bc
       -0.07913842 -0.12397493 -0.1091169 -0.014560986
000260 ac ae 01 3d 06 c3 90 bd 35 01 3d 3d 36 b8 8b bd
       0.03166072 -0.07068448 0.04614373 -0.06822245
000270 03 28 33 3d 43 53 3e bd 80 ee a6 3c 11 b1 e3 3d
       0.04373933 -0.046466123 0.020377398 0.11117757
000280 6a 98 b9 3e 3d 85 1d be c6 8c 1a be 38 c4 0c 3b
       0.36249095 -0.15382858 -0.15092763 0.002147926
000290 77 7c 22 bd 94 34 e9 3e d2 11 1c 3f 02 3d 74 3d
       -0.03966948 0.45547926 0.6096469 0.059628494
0002a0 e6 c2 fd bd a4 88 4d be f4 44 ae be f4 55 71 3d
       -0.123906896 -0.20071656 -0.34036982 0.058919862
0002b0 b1 e4 a8 3e fb ec 32 3e 5a 0f ea 3d 7f 7d 63 bd
       0.32986978 0.17473213 0.11428709 -0.055539604
0002c0 75 81 5f be 1c 82 67 bd 2a 54 c7 bc a4 b6 27 bd
       -0.21826728 -0.056520566 -0.024332125 -0.040945664
0002d0 53 32 7b 3d ee e8 39 be a3 69 61 be 46 8d b0 bd
       0.06132729 -0.18155262 -0.22012953 -0.08620696
0002e0 56 21 c2 3d df 07 05 3c b9 1c ed bc 53 89 92 be
       0.094790146 0.008119552 -0.02894436 -0.28620395
0002f0 0a 66 1e be 2b c7 85 3d d5 a2 33 3e 44 37 02 3e
       -0.15468612 0.06532129 0.17542584 0.12716395
000300 74 2e 72 3d ee 35 fe bd 9b cb 7d bc 70 3a 97 bc
       0.059126332 -0.1241263 -0.015490438 -0.018460482
000310 a6 ee 4e 3e 5e 9b 3e 3e 1a 85 86 3e 64 31 13 3e
       0.20208225 0.18613955 0.26273423 0.1437431
000320 5e fa 57 3d 35 09 05 3e cf 20 3b 3d da c4 70 bc
       0.052729003 0.12991793 0.045685586 -0.014695371
000330 ee 0e ae 3d 94 1a 91 3c a8 2a f3 3d 17 25 24 3e
       0.08498941 0.017712869 0.118733704 0.16029774
000340 70 c5 88 3d b2 4c 33 39 fd cb 05 bd 1c de 2b 3e
       0.06678283 0.00017099341 -0.03266524 0.16783947
000350 a0 d0 f9 3d f4 1f 8e 3c 11 16 06 be 20 a1 fd be
       0.12197995 0.01734922 -0.13094355 -0.4953699
000360 2e 76 c9 3d c9 17 b4 3e 93 3f 17 3e 0d ef a0 be
       0.09836994 0.35174397 0.14770345 -0.3143238
000370 fb 87 63 be eb 5b 82 be de b9 9e 3d c8 53 14 3e
       -0.22219841 -0.25460753 0.07750295 0.14485085
000380 3c bc 60 3e 91 38 47 bd f3 52 28 be 4c a1 01 be
       0.21946806 -0.04863793 -0.16437893 -0.12659186
000390 69 6f d8 3c 72 5a 0c 3e e8 01 83 3d 6d 56 4a bd
       0.026420312 0.13706377 0.06396848 -0.04939883
0003a0 26 b9 3f bd 80 2a 69 3d a3 40 b2 bd 7c a7 48 ba
       -0.04680743 0.056925297 -0.08703735 -0.00076543516
0003b0 18 fc 19 3e bd 53 81 bd a0 df 88 bd f1 b2 16 be
       0.15037572 -0.063148 -0.06683278 -0.14716698
0003c0 04 98 97 be 81 77 a7 bd 13 1a 25 3e 20 d7 ff 3d
       -0.29608166 -0.081770904 0.16123228 0.12492204
0003d0 92 8a 88 3e 28 cd b6 be c5 2f f5 be c8 93 bc be
       0.2666822 -0.35703397 -0.47888008 -0.36831498
0003e0 29 ed 30 be df 24 07 bd 87 b0 27 be c6 f6 05 be
       -0.1727797 -0.032994147 -0.16375934 -0.13082418
0003f0 56 91 08 be bd 8d 3b 3d 71 fd a5 3d 38 b0 14 be
       -0.13336691 0.04578947 0.08104981 -0.14520347

module.conv2.bias f4 [16]
000000 bf 15 48 3e 66 21 a2 bf 61 b2 48 bf 70 5e c5 bd
       0.19539545 -1.2666442 -0.78397185 -0.09637153
000010 74 e9 40 3f 2f e9 1b 3e e1 ce bb 3d 97 7d 59 3f
       0.7535622 0.15225671 0.091703184 0.8495726
000020 f7 b8 4b be 88 e3 35 be c9 90 20 bf a9 80 92 3f
       -0.19894777 -0.17762578 -0.62720925 1.1445514
000030 4a b5 93 3e 01 ef ed be 3e 0e 78 3d 2a f5 fd 3e
       0.2884925 -0.46471408 0.060560457 0.49601108

module.fc1.weight f4 [120, 400]
000000 65 09 54 bc e1 69 17 3a 92 f8 90 bd 69 b1 85 3b
       -0.012941693 0.000577597 -0.07078661 0.004079987
000010 49 eb 8b bd 0a f8 b1 3d 11 b6 34 3d e8 68 16 3d
       -0.068319865 0.08689888 0.044118945 0.03672114
000020 62 5f ad 3c cb d7 56 3b 74 97 62 3c 4f 3e d6 3c
       0.021163646 0.0032782431 0.013830055 0.026152758
000030 3d 4c a2 bc 7a 0d d6 3c fc 7e 28 3d a3 aa 1b 3c
       -0.019811744 0.026129473 0.041136727 0.009501132
000040 6a e9 d0 3c b4 28 f2 bd 89 3b d3 3b 0c 65 3f bb
       0.025501925 -0.1182417 0.006446306 -0.0029204516
000050 b5 9d fb 3c b8 d9 04 3d f4 fa bc bd b0 3f 9f bd
       0.030714849 0.032434195 -0.09227553 -0.07775819
000060 15 cf 3b 3d 34 e9 c7 3d 27 1f 79 3c c8 fc 16 3d
       0.045851786 0.09761277 0.015205181 0.036862165
000070 b3 4b 49 3d 9c b0 ce 3d 63 a5 5b 3d ba 62 2f 3d
       0.049144458 0.10092279 0.053624522 0.042818762
000080 3e 85 59 3d 77 c1 51 3d e7 e3 98 3d 52 e8 47 3e
       0.053105585 0.051209893 0.07465344 0.19522217
000090 15 6c 9e bc 7c 8a 96 3c 4e 1c 27 3d 1f 5e 79 3c
       -0.019338647 0.018376581 0.040798478 0.015220194
0000a0 94 84 aa 3b 78 2f 43 bd dc 72 21 be f2 b3 a1 bd
       0.005203793 -0.04765269 -0.15766472 -0.0789565
0000b0 33 04 58 3b 5c 2c 37 be ea bb 32 bd c4 a1 71 bd
       0.0032961487 -0.17888016 -0.04363624 -0.058992162
0000c0 4d 9e c4 bd 9a 65 a5 bc 73 da 08 3e e1 96 c8 3c
       -0.09600506 -0.020190049 0.13364582 0.024486007
0000d0 73 40 02 3d 7a 6e 04 3d ae da be bd eb 53 1e 3d
       0.031799745 0.03233192 -0.093190536 0.03865425
0000e0 05 c7 ea bc 1e 6b 9e bc 42 ed 2a bc 00 51 40 bd
       -0.028659353 -0.019338187 -0.010432543 -0.046952248
0000f0 2c 80 04 bd 0c f0 83 3c 57 68 b9 bd 35 27 e6 bd
       -0.032348797 0.016105674 -0.09053104 -0.11237947
000100 c8 0f a9 bd fe fd ac 3d a6 bb 0f 3b fe ad 4c bd
       -0.08254963 0.08446883 0.0021931916 -0.04997062
000110 23 e1 8c bd f8 b7 91 bd e5 53 01 be ad fb 04 bc
       -0.06878879 -0.071151674 -0.1262966 -0.008116645
000120 93 3b b9 bd 4e b9 f9 bc dd 28 c9 bc 4b e1 17 bd
       -0.09044566 -0.030483868 -0.024555618 -0.03708009
000130 58 49 9e bd 0f 0d 23 bd 16 e1 8c bc 6b 23 ac bb
       -0.07728833 -0.039807376 -0.017197173 -0.0052532456
000140 ad 00 c9 bc 3e 40 83 bd 5b 96 9a bc 57 dd aa bc
       -0.024536455 -0.064087376 -0.018870523 -0.020857496
000150 a8 9f 84 3d 5c 4a ae bd 85 fd 98 bd 6e 7a da 3b
       0.064757645 -0.08510277 -0.0747023 0.006667427
000160 a0 2e 9a 3b 18 fc 3f 3d dd ec 18 bd b9 93 a4 bd
       0.004705265 0.046871275 -0.037335265 -0.08035988
000170 60 41 25 3d 48 08 91 bd 9f 82 9f 3c b5 35 9b 3d
       0.04034555 -0.07081658 0.019471465 0.07578603
000180 fd 4c 80 3d 62 2f 0c 3d fb 3b 22 bd 0c 9e 88 3d
       0.06264684 0.034224875 -0.039607983 0.0667077
000190 6f 4e a7 3d e0 17 de 3c b4 f5 b4 3d d9 4d 1d 3d
       0.08169257 0.027110994 0.08835927 0.03840432
0001a0 38 f5 22 bd f7 92 92 3d 46 0d 55 3d cc 99 94 3d
       -0.03978464 0.071569376 0.05201461 0.07255897
0001b0 39 b6 5c 3c 14 35 41 bd e9 1c ba 3c 85 54 7b 3d
       0.01347118 -0.04716976 0.022718864 0.0613599
0001c0 93 1f bf 3d 35 4a 9e 3d 74 c5 a1 bd aa bc 32 3c
       0.09332194 0.077289976 -0.07898989 0.010909239
0001d0 d8 e5 0d bc db 20 dc 3c ee 62 dc bc 61 92 4f bc
       -0.008660756 0.026871135 -0.026902642 -0.012669177
0001e0 1d 1c c3 3d 12 93 58 3b 39 f5 31 bc 37 7f c5 bd
       0.095268466 0.0033046645 -0.010861688 -0.09643405
0001f0 0c a2 0b bd 6f c8 04 bd 93 1c 09 bd 33 f2 70 3d
       -0.034090087 -0.03241771 -0.033474516 0.05882473
000200 32 a0 3c 3c ab d7 fc bd ef be af bd 56 9c ce bb
       0.011512803 -0.12345823 -0.085813396 -0.006305258
000210 34 e3 1e bc 54 47 01 b9 32 85 a7 bd 91 af 3b 3d
       -0.009697724 -0.0001232897 -0.08179702 0.04582173
000220 18 0a 71 3d 07 aa 8c bd 8a 3e 98 bd 41 4c f5 bd
       0.058847517 -0.06868368 -0.074338034 -0.11977435
000230 32 e8 20 bc cc b4 7c bb af ff 07 3d 0a 6e e1 3b
       -0.009820985 -0.0038559912 0.033202823 0.0068795728
000240 81 5f 73 bc e5 1d b6 bd cb 47 2c bd b5 e0 fd bc
       -0.014854313 -0.08892421 -0.042060655 -0.030990938
000250 8f c5 84 bc 75 20 85 bc b3 31 72 3d 3e 03 1c 3c
       -0.016207485 -0.016250828 0.059129428 0.009522257
000260 cb a1 3f bd ae b6 c4 bd 17 03 fd bc e1 02 4b 3d
       -0.046785157 -0.09605156 -0.030885262 0.049563292
000270 aa 68 a9 bd c2 4b 06 bc bf 5b 4a bd 22 67 8c 3c
       -0.08271916 -0.008196773 -0.049403902 0.017139021
000280 f7 6e 45 3d 8e 03 f2 bc d7 50 87 bd 19 4a 61 bd
       0.048201527 -0.02954271 -0.06607216 -0.055002306
000290 ee 7c c3 bc 1d 17 94 bb ac 07 4d bd f6 1c b2 bd
       -0.023863282 -0.004519357 -0.050056145 -0.0869693
0002a0 90 89 09 bd 9a c8 56 bd 7c ea 2d bd f1 b8 43 bd
       -0.033578455 -0.052437402 -0.04245995 -0.047783796
0002b0 ab fa 3d bd e4 0f 2a 3d 54 82 7e 3d ff dc 8a 3d
       -0.046381634 0.04151906 0.06213601 0.06780433
0002c0 f7 19 d8 bc c3 eb a3 bb cd 6f cb 3d 33 b4 14 3e
       -0.026379569 -0.00500247 0.09933434 0.14521866
0002d0 2b 6e 4f 3c 45 69 5e 3d 33 03 01 3e f4 ba 88 3d
       0.012660543 0.05429961 0.12598877 0.066762835
0002e0 a5 91 85 3d 8d 2c 02 bd eb 9e e8 bb f1 73 a9 3c
       0.0652192 -0.03178077 -0.0070990226 0.020685168
0002f0 c6 d3 de 3b 21 67 9a 3d e3 cd 5c bd 5a ea c0 3a
       0.0068001477 0.075392015 -0.053907286 0.001471828
000300 35 f9 8e bc 58 34 af 3c 93 66 db 3c 37 ff 18 3d
       -0.017452816 0.021387264 0.02678231 0.037352767
000310 cb 1a ec bb fb 0e 0f bd f7 4d ea 3c 97 09 73 bc
       -0.0072053424 -0.034926396 0.02860163 -0.014833829
000320 59 db cf bd f5 de f2 3b 04 16 e8 bd c5 dd 1e be
       -0.10149259 0.0074118325 -0.11332324 -0.15514286
000330 43 3e 7f bd 84 89 57 bd f0 5f 36 bd 97 1e 10 bc
       -0.062315237 -0.05262138 -0.044525087 -0.008796356
000340 d1 96 be bd 16 1c 0c 3d 10 60 af 3c 88 dc d8 3c
       -0.0930611 0.034206472 0.02140811 0.026472345
000350 3b 51 b7 3c ef b6 11 bd 94 01 bc 3d ff 1b 82 bd
       0.0223776 -0.03557485 0.091799885 -0.06352996
000360 e8 14 93 bd a6 74 a4 bc 9a 64 38 bd a5 19 46 3d
       -0.07181722 -0.020075154 -0.045017816 0.0483643
000370 dc c7 05 be 4a d5 be bb 00 5c 94 bd cb ca a4 bd
       -0.13064522 -0.005823766 -0.0724411 -0.08046492
000380 77 91 d3 bd fc c1 c1 3c bb 4e e0 bc b3 e2 78 bd
       -0.103304796 0.02365207 -0.027381292 -0.060763072
000390 17 5b 08 bd 44 1b dc bd 50 37 ac 3d 12 87 7f 3d
       -0.033289995 -0.10747388 0.084089875 0.062384672
0003a0 69 1d 0b bb db 45 2c 3d bc 7f f0 bd e4 af 1c 3e
       -0.0021227247 0.042058807 -0.117431134 0.15301472
0003b0 9a be 1b 3d 12 95 55 3c ee 9e b3 3d f0 22 43 bd
       0.03802357 0.013036029 0.08770548 -0.04764074
0003c0 c0 64 03 3e 8d 14 10 3e 06 3c 2c 3c d1 54 93 3d
       0.12831402 0.1407034 0.010512358 0.07193912
0003d0 07 05 25 3d 64 c2 b2 3d a1 58 90 bb fd 85 a5 3d
       0.040287998 0.08728483 -0.0044050966 0.08082197
0003e0 f3 24 ca 3d ed e3 e9 bc f6 55 14 bd 64 e6 09 bd
       0.09870329 -0.028551066 -0.03621479 -0.033666983
0003f0 69 09 87 bd 02 26 df bd 08 93 2a bd 59 62 0f bd
       -0.06593592 -0.10895921 -0.041644126 -0.0350059

module.fc1.bias f4 [120]
000000 75 9c 42 3e 91 86 0c be 3f e7 0d be 9b 08 31 bd
       0.19004996 -0.13723208 -0.13857745 -0.043221097
000010 62 12 53 be d2 7e 2e be fa 87 39 3d 6c 70 6d 3d
       -0.20612481 -0.17040566 0.045295693 0.057968542
000020 f9 4e 66 bd 7e 7e 10 bc ad 10 44 3d 6e 02 35 3d
       -0.056227658 -0.008819221 0.047867466 0.04419177
000030 7a e5 f0 bd 28 ef ad be bd ee df 3b 38 e2 82 3e
       -0.11762519 -0.33971524 0.0068338797 0.25563216
000040 08 6b 10 3d 65 e3 d7 3d 18 d0 20 3e 00 19 3f 3d
       0.035258323 0.10541419 0.15704381 0.0466547
000050 c5 bc 56 3d 8d 0e e3 3c e6 1d d6 bd e9 49 33 bc
       0.05242612 0.0277169 -0.104549214 -0.0109429145
000060 73 a8 a9 bd 35 7a 81 bd e0 0b ac bd 6e 74 2f 3e
       -0.08284082 -0.06322137 -0.084007025 0.17134258
000070 b8 e9 95 3e 78 80 3c 3d 80 33 9a ba be d3 0b bd
       0.29279876 0.046020955 -0.0011764616 -0.03413748
000080 67 f2 26 3d ee eb f8 bd fb 58 31 3d af d8 84 3e
       0.040758517 -0.12154375 0.04329775 0.25946566
000090 89 c3 15 3e 04 b4 b7 3d 91 00 8f 3c 48 bd 68 3e
       0.14625372 0.08969882 0.017456325 0.22728455
0000a0 cb fb e8 3d 88 03 fb 3d 0d 5f 1f be 1f 3f 0a 3e
       0.11376151 0.12256533 -0.15563603 0.13500641
0000b0 ed 95 52 3e 78 d7 bf 3e 8b 11 be bc eb 08 4b 3e
       0.20565005 0.37469077 -0.023201725 0.1982762
0000c0 80 93 ff 3c c3 f6 f8 3d e4 b5 95 3e 93 99 84 bd
       0.031198263 0.12156441 0.29240334 -0.064746045
0000d0 18 c5 c0 3d fd ba ed 3c 8a f2 30 3e a4 fa 2b bb
       0.09412593 0.029019827 0.17280021 -0.0026241923
0000e0 eb 42 d1 bd 1f e8 67 3d 20 39 8b 3d e9 e3 85 3d
       -0.10217842 0.056617852 0.06798005 0.06537611
0000f0 38 23 c0 3e 71 0c 8d 3c 4a 35 44 3e cb 1f 39 3d
       0.3752687 0.017217847 0.19160953 0.045196336
000100 66 2d 67 3d 0e 40 26 bd 63 17 81 be da d9 93 be
       0.05643978 -0.04058843 -0.25213155 -0.28877145
000110 50 2d 1a 3d 84 0b 63 3d cd ca 13 3e 77 31 6c bd
       0.03764087 0.055430904 0.14432831 -0.05766436
000120 03 15 08 bc 6e 6d 8d bc d0 23 79 bd 9f 18 99 bd
       -0.008305791 -0.017264094 -0.06082517 -0.07475399
000130 ce e8 b3 3d ec 8b ee 3d a1 75 94 3d 33 7b 04 bd
       0.08784638 0.11647782 0.072489984 -0.032344054
000140 d5 e2 f4 bd bf 17 ea 3d 8f 08 6c 3d 36 cc bb 3d
       -0.11957327 0.114303105 0.05762535 0.091698095
000150 10 57 d1 3d 93 7b c7 3e 35 9c 1b 3e 5c 41 f0 bd
       0.10221684 0.38961467 0.15196307 -0.11731216
000160 c4 73 8e be 1d 04 28 3e f3 03 20 bd 5f 99 45 3e
       -0.27822697 0.16407819 -0.039066266 0.19296788
000170 a2 18 69 3d 92 dc da bb 42 03 08 be 5e 22 86 3e
       0.056908257 -0.006679126 -0.13282493 0.26198095
000180 38 1c a3 3d 9d b0 36 3e 91 2b 11 3e 3c 0f cd bd
       0.07964367 0.1784081 0.14176776 -0.10012671
000190 a0 69 11 bd e1 da 2f bd 32 c2 95 bc 84 8e 81 bc
       -0.035501122 -0.04293335 -0.018281076 -0.015815027
0001a0 6e fa 72 3e 8e be 87 be 3a 0c 08 bd ae 90 bb bd
       0.23728344 -0.2651257 -0.033214785 -0.09158455
0001b0 f8 fd 02 be b9 dd 56 3e 52 56 4f bd 5c ff 76 bd
       -0.12792194 0.20983018 -0.05061943 -0.060302123
0001c0 c1 59 4a 3d 6a 58 fd bc 35 e3 11 3d 3d d7 9d 3d
       0.049402002 -0.030925948 0.035617072 0.07707069
0001d0 8c af 86 bd 96 74 79 bc c1 9d bc 3d 7c d9 7d 3e
       -0.06576452 -0.01522555 0.09209777 0.24789995

module.fc2.weight f4 [84, 120]
000000 ff 30 15 be ff 4b 2b 3c f4 f0 d9 bc fd a2 a7 bb
       -0.14569472 0.010455131 -0.026604153 -0.0051158653
000010 1b 21 30 be 92 05 1a 3d fe 8f 3a 3c cb fe ba 3d
       -0.17200129 0.03760297 0.0113868695 0.09130629
000020 3f d7 1a 3e 1c 90 a4 bd 42 13 75 bb 24 4f 7d 3d
       0.15121172 -0.08035299 -0.0037395512 0.061843053
000030 04 b2 c6 3c 8a ae 54 3c c2 6b 7b bd 19 13 e4 bd
       0.024254806 0.0129810665 -0.061382063 -0.11136455
000040 09 d6 f8 3d 92 bd a8 3a 21 45 57 bc 64 fe 91 3d
       0.12150199 0.0012873879 -0.01313904 0.07128599
000050 38 aa 9b bd 3d c7 3a 3d 65 fc 35 3d d5 eb 8a 3b
       -0.07600826 0.045600165 0.044430155 0.004239539
000060 69 53 02 3e 57 35 b4 3a fa ac 34 3e ac 6d 1e be
       0.12727131 0.0013748807 0.1764411 -0.15471524
000070 0a dc b6 bc 8b fc f5 bc fd d4 0e 3c fb 21 9b 3c
       -0.02232172 -0.030027648 0.008717773 0.018937102
000080 e7 a5 cf bd ad 72 f9 bc f0 1c 6b 3c cc 60 b7 bd
       -0.10139065 -0.03045019 0.014350161 -0.089540094
000090 48 cb de 3d e9 0f 80 3d 4a 1a 9c bd 10 77 ca bd
       0.108786166 0.062530346 -0.07622202 -0.098859906
0000a0 7c 5c 6d bb 4f 87 ca 3d ff 45 06 ba 3a 03 7a bc
       -0.0036218455 0.09889089 -0.00051221246 -0.015259558
0000b0 2a 4d 38 bd e0 2b cf bd 7f a4 c0 bd cb 0e fb 3d
       -0.044995464 -0.1011579 -0.09406375 0.12258681
0000c0 8b a7 f8 3c 12 68 35 bd d4 f8 0f 3d 8a 43 60 bd
       0.030353328 -0.044288702 0.03514941 -0.05475191
0000d0 0a e0 4c be 04 1a 06 be 94 6f 99 3d 83 a1 6b 3d
       -0.20007339 -0.13095862 0.07491985 0.057527076
0000e0 e8 0e ce 3d 79 ed 92 bd ae 44 03 bc 36 3e d0 bd
       0.10061437 -0.071742006 -0.00801198 -0.10168116
0000f0 dd f4 ed bc e2 f5 a8 3d af f4 01 be bb 80 1f bd
       -0.029047424 0.082500234 -0.12690996 -0.038941126
000100 36 09 86 3d a5 49 9c 3d 89 1f da 3c 93 15 0e 3d
       0.065447256 0.07631234 0.026626365 0.034688544
000110 f5 19 5f bd ad 5b b4 3d 33 10 ed bd 5a 49 9e bd
       -0.054468114 0.08806548 -0.115753554 -0.077288345
000120 a0 67 97 3d 61 79 bf 3d 99 9c 3f 3d 6e 21 0c 3e
       0.07392812 0.09349323 0.046780203 0.13684627
000130 0b c6 9a bd 77 34 69 bd d5 6a de bd 17 f2 33 bd
       -0.07557305 -0.0569348 -0.1086022 -0.043932047
000140 37 59 9e bd f4 71 0a be c8 1f 7e 3b a3 76 7c bc
       -0.0773186 -0.13520032 0.0038776267 -0.015409145
000150 ca b7 4d bd 0e f9 ba bd 82 91 06 3e 33 40 40 bc
       -0.050224103 -0.09129535 0.13141444 -0.011734056
000160 a4 f3 b9 3c 9d 4e cf bd 46 ea 9c bd 83 68 0b bc
       0.022699185 -0.10122416 -0.076618716 -0.008508804
000170 c6 85 f8 bd e7 39 f6 3c 3e a3 2e 3b 5a 6b 74 bd
       -0.1213489 0.030056907 0.0026647593 -0.05967269
000180 dc a2 61 bc f0 58 89 bb ae e9 9e bd 62 25 ff bc
       -0.013771739 -0.0041915104 -0.077594146 -0.031145755
000190 f6 76 b9 bc 85 b0 96 3c 74 4c 14 bd 3b 8e 27 bb
       -0.022639733 0.018394718 -0.036205724 -0.0025566954
0001a0 ab 08 1e be a6 d7 4d bb 11 0e f7 bc e5 de a4 3d
       -0.15432994 -0.0031409054 -0.030158075 0.08050326
0001b0 a7 f1 8a 3d 50 a1 08 bd d8 97 9a bd b7 c5 00 3c
       0.06784373 -0.033356965 -0.07548493 0.007859639
0001c0 b3 9d ba 3a 15 1f b8 bd 69 37 69 3d 9c 47 b0 3d
       0.0014237672 -0.089903034 0.05693761 0.086074084
0001d0 cb 43 db bc 0c fb ac 3d b1 c8 31 bd 02 a2 b3 bd
       -0.026765725 0.08446321 -0.043404285 -0.08771135
0001e0 19 dc 1f 3e f9 26 12 3e eb 20 85 3c fb 40 3b be
       0.15611304 0.1427268 0.016251048 -0.18286507
0001f0 8a c4 c5 3d da a1 1d be fe c3 1c 3e 53 71 d6 bd
       0.096566275 -0.15393773 0.1530914 -0.10470834
000200 a5 38 99 3c f3 d5 4f 3c 05 de b9 bd 0a ce 34 3e
       0.018703768 0.012685287 -0.0907555 0.17656723
000210 f6 0e 86 bd c9 be c1 3d 92 61 6e 3d e1 5a b8 3d
       -0.06545822 0.094602175 0.05819852 0.09001709
000220 18 83 f7 3c 5b 22 49 bd be 85 ab bc 80 8c c2 bc
       0.030213878 -0.04910503 -0.020937797 -0.023748636
000230 7a f1 ec bd e0 1d 2c be 12 42 26 bd c6 53 02 bb
       -0.115694955 -0.16808271 -0.040590353 -0.0019886359
000240 74 e4 63 3c 0b ec c7 bd 82 2e 4c 3e 7f 73 cc bd
       0.013909448 -0.097618185 0.19939616 -0.09982967
000250 ba d8 25 3e 59 a0 8f 3b 59 02 ba bd 39 af c9 bd
       0.16195956 0.0043831286 -0.09082479 -0.09847874
000260 15 72 22 be 95 bd b4 3d 9c 48 7f 3d 31 5f 17 3d
       -0.15863831 0.088252224 0.062325105 0.036956016
000270 95 b1 06 3e 6b ef 0c be e3 04 e1 bb 17 a5 4e be
       0.1315368 -0.13763206 -0.0068670376 -0.20180164
000280 d9 cf 16 bd fd cd 51 3e 52 b6 3b be 12 52 d3 3d
       -0.036819313 0.20488735 -0.18331268 0.10318388
000290 87 5c 91 3d 04 dd 78 3d 2b 7c 63 3d 13 51 1b 3d
       0.07097726 0.060757652 0.055538338 0.037919115
0002a0 ec 19 a9 3c 65 c9 e2 3c a2 b0 ab 3d 6e 3c 0e be
       0.020642243 0.027683923 0.083832994 -0.1389024
0002b0 99 f3 32 bc 75 14 7a 3c 70 e1 9f bd 74 e1 21 3a
       -0.010922336 0.015263666 -0.07806671 0.0006175258
0002c0 6c 73 95 bd 2a 6b 73 be 5f 85 de bd 36 58 00 bd
       -0.072974056 -0.23771349 -0.10865282 -0.031334125
0002d0 19 2f 10 3c 7d 17 8d bd 9d e2 d8 bd 8e f5 ec ba
       0.008800291 -0.06889246 -0.10590098 -0.0018078552
0002e0 0d 7d 27 bd 98 5d 95 3d 7a 2d 44 3e 6e 08 16 bd
       -0.040890742 0.07293242 0.19157973 -0.036629133
0002f0 86 a8 34 3d 71 2b 7e 3e 96 c4 ec 3d d1 25 95 3d
       0.04410603 0.24821259 0.11560933 0.072826035
000300 e2 a2 3e bd 60 3f 0c be 3c 57 2b 3b 75 03 08 3c
       -0.046542056 -0.1369605 0.0026144525 0.0083016055
000310 ff 60 ee bd 73 5f 54 3c 63 b3 65 be 3d 33 77 3c
       -0.11639594 0.01296221 -0.22431712 0.0150879
000320 6d 52 7b bb a1 12 8d bd 6b 13 1f be 55 d6 97 bd
       -0.003834869 -0.06888319 -0.15534751 -0.074139275
000330 89 40 1b 3d 37 ec 9f 3c 20 0c a3 bc bb 31 e6 bc
       0.037903342 0.019521816 -0.019903243 -0.028099885
000340 ab b7 0d bd 9d 5f 45 3e 48 90 b7 bb 3e 56 1c be
       -0.034598988 0.19274755 -0.0056019165 -0.15267274
000350 3f da d7 3d 78 21 3d 3c 3a db 81 bd d0 59 b7 bd
       0.10539674 0.011543624 -0.06340642 -0.08952677
000360 9a f6 e0 bd 64 3f 51 3d 9c cb 58 be 7a c7 88 3d
       -0.109845355 0.051085845 -0.21171421 0.06678672
000370 e3 0f 9f 3c de cd 05 be 01 84 ca bc 2c d4 07 be
       0.019416755 -0.13066813 -0.024721147 -0.13264531
000380 ce 80 1b be 75 20 b8 bb 97 44 96 bd 5a 7b 95 bd
       -0.15185854 -0.0056191036 -0.07337301 -0.07298918
000390 d1 f5 14 3d 06 35 b3 bd f2 7e 0f bc 5d 65 00 3d
       0.03636724 -0.08750348 -0.008758293 0.031346668
0003a0 8b 00 b8 3d 74 d6 97 3d eb cc fd 3b cc cf 9b bc
       0.089844786 0.074139506 0.0077453754 -0.019019984
0003b0 39 12 84 bd 8a 5d 10 3d 69 9b 96 3c e6 d3 39 be
       -0.06448788 0.035245456 0.018384652 -0.18147239
0003c0 16 48 03 bd 82 85 0d bb 29 b7 03 be 4a 20 ce bc
       -0.03205117 -0.002159447 -0.12862839 -0.025161881
0003d0 4a a1 59 bd 5b b4 83 bd 11 2e fb 3c c9 ca b2 3d
       -0.053132333 -0.064308845 0.030661615 0.087300844
0003e0 ac f2 ed bd b4 88 6e 3d b4 71 6a bd 94 99 14 3d
       -0.116185516 0.05823584 -0.057237342 0.036279276
0003f0 30 ef 43 bc a4 91 01 bd 24 86 fd bb 93 22 e1 3d
       -0.011958882 -0.031633034 -0.007736938 0.10992923

module.fc2.bias f4 [84]
000000 77 e6 ba bd 88 b1 7c bc 47 35 18 3f b5 ae 9f 3b
       -0.09125989 -0.015423186 0.59456295 0.0048731216
000010 2b 84 c4 bc 64 b0 ea 3e d2 97 7d 3d 47 b2 cd 3c
       -0.023988804 0.458377 0.061912365 0.025109423
000020 58 8f c9 3c 56 3b a5 3e dc d2 34 3f cb 34 4a 3d
       0.024604484 0.32271832 0.70634246 0.049366754
000030 79 d9 f1 bd e2 af 97 3d e0 ca ba bb 0e dc 27 3d
       -0.11809058 0.07406594 -0.005700454 0.040981345
000040 e9 de c5 3d 80 10 13 3f 16 48 7b 3e 45 af ca 3c
       0.09661657 0.5744705 0.24539217 0.024741778
000050 23 99 be bc fb 0a 99 3d cd 5a e0 3e 41 0f 4c 3e
       -0.02326638 0.074727975 0.43819275 0.19927694
000060 33 35 21 3e 22 e0 98 3d 7a af 87 3e cb 7d 81 3e
       0.1574295 0.07464625 0.26501065 0.25291285
000070 21 75 eb 3c db 00 4c 3e d7 74 92 bc 31 17 a6 bc
       0.028742375 0.19922201 -0.01787798 -0.02027473
000080 aa 8f 83 bd 98 d5 87 be 63 fa c0 be a1 37 cd bd
       -0.06423886 -0.26530147 -0.3769103 -0.10020376
000090 fe a8 93 3e da cf 81 3e 82 85 0e 3d 81 1e b7 bd
       0.28839868 0.2535389 0.03479529 -0.08941365
0000a0 38 29 e7 3d 8c b2 9f 3d e6 31 01 3f 91 2e 7f bd
       0.11287159 0.07797727 0.50466764 -0.06230027
0000b0 7d 59 07 3e 5a 6e 7f 3e 38 11 82 bd 94 13 93 3c
       0.13217731 0.2494444 -0.063509405 0.017953672
0000c0 46 c0 66 bd 1e ce c2 bc 7c 29 e8 3e 32 04 a1 3d
       -0.05633571 -0.023779925 0.4534415 0.07862128
0000d0 dd 2a a0 3e 1c 5e 71 3e 80 3d 05 3e 0a 09 b9 bd
       0.31282702 0.23571056 0.13011742 -0.09034927
0000e0 89 f5 0b 3f f6 10 02 3e 82 71 8b 3e 44 8f 12 bd
       0.5467153 0.12701783 0.27235037 -0.03578116
0000f0 34 87 c7 bd d4 ea e5 bd 10 46 e7 3d 7d ad 8a bd
       -0.09742585 -0.112264305 0.1129266 -0.067713715
000100 a8 46 c2 3c ed 63 6a 3d 8f 58 a7 bd 19 8d 0f 3e
       0.023715332 0.057224203 -0.08171188 0.14018668
000110 8d 1c 29 bb 90 a8 41 3e 99 2c 31 3d 91 61 c5 3d
       -0.002580437 0.18911958 0.043255422 0.0963775
000120 24 54 90 3c 51 f9 74 3e 0b 2a 41 bd 65 a1 94 bd
       0.017618246 0.23923232 -0.047159236 -0.07257346
000130 69 88 35 3e 49 3d 8e 3e 71 d4 31 3d 65 81 1a 3e
       0.17727818 0.27781132 0.04341549 0.15088423
000140 06 64 26 3e cb dd f8 3c ab 3b 05 3f a9 77 1b bb
       0.16249093 0.030379197 0.5204417 -0.0023722446

module.fc3.weight f4 [10, 84]
000000 9d 7a 17 bd c7 c2 12 3e 51 8e ac be 34 77 6e bd
       -0.036982168 0.14332114 -0.3370233 -0.05821915
000010 bd 6b a0 bd e2 fa 00 3c 6c d8 37 be 00 44 7a bd
       -0.078330494 0.007872315 -0.17953652 -0.061100006
000020 1d 6d 8f 3d 1f 86 bb 3d 82 6c a0 be 7b 8a d7 3b
       0.070032336 0.09156441 -0.31332785 0.0065777875
000030 64 ba 80 be 3c 99 09 3e e0 f6 6f 3e 0a ba 3a be
       -0.25142205 0.1343736 0.23434019 -0.18235031
000040 6b 5e 55 3e 6e ab e9 3d e9 56 94 be 03 bf c6 3d
       0.20836799 0.11409651 -0.28972557 0.09704401
000050 44 1c 0c 3d a6 86 2c 3e 69 6b 1a 3d 92 12 2d 3e
       0.034206644 0.1684824 0.03770009 0.16901615
000060 ff 0b d1 3d 39 93 81 3d 9b 94 2c 3d e6 5b 3a 3e
       0.10207366 0.063269086 0.04213391 0.18199119
000070 71 98 6c 3d 91 43 76 3e 6e cf 13 3e 7b 5a fc bd
       0.057762567 0.24049212 0.14434597 -0.12321945
000080 49 05 7b 3e b2 f7 81 3e 8b 9f b8 3d 0b c0 4d bd
       0.24513735 0.2538429 0.090148054 -0.050231975
000090 c4 f6 30 3e 07 14 3c 3e a1 42 29 bd ea 77 a3 bc
       0.17281634 0.18367015 -0.041323308 -0.01995464
0000a0 b8 ac 9a 3c b6 68 92 3e ab 7c 72 bc 3b 78 8c bd
       0.018881187 0.28595513 -0.014800231 -0.0685887
0000b0 2c 4a ff bd 97 54 29 be 5f 63 e2 bd 84 c9 4c 3d
       -0.12465319 -0.16536175 -0.1105411 0.049996868
0000c0 54 e7 a5 3d 3a c5 0c be e9 1b 14 be 7c ba d6 3d
       0.08100763 -0.13747111 -0.14463772 0.10484788
0000d0 19 5f 92 3e b8 7b 55 bd 7b d4 21 be da 70 7b bc
       0.2858818 -0.05211994 -0.15803711 -0.01534673
0000e0 0e d3 b6 be 59 d0 3d 3e 87 c2 98 be 1b 0c f2 3d
       -0.35707897 0.1853651 -0.29835913 0.11818715
0000f0 da 49 d5 bc de 91 ce 3c 19 84 03 bd ac 09 1e 3e
       -0.026036192 0.02521604 -0.0321084 0.15433377
000100 d3 b1 22 be a9 30 e7 bc 20 72 4b be f4 78 f9 bd
       -0.15888147 -0.028221445 -0.19867754 -0.12181273
000110 51 ea 34 3d f7 a5 0e 3c 72 22 69 3c ff dd e0 3d
       0.044168774 0.008706561 0.014229404 0.109798424
000120 6d 7f be bd 8a d3 f6 bd cf d1 1f 3e 19 be f1 3d
       -0.09301648 -0.120520666 0.1560738 0.118038364
000130 9c 75 e0 bd 66 99 ab be 90 30 f4 3c ec 50 37 3e
       -0.10959932 -0.3351547 0.029808313 0.17901963
000140 f9 3b e4 bd f0 8e 18 bd 43 20 a5 3e 08 2d 4f bc
       -0.111442514 -0.03724569 0.32251176 -0.012645014
000150 8b 21 2b 3e 35 eb dc 3d a8 d9 d2 be 46 35 05 ba
       0.16712014 0.1078705 -0.41181684 -0.0005081486
000160 e0 bf 7f bc 51 0a 34 3d 11 3c 65 3e 0a 90 6b 3c
       -0.015609711 0.04395515 0.22386195 0.014377603
000170 16 0f ff 3d b9 fa 3b 3e c9 ce cb bd 3a 1c 4f 3e
       0.12454049 0.18357362 -0.099515505 0.20225611
000180 dc 1d 62 3e eb 09 66 3d 51 c6 30 3e a0 ff 17 be
       0.22081703 0.056161802 0.17263152 -0.14843607
000190 f0 5f 76 be 57 db 66 be 7c cc 03 be 3a 5e fd 3e
       -0.24060035 -0.22544609 -0.12870973 0.49485952
0001a0 10 5b 69 3e 28 03 42 3e 92 da 93 be 24 f4 df bd
       0.22788644 0.18946517 -0.28877693 -0.10935238
0001b0 4f 09 40 be b1 d3 37 3e d6 2b 6b be a7 69 90 be
       -0.18753551 0.17951848 -0.22965941 -0.28205606
0001c0 9a ae 69 3d 57 6d 81 bd e1 de a2 bc 38 08 42 bc
       0.05705128 -0.06319683 -0.019881668 -0.01184278
0001d0 2f fd 03 be e9 46 27 3e c8 75 8d 3e 0d 33 df 3d
       -0.1288955 0.16335644 0.27628922 0.10898409
0001e0 98 76 1d be 60 aa f0 bc 44 10 23 3d b1 8c ad 3c
       -0.15377271 -0.029378116 0.039810434 0.021185251
0001f0 2f 2e 43 bc e8 29 47 be fc 97 ca bd d3 6c 3b 3e
       -0.0119128665 -0.1944958 -0.0989227 0.18303232
000200 b3 c0 5f bd 5f 15 8f 3d 4b 14 0b be 34 b4 58 3e
       -0.05462713 0.06986498 -0.1358196 0.21162492
000210 de f1 d6 bb 0f a3 d8 3b cc ac 43 be 06 82 ea 3d
       -0.0065595945 0.006611235 -0.19108886 0.11450581
000220 2a 95 22 3d 4f 96 fc bd d2 02 25 3c 15 5f 9c bd
       0.039693035 -0.123333566 0.010071473 -0.07635323
000230 77 f2 17 be 03 24 31 be a0 29 8d bd 8b 2a da bd
       -0.14838587 -0.17298894 -0.06892705 -0.10652646
000240 e6 94 cb 3d 9d 00 37 3d 5e 29 f0 3d ab 4c 07 3e
       0.099405095 0.04467832 0.1172664 0.1321284
000250 a7 b4 96 3e 4a 68 6a bd d6 a9 02 3e 9e ba f3 3b
       0.29434702 -0.057228364 0.127601 0.007438018
000260 bf c7 0d be 0c a0 a4 bd 57 3f c4 3d 38 e5 0b 3b
       -0.13845728 -0.08038339 0.095823936 0.0021346342
000270 64 97 c6 3d a0 63 3d be 63 06 d4 3d e2 f3 1b be
       0.09696844 -0.18495035 0.10352781 -0.15229753
000280 bf cc 0d bd 31 04 61 bc de bc af bd d7 68 a1 be
       -0.03461909 -0.013733909 -0.085809454 -0.315253
000290 cf 33 ec bd a2 be cf 3d e0 df ca 3b 20 bc 85 3d
       -0.11533319 0.10143782 0.0061912388 0.065300226
0002a0 18 37 d5 3d ae 06 94 bb c0 e3 38 3e fe 00 0b be
       0.10410899 -0.004517398 0.1805563 -0.13574597
0002b0 45 b2 93 bd 4b a5 14 be f2 28 93 bd 82 3d 1d 3d
       -0.072117366 -0.1451618 -0.07185544 0.038388737
0002c0 72 47 01 be 87 33 01 be 67 6e a4 3e 05 22 ba 3c
       -0.1262491 -0.12617312 0.3211548 0.0227213
0002d0 fb f5 1b 3d 56 01 e1 bd c3 de 53 3d ae 7c 27 be
       0.038076382 -0.10986583 0.051726114 -0.16356155
0002e0 8d ae 4c 3e 21 2c 7c 3e b0 1b 24 3e 1d 71 30 be
       0.19988461 0.24626209 0.16026187 -0.1723065
0002f0 a5 12 cf bd 78 ac 80 be 5b 79 07 3e f1 34 f1 3d
       -0.10110978 -0.25131583 0.13229887 0.11777676
000300 2a 2a b1 3c 34 d0 06 be 10 c1 7a 3e 05 93 f6 bd
       0.02162655 -0.1316536 0.2448771 -0.120397605
000310 bf cc f3 bc d7 83 09 bd 92 48 6a 3c d9 29 90 bd
       -0.029760716 -0.033572998 0.014299529 -0.07039232
000320 0b 71 f4 bc 0c aa c4 bd ea 9a 8e bc f2 30 54 bd
       -0.02983906 -0.09602746 -0.017407853 -0.05180449
000330 18 e6 44 3d 14 1d fa 3d f0 ac bb bd bd 3c b5 bc
       0.048070997 0.122125775 -0.091638446 -0.022123689
000340 39 0c 2d bd 4e 61 52 bd 11 6b 44 3e 1a 63 05 be
       -0.042247985 -0.05136233 0.19181468 -0.13026085
000350 f6 22 7d 3e 03 f5 1f be 20 52 2d 3d 61 2c 1b bd
       0.24720368 -0.15620808 0.04231465 -0.03788412
000360 3b 76 08 bd 4b 35 69 bd 2b 41 b5 3d dd 3b b8 3d
       -0.03331588 -0.05693559 0.088503204 0.08995793
000370 13 30 39 3e 52 32 f6 3c 3e 4e b0 3d 38 f7 cb bc
       0.18084745 0.030053291 0.086086735 -0.024898157
000380 08 74 1a 3d 45 d9 37 3e a1 0c 0c bc 4d 1d 14 3b
       0.037708312 0.17953975 -0.008547933 0.0022600472
000390 91 85 67 bc 6f 96 58 3e fd af 0a 3e 73 e4 f4 3b
       -0.014130966 0.21151136 0.13543697 0.0074735223
0003a0 4f ef 29 3d 08 e3 87 3d bf f6 1b bd cf 87 4d be
       0.041487988 0.066351 -0.038077112 -0.20071338
0003b0 fa 89 30 be 47 d1 40 ba 05 73 4f bd 88 2c 75 3e
       -0.17240134 -0.00073554035 -0.0506468 0.23942769
0003c0 97 8e 15 be c4 51 f6 3c 65 dc 13 3d 84 a9 dc bc
       -0.14605175 0.030068286 0.036098856 -0.0269363
0003d0 4b 6f 83 3e 72 8c 17 bd e0 f1 50 bd 38 82 5e 3e
       0.25670847 -0.036999173 -0.05101192 0.21729362
0003e0 c8 19 c1 3c a3 cb e9 3d c4 c3 ce 3a b8 2a 4a 3e
       0.023571864 0.11415794 0.0015774895 0.19742858
0003f0 0a 56 f6 bd f7 5a 63 3d b6 e2 65 3e c6 b0 06 3d
       -0.120281294 0.055506673 0.22449765 0.032883428

module.fc3.bias f4 [10]
000000 a7 43 6a be f0 e3 49 bf c0 62 a0 3d 2b 28 ca 3e
       -0.2287737 -0.7886343 0.07831335 0.3948377
000010 75 0e 20 3f b7 fe 28 be a8 1f b6 3b b9 f4 c8 be
       0.6252206 -0.16503416 0.005557973 -0.3924921
000020 da 58 01 3f 45 65 ca be
       0.505262 -0.39530388
