models/classifier_net_epoch_2_12000.pth (torch_old, 249853 bytes, 10 tensors)

module.conv1.weight f4 [6, 3, 5, 5]
000000 b4 3c a4 3d 3c 59 1e 3e a2 68 8f 3e 4a f5 13 3f
       0.08019391 0.15463728 0.28009516 0.57796156
000010 e0 1f 66 3e 38 08 54 3e 32 1f 37 be ae 4c 2c 3d
       0.22473097 0.2070626 -0.17882994 0.042065315
000020 0f 63 2c 3f c3 5e 53 3e 90 e8 99 3e 82 85 d9 bd
       0.6733865 0.20641617 0.30060244 -0.10621168
000030 09 84 23 bf b1 6d 0a 3f ca c6 5d 3e 2b 18 bc 3d
       -0.63873345 0.54073626 0.21657863 0.09184297
000040 cc b7 01 be 34 5c 0b bf 6c de ff 3b 23 32 1d be
       -0.12667769 -0.54437566 0.007808497 -0.15351157
000050 5f 23 ae bd 06 12 27 be ee 7c e1 be 89 61 a3 bb
       -0.0850284 -0.16315469 -0.44040626 -0.0049859923
000060 cc 8e 8c be 68 02 ab bd 46 bb c9 be c9 20 05 bf
       -0.27452695 -0.08350068 -0.3940069 -0.5200315
000070 53 42 07 be e5 6f d2 be 06 dc 96 3e 02 7b 0b bf
       -0.13208894 -0.41100994 0.2946474 -0.5448457
000080 45 1d 2a bf dd e8 16 3e 00 b4 ed bd 84 0e e4 3e
       -0.6645091 0.14737268 -0.11606598 0.44542325
000090 e8 11 76 be 63 f6 62 bf 66 16 c4 3e 14 0a 08 3e
       -0.24030268 -0.88657206 0.3829834 0.13285094
0000a0 de ac bd 3e 3a 04 da 3d 0e 70 2d bf 02 76 3d 3e
       0.3704595 0.106453374 -0.67749107 0.18502048
0000b0 e6 21 1c be ad 79 04 3f cf 06 2b 3d f2 9b 00 be
       -0.15247306 0.5174816 0.04175454 -0.12559488
0000c0 5c 0c c6 3e ef 5a b3 bc 24 ed f7 bc d3 2d bc bd
       0.38681304 -0.021893946 -0.030264445 -0.09188428
0000d0 ff 81 a9 bd 80 8a 3f 3e 82 4a 35 be a5 46 a7 3e
       -0.08276748 0.18705177 -0.17704204 0.32671085
0000e0 e3 85 85 be 71 35 87 be 7e f2 d5 3e e9 ee 92 be
       -0.2607871 -0.2640796 0.4178657 -0.286979
0000f0 ca d3 ec 3e 46 75 0e be bd 03 11 bf c7 9a bf 3e
       0.46255332 -0.13911924 -0.5664633 0.37422773
000100 8c 69 8a bd 18 b4 dd 3e db 82 78 3e 78 29 d7 be
       -0.06758413 0.43301463 0.24268667 -0.42023826
000110 38 bd 2e 3e 8c cb 10 be 42 ac df 3e 41 6a 2f 3e
       0.17064369 -0.14140147 0.4368611 0.17130376
000120 c6 6c 01 be 7c 1a 4a 3e 22 17 ae bd 70 fc 68 bd
       -0.1263915 0.19736665 -0.08500506 -0.05688137
000130 ae 31 58 3e 68 e4 65 3d ae 0c 09 3d b5 37 92 bd
       0.21112701 0.05612603 0.033459358 -0.071395315
000140 d5 c5 f6 3c a9 1a 9c 3e 70 84 25 3d 39 40 74 bd
       0.03012363 0.3048909 0.040409505 -0.05963156
000150 68 67 18 bd 3b 1d c4 3d 08 6c 1f be 3d eb b0 be
       -0.03720799 0.09575888 -0.15568554 -0.34554473
000160 33 a1 67 be bb 54 44 be 18 86 3e be 50 b8 ea be
       -0.22620086 -0.19172947 -0.1860584 -0.45843744
000170 a1 95 c9 be a6 7e 0c be e6 18 b3 bd 51 7e 14 be
       -0.3937197 -0.13720188 -0.087449834 -0.14501311
000180 ed b2 8c 3d 51 62 85 3d cd 14 8e 3e 43 be 8e 3e
       0.06870065 0.06512893 0.27750245 0.27879533
000190 d2 af 88 be c2 45 79 3d c8 8b 19 bd 63 08 91 bd
       -0.2669664 0.06085754 -0.03748682 -0.07081678
0001a0 aa 36 07 be fb ce 9e 3d 25 03 81 3e 89 eb ba bd
       -0.13204446 0.07754322 0.25197712 -0.09126956
0001b0 9f 11 d4 bd 0c db 17 be 0f cd 7c 3e 9b 73 56 bd
       -0.103549235 -0.14829654 0.24687599 -0.052356344
0001c0 38 5a 90 be b3 d9 a1 be 32 bf 1e be 52 e7 88 bd
       -0.2819383 -0.31611404 -0.15502623 -0.06684746
0001d0 07 23 a8 be 5d e8 a7 be b4 70 22 be b4 0b c4 bd
       -0.32839224 -0.32794467 -0.15863305 -0.09572545
0001e0 0e 20 d3 3c 2d 50 9c bd 3c 6f 90 3d da 5b 54 3e
       0.02577212 -0.0763248 0.07052466 0.20738164
0001f0 43 ee 7d 3e d6 7d df bd e9 cd d9 3d 3f 22 55 3c
       0.24797921 -0.10912673 0.10634977 0.013008653
000200 86 bc 2d 3e f1 57 ff bc e5 08 f3 3d 03 b2 93 3e
       0.16966447 -0.031169863 0.11866931 0.2884675
000210 47 bf 84 3e 97 5f 42 3d 0e 9a a1 bd 81 45 6c 3e
       0.25927183 0.047454443 -0.07890712 0.23073389
000220 2d 8f ef 3d 01 da e3 bd 11 66 91 be 69 9f 1b be
       0.116972305 -0.11125565 -0.28398183 -0.15197529
000230 0d b2 08 3d 1e 95 b0 be f2 3f 8b be fb 81 46 be
       0.033372927 -0.34488767 -0.27197224 -0.19385521
000240 35 23 bf 3b 10 fb 07 3c 36 c9 0d bd c9 52 8b 3e
       0.0058330544 0.008299604 -0.034615718 0.27211598
000250 f4 da 29 3e 09 dd 09 3e 8f f9 9a bd 1c 5b 26 be
       0.1658743 0.13463224 -0.07567131 -0.16245693
000260 6c 11 65 be 64 62 22 be 32 08 24 be 01 dc 51 3d
       -0.22369927 -0.15857846 -0.16018751 0.051235203
000270 63 11 88 3e da b8 de 3d 8b cf f3 3d 98 89 da 3c
       0.26575765 0.108751014 0.1190482 0.026676938
000280 a1 ef ef bd 07 d7 53 3b 9b 0a ec 3d ad 6f 25 3c
       -0.117156275 0.0032324211 0.1152546 0.010097426
000290 51 2c dc 3c 25 7a bd be 45 f3 9e be 4e 2e 94 be
       0.0268766 -0.3700725 -0.31044975 -0.28941578
0002a0 7e 6d b4 be 68 c0 9f be 33 b1 dd bd 23 95 7e be
       -0.35239786 -0.31201482 -0.10824814 -0.24861579
0002b0 c9 e5 4a be 3a 18 55 be 35 93 1c be 75 f9 6e be
       -0.19814219 -0.20810023 -0.1529053 -0.23337348
0002c0 7f f8 8d be 31 69 15 be 44 61 39 be 5a a6 55 be
       -0.2772865 -0.14590909 -0.1810351 -0.2086424
0002d0 36 ed 91 3e d6 f2 a3 3e fb 47 bf 3e a4 f2 83 3e
       0.2850129 0.32021207 0.37359604 0.25771058
0002e0 42 26 89 3e 6d 69 5a 3d 77 ec e2 3c 57 80 aa 3d
       0.26787 0.053323198 0.027700646 0.0832526
0002f0 53 39 a8 3d fc c9 1f 3e 9d ec 88 be 53 d3 c9 be
       0.08214059 0.15604395 -0.26743022 -0.3941904
000300 63 40 8b be f7 49 6f be 31 a0 18 be 30 e5 1f bd
       -0.2719756 -0.23368059 -0.14904858 -0.03903693
000310 ca 36 2f be a8 c6 05 be 27 d3 10 bc aa 91 0e 3d
       -0.17110744 -0.13064063 -0.008839405 0.034806885
000320 ec 52 bf bd fc d1 4e 3d 70 d0 30 bc 11 e0 b2 bd
       -0.09341988 0.050493225 -0.010791883 -0.087341435
000330 17 8e 0f be 24 3a ce 3e 9b d9 98 3e ea 24 f8 3e
       -0.14019047 0.40278733 0.2985352 0.48465663
000340 15 96 fc 3e ce d9 ba 3e 3f 15 3e 3e d8 01 83 3e
       0.49333254 0.36494297 0.18562792 0.25587344
000350 97 b5 5e 3e 2e 72 aa 3e 65 86 6f 3e 61 7f df 3c
       0.21748959 0.33290237 0.23391111 0.027282419
000360 24 85 83 3d 8e 9e 4f bd c2 65 96 3c b0 95 d0 3d
       0.06421879 -0.05068832 0.018359069 0.101848006
000370 ba cf 42 3e df 42 00 3e 01 86 bf 3d bd 4a 61 3e
       0.19024554 0.1252551 0.09351731 0.22001167
000380 02 02 39 3e d8 11 51 3e 4d a5 20 3e b0 12 42 be
       0.18067172 0.20416963 0.15688057 -0.18952441
000390 e0 b4 92 3d bb 8f d2 bc 3c 11 5d 3e 49 6a 4a be
       0.071634054 -0.025703302 0.21588606 -0.19767107
0003a0 d7 ce 83 be ec 22 d7 3d b7 b4 e7 3d b0 95 26 3e
       -0.25743744 0.10504708 0.113137655 0.16268039
0003b0 8a 46 4c be e8 79 66 be 9d 2d 92 3e 69 de b3 3c
       -0.19948784 -0.22507441 0.28550425 0.02195664
0003c0 d5 af 0b be 87 e4 a6 be bf 9a 4b bd 46 0b 37 3e
       -0.13641293 -0.32596228 -0.049708124 0.17875394
0003d0 32 bc 31 3e 12 84 84 3a 8e a5 94 be a6 1c 25 3d
       0.17356947 0.0010110161 -0.29032558 0.040310524
0003e0 1f 79 93 3e 87 c9 8b bb cf 68 eb 3d 90 99 e3 bc
       0.28803346 -0.0042659673 0.114946 -0.027783185
0003f0 07 a4 74 be 73 dc fe 3d 47 d8 cb 3d 54 aa a3 3d
       -0.23890696 0.12444391 0.09953361 0.07991472

module.conv1.bias f4 [6]
000000 e9 62 07 be 48 df 10 bf 49 50 81 3d f2 3e 53 be
       -0.13221325 -0.565907 0.06314141 -0.2062948
000010 83 ed 2b be 58 35 40 be
       -0.16789822 -0.18770349

module.conv2.weight f4 [16, 6, 5, 5]
000000 e6 e6 97 3e ba fc 4a bd 4f dd e2 3e a1 f6 2a 3d
       0.2966835 -0.049557425 0.4430947 0.04173911
000010 b1 a1 4a bd 08 dc 7b 3e ea 58 46 be 6d 88 78 3e
       -0.049470607 0.24595654 -0.19369856 0.24270792
000020 69 a5 96 3e 14 f2 b6 bc 49 9e f9 3d 08 aa bc bd
       0.29423073 -0.022332229 0.121883936 -0.092121184
000030 d8 dd be bc 79 ee 84 3e c0 9f 8a bb 9c 8c 3a bd
       -0.023299143 0.2596319 -0.0042304695 -0.04554425
000040 88 fb 8d 3d bf 08 f8 3c e3 39 07 3e 4b c6 f9 3c
       0.069327414 0.030277608 0.13205676 0.030490061
000050 34 98 79 bd 7e 98 0b be e7 bd 0b be 60 d0 ad bd
       -0.060936168 -0.1363239 -0.13646661 -0.0848701
000060 31 d9 22 3d e6 ad 71 bd 5c fa aa 3d ba 12 5d 3d
       0.03975791 -0.059003733 0.083485335 0.053972937
000070 8c 68 1d 3c a8 a3 20 bc 16 db e8 bd 3c 66 76 3d
       0.009607445 -0.009804644 -0.11369912 0.060156092
000080 96 65 67 3b 13 ff 10 3c 23 ad 94 bc 99 f3 4f be
       0.0035308353 0.008849877 -0.018148964 -0.20307769
000090 2b d7 9d bb c4 4d d5 3d e5 5a 7a 3d 0c 8b a6 3d
       -0.00481691 0.10415223 0.06112184 0.0813199
0000a0 85 7a 81 be 1e a0 0f be 79 36 3c bc 35 a6 63 3d
       -0.25288787 -0.14025924 -0.011487597 0.05557843
0000b0 b3 67 82 3d 8e 01 4d be 19 59 6d bd 54 4c 01 be
       0.06367435 -0.20020124 -0.0579463 -0.12626773
0000c0 f5 6f 1a bd 2b 68 72 3d f5 2d 12 bd 41 c9 45 bd
       -0.037704427 0.059181374 -0.03568836 -0.048287634
0000d0 15 2e 11 3d d2 20 7a 3d e2 74 70 3d a6 a6 3e be
       0.035444338 0.061066456 0.058705218 -0.18618259
0000e0 33 ca 93 bd 61 11 83 bd 15 29 57 bc 69 b4 b6 bd
       -0.07216301 -0.06399799 -0.013132353 -0.08921129
0000f0 f4 d6 72 be 26 a5 45 be 0f 0e 17 be 26 78 e5 bd
       -0.2371481 -0.1930128 -0.14751457 -0.11204557
000100 95 07 fd bd b2 f8 30 be e5 b7 15 bc ad 1c 98 3d
       -0.12354962 -0.1728237 -0.009138082 0.074273445
000110 74 99 58 3c db 55 94 3d 31 25 47 be 18 a2 92 bd
       0.01322018 0.07242938 -0.19447781 -0.07159823
000120 c6 ed 97 bd b2 d8 1c bb ae 32 47 bd 42 a3 9c 3e
       -0.074183986 -0.0023932871 -0.048632316 0.30593306
000130 3a 90 88 3d f8 ba c5 3c ee 47 ad 3e e9 a4 1f 3b
       0.06668134 0.024137005 0.3384394 0.0024359769
000140 24 41 74 3d 31 fa cb bc 15 2d ad bd 56 63 35 3e
       0.059632435 -0.024899574 -0.08455864 0.17713675
000150 de b4 1d 3e 9f 9e 87 bd 49 6a c2 3c be 7e b1 bd
       0.15401027 -0.066220514 0.023732321 -0.08666752
000160 ab 3c 1f bd ab 20 4d 3e c2 f2 20 be 1b 4b fa 3c
       -0.038876217 0.20031993 -0.15717605 0.030553391
000170 e1 5d ad bd 88 eb 12 be 35 6e 94 3d c9 70 7a be
       -0.084651716 -0.1434766 0.07247583 -0.24457087
000180 c7 95 e1 bc f8 1b db bd 29 22 0f be 05 ee 36 be
       -0.02753724 -0.10698694 -0.13977875 -0.17864235
000190 c3 70 4f bd 6a a9 5b bd 36 89 e9 bd 9b e1 e6 3c
       -0.050644647 -0.053628363 -0.11403124 0.028183749
0001a0 1d 48 33 3d 9b bb b5 bd 8f 16 39 bd 30 08 07 be
       0.043769944 -0.088736735 -0.04518753 -0.13186717
0001b0 1e 54 92 bd c7 e9 97 bd f7 2a bd bc c5 84 85 bd
       -0.0714495 -0.07417636 -0.023091776 -0.065194644
0001c0 aa 46 33 3c 55 81 09 bd 7c 4a 7c 3b d2 5a 0c bc
       0.010942141 -0.033570606 0.0038496545 -0.008566575
0001d0 13 18 a1 3c 05 06 8e 3b 00 59 f8 bc f4 ae 3c 3d
       0.0196648 0.0043342137 -0.030315876 0.046065286
0001e0 48 2f c3 39 ef f3 1c 3d 9a c9 90 3c a1 f5 ab 3d
       0.00037228526 0.03831857 0.017674256 0.08396459
0001f0 d6 bd 0d 3e 8e 1e 82 bd ba 46 ad bd e5 c7 49 be
       0.13841948 -0.06353484 -0.08460756 -0.1970516
000200 18 56 e7 bc 45 ab 90 3b fe 20 3e bc 58 0a f9 bc
       -0.028239295 0.004414948 -0.011604546 -0.03040044
000210 f2 e2 fa bd 8b 92 58 bd d6 8f 36 3d 34 fd 95 3d
       -0.12250318 -0.05287413 0.044570766 0.07323685
000220 3d d6 8a 3d 24 45 14 be 98 af 39 be ff 93 fb bb
       0.06779144 -0.144795 -0.1813339 -0.0076775546
000230 c5 b9 b1 ba 61 c6 d1 3d 2b c4 df bd dc 4d 04 be
       -0.0013559392 0.10242916 -0.10926088 -0.12920326
000240 08 dd 8e bd d2 a5 b0 3d 7e fa d7 3d c8 17 c3 3b
       -0.06975752 0.08625378 0.105458245 0.0059537627
000250 77 11 7b bd 9c c6 d5 bd 44 00 68 be 2d a8 24 bd
       -0.061295953 -0.10438272 -0.22656351 -0.040199447
000260 4f 10 2c 3d c0 de 04 bd 31 ba 89 3c 8b 11 3e 3d
       0.04200774 -0.032438993 0.016812416 0.04640345
000270 70 0b 15 bd 87 35 17 be 97 0d 82 3c 8e 71 c8 3d
       -0.03638786 -0.14766513 0.01587562 0.09787284
000280 c3 f2 cd 3e 2a 5d 5a bd a2 94 15 be 1b 38 03 bd
       0.40224275 -0.053311504 -0.1460748 -0.03203593
000290 3b ad 92 bc 1e 9c b6 3e e8 8a f0 3e 5e 55 15 3e
       -0.017904868 0.35665983 0.46980977 0.14583346
0002a0 22 29 21 bd bf bf a9 bd 96 7b 97 be 1d bb a7 3d
       -0.039345868 -0.08288526 -0.29586476 0.08189986
0002b0 e7 4d 90 3e 2b 6c 2e 3e d2 c1 db 3d 8e 61 94 bd
       0.28184435 0.1703345 0.10730328 -0.072451696
0002c0 86 22 21 be c1 ba cd bd d2 39 b7 bd 09 b9 ab bd
       -0.15735826 -0.10045386 -0.08946575 -0.08384902
0002d0 b0 95 11 3d 02 e2 32 be 69 f0 4e be 7f ad 7e bd
       0.035543144 -0.17469028 -0.20208897 -0.062177178
0002e0 df e1 d6 3c 93 4c 2a bd 58 dc 69 3d 26 06 30 be
       0.02623075 -0.041576933 0.0570949 -0.17189845
0002f0 57 e2 d6 bd e4 25 be 3c ed 21 2b 3e 1a 8e 1a 3e
       -0.1049239 0.023211427 0.1671216 0.1509327
000300 66 6f 1a 3d de 2d f0 bd ae 6d 1c bd e6 80 b7 ba
       0.037703894 -0.117274985 -0.038190536 -0.0014000207
000310 e6 e9 3f 3e e9 74 7d 3e f0 65 82 3e 59 ef 10 3e
       0.18741569 0.24751629 0.25468397 0.14153804
000320 a6 94 fe 3c 56 16 af 3d 4a e4 0e 3d ae f8 b3 3c
       0.03107674 0.08549182 0.034885682 0.021969166
000330 d8 69 a0 3d 15 f9 57 3d 05 7c ad 3d 58 8b a1 3d
       0.07832688 0.052727778 0.084709205 0.07887906
000340 df b1 25 3d 6c f6 5e 3c ec d8 cb bc bb b9 23 3e
       0.040452834 0.013608556 -0.02488371 0.1598882
000350 53 30 03 3e 7e 04 be bb 8f 61 f7 bd 3b 3d b9 be
       0.12811403 -0.0057988754 -0.12079155 -0.36179528
000360 22 5e 8a 3d c7 0f 96 3e 7a c2 10 3e c1 b0 5a be
       0.06756236 0.29308912 0.14136687 -0.21356489
000370 49 41 89 be 50 f2 78 be bb a3 7f 3d 33 fb 9b 3d
       -0.2680762 -0.24311185 0.062412005 0.07616272
000380 18 21 1e 3e 51 42 e1 bc 62 c1 1f be 1d 00 f8 bd
       0.15442312 -0.027497442 -0.15601113 -0.121093966
000390 c2 56 d2 3c 11 6b 4b 3c 5a 86 90 3d 0b 91 60 bd
       0.025676135 0.012415663 0.070568755 -0.054825824
0003a0 ee 2f da bc 26 7e b0 3c 38 09 8c bd bc ea 42 3d
       -0.026634183 0.021544527 -0.06837696 0.04758714
0003b0 ee e4 f8 3d fd 3b b0 bc 81 9d b7 bc 4c 69 1e be
       0.1215304 -0.02151298 -0.02241397 -0.15469855
0003c0 33 0e 52 be e6 e6 3c bd 4f 1a 30 3e f2 36 2a 3e
       -0.20513229 -0.04611864 0.17197536 0.16622522
0003d0 c8 5d 48 3e 56 3c 8a be 93 c0 c8 be c9 b5 80 be
       0.19567025 -0.26999158 -0.39209422 -0.2513869
0003e0 b7 b6 93 bd df 70 0d bd 2d 4a 0a be 45 c4 95 bd
       -0.072125845 -0.03453147 -0.13504858 -0.07312826
0003f0 08 5f ff bd 8d ba a5 bc 4f fc 99 3c 1b 98 d0 bd
       -0.12469298 -0.020230556 0.018797068 -0.10185262

module.conv2.bias f4 [16]
000000 69 0e 23 3e a5 46 7e bf 67 86 28 bf 14 ff 94 bc
       0.15923466 -0.99326545 -0.6583008 -0.018188037
000010 c6 ce 10 3f 70 ba 23 3d 83 82 bb 3d 4e 89 17 3f
       0.5656551 0.039972723 0.091557525 0.59193885
000020 b9 fd 3e be 4e b2 c0 bd 2c 5d db be 7d 15 64 3f
       -0.18651475 -0.09409009 -0.42844522 0.8909529
000030 ed ab 55 3e f2 38 b2 be e6 d0 95 3c 77 52 04 3f
       0.20866366 -0.3480907 0.018288087 0.5168833

module.fc1.weight f4 [120, 400]
000000 9e cc b4 3b 9c 63 03 bd e5 75 92 bd 47 e3 86 bc
       0.0055175563 -0.032077417 -0.07151393 -0.016465796
000010 7b d5 bc bd 3b d1 a4 3d 8b ad 8b 3c d2 d2 a5 3c
       -0.09220406 0.0804772 0.017050525 0.020242129
000020 ea e5 99 bc cb 16 22 bd d9 ee 27 bc f3 dc 78 3c
       -0.01878639 -0.03957252 -0.010249817 0.015189397
000030 de d1 e9 bc b0 81 eb 39 67 ed b7 3c 19 75 c0 3c
       -0.028542455 0.00044919318 0.02245207 0.023493337
000040 ed cd 36 3c c7 3f 8d bd e5 65 67 3c 9b 72 18 bc
       0.011157495 -0.0689693 0.014123415 -0.009304668
000050 e0 1c 3c 3d ce 2f ea 3c 51 25 42 bd 15 7d 1d bc
       0.045925975 0.028587248 -0.04739887 -0.009612341
000060 62 83 7d 3d 3a 03 a5 3d 09 3e 47 3c 26 f7 4c 3d
       0.061892875 0.08057256 0.012160786 0.050040387
000070 33 45 94 3c 5e ed 94 3c 81 04 94 3d 8f 09 68 3d
       0.018099403 0.018179592 0.072274216 0.05664974
000080 23 23 85 3d 32 48 4c 3d 7a b2 92 3b 8a fe 0a 3e
       0.065008424 0.04987354 0.0044768425 0.13573661
000090 ce 18 a8 3c 86 72 2f 3d f4 8e 91 3d 2a 8f 08 3d
       0.02051964 0.042833827 0.07107344 0.033339657
0000a0 08 bc a1 bc 8d 9a a7 bc 2e ba dc bd f9 66 70 bd
       -0.01974298 -0.020459438 -0.107776985 -0.058691952
0000b0 a2 e5 1e 3c 7e 50 2c be ed f1 85 bd 7c 79 99 bd
       0.009698303 -0.1682758 -0.06540284 -0.074938744
0000c0 3d 51 bf bd ca 5a 99 bc 00 de c6 3d ec 13 07 bd
       -0.09341667 -0.01872005 0.09710312 -0.032977983
0000d0 ce c6 05 bd 96 69 f2 3c 2c 47 b0 bd 98 d6 01 3d
       -0.032660298 0.029591363 -0.08607325 0.031698793
0000e0 80 cc bb bd f5 2e 48 bd 7d 49 9d bc 77 3c 0e bd
       -0.09169865 -0.048872907 -0.019200081 -0.034725633
0000f0 70 0c 00 bc 59 3f 87 3c d5 77 ea bc 05 ae 76 bd
       -0.007815465 0.016509699 -0.028621593 -0.06022455
000100 d3 ae d5 bc d6 8a 69 3d 34 6d ef bc db df 2c bd
       -0.02608434 0.05701717 -0.029226877 -0.042205673
000110 f2 cd f3 bc 44 e0 a5 bb 83 42 d5 bd f0 f9 51 bb
       -0.029761288 -0.005062135 -0.10413077 -0.0032039843
000120 7b 7a ab bd 46 ec 41 bd 81 18 88 bc f9 4d 18 bd
       -0.08372971 -0.04734447 -0.016613247 -0.037183736
000130 2d 77 ec bc 63 37 7c bc 38 a5 00 bc 0b 15 ef bc
       -0.028865421 -0.015394065 -0.007851891 -0.029184839
000140 aa aa 48 bc 08 9d 30 bd 16 c0 cf bb 21 78 15 3d
       -0.012247721 -0.043118507 -0.006340037 0.036491517
000150 30 f7 b6 3d 9c 62 95 bd 03 30 28 bd 90 97 10 3d
       0.08933866 -0.07294199 -0.041061413 0.03530079
000160 ed 85 dd 3c e8 62 06 3d a8 42 d8 bb 92 0d 2a bd
       0.0270414 0.032809168 -0.006599743 -0.041516848
000170 26 9b 85 bb eb 45 d5 bc 4e 69 65 3d ef 27 31 3d
       -0.004077333 -0.026034316 0.05600863 0.043250974
000180 c8 e7 0e 3d f2 ee 90 3c 02 45 c0 3a ae 35 d5 3d
       0.034889013 0.017692063 0.0014669003 0.10410629
000190 7e 28 33 3d 48 de c9 3c 02 3b 9b 3c c7 c0 eb 3c
       0.04373979 0.024642125 0.018949036 0.028778447
0001a0 89 26 2c 3d 25 b3 35 3d b8 b9 20 3d c2 73 a9 bb
       0.042028937 0.0443603 0.039239615 -0.00517127
0001b0 90 81 6f bc 82 6c e9 bb 82 ae ce 3b a5 35 1b 3d
       -0.014618292 -0.007123531 0.006307424 0.037892956
0001c0 6d cc 81 3d f5 1d 2b 3d bb b0 5a bd c8 b1 e7 3c
       0.06337819 0.041776616 -0.0533912 0.028283015
0001d0 c1 81 b0 3c de 96 59 3d e0 a6 2d bb 01 84 09 3c
       0.021546246 0.053122394 -0.002649717 0.008393289
0001e0 d9 70 5f 3d 8e 54 f3 3b 2b cf 07 3b 30 04 8d bd
       0.05455098 0.007425851 0.0020722847 -0.06885564
0001f0 63 e3 8b ba ec 2b e4 bc a3 29 6a bd 98 ca e5 3c
       -0.0010672625 -0.027852975 -0.057168614 0.028050706
000200 17 77 b4 3b 4d 39 da bd 12 66 96 bd 73 7e 84 bc
       0.0055073607 -0.106554605 -0.07343687 -0.016173577
000210 07 83 cf bc 6d 1f 1b bc d7 b1 9e bd d2 26 de 3c
       -0.025331033 -0.009467942 -0.07748764 0.02711812
000220 c2 16 6d 3d de 00 7d bd d0 7d 4d bd 36 53 ae bd
       0.05788303 -0.061768405 -0.050168812 -0.08511965
000230 49 c4 91 bc 6a cb 81 bc ef bc d5 3c 0b 91 5c bc
       -0.017793791 -0.015844066 0.026091067 -0.013462315
000240 5c 2f b7 bc 34 71 97 bd dd 1e 49 bd 0c a6 bd bc
       -0.02236145 -0.07394639 -0.0491017 -0.023150466
000250 c5 44 ae bc c0 f8 0e bd 4b c7 87 3c 6f d5 b8 bb
       -0.021273026 -0.034905195 0.016574522 -0.0056406776
000260 79 68 20 bd 5d 4b b0 bd 87 3f b7 bc 9c 7c 47 ba
       -0.039162133 -0.086081244 -0.02236916 -0.0007609816
000270 a4 2b 84 bd 10 1c 59 bc 28 d0 c6 bc 37 af 98 3c
       -0.06453636 -0.0132513195 -0.024269179 0.018638236
000280 68 9c e8 3c ad 1a 0d bd 6b 3d a4 bd a1 cd b4 bc
       0.028394893 -0.034449268 -0.08019527 -0.022070708
000290 e8 b5 db bc 07 c4 e7 bc a0 8a 1e bd 7c f9 84 bd
       -0.026820138 -0.028291715 -0.03870642 -0.06492898
0002a0 a3 cb cd bc 30 8d 0b bd f8 01 fe bc 38 47 16 bd
       -0.025121516 -0.034070194 -0.031006798 -0.036689013
0002b0 b6 f5 1e bd 29 4e ac 3c a3 07 56 3d 37 2d b9 3d
       -0.038808547 0.021033363 0.052253377 0.09041827
0002c0 a3 4d 39 3c c4 8d 93 3c bd db e1 3d b0 0a f1 3d
       0.011310014 0.018011935 0.1102824 0.117696166
0002d0 ea 15 48 3d 24 2a c7 3d ce 0f 06 3e 4d e9 9d 3d
       0.048849024 0.097248346 0.13091967 0.07710514
0002e0 7c 48 8e 3d f3 80 09 bc d2 53 88 3c 96 d8 79 3c
       0.06947419 -0.00839256 0.016641531 0.015249392
0002f0 90 d6 7b 3c da 82 e9 3d ee e4 14 bd c2 24 aa 3c
       0.01537098 0.11401911 -0.036351137 0.02076948
000300 fe a8 97 3c 96 46 1f 3d 5a d4 57 3d d8 fe 2a 3d
       0.018513199 0.038885675 0.05269275 0.041746944
000310 5f 93 ad bc 8f ec 8c bc 60 29 1e 3d 6e 2d 62 3c
       -0.021188436 -0.017202644 0.038613677 0.013804777
000320 fe 2d c3 bd 36 5f e0 bc 42 5b da bd df 0b d7 bd
       -0.09530257 -0.02738915 -0.10661937 -0.10500311
000330 a9 d4 1c bd df dd 11 bd 24 5f f2 bc 12 3a 2e 3d
       -0.038288746 -0.035611983 -0.029586382 0.04253585
000340 26 c1 32 bd c9 79 f5 3c 01 46 09 3d 0f 05 2f 3d
       -0.043641232 0.029965298 0.033514027 0.042729434
000350 0c ca 66 3d b6 1a df bc b7 87 b3 3d 6f 3f 90 bd
       0.05634503 -0.027234416 0.0876612 -0.07043349
000360 26 51 45 bd 9f 40 fa bc 1a 0f 47 bd f6 0b 74 3d
       -0.048173092 -0.030548392 -0.048598386 0.05958172
000370 5d ee bb bd 82 0c 7f 3a d2 d8 90 bd 03 ae 84 bd
       -0.091763236 0.0009729342 -0.07072605 -0.064785026
000380 dc fc 84 bd 2a b5 61 3a 79 e2 7a bd 7c 32 6b bd
       -0.064935416 0.00086100644 -0.061251137 -0.057421193
000390 f0 25 2c bd dc 81 8b bd 04 43 ac 3d d1 b7 5a 3d
       -0.042028368 -0.06811878 0.0841122 0.053397957
0003a0 61 e7 ae bc 1d ad 9a 3c dc bd e1 bd 4e 3b 06 3e
       -0.021350564 0.018881375 -0.11022541 0.1310856
0003b0 c7 7b 01 3d 5b 5b 6e 3c 2d 9b ce 3c c7 27 54 bd
       0.031612184 0.014548148 0.025220478 -0.051795747
0003c0 5a 86 f0 3d c3 31 0f 3e e4 ea 18 3d 5c d1 bc 3c
       0.117443755 0.13983826 0.037333384 0.02304905
0003d0 27 57 87 bc 2f 21 b8 3d 71 e3 8b 38 ff 41 8a 3d
       -0.01652105 0.08990704 6.670401e-05 0.06750869
0003e0 d1 0e d9 3d a3 62 2c bd 75 95 85 3b 56 53 25 bc
       0.10598529 -0.042086255 0.0040766546 -0.01009067
0003f0 05 ba 83 bc 61 ad 7d bd 34 a0 57 bc cd 16 c2 bc
       -0.016079912 -0.061932925 -0.013160754 -0.023692513

module.fc1.bias f4 [120]
000000 cf 46 2f 3e 43 85 de bd 04 37 d6 bd 75 09 17 bd
       0.17116855 -0.108652614 -0.10459712 -0.036874253
000010 71 30 40 be ee c9 05 be a5 3a 50 3d 66 6e 84 3d
       -0.18768479 -0.13065311 0.050837178 0.06466369
000020 37 88 93 bd 5a ff 4d bc 1c f3 e2 3c 2e 0c 3b 3d
       -0.07203715 -0.012573088 0.027703814 0.045665912
000030 85 21 d0 bd 26 13 93 be 52 79 dc 3c 52 0a 3e 3e
       -0.10162643 -0.28725547 0.026913319 0.18558624
000040 0f af 2d 3d ef 68 d5 3d 33 0c ec 3d ff 29 de 3c
       0.042403277 0.10420405 0.11525764 0.027119635
000050 f8 64 34 3d 92 c8 10 3d 00 e5 95 bd fc b8 32 bc
       0.044041604 0.03534753 -0.07319069 -0.0109083615
000060 43 17 a4 bd 5c 12 3c bd 78 f9 72 bd 89 7d 10 3e
       -0.08012249 -0.045915946 -0.059319943 0.14110388
000070 d7 e3 7c 3e 7b 92 8b 3d 49 0d 5b bc f4 43 f0 bc
       0.24696289 0.06815048 -0.013369867 -0.029329278
000080 ee 54 1f 3d b8 dc e8 bd 61 cc cd 3c 70 02 5d 3e
       0.038899355 -0.11370224 0.02512187 0.21582961
000090 b0 00 f2 3d ea 19 77 3d b4 ae f4 3c 34 e0 4e 3e
       0.118165374 0.060327448 0.029868461 0.20202714
0000a0 36 ea c2 3d 75 65 f1 3d d9 7a 02 be cd 74 e6 3d
       0.095173284 0.117869295 -0.12742175 0.11252747
0000b0 75 44 39 3e 69 e9 98 3e 4d 62 4c bc b8 3a 20 3e
       0.1809252 0.29865578 -0.012474609 0.156474
0000c0 1d 75 26 3d 42 c2 d2 3d 50 d6 77 3e a8 31 5c bd
       0.04063903 0.10290958 0.24202847 -0.053758293
0000d0 f7 74 af 3d 4e 32 af ba 60 49 08 3e 37 b3 52 bc
       0.08567231 -0.0013366432 0.1330924 -0.012860111
0000e0 42 c7 bd bd 15 99 ee 3c fc 18 55 3d 5a d3 4b 3d
       -0.09266521 0.02912573 0.05202578 0.049762107
0000f0 24 9c a4 3e 17 2f af bc 12 3a 1b 3e 5b ce 56 3d
       0.32150376 -0.021384759 0.15158871 0.05244289
000100 38 6a fc 3c a2 8e 03 bd 77 1e 52 be 64 c7 63 be
       0.030812368 -0.032118447 -0.20519434 -0.2224403
000110 e3 d8 2b 3d 21 7b 69 3d 80 10 ff 3d 11 f4 65 bd
       0.041954886 0.05700219 0.12454319 -0.056140963
000120 61 92 49 bc 88 a4 e3 bc 53 26 af bc 2a 72 63 bd
       -0.012302966 -0.027788416 -0.02138058 -0.055528797
000130 f9 b3 99 3d a3 55 db 3d a4 b0 96 3d b8 b1 0b bd
       0.0750503 0.10709693 0.0735791 -0.034105033
000140 0f df c5 bd 91 49 a5 3d 00 95 09 3d de 01 9c 3d
       -0.09661686 0.08070672 0.033589363 0.07617544
000150 5b a8 cd 3d 8f 95 ae 3e 63 f3 fb 3d d0 1a b2 bd
       0.10041877 0.3409848 0.12302282 -0.0869652
000160 39 d9 84 be 52 47 17 3e 5e 09 08 bd 1e 06 13 3e
       -0.25946978 0.147733 -0.03321206 0.14357802
000170 4a fc 44 3d 63 2c ae ba a6 66 cd bd 8a 10 48 3e
       0.048092164 -0.0013288375 -0.10029344 0.19537559
000180 b2 af 54 3d 1b 07 18 3e b0 81 02 3e fd f2 81 bd
       0.05192537 0.1484646 0.12744784 -0.063451745
000190 f1 ac 25 bd 53 6b 37 bd b5 02 a1 bc bf 18 b2 bc
       -0.040448133 -0.044780087 -0.019654611 -0.021740315
0001a0 65 47 46 3e c7 5f 5a be e4 67 16 bd 6e be 96 bd
       0.19363172 -0.21325599 -0.03672017 -0.0736054
0001b0 ec 84 c9 bd ed 41 2d 3e 8b 55 1e bd 3e c6 56 bd
       -0.09839806 0.1691968 -0.0386558 -0.052435152
0001c0 ed fa eb 3c 1a d8 f7 bc f4 23 e7 3c 65 f7 aa 3d
       0.028806174 -0.030254412 0.028215386 0.08347968
0001d0 66 7a a5 bd e1 b9 72 bc b2 1d 8c 3d 08 3d 50 3e
       -0.08079986 -0.014814825 0.068416014 0.20335782

module.fc2.weight f4 [84, 120]
000000 44 00 fd bd 2d a6 84 bc 50 ce 52 bd 00 f3 0e bc
       -0.12353566 -0.01619252 -0.051466286 -0.008724928
000010 7c 28 11 be 4d 04 a6 3a 76 a4 0b bc 2d 75 5d 3d
       -0.141756 0.0012666077 -0.008523097 0.054066826
000020 70 25 e2 3d 1c c2 8a bd 8f d6 12 3c 81 fc 6f 3d
       0.11042297 -0.06775305 0.008962288 0.058590416
000030 7b d9 27 bc 7f 00 97 3c 6e 00 52 bd 24 41 6c bd
       -0.0102447225 0.018432854 -0.05126994 -0.05767931
000040 a8 76 a4 3d df 3c 33 bb 70 0e a6 3b 6f 0b ae 3d
       0.080304444 -0.0027349514 0.005067639 0.084982745
000050 b7 e3 c7 bd 7a 8a 15 3d 41 6f 72 3d dc f1 93 3b
       -0.0976023 0.036509015 0.05918813 0.004514916
000060 35 86 f2 3d 7d f2 78 3c 4d be 22 3e 52 69 0a be
       0.11842004 0.015194532 0.15892906 -0.13516739
000070 a2 12 1b ba 4b c5 83 bd b3 07 c0 3c 06 b6 4d 3c
       -0.0005915557 -0.06434115 0.023441171 0.012555605
000080 d5 68 b8 bd ee cc ed 3c be 5c 31 3d a9 32 39 bd
       -0.0900437 0.029028382 0.043301336 -0.04521433
000090 bb 90 01 3e 6f 27 98 3d 88 7e bb bd 60 c2 a0 bd
       0.12652867 0.07429396 -0.09154993 -0.07849574
0000a0 37 99 d3 3c 9d 56 92 3d 2c 14 3c bd ba 66 58 3c
       0.025829894 0.071454264 -0.045917675 0.013208086
0000b0 60 aa 12 bd 93 5a 9f bd 9e 1d 97 bd b5 42 ef 3d
       -0.035807014 -0.077809475 -0.07378696 0.11682645
0000c0 88 9c e4 3b 1e 16 40 bc f8 9e 49 3d 7a 2a 8a bd
       0.006976668 -0.011724023 0.04922387 -0.06746383
0000d0 c5 1b 2f be 62 73 10 be c0 84 42 3d 42 80 c5 3d
       -0.17100437 -0.14106515 0.04748988 0.09643604
0000e0 b1 e2 b1 3d 20 0d d3 bd 0e 15 f9 bc 5c 7d bc bd
       0.08685816 -0.10305238 -0.030405547 -0.09203598
0000f0 62 f7 82 bc e0 b0 1f 3d d0 16 ed bd 7f 02 e6 bc
       -0.015987102 0.03898704 -0.11576617 -0.028077362
000100 2d 44 82 3d 90 81 c3 3d 18 c1 8c 3d 63 d0 91 3d
       0.0636066 0.095461965 0.06872767 0.07119825
000110 bc 82 26 bd 36 cf 02 3e 50 a8 9f bd e8 96 e3 bc
       -0.04065202 0.12774357 -0.07795775 -0.027781919
000120 79 ae ef 3c 06 93 b9 3d 01 ec 17 3d 7b 4c cb 3d
       0.029258 0.090612456 0.037090305 0.09926697
000130 70 37 98 bd 93 25 a3 bd 67 3e a5 bd da b4 35 bd
       -0.07432449 -0.07966151 -0.08068543 -0.044361927
000140 95 ec 2a bd 65 c3 f6 bd 7d 32 2e 3d ec 72 44 3b
       -0.04172953 -0.12048987 0.042528618 0.0029975725
000150 c2 bc ba bd 3d f7 7c bd db 96 03 3e db c7 5a bb
       -0.09118034 -0.061759222 0.12850516 -0.0033383283
000160 70 32 e9 3c f8 02 b6 bd da 54 7f bd 57 45 7a 3c
       0.028466433 -0.08887285 -0.06233678 0.015275321
000170 13 33 e3 bd a0 8c 06 3d 9a 0d 81 bc 1a 5f c1 bd
       -0.11093726 0.032848954 -0.015753556 -0.09441967
000180 ba 33 8e bb db f9 9f bc d1 7d 8d bd 0d c6 a4 3c
       -0.0043396624 -0.01952832 -0.06908763 0.02011397
000190 7e 02 13 bd f5 24 62 3d 8a 84 1a bd 4f b0 e9 3c
       -0.03589105 0.055211026 -0.037724055 0.028526453
0001a0 d9 e1 f9 bd 1d 7c 8f bc f8 13 28 bc ea 2f a9 3d
       -0.1220128 -0.017515237 -0.010258667 0.08261092
0001b0 d6 da 98 3d 07 5b a8 bc af 45 9c bd 9e a1 a8 3c
       0.07463615 -0.020551218 -0.076304786 0.020584878
0001c0 71 42 7f bc cc cf b4 bd 49 46 38 3d 91 e4 5c 3d
       -0.015579806 -0.088286966 0.044988904 0.053928915
0001d0 83 8b f5 3c 22 20 ad 3d 9c 74 b7 bc 2b 6d d7 bd
       0.029973751 0.084533945 -0.02239447 -0.10518869
0001e0 94 cb 24 3e 02 26 bf 3d 0d 3e d3 bc fe 40 13 be
       0.16093284 0.09333421 -0.025786424 -0.14380261
0001f0 0d c6 95 3d e0 84 bd bd 13 59 f6 3d 46 3a 90 bd
       0.07313166 -0.092538595 0.12028708 -0.07042365
000200 77 23 79 3d f8 f6 4f bc c3 e5 4c bd d8 c9 0b 3e
       0.060824838 -0.012693159 -0.050023805 0.13651216
000210 8b af 63 bd a5 27 c2 3c f8 0d 48 3c b9 da a3 3d
       -0.055587333 0.023700545 0.012210362 0.080007024
000220 69 6f 80 3c 53 9b 53 bd 76 a3 aa 3b 09 bb 9f bc
       0.015678125 -0.0516618 0.0052074743 -0.019498365
000230 63 f0 e3 bd 54 2f 7b bd 77 a4 b6 bc 2d d3 42 bb
       -0.111298345 -0.061324432 -0.02229522 -0.0029727921
000240 e8 45 fc 3c ba 8e ce bd 87 6a 22 3e cf 59 98 bd
       0.030795053 -0.10085817 0.1586095 -0.07439005
000250 91 ba df 3d f9 c4 03 3d 10 ec b5 bd 77 85 9b bd
       0.109242566 0.03217027 -0.08882916 -0.07593816
000260 a8 9a c9 bd 74 4d d4 3d 41 68 b4 3d a1 e2 47 3c
       -0.098439515 0.103663355 0.08808947 0.012200029
000270 f4 d6 d6 3d 8a f2 07 be 49 d1 09 bd 94 ea 18 be
       0.10490218 -0.13276115 -0.033646856 -0.14933234
000280 ec 0f 84 bc 52 8c 2e 3e 87 f7 2e be 32 06 aa 3d
       -0.016120873 0.17045715 -0.17086612 0.08301963
000290 3b e4 3e 3d 96 e4 45 3d 41 32 5c 3c 74 d1 56 3d
       0.046604376 0.0483137 0.013439716 0.052445844
0002a0 28 e7 82 3c 59 4a 95 3d 99 7e 8e 3d a3 e7 d0 bd
       0.015979365 0.07289571 0.0695774 -0.10200431
0002b0 a4 1b c0 3c bd 83 e0 3c 5e b0 8e bd e2 40 66 bc
       0.02345068 0.027406568 -0.06967233 -0.014053555
0002c0 4c 08 6c bd 83 f2 31 be 8d d2 9b bd 60 39 84 bd
       -0.0576251 -0.17377667 -0.07608519 -0.06456256
0002d0 b2 69 f1 3c 8c 1a 14 bd 0f 56 b8 bd bd 57 9c 3d
       0.029469345 -0.03615813 -0.090007894 0.07633922
0002e0 bc cf 85 bd 17 09 fe 3c f0 ba 5c 3e a6 5f 6c bd
       -0.06533763 0.031010194 0.21555686 -0.057708405
0002f0 6f 67 64 3c 81 17 45 3e bc 68 ab 3d ac 03 ce 3d
       0.013940676 0.19247247 0.08369586 0.10059294
000300 fc 00 10 bd d0 4c b7 bd 37 07 b9 3b 9e 25 69 39
       -0.03515719 -0.08950198 0.005646612 0.00022234625
000310 46 85 e8 bd b7 82 e1 3c d8 36 44 be 00 39 84 3b
       -0.11353545 0.02752815 -0.19161546 0.0040351152
000320 5e 46 eb bc 51 6a 80 bd 26 e2 12 be 6d 4e 94 bd
       -0.028720077 -0.06270278 -0.14344081 -0.07241521
000330 9f 11 ad 3d 36 50 6b 3d c7 9b d2 bc c2 73 0f bd
       0.084506266 0.057449542 -0.025709046 -0.035022505
000340 50 ca bb bc 5e e6 4f 3e 80 19 f6 bc c6 5e 19 be
       -0.022923619 0.20302722 -0.030041456 -0.1497756
000350 5d cf ad 3d 13 96 47 3c d4 16 bb bd 77 9c e2 bd
       0.08486817 0.012181777 -0.091352135 -0.110649996
000360 68 37 c3 bd 7d 7b a0 ba 00 fa 2f be f1 a5 c5 3d
       -0.09532052 -0.0012243834 -0.17185211 0.096507914
000370 e4 52 50 3d 5c ac ab bd 7c 29 27 bd b4 18 c5 bd
       0.0508603 -0.08382484 -0.040811047 -0.09623852
000380 44 a4 18 be 57 d9 7a 3b fd 1e 53 bd ea 65 8c bd
       -0.14906412 0.0038276517 -0.051543225 -0.06855376
000390 fb 29 da 3c 8d 14 bb bd ca 02 cc 3b d2 94 22 3c
       0.026631346 -0.09134779 0.0062259184 0.009923177
0003a0 c3 13 99 3d 7e 46 09 3d a4 c9 2e bd 3e 98 f9 3c
       0.074744724 0.033514492 -0.04267277 0.030468103
0003b0 15 07 68 bd 34 a9 0f 3d f2 5b 29 3d 48 bb cc bd
       -0.05664738 0.035073474 0.04134745 -0.099966586
0003c0 d6 b1 c5 bb 11 be 8d 3d 09 df e2 bd db b1 12 3d
       -0.0060331626 0.06921018 -0.11077697 0.035814147
0003d0 cd 67 bb bd bf 23 99 bd 5d c9 b7 3d d9 c3 d0 3d
       -0.09150658 -0.07477521 0.08973954 0.10193605
0003e0 92 d6 e0 bd 02 50 ab 3d 42 5b 9f bc de 0e 99 3b
       -0.10978426 0.0836487 -0.019452695 0.0046709618
0003f0 cf be 8f 3c 05 0f 26 bd fc 5e b0 bc c1 12 d4 3d
       0.01754704 -0.040541667 -0.021529667 0.103551395

module.fc2.bias f4 [84]
000000 48 c0 fe bd 61 85 61 bd 80 32 f0 3e b0 87 5f bc
       -0.124390185 -0.05505884 0.46913528 -0.01364319
000010 27 8a bc bc cf 1a c3 3e dc 8a 83 3c 07 ce 79 bd
       -0.023015095 0.3810639 0.016057424 -0.0609875
000020 a4 d1 49 3c 3e 7d 88 3e 52 88 0f 3f 66 9d b9 3c
       0.012318049 0.26658052 0.56067383 0.022658061
000030 45 5f b0 bd 5f 43 cb 3c ce 45 25 bc 6f ff 23 bd
       -0.08611921 0.024812398 -0.0100874435 -0.040038522
000040 44 ea a7 3d ed 6b e0 3e c2 51 30 3e 62 e9 37 3b
       0.081989795 0.4383234 0.17218688 0.002806269
000050 9d da 19 bd 7d 5c 11 3d 0e fe 9c 3e 46 5f 06 3e
       -0.037562 0.035488594 0.30662578 0.13122281
000060 dc 5e bb 3d 27 03 b6 bb c5 51 77 3e 17 d4 22 3e
       0.09148952 -0.005554575 0.24152286 0.15901218
000070 4c 53 07 3d 54 fc 17 3e 6a 2d ba bc 70 25 9c bc
       0.033038422 0.1484235 -0.022726733 -0.01906082
000080 75 4c c6 bd f2 93 8f be a7 a0 a5 be 8c b9 b9 bd
       -0.09682552 -0.2804256 -0.3234913 -0.090685934
000090 89 fa 47 3e bd 40 66 3e 40 33 fc 3c 09 58 af bd
       0.19529165 0.22485633 0.030786157 -0.08561713
0000a0 9f 80 9e 3d 80 14 8f 3d 76 cd cf 3e 01 bd 9a bd
       0.07739376 0.06986332 0.40586442 -0.07555581
0000b0 9f c9 02 3e 26 6a 46 3e 57 1b 87 bd c3 1b 3b bb
       0.12772225 0.1937643 -0.065970115 -0.0028550483
0000c0 ae d0 64 bd db 4f 2f bd eb fd ae 3e 18 96 42 3d
       -0.055863075 -0.042800765 0.341781 0.04750642
0000d0 24 8d 78 3e 05 5d 35 3e 06 9d ce 3d d2 4d b6 bd
       0.24272591 0.17711265 0.100885436 -0.08901562
0000e0 b8 4c e5 3e 4e a7 c4 3d f8 9f 4f 3e dc 6e 45 bd
       0.44785094 0.09602223 0.20275867 -0.048201427
0000f0 b8 d1 e1 bd 47 2a 1f be 4e c9 af 3d 21 78 ad bd
       -0.11026329 -0.15543471 0.08583318 -0.084701784
000100 1c cc f7 b9 48 35 cd 3c c7 91 95 bd 5e 8d c0 3d
       -0.00047263585 0.02504982 -0.073031954 0.09401964
000110 ce da 5c bd 27 e9 f6 3d 3d 34 1c 3d 6c 33 9f 3d
       -0.053919606 0.12056189 0.038135756 0.0777348
000120 b3 69 fe bc 68 0b 46 3e 80 10 f8 bc bb 48 89 bd
       -0.03105626 0.19340289 -0.030281305 -0.06703325
000130 62 c1 30 3e 16 cb 7b 3e b4 41 90 3c a8 1a b2 3d
       0.1726127 0.2458919 0.017609455 0.086964905
000140 47 6b ce 3d 8c f4 71 3c de 9e ee 3e 21 91 28 bb
       0.10079055 0.014767777 0.4660558 -0.002572127

module.fc3.weight f4 [10, 84]
000000 af 61 42 bd 70 f2 00 3e aa 3f ab be eb cb 2b bd
       -0.04745644 0.12592483 -0.3344701 -0.04194252
000010 e4 15 71 bd 00 84 eb 3c 51 69 04 be fa ba e9 bd
       -0.058858767 0.028749466 -0.129308 -0.11412616
000020 ea 73 f7 3c da 9f be 3d 32 65 a4 be 9b 2c 58 3d
       0.03020664 0.09307833 -0.32108456 0.052776914
000030 2c 1c 7d be 0e 5d fd 3d 50 17 32 3e c2 f8 06 be
       -0.24717778 0.123712644 0.17391706 -0.13180831
000040 84 c9 37 3e 06 32 97 3d 86 56 86 be e7 5b 0f 3e
       0.17947966 0.07382588 -0.26237887 0.13999902
000050 90 49 53 3d 06 49 05 3e a8 b4 17 3c 9a 78 16 3e
       0.051583827 0.13016137 0.00925938 0.14694443
000060 39 a1 62 3d 94 46 87 3d 93 af 0c 3d 4e c8 36 3e
       0.055329535 0.066052586 0.034347128 0.17849848
000070 e3 71 33 3d 1e 23 60 3e 13 ce de 3d 07 2c 02 be
       0.043809783 0.21888396 0.10879149 -0.12712108
000080 b5 8e 6a 3e db 38 6f 3e 48 42 dd 3d 9c 2f 6e bd
       0.22906001 0.23361532 0.10803658 -0.058150873
000090 03 17 31 3e ed 10 1b 3e 7c 09 82 bd 81 17 2d bd
       0.17293935 0.15143175 -0.06349465 -0.042258743
0000a0 19 b1 24 3b 37 e2 8f 3e 07 98 01 3d 41 0d b4 bc
       0.0025129972 0.28102276 0.031639125 -0.021978976
0000b0 57 72 f4 bd 7a 21 22 be d1 27 9a bd 9b 68 03 3d
       -0.11935871 -0.15833083 -0.075271256 0.03208218
0000c0 cb ae 7a 3d f2 1b ed bd 24 19 24 be cd 6e ad 3d
       0.06120185 -0.11577596 -0.16025215 0.08468399
0000d0 24 99 8c 3e c7 d9 5a bd b9 fd 08 be 77 d9 35 bc
       0.27460587 -0.053430345 -0.13378038 -0.011099211
0000e0 83 48 a4 be 78 e4 3e 3e 42 df 84 be 99 64 3c 3d
       -0.32086572 0.18641841 -0.25951582 0.045994375
0000f0 05 6c 1b bc 90 86 ba 3d 0d 84 c8 3c 74 e4 cd 3d
       -0.009486203 0.09107697 0.02447703 0.100533396
000100 0a a1 0a be 19 e5 e1 bc 40 e3 2c be d7 89 c8 bd
       -0.13537994 -0.027575063 -0.16883564 -0.09791916
000110 af f5 9e 3d 76 81 ca 3c 86 bd 1e bc 88 70 a7 3d
       0.07761704 0.024719935 -0.009688741 0.081757605
000120 76 99 e1 bd f6 5f c6 bd cf 2b ff 3d bf eb aa 3d
       -0.110155985 -0.09686272 0.12459528 0.08345746
000130 09 98 d6 bd d9 92 93 be ac 95 16 bc 3f 78 13 3e
       -0.10478217 -0.28822973 -0.009190958 0.14401339
000140 34 75 a7 bd 65 f2 2a bd 51 86 a3 3e bf 57 9e bd
       -0.081766516 -0.04173507 0.31938413 -0.0773158
000150 34 08 31 3e d3 65 ac 3d 9f d7 d0 be 09 77 09 3c
       0.17288285 0.08417859 -0.40789506 0.008390197
000160 7d 54 18 bc 30 e0 13 3d c4 06 5a 3e 16 ae 52 3d
       -0.009297487 0.036102474 0.21291643 0.051435553
000170 b9 8f c9 3d 9e bd c3 3d 54 14 e9 bd cc 46 3f 3e
       0.09841866 0.09557651 -0.113808304 0.1867935
000180 05 c9 75 3e c4 e0 24 3d 2e 00 31 3e 48 8c fe bd
       0.24002464 0.040253416 0.17285225 -0.124291
000190 42 f1 66 be 6a 0c 54 be d0 df da bd 1d af 07 3f
       -0.2255297 -0.2070786 -0.1068722 0.53001577
0001a0 f0 8f 15 3e 58 41 51 3e cd 92 60 be 53 83 06 be
       0.14605689 0.20435083 -0.21931 -0.13136034
0001b0 05 28 2e be 63 15 3c 3e c4 af 7b be b0 fc 60 be
       -0.17007454 0.18367533 -0.24578768 -0.21971393
0001c0 94 2a 31 3d cc f7 84 bd 37 fd a6 3b 62 ba 45 bc
       0.043253496 -0.06492576 0.0050961035 -0.012068363
0001d0 c2 fe ba bd 9e 38 4f 3e 69 6d ba 3e c1 22 cb 3d
       -0.091306224 0.20236441 0.36411598 0.09918738
0001e0 db d8 14 be 75 30 a4 bc 2e d7 0a 3d ac 15 e0 3c
       -0.14535849 -0.020042637 0.033896618 0.027354084
0001f0 ad 75 1a bc b6 12 37 be 82 58 d3 bd 1a 47 e8 3d
       -0.00942747 -0.17878231 -0.10319616 0.113416865
000200 e3 eb 81 bd 7f bc 9d 3d 7a 8f 18 be 95 d2 4c 3e
       -0.0634382 0.077019684 -0.14898482 0.20002206
000210 92 61 41 3b c3 fd 4f 3c d8 71 34 be 65 7d 91 3d
       0.002950762 0.012694779 -0.17621553 0.07103995
000220 2b 5f 27 3d 7a 96 eb bd 14 37 61 3b fa aa 9a bd
       0.040862244 -0.115033105 0.0034365105 -0.075521424
000230 ad 87 2f be 4f 93 0a be e4 75 a7 bd 90 e1 04 be
       -0.171416 -0.13532756 -0.08176783 -0.1297667
000240 1e 85 d8 3d aa 32 6f 3c 29 80 be 3d d6 7b 13 3e
       0.10572265 0.014599482 0.09301788 0.14402708
000250 2b 0d 91 3e 36 b5 23 bd e1 b3 06 3e e9 f6 63 3c
       0.2833036 -0.039967738 0.13154556 0.013913848
000260 04 a5 27 be 65 a8 c0 bd 6d 44 91 3d 88 44 2d 3d
       -0.16371542 -0.09407119 0.07093129 0.042301685
000270 65 97 f9 3d 0c 0f 3a be b3 c4 b4 3d 5b 12 34 be
       0.12187079 -0.18169802 0.0882658 -0.17585127
000280 fd 0e 65 bd bf b1 77 bd 1a e0 9e bd be 96 6b be
       -0.055922497 -0.060472246 -0.07757588 -0.23006722
000290 d7 66 f8 bd fa 9d c1 3d 7c 2b 6b bc b2 50 91 3d
       -0.1212899 0.0945396 -0.014353629 0.070954695
0002a0 69 58 c2 3d 11 69 92 3c 4f 7b 4a 3e 9d ef 0b be
       0.09489519 0.017872365 0.19773601 -0.13665624
0002b0 c6 36 42 bd 74 86 38 be bd f4 b2 bd a3 c8 a5 3d
       -0.047415517 -0.1802004 -0.087380864 0.08094909
0002c0 59 14 a6 bd c3 42 bd bd d0 6c 87 3e 34 0c 08 3d
       -0.0810935 -0.092412494 0.26450205 0.033214763
0002d0 2b 6b 24 3c f0 39 85 bd a7 87 0e 3d 8f ad 42 be
       0.010035316 -0.06505191 0.034797337 -0.1901152
0002e0 81 63 17 3e e9 26 88 3e 1d 8d 08 3e 7e 5b 2a be
       0.14784051 0.26592186 0.1333508 -0.16636464
0002f0 cb 5c be bd c8 fd 7a be 0e 11 d3 3d f0 9d fd 3d
       -0.092950426 -0.24510872 0.10305987 0.1238364
000300 8f 04 46 3c 68 2a 01 be 7f 3a 4b 3e 8f ad b1 bd
       0.012086048 -0.12613833 0.19846533 -0.08675682
000310 48 83 c1 bc 05 98 00 bd 4a 36 12 bc 65 5c 90 bd
       -0.02362217 -0.031394977 -0.008924076 -0.07048873
000320 19 c2 1c bd 74 1f c6 bd 35 4f 89 bd 41 fb 3b bd
       -0.038271043 -0.09673968 -0.06704561 -0.04589391
000330 ea 69 88 3d a8 9a db 3d e0 c8 9a bd 18 ec a4 bc
       0.066608265 0.10722858 -0.07557845 -0.02013211
000340 cc 56 25 bc 27 f0 2a bd ed ae 0f 3e 04 4b f6 bd
       -0.010091495 -0.041732933 0.14031573 -0.12026027
000350 a2 9e 7c 3e 8f a7 3c be c6 93 15 3d 54 f1 ae bd
       0.24669889 -0.18423294 0.03651788 -0.085421234
000360 d0 17 18 bc cb 4f 2a bd 09 0a ed 3d 04 8d d7 3d
       -0.009283021 -0.041580003 0.1157418 0.105249435
000370 cf 59 18 3e 87 d0 bc 3c b1 d9 09 3e d6 a2 7a bc
       0.1487801 0.023048652 0.13461949 -0.015297612
000380 53 4b fd 3c 2b b8 64 3e 1e 88 b2 bc e7 9c f7 3b
       0.030919706 0.2233588 -0.021793421 0.007556546
000390 94 f2 9f bd c5 9d 4d 3e 80 20 04 3e b5 a5 30 3d
       -0.0780994 0.20079716 0.12903023 0.04312678
0003a0 c2 ae c0 3c 45 f1 a6 3d 46 b2 1b bd 6e 13 26 be
       0.023520831 0.08151487 -0.03801181 -0.1621835
0003b0 0d ab 2d be c4 e4 bd 3c d7 69 32 bd 2f 50 8b 3e
       -0.16959782 0.023180373 -0.043557968 0.27209613
0003c0 32 4d 20 be 1c fc d2 3c 7b b1 19 bb 59 54 20 3d
       -0.15654448 0.02575498 -0.0023451734 0.03914294
0003d0 7b 33 31 3e 8a f7 6f 3b 06 52 01 bd 23 d6 52 3e
       0.17304794 0.003661605 -0.031572364 0.20589499
0003e0 f4 bf 0b 3d 65 fa ac 3d d2 77 fb bb b6 e6 47 3e
       0.034118608 0.084461965 -0.007674196 0.19521603
0003f0 01 33 23 be b2 7b 27 3d 3b 2e 75 3e 1f 85 1c 3d
       -0.15937425 0.04088945 0.23943417 0.03821289

module.fc3.bias f4 [10]
000000 98 fe 61 be 7f af 2e bf e8 47 03 3e 55 77 92 3e
       -0.22069776 -0.68236536 0.12820399 0.28606668
000010 6e 86 0d 3f 50 9d 79 be 7f 9d a5 3d 20 5d de be
       0.5528325 -0.24376416 0.080866806 -0.43430424
000020 73 5e 11 3f 77 9e ca be
       0.56784743 -0.39574024
