models/classifier_net_epoch_3_2000.pth (torch_old, 249853 bytes, 10 tensors)

module.conv1.weight f4 [6, 3, 5, 5]
0	0x3df07afb	0.11742207
1	0x3e34441f	0.17604111
2	0x3ea102db	0.3144749
3	0x3f19d52e	0.6009091
4	0x3e7f9119	0.24957694
5	0x3e6f15ba	0.23348132
6	0xbe3c316c	-0.18378228
7	0x3d822512	0.06354727
8	0x3f351d72	0.70748055
9	0x3e5b1341	0.21394064
10	0x3ea623fb	0.32449326
11	0xbe0b354f	-0.13594554
12	0xbf302ec4	-0.6882136
13	0x3f111f0b	0.5668799
14	0x3e711938	0.23544776
15	0x3de5872d	0.11207423
16	0xbdf44378	-0.11926931
17	0xbf14ae12	-0.5807811
18	0x3c81a730	0.015826792
19	0xbdfcc239	-0.123417325
20	0xbd96569b	-0.073407374
21	0xbe19b412	-0.15010098
22	0xbee3dc56	-0.4450404
23	0x3a6b6a6e	0.0008980398
24	0xbe9007a9	-0.28130844
25	0xbd5e75e6	-0.054311655
26	0xbecabbb6	-0.39596337
27	0xbf01ad7e	-0.50655353
28	0xbdf567d9	-0.11982698
29	0xbecda8b6	-0.4016778
30	0x3ea9b6ad	0.33147183
31	0xbf0e5102	-0.5559236
32	0xbf265850	-0.64978504
33	0x3e37cfc0	0.17950344
34	0xbdfc3c16	-0.12316148
35	0x3ef72150	0.48267603
36	0xbe87ce06	-0.2652437
37	0xbf6f2a9f	-0.9342441
38	0x3ed49633	0.41520843
39	0x3e0f9688	0.14022267
40	0x3ecbdc58	0.39816546
41	0x3de2fc7e	0.11083315
42	0xbf3807d3	-0.7188694
43	0x3e413ac3	0.18870072
44	0xbe121b2b	-0.14268176
45	0x3f0716e2	0.5276929
46	0x3d41676c	0.04721777
47	0xbe1631fc	-0.14667505
48	0x3ebf63bc	0.3738078
49	0xbd5f1ea3	-0.054472577
50	0xbcb93f3a	-0.022613157
51	0xbdc615c6	-0.09672122
52	0xbd8de7e7	-0.069289975
53	0x3e3d57b3	0.18490486
54	0xbe3e88c2	-0.18606856
55	0x3eadec51	0.33969358
56	0xbe8c5f66	-0.27416533
57	0xbe8050e4	-0.25061715
58	0x3eddf45f	0.43350503
59	0xbea3421a	-0.3188637
60	0x3ef5e0b3	0.48022994
61	0xbe28c03b	-0.1647958
62	0xbf1c98e3	-0.61170787
63	0x3ec53aee	0.38521522
64	0xbdc04070	-0.093872905
65	0x3ee96f8d	0.4559292
66	0x3e8203b8	0.25393462
67	0xbeea7584	-0.45792782
68	0x3e1df45c	0.15425247
69	0xbe246aa5	-0.16056307
70	0x3ee5e177	0.4489858
71	0x3e3b8ecf	0.18316196
72	0xbe1849d5	-0.14871915
73	0x3e2c5f49	0.16833223
74	0xbe1197b0	-0.1421802
75	0xbd9cdb72	-0.07659043
76	0x3e5eae8b	0.2174627
77	0x3daa9753	0.08329644
78	0x3d803b16	0.0626127
79	0xbd85ee0f	-0.06539547
80	0x3c890ae7	0.016728831
81	0x3ea2f749	0.3182929
82	0x3d7dd117	0.06196698
83	0xbd3a6fa7	-0.045516636
84	0xbd15b5fd	-0.03655051
85	0x3db1b502	0.086771026
86	0xbe293437	-0.16523825
87	0xbeb6248f	-0.35574767
88	0xbe72a010	-0.23693871
89	0xbe3fbcb1	-0.18724324
90	0xbe4d9782	-0.20077327
91	0xbef9edf7	-0.48814365
92	0xbed54f0b	-0.41661867
93	0xbe10531a	-0.140942
94	0xbd7221bf	-0.059114214
95	0xbe148938	-0.1450547
96	0x3d8f3129	0.069917984
97	0x3da7f675	0.08201305
98	0x3e9f4330	0.31105947
99	0x3ea45011	0.32092336
100	0xbe965ec0	-0.29369164
101	0x3d60a776	0.054847203
102	0xbcfa24e8	-0.030535176
103	0xbd80d443	-0.06290486
104	0xbe111337	-0.14167486
105	0x3d79ca7d	0.060984123
106	0x3e84b6f0	0.2592082
107	0xbda18ca1	-0.07888151
108	0xbdd286c2	-0.10279609
109	0xbe24876b	-0.16067283
110	0x3e74acd3	0.23894052
111	0xbd6c5a30	-0.057703197
112	0xbe9580b0	-0.29199743
113	0xbea9993f	-0.3312473
114	0xbe22dc50	-0.15904355
115	0xbda861d2	-0.08221783
116	0xbeb3fccd	-0.3515381
117	0xbeb2594b	-0.3483375
118	0xbe2de677	-0.16982447
119	0xbdac277d	-0.08405969
120	0x3c9635cc	0.0183362
121	0xbd9c5c38	-0.07634777
122	0x3da6349e	0.08115505
123	0x3e69dc2a	0.22837892
124	0x3e8b4f20	0.27208805
125	0xbdfef68e	-0.1244937
126	0x3de56c8c	0.11202344
127	0x3ce5989a	0.028026868
128	0x3e3be0b2	0.18347433
129	0xbd07a074	-0.033112004
130	0x3dee7f19	0.11645336
131	0x3e9eb67c	0.309986
132	0x3e8fb975	0.2807118
133	0x3d6f1810	0.058372557
134	0xbdac2362	-0.08405186
135	0x3e6dbd00	0.23216629
136	0x3df83a7d	0.12120531
137	0xbdeccd16	-0.115625545
138	0xbe9612d1	-0.2931123
139	0xbe1c2344	-0.15247828
140	0x3c95d9ab	0.018292269
141	0xbebc1f1e	-0.3674249
142	0xbe96e80e	-0.2947392
143	0xbe545132	-0.20734099
144	0x3c639a65	0.013891791
145	0xbbc67f8a	-0.0060576843
146	0xbd2af58d	-0.04173808
147	0x3e8b1eb7	0.2717187
148	0x3e321f93	0.17394857
149	0x3e16c7a6	0.14724597
150	0xbd8be4e2	-0.06830765
151	0xbe2ebd46	-0.1706439
152	0xbe5756d4	-0.21029216
153	0xbdfd1a67	-0.123585515
154	0xbe157559	-0.14595546
155	0x3d4eec9b	0.050518613
156	0x3e8352aa	0.25649005
157	0x3dd46fdf	0.103729
158	0x3df86468	0.12128526
159	0x3d26cedc	0.04072462
160	0xbde4af1d	-0.11166213
161	0xbaab529f	-0.0013070888
162	0x3df77220	0.120823145
163	0x3cdabe76	0.026702147
164	0x3d62e6ed	0.05539601
165	0xbec0dac2	-0.376669
166	0xbea96376	-0.33083695
167	0xbe9fcf07	-0.31212637
168	0xbeb9f259	-0.3631771
169	0xbea5c45f	-0.32376382
170	0xbddb1d2c	-0.106989235
171	0xbe8131b2	-0.25233227
172	0xbe4c11bc	-0.1992864
173	0xbe51bc31	-0.20481946
174	0xbe22e5a1	-0.15907909
175	0xbe79f544	-0.24409968
176	0xbe9ae7d2	-0.3025499
177	0xbe1a5882	-0.15072826
178	0xbe2d6f38	-0.16936958
179	0xbe58112f	-0.21100305
180	0x3e8abfd5	0.2709948
181	0x3e994e71	0.2994266
182	0x3eb51189	0.3536494
183	0x3e73f576	0.23824105
184	0x3e86b8ec	0.2631296
185	0x3d4028ae	0.046913795
186	0x3c5da3c3	0.013527813
187	0x3d9f2707	0.07771116
188	0x3daae532	0.08344497
189	0x3e2f9206	0.17145547
190	0xbe8b9bf5	-0.27267423
191	0xbed24d07	-0.41074392
192	0xbe93b533	-0.28849182
193	0xbe75de97	-0.24010693
194	0xbe1e215f	-0.15442418
195	0xbd0856d3	-0.033285927
196	0xbe2d6bb0	-0.16935611
197	0xbdfca900	-0.12336922
198	0x3b3cee34	0.0028828504
199	0x3d1b40cb	0.03790359
200	0xbe013c33	-0.1262062
201	0x3c4b32fb	0.012402291
202	0xbced26d5	-0.02894918
203	0xbdbb5c98	-0.0914852
204	0xbe1db9fa	-0.15402976
205	0x3eba8174	0.3642689
206	0x3e855bfe	0.26046747
207	0x3ee4836c	0.44631517
208	0x3ee88b75	0.45418897
209	0x3eaf8d26	0.34287375
210	0x3e20f93b	0.15720074
211	0x3e66a5c2	0.22524169
212	0x3e49f41c	0.19722027
213	0x3ea237bf	0.31683156
214	0x3e6ad5fc	0.22933191
215	0x3bbac6d6	0.0056999726
216	0x3d160dae	0.03663414
217	0xbd96a287	-0.073552184
218	0x3b42375f	0.0029635055
219	0x3daf5c3f	0.085625164
220	0x3e3d590d	0.18491001
221	0x3df05a6c	0.117359966
222	0x3dc18139	0.094484754
223	0x3e65e16f	0.22449277
224	0x3e33c028	0.1755377
225	0x3e4e0893	0.20120458
226	0x3e2262de	0.15858027
227	0xbe694309	-0.22779478
228	0x3c8f02ff	0.017457483
229	0xbd724551	-0.059148137
230	0x3e5732d1	0.21015479
231	0xbe58d307	-0.2117425
232	0xbe9ba807	-0.30401632
233	0x3d8eef86	0.06979279
234	0x3dc50840	0.09620714
235	0x3e183b18	0.14866292
236	0xbe662261	-0.22474052
237	0xbe813bf3	-0.2524105
238	0x3e9059a4	0.2819339
239	0x3c08deb6	0.00835388
240	0xbe15d234	-0.14630967
241	0xbeaf2ede	-0.34215444
242	0xbd508717	-0.05091008
243	0x3e45a1d1	0.1930001
244	0x3e299d82	0.1656399
245	0xbbb2e35a	-0.0054592313
246	0xbe930d26	-0.2872097
247	0x3d8269b8	0.063678205
248	0x3e9d0f3e	0.3067569
249	0xbb46e5b9	-0.0030349328
250	0x3e0377e1	0.12838699
251	0xbb420d02	-0.0029609804
252	0xbe75a22f	-0.2398765
253	0x3df00de2	0.11721398
254	0x3dd248e8	0.10267812
255	0x3db19ca0	0.08672452

module.conv1.bias f4 [6]
0	0xbe219631	-0.1577995
1	0xbf0ee841	-0.5582314
2	0xbc9b16df	-0.018931804
3	0xbe39ecd7	-0.18156753
4	0xbde29f8a	-0.11065586
5	0xbe239aa4	-0.1597696

module.conv2.weight f4 [16, 6, 5, 5]
0	0x3e9a7a25	0.30171314
1	0xbd3bc358	-0.04584059
2	0x3ef01986	0.46894473
3	0x3c92ae9c	0.017905526
4	0xbcdc1cdd	-0.026869232
5	0x3e6a3425	0.22871454
6	0xbe45f999	-0.19333495
7	0x3e887f42	0.2665959
8	0x3e95056b	0.29105696
9	0xbcb23ef3	-0.021758532
10	0x3de56029	0.11199982
11	0xbd9df1d4	-0.07712141
12	0xbcb038dc	-0.021511488
13	0x3e9518d1	0.29120496
14	0xbc26ae35	-0.01017337
15	0xbdac09ca	-0.084003046
16	0x3daec257	0.08533161
17	0x3c60e66b	0.013726811
18	0x3e131616	0.14363894
19	0x3d0a1cf7	0.03371903
20	0xbdae05a0	-0.08497167
21	0xbe0d4bd3	-0.13798456
22	0xbe23be4b	-0.1599056
23	0xbdcdaf4b	-0.100432
24	0x3d1fabe4	0.038982287
25	0xbda18401	-0.07886506
26	0x3da5d325	0.08096913
27	0x3d8ef21b	0.06979772
28	0x3c88a11c	0.016678385
29	0xbcee9ee7	-0.029128505
30	0xbe0d9300	-0.13825607
31	0x3d33063e	0.043707125
32	0xbc848cbd	-0.01618039
33	0xbbc3e52b	-0.0059782467
34	0xbce09993	-0.02741698
35	0xbe5b7c3d	-0.21434112
36	0xbc4f8471	-0.012665854
37	0x3dc1fc03	0.094718955
38	0x3d81827c	0.06323716
39	0x3d9483ca	0.07251699
40	0xbe7c7ec3	-0.24657731
41	0xbe198b6a	-0.14994588
42	0xbd0779cb	-0.033075135
43	0x3d27a39a	0.040927507
44	0x3d5db296	0.05412539
45	0xbe48d702	-0.19613269
46	0xbd97cedb	-0.074125014
47	0xbe1590df	-0.14606045
48	0xbd913888	-0.070908606
49	0x3cc23db3	0.023711061
50	0xbd303b02	-0.043025024
51	0xbd2e43ce	-0.042545132
52	0x3cfac0c8	0.030609503
53	0x3d261778	0.040549725
54	0x3d3ad247	0.045610692
55	0xbe4aa5cb	-0.19789807
56	0xbdab8eb1	-0.083768256
57	0xbd9a6475	-0.07538692
58	0xbc9f53b9	-0.019449102
59	0xbde1bb4d	-0.11022053
60	0xbe81fd79	-0.25388697
61	0xbe506668	-0.20351565
62	0xbe1e8e51	-0.15483977
63	0xbe021431	-0.12703015
64	0xbe03eae5	-0.12882574
65	0xbe297197	-0.16547237
66	0x3a765577	0.00093968905
67	0x3d9e4b12	0.07729162
68	0x3bad28b9	0.0052843955
69	0x3d9a48ff	0.07533454
70	0xbe66219f	-0.22473763
71	0xbdb566b7	-0.08857482
72	0xbd8f6fc2	-0.07003738
73	0x3b073e14	0.0020636367
74	0xbd6fbb17	-0.058528032
75	0x3ea2e58f	0.31815764
76	0x3d6c4fef	0.057693418
77	0xbbd6480f	-0.006539352
78	0x3ea6ef42	0.32604414
79	0xbc935de8	-0.017989114
80	0x3d3f99d4	0.04677756
81	0xbc08c7d5	-0.008348425
82	0xbdd8f83d	-0.10594223
83	0x3e2e9d13	0.17052107
84	0x3e1acb82	0.15116695
85	0xbdd75177	-0.10513585
86	0x3d6e16e9	0.058127318
87	0xbdb9fcb4	-0.090814024
88	0xbd14eca4	-0.03635849
89	0x3e4f4dca	0.20244518
90	0xbe3615cc	-0.17781752
91	0x3db2c7b6	0.08729498
92	0xbd38dd59	-0.04513297
93	0xbe073261	-0.13202812
94	0x3d680b08	0.056651145
95	0xbe8207ec	-0.2539667
96	0x3c5f79f0	0.013639912
97	0xbda71742	-0.08158733
98	0xbe1d7882	-0.15378001
99	0xbe663a63	-0.2248321
100	0xbcf10f46	-0.029426228
101	0xbd4d3844	-0.050102487
102	0xbdfacfb1	-0.12246645
103	0x3cb6e539	0.022326099
104	0x3cf82211	0.030289682
105	0xbd9d7ca4	-0.07689789
106	0xbd4764c8	-0.048680097
107	0xbe0f496e	-0.13992855
108	0xbd943954	-0.07237497
109	0xbda7c0b1	-0.0819105
110	0xbd01fa26	-0.0317327
111	0xbd9d5b81	-0.076834686
112	0x3ac32741	0.0014889018
113	0xbd2c81fa	-0.042116143
114	0x3c26cbe3	0.010180446
115	0xbccaccb6	-0.024755817
116	0x3bebb0c4	0.007192703
117	0x3a413edf	0.0007371734
118	0xbca507bf	-0.020145295
119	0x3d2ed5b8	0.042684287
120	0xbc8d812c	-0.017273508
121	0x3ce64e1b	0.028113415
122	0x3cc6447f	0.024202583
123	0x3db89136	0.09012072
124	0x3e08b737	0.13351141
125	0xbd72e9b4	-0.059304908
126	0xbdafb1e2	-0.0857885
127	0xbe5b9229	-0.21442474
128	0xbd34fe2c	-0.04418771
129	0xbc3946e5	-0.0113084065
130	0xbccb2a20	-0.02480036
131	0xbcd6c883	-0.026218658
132	0xbdf80a2a	-0.12111314
133	0xbd4bf4bc	-0.049793944
134	0x3d4fc0d4	0.050721005
135	0x3d277eec	0.040892527
136	0x3da6f453	0.0815207
137	0xbe10115c	-0.14069122
138	0xbe46cfa1	-0.19415142
139	0xbc3d6416	-0.011559507
140	0x39458447	0.00018836661
141	0x3dcab1cf	0.098971955
142	0xbd9ec3e5	-0.07752208
143	0xbe08ffac	-0.13378781
144	0xbdd87273	-0.105687045
145	0x3dc1e80e	0.09468089
146	0x3dd46a68	0.10371858
147	0x3aae823c	0.0013313959
148	0xbd839205	-0.064243354
149	0xbdf74727	-0.12074118
150	0xbe6b509a	-0.22979966
151	0xbda8fded	-0.082515575
152	0x3d8b01d3	0.06787457
153	0xbd596b6a	-0.053080954
154	0x3d11cafe	0.03559398
155	0x3d6ea154	0.058259323
156	0xbd395d3f	-0.045254942
157	0xbe0119fe	-0.12607571
158	0xbb3dbee1	-0.0028952884
159	0x3dca7265	0.098851
160	0x3ed252e2	0.4107886
161	0xbda5d6cd	-0.080976106
162	0xbe16631a	-0.14686242
163	0xbd4685e4	-0.04846753
164	0xbbe4c37d	-0.006981312
165	0x3ebea2b6	0.37233514
166	0x3eefa4f8	0.4680555
167	0x3e05eabe	0.13077828
168	0xbda0efc6	-0.07858233
169	0xbd6978d1	-0.056999985
170	0xbeaa2e4a	-0.3323844
171	0x3da2a2c6	0.07941203
172	0x3e89ec99	0.26938322
173	0x3e33bbce	0.1755211
174	0x3deeedb7	0.11666434
175	0xbd9b43d7	-0.07581299
176	0xbe2b71b4	-0.16742593
177	0xbdbc8e69	-0.0920685
178	0xbdaf6100	-0.08563423
179	0xbdb5180d	-0.08842478
180	0x3d56d64a	0.052450456
181	0xbe38b46c	-0.18037575
182	0xbe6856ad	-0.22689314
183	0xbdb43d9b	-0.08800813
184	0xbb08ae9f	-0.0020856035
185	0xbd51476f	-0.051093515
186	0x3d35651e	0.044285886
187	0xbe4f86e0	-0.20266294
188	0xbe015a02	-0.12631992
189	0x3cd9ea19	0.026600884
190	0x3e21b430	0.15791392
191	0x3e275ebe	0.16344735
192	0x3d322d82	0.04350043
193	0xbdcb0a8f	-0.09914123
194	0xbb3c076d	-0.002869095
195	0xbc6277d9	-0.013822519
196	0x3e44a062	0.19201806
197	0x3e7e8a3e	0.24857423
198	0x3e9f85cf	0.31156775
199	0x3e2ef38a	0.1708509
200	0x3ce52793	0.027972972
201	0x3dc5946e	0.09647451
202	0x3d4c7d15	0.049923975
203	0x3c8b7331	0.017022701
204	0x3dc4f5cf	0.09617197
205	0x3d572eb4	0.052534774
206	0x3dd76302	0.10516931
207	0x3de8f0bd	0.11374042
208	0x3d6a4392	0.057193346
209	0x3d090c1d	0.033458818
210	0xbd0b1fdd	-0.033965934
211	0x3e311b26	0.17295513
212	0x3e11a165	0.14221723
213	0x3b1da794	0.0024056183
214	0xbde72c8b	-0.11287793
215	0xbec479f0	-0.3837428
216	0x3d914f15	0.07095162
217	0x3e9ab242	0.30214125
218	0x3e156766	0.14590225
219	0xbe599d43	-0.21251397
220	0xbe8512aa	-0.25990802
221	0xbe72fd71	-0.23729493
222	0x3d8f76fe	0.07005118
223	0x3d8addea	0.06780608
224	0x3e048cef	0.12944387
225	0xbcd9f50c	-0.026606105
226	0xbdd5c45e	-0.10437845
227	0xbda5cf63	-0.080961965
228	0x3d0eb4fd	0.034840573
229	0x3d23409e	0.039856546
230	0x3d8bb965	0.068224706
231	0xbc802a88	-0.01564528
232	0x3d375ff9	0.04476926
233	0x3d63db36	0.055628978
234	0xbd4e4a1e	-0.050363652
235	0x3cbcf014	0.023063697
236	0x3df5137c	0.11966607
237	0x3d1f88ea	0.03894893
238	0x3b6a6494	0.0035765516
239	0xbe11a234	-0.14222032
240	0xbe7ec1ac	-0.24878567
241	0xbd267849	-0.040642057
242	0x3e641934	0.22275239
243	0x3e1d4cc1	0.1536131
244	0x3e5fdd45	0.21861751
245	0xbe99fd76	-0.30076188
246	0xbeb7b131	-0.35877374
247	0xbe80f2a1	-0.2518511
248	0xbdaedcfc	-0.08538243
249	0xbcc7aa51	-0.024373205
250	0xbe1cbe91	-0.1530707
251	0xbdd1689a	-0.10225029
252	0xbe152d11	-0.14567973
253	0xbc7b7f59	-0.015350186
254	0x3c0ad3a7	0.008473313
255	0xbdd5e35b	-0.10443755

module.conv2.bias f4 [16]
0	0x3e1aab78	0.15104473
1	0xbf853d5d	-1.0409352
2	0xbf318567	-0.6934418
3	0xbc1eeacd	-0.009699536
4	0x3f17b5aa	0.5926157
5	0x3d37be83	0.04485942
6	0x3dca9cea	0.0989321
7	0x3f26a7ee	0.6509999
8	0xbe3b75be	-0.18306634
9	0xbd8ea4f3	-0.06965055
10	0xbef29c33	-0.47384796
11	0x3f73e0a7	0.9526467
12	0x3e721bc9	0.23643412
13	0xbeb7fb31	-0.3593383
14	0x3cf31d8c	0.029677175
15	0x3f0818d4	0.53162885

module.fc1.weight f4 [120, 400]
0	0x3c77bdf1	0.015120969
1	0xbd0fb8a2	-0.03508819
2	0xbda0509a	-0.078278735
3	0xbc181f10	-0.00928475
4	0xbda76057	-0.08172672
5	0x3dc34be2	0.09535958
6	0x3cf6a56c	0.030108176
7	0x3cf72802	0.030170444
8	0xbc52defb	-0.0128705455
9	0xbce3c257	-0.02780263
10	0xbab71e4d	-0.0013970822
11	0x3cdcd356	0.026956242
12	0xbcb67748	-0.022273675
13	0x3c193065	0.009349917
14	0x3cc1df5a	0.023666073
15	0x3cb1ecf2	0.02171943
16	0x3bec8485	0.007217946
17	0xbd9e595f	-0.0773189
18	0x3c7ad1f3	0.015308845
19	0xbc91d912	-0.017803703
20	0x3d637dd4	0.05553992
21	0x3c9d7bb7	0.01922403
22	0xbd643ee8	-0.055724055
23	0xbcda183e	-0.026622888
24	0x3d7e0b8c	0.06202273
25	0x3d9a11bc	0.07522914
26	0x3cf766cc	0.030200385
27	0x3d804dea	0.06264861
28	0x3d189475	0.037250955
29	0x3d441c50	0.047878563
30	0x3d8f1ef5	0.069883265
31	0x3d3d6394	0.046237543
32	0x3d8802b0	0.066411376
33	0x3d48d76e	0.049033575
34	0x3c958af6	0.018254738
35	0x3e0b4996	0.1360229
36	0xbace6a0c	-0.0015748157
37	0x3c085544	0.00832111
38	0x3d3d9d8f	0.046292838
39	0x3c413223	0.011791739
40	0xbc8c05c6	-0.017092597
41	0xbc8e7ffc	-0.017395012
42	0xbe0839e5	-0.13303335
43	0xbd90e89e	-0.07075618
44	0x3bd3312b	0.0064450703
45	0xbe2c2904	-0.16812521
46	0xbd588654	-0.05286248
47	0xbd8908eb	-0.06691154
48	0xbdc594c2	-0.09647514
49	0xbc8c72cb	-0.017144581
50	0x3df91665	0.121624745
51	0xbba6be2f	-0.0050885896
52	0xbc8827f9	-0.016620623
53	0x3d0d71ff	0.034532543
54	0xbd9ccd06	-0.076562926
55	0x3cf03b12	0.029325042
56	0xbdb9a8ba	-0.09065385
57	0xbd1c6a89	-0.038187537
58	0xbc84a6b8	-0.016192779
59	0xbd0062b3	-0.031344127
60	0xbc3166bc	-0.010827716
61	0x3c2e6264	0.010643575
62	0xbd1edb24	-0.038783208
63	0xbd8d3572	-0.068949595
64	0xbd2d6d9e	-0.042340867
65	0x3d8a3002	0.06747438
66	0xbc649c1b	-0.013953234
67	0xbd370f8b	-0.044692557
68	0xbcc6aa48	-0.024251118
69	0xbb65dbc1	-0.003507361
70	0xbdde9fd6	-0.1087033
71	0xb9be250a	-0.0003626722
72	0xbda13546	-0.07871489
73	0xbd55c4ef	-0.052189764
74	0xbc747b1d	-0.014921931
75	0xbd396702	-0.04526425
76	0xbcddfd7a	-0.027098406
77	0xbbcdf3fb	-0.0062851883
78	0xbcc90a0d	-0.024540925
79	0xbd1275ff	-0.03575706
80	0xbbf17eae	-0.0073698377
81	0xbd59fad5	-0.053217728
82	0xbc97ad98	-0.018515393
83	0x3cbcabe2	0.023031179
84	0x3db04a72	0.08607949
85	0xbd961b51	-0.07329429
86	0xbd405209	-0.046953235
87	0x3cb4da94	0.022076882
88	0x3cf0db15	0.029401341
89	0x3ce598f9	0.028027045
90	0xbb8049c4	-0.0039150435
91	0xbd31e9f4	-0.043436006
92	0xbb54f8b5	-0.0032496874
93	0xbd32c827	-0.04364791
94	0x3d025e55	0.031828243
95	0x3d84119e	0.06448673
96	0x3d15e85c	0.03659855
97	0x3cb26025	0.02177436
98	0xbc74987c	-0.014928933
99	0x3dd605ba	0.10450311
100	0x3d36a382	0.044589527
101	0x3ce77441	0.028253676
102	0x3cd58ae9	0.026067214
103	0x3cb7896f	0.0224044
104	0x3ce9c24c	0.02853503
105	0x3d46dcf6	0.04855057
106	0x3d3cd65f	0.046102878
107	0x3c52ef46	0.01287443
108	0xbc09d4c2	-0.008412542
109	0xbb761dd4	-0.00375544
110	0x3be0d6f8	0.006861564
111	0x3d0b90d4	0.034073666
112	0x3db3d347	0.08780532
113	0x3d730ea4	0.059340134
114	0xbd32453d	-0.043523062
115	0x3c57ff87	0.013183481
116	0x3c46961a	0.012120748
117	0x3d7d5f6d	0.061858583
118	0x3c9969b7	0.018727167
119	0x3c9f26ba	0.019427646
120	0x3d73e2ab	0.05954234
121	0x3b515640	0.0031942278
122	0x3bb5810e	0.005539066
123	0xbd408d1d	-0.047009576
124	0x3c1ea21d	0.0096822055
125	0xbcd50117	-0.026001496
126	0xbd5f81ff	-0.054567333
127	0x3cdade3f	0.026717303
128	0x3a26c125	0.0006361178
129	0xbde106fa	-0.10987659
130	0xbd94f804	-0.07273868
131	0xbca353be	-0.019937392
132	0xbcb57281	-0.022149326
133	0xbc0c5573	-0.008565295
134	0xbd9dc7dc	-0.07704136
135	0x3ca5f6fa	0.02025937
136	0x3d3c8c5a	0.046032287
137	0xbd968369	-0.07349283
138	0xbd80f958	-0.062975585
139	0xbdc537ec	-0.09629807
140	0xbcce4cf8	-0.025183186
141	0xbcc9f71d	-0.024653966
142	0x3c8fdd2e	0.017561521
143	0xbc723fbf	-0.014785706
144	0xbc6ec828	-0.014574088
145	0xbda5de25	-0.08099011
146	0xbd447323	-0.047961365
147	0xbc909d3b	-0.017653098
148	0xbc83cd14	-0.016089
149	0xbd08ea27	-0.03342643
150	0x3c8b9dbc	0.017042987
151	0x3bfdfdc0	0.0077511966
152	0xbd044ae6	-0.03229799
153	0xbda93e27	-0.08263808
154	0xbcf9aee5	-0.030478904
155	0xbb72317f	-0.0036955772
156	0xbd72b81e	-0.05925762
157	0xbb9a3625	-0.0047061616
158	0xbcf88903	-0.03033877
159	0x3ba559ea	0.005046119
160	0x3d0d5d22	0.034512646
161	0xbc969cca	-0.01838531
162	0xbd812a8c	-0.06306943
163	0xbce083cf	-0.027406601
164	0xbcc5bf4a	-0.024139065
165	0xbc2f2029	-0.01068882
166	0xbcb6c775	-0.022311905
167	0xbd400623	-0.046880852
168	0xbcdbc1db	-0.026825836
169	0xbcfc7e29	-0.030821877
170	0xbcee9adc	-0.029126577
171	0xbca2bb88	-0.019864812
172	0xbcb061d9	-0.021531032
173	0x3c913c28	0.01772888
174	0x3d66fefa	0.05639551
175	0x3d9d438b	0.076788984
176	0x3b829279	0.003984746
177	0x3c85c741	0.016330363
178	0x3de6e13a	0.11273427
179	0x3dfcbdb4	0.123408705
180	0x3d17c8aa	0.037056603
181	0x3da4200f	0.08013927
182	0x3de918f0	0.113817096
183	0x3da2f44e	0.07956754
184	0x3d819055	0.06326357
185	0xbbea5e73	-0.0071523725
186	0x3c3b886b	0.011446099
187	0x3be3df66	0.0069541214
188	0x3c832fc5	0.01601399
189	0x3dd745ec	0.105113834
190	0xbd1171e5	-0.03550901
191	0x3c682e22	0.014171155
192	0x3ca282f2	0.01983783
193	0x3d1140e3	0.03546227
194	0x3d6bb012	0.05754096
195	0x3d237a37	0.039911475
196	0xbc6b3945	-0.014356916
197	0xbc272c15	-0.010203381
198	0x3d25c87b	0.040474396
199	0x3c4cf7e5	0.012510275
200	0xbdd962d1	-0.10614551
201	0xbcb16298	-0.021653458
202	0xbdde9e06	-0.10869984
203	0xbdddd8ee	-0.10832392
204	0xbd04fb33	-0.032466125
205	0xbd2f9c0a	-0.04287342
206	0xbd2e01dd	-0.042482246
207	0x3c22b9f9	0.009932035
208	0xbda45f0d	-0.08025942
209	0x3c619db1	0.013770507
210	0x3c42739b	0.011868383
211	0x3ce16a1d	0.027516419
212	0x3d339819	0.043846224
213	0xbd0071b6	-0.031358443
214	0x3dcb5cbc	0.09929797
215	0xbd814d1b	-0.06313535
216	0xbd2fee8e	-0.042952113
217	0xbc70731c	-0.014675882
218	0xbd3b86f4	-0.045783
219	0x3d7b784b	0.061394017
220	0xbdd2fc01	-0.10301972
221	0xbc388e1e	-0.011264352
222	0xbd875f4c	-0.06609973
223	0xbd7be997	-0.061502066
224	0xbd812f80	-0.06307888
225	0x3c61dc88	0.013785489
226	0xbd6ae689	-0.05734876
227	0xbd52dd98	-0.05148086
228	0xbd027bb2	-0.031856246
229	0xbd8296ed	-0.06376443
230	0x3dd09dfb	0.101863824
231	0x3d6d092b	0.05787007
232	0xbc8acb86	-0.01694275
233	0x3d1845d8	0.037175983
234	0xbdd1d40c	-0.10245523
235	0x3e0b8a0f	0.13626884
236	0x3d540c32	0.051769443
237	0x3c9365fd	0.017992968
238	0x3d0ff0f8	0.035141915
239	0xbd293d99	-0.04131851
240	0x3ddf77eb	0.109115444
241	0x3e0d315f	0.13788365
242	0x3cfb2a64	0.030659862
243	0x3cafd626	0.021464419
244	0xbce8a3cf	-0.028398423
245	0x3dc99d71	0.09844483
246	0xbb245db9	-0.0025080277
247	0x3d9fb155	0.07797495
248	0x3de17f02	0.11010553
249	0xbd2e6d01	-0.042584423
250	0xba726a25	-0.0009247384
251	0xbc7e236b	-0.015511374
252	0xbc85bb92	-0.016324792
253	0xbd876ef8	-0.066129625
254	0xbc45eaec	-0.0120799355
255	0xbc577438	-0.013150267

module.fc1.bias f4 [120]
0	0x3e363637	0.17794119
1	0xbde4102c	-0.11135897
2	0xbdfcd7b3	-0.12345829
3	0xbd1c31fb	-0.038133603
4	0xbe4dddc3	-0.20104127
5	0xbe078ae6	-0.1323658
6	0x3d54c8f5	0.05194946
7	0x3d84f7bd	0.06492565
8	0xbd747110	-0.059678137
9	0xbc2283f7	-0.009919158
10	0x3cc67061	0.024223508
11	0x3d5540a1	0.052063588
12	0xbdce15d9	-0.10062761
13	0xbe9a5454	-0.30142462
14	0x3cadc559	0.021212267
15	0x3e4f7206	0.2025834
16	0x3d2cd28b	0.042192977
17	0x3de40f10	0.111356854
18	0x3e04d793	0.1297286
19	0x3cf6a61a	0.0301085
20	0x3d317b00	0.043330193
21	0x3cfda8f3	0.03096435
22	0xbda0349d	-0.07822535
23	0xbc33dbdb	-0.010977711
24	0xbd9ad080	-0.075592995
25	0xbd3d6e93	-0.04624803
26	0xbd88d2eb	-0.066808544
27	0x3e169f87	0.14709292
28	0x3e841e8d	0.25804558
29	0x3d8b0deb	0.06789764
30	0xbc098d7b	-0.008395548
31	0xbd0009c0	-0.0312593
32	0x3d3c1699	0.04591999
33	0xbdf669bc	-0.12031886
34	0x3d01ca7f	0.031687256
35	0x3e63aaf2	0.22233179
36	0x3e021cce	0.127063
37	0x3d75f1df	0.06004512
38	0x3cf075e2	0.029353086
39	0x3e48ce43	0.19609933
40	0x3dc9bc8e	0.09850417
41	0x3de9da45	0.11418585
42	0xbe0ba894	-0.13638526
43	0x3deb6694	0.114941746
44	0x3e35e6f5	0.17763884
45	0x3ea40e40	0.32042122
46	0xbc3235f4	-0.010877121
47	0x3e20c6ca	0.15700832
48	0x3d23f214	0.040025786
49	0x3dd7baa9	0.105336495
50	0x3e80a495	0.25125566
51	0xbd64514d	-0.055741597
52	0x3dbc92ba	0.09207673
53	0xba6d4425	-0.0009050987
54	0x3e139ec9	0.1441604
55	0xbb7cbbbf	-0.0038564054
56	0xbdbf4949	-0.0934015
57	0x3ced6e41	0.028983237
58	0x3d5e7b24	0.054316655
59	0x3d54a622	0.05191625
60	0x3ea6d6a6	0.3258564
61	0xbc7aaa6b	-0.01529942
62	0x3e214bf5	0.15751632
63	0x3d5a366d	0.05327456
64	0x3d1520aa	0.036408104
65	0xbd17e1c9	-0.03708056
66	0xbe51e746	-0.2049838
67	0xbe66a55b	-0.22524016
68	0x3d2b7501	0.04185963
69	0x3d7e9481	0.062153343
70	0x3e0b9f79	0.13635053
71	0xbd6a8584	-0.057256237
72	0xbc4d20c6	-0.012520021
73	0xbcc9a9ba	-0.024617065
74	0xbcef7973	-0.029232716
75	0xbd65fec7	-0.056151178
76	0x3d96f9e3	0.07371881
77	0x3dd9b9c2	0.106311336
78	0x3d9817bc	0.07426402
79	0xbd05d62b	-0.03267495
80	0xbddd8d91	-0.10818017
81	0x3da1a897	0.07893484
82	0x3d1dce0b	0.038526576
83	0x3daabead	0.0833715
84	0x3dd5e344	0.10443738
85	0x3eb21297	0.34779808
86	0x3e019d5a	0.12657681
87	0xbdb5f1e2	-0.08884026
88	0xbe867f70	-0.26269102
89	0x3e236ce4	0.15959507
90	0xbd081ff7	-0.03323361
91	0x3e162790	0.1466353
92	0x3d4fb21d	0.05070697
93	0xbb410ced	-0.0029457167
94	0xbdd5a432	-0.104317084
95	0x3e529245	0.2056361
96	0x3d77ce17	0.060499277
97	0x3e1ac8f6	0.15115723
98	0x3e04d126	0.12970409
99	0xbd7abe04	-0.06121637
100	0xbd10d422	-0.035358556
101	0xbd3f882a	-0.046760716
102	0xbcbc7241	-0.0230037
103	0xbc80c543	-0.015719062
104	0x3e48a305	0.19593437
105	0xbe62c715	-0.22146256
106	0xbd0793de	-0.0331
107	0xbda021f3	-0.07818975
108	0xbdd8dcc9	-0.105889864
109	0x3e37b260	0.17939138
110	0xbd0c4d33	-0.03425331
111	0xbd56e0a7	-0.05246034
112	0x3cfcc962	0.030857746
113	0xbd0104da	-0.031498767
114	0x3d09df14	0.03366001
115	0x3db3c1df	0.08777212
116	0xbd8c085e	-0.068375334
117	0xbc6c46e8	-0.014421202
118	0x3d9cde02	0.07659532
119	0x3e5418da	0.20712605

module.fc2.weight f4 [84, 120]
0	0xbe081757	-0.13290153
1	0x3c1b72b7	0.009487799
2	0xbd46cf1c	-0.04853736
3	0xbc171c2f	-0.009223028
4	0xbe162ebc	-0.14666265
5	0x3c8c9962	0.017162982
6	0x3b3414d5	0.0027478237
7	0x3da56773	0.08076372
8	0x3de5d9e4	0.112232
9	0xbd88cc2c	-0.06679568
10	0x3c69229f	0.014229446
11	0x3d89eac1	0.06734229
12	0x3b48f8a0	0.003066577
13	0x3c89e2dc	0.016831808
14	0xbd4b95aa	-0.049703278
15	0xbd8de1d2	-0.069278374
16	0x3d99392a	0.07481606
17	0xbb7ac0b2	-0.0038261828
18	0x3bdb15bc	0.0066859405
19	0x3d875684	0.066082984
20	0xbdbf5335	-0.09342042
21	0x3d7ae5c2	0.06125427
22	0x3d67da17	0.05660447
23	0x3b934981	0.0044948463
24	0x3de02c15	0.10945908
25	0x3c69b158	0.014263473
26	0x3e279473	0.16365223
27	0xbe0ba640	-0.13637638
28	0xbc3237c9	-0.010877558
29	0xbd6f01f8	-0.058351487
30	0x3cd1a18d	0.025589729
31	0x3c6619c0	0.014044225
32	0xbda286cf	-0.07935869
33	0x3c53d8e6	0.012930131
34	0x3d4b07da	0.049568035
35	0xbd5298f5	-0.051415402
36	0x3e029534	0.12752229
37	0x3d91e17c	0.07123086
38	0xbda7902d	-0.08181796
39	0xbda752ba	-0.08170076
40	0x3c8d6585	0.017260322
41	0x3dce4138	0.10071033
42	0xbd50802c	-0.050903484
43	0x3b46edd7	0.0030354166
44	0xbd43167e	-0.047628872
45	0xbd929c4e	-0.07158719
46	0xbd96a4d9	-0.07355661
47	0x3dd7fe7b	0.10546585
48	0xbacc2f49	-0.0015578057
49	0xbbd0702b	-0.0063610277
50	0x3d41f7ba	0.04735539
51	0xbd447be4	-0.047969714
52	0xbe34a8fa	-0.17642584
53	0xbe0e877f	-0.13918875
54	0x3d985d74	0.074397
55	0x3db61269	0.0889023
56	0x3db5ccaa	0.08876927
57	0xbdd4924f	-0.10379469
58	0xbcfa29ee	-0.030537572
59	0xbdc66afc	-0.096883744
60	0xbc52dffd	-0.012870786
61	0x3d3d351c	0.046193227
62	0xbded88b5	-0.115983404
63	0xbd1c04c6	-0.03809049
64	0x3d88feaa	0.06689198
65	0x3dcc2083	0.099671386
66	0x3d9ca216	0.07648103
67	0x3da39e0d	0.0798913
68	0xbd263736	-0.040579997
69	0x3e075658	0.13216531
70	0xbd991a7a	-0.07475753
71	0xbd24270d	-0.040076304
72	0x3d020914	0.03174694
73	0x3db965a3	0.09052589
74	0x3d259951	0.040429417
75	0x3dc80f6b	0.09768566
76	0xbd97a322	-0.07404162
77	0xbd9f40a8	-0.07776004
78	0xbdb0b260	-0.08627772
79	0xbd2fd4fb	-0.042927723
80	0xbd10f42f	-0.03538912
81	0xbe00dea1	-0.12584926
82	0x3d06a173	0.032868814
83	0x3c1a4b84	0.009417418
84	0xbdc73a48	-0.09727913
85	0xbd3703ed	-0.04468148
86	0x3e02f690	0.12789369
87	0xbb587788	-0.003303023
88	0x3d15792c	0.03649251
89	0xbda3f38e	-0.08005439
90	0xbd6b31de	-0.057420604
91	0x3c66a5b5	0.014077594
92	0xbde04879	-0.10951323
93	0x3cf2008a	0.029541273
94	0xbc0e0b05	-0.008669619
95	0xbdb181ad	-0.08667312
96	0xbbc05e76	-0.0058706356
97	0xbabacee6	-0.0014252334
98	0xbd91cc7a	-0.07119079
99	0x3c9187b0	0.017764896
100	0xbd19b692	-0.03752763
101	0x3d4e4e42	0.0503676
102	0xbd25f92d	-0.040520836
103	0x3cc07116	0.023491424
104	0xbdf894ee	-0.12137781
105	0xbc31ad48	-0.010844536
106	0xbc32ce27	-0.010913408
107	0x3da6e2c0	0.08148718
108	0x3da5f8fa	0.08104129
109	0xbc366c42	-0.011134209
110	0xbd9380e3	-0.072023176
111	0x3c8828e9	0.01662107
112	0xbc555934	-0.013021756
113	0xbdb3c96d	-0.08778653
114	0x3d3ccf4d	0.046096135
115	0x3d774a0a	0.060373344
116	0x3cbae52f	0.022814361
117	0x3dad0c35	0.08449594
118	0xbcb7b419	-0.022424744
119	0xbd8e5a90	-0.06950867
120	0x3e35bab6	0.17747006
121	0x3dd2a03a	0.10284467
122	0xbc801dfb	-0.015639296
123	0xbe0b1376	-0.13581643
124	0x3dd046ed	0.10169778
125	0xbd8ad530	-0.067789435
126	0x3dfd510d	0.12368975
127	0xbd8539f5	-0.06505195
128	0x3d7b884c	0.06140928
129	0xbbd7bf26	-0.006584066
130	0xbd503a66	-0.050836943
131	0x3e118ce5	0.14213903
132	0xbd43123f	-0.047624823
133	0x3d9cd32a	0.07657464
134	0x3cad62b1	0.021165224
135	0x3dbd84fc	0.092538804
136	0x3aeacea5	0.0017914368
137	0xbd815faa	-0.063170746
138	0x3c219e94	0.009864468
139	0xbcdf462e	-0.027255144
140	0xbde92cbb	-0.11385485
141	0xbd15e89e	-0.036598794
142	0xbc125cb8	-0.008933239
143	0xbb3abd12	-0.0028494042
144	0x3d0b6b85	0.034038085
145	0xbdc420d1	-0.09576572
146	0x3e263aaf	0.16233324
147	0xbd8bee95	-0.06832615
148	0x3dd47f0a	0.10375793
149	0x3d1da031	0.03848285
150	0xbdb9044c	-0.09034023
151	0xbd9aa1a1	-0.075503595
152	0xbdd86ea3	-0.10567977
153	0x3dc3af8b	0.095549665
154	0x3dcba74e	0.0994402
155	0x3c0aca9f	0.00847116
156	0x3de26f07	0.11056333
157	0xbe133868	-0.14376986
158	0xbc97b937	-0.018520935
159	0xbe14ef5d	-0.14544435
160	0xbc55beb4	-0.013045955
161	0x3e4e6dcb	0.2015907
162	0xbe38a364	-0.18031079
163	0x3da45d8e	0.08025657
164	0x3d840639	0.064464994
165	0x3d247a85	0.040155906
166	0x3bdce558	0.006741207
167	0x3d4ecd5b	0.05048881
168	0x3cd8c897	0.026462836
169	0x3da0c3ff	0.07849883
170	0x3d8e8b6c	0.06960186
171	0xbdcd5eab	-0.10027822
172	0x3c4c4b02	0.012469055
173	0x3cba2b5e	0.022725757
174	0xbd36fd86	-0.044675373
175	0xbc9d5a60	-0.019208133
176	0xbd937385	-0.07199768
177	0xbe33cb9c	-0.1755814
178	0xbda671a5	-0.08127145
179	0xbd53479f	-0.051581975
180	0x3d17abfc	0.03702925
181	0xbd50a9fd	-0.050943363
182	0xbdd6948a	-0.1047755
183	0x3d6c427d	0.057680596
184	0xbda1e78b	-0.079054914
185	0x3cbd5d77	0.023115857
186	0x3e45e7dd	0.1932673
187	0xbd1cf8cb	-0.038323205
188	0x3b5ae658	0.0033401456
189	0x3e5880f8	0.21142948
190	0x3dca9eef	0.098935954
191	0x3de5ad74	0.11214724
192	0xbd4376e0	-0.04772079
193	0xbdcba3c3	-0.099433444
194	0xbc42fef4	-0.011901606
195	0x3a1d4c17	0.0006000413
196	0xbdccb7e8	-0.09996015
197	0x3d1bed74	0.03806825
198	0xbe3eb21d	-0.18622632
199	0x3c0e00fb	0.008667226
200	0xbc29f996	-0.010374447
201	0xbd99d1f5	-0.07510749
202	0xbe0ed27b	-0.1394748
203	0xbd93e962	-0.072222486
204	0x3db5ba75	0.088734545
205	0x3d82e638	0.06391567
206	0xbc366d1a	-0.01113441
207	0xbd3d829a	-0.04626713
208	0xbd478622	-0.048711903
209	0x3e5e162d	0.21688147
210	0xbcd4afda	-0.025962759
211	0xbe194dac	-0.14971036
212	0x3da66685	0.08125023
213	0x3cb3b124	0.021935053
214	0xbdce4dc4	-0.10073426
215	0xbdf06ee2	-0.11739899
216	0xbdd01e67	-0.10162049
217	0x3c8d374b	0.01723828
218	0xbe37f635	-0.17965014
219	0x3da51b67	0.08061867
220	0x3cbdbfa7	0.023162676
221	0xbda2e00f	-0.07952892
222	0xbd310e39	-0.043226454
223	0xbddf4cde	-0.10903333
224	0xbe19cc7b	-0.1501941
225	0x3a73bdfa	0.0009298023
226	0xbd3bc1ad	-0.045839
227	0xbd86c19c	-0.06579897
228	0x3cf1b172	0.029503558
229	0xbdb3f1b4	-0.087863356
230	0x3912d551	0.00014003112
231	0x3c5969bf	0.013269841
232	0x3d8c87cf	0.06861841
233	0x3d205cf0	0.039151132
234	0xbd12c169	-0.03582898
235	0x3ca94815	0.020664254
236	0xbd8392de	-0.06424497
237	0x3d10a084	0.03530933
238	0x3d0eb323	0.034838807
239	0xbd7339f6	-0.059381448
240	0x3995cfa5	0.00028574202
241	0x3d5734ff	0.052540775
242	0xbdd365b7	-0.10322135
243	0x3d42a130	0.047517
244	0xbdb8a6e7	-0.09016209
245	0xbdb1d17d	-0.08682535
246	0x3d8156fa	0.063154176
247	0x3ddd4fd3	0.10806241
248	0xbdfd2e31	-0.12362326
249	0x3d8bd2ac	0.06827292
250	0xbc2f87d8	-0.01071354
251	0xbc801d78	-0.015639052
252	0x3ca656b6	0.020305019
253	0xbd5e4e8a	-0.05427412
254	0xbd1f7c5a	-0.03893695
255	0x3dc5f432	0.09665717

module.fc2.bias f4 [84]
0	0xbdf1d46e	-0.11808096
1	0xbd127983	-0.035760414
2	0x3efb437e	0.4907493
3	0xbacae0b5	-0.0015478345
4	0xbce8f873	-0.028438782
5	0x3ec6e176	0.38843888
6	0x3cb4c72c	0.022067629
7	0xbd486c27	-0.048931267
8	0x3c8e2a20	0.017354071
9	0x3e876649	0.26445225
10	0x3f188945	0.59584457
11	0x3d160774	0.0366282
12	0xbdba356e	-0.09092222
13	0x3d0169fd	0.03159522
14	0xbc5da303	-0.013527635
15	0xbce6e29e	-0.028184231
16	0x3dc56d17	0.09639948
17	0x3eefec1a	0.4685982
18	0x3e3a6316	0.18201861
19	0xbb2eae31	-0.002665412
20	0xbd1b042d	-0.03784578
21	0x3d135376	0.035968266
22	0x3eab76d3	0.33489093
23	0x3e0b5a1b	0.13608591
24	0x3dce4ab6	0.10072844
25	0x3cbcd383	0.023050075
26	0x3e7db82a	0.24777284
27	0x3e29e4d2	0.16591194
28	0x3d011760	0.031516433
29	0x3e201d19	0.156361
30	0xbc9247da	-0.017856527
31	0xbcac3518	-0.02102141
32	0xbdb2d5af	-0.08732163
33	0xbe906033	-0.28198394
34	0xbeaa1e29	-0.33226135
35	0xbdbd9930	-0.09257734
36	0x3e5ef45e	0.21772906
37	0x3e666153	0.22498064
38	0x3d0167f7	0.03159329
39	0xbdab6045	-0.08367971
40	0x3da5bb38	0.0809235
41	0x3d9411f5	0.072299875
42	0x3ee08579	0.43851832
43	0xbd9a571f	-0.07536148
44	0x3e039978	0.12851512
45	0x3e57436e	0.21021816
46	0xbd85f46f	-0.06540763
47	0xbb8e05bd	-0.00433418
48	0xbd5bc13b	-0.053651076
49	0xbd315baf	-0.043300327
50	0x3eb99b0b	0.362511
51	0x3d3c1ff3	0.045928907
52	0x3e8469d8	0.25862002
53	0x3e3e21d3	0.1856759
54	0x3dd44f9b	0.10366746
55	0xbdc1e1c0	-0.094668865
56	0x3ef0e5d9	0.4705036
57	0x3dc58210	0.09643948
58	0x3e54186d	0.20712443
59	0xbd360186	-0.044435047
60	0xbdf32b75	-0.11873523
61	0xbe1cff14	-0.1533168
62	0x3dba9336	0.091101095
63	0xbda4db0f	-0.080495946
64	0xbc05f94a	-0.008177111
65	0x3d1eeab5	0.038798053
66	0xbd8a4c3a	-0.0675282
67	0x3dc432c4	0.09579995
68	0xbd09052d	-0.0334522
69	0x3dee15bf	0.116252415
70	0x3d19426f	0.03741687
71	0x3dc8970a	0.097944334
72	0xbcf190a7	-0.02948792
73	0x3e575824	0.21029717
74	0xbd081bed	-0.033229757
75	0xbd8ff6ab	-0.0702947
76	0x3e317fb6	0.17333874
77	0x3e72d2a7	0.2371317
78	0x3cebf1d6	0.02880184
79	0x3dc1ce1f	0.094631426
80	0x3de7d6ec	0.1132029
81	0x3c4e641d	0.012597111
82	0x3eee7a95	0.46577898
83	0xbbe70bcf	-0.0070509682

module.fc3.weight f4 [10, 84]
0	0xbd18268a	-0.03714613
1	0x3de4a1fc	0.111637086
2	0xbea8cb3a	-0.3296755
3	0xbced597c	-0.028973334
4	0xbd6489f4	-0.055795625
5	0x3d3ab4ec	0.045582697
6	0xbe0d4ea8	-0.13799536
7	0xbe0abaad	-0.13547774
8	0x3cf79f1e	0.03022724
9	0x3dedd611	0.116130956
10	0xbe9c8596	-0.30570668
11	0x3d7b2bb8	0.06132099
12	0xbe888d40	-0.26670265
13	0x3e14e8d0	0.14541936
14	0x3e3484fb	0.17628853
15	0xbe21dc0f	-0.15806602
16	0x3e3186e7	0.17336617
17	0x3def70a8	0.11691409
18	0xbe898098	-0.26855922
19	0x3e361e91	0.17785098
20	0x3d83f693	0.06443515
21	0x3e075b77	0.13218485
22	0x3c9aa11a	0.018875647
23	0x3e0aeab3	0.13566093
24	0x3d75ae30	0.05998057
25	0x3da2aebd	0.07943485
26	0x3c457e9f	0.012054115
27	0x3e209aca	0.15684047
28	0x3d1f63ae	0.03891342
29	0x3e6671f1	0.22504403
30	0x3de7618b	0.11297902
31	0xbe017c12	-0.12644985
32	0x3e78afba	0.24285784
33	0x3e7deb40	0.24796772
34	0x3ddcf6c8	0.10789257
35	0xbd733623	-0.0593778
36	0x3e26b553	0.16280107
37	0x3e032364	0.12806469
38	0xbd7ac7fd	-0.06122588
39	0xbc8a3a0f	-0.016873388
40	0x3b8670ba	0.0041027935
41	0x3e669bdc	0.22520393
42	0x3d03de91	0.032194678
43	0x3bb0b42d	0.0053925724
44	0xbdf559ef	-0.11980044
45	0xbe33b598	-0.17549741
46	0xbdacb18a	-0.084323004
47	0x3d6fb3fb	0.058521252
48	0x3d94c920	0.07264924
49	0xbdefc19d	-0.11706851
50	0xbe2cc73e	-0.1687288
51	0x3d9daf99	0.07699508
52	0x3e86df75	0.2634236
53	0xbd457a68	-0.04821244
54	0xbe005abb	-0.12534611
55	0xbc6d2e5d	-0.014476386
56	0xbeae636e	-0.34060234
57	0x3e49d2a3	0.19709258
58	0xbe88c68e	-0.26713985
59	0x3d116ebc	0.035505995
60	0x3b4e6256	0.0031491718
61	0x3d86d96e	0.0658444
62	0x3cee8a2d	0.029118622
63	0x3ddc5442	0.107582584
64	0xbe054c76	-0.13017449
65	0xbd11d203	-0.035600673
66	0xbe3771fe	-0.17914578
67	0xbdede484	-0.116158515
68	0x3d629719	0.05531988
69	0x3c905bfc	0.017621987
70	0xbbfd567e	-0.007731258
71	0x3dbc7387	0.092017226
72	0xbdfe6d3f	-0.12423181
73	0xbd8417df	-0.064498655
74	0x3dfe490e	0.12416278
75	0x3d93b00b	0.07211312
76	0xbde18cc2	-0.110131755
77	0xbe8abd61	-0.2709761
78	0x3c56a605	0.013101106
79	0x3e12218a	0.14270607
80	0xbda66191	-0.08124078
81	0xbd98de35	-0.07464258
82	0x3eadc9b4	0.3394295
83	0xbdb50e19	-0.088405795
84	0x3e2bdab9	0.16782655
85	0x3de48755	0.11158625
86	0xbece35e9	-0.40275505
87	0x3c47adf7	0.012187473
88	0xbc7538c9	-0.014967152
89	0x3bae7045	0.005323442
90	0x3e662b2c	0.22477406
91	0x3d2e87e7	0.042610075
92	0x3dde2b6f	0.10848128
93	0x3e0209d2	0.12699059
94	0xbdd69568	-0.10477716
95	0x3e48500f	0.1956179
96	0x3e80e8e1	0.25177673
97	0x3d17d9e6	0.03707304
98	0x3e27d08d	0.1638815
99	0xbe118b59	-0.14213313
100	0xbe63b56e	-0.22237179
101	0xbe5be4f4	-0.21474057
102	0xbdd6f693	-0.10496249
103	0x3f06252e	0.5240048
104	0x3e308a79	0.17240323
105	0x3e34b664	0.17647702
106	0xbe5a55bc	-0.21321768
107	0xbe056236	-0.13025746
108	0xbe34ed7a	-0.17668715
109	0x3e41c575	0.1892298
110	0xbe7f5b20	-0.24937105
111	0xbe7245c6	-0.23659429
112	0x3d413eb5	0.047178943
113	0xbd3bbb25	-0.04583277
114	0x3c4bd76b	0.012441496
115	0xbc7115f2	-0.014714705
116	0xbda95670	-0.0826844
117	0x3e51b427	0.20478879
118	0x3eb06f2e	0.34459823
119	0x3dc9e5d6	0.09858291
120	0xbe0495cd	-0.1294777
121	0xbccfb393	-0.025354182
122	0x3d1211ae	0.035661392
123	0x3cbff77f	0.023433445
124	0xbae16d33	-0.0017198682
125	0xbe2b5b9e	-0.16734168
126	0xbdbaba11	-0.091175206
127	0x3e0ae2a4	0.13563019
128	0xbd68aa94	-0.0568033
129	0x3d8995a3	0.06717994
130	0xbe1d080b	-0.153351
131	0x3e3a9cc8	0.1822387
132	0x3be51e67	0.0069921496
133	0x3c57630a	0.013146171
134	0xbe33eeaf	-0.1757152
135	0x3da15655	0.07877795
136	0x3d66f6ff	0.056387898
137	0xbe1096c4	-0.14120013
138	0x3c7fd1f8	0.015614025
139	0xbda31aee	-0.07964121
140	0xbe00bcc6	-0.12572011
141	0xbdf3f4cf	-0.11911928
142	0xbdd57be6	-0.104240224
143	0xbdd010ed	-0.10159478
144	0x3de59233	0.11209526
145	0x3d010eab	0.03150813
146	0x3dae7283	0.08517935
147	0x3e0a2d43	0.13493828
148	0x3e8c94d0	0.27457285
149	0xbd24248f	-0.040073927
150	0x3e07341a	0.13203469
151	0xbb456545	-0.0030120176
152	0xbe2f36bb	-0.17110722
153	0xbdd1921c	-0.10232946
154	0x3d90edeb	0.07076629
155	0x3d3c236c	0.04593222
156	0x3dd8afc9	0.10580403
157	0xbe38fb17	-0.18064533
158	0x3d9ea94c	0.077471346
159	0xbe36f587	-0.17867099
160	0xbd5c0e27	-0.053724434
161	0xbd1bc4ea	-0.03802959
162	0xbdaf5b01	-0.085622795
163	0xbe6db21f	-0.23212479
164	0xbdfdf8f0	-0.12400997
165	0x3d9230a8	0.07138187
166	0xbca75119	-0.020424413
167	0x3dba1a89	0.090870924
168	0x3da52500	0.08063698
169	0xbc80df2f	-0.015731422
170	0x3e435ece	0.19079134
171	0xbe0b8b29	-0.13627304
172	0xbd595e2f	-0.053068336
173	0xbe438ce9	-0.19096722
174	0xbdca9805	-0.09892277
175	0x3ddc962a	0.10770829
176	0xbda6b2ae	-0.08139549
177	0xbdc1ba81	-0.09459401
178	0x3e7cbabd	0.2468061
179	0x3d38e105	0.04513647
180	0x3cac2c3e	0.02101719
181	0xbda6a18c	-0.08136281
182	0x3d14e12b	0.03634755
183	0xbe4c02ec	-0.1992299
184	0x3e455ad6	0.19272932
185	0x3e899730	0.2687316
186	0x3e09f1e3	0.13471179
187	0xbe29b752	-0.16573837
188	0xbdd9c754	-0.10633722
189	0xbe75c95b	-0.24002592
190	0x3dfdef97	0.12399214
191	0x3ded129b	0.11575814
192	0x3b551a82	0.003251702
193	0xbe2e218e	-0.17004988
194	0x3e6b72d9	0.2299303
195	0xbdc25b17	-0.0949003
196	0xbcca9ca9	-0.024732905
197	0xbd03b49b	-0.03215466
198	0xbc0b1b70	-0.008490428
199	0xbd7fb59a	-0.062429048
200	0xbd89e1a4	-0.06732491
201	0xbdc595de	-0.096477255
202	0xbdb4c22c	-0.08826098
203	0xbd4304aa	-0.04761187
204	0x3cd3bba0	0.025846303
205	0x3dd1515e	0.10220598
206	0xbd996f03	-0.07491877
207	0xbcceca6d	-0.025243009
208	0xbcfda5f1	-0.030962916
209	0xbaf1eff1	-0.0018458349
210	0x3e0b06eb	0.13576858
211	0xbe0a3761	-0.13497688
212	0x3e84e772	0.2595783
213	0xbe2657e4	-0.16244465
214	0x3d13243f	0.03592324
215	0xbd99f19a	-0.07516785
216	0xbccb43ea	-0.024812657
217	0xbd2eb87a	-0.0426564
218	0x3e00f16d	0.12592097
219	0x3dca787b	0.09886261
220	0x3e37f1ed	0.17963381
221	0x3d217cac	0.039425537
222	0x3e049819	0.12948646
223	0xbc75f2d6	-0.01501151
224	0xba8434fa	-0.0010086589
225	0x3e6696a1	0.22518398
226	0xbcfc390c	-0.03078892
227	0x3ca8e449	0.020616667
228	0xbd617323	-0.055041444
229	0x3e795b2e	0.24351189
230	0x3e08420d	0.13306446
231	0x3d587d03	0.052853595
232	0x3d47bf34	0.04876633
233	0x3d92de43	0.07171299
234	0xbd564513	-0.052311968
235	0xbe4ec706	-0.20193109
236	0xbe24940a	-0.16072097
237	0x3cb02a90	0.02150467
238	0xbd31d8d9	-0.043419693
239	0x3e8a950e	0.27066845
240	0xbde56419	-0.11200733
241	0x3ce8ff19	0.028441953
242	0x3c288e96	0.010287901
243	0x3d1c5416	0.038166128
244	0x3e427157	0.18988548
245	0xbca1ba88	-0.019742265
246	0xbd9110e5	-0.070833005
247	0x3e5a8c3e	0.2134256
248	0x3d6cdb73	0.05782647
249	0x3db05082	0.08609106
250	0xbc3d8f2f	-0.011569782
251	0x3e523e6c	0.20531625
252	0xbe154682	-0.14577678
253	0xbb5a40c3	-0.003330276
254	0x3e69e78e	0.22842237
255	0x3ce82ec7	0.028342618

module.fc3.bias f4 [10]
0	0xbe5ae28c	-0.21375483
1	0xbf31aa56	-0.69400537
2	0x3dfcc8a4	0.12342957
3	0x3ea95cf2	0.33078724
4	0x3f0e0524	0.55476594
5	0xbe81e07f	-0.2536659
6	0x3daceddf	0.08443808
7	0xbeddd428	-0.43325925
8	0x3f0ad5b4	0.54232335
9	0xbecde1ab	-0.40211233
