models/classifier_net_epoch_5_10000.pth (torch_old, 249853 bytes, 10 tensors)

module.conv1.weight f4 [6, 3, 5, 5]
0	0x3d1b610c	0.037934348
1	0x3e8e2936	0.27765816
2	0x3eb47ce6	0.3525154
3	0x3f0b6c59	0.544622
4	0x3e81434e	0.25246662
5	0x3d98c65f	0.07459711
6	0xbea10aa1	-0.31453422
7	0x3d9e40ef	0.07727229
8	0x3f6336bb	0.8875539
9	0x3dde183b	0.10844465
10	0x3e7a8f86	0.24468812
11	0xbea046fb	-0.31304154
12	0xbf772934	-0.96547246
13	0x3f4950ca	0.786389
14	0x3e9030ce	0.28162235
15	0x3d78c5d7	0.06073555
16	0xbcb22db0	-0.021750301
17	0xbf5165ea	-0.81796134
18	0x3d9b2631	0.07575644
19	0xbdd2ac5b	-0.102867804
20	0xbe276523	-0.16347174
21	0xbd69a7b1	-0.05704469
22	0xbf142cc3	-0.578808
23	0x3e0e7a92	0.13913944
24	0xbe8804d4	-0.26566184
25	0xbda8744c	-0.08225307
26	0xbec2b590	-0.38029146
27	0xbf1481a0	-0.5801029
28	0xbe255314	-0.16144973
29	0xbed65173	-0.41859016
30	0x3ec71534	0.38883364
31	0xbf24c52f	-0.6436338
32	0xbf3050e3	-0.68873423
33	0x3ec61f8f	0.38695952
34	0xbe657e76	-0.22411522
35	0x3f375ac1	0.71622854
36	0xbe9acdec	-0.3023523
37	0xbf995b13	-1.1980919
38	0x3f26da9b	0.65177315
39	0x3e2d4ec2	0.16924575
40	0x3f0be2bb	0.5464284
41	0x3e95b84d	0.29242173
42	0xbf6d61d1	-0.9272738
43	0x3e87fd7b	0.26560578
44	0xbe0c6daf	-0.13713716
45	0x3f090326	0.5352043
46	0x3e258f11	0.16167857
47	0xbe839cb5	-0.25705495
48	0x3f0d8cf2	0.5529319
49	0x3a0efe1c	0.00054547354
50	0xbdbeec6d	-0.093224384
51	0xbd2b9887	-0.04189351
52	0xbc4167ae	-0.011804504
53	0x3e5fd4d0	0.21858525
54	0xbe4e522a	-0.2014853
55	0x3e9d3593	0.30704936
56	0xbecd1e8c	-0.40062368
57	0xbe815979	-0.25263575
58	0x3f246669	0.64218765
59	0xbefa6928	-0.48908353
60	0x3f26b59f	0.6512088
61	0xbe602043	-0.21887307
62	0xbf5634e2	-0.8367444
63	0x3f1f799b	0.6229493
64	0xbe18d987	-0.1492673
65	0x3f12f3a2	0.57403004
66	0x3ee5f2ac	0.44911706
67	0xbf26e20e	-0.6518868
68	0x3e3d6708	0.18496335
69	0xbe8447f0	-0.25836134
70	0x3ed63630	0.41838217
71	0x3eabce08	0.33555627
72	0xbe5c0152	-0.21484879
73	0x3e904f3d	0.28185454
74	0xbe836b71	-0.2566791
75	0xbe0f9d87	-0.14024936
76	0x3e8240d6	0.2544009
77	0x3e493a32	0.19651106
78	0x3e497c89	0.19676413
79	0x3cd4383d	0.025905723
80	0xbc87ae60	-0.01656264
81	0x3effa013	0.49926814
82	0x3e1c4392	0.15260151
83	0xbda5cad9	-0.08095331
84	0xbdd1393d	-0.102159955
85	0x3e6f8815	0.23391755
86	0xbdb64053	-0.088989876
87	0xbf0aa2ef	-0.54154867
88	0xbed68ca0	-0.41904163
89	0xbe6c619f	-0.23084114
90	0xbe2d1abe	-0.16904733
91	0xbf2d35b3	-0.67660064
92	0xbf0d4cbf	-0.5519523
93	0xbda3c604	-0.07996753
94	0x3d8719c4	0.06596711
95	0xbda1e3a7	-0.07904749
96	0x3d8c1650	0.06840193
97	0x3e8a73da	0.27041513
98	0x3f033db6	0.5126604
99	0x3e9aaa25	0.30207935
100	0xbece256d	-0.4026293
101	0xbbf1d977	-0.00738066
102	0xbd80aadf	-0.06282591
103	0xbda782bf	-0.08179235
104	0xbe5cc642	-0.21560004
105	0x3c8fa8fd	0.017536635
106	0x3ec6e906	0.38849658
107	0xbd4565b5	-0.0481927
108	0xbe46e11f	-0.19421814
109	0xbe967c3e	-0.29391664
110	0x3ec62f68	0.38708043
111	0x3c7a2ed1	0.015269951
112	0xbeea3c84	-0.45749295
113	0xbef4831d	-0.47756281
114	0xbe4dff53	-0.2011693
115	0xbd48ac72	-0.04899258
116	0xbf02463a	-0.5088841
117	0xbee88907	-0.45417044
118	0xbdd1dc9e	-0.102471575
119	0x3ca39899	0.019970225
120	0x3c3f37e2	0.011671038
121	0xbe0835c5	-0.13301761
122	0x3e40192c	0.18759602
123	0x3eae5a10	0.34053087
124	0x3e29b639	0.16573419
125	0xbe5065c9	-0.20351328
126	0x3db2939e	0.08719562
127	0x3d3dba2b	0.04632012
128	0x3e731fac	0.2374255
129	0x3c581958	0.013189636
130	0x3ded3f4e	0.1158434
131	0x3efd984e	0.49530262
132	0x3ed12c88	0.40854287
133	0x3d9a3c21	0.07531
134	0xbdbee90f	-0.09321796
135	0x3ede1c2d	0.4338087
136	0x3e86ff2e	0.26366562
137	0xbe51926f	-0.20466016
138	0xbec00895	-0.37506548
139	0xbe079eba	-0.13244143
140	0x3dbe0680	0.092785835
141	0xbf027c15	-0.50970584
142	0xbed465a8	-0.41483808
143	0xbe30f083	-0.17279248
144	0x3dd22581	0.102610596
145	0xbc3ac170	-0.011398658
146	0xbe15a4a0	-0.1461358
147	0x3e909b65	0.28243557
148	0x3e351e90	0.1768744
149	0xbd03da80	-0.0321908
150	0x3d011ad1	0.031519715
151	0xbda71e0f	-0.0816003
152	0xbe2909c5	-0.16507633
153	0xbd1844bb	-0.03717492
154	0xbd2d36ec	-0.042288706
155	0x3df3f799	0.1191246
156	0x3ea1e34c	0.31618726
157	0x3e17a1c4	0.14807802
158	0x3e2865b4	0.16445047
159	0x3dda1955	0.10649363
160	0xbe201c47	-0.15635787
161	0xbda01d8e	-0.07818137
162	0x3ceaac62	0.028646652
163	0xbd0e3c20	-0.03472531
164	0x3d0fc9e6	0.035104655
165	0xbedb34b8	-0.4281366
166	0xbed8fa75	-0.42378584
167	0xbee4effe	-0.4471435
168	0xbf0023cc	-0.5005462
169	0xbec845a6	-0.39115638
170	0xbe2d220d	-0.1690752
171	0xbea0b3f2	-0.31387287
172	0xbe897e4f	-0.26854178
173	0xbe8ece05	-0.27891555
174	0xbe397808	-0.18112195
175	0xbe85f1d2	-0.26161057
176	0xbe94e6cc	-0.29082334
177	0xbe3590d7	-0.17731033
178	0xbe4ca6f5	-0.19985564
179	0xbe7a7e61	-0.24462272
180	0x3e944127	0.28955957
181	0x3ebb49ff	0.36579892
182	0x3ee5d3c4	0.44888127
183	0x3e9881a0	0.29786396
184	0x3e906219	0.28199843
185	0x3c14db4a	0.009085486
186	0x3b4ed63d	0.0031560801
187	0x3dd962ea	0.106145695
188	0x3dfc7829	0.12327606
189	0x3e2d7705	0.16939934
190	0xbe931fc1	-0.28735164
191	0xbed6faf9	-0.41988352
192	0xbe9b2919	-0.30304793
193	0xbe862312	-0.26198632
194	0xbe43c878	-0.19119442
195	0xbd3c31c7	-0.04594591
196	0xbe1de54d	-0.15419503
197	0xbdb98329	-0.0905822
198	0x3cd9c64b	0.026583811
199	0x3d5e88e4	0.054329768
200	0xbe30dfb5	-0.17272837
201	0x3c439074	0.011936296
202	0xbd612362	-0.054965384
203	0xbe17d689	-0.14827932
204	0xbe84bfe7	-0.2592766
205	0x3ec455f4	0.38346827
206	0x3eaa8e16	0.33311528
207	0x3f110d99	0.56661373
208	0x3f07336f	0.52812856
209	0x3eaf4a87	0.34236547
210	0x3e21ea72	0.1581209
211	0x3e84a69a	0.25908357
212	0x3e87abe3	0.26498327
213	0x3ec9064a	0.3926261
214	0x3e823081	0.2542763
215	0x3d45dc59	0.048305843
216	0x3e0158f2	0.12631586
217	0x3c90f8ca	0.017696757
218	0x3d94dc75	0.07268611
219	0x3dfc5a9c	0.1232197
220	0x3de57ba2	0.11205222
221	0x3e084965	0.13309248
222	0x3e1b3dee	0.15160343
223	0x3e8da6c8	0.27666306
224	0x3e49c29e	0.19703147
225	0x3e1f2317	0.1554073
226	0x3e7b28b0	0.2452724
227	0xbe811084	-0.25207913
228	0xbc1eb8a0	-0.009687573
229	0xbe35a752	-0.17739609
230	0x3ea64d84	0.32481015
231	0xbe6c41af	-0.23071931
232	0xbee3292c	-0.4436735
233	0x3e1765a3	0.14784865
234	0x3cf70a14	0.030156173
235	0x3e9c683a	0.3054827
236	0xbec4d212	-0.3844152
237	0xbed82a86	-0.42219943
238	0x3ee00c89	0.43759564
239	0xbd0a81d2	-0.033815213
240	0xbdd3fb73	-0.103506945
241	0xbf0edb38	-0.5580325
242	0xbde8d8c4	-0.1136947
243	0x3ec181ee	0.3779444
244	0x3db90ce9	0.090356655
245	0x3b881433	0.0041527986
246	0xbe8db538	-0.2767732
247	0x3dfdb05f	0.12387156
248	0x3ec0c4a4	0.37650025
249	0xbdd68b3a	-0.10475774
250	0x3e061870	0.1309526
251	0x3dae32c1	0.08505774
252	0xbe8bdac6	-0.27315348
253	0x3deb6d6d	0.11495481
254	0x3d53cfcd	0.051711846
255	0x3e642624	0.22280174

module.conv1.bias f4 [6]
0	0xbe90cfa9	-0.28283432
1	0xbf22a8b4	-0.6353867
2	0xbdc2d51b	-0.09513303
3	0xbe67ebac	-0.22648495
4	0xbd6e6010	-0.05819708
5	0xbe7c8d81	-0.24663354

module.conv2.weight f4 [16, 6, 5, 5]
0	0x3ec263fa	0.379669
1	0xbcedf96f	-0.029049603
2	0x3f053ad1	0.5204287
3	0x3c4f5a6b	0.012655835
4	0xbd874413	-0.06604781
5	0x3e49670e	0.19668218
6	0xbde8fd4e	-0.11376439
7	0x3e92f721	0.2870417
8	0x3ea23a6a	0.3168519
9	0x3aa5eeca	0.0012659666
10	0x3e3b6a63	0.18302302
11	0xbdcb8dfc	-0.09939191
12	0x3db1d59d	0.086833216
13	0x3e91eaae	0.2849936
14	0xbd2491e6	-0.040178202
15	0xbcd9283e	-0.026508447
16	0x3dad5dc5	0.08465151
17	0x3da84dd1	0.08217967
18	0x3e197b39	0.14988412
19	0x3df98fc9	0.12185628
20	0xbdb19fa0	-0.08673024
21	0xbd8f3c45	-0.069939174
22	0xbe177333	-0.14790039
23	0xbe11a3bb	-0.14222614
24	0x3c118758	0.008882366
25	0xbdc78a77	-0.09743207
26	0x3e19b188	0.15009129
27	0x3e191183	0.14948086
28	0x3bf2b0ef	0.007406346
29	0xbd54f403	-0.05199052
30	0xbe72c896	-0.2370933
31	0x3ba38dc2	0.004991264
32	0x3d99f2bd	0.07517002
33	0xba0248b8	-0.00049699424
34	0x3d0d74b5	0.03453513
35	0xbe8fe1b3	-0.28101882
36	0xbcf72a6a	-0.030171592
37	0x3dec526a	0.11539157
38	0x3db94c5d	0.09047768
39	0x3e0b8513	0.13624983
40	0xbea3079c	-0.31841743
41	0xbe90f53c	-0.283121
42	0xbdadd24a	-0.08487375
43	0x3d4ff94f	0.05077487
44	0x3d5d23f4	0.053989366
45	0xbe800313	-0.25002345
46	0xbdad6872	-0.08467187
47	0xbe0c85bf	-0.13722895
48	0xbd76a2f6	-0.060214005
49	0x3cba3d02	0.022734169
50	0xbcc135a5	-0.02358515
51	0xbd3b9eaa	-0.04580561
52	0xbce1c198	-0.027558133
53	0x3d6fb1c5	0.058519144
54	0x3cfcaa53	0.030842936
55	0xbe8f9ed2	-0.28050858
56	0xbe31b057	-0.17352425
57	0xbe05dbae	-0.13072082
58	0xbd945298	-0.07242316
59	0xbde3aa38	-0.11116451
60	0xbeb0477f	-0.34429547
61	0xbe8f0c3e	-0.27939028
62	0xbe90cc12	-0.28280693
63	0xbe4793e2	-0.19490007
64	0xbdfec42b	-0.1243976
65	0xbe393118	-0.18085134
66	0xbd3df7a4	-0.046378747
67	0x3ae987d6	0.0017816972
68	0xbddaa875	-0.10676662
69	0x3d56d521	0.05244935
70	0xbe2db984	-0.169653
71	0xbdac5693	-0.0841495
72	0xbd7d13f1	-0.061786596
73	0x3d01ccd1	0.03168947
74	0xbd4ab50b	-0.049489062
75	0x3ed349c9	0.4126723
76	0x3df705b7	0.12061637
77	0xbc4418d7	-0.011968813
78	0x3edfdb08	0.43721795
79	0x3d71d0a7	0.059036877
80	0x3d5cb1c8	0.053880483
81	0x3d1161a8	0.035493523
82	0xbe029ce4	-0.12755162
83	0x3e5544cb	0.20827024
84	0x3e404d7b	0.18779556
85	0xbd3e4574	-0.046452954
86	0x3df96bfd	0.121788
87	0xbe2de54b	-0.16982
88	0xbdff7bc4	-0.12474778
89	0x3e9191ce	0.28431553
90	0xbe6e4a68	-0.23270571
91	0x3dea896e	0.11451994
92	0xbd9efca0	-0.07763028
93	0xbe21c4fa	-0.15797797
94	0x3d94e576	0.07270329
95	0xbea48526	-0.32132834
96	0x3d44e5fd	0.048070896
97	0xbdb5a264	-0.08868864
98	0xbe1e3f0c	-0.15453738
99	0xbe8d61d6	-0.27613705
100	0xbd3a2322	-0.04544366
101	0xbdadab91	-0.08479989
102	0xbe5e0d27	-0.21684705
103	0xbb70fa9a	-0.0036770464
104	0x3d872261	0.06598354
105	0xbdba7a8d	-0.09105406
106	0xbd79b175	-0.06096025
107	0xbe0f22e9	-0.13978161
108	0xbdc7d6e2	-0.097577825
109	0xbdd72408	-0.10504919
110	0xbd838d0a	-0.064233854
111	0xbd28fdfe	-0.04125785
112	0x3cbfbc66	0.023405265
113	0x3c75488f	0.014970913
114	0xbcb32de7	-0.021872474
115	0xbd1ed049	-0.038772855
116	0x3c0a12b8	0.008427314
117	0x3d09fd51	0.033688847
118	0x3d70248b	0.0586286
119	0x3c76ce1b	0.015063788
120	0xbd886273	-0.06659403
121	0xbc395761	-0.011312337
122	0x3d1754bc	0.036946043
123	0x3e34c958	0.17654932
124	0x3e0852b8	0.13312805
125	0xbe2c14b1	-0.16804768
126	0xbd1967c6	-0.03745248
127	0xbe29defd	-0.1658897
128	0x3bf56d02	0.0074898014
129	0x3c01dc9c	0.0079261325
130	0xbddf25ab	-0.108958565
131	0xbdd46532	-0.10370864
132	0xbdd6bdcf	-0.10485422
133	0xbd021850	-0.031761467
134	0x3d3c3f25	0.045958657
135	0x3d6ae573	0.057347726
136	0xbcd5f92f	-0.026119797
137	0xbe55036c	-0.20802087
138	0xbe2fb813	-0.17160062
139	0xbdb524b0	-0.08844888
140	0xbdf59252	-0.11990799
141	0x3e1dda27	0.1541525
142	0xbe009899	-0.12558211
143	0xbe227a7e	-0.1586704
144	0xbe435a16	-0.19077334
145	0x3b2ecc17	0.002667194
146	0x3d90cfc1	0.07070876
147	0x3c4505b6	0.012025287
148	0xbd257ea8	-0.040403992
149	0xbe149964	-0.14511639
150	0xbdae81ad	-0.085208274
151	0xbd614d13	-0.055005144
152	0x3d8a62e8	0.06757146
153	0xbdc23e62	-0.09484555
154	0x3d8da70d	0.06916628
155	0xbda90214	-0.082523495
156	0x3c82e0b3	0.015976286
157	0xbca61a64	-0.020276256
158	0x3d3b5fc5	0.04574563
159	0x3e0c9528	0.13728774
160	0x3ec9427e	0.39308542
161	0xbe2b17b4	-0.16708261
162	0xbe357921	-0.17721988
163	0x3c7f2263	0.015572163
164	0xbd39fcdb	-0.045407157
165	0x3f0e8030	0.5566435
166	0x3f267690	0.6502466
167	0x3cfb11de	0.030648168
168	0xbe58d828	-0.21176207
169	0xbe83ba32	-0.25727993
170	0xbec158bf	-0.3776302
171	0xbb046c7e	-0.0020206268
172	0x3ead1108	0.33802056
173	0x3e60b157	0.2194265
174	0x3e1c5e0f	0.15270256
175	0xbd599ccb	-0.053128045
176	0xbe5232a4	-0.2052713
177	0xbce5d338	-0.028054819
178	0xbd82d863	-0.06388929
179	0xbd636ed5	-0.05552562
180	0xbc8cb4e4	-0.0171761
181	0xbe61d6e3	-0.22054629
182	0xbe87cfd1	-0.2652574
183	0xbe0895ed	-0.13338442
184	0x3e1c3d53	0.15257768
185	0x3d1f9480	0.03895998
186	0xbd16c7b7	-0.036811557
187	0xbea0b78c	-0.31390035
188	0xbdf73fc3	-0.120727085
189	0x3dbf3144	0.093355685
190	0x3e4947e1	0.19656326
191	0x3dfcdd1e	0.12346862
192	0x3d95d000	0.073150635
193	0xbdd88d54	-0.10573831
194	0xbcc614b1	-0.024179788
195	0xbd4fa3cf	-0.05069333
196	0x3e4e1565	0.20125349
197	0x3e2beb93	0.16789083
198	0x3e8a3231	0.26991418
199	0x3dbde664	0.09272459
200	0x3d82d83e	0.06388901
201	0x3dd9a96a	0.10628016
202	0x3cccb611	0.02498916
203	0xbd03727a	-0.032091595
204	0x3da251dc	0.0792577
205	0x3ac85b64	0.0015286026
206	0x3dbea1d5	0.09308211
207	0x3e038825	0.12844904
208	0x3d41b535	0.047291953
209	0xbbb0ccda	-0.005395514
210	0xbd12f9f2	-0.035882898
211	0x3e50217a	0.2032527
212	0x3dd5c585	0.104380645
213	0x3d819c88	0.06328684
214	0xbdc4878c	-0.09596166
215	0xbf18c776	-0.59679353
216	0x3d08ca41	0.03339601
217	0x3ebd3725	0.36956134
218	0x3e5fccf4	0.21855527
219	0xbea76f16	-0.3270194
220	0xbe7cc8aa	-0.24685922
221	0xbea43151	-0.32068875
222	0x3cc24d35	0.023718456
223	0x3e3c0ec6	0.1836501
224	0x3e9c9a3e	0.30586427
225	0xbd304744	-0.043036714
226	0xbe450327	-0.19239484
227	0xbdada2a9	-0.084782906
228	0x3cbe98cb	0.023266217
229	0x3e024c9d	0.12724538
230	0x3d19acbd	0.03751825
231	0xbd317e4c	-0.043333337
232	0xbc9d7210	-0.019219428
233	0x3d1c4122	0.038148053
234	0xbde1e459	-0.11029882
235	0xbdb7a085	-0.089661635
236	0x3e013803	0.12619023
237	0xbcff842f	-0.03119096
238	0xbd490d0a	-0.0490847
239	0xbe119be9	-0.14219631
240	0xbe9dd9cb	-0.30830225
241	0xbe29d9e6	-0.16587028
242	0x3e53353a	0.20625773
243	0x3e423d96	0.18968806
244	0x3e9064d2	0.2820192
245	0xbebb3d63	-0.36570272
246	0xbf1004a4	-0.5625708
247	0xbebc78eb	-0.36811003
248	0xbe2a23e8	-0.1661526
249	0xbdb8bd9e	-0.090205416
250	0xbe085d45	-0.1331683
251	0xbdc0c5f7	-0.09412759
252	0xbdd42b79	-0.10359854
253	0x3d9a595e	0.07536577
254	0x3da71221	0.08157755
255	0xbe0a5d1b	-0.1351208

module.conv2.bias f4 [16]
0	0x3e56ecb1	0.20988728
1	0xbfb239d2	-1.3923895
2	0xbf5ec4c3	-0.87018985
3	0xbda865f4	-0.08222571
4	0x3f4a922e	0.791293
5	0x3e69db36	0.22837529
6	0x3e0dec83	0.13859753
7	0x3f7b39bf	0.9813499
8	0xbe51d625	-0.20491846
9	0xbe66fdae	-0.22557709
10	0xbf428579	-0.75984913
11	0x3fa929ed	1.321592
12	0x3ea501c6	0.32227916
13	0xbf0493e5	-0.5178817
14	0x3dd05eaf	0.101743095
15	0x3f0f4d12	0.55976975

module.fc1.weight f4 [120, 400]
0	0xbce7d4d8	-0.028299734
1	0xbb906ef7	-0.0044077593
2	0xbd4d28d5	-0.05008777
3	0xba47b43a	-0.00076181034
4	0xbd823df7	-0.06359475
5	0x3dcf8a75	0.101338305
6	0x3d5880b7	0.052857127
7	0x3d27c478	0.04095885
8	0x3c7698cf	0.015051081
9	0x3c6a72c6	0.014309591
10	0x3cf40921	0.02978951
11	0x3c862829	0.016376572
12	0xbcce4595	-0.025179664
13	0x3d2c5546	0.04207351
14	0x3d646f82	0.055770405
15	0x3d397748	0.04527977
16	0xbc93f803	-0.018062597
17	0xbe0f9757	-0.14022575
18	0xbc1e0e18	-0.009646915
19	0xbc5f2c2e	-0.013621373
20	0x3cd2e62e	0.025744524
21	0x3c3fef01	0.011714698
22	0xbd5cb77c	-0.05388592
23	0xbd688ab8	-0.056772918
24	0x3d471f96	0.048614107
25	0x3db12c4a	0.086510256
26	0x3cf8d3c4	0.030374415
27	0x3daf88c1	0.085710056
28	0x3ddf6d38	0.10909504
29	0x3df1cf98	0.118071735
30	0x3d61b4a4	0.055103913
31	0x3d309a40	0.043115854
32	0x3d8f4279	0.069951005
33	0x3dcd9fa1	0.100402124
34	0x3df5311f	0.1197226
35	0x3e609da0	0.21935129
36	0x3d433365	0.047656436
37	0x3cba5ab1	0.022748323
38	0x3d4de11d	0.050263513
39	0x3cd38d66	0.02582426
40	0xbd02876c	-0.03186743
41	0xbd046957	-0.032327022
42	0xbe37d3c6	-0.17951879
43	0xbd5ab1d6	-0.053392254
44	0x3caf2681	0.021380665
45	0xbe489bd7	-0.19590698
46	0xbd44a281	-0.04800654
47	0xbd49eff6	-0.04930111
48	0xbdf62d17	-0.12020319
49	0xbbd657d8	-0.0065412335
50	0x3e24542c	0.16047734
51	0x3d08d9f2	0.033410974
52	0x3cc80a04	0.024418838
53	0xbb37b93a	-0.0028033988
54	0xbe136124	-0.14392525
55	0x3c48c544	0.012254063
56	0xbd322088	-0.043488055
57	0x3c16e955	0.009210904
58	0xbc75478f	-0.014970674
59	0xbd8a2baf	-0.06746613
60	0x3b8e665b	0.004345698
61	0x3d82e486	0.06391244
62	0xbda42697	-0.08015173
63	0xbda97f36	-0.08276217
64	0xbd743b2d	-0.059626747
65	0x3e025c7f	0.12730597
66	0x3cb5475e	0.022128757
67	0xbda4f7e3	-0.08055093
68	0xbda179a6	-0.07884531
69	0xbd98c522	-0.07459475
70	0xbe1322b4	-0.14368707
71	0xbb76be84	-0.0037650177
72	0xbdd21cc3	-0.10259392
73	0xbd3008ef	-0.04297727
74	0xbcca17bf	-0.024669526
75	0xbcd084ce	-0.025453951
76	0xbe021e96	-0.1270698
77	0xbd103cbe	-0.03521418
78	0xbca347f9	-0.01993178
79	0xba56c0ee	-0.0008192201
80	0xbd0aa0ce	-0.03384476
81	0xbde600fd	-0.11230657
82	0xbd7bfb09	-0.061518703
83	0xbd3d833b	-0.04626773
84	0x3d76bd98	0.060239404
85	0xbdd3eb24	-0.10347584
86	0xbdbb5317	-0.091467075
87	0xbc30532f	-0.01076202
88	0xbd2ef591	-0.04271466
89	0x3bdc7913	0.0067283004
90	0xbdcaffd5	-0.09912077
91	0xbdacf44f	-0.08445036
92	0xbcb0b67f	-0.021571396
93	0xbd96ed03	-0.07369425
94	0x3d630c18	0.055431455
95	0x3dd49ab7	0.10381072
96	0x3d5a3b6f	0.053279337
97	0x3d37e02b	0.044891518
98	0xbc59703a	-0.013271386
99	0x3dc18618	0.094494045
100	0x3ddb36b3	0.107037924
101	0x3d619a8b	0.055079024
102	0x3dd1c90b	0.10243424
103	0x3d3afb89	0.04565004
104	0xbd1efaed	-0.03881352
105	0x3d6e8a77	0.05823752
106	0x3d73ed69	0.059552584
107	0x3de52ff8	0.1119079
108	0x3ce3d4a6	0.02781136
109	0xbd38ea16	-0.045145117
110	0x3d8e848c	0.06958875
111	0x3d51859b	0.051152807
112	0x3e06411b	0.13110773
113	0x3e05f8b6	0.13083157
114	0xbde92c28	-0.11385375
115	0x3d3d93ef	0.04628366
116	0xbbf90099	-0.007598948
117	0x3cb573b4	0.022149898
118	0xbcd46a95	-0.025929729
119	0xbd3d4f51	-0.04621822
120	0x3dbb229c	0.091374606
121	0x3c82ad95	0.015951911
122	0x3bcc04f2	0.0062261755
123	0xbdeaee11	-0.11471189
124	0xbdb44324	-0.088018686
125	0xbd0a4c22	-0.033764012
126	0xbd1c9b5d	-0.038234103
127	0x3d8f6635	0.07001916
128	0x3b6521e9	0.003496284
129	0xbe041369	-0.1289803
130	0xbd587939	-0.052849982
131	0xbb2a5a1f	-0.0025993658
132	0x3c89ec7c	0.016836397
133	0x3bfcccb0	0.0077148303
134	0xbdca0ad3	-0.09865346
135	0x3d46dec6	0.048552297
136	0x3d16a540	0.03677869
137	0xbdb3c334	-0.087774664
138	0xbda4f01f	-0.08053612
139	0xbe169195	-0.14703973
140	0xbd362eff	-0.044478413
141	0x3a3288ec	0.0006810564
142	0x3cc656ea	0.024211366
143	0xbba0a13e	-0.004902034
144	0xbc47b504	-0.012189154
145	0xbd5a90f5	-0.053360898
146	0xbd02d172	-0.031938024
147	0xbceb92f7	-0.028756602
148	0xbd3303bd	-0.043704737
149	0xbb8b407b	-0.00424963
150	0x3cf63c18	0.030057952
151	0x3ba3a927	0.0049945298
152	0xbd7c4433	-0.061588477
153	0xbddc7527	-0.107645325
154	0xbd59d762	-0.05318392
155	0x3d093b4a	0.033503808
156	0xbde6b240	-0.11264467
157	0xbcedb4a8	-0.029016808
158	0xbd4aee77	-0.049543824
159	0xbc66ece9	-0.01409457
160	0x3c16a585	0.009194736
161	0xbcd2c416	-0.025728267
162	0xbd20338b	-0.039111655
163	0xbd511d26	-0.05105319
164	0xbcdcfa58	-0.026974842
165	0xbd072f94	-0.03300436
166	0xbd479bce	-0.04873257
167	0xbdc00e78	-0.0937776
168	0xbd49aa51	-0.049234692
169	0xbd877b60	-0.06615329
170	0xbd64ddc8	-0.05587557
171	0xbcee8e9e	-0.02912074
172	0xbd20f9f3	-0.03930087
173	0x3ce3ca9b	0.02780657
174	0x3da21685	0.079144515
175	0x3db2204c	0.086975664
176	0x3b4420b0	0.002992671
177	0x3ce835cd	0.028345967
178	0x3e0728da	0.13199177
179	0x3e22cb1b	0.15897791
180	0x3ccae7b8	0.024768695
181	0x3d638307	0.05554488
182	0x3dedc795	0.11610333
183	0x3d6f9b57	0.058497753
184	0x3d9d39f2	0.07677068
185	0xbcae1670	-0.021250933
186	0x3c660e06	0.014041429
187	0x3b8599db	0.004077179
188	0xbbe2685c	-0.0069094133
189	0x3d6c4e1f	0.05769169
190	0xbd6673aa	-0.05626265
191	0x3c38ec39	0.011286789
192	0xbceb41f5	-0.028717974
193	0x3af8a4bd	0.0018969994
194	0x3c5f54c1	0.013631047
195	0x3cb684b1	0.022280069
196	0xb8fbe34b	-0.00012010949
197	0xbd1aeaf8	-0.03782174
198	0x3caed566	0.02134199
199	0xbd601913	-0.054711413
200	0xbdb177fe	-0.08665465
201	0xbba43518	-0.005011212
202	0xbe1dd526	-0.15413341
203	0xbe48d5e8	-0.19612849
204	0xbdacad61	-0.08431507
205	0xbd52dc43	-0.05147959
206	0xbca2dee0	-0.019881666
207	0xbc2eaf77	-0.010661951
208	0xbdd16856	-0.102249786
209	0x3b448d84	0.0029991576
210	0x3cc1fa00	0.02367878
211	0x3d432d22	0.047650464
212	0x3d636528	0.055516392
213	0xbcaf0db4	-0.021368839
214	0x3d94b732	0.07261504
215	0xbd4052f6	-0.046954118
216	0xbdc5cf47	-0.09658676
217	0xbca54d83	-0.020178562
218	0xbd059efb	-0.03262232
219	0x3d5b355b	0.05351768
220	0xbe110348	-0.14161408
221	0xbd072d30	-0.03300208
222	0xbd99b174	-0.075045496
223	0xbd7f2970	-0.062295377
224	0xbdad1f6e	-0.0845326
225	0x3cca233f	0.02467501
226	0xbb50350d	-0.0031769902
227	0xbd71aa15	-0.059000093
228	0xbd4db809	-0.050224338
229	0xbe0d9f8a	-0.1383039
230	0x3d844207	0.06457906
231	0x3d4d8dc4	0.050184026
232	0xbc198518	-0.009370111
233	0x3ccdec5a	0.025137115
234	0xbe0949de	-0.13407084
235	0x3e04e75a	0.12978879
236	0x3ca7c223	0.020478314
237	0xb9dd11ce	-0.0004216567
238	0x3dacfa24	0.08446148
239	0xbd93f777	-0.072249345
240	0x3e39680a	0.18106094
241	0x3e12b26f	0.1432588
242	0x3d186da1	0.037213925
243	0x3d8847b1	0.06654299
244	0x3d47464b	0.04865102
245	0x3e193472	0.14961413
246	0x3c918cbf	0.017767308
247	0x3dfa6106	0.12225537
248	0x3deb6acf	0.114949815
249	0xbb8ab825	-0.0042333775
250	0xbd141588	-0.036153346
251	0xbd01ddab	-0.03170554
252	0xbdaa9816	-0.08329789
253	0xbe068b23	-0.13139014
254	0xbd3e6210	-0.04648024
255	0xbd366e07	-0.044538524

module.fc1.bias f4 [120]
0	0x3e3e3c54	0.18577701
1	0xbe25dd5f	-0.16197728
2	0xbe224456	-0.1584638
3	0xbd4edb41	-0.050502066
4	0xbe603d67	-0.21898423
5	0xbe4b611a	-0.1986126
6	0x3d5696c5	0.05238988
7	0x3d20c090	0.039246142
8	0xbd6e5071	-0.058182184
9	0xbad915b6	-0.0016562256
10	0x3d5d1c3e	0.053982012
11	0x3d39d3a9	0.04536787
12	0xbe16521f	-0.14679764
13	0xbeb8bb7d	-0.36080542
14	0x3ac50203	0.0015030507
15	0x3e87c2b7	0.26515743
16	0x3d012152	0.031525917
17	0x3de29cb4	0.11065045
18	0x3e3cf26a	0.18451849
19	0x3d4a752c	0.04942815
20	0x3d90eca6	0.07076387
21	0x3c972fc4	0.018455394
22	0xbdf166e5	-0.11787204
23	0xbc24257a	-0.010018701
24	0xbdb7a576	-0.08967106
25	0xbd94c786	-0.072646186
26	0xbdd4e4a2	-0.10395171
27	0x3e4a1552	0.19734696
28	0x3ea891d7	0.32923767
29	0x3cb3467e	0.0218842
30	0x3c86c9e9	0.0164537
31	0xbd1f1210	-0.038835585
32	0x3d1c5e01	0.038175587
33	0xbe0494ee	-0.12947437
34	0x3d71daa0	0.059046388
35	0x3e897ab4	0.26851428
36	0x3e17f0d5	0.14837964
37	0x3dd9c14e	0.10632573
38	0x3c04d11d	0.008106497
39	0x3e6b975f	0.23006962
40	0x3df97a96	0.121815845
41	0x3e0444d6	0.12916884
42	0xbe327ad6	-0.1742967
43	0x3e138ea9	0.1440989
44	0x3e5c6798	0.21523893
45	0x3ed140f9	0.40869883
46	0xbd235c84	-0.03988315
47	0x3e64f0a9	0.2235743
48	0x3cfb1878	0.030651316
49	0x3e0bd0aa	0.13653818
50	0x3ea5db3b	0.32393822
51	0xbd9ee2b7	-0.07758086
52	0x3dba3f59	0.09094114
53	0x3d11672e	0.03549879
54	0x3e36243b	0.17787258
55	0x3c2bffe1	0.010498018
56	0xbdd979ca	-0.106189325
57	0x3da63f09	0.08117492
58	0x3d9f6568	0.077830136
59	0x3da228c2	0.0791793
60	0x3ed847c3	0.4224225
61	0x3d3d9dc3	0.04629303
62	0x3e5bfbf0	0.21482825
63	0x3d2823ed	0.041049886
64	0x3d6629d1	0.056192223
65	0xbd1f89f4	-0.03894992
66	0xbe8fd058	-0.2808864
67	0xbea93ef7	-0.3305585
68	0x3d244b0d	0.040110637
69	0x3d1003f3	0.035160016
70	0x3e3dae12	0.18523434
71	0xbda33a1d	-0.079700686
72	0xbc126b38	-0.008936696
73	0xbc869273	-0.016427254
74	0xbdb16c02	-0.08663179
75	0xbdb5ca2c	-0.08876452
76	0x3dd86798	0.10566634
77	0x3dd6fd1d	0.10497496
78	0x3d895103	0.06704905
79	0xbd0fd72e	-0.03511732
80	0xbe0ec549	-0.13942446
81	0x3e0e0b43	0.13871484
82	0x3da8dea0	0.08245587
83	0x3de7ef12	0.11324896
84	0x3dbd9139	0.09256215
85	0x3ed95d1a	0.42453843
86	0x3e3223a4	0.17396408
87	0xbe1eb948	-0.15500367
88	0xbe934cea	-0.28769618
89	0x3e1b885b	0.15188734
90	0xbd070fb5	-0.032973964
91	0x3e699fa8	0.2281481
92	0x3d787a33	0.060663413
93	0xbc51d2ce	-0.012806607
94	0xbe19532e	-0.14973137
95	0x3e9dd753	0.30828342
96	0x3db543eb	0.08850845
97	0x3e425639	0.18978204
98	0x3e21755b	0.15767424
99	0xbe0cf93f	-0.13766955
100	0xbd45009b	-0.04809628
101	0xbcad76c0	-0.021174788
102	0xbc9f2221	-0.019425454
103	0xbc33db2b	-0.010977547
104	0x3e8cbed6	0.27489346
105	0xbe990122	-0.29883677
106	0xbcd82dbf	-0.026389001
107	0xbde3be2e	-0.11120258
108	0xbe285651	-0.16439177
109	0x3e70c2b8	0.2351178
110	0xbd4905bd	-0.049077738
111	0xbd8b3708	-0.06797606
112	0x3d843430	0.064552665
113	0xbd0cfb2a	-0.034419216
114	0x3cf4d65a	0.029887367
115	0x3d818e44	0.06325963
116	0xbd545162	-0.051835425
117	0xbc7007ec	-0.014650326
118	0x3debfdff	0.11523055
119	0x3e935df0	0.28782606

module.fc2.weight f4 [84, 120]
0	0xbe36dea4	-0.17858368
1	0xbcb87b1e	-0.022519644
2	0xbd363868	-0.044487387
3	0x3ce2d1a1	0.02768785
4	0xbe443406	-0.1916047
5	0x3d95619b	0.072940074
6	0x3ca2f38c	0.019891523
7	0x3e166f84	0.14690977
8	0x3e3ed5ae	0.186362
9	0xbddd7c57	-0.108147316
10	0x3c9761f8	0.018479332
11	0x3d9a445f	0.07532572
12	0x3cdf9902	0.02729464
13	0x3c8f0f31	0.017463299
14	0xbd8de89d	-0.06929133
15	0xbe13a5c6	-0.14418706
16	0x3e088b40	0.1333437
17	0x3ce13a34	0.027493574
18	0xbaf70988	-0.0018847445
19	0x3d85f48f	0.065407865
20	0xbd6854bb	-0.05672143
21	0x3d312dc4	0.043256536
22	0x3d86a63e	0.06574677
23	0x3ac76494	0.001521247
24	0x3e096fa4	0.13421494
25	0xbd509186	-0.050920032
26	0x3e0d597c	0.13803667
27	0xbe1b8359	-0.15186824
28	0xbd3db42a	-0.046314396
29	0xbcb8738d	-0.022516036
30	0xbc54bffa	-0.012985224
31	0x3c8d75ce	0.017268088
32	0xbe0c61ff	-0.13709258
33	0xbd63b1a9	-0.05558935
34	0xbd03f25e	-0.03221356
35	0xbddf5c2c	-0.10906252
36	0x3dda79d9	0.10667772
37	0x3d94b200	0.07260513
38	0xbdac11a9	-0.08401806
39	0xbdf8624d	-0.121281244
40	0x3c42c2bd	0.01188725
41	0x3dd3fa6b	0.10350498
42	0xba52890c	-0.0008031286
43	0x3c3e0852	0.011598663
44	0xbda05848	-0.07829338
45	0xbddbe31a	-0.107366756
46	0xbddf15a3	-0.10892799
47	0x3e016367	0.12635575
48	0x3d0cc454	0.03436692
49	0xbd577ffd	-0.052612294
50	0x3a95339a	0.0011383176
51	0xbd6a65bf	-0.05722594
52	0xbe4015aa	-0.18758264
53	0xbe07c130	-0.13257289
54	0x3dd9323f	0.10605287
55	0x3d788062	0.06066931
56	0x3e160dfb	0.1465377
57	0xbd217de2	-0.03942669
58	0xbb07f414	-0.0020744847
59	0xbe0229bd	-0.12711234
60	0xbd5bb10f	-0.053635653
61	0x3d6331fc	0.05546759
62	0xbe05c3ce	-0.13062975
63	0xbda3d09c	-0.079987735
64	0x3d159b6b	0.03652517
65	0x3d7a047f	0.061039444
66	0x3d991301	0.07474328
67	0x3cec17c9	0.028819935
68	0xbdf95623	-0.121746324
69	0x3db79eac	0.08965811
70	0xbde598f2	-0.11210813
71	0xbde1e4a9	-0.110299416
72	0x3dbffbc2	0.09374191
73	0x3d29b018	0.0414277
74	0x3dac5708	0.084150374
75	0x3e35dd47	0.17760192
76	0xbe073baa	-0.13206354
77	0xbd43aea4	-0.047773972
78	0xbddf7bef	-0.1091231
79	0xbd5b3208	-0.05351451
80	0xbd85bfb6	-0.065307066
81	0xbe332ed5	-0.17498334
82	0xbd49f8c1	-0.049309496
83	0xbd150d7a	-0.036389805
84	0xbcb0f58b	-0.021601459
85	0xbd9cbdd2	-0.07653393
86	0x3e0f3b29	0.13987412
87	0xbba6fa7a	-0.005095777
88	0x3d9731a5	0.07382516
89	0xbdc160f6	-0.09442322
90	0xbe01b812	-0.12667874
91	0xbb2c7878	-0.0026316922
92	0xbdeb2354	-0.11481348
93	0x3c8bf366	0.017083835
94	0x3ce813d7	0.028329773
95	0xbd237b32	-0.03991241
96	0xbd6c0cb1	-0.05762929
97	0x3d141f38	0.036162585
98	0xbd8f36ef	-0.069928996
99	0x3c79076a	0.015199522
100	0xbd4a3596	-0.04936751
101	0x3bd635fd	0.0065371976
102	0xbd9ac1f2	-0.075565234
103	0x3c57b75d	0.013166276
104	0xbe38b4ae	-0.18037674
105	0xbd1a06b6	-0.037604056
106	0xbd7984cd	-0.060917664
107	0x3dc81622	0.097698465
108	0x3daef086	0.0854197
109	0xbce46015	-0.027877847
110	0xbdae7030	-0.08517492
111	0x3bca3f1a	0.006172073
112	0x3ca126c8	0.019671813
113	0xbdbcb933	-0.092150114
114	0x3cbadadd	0.02280944
115	0x3d6dd85d	0.05806767
116	0xbd7ada6f	-0.06124347
117	0x3daad8ed	0.083421566
118	0xbd0b58f6	-0.034020387
119	0xbc09807b	-0.008392449
120	0x3d9a0c77	0.07521909
121	0x3e18e546	0.14931211
122	0x3d6d4c19	0.0579339
123	0xbe6b6259	-0.22986735
124	0x3dabdee0	0.083921194
125	0xbdded378	-0.10880178
126	0x3e1af652	0.15133026
127	0xbdef7150	-0.116915345
128	0x3d322b1a	0.043498136
129	0xbc148f7f	-0.009067415
130	0xbdda082b	-0.10646089
131	0x3e610b82	0.21977046
132	0xbd9953f8	-0.07486719
133	0x3d663b22	0.056208737
134	0x3d1775b3	0.03697748
135	0x3d81d91d	0.06340239
136	0x3cbb68b4	0.022877075
137	0xbd4bafed	-0.049728323
138	0xbd031409	-0.03200153
139	0x3c926fdd	0.017875606
140	0xbdf3c6c8	-0.11903149
141	0xbe2e725a	-0.17035809
142	0xbdcb9543	-0.09940579
143	0xb9d8a71e	-0.00041323242
144	0x3cd05a11	0.025433572
145	0xbdca6934	-0.09883347
146	0x3e0cb322	0.13740209
147	0xbd04e6e2	-0.03244675
148	0x3e3a552c	0.18196553
149	0x3c613acb	0.0137469275
150	0xbdffbb91	-0.12486947
151	0xbde24239	-0.11047787
152	0xbe74f76f	-0.23922513
153	0x3de8e4be	0.11371754
154	0x3cb5b977	0.022183163
155	0xbbf2f151	-0.007414021
156	0x3e00895e	0.12552401
157	0xbe2491a8	-0.16071188
158	0xbd4a3476	-0.049366437
159	0xbe52e454	-0.20594913
160	0xbc8d084c	-0.01721587
161	0x3e4067f1	0.1878965
162	0xbe281981	-0.16415979
163	0x3e0a801e	0.13525435
164	0x3c393269	0.011303523
165	0x3e044510	0.1291697
166	0x3da8ea6b	0.08247837
167	0x3d1b2fc1	0.03788734
168	0x3cac36f3	0.021022296
169	0x3bf2c8e0	0.0074092
170	0x3e004fd8	0.12530458
171	0xbe05a38f	-0.13050674
172	0xbcdb4ff2	-0.02677152
173	0x3cb7a392	0.022416864
174	0xbdbe526f	-0.09293067
175	0x3d8ef6a2	0.06980635
176	0xbdafd202	-0.08584978
177	0xbe8afa4f	-0.27144095
178	0xbdce0c10	-0.100608945
179	0xbd5f6e93	-0.05454881
180	0x3d1cbc29	0.03826538
181	0xbde3957a	-0.11112495
182	0xbe1a07b2	-0.15041998
183	0x3d50af6f	0.050948557
184	0xbdb9fee5	-0.090818204
185	0x3d906ec0	0.07052374
186	0x3e707ad8	0.23484361
187	0xbd4b1f3c	-0.049590334
188	0xbd72fa02	-0.059320457
189	0x3e692ff5	0.227722
190	0x3de7a9a6	0.11311655
191	0x3d979093	0.07400622
192	0xbd7219b1	-0.059106532
193	0xbdc97b59	-0.0983798
194	0x3cb505c7	0.022097481
195	0x3d4bdf79	0.049773667
196	0xbe1371b0	-0.14398837
197	0x3ca39363	0.01996774
198	0xbe8b1b35	-0.27169195
199	0x3cc6934d	0.02424016
200	0xbd4c645b	-0.049900394
201	0xbd9394b3	-0.072060965
202	0xbe2fa9c2	-0.17154601
203	0xbd8954fb	-0.06705662
204	0x3c9e7d76	0.019346934
205	0x3d01de6c	0.03170626
206	0xbd039ba0	-0.032130837
207	0xbcb27bfa	-0.021787632
208	0xbd63097f	-0.055428978
209	0x3e2996fb	0.165615
210	0xbcf12faa	-0.029441673
211	0xbe291296	-0.16510996
212	0x3dd92b39	0.10603947
213	0xbb7c47a9	-0.0038494861
214	0xbd8a0e80	-0.06741047
215	0xbdf77e2d	-0.12084613
216	0xbe066423	-0.13124137
217	0x3c7b6d8f	0.015345945
218	0xbe5ecf49	-0.2175876
219	0x3dfb8ca7	0.12282687
220	0x3d4c1fcf	0.049835023
221	0xbe157185	-0.14594086
222	0xbd107d10	-0.03527552
223	0xbe10f2ce	-0.14155123
224	0xbdfe67f9	-0.12422175
225	0x3bf2842a	0.007401009
226	0xbd6c26e5	-0.05765428
227	0xbd3bdf4a	-0.045867242
228	0x3cde941c	0.027170233
229	0xbdf7d47d	-0.12101076
230	0xbd87bfea	-0.066284016
231	0x3cf5e8c0	0.03001821
232	0x3dd936b2	0.106061354
233	0x3dbdd80a	0.09269722
234	0xbcf8c25d	-0.030366117
235	0xbbc0516b	-0.005869081
236	0xbd8a0de4	-0.06740931
237	0x3d113bb2	0.03545732
238	0x3ccc5e7e	0.024947401
239	0xbe1db424	-0.1540075
240	0xbd07bf00	-0.033141136
241	0x3db610ec	0.08889946
242	0xbe3351be	-0.17511651
243	0xbc6e927b	-0.014561291
244	0xbd95f708	-0.07322508
245	0xbdc1febc	-0.09472415
246	0x3cc958f6	0.024578553
247	0x3d75021d	0.05981647
248	0xbe0738a3	-0.13205199
249	0x3d8cd47e	0.06876467
250	0xbd469db7	-0.048490252
251	0x3d5e0cd5	0.054211456
252	0x3d23c842	0.039985903
253	0xbc957e86	-0.018248808
254	0xbc8e71f7	-0.017388327
255	0x3d783e1f	0.06060612

module.fc2.bias f4 [84]
0	0xbd8a2acc	-0.06746444
1	0x3bc3dd20	0.005977288
2	0x3f340c2f	0.7033109
3	0x3d353cc8	0.04424742
4	0xbcaafcb5	-0.020872453
5	0x3f0744eb	0.52839535
6	0x3dfe3d6c	0.12414059
7	0x3dc2f0d4	0.095185906
8	0x3d0a713a	0.033799388
9	0x3eac1784	0.3361169
10	0x3f5296a9	0.8226114
11	0x3da65a88	0.08122736
12	0xbde2000e	-0.11035167
13	0x3e012575	0.12611945
14	0xbc264573	-0.010148394
15	0x3da12f33	0.07870331
16	0x3dba7e9a	0.091061786
17	0x3f31efd7	0.6950659
18	0x3e9a8429	0.30178955
19	0x3d8eefc7	0.06979328
20	0xbc63b814	-0.013898868
21	0x3dd57c6e	0.10424124
22	0x3f03cd16	0.5148481
23	0x3e646808	0.2230531
24	0x3e78a988	0.24283421
25	0x3dd7d72c	0.10539088
26	0x3e8a8883	0.27057275
27	0x3eaab639	0.3334215
28	0x3cd5e7f3	0.026111579
29	0x3e5cab15	0.21549638
30	0xbbf753f0	-0.007547848
31	0x3af492da	0.0018659488
32	0xbd7fa7ad	-0.062415767
33	0xbe787e93	-0.24267034
34	0xbed9dd8e	-0.42551845
35	0xbde80391	-0.11328805
36	0x3ea8f6c4	0.33000767
37	0x3e8e4d41	0.27793315
38	0x3d40f897	0.047112074
39	0xbdb6f92b	-0.08934244
40	0x3df6fe34	0.12060204
41	0x3dcac21e	0.09900306
42	0x3f1188b7	0.56849235
43	0xbd3f8783	-0.046760093
44	0x3e268f9f	0.16265725
45	0x3e93a87d	0.28839484
46	0xbd71ae3e	-0.05900406
47	0x3d40cbba	0.04706929
48	0xbd22d373	-0.039752435
49	0xbba45c61	-0.0050158952
50	0x3f009109	0.50221306
51	0x3d7f13cb	0.062274735
52	0x3e9dd162	0.3082381
53	0x3e806d95	0.25083604
54	0x3e0e3b84	0.13889891
55	0xbda9649c	-0.08271143
56	0x3f25e885	0.6480792
57	0x3e1a7c0b	0.15086381
58	0x3e9ac29d	0.30226603
59	0xbc83179f	-0.016002474
60	0xbdb9bebd	-0.090695836
61	0xbdd3e397	-0.10346144
62	0x3df4cf54	0.11953607
63	0xbd2f5ee9	-0.042815123
64	0x3d8c2c7b	0.068444215
65	0x3db76a70	0.08955848
66	0xbd9880bb	-0.074464284
67	0x3e4a0a7d	0.19730563
68	0x3d3f59a9	0.046716366
69	0x3e675111	0.22589518
70	0x3d7795f4	0.06044574
71	0x3e0e3a20	0.1388936
72	0x3d00afcc	0.031417653
73	0x3e9031a2	0.28162867
74	0xbd960966	-0.07326011
75	0xbd92d0aa	-0.07168706
76	0x3e3ce653	0.18447237
77	0x3ea7e12f	0.3278899
78	0x3d6dfe7d	0.058104027
79	0x3e17eb7b	0.14835922
80	0x3e4a7acc	0.19773406
81	0x3d608832	0.054817386
82	0x3f0ea95c	0.5572717
83	0xbca557d1	-0.020183476

module.fc3.weight f4 [10, 84]
0	0xbbf33e59	-0.007423204
1	0x3e01552d	0.12630148
2	0xbe95fbca	-0.29293662
3	0x3d36bea7	0.044615414
4	0xbdb1ee19	-0.08687992
5	0x3c69d114	0.0142710395
6	0xbe63e6a8	-0.22255957
7	0xbe064b7d	-0.13114734
8	0x3d3d121d	0.046159852
9	0x3d907614	0.070537716
10	0xbe8c8ced	-0.27451268
11	0xbc4443f9	-0.011979097
12	0xbe8ec35a	-0.27883416
13	0x3e1d7f53	0.15380602
14	0x3e5725f0	0.21010566
15	0xbe37d245	-0.17951305
16	0x3e1f04e0	0.15529203
17	0x3d96ba73	0.07359781
18	0xbea0c595	-0.31400743
19	0x3e077824	0.13229424
20	0x3d934aa8	0.07191974
21	0x3e642902	0.22281268
22	0x3d68ee7b	0.056868058
23	0x3e616a66	0.22013244
24	0x3de67a53	0.112538
25	0x3e0333d2	0.12812737
26	0x3c8a9979	0.016918885
27	0x3dda86ae	0.10670219
28	0x3d5c4ebe	0.053786032
29	0x3e6e7ac3	0.23289017
30	0x3dde1c00	0.10845184
31	0xbe1af56c	-0.15132684
32	0x3e5c3073	0.21502857
33	0x3e8a75fd	0.27043143
34	0x3d94797f	0.07249736
35	0xbcca81c0	-0.024720073
36	0x3e38a4ca	0.18031612
37	0x3e29984a	0.16562
38	0xbd7079ae	-0.058709793
39	0xbc9c0251	-0.019044073
40	0xbbae41a9	-0.005317886
41	0x3e611554	0.21980792
42	0x3cde5ac2	0.027142886
43	0xbd83d3fd	-0.06436918
44	0xbe020c95	-0.12700112
45	0xbe0dfed3	-0.13866739
46	0xbe047f94	-0.12939292
47	0x3d10c474	0.035343602
48	0x3d8386d6	0.06422202
49	0xbe2cfbde	-0.16892955
50	0xbe00db8a	-0.12583748
51	0x3dc9769a	0.098370746
52	0x3e871c40	0.2638874
53	0xbd123f80	-0.03570509
54	0xbe199725	-0.14999063
55	0xbbab45f5	-0.0052268454
56	0xbec1c62d	-0.3784651
57	0x3e5ceaf4	0.21574003
58	0xbeb074a1	-0.3446398
59	0x3e18db00	0.14927292
60	0xbcada41e	-0.021196421
61	0x3bcb44d0	0.0062032714
62	0xbdd23861	-0.1026466
63	0x3dd6eeee	0.10494791
64	0xbe52095a	-0.2051138
65	0xbd321f7d	-0.04348706
66	0xbe1ae3fe	-0.15126035
67	0xbe25596f	-0.16147397
68	0x3d6133b4	0.05498095
69	0xbc792540	-0.015206635
70	0xbc49db35	-0.012320329
71	0x3e08be52	0.13353851
72	0xbdcede96	-0.10101049
73	0xbdc7478e	-0.09730445
74	0x3e5b6407	0.21424876
75	0x3e2bffca	0.16796795
76	0xbdcb3bd6	-0.09923522
77	0xbea69ee9	-0.32543114
78	0x3ceb00b2	0.028686855
79	0x3e46ba6d	0.19407053
80	0xbe250bdf	-0.1611781
81	0xbcb7ec95	-0.022451678
82	0x3ea0635d	0.31325808
83	0xbc8661d0	-0.016404063
84	0x3e53acbb	0.2067136
85	0x3e1ae648	0.15126908
86	0xbecff28f	-0.40614745
87	0x3ba5c87d	0.0050593005
88	0xbc698c4b	-0.01425464
89	0x3d24ad57	0.040204372
90	0x3e53282d	0.20620795
91	0xbd35bd7e	-0.044370167
92	0x3e1d38bc	0.15353674
93	0x3e46d011	0.19415309
94	0xbdd0a788	-0.10188204
95	0x3e6d372d	0.23165579
96	0x3e2ee5ad	0.17079802
97	0x3debfe59	0.11523122
98	0x3e3abdaf	0.18236421
99	0xbdb9e9c0	-0.090777874
100	0xbe8f9f8a	-0.28051406
101	0xbe49b890	-0.19699311
102	0xbdfcbfda	-0.1234128
103	0x3eefd77d	0.46844092
104	0x3e57a8c8	0.21060479
105	0x3e4a6d8d	0.19768353
106	0xbea14f3b	-0.3150576
107	0xbe2ef1f3	-0.17084484
108	0xbe5d0c43	-0.21586709
109	0x3e1be7ad	0.15225096
110	0xbe6e4b61	-0.23270942
111	0xbe857e44	-0.26072896
112	0x3d9bf1b0	0.076144576
113	0xbd097748	-0.03356102
114	0x3d09abd2	0.033611126
115	0x3c0fefdd	0.008785215
116	0xbe054a11	-0.13016535
117	0x3e16dc38	0.14732444
118	0x3e909dc3	0.28245363
119	0x3e2ae777	0.1668986
120	0xbe0c8648	-0.13723099
121	0xbd0ccbd7	-0.034374084
122	0x3d122150	0.0356763
123	0x3cc0582a	0.02347954
124	0x3a7b1404	0.00095778727
125	0xbe2d2bc7	-0.16911231
126	0xbda36e24	-0.07979992
127	0x3e53ae00	0.20671844
128	0xbd06ede8	-0.03294173
129	0x3dc782af	0.09741723
130	0xbe294ce2	-0.16533235
131	0x3e44033e	0.19141862
132	0xbd45862d	-0.048223663
133	0xbaabf4dd	-0.001311924
134	0xbe17b96f	-0.14816831
135	0x3dab059c	0.08350679
136	0xb86cf333	-5.649328e-05
137	0xbdf305c5	-0.11866335
138	0xbc4ccefc	-0.012500521
139	0xbdd59fba	-0.10430856
140	0xbdfd7d83	-0.12377455
141	0xbe402157	-0.18762718
142	0xbb295375	-0.0025837098
143	0xbe03bab5	-0.12864192
144	0x3dbf22d5	0.093328156
145	0x3d9d97de	0.07694982
146	0x3db60002	0.0888672
147	0x3e43206b	0.19055335
148	0x3ea241d0	0.31690836
149	0xbd5bd5c1	-0.05367065
150	0x3e27814d	0.16357918
151	0x3d3d2f0c	0.046187446
152	0xbe2df506	-0.16988
153	0xbd20582d	-0.03914659
154	0x3df4d5ac	0.11954817
155	0x3aefd8ed	0.0018298902
156	0x3d87a627	0.06623488
157	0xbe510374	-0.20411474
158	0x3d73c2b9	0.059511874
159	0xbe1dc3f3	-0.1540678
160	0xbd819805	-0.063278235
161	0xbd71d370	-0.059039533
162	0xbd64164b	-0.055685323
163	0xbe963aff	-0.29341885
164	0xbe251c75	-0.16124137
165	0x3de5020e	0.111820325
166	0xbc43d340	-0.011952221
167	0x3d7b1140	0.061295748
168	0x3db89013	0.09011855
169	0x3c726cbf	0.014796435
170	0x3e4f5a32	0.2024925
171	0xbe3a1f8c	-0.18176097
172	0xbd9d68f2	-0.07686032
173	0xbe03bc53	-0.12864809
174	0xbdab6512	-0.08368887
175	0x3d9908f6	0.07472412
176	0xbdcc9d1d	-0.099909045
177	0xbe108088	-0.14111531
178	0x3eaa81d2	0.3330217
179	0xbd362703	-0.0444708
180	0x3d18191a	0.037133314
181	0xbe02214b	-0.12708013
182	0x3d71407c	0.058899388
183	0xbe1ed6a3	-0.15511565
184	0x3e3ff98e	0.18747541
185	0x3e6c7c39	0.23094262
186	0x3e4a993a	0.19785014
187	0xbe0f1b13	-0.13975172
188	0xbdc0ae81	-0.09408284
189	0xbe6c41d9	-0.23071994
190	0x3e3689d7	0.17826019
191	0x3e22ca36	0.1589745
192	0x3de8dd60	0.11370349
193	0xbdd6f47f	-0.10495853
194	0x3e51e868	0.20498812
195	0xbdb325b3	-0.08747425
196	0xbd27ed3d	-0.040997732
197	0xbdbc5bcc	-0.09197196
198	0x3c671b70	0.014105663
199	0xbd44ca4b	-0.048044484
200	0x3b4c3187	0.003115745
201	0xbdc153c0	-0.09439802
202	0xbb2e3d45	-0.0026586812
203	0xbd2660b1	-0.040619556
204	0x3cd9f2d0	0.02660504
205	0x3e0faa9b	0.14029925
206	0xbdf06f2f	-0.117399566
207	0xbc7719df	-0.015081852
208	0xbdabbc24	-0.08385494
209	0xbd6e56df	-0.058188315
210	0x3e2bafeb	0.16766326
211	0xbde30c06	-0.11086278
212	0x3e8439f6	0.2582547
213	0xbe232ea1	-0.15935756
214	0x3d48a07a	0.048981167
215	0xbd3a4ba9	-0.04548231
216	0xbc14d4d7	-0.009083948
217	0xbd3ea311	-0.04654223
218	0x3da2c79d	0.079482295
219	0x3e044ace	0.1291916
220	0x3e2b02d5	0.16700299
221	0xbb2c91cb	-0.0026332017
222	0x3e01ff2d	0.12694998
223	0x3b0c720a	0.0021430277
224	0x3d2eb7a1	0.04265559
225	0x3e6a2d4b	0.2286884
226	0x3c638a9d	0.013888028
227	0x3c22ed1b	0.009944226
228	0xbd90a982	-0.07063581
229	0x3e85d0f5	0.26135984
230	0x3dfee342	0.1244569
231	0x3b51823e	0.00319685
232	0x3dab8395	0.08374707
233	0x3d3615c4	0.04445435
234	0xbd35c382	-0.044375904
235	0xbe5392be	-0.20661446
236	0xbe2831e6	-0.16425285
237	0xbbc8dd55	-0.0061299005
238	0xbd18fc93	-0.03735025
239	0x3e8ec67f	0.27885816
240	0xbe02a7ad	-0.12759276
241	0x3d86f20a	0.06589134
242	0x3c949e65	0.018141935
243	0xbd4a8a76	-0.049448453
244	0x3ea1e180	0.31617355
245	0xbd807048	-0.06271416
246	0xbd3e0750	-0.046393692
247	0x3e395fa8	0.18102896
248	0x3db5eb69	0.088827915
249	0x3e0ac827	0.13552915
250	0x39ef63b9	0.00045659931
251	0x3e5b606e	0.21423504
252	0xbe246476	-0.16053948
253	0x3da24080	0.07922459
254	0x3e42ad6a	0.19011465
255	0x3da3c5b0	0.0799669

module.fc3.bias f4 [10]
0	0xbe7142b6	-0.23560604
1	0xbf66e98f	-0.9020013
2	0xbcf490c6	-0.02985419
3	0x3ee92548	0.45536256
4	0x3f37c39d	0.7178286
5	0xbdefe5da	-0.117137626
6	0x3cef52cc	0.029214285
7	0xbebc8a5d	-0.36824313
8	0x3ef789b1	0.48347238
9	0xbec9c446	-0.39407557
