models/classifier_net_epoch_7_12000.pth (torch_old, 249853 bytes, 10 tensors)

module.conv1.weight f4 [6, 3, 5, 5]
0.05240902 0.40049228 0.5017665 0.5736496 0.31674483 0.06844327 -0.3000231 0.17588024
0.986163 0.087795176 0.24952306 -0.32564336 -1.1503092 0.86422676 0.32108837 0.07369475
0.16196677 -0.92304844 0.09247437 -0.07248882 -0.18957447 0.034279514 -0.6051199 0.19175132
-0.30579048 -0.09938144 -0.4038559 -0.65127575 -0.2269806 -0.4258189 0.44151706 -0.6793376
-0.72769684 0.45341596 -0.26680812 0.7992422 -0.31954017 -1.4573892 0.726012 0.19844113
0.57347244 0.42911822 -1.0850055 0.28022885 -0.118799224 0.46852264 0.18915473 -0.32183477
0.6035023 -0.047753204 -0.09314877 -0.025576802 -0.038327225 0.17439185 -0.2200953 0.34837162
-0.44513 -0.28782955 0.70676357 -0.56031746 0.70556796 -0.2548609 -1.0779047 0.7032645
-0.14297955 0.56249285 0.57870585 -0.79036427 0.18690121 -0.2958769 0.31186664 0.36746877
-0.2448437 0.32832885 -0.3946934 -0.16394411 0.2925205 0.24604066 0.23289713 0.06437743
-0.08954004 0.5622483 0.16976556 -0.14885 -0.12872083 0.24265076 -0.06274719 -0.6585207
-0.558078 -0.25102392 -0.14263287 -0.7855015 -0.66288936 -0.09051324 0.11945621 -0.078896515
0.0714638 0.33342433 0.5744688 0.22148345 -0.4208888 -0.01896543 -0.091618456 -0.1038513
-0.2519814 0.0073171523 0.45967892 -0.03871639 -0.25630432 -0.34220117 0.4497952 0.059816424
-0.5555002 -0.5717602 -0.2063933 0.0086278785 -0.57762957 -0.530942 -0.066891626 0.097441345
0.0025362158 -0.13451299 0.2421981 0.40577945 0.09109017 -0.2513718 0.07452672 0.04107195
0.25480473 0.028985303 0.103392415 0.5891326 0.47690052 0.083909266 -0.07608522 0.5413518
0.3434721 -0.24841665 -0.41871583 -0.12621129 0.2282775 -0.5426131 -0.45667276 -0.1351547
0.13554357 0.07502648 -0.0996107 0.35952574 0.21640196 -0.13904254 0.010530106 -0.08096597
-0.18476333 -0.029522298 -0.015096977 0.18206201 0.34808677 0.16671821 0.19296092 0.13800281
-0.14375316 -0.112984665 -0.07640504 -0.12426808 -0.0058002262 -0.42790073 -0.4378678 -0.5216243
-0.54895145 -0.4056274 -0.14439158 -0.30902195 -0.30839896 -0.36237544 -0.24168763 -0.3625038
-0.32006314 -0.20733885 -0.2320041 -0.27088806 0.30756643 0.42885253 0.52359146 0.3431931
0.2857399 -0.013804836 0.0017040876 0.07591247 0.085878 0.1384571 -0.32795563 -0.43211493
-0.3268625 -0.2550003 -0.1983001 -0.051847532 -0.1536174 -0.07994495 0.0028171754 0.013730698
-0.29906198 -0.019889934 -0.096073225 -0.22018841 -0.3394893 0.39394715 0.4186548 0.640077
0.5555262 0.3138049 0.16854902 0.3054063 0.2702058 0.3749987 0.24046259 0.04719619
0.18475486 0.086549364 0.159146 0.17951937 0.067283295 0.13315086 0.18085901 0.28938586
0.18500882 0.14816813 0.31533855 -0.19010533 0.027483715 -0.19981073 0.33231282 -0.22413275
-0.49866322 0.23832683 0.0321598 0.4165404 -0.39926773 -0.45104218 0.5769122 -0.040536303
-0.060160764 -0.59278154 -0.09561508 0.47036812 0.056912247 -0.06594886 -0.25129274 0.20534389
0.3888174 -0.09031582 0.14414339 0.14155097 -0.26053834 0.14581673 0.0743437 0.21126817
00000000: d7aa 563d 530d cd3e c573 003f b3da 123f
00000010: 612c a23e fc2b 8c3d a19c 99be f319 343e
00000020: 2e75 7c3f f5cd b33d f982 7f3e baba a6be
00000030: 553d 93bf f73d 5d3f b265 a43e 46ed 963d
00000040: 9eda 253e e74c 6cbf 3463 bd3d 0575 94bd
00000050: cf1f 42be ad68 0c3d 23e9 1abf 755a 443e
00000060: 9290 9cbe 7f88 cbbd 33c6 cebe 02ba 26bf
00000070: 9a6d 68be ef04 dabe 860e e23e 12e9 2dbf
00000080: 574a 3abf 2326 e83e 139b 88be 239b 4c3f
00000090: c59a a3be bb8b babf ecdb 393f 2734 4b3e
000000a0: 17cf 123f 62b5 db3e 76e1 8abf 287a 8f3e
000000b0: 024d f3bd 33e2 ef3e c7b1 413e 87c7 a4be
000000c0: 207f 1a3f dd98 43bd c8c4 bebd 7186 d1bc
000000d0: 02fd 1cbd c793 323e aa60 61be c45d b23e
000000e0: 14e8 e3be 655e 93be 75ee 343f f770 0fbf
000000f0: 1aa0 343f 217d 82be c8f8 89bf 2409 343f
00000100: 3b69 12be 88ff 0f3f 1126 143f 5055 4abf
00000110: 0863 3f3e 2d7d 97be fcac 9f3e de24 bc3e
00000120: 4fb8 7abe b81a a83e 4115 cabe f7e0 27be
00000130: 3fc5 953e 15f2 7b3e 967c 6e3e 50d8 833d
00000140: c560 b7bd 81ef 0f3f 06d7 2d3e 226c 18be
00000150: 65cf 03be 7179 783e 9981 80bd d094 28bf
00000160: 33de 0ebf 3586 80be 5a0e 12be a016 49bf
00000170: 1eb3 29bf 015f b9bd 75a5 f43d 7f94 a1bd
00000180: 9d5b 923d 98b6 aa3e 6310 133f 8fcc 623e
00000190: bd7e d7be 645d 9bbc 75a2 bbbd feaf d4bd
000001a0: b503 81be b9c4 ef3b 095b eb3e 1495 1ebd
000001b0: 523a 83be fe34 afbe 8e4b e63e 1102 753d
000001c0: 4335 0ebf e05e 12bf c458 53be f25b 0d3c
000001d0: 88df 13bf d1eb 07bf 7afe 88bd 548f c73d
000001e0: a436 263b c6bd 09be c702 783e 53c2 cf3e
000001f0: 7c8d ba3d ceb3 80be 77a1 983d 103b 283d
00000200: c475 823e 9672 ed3c 67bf d33d 65d1 163f
00000210: 4e2c f43e 9fd8 ab3d 91d2 9bbd 0896 0a3f
00000220: 93db af3e ef60 7ebe ec61 d6be 883d 01be
00000230: 94c1 693e b1e8 0abf 03d1 e9be fe65 0abe
00000240: efcb 0a3e 7ca7 993d b200 ccbd c213 b83e
00000250: 7a98 5d3e 2b61 0ebe 7786 2c3c 7dd1 a5bd
00000260: 9932 3dbe bfd8 f1bc 5059 77bc 776e 3a3e
00000270: 6e38 b23e 2eb8 2a3e 8c97 453e 9c50 0d3e
00000280: 0734 13be 8164 e7bd 3f7a 9cbd 4380 febd
00000290: d30f bebb ce15 dbbe 3530 e0be 2c89 05bf
000002a0: 1588 0cbf 65ae cfbe 63db 13be 2038 9ebe
000002b0: 78e6 9dbe 4689 b9be f67c 77be 199a b9be
000002c0: 51df a3be a350 54be 7c92 6dbe d7b1 8abe
000002d0: 5979 9d3e 8f92 db3e 170a 063f 02b7 af3e
000002e0: 804c 923e ae2d 62bc b15b df3a ff77 9b3d
000002f0: cee0 af3d b3c7 0d3e cde9 a7be 2b3e ddbe
00000300: 865a a7be 668f 82be 2e0f 4bbe 145e 54bd
00000310: e14d 1dbe 2eba a3bd 5ca0 383b b9f6 603c
00000320: a71e 99be 37f0 a2bc 0ac2 c4bd 1279 61be
00000330: 8bd1 adbe 71b3 c93e ec59 d63e 16dc 233f
00000340: f736 0e3f 09ab a03e 1d98 2c3e 375e 9c3e
00000350: 6a58 8a3e d4ff bf3e d33b 763e cb50 413d
00000360: 6130 3d3e cb40 b13d 2bf7 223e edd3 373e
00000370: d3cb 893d b358 083e 1b33 393e 622a 943e
00000380: f472 3d3e 63b9 173e 0e74 a13e f9aa 42be
00000390: 8725 e13c 2f9b 4cbe e824 aa3e 0e83 65be
000003a0: c950 ffbe f30b 743e ffb9 033d c944 d53e
000003b0: d26c ccbe 00ef e6be 85b0 133f 6509 26bd
000003c0: 226b 76bd 88c0 17bf d7d1 c3bd 17d4 f03e
000003d0: d11c 693d 3210 87bd 71a9 80be ab45 523e
000003e0: 1313 c73e 80f7 b8bd 539a 133e bdf2 103e
000003f0: 4865 85be fb50 153e 8341 983d af56 583e

module.conv1.bias f4 [6]
-0.272591 -0.75898445 -0.080267064 -0.24959616 -0.035802804 -0.31059515
00000000: 0c91 8bbe ce4c 42bf 0f63 a4bd 2396 7fbe
00000010: f6a5 12bd 5406 9fbe

module.conv2.weight f4 [16, 6, 5, 5]
0.38052258 -0.08788218 0.53602844 -0.022555523 -0.15147676 0.23405409 -0.18038091 0.23507738
0.38950235 -0.008006844 0.2294204 -0.14520033 0.042792242 0.29462704 -0.09378572 -0.049368545
0.077976055 0.05398421 0.13337241 0.10479368 -0.10041128 -0.0744977 -0.15360455 -0.13560502
-0.041175365 -0.066560306 0.17657813 0.20385814 0.0023738309 -0.06386741 -0.25682044 -0.036386676
0.12533729 0.09079023 0.029756537 -0.39071816 -0.08103899 0.112716526 0.1391114 0.11296401
-0.3553826 -0.3318718 -0.11535192 0.08354351 0.08531783 -0.28079796 -0.13166451 -0.15761334
-0.05590789 0.0357328 -0.16083376 -0.19383721 -0.10056496 0.089206666 0.10174671 -0.25631315
-0.21618006 -0.1946305 -0.087229826 -0.08109636 -0.3753355 -0.29845276 -0.3112838 -0.24253026
-0.11444227 -0.18657115 -0.09060192 -0.02147702 -0.09952974 0.11675565 -0.11466708 -0.053178005
-0.009092355 0.054253716 -0.050332654 0.45234466 0.06392848 0.057694346 0.46517 -0.0046230713
-0.0016900669 -0.011765437 -0.14737983 0.14538896 0.21074645 -0.090389974 0.1359321 -0.20949078
-0.085172996 0.26677737 -0.25728106 0.078296244 -0.10274034 -0.06215077 0.015292059 -0.2412709
-0.0023552713 -0.13054128 -0.094209924 -0.27844742 -0.103212126 -0.06792923 -0.27281755 -0.028017793
0.049378704 -0.08251856 -0.041619573 -0.11786724 -0.11957056 -0.17425583 -0.054361172 -0.045819513
0.02569545 -0.009475054 -0.044163775 -0.05934755 -0.03694666 0.053689543 0.08503805 0.014163519
-0.109796084 -0.039377738 0.038533915 0.20559679 0.1151152 -0.21726912 -0.04838852 -0.2143478
-0.02583657 0.035097077 -0.110072024 -0.09754194 -0.13016456 -0.0293528 0.10964316 -0.001937665
-0.050593503 -0.22286849 -0.09894339 -0.09159665 -0.12294782 0.2443689 -0.1481642 -0.1931049
-0.29075578 0.020783294 0.104315884 0.048612263 -0.014080155 -0.14095983 -0.11422801 -0.05179398
0.12950797 -0.025563933 -0.0062925927 -0.13253368 -0.026077425 0.079783656 0.1081507 0.181147
0.36342743 -0.14491214 -0.1364668 0.096998855 -0.018188639 0.6515104 0.76402587 -0.065361395
-0.27688757 -0.28357908 -0.32847306 0.0071678595 0.45652783 0.266582 0.14162901 -0.11637953
-0.22502169 0.020119915 -0.03438409 0.0500702 -0.05826115 -0.13070285 -0.21385548 -0.07708648
0.24619259 0.08267583 -0.077077284 -0.46403572 -0.17915685 0.055516586 0.31201372 0.105929345
-0.010128906 -0.13963835 -0.04911924 -0.07510136 0.22484462 0.22547612 0.38697338 0.16425355
0.10199079 0.09233773 0.030072382 -0.049902212 0.06664104 0.025064353 0.13111258 0.14842811
0.038810097 -0.014276907 -0.06935149 0.18991014 0.081056 0.068696424 -0.15388419 -0.6470318
0.01817559 0.38862416 0.24608122 -0.37880155 -0.25303927 -0.40747064 -0.054187447 0.17540517
0.34881425 0.03326037 -0.21308382 0.008422329 0.029006084 0.22544311 0.104819134 -0.015341052
-0.046542365 0.07344531 -0.054917447 -0.15756287 0.119610466 -0.075512804 -0.06608766 -0.16838649
-0.3155288 -0.25964332 0.15507585 0.13143077 0.3189687 -0.35581976 -0.6351826 -0.43671688
-0.21558724 -0.11093878 -0.16174982 -0.10274546 -0.08388042 0.114080824 0.12751803 -0.23210213
00000000: dbd3 c23e 93fb b3bd 2939 093f 5cc6 b8bc
00000010: b91c 1bbe e0ab 6f3e c6b5 38be 20b8 703e
00000020: da6c c73e 232f 03bc 2eed 6a3e 65af 14be
00000030: eb46 2f3d 5bd9 963e ba12 c0bd ac36 4abd
00000040: e9b1 9f3d 8c1e 5d3d c792 083e 129e d63d
00000050: 6ea4 cdbd 4092 98bd 834a 1dbe 0bdc 0abe
00000060: 80a7 28bd c550 88bd e6d0 343e 30c0 503e
00000070: 4692 1b3b ebcc 82bd f87d 83be 320a 15bd
00000080: 6b58 003e 3af0 b93d fbc3 f33c 360c c8be
00000090: c5f7 a5bd ecd7 e63d 3873 0e3e ad59 e73d
000000a0: b5f4 b5be 1aeb a9be a13d ecbd dc18 ab3d
000000b0: 1dbb ae3d c0c4 8fbe 10d3 06be 6465 21be
000000c0: acff 64bd 8e5c 123d 9bb1 24be 437d 46be
000000d0: 00f5 cdbd fcb1 b63d 9460 d03d 7a3b 83be
000000e0: 4e5e 5dbe 384d 47be 8da5 b2bd d915 a6bd
000000f0: fa2b c0be cdce 98be 9760 9fbe da59 78be
00000100: b560 eabd 820c 3fbe 808d b9bd 93f0 afbc
00000110: 40d6 cbbd 961d ef3d 93d6 eabd 2ed1 59bd
00000120: 1af8 14bc 2539 5e3d 9d29 4ebd b899 e73e
00000130: efec 823d e850 6c3d c32a ee3e 227d 97bb
00000140: 3c85 ddba d2c3 40bc bdea 16be d8e0 143e
00000150: ebcd 573e 611e b9bd c931 0b3e c084 56be
00000160: 2e6f aebd 0b97 883e 58ba 83be c859 a03d
00000170: 8769 d2bd ce91 7ebd 8b8b 7a3c b80f 77be
00000180: e55a 1abb 9dac 05be 22f1 c0bd a990 8ebe
00000190: e160 d3bd 7b1e 8bbd beae 8bbe 9285 e5bc
000001a0: 5341 4a3d 7eff a8bd 4979 2abd 6164 f1bd
000001b0: 69e1 f4bd 1f70 32be d2a9 5ebd 3ead 3bbd
000001c0: 447f d23c 423d 1bbc 13e5 34bd 6b16 73bd
000001d0: 6255 17bd 91e9 5b3d 6e28 ae3d 1b0e 683c
000001e0: c5dc e0bd 8d4a 21bd bdd5 1d3d f787 523e
000001f0: 85c1 eb3d cc7b 5ebe 0a33 46bd fd7d 5bbe
00000200: 37a7 d3bc f4c1 0f3d 716d e1bd 12c4 c7bd
00000210: dc49 05be 4975 f0bc 988c e03d 40f9 fdba
00000220: 223b 4fbd a337 64be d5a2 cabd 0697 bbbd
00000230: 11cc fbbd d73b 7a3e 5bb8 17be 4abd 45be
00000240: f1dd 94be ba41 aa3c 91a3 d53d a71d 473d
00000250: 73b0 66bc c657 10be 60f0 e9bd ed25 54bd
00000260: bd9d 043e 746b d1bc 1832 cebb e9b6 07be
00000270: 53a0 d5bc 9d65 a33d 1d7e dd3d 997e 393e
00000280: 2913 ba3e d963 14be f4bd 0bbe 56a7 c63d
00000290: 5700 95bc 63c9 263f 3397 433f 32dc 85bd
000002a0: 35c4 8dbe 4731 91be 9f2d a8be 5de0 ea3b
000002b0: 04be e93e 707d 883e 3207 113e 6458 eebd
000002c0: 166c 66be 85d2 a43c 55d6 0cbd 6916 4d3d
000002d0: 3ea3 6ebd f8d6 05be eefc 5abe 84df 9dbd
000002e0: e919 7c3e f251 a93d b2da 9dbd 1796 edbe
000002f0: e574 37be 5c65 633d 43c0 9f3e 7cf1 d83d
00000300: b6f3 25bc 5bfd 0ebe 4231 49bd bece 99bd
00000310: ab3d 663e 36e3 663e 6021 c63e 1532 283e
00000320: 8ce0 d03d 901b bd3d 5b5a f63c 4366 4cbd
00000330: 197b 883d c253 cd3c 6042 063e 8afd 173e
00000340: 56f7 1e3d b0e9 69bc 2708 8ebd ce77 423e
00000350: b000 a63d b6b0 8c3d d193 1dbe e0a3 25bf
00000360: fae4 943c bff9 c63e b7fc 7b3e 47f2 c1be
00000370: 5d8e 81be fe9f d0be a8f3 5dbd 6a9d 333e
00000380: c897 b23e 073c 083d a532 5abe cffd 093c
00000390: 2b9e ed3c 8fda 663e 6aab d63d 0959 7bbc
000003a0: 35a3 3ebd 7f6a 963d 1ef1 60bd 2958 21be
000003b0: 55f6 f43d 75a6 9abd f858 87bd 826d 2cbe
000003c0: fe8c a1be f8ef 84be 34cc 1e3e ca95 063e
000003d0: de4f a33e 022e b6be 549b 22bf 5b99 dfbe
000003e0: e7c2 5cbe df33 e3bd bfa1 25be 366c d2bd
000003f0: 7fc9 abbd 35a3 e93d 1694 023e 2eac 6dbe

module.conv2.bias f4 [16]
0.23805855 -1.5556347 -1.0077134 -0.09725485 0.8997074 0.35628363 0.13190868 1.1411649
-0.1223936 -0.35424495 -0.9730842 1.5834061 0.35811082 -0.60000426 0.08056507 0.53214383
00000000: 9fc5 733e 0a1f c7bf c1fc 80bf 8d2d c7bd
00000010: 3953 663f cf6a b63e 1213 073e b111 923f
00000020: 7fa9 fabd 985f b5be 0c1c 79bf 0dad ca3f
00000030: 4d5a b73e e199 19bf 4dff a43d 943a 083f

module.fc1.weight f4 [120, 400]
-0.059137862 -0.04077979 -0.05588571 -0.009775647 -0.08447512 0.09258634 0.031970788 -0.0068746945
0.015198118 0.012671328 0.018741572 -0.02110993 -0.08459002 0.07817411 0.06408098 0.056613903
-0.061924167 -0.17760403 -0.021896591 0.008044226 0.025353618 0.0074981796 -0.07515196 -0.095675856
0.038650412 0.085895486 0.0003904319 0.0717997 0.12047011 0.13388413 0.05008802 0.07360863
0.06958754 0.051156312 0.13214925 0.26065257 -0.011636746 -0.0011996195 0.018461864 -0.019434562
-0.02565538 -0.03585819 -0.22796358 -0.023859892 0.028624378 -0.20903262 -0.028452037 0.012291516
-0.09171194 0.0010540945 0.20826653 0.069599286 0.010961422 -0.042733014 -0.16061011 -0.0051049995
-0.028734516 -0.014067457 -0.057866268 -0.104325265 -0.01572594 0.059370223 -0.078835085 -0.069053665
-0.082506046 0.13630818 0.021725979 -0.086288944 -0.059278112 -0.06419215 -0.19286014 -0.028398348
-0.122402236 -0.025083313 -0.027836002 -0.068921044 -0.2377311 -0.04771042 -0.04462449 0.037990212
-0.11927995 -0.16206309 -0.10128074 -0.040698692 0.09650496 -0.10568027 -0.087042026 0.03669387
0.0016364262 0.012087784 -0.104761325 -0.059513547 0.0060253916 -0.053254426 0.052032214 0.13846433
0.09314245 0.057178967 -0.018108942 0.051456667 0.12096227 0.073059805 0.09899627 0.06588597
-0.028756479 0.011429578 0.065857336 0.13168405 0.05654756 -0.069997355 0.07179534 0.06701752
0.13263722 0.17674954 -0.13314179 0.012711446 -0.049731884 -0.002099378 -0.061585966 -0.06303619
0.050373033 0.009942184 0.013788528 -0.12289567 -0.12709014 -0.026754037 -0.037893277 0.1231399
0.041510023 -0.12335429 -0.027875323 0.00913289 0.032908563 0.0067746234 -0.09167926 0.053757988
-0.0079900995 -0.110775016 -0.10261957 -0.13768223 -0.057055507 0.02224918 0.04274834 0.013038765
0.03374853 -0.04468021 0.0077541145 -0.02597604 -0.04021663 -0.011479618 0.010899022 -0.037318327
-0.08738986 -0.1099799 -0.03740799 0.082034804 -0.11596178 -0.056935247 -0.042227842 -0.01996913
0.04262125 0.0047917925 0.0037108706 -0.072226375 0.0035977452 -0.033066265 -0.050631594 -0.1017163
-0.021866493 -0.023058616 -0.070106864 -0.0066701574 -0.023031725 0.07196453 0.12729949 0.05250808
-0.00031411284 -0.0014668746 0.11181936 0.14693308 -0.009962801 0.08234985 0.16045472 0.029277846
0.016932819 -0.015647005 0.023002118 -0.0090821935 -0.008789418 0.030091142 -0.061803173 0.017505651
-0.048918698 -0.00972461 -0.023043426 0.033656463 0.004901034 -0.062759414 0.012398368 -0.10112478
-0.106773764 -0.02184967 -0.13076715 -0.22382034 -0.09893493 -0.08463127 -0.020702342 0.011530765
-0.09223905 0.029115595 0.031059511 0.071720235 0.072160825 0.026297756 0.09743016 -0.07967745
-0.13509965 -0.037067473 -0.046621725 0.009016156 -0.17352556 -0.080252826 -0.09063412 -0.062084034
-0.13234308 0.064420484 0.0744819 -0.053815383 -0.05576186 -0.14859667 0.07457354 0.03941175
-0.046176348 0.017001707 -0.11388858 0.13711557 0.013467105 -0.024556825 0.07320715 -0.078361645
0.21549736 0.1472396 0.05937684 0.038488194 0.02331512 0.13865402 -0.018867215 0.100180894
0.13151425 -0.009738314 -0.06192988 -0.103592075 -0.1114967 -0.14905944 -0.043704603 -0.06082065
00000000: 8b3a 72bd b608 27bd 6ae8 64bd 092a 20bc
00000010: 4b01 adbd e89d bd3d cdf3 023d 1e45 e1bb
00000020: 8701 793c 679b 4f3c ed87 993c bbee acbc
00000030: 883d adbd bf19 a03d e43c 833d fbe3 673d
00000040: 32a4 7dbd d5dd 35be 7b60 b3bc eecb 033c
00000050: 64b2 cf3c 4ab3 f53b 45e9 99bd b4f1 c3bd
00000060: e54f 1e3d f9e9 af3d e2b2 cc39 b90b 933d
00000070: 08b9 f63d ec18 093e 1829 4d3d 1fc0 963d
00000080: ea83 8e3d 4889 513d 2252 073e 4174 853e
00000090: 0da8 3ebc 8d3c 9dba 563d 973c 3b35 9fbc
000000a0: 3b2b d2bc 0ae0 12bd 496f 69be d275 c3bc
000000b0: ac7d ea3c a60c 56be 3f14 e9bc 5b62 493c
000000c0: 78d3 bbbd 8b29 8a3a d243 553e 128a 8e3d
000000d0: 8997 333c d008 2fbd fa76 24be d747 a7bb
000000e0: a664 ebbc 317b 66bc 2e05 6dbd 7ca8 d5bd
000000f0: b0d3 80bc 312e 733d 4a74 a1bd 026c 8dbd
00000100: eef8 a8bd 5f94 0b3e aefa b13c 42b8 b0bd
00000110: 9bcd 72bd 2d77 83bd 217d 45be a7a3 e8bc
00000120: 06ae fabd 857b cdbc 5408 e4bc 7a26 8dbd
00000130: c86f 73be 006c 43bd 2bc8 36bd a09b 1b3d
00000140: 0c49 f4bd def3 25be 476c cfbd acb3 26bd
00000150: 64a4 c53d e66e d8bd 1743 b2bd 504c 163d
00000160: 5a7d d63a d70b 463c 1b8d d6bd 7ac4 73bd
00000170: a670 c53b 5021 5abd bb1f 553d 98c9 0d3e
00000180: 78c1 be3d 7e34 6a3d 3459 94bc 3ac4 523d
00000190: 11bb f73d 61a0 953d 8ebe ca3d 39ef 863d
000001a0: b592 ebbc 2043 3b3c 36e0 863d 2fd8 063e
000001b0: 6a9e 673d c65a 8fbd 6f09 933d 7b40 893d
000001c0: 0dd2 073e d5fd 343e 5256 08be ab43 503c
000001d0: a9b3 4bbd b895 09bb 9141 7cbd 1e19 81bd
000001e0: f453 4e3d 8be4 223c 47e9 613c bab0 fbbd
000001f0: eb23 02be 482b dbbc fb35 1bbd c630 fc3d
00000200: 6a06 2a3d 2da1 fcbd ca5a e4bc 1ea2 153c
00000210: 21cb 063d a9fd dd3b 56c2 bbbd 5631 5c3d
00000220: e8e8 02bc 03de e2bd 362a d2bd 92fc 0cbe
00000230: 09b3 69bd ea43 b63c e218 2f3d 8ba0 553c
00000240: e63b 0a3d 9902 37bd 3a16 fe3b b4cb d4bc
00000250: 31ba 24bd 0215 3cbc d091 323c 1adb 18bd
00000260: 74f9 b2bd 243d e1bd 1f39 19bd dd01 a83d
00000270: 5f7d edbd ef34 69bd 1af7 2cbd 4d96 a3bc
00000280: 9f93 2e3d 7804 9d3b 1432 733b 6ceb 93bd
00000290: 26c8 6b3b 7e70 07bd 1363 4fbd a350 d0bd
000002a0: 5c21 b3bc 6ce5 bcbc 3094 8fbd 5691 dabb
000002b0: 07ad bcbc 2462 933d cc5a 023e b612 573d
000002c0: 83af a4b9 2544 c0ba 8c01 e53d a075 163e
000002d0: 043b 23bc 0aa7 a83d 3e4e 243e 18d8 ef3c
000002e0: b2b6 8a3c 262e 80bc f06e bc3c 7bcd 14bc
000002f0: 7e01 10bc b381 f63c 5325 7dbd 0368 8f3c
00000300: f95e 48bd f853 1fbc 91c5 bcbc 5cdb 093d
00000310: da98 a03b 0288 80bd 8622 4b3c 821a cfbd
00000320: 34ac dabd 14fe b2bc d3e7 05be 2931 65be
00000330: 669e cabd 2953 adbd f597 a9bc 89eb 3c3c
00000340: d4e7 bcbd d483 ee3c 8470 fe3c 0fe2 923d
00000350: 0ec9 933d 646e d73c 7789 c73d ee2d a3bd
00000360: 9057 0abe 10d4 17bd 6cf6 3ebd 80b8 133c
00000370: afb0 31be 985b a4bd 629e b9bd d44b 7ebd
00000380: f284 07be e3ee 833d f789 983d 856d 5cbd
00000390: 8c66 64bd ba29 18be 03ba 983d 376e 213d
000003a0: 6923 3dbd 2a47 8b3c 6a3e e9bd 0668 0c3e
000003b0: 22a5 5c3c 652b c9bc a1ed 953d 127c a0bd
000003c0: 57ab 5c3e fac5 163e 2135 733d cca5 1d3d
000003d0: 5aff be3c 52fb 0d3e 6b8f 9abc a42b cd3d
000003e0: acab 063e 738d 1fbc 30aa 7dbd 1528 d4bd
000003f0: 6258 e4bd 0aa3 18be 9903 33bd 131f 79bd

module.fc1.bias f4 [120]
0.18082006 -0.18609478 -0.1880107 -0.061629895 -0.23475058 -0.2206212 0.0390513 0.019305069
-0.061015055 0.0016158365 0.063550755 0.057583172 -0.17785694 -0.3946524 -0.004797754 0.28791413
0.009466645 0.13419332 0.2166451 0.06316264 0.09075412 0.011513935 -0.14384483 -0.011285248
-0.089090526 -0.09385475 -0.12210326 0.21901895 0.37069 -0.0019816323 0.029920092 -0.032531146
0.025642257 -0.13204977 0.053470273 0.27407846 0.16242431 0.14185387 0.0024292544 0.23128743
0.14280918 0.118485324 -0.21671121 0.15817246 0.22448458 0.46302712 -0.050366037 0.24816087
-0.0017381527 0.12212401 0.37687495 -0.08134942 0.08534337 0.045909174 0.18232585 0.01860887
-0.120994955 0.11163884 0.08915881 0.10199959 0.46202025 0.07402236 0.24917294 0.03409752
0.07440819 -0.042300224 -0.2967556 -0.3763094 0.030000957 0.0014961329 0.2095731 -0.1054245
-0.011405089 -0.007966843 -0.12597534 -0.108947165 0.115606755 0.094890654 0.051025245 -0.031091368
-0.15491034 0.1812727 0.09253975 0.14626892 0.08768982 0.44854468 0.20009102 -0.19293733
-0.3031426 0.15836297 -0.014789134 0.27480376 0.075034805 -0.029945698 -0.19949777 0.3658219
0.12175609 0.20000735 0.14477398 -0.1786984 -0.054038703 -0.021261899 -0.015214417 -0.012484356
0.3183889 -0.33908582 -0.03149495 -0.13244542 -0.21132965 0.25218365 -0.065279976 -0.08468068
0.0802317 -0.044743355 0.033591032 0.04629603 -0.04975607 -0.012519161 0.15305784 0.3244959
00000000: e528 393e a18f 3ebe e085 40be a16f 7cbd
00000010: 7562 70be 86ea 61be 42f4 1f3d aa25 9e3c
00000020: ecea 79bd 7aca d33a e626 823d 55dc 6b3d
00000030: 2120 36be e10f cabe 7a36 9dbb 7b69 933e
00000040: fd19 1b3c f969 093e 37d8 5d3e 6a5b 813d
00000050: 4cdd b93d f2a4 3c3c 0f4c 13be c3e5 38bc
00000060: 1875 b6bd eb36 c0bd 4611 fabd 8146 603e
00000070: 14cb bd3e 46de 01bb fb1a f53c 613f 05bd
00000080: b60f d23c 0e38 07be a503 5b3d 0354 8c3e
00000090: 8f52 263e 2442 113e 2034 1f3b 9dd6 6c3e
000000a0: 923c 123e 6fa8 f23d 8be9 5dbe f6f7 213e
000000b0: 49df 653e e411 ed3e 9e4c 4ebd e21d 7e3e
000000c0: bad2 e3ba 271c fa3d c1f5 c03e 869a a6bd
000000d0: 81c8 ae3d 420b 3c3d a1b3 3a3e a171 983c
000000e0: 34cc f7bd e7a2 e43d e598 b63d 29e5 d03d
000000f0: eb8d ec3e 0999 973d 3127 7f3e d7a9 0b3d
00000100: 5263 983d 0043 2dbd 5af0 97be a0ab c0be
00000110: 91c4 f53c e419 c43a 559a 563e cde8 d7bd
00000120: 69dc 3abc 5d87 02bc aeff 00be b11f dfbd
00000130: 3cc3 ec3d 0856 c23d d9ff 503d 53b3 febc
00000140: d1a0 1ebe 8d9f 393e 7b85 bd3d 85c7 153e
00000150: b896 b33d a6a7 e53e a9e4 4c3e 5d91 45be
00000160: 8235 9bbe e729 223e 204e 72bc 14b3 8c3e
00000170: d9ab 993d ae50 f5bc 2549 4cbe 024d bb3e
00000180: 425b f93d bace 4c3e a13f 143e b7fc 36be
00000190: b057 5dbd 6f2d aebc e445 79bc 2f8b 4cbc
000001a0: df03 a33e a89c adbe d900 01bd c69f 07be
000001b0: cd66 58be 371e 813e 82b1 85bd 106d adbd
000001c0: 8450 a43d cf44 37bd c096 093d e8a0 3d3d
000001d0: 05cd 4bbd 2b1d 4dbc 32bb 1c3e 5424 a63e

module.fc2.weight f4 [84, 120]
-0.16231729 -0.05451615 0.06276813 0.08305734 -0.13954405 0.094951905 -0.029627537 0.19688098
0.20195967 -0.13420154 0.06856482 0.04530005 0.053555373 0.030833324 -0.08034489 -0.12140752
0.14664604 0.05461451 0.011526313 0.10581972 -0.09613622 0.07694525 0.08401139 -0.00073167647
0.1897532 -0.07069466 0.118158855 -0.17074218 -0.08100371 -0.059740048 -0.034962457 0.0025925848
-0.11455595 -0.08827464 -0.131372 -0.09042296 0.11678983 0.02579624 -0.072314695 -0.1863322
-0.018190833 0.1742553 -0.003660251 -0.043907113 -0.046794 -0.16411418 -0.10798571 0.17565149
0.054299876 -0.06598345 -0.03685195 -0.045018267 -0.15423109 -0.17931919 0.12170011 0.050690833
0.20721912 -0.045221034 0.012829428 -0.18697412 -0.06535568 0.03447609 -0.13912073 -0.09887451
0.034571376 0.048839916 0.055131078 -0.0020402428 -0.123264216 0.038877457 -0.14812234 -0.14245972
0.09787793 -0.012369409 0.08218256 0.2095205 -0.13115299 0.023473006 -0.13562597 -0.07932355
-0.011417005 -0.15261057 -0.13232051 -0.06249345 -0.05284144 -0.10438145 0.1628072 -0.035952322
0.060682084 -0.047079943 -0.156513 -0.033704367 -0.11286917 0.03350255 0.016331593 0.028021915
-0.10694077 -0.010647498 -0.09247324 -0.078929156 -0.02579351 0.0052794986 -0.06900232 -0.058194607
-0.17529532 -0.059674658 -0.08757729 0.11666245 0.09060427 -0.07603741 -0.12982865 0.0038379645
0.06024272 -0.13990703 0.06333263 0.06213138 -0.0929975 0.07798861 -0.03710913 -0.00027517267
0.018254941 0.11404924 0.11025385 -0.22625782 0.08984651 -0.08896194 0.15299 -0.13278472
0.014951365 -0.037044857 -0.18903401 0.21918903 -0.10357404 0.042262964 0.05879296 0.09288508
-0.034315333 -0.019563429 0.0014821757 0.00865356 -0.07353492 -0.18843405 -0.16852845 -0.002033038
0.05438063 -0.18119423 0.101647995 -0.06546103 0.17606121 -0.015902884 -0.18516865 -0.10647622
-0.23557676 0.10749172 0.025866432 0.029083539 0.07247053 -0.21722095 0.027588952 -0.18821055
-0.014401068 0.19750258 -0.1274483 0.10315665 -0.031500757 0.15067118 0.19196129 0.0066240244
-0.012244796 0.0504052 0.089023545 -0.20357788 -0.07678079 -0.02745034 -0.0674018 0.06412404
-0.10563635 -0.30279812 -0.101999216 -0.08515271 -0.032580335 -0.06850228 -0.1427369 0.1074217
-0.10040901 0.09282335 0.16677865 0.0092505645 -0.07373215 0.3020333 0.11380978 0.06749976
-0.1031931 -0.17512324 -0.032812037 0.04221875 -0.20903635 0.05734041 -0.27814245 0.0023463264
-0.059259824 -0.09883439 -0.20707364 0.0025511142 -0.039409168 0.0074785133 -0.020042583 -0.07345103
-0.111348554 0.20464541 -0.042039383 -0.16589573 0.100927114 0.07992109 -0.080897234 -0.13539703
-0.094933584 0.019262888 -0.20872934 0.106653035 0.022879088 -0.17756419 -0.046450216 -0.17268361
-0.10803167 -0.013448521 -0.06839091 -0.047033384 0.042486615 -0.14798726 0.010190774 0.027967172
0.16976762 0.14662243 0.04165929 0.04316349 -0.0810562 0.02958857 0.020881483 -0.16407834
-0.05807584 0.090483196 -0.18387678 -0.09653544 -0.10002659 -0.1443541 -0.0035139036 0.15150234
-0.14592262 0.085951276 -0.015882771 0.056963906 0.022437004 -0.056616858 0.026056195 0.08456919
00000000: 8136 26be 544c 5fbd 948c 803d f719 aa3d
00000010: a3e4 0ebe 2576 c23d 73b5 f2bc 2b9b 493e
00000020: 84ce 4e3e 216c 09be b66b 8c3d 8c8c 393d
00000030: e15c 5b3d 2b96 fc3c dd8b a4bd 81a4 f8bd
00000040: 612a 163e 77b3 5f3d dcd8 3c3c 02b8 d83d
00000050: 11e3 c4bd 7995 9d3d 2a0e ac3d facd 3fba
00000060: aa4e 423e 5dc8 90bd 45fd f13d 0ad7 2ebe
00000070: 46e5 a5bd fbb1 74bd cb34 0fbd 5be8 293b
00000080: 4f9c eabd 56c9 b4bd 6286 06be ac2f b9bd
00000090: 822f ef3d a352 d33c ba19 94bd decd 3ebe
000000a0: f104 95bc fb6f 323e d2e0 6fbb f2d7 33bd
000000b0: 11ab 3fbd 8c0d 28be 9d27 ddbd fcdd 333e
000000c0: 8c69 5e3d 5522 87bd 12f2 16bd 1365 38bd
000000d0: c1ee 1dbe 739f 37be e83d f93d 31a1 4f3d
000000e0: 4031 543e b139 39bd 8532 523c 2576 3fbe
000000f0: 33d9 85bd cd36 0d3d aa75 0ebe b87e cabd
00000100: b79a 0d3d 5d0c 483d 20d1 613d 98b5 05bb
00000110: f371 fcbd f83d 1f3d 62ad 17be f6e0 11be
00000120: 3974 c83d 10a9 4abc 544f a83d 8b8c 563e
00000130: f84c 06be 764a c03c 89e1 0abe 6374 a2bd
00000140: 640e 3bbc f245 1cbe 077f 07be 22f9 7fbd
00000150: 4470 58bd f1c5 d5bd eeb6 263e be42 13bd
00000160: c78d 783d e6d6 40bd f244 20be 970d 0abd
00000170: f427 e7bd f839 093d d5c9 853c 378e e53c
00000180: c303 dbbd d872 2ebc 9c62 bdbd 9ca5 a1bd
00000190: e94c d3bc a5ff ac3b 1751 8dbd 785d 6ebd
000001a0: 9e80 33be 6a6d 74bd b95b b3bd b9ec ee3d
000001b0: bb8e b93d 80b9 9bbd cdf1 04be 5c86 7b3b
000001c0: 12c1 763d ca43 0fbe 8ab4 813d 797d 7e3d
000001d0: 7975 bebd 7eb8 9f3d beff 17bd 0d45 90b9
000001e0: 638b 953c a692 e93d c5cc e13d 21b0 67be
000001f0: 7201 b83d ad31 b6bd 69a9 1c3e b8f8 07be
00000200: 92f6 743c 59bc 17bd 2292 41be 1773 603e
00000210: a01e d4bd ee1b 2d3d e3d0 703d 883a be3d
00000220: 3c8e 0cbd 7c43 a0bc 9045 c23a a9c7 0d3c
00000230: 7a99 96bd dbf4 40be b992 2cbe b83c 05bb
00000240: 39be 5e3d fb8a 39be d32c d03d 6f10 86bd
00000250: 6449 343e c446 82bc da9c 3dbe 3410 dabd
00000260: 093b 71be 9e24 dc3d d7e5 d33c 9a40 ee3c
00000270: 6e6b 943d 2b6f 5ebe 3a02 e23c 44ba 40be
00000280: 75f2 6bbc 1e3e 4a3e cf81 02be cb43 d33d
00000290: f006 01bd 8c49 1a3e 8091 443e 580e d93b
000002a0: 669e 48bc af75 4e3d fa51 b63d b876 50be
000002b0: 3f3f 9dbd 89df e0bc f409 8abd 7753 833d
000002c0: df57 d8bd 5b08 9bbe f7e4 d0bd 8b64 aebd
000002d0: f572 05bd ec4a 8cbd 9f29 12be e9ff db3d
000002e0: 3da3 cdbd 2b1a be3d 06c8 2a3e ae8f 173c
000002f0: e200 97bd 1ca4 9a3e 1a15 e93d 503d 8a3d
00000300: e756 d3bd 8253 33be ea65 06bd 91ed 2c3d
00000310: a00d 56be c7dd 6a3d b068 8ebe d3c4 193b
00000320: 6eba 72bd af69 cabd 1d0b 54be 9830 273b
00000330: 826b 21bd 510e f53b 5830 a4bc 7e6d 96bd
00000340: b60a e4bd 918e 513e 7d31 2cbd 92e0 29be
00000350: e0b2 ce3d abad a33d 73ad a5bd 85a5 0abe
00000360: 8a6c c2bd 34cd 9d3c 25bd 55be e86c da3d
00000370: ed6c bb3c 63d3 35be 9542 3ebd f9d3 30be
00000380: b53f ddbd 2f57 5cbc 8910 8cbd 14a6 40bd
00000390: 7206 2e3d f989 17be 34f7 263c 691b e53c
000003a0: 90d7 2d3e 3124 163e efa2 2a3d 33cc 303d
000003b0: cb00 a6bd bb63 f23c a50f ab3c 2704 28be
000003c0: efe0 6dbd 414f b93d 324a 3cbe 5fb4 c5bd
000003d0: beda ccbd 90d1 13be 8549 66bb 6e23 1b3e
000003e0: bd6c 15be 3907 b03d 961c 82bc fc52 693d
000003f0: cfcd b73c 14e7 67bd cd73 d53c 9d32 ad3d

module.fc2.bias f4 [84]
-0.0605384 0.020958187 0.80182356 0.094612844 -0.027172845 0.5697964 0.16037583 0.14940876
0.02397008 0.40101695 0.9501327 0.12453154 -0.115574524 0.19085269 -0.030333932 0.1457597
0.09398104 0.81300414 0.33916676 0.06354427 -0.033690996 0.13423197 0.61903644 0.27981442
0.2859736 0.1396234 0.26615864 0.3921304 0.021332871 0.24442339 -0.0054213493 0.006990799
-0.063798614 -0.2471887 -0.4619784 -0.14073592 0.40508178 0.30280867 0.063051075 -0.10707432
0.15536997 0.12682375 0.67100126 -0.03573864 0.14415333 0.34265047 -0.03757227 0.07562545
-0.0136602735 0.04612338 0.6219105 0.06268985 0.34462208 0.28174946 0.17252477 -0.08622021
0.7871441 0.17146638 0.3829643 0.008332915 -0.051180948 -0.058659002 0.11489704 -0.02948116
0.10189517 0.098484844 -0.079069406 0.26078978 0.077898204 0.28731123 0.08620423 0.18838823
0.060994588 0.33716786 -0.11367531 -0.09530418 0.21705714 0.39069757 0.06936234 0.1622184
0.23841093 0.09167175 0.5800656 -0.023355631
00000000: 1df7 77bd 81b0 ab3c 4f44 4d3f 61c4 c13d
00000010: 9699 debc 2dde 113f 9039 243e 9cfe 183e
00000020: e75c c43c 1852 cd3e e63b 733f 640a ff3d
00000030: 56b2 ecbd e36e 433e de7e f8bc 0842 153e
00000040: 2279 c03d 0a21 503f 44a7 ad3e 8023 823d
00000050: 92ff 09bd 1b74 093e 2c79 1e3f d643 8f3e
00000060: 226b 923e 70f9 0e3e f245 883e 51c5 c83e
00000070: 46c2 ae3c 204a 7a3e 93a5 b1bb 1313 e53b
00000080: d9a8 82bd 091f 7dbe 6f88 ecbe 141d 10be
00000090: e166 cf3e bd09 9b3e ec20 813d c849 dbbd
000000a0: 4e19 1f3e 16de 013e bdc6 2b3f ae62 12bd
000000b0: ee9c 133e e26f af3e 61e5 19bd 84e1 9a3d
000000c0: 57cf 5fbc dfeb 3c3d 8735 1f3f 8963 803d
000000d0: 4e72 b03e 7741 903e 55aa 303e 3994 b0bd
000000e0: 4782 493f e294 2f3e e613 c43e c786 083c
000000f0: 1da3 51bd 6c44 70bd 244f eb3d 7982 f1bc
00000100: 6aae d03d 6cb2 c93d 24ef a1bd 3d86 853e
00000110: 1889 9f3d 751a 933e d88b b03d d8e8 403e
00000120: 76d5 793d 44a1 ac3e 9ace e8bd d72e c3bd
00000130: 3a44 5e3e 8309 c83e d80d 8e3d 951c 263e
00000140: ff21 743e 66be bb3d 2e7f 143f 4f54 bfbc

module.fc3.weight f4 [10, 84]
-0.00078246836 0.15454735 -0.20584486 0.025799885 -0.011438297 -0.034691434 -0.24478057 -0.09038875
0.121694684 0.0808125 -0.2615367 0.05391971 -0.2814199 0.20305167 0.23175035 -0.1971318
0.1681825 0.12521555 -0.3142079 0.24173391 0.03657095 0.19840924 0.069148146 0.20079851
0.19135699 0.10919131 0.029441958 0.15507902 0.08246452 0.27833077 0.14049856 -0.15330516
0.19849205 0.30878842 0.08209801 -0.017887723 0.096073836 0.18886763 -0.03524117 -0.057718523
-0.034726873 0.22881292 0.011866589 -0.10693755 -0.13444673 -0.18882701 -0.15987474 0.03437032
0.063253134 -0.19127183 -0.082954094 0.12573008 0.26036954 -0.034115463 -0.17970999 0.03268743
-0.39844173 0.21425015 -0.4248433 0.13798709 -0.0308292 -0.013187469 -0.07247687 0.17455915
-0.19585392 -0.06609716 -0.15141867 -0.16569567 0.09531337 -0.00655508 -0.034141343 0.12978967
-0.11865365 -0.08984358 0.18701856 0.14280543 -0.11750899 -0.31576058 0.041495707 0.2042762
-0.13846277 0.026026271 0.25542465 -0.009295419 0.28844944 0.12203378 -0.42277014 -0.013074335
-0.029630287 0.052056625 0.20621042 -0.06409583 0.18671969 0.19153677 -0.12294222 0.17438266
0.18811147 0.10282536 0.21044819 -0.016866617 -0.29309547 -0.20491976 -0.15067182 0.38412234
0.1974879 0.26793364 -0.30141148 -0.1790024 -0.21574163 0.1700206 -0.18988661 -0.24728695
0.12619042 -0.023766445 0.030682713 0.024289552 -0.11140861 0.15515211 0.2855498 0.19961014
-0.13410224 -0.07218673 0.044011995 0.04910088 0.0006039924 -0.14916071 -0.08789508 0.21191926
0.04879566 0.11666184 -0.15749535 0.23265815 -0.062014043 0.025016082 -0.12955667 0.097569786
0.015451668 -0.11521007 -0.009523342 -0.06262665 -0.09135927 -0.17431217 -0.04803312 -0.09118158
0.112925984 0.051547464 0.14408909 0.23635657 0.26928255 -0.05051196 0.20004109 0.023955053
-0.13064276 -0.044293847 0.19314596 0.028682424 0.07315742 -0.21406356 0.011962304 -0.13739529
-0.04054711 -0.037436105 -0.035566755 -0.31351826 -0.1067432 0.0944989 -0.042126145 0.05890171
0.03639737 0.04914788 0.21405067 -0.15637754 -0.08872632 -0.16479059 -0.060062505 0.09203621
-0.14896855 -0.13489743 0.30463552 -0.021145768 0.044901256 -0.18325008 0.010668311 -0.15687542
0.19028848 0.21581072 0.17988467 -0.16007431 -0.11216379 -0.2754493 0.16096853 0.17865445
0.09997188 -0.099126965 0.15714544 -0.07585553 -0.049859777 -0.06287018 0.025934072 -0.04756764
0.060251296 -0.053901784 0.081483305 -0.04929654 0.03555352 0.056321345 -0.11909397 -0.031509515
-0.08658511 -0.02543143 0.17131889 -0.101925336 0.23595111 -0.0847839 0.07454196 0.0147258425
0.032170337 -0.050967112 0.085769795 0.13823153 0.09006397 -0.002851911 0.15729798 0.0035468708
-0.018782005 0.23076998 0.01829798 0.024313757 -0.08264685 0.254323 0.13249817 -0.03545968
0.09942463 0.07747207 -0.05478746 -0.17730647 -0.178277 0.033892673 -0.045087498 0.2499543
-0.09811955 0.107557215 0.050151702 0.019791799 0.35210764 -0.014217482 -0.05522159 0.2438945
0.13914311 0.08553524 0.046811804 0.25633234 -0.100007415 0.027005946 0.138574 0.045724507
00000000: 901e 4dba a941 1e3e ffc8 52be 485a d33c
00000010: b267 3bbc 9b18 0ebd c2a7 7abe bd1d b9bd
00000020: 103b f93d 0681 a53d 23e8 85be eada 5c3d
00000030: 4516 90be c7ec 4f3e f74f 6d3e ebdc 49be
00000040: 0938 2c3e 8138 003e dcdf a0be 1889 773e
00000050: 6ccb 153d cb2b 4b3e 8b9d 8d3d 209e 4d3e
00000060: 16f3 433e b29f df3d 4330 f13c 09cd 1e3e
00000070: 29e3 a83d 5f81 8e3e dbde 0f3e 07fc 1cbe
00000080: 8041 4b3e 8419 9e3e 0023 a83d 4689 92bc
00000090: 5cc2 c43d 8466 413e 0c59 10bd 426a 6cbd
000000a0: c43d 0ebd ef4d 6a3e 156c 423c 1302 dbbd
000000b0: 67ac 09be de5b 41be 34b6 23be e5c7 0c3d
000000c0: dc8a 813d c3dc 43be d6e3 a9bd 63bf 003e
000000d0: 284f 853e a8bc 0bbd e505 38be 41e3 053d
000000e0: 8e00 ccbe 6464 5b3e 1085 d9be 7d4c 0d3e
000000f0: 858d fcbc 4110 58bc c16e 94bd a2bf 323e
00000100: ee8d 48be f35d 87bd 7f0d 1bbe 20ac 29be
00000110: a833 c33d ffcb d6bb cbd7 0bbd 95e7 043e
00000120: af00 f3bd e9ff b7bd cb81 3f3e 963b 123e
00000130: 8ea8 f0bd 5fab a1be 67f7 293d c82d 513e
00000140: 2fc9 0dbe 0c35 d53c 05c7 823e d04b 18bc
00000150: a5af 933e d9ec f93d 5475 d8be bc35 56bc
00000160: 37bb f2bc 5439 553d d328 533e ad44 83bd
00000170: 7233 3f3e 3722 443e 21c9 fbbd 5e91 323e
00000180: 4ba0 403e 1a96 d23d bb7f 573e dc2b 8abc
00000190: 9c10 96be 7cd6 51be b749 1abe afab c43e
000001a0: 453a 4a3e 992e 893e 9b52 9abe 684c 37be
000001b0: 60eb 5cbe e119 2e3e a371 42be ca38 7dbe
000001c0: 1038 013e d9b1 c2bc 505a fb3c e2fa c63c
000001d0: 332a e4bd 32e0 1e3e 9533 923e 9a66 4c3e
000001e0: 1952 09be a3d6 93bd ec45 343d 011e 493d
000001f0: 3e55 1e3a 96bd 18be 5602 b4bd 5d01 593e
00000200: f5dd 473d 67ec ee3d 7646 21be f03d 6e3e
00000210: 7002 7ebd 87ee cc3c 81aa 04be abd2 c73d
00000220: fe28 7d3c 42f3 ebbd cb07 1cbc 6742 80bd
00000230: 921a bbbd e47e 32be 60be 44bd 69bd babd
00000240: bd45 e73d 6f23 533d 178c 133e 7507 723e
00000250: 67df 893e a1e5 4ebd 92d7 4c3e 633d c43c
00000260: 37c7 05be 776d 35bd 0ec8 453e 67f7 ea3c
00000270: 8fd3 953d 7a33 5bbe 8afd 433c 5ab1 0cbe
00000280: ba14 26bd 9a56 19bd 72ae 11bd 7785 a0be
00000290: 2e9c dabd a488 c13d 778c 2cbd eb42 713d
000002a0: 6915 153d 4a4f 493d 1930 5b3e 6f21 20be
000002b0: 25b6 b5bd ddbe 28be 1a04 76bd 7b7d bc3d
000002c0: 368b 18be 8d22 0abe 30f9 9b3e e439 adbc
000002d0: 61ea 373d e9a5 3bbe 24ca 2e3c f3a3 20be
000002e0: fcda 423e 7cfd 5c3e b033 383e 85ea 23be
000002f0: 21b6 e5bd b107 8dbe efd4 243e 31f1 363e
00000300: 0fbe cc3d 1403 cbbd bcea 203e 255a 9bbd
00000310: c439 4cbd 15c2 80bd b173 d43c 49d6 42bd
00000320: 10ca 763d 1ec8 5cbd b8e0 a63d 2beb 49bd
00000330: 91a0 113d 36b1 663d 8ae7 f3bd 1f10 01bd
00000340: 8953 b1bd 9355 d0bc 386e 2f3e 3bbe d0bd
00000350: 2b9d 713e 2ea3 adbd 75a9 983d a944 713c
00000360: 0bc5 033d e4c2 50bd 13a8 af3d 918c 0d3e
00000370: 7573 b83d 20e7 3abb b912 213e 9e72 683b
00000380: b8dc 99bc f74e 6c3e a5e5 953c a52d c73c
00000390: c042 a9bd a036 823e 9aad 073e 2b3e 11bd
000003a0: 249f cb3d ada9 9e3d d168 60bd d48f 35be
000003b0: 3f8e 36be 0bd3 0a3d abad 38bd 05f4 7f3e
000003c0: e7f2 c8bd f546 dc3d df6b 4d3d 6922 a23c
000003d0: 7447 b43e 71f0 68bc 0930 62bd 7bbf 793e
000003e0: 887b 0e3e 1a2d af3d bcbd 3f3d fe3d 833e
000003f0: b0d0 ccbd 933b dd3c 58e6 0d3e 9f49 3b3d

module.fc3.bias f4 [10]
-0.24506307 -1.0319539 -0.035262443 0.56349015 0.71460027 -0.116391286 0.03593587 -0.3331062
0.43652427 -0.34981036
00000000: d0f1 7abe 1117 84bf 5a6f 10bd e440 103f
00000010: 0bf0 363f 8e5e eebd 7e31 133d e58c aabe
00000020: 1c80 df3e 581a b3be
