models/classifier_net_epoch_9_8000.pth (torch_old, 249853 bytes, 10 tensors)

module.conv1.weight f4 [6, 3, 5, 5]
000000 eb dc be 3d 38 36 e8 3e a7 81 03 3f 16 91 02 3f
       0.093194805 0.45353866 0.5136971 0.51002634
000010 01 e5 96 3e e4 78 24 3d 1a 2c ce be f7 2a 69 3e
       0.2947159 0.040154353 -0.40268022 0.22770296
000020 6d 99 81 3f dd fa 03 3d e7 fd a1 3e 44 ec b9 be
       1.0124947 0.032221664 0.31639025 -0.3631307
000030 ef 96 9b bf d7 12 72 3f 96 0d bf 3e a8 fb c8 3d
       -1.2155436 0.9456 0.37315053 0.098136246
000040 d6 95 81 3e 1a 62 82 bf fb bf 99 3d 5b 8b 05 bb
       0.25309628 -1.0186188 0.075073205 -0.0020377252
000050 20 8d 27 be 5f 35 fe 3d 57 f7 2c bf bb b0 13 3e
       -0.16362429 0.124125235 -0.6756491 0.14422886
000060 1a 26 97 be 15 e6 02 be 15 78 e3 be 22 46 32 bf
       -0.29521257 -0.12783082 -0.44427553 -0.69638264
000070 aa bc 7d be 70 64 dc be 9d 4d e0 3e 23 cf 4c bf
       -0.24779001 -0.43045378 0.43809214 -0.80003566
000080 ae 8c 34 bf 7f 54 01 3f a2 f7 ac be 77 c0 67 3f
       -0.7052716 0.50519556 -0.3378268 0.90528053
000090 81 83 ba be 7a 5f c9 bf 10 f0 49 3f 4d db 4f 3e
       -0.36428455 -1.5732262 0.7888193 0.202985
0000a0 57 5c 19 3f 93 26 fa 3e a6 be 9a bf f6 b5 79 3e
       0.59906524 0.48857555 -1.2089431 0.24385819
0000b0 83 6d bc bd bc c7 f3 3e d6 cd 84 3e 65 51 bf be
       -0.09200575 0.47613323 0.2593829 -0.37366787
0000c0 ee 5b 15 3f 73 51 3c bd ca 88 ef bd 7e cf c4 bc
       0.583434 -0.045976114 -0.11696012 -0.024024721
0000d0 96 cb 4f ba 37 31 5d 3e 58 66 4e be fb cc ae 3e
       -0.000792676 0.21600805 -0.20156229 0.34140763
0000e0 28 4e 05 bf e2 13 3f be 89 fa 49 3f 6e fc 22 bf
       -0.5207238 -0.18659928 0.7889791 -0.6366643
0000f0 64 7a 4a 3f 07 f3 84 be f0 9f 8e bf e9 a7 4b 3f
       0.79093003 -0.25966665 -1.1142559 0.79553086
000100 ea 3b 11 be 4d 5e 10 3f bb 3e 2f 3f 96 a0 57 bf
       -0.14183012 0.5639389 0.68455094 -0.8422941
000110 20 45 1a 3e c6 bb 99 be b2 10 8a 3e 67 87 f1 3e
       0.15065432 -0.30026072 0.26965863 0.47173616
000120 11 3a 61 be 00 b7 9d 3e 9c 1e ed be 8f ba 17 be
       -0.21994807 0.3080368 -0.46312416 -0.1481726
000130 2a d0 99 3e 29 8e 8b 3e 71 29 89 3e 26 3a 2a 3e
       0.3004163 0.27256897 0.2678943 0.16623744
000140 53 bb d4 bd b9 ba 15 3f e3 9f 39 3e 91 d7 49 be
       -0.10387292 0.5848804 0.18127398 -0.19711138
000150 3b 83 fe bd 40 b3 81 3e 5f aa 47 bd 06 f3 34 bf
       -0.12427374 0.2533207 -0.048746463 -0.70683324
000160 cc a1 22 bf 4b f8 84 be e3 15 0f be 85 f7 57 bf
       -0.6352813 -0.25970683 -0.13973193 -0.8436206
000170 36 b6 2d bf 70 79 23 bd b4 8a 3c 3e a9 66 83 bd
       -0.67856157 -0.039910734 0.18412286 -0.06416065
000180 f7 36 dd 3d bd eb d8 3e 99 11 26 3f e8 1d 7c 3e
       0.10801499 0.42367354 0.648706 0.24620783
000190 11 02 e8 be 13 9d ce bd 81 1e 2c be 67 16 0f be
       -0.45314077 -0.10088553 -0.16808511 -0.1397339
0001a0 dd d6 81 be 93 4f cb bb d2 a4 ea 3e 80 55 8a bd
       -0.2535924 -0.0062045543 0.45828873 -0.06754589
0001b0 04 67 a1 be 3e 81 be be a7 cb eb 3e 16 47 71 3d
       -0.31523907 -0.3720798 0.46053812 0.058905683
0001c0 37 b1 1c bf 23 0f 1e bf 11 0f 52 be ac 34 a2 bc
       -0.6120791 -0.61741847 -0.2051356 -0.019800507
0001d0 d4 c5 27 bf 2b 16 0f bf 31 95 6b bb 5d 88 29 3e
       -0.65536237 -0.558932 -0.003594708 0.16555925
0001e0 be e4 40 bd e9 3c 26 be c1 d5 75 3e 0a 9e d3 3e
       -0.047093146 -0.16234173 0.24007322 0.41331512
0001f0 3d 3a 87 3d b4 d9 95 be 8f 4c 9f 3c ab d7 54 3c
       0.06602905 -0.29267657 0.019445686 0.012990872
000200 bf a3 8f 3e 47 f3 a0 3d 8d 68 cf 3d 42 53 23 3f
       0.28054616 0.078589015 0.10127363 0.63798916
000210 14 0c 06 3f 39 a8 ac 3d 2c 91 96 bd e5 20 11 3f
       0.5236218 0.084305234 -0.07351908 0.5669082
000220 94 a7 c1 3e 6a bd 82 be 9f be e3 be 56 f5 f9 bd
       0.37823164 -0.25535136 -0.4448137 -0.12204997
000230 8e dc 5f 3e e7 84 1b bf a0 3c f2 be 13 c3 cd bd
       0.21861479 -0.6074967 -0.47311878 -0.10046973
000240 37 93 3d 3e 65 8b 1a 3d 85 3d 06 be fe 0c ac 3e
       0.1851319 0.037730593 -0.13109405 0.33603662
000250 26 5a 27 3e d9 a8 59 be af 78 be 3c 30 ec 79 bd
       0.16342983 -0.21255817 0.023250906 -0.06101626
000260 b3 94 32 be e3 01 a9 bb 6e 64 ec b9 cb 06 43 3e
       -0.17439537 -0.0051576956 -0.00045088254 0.1904556
000270 cb a7 b6 3e 02 a4 21 3e 05 bf 4d 3e 66 73 f1 3d
       0.3567489 0.1578522 0.200924 0.11789589
000280 52 fe 28 be 00 48 eb bd 02 cb bb bd 6a 1e ee bd
       -0.16503266 -0.11488342 -0.0916958 -0.11626895
000290 86 a8 3c 3d 43 fc d5 be 28 3c dd be 56 fe 0a bf
       0.046059154 -0.41794023 -0.43209958 -0.54294336
0002a0 74 d0 10 bf 66 b1 b9 be 80 2f e0 bd 6a 41 9d be
       -0.56568074 -0.36268157 -0.1094656 -0.3071397
0002b0 eb b6 93 be 32 44 c2 be 6a a5 84 be ea 40 d2 be
       -0.28850493 -0.37942654 -0.2590745 -0.4106515
0002c0 a4 18 aa be 2d 54 79 be 26 61 90 be 24 44 ab be
       -0.33221924 -0.24348517 -0.28199118 -0.33450425
0002d0 3c f2 9a 3e 6d 76 e9 3e 9f e9 04 3f 65 55 a2 3e
       0.30262935 0.45598164 0.5191898 0.31705776
0002e0 28 bb 56 3e e8 fb ae bc 14 6b 14 3d 42 2f cf 3d
       0.20969832 -0.021360353 0.03623493 0.101164356
0002f0 a2 7f b8 3d 20 a4 0f 3e 48 e1 9a be 3d f7 d2 be
       0.09008719 0.14027452 -0.3025 -0.41204253
000300 6e bc a1 be 7c 00 86 be f9 82 50 be b4 08 0d bd
       -0.31589073 -0.26172245 -0.20362462 -0.034432128
000310 cf ab 2a be 1f 80 48 bd 10 86 86 bb e8 8c 17 bd
       -0.16667102 -0.04895031 -0.004105337 -0.036999613
000320 e3 22 b3 be 21 41 42 bc 2e 36 e2 bd f9 93 85 be
       -0.34987554 -0.011856348 -0.1104549 -0.26089457
000330 21 13 cf be 13 7a c3 3e a1 62 f3 3e e5 cb 2e 3f
       -0.40444282 0.38179073 0.47536185 0.6827987
000340 66 cc 15 3f 85 cc 87 3e 66 e6 29 3e 62 d0 c1 3e
       0.5851501 0.26523224 0.16591796 0.37854296
000350 ec fc b7 3e bb 5c ef 3e 29 05 a2 3e 5f 51 d3 3d
       0.35935152 0.46750435 0.31644562 0.10318255
000360 fb ca 8b 3e b3 35 46 3e f9 df 86 3e f2 23 8d 3e
       0.273033 0.19356422 0.26342753 0.27566487
000370 2e 77 84 3d 61 87 11 3e fd c3 81 3e 66 f5 af 3e
       0.06468044 0.14211799 0.2534484 0.34366912
000380 e3 06 3c 3e 0c b8 08 3e 14 18 bd 3e d5 1d 3d be
       0.18362002 0.13351458 0.36932433 -0.18468411
000390 01 8a 9e bb 5b 61 91 be f8 80 bf 3e 6f f6 59 be
       -0.0048382287 -0.2839459 0.37403083 -0.21285413
0003a0 93 02 0b bf 87 3d 7a 3e 3a ef a8 bc 0d a4 fd 3e
       -0.543008 0.24437533 -0.020621885 0.49539223
0003b0 23 f6 01 bf 42 c7 12 bf e9 20 1c 3f 70 b8 c2 bd
       -0.507662 -0.57335293 0.60987717 -0.09507835
0003c0 0a f7 04 3b 28 00 2f bf 5f 3e 06 be 8f 11 10 3f
       0.0020288848 -0.68359613 -0.1310973 0.5627679
0003d0 47 a8 47 3c 1c 75 2a bd 7f 26 6b be c5 c1 78 3e
       0.012186117 -0.04161559 -0.22963904 0.24292667
0003e0 aa e3 b6 3e 00 b1 12 be e6 eb 37 3e 2d 08 6a 3e
       0.3572057 -0.14325333 0.17961082 0.22854681
0003f0 51 8c 7c be 5f 4d 30 3e ab 91 b0 3d 9c 94 68 3e
       -0.24662901 0.17217015 0.08621534 0.2271294

module.conv1.bias f4 [6]
000000 0d dd ce be 87 ce 4d bf 60 7f 3c 3b 9e 0a 94 be
       -0.40403023 -0.8039326 0.0028762445 -0.2891435
000010 0a c7 d2 bd a8 14 9d be
       -0.1029187 -0.30679822

module.conv2.weight f4 [16, 6, 5, 5]
000000 c6 62 f3 3e b4 0f f3 bd 47 53 1b 3f 2a ea ec bd
       0.47536296 -0.118682295 0.60673946 -0.11568101
000010 35 62 28 be 11 03 2a 3e 88 b2 3d be c2 b8 8a 3e
       -0.16443713 0.16602732 -0.18525136 0.27094084
000020 87 67 ae 3e 00 66 11 bd 02 b3 81 3e c9 b8 f1 bd
       0.3406336 -0.035497665 0.25331885 -0.11802823
000030 3b 23 1d 3d d3 ab 9c 3e ce 57 14 be 46 f0 e8 bd
       0.038363677 0.3059984 -0.1448662 -0.113739535
000040 1d c2 07 3e e7 51 aa 3d 72 da 2a 3e ff 2b 21 3e
       0.13257642 0.08316403 0.16684893 0.1573944
000050 f4 25 0d be 8e ca 9d bd 7c ea 01 be c7 ca 00 be
       -0.13784009 -0.0770465 -0.12687105 -0.12577353
000060 51 37 e6 3c 74 85 92 bd fc 79 26 3e cc 32 68 3e
       0.028102549 -0.071543604 0.16257471 0.22675627
000070 61 b2 8c 3d 0b 7d 80 bd 65 9c 6f be 03 96 c4 bc
       0.068699606 -0.0627385 -0.23399504 -0.023997312
000080 b0 1c 77 3e 83 09 32 3e 1c 68 ac 3d ad 57 d5 be
       0.24132037 0.17386441 0.08418295 -0.41668454
000090 c7 b4 f4 bd ca 4f c2 3d c1 82 58 3e 9c 51 fe 3d
       -0.11948543 0.09487875 0.21143629 0.124179095
0000a0 2b 9e b6 be d7 32 a2 be 07 17 c2 bd 0d a9 07 3e
       -0.35667548 -0.31679413 -0.09477048 0.13248082
0000b0 f3 88 c2 3d d1 d8 93 be 24 8f d8 bd b0 da 45 be
       0.09498777 -0.28876355 -0.10574177 -0.19321704
0000c0 5e 57 64 bd a2 7c e3 3d 2c 95 1c be bc 73 38 be
       -0.055747382 0.11107756 -0.1529128 -0.18012899
0000d0 02 a8 a8 bd b0 00 b9 3d 0d fb f1 3d 84 8e 65 be
       -0.0823517 0.09033334 0.11815462 -0.22417647
0000e0 12 ca 3b be d4 22 30 be 09 82 a3 bd 3d 86 74 bd
       -0.18338802 -0.17200786 -0.079837866 -0.059698332
0000f0 3f 57 ce be 88 d0 ac be 8e 4d a8 be 0b 37 82 be
       -0.40300938 -0.33752847 -0.3287167 -0.2543262
000100 48 17 05 be 62 ee 60 be 01 11 1e be 12 f9 9f bd
       -0.12997162 -0.21965936 -0.15436174 -0.07811178
000110 3d 74 01 be 34 90 e7 3d 2c 8d da bd ae c6 ce bd
       -0.12641998 0.113068014 -0.10671458 -0.10096489
000120 ff 59 98 bd 86 d5 58 bb 63 8e b3 bd de d4 e5 3e
       -0.074390404 -0.0033086254 -0.087673925 0.44888967
000130 9d 1b 0a 3d fc 1d e2 3d 5c 07 e3 3e e6 a6 2f 3d
       0.03371774 0.11040875 0.44341552 0.042883776
000140 93 b3 68 bd 4e cd 2e bc 84 ec 16 be 54 6d 04 3e
       -0.05681188 -0.010669066 -0.14738661 0.1293233
000150 a1 b1 6d 3e 18 ec 27 be 9e 88 55 3e 19 02 92 be
       0.23212291 -0.16398656 0.20852897 -0.28517225
000160 10 8a ea bd b6 b3 96 3e 8a e0 96 be d2 6a 07 3e
       -0.114521146 0.29433984 -0.29468185 0.13224342
000170 a8 9f 11 be 40 f3 bf bc 5a 4f f8 bb c5 d1 5e be
       -0.1422106 -0.02343142 -0.007577819 -0.21759708
000180 f5 50 0c ba 7d 2c 0e be 4e 99 17 be 2f 1d b1 be
       -0.000535264 -0.13884158 -0.14804575 -0.34592578
000190 0e bf f0 bd a4 09 75 bc f0 26 9c be eb dd 4c bd
       -0.11755191 -0.014955912 -0.30498457 -0.050016325
0001a0 ff 69 8f 3d d2 74 5a bd c0 fd ed bc 3b b3 12 be
       0.07002639 -0.053334065 -0.029051661 -0.14326183
0001b0 75 c5 15 be 7b fc 35 be b1 92 8c bd 67 42 b8 bd
       -0.14626105 -0.17772095 -0.06863917 -0.0899704
0001c0 b3 19 48 3c a5 5a b6 bc 8a b6 9d bd c5 aa db bd
       0.012213158 -0.02226002 -0.07700832 -0.10725931
0001d0 74 2f a8 bd da 91 8b 3c 7e 0d 60 3d e0 08 82 ba
       -0.08212176 0.01703732 0.054700367 -0.0009920858
0001e0 32 c5 37 be 09 60 b9 bd 12 5e c7 3c 1d 20 4a 3e
       -0.17946318 -0.090515204 0.024336848 0.19738813
0001f0 b2 71 75 3d 8c 60 8f be b4 21 96 bd 28 f9 82 be
       0.05992288 -0.28003347 -0.07330647 -0.25580716
000200 0c 55 a5 3c b9 66 68 3c 34 10 a2 bd ba 7a 3b be
       0.020182155 0.014184647 -0.07913247 -0.18308535
000210 c3 8c 29 be cb 7a 6a bc 00 19 59 3d a2 8a d3 bc
       -0.16557603 -0.014311503 0.053002357 -0.025822941
000220 1e 8e 5b bd 4a 04 7a be 3b 64 8b bd 2f 47 f0 bd
       -0.05360233 -0.24415699 -0.06806227 -0.11732327
000230 a6 e6 2f be 8e 47 87 3e 59 71 01 be a0 f0 75 be
       -0.17177829 0.2642178 -0.12640895 -0.24017572
000240 63 55 c3 be 93 9c 3d bc 23 dc b4 3d 36 47 84 3d
       -0.38151082 -0.011572975 0.0883105 0.06458895
000250 46 2c 28 bd f0 b8 64 be 8c e6 b3 bd d3 86 f1 bd
       -0.041057847 -0.22336173 -0.08784208 -0.11793294
000260 0a 24 16 3d 12 09 ed bc 0c fd ac bd 30 8e 07 be
       0.036655463 -0.02893499 -0.08446702 -0.13237834
000270 c5 b0 42 3c e4 db a9 3c 3c 91 a5 3d e0 eb 20 3e
       0.011882965 0.020734735 0.08084342 0.15714979
000280 01 2d a6 3e b2 cc 56 be 46 b4 c6 bd 69 7d 69 3d
       0.3245621 -0.20976523 -0.09702353 0.057004366
000290 50 8f 3e bd f9 38 3c 3f 99 71 4e 3f d0 2a 06 be
       -0.046523392 0.73524433 0.80642086 -0.13102269
0002a0 1a 05 ac be 04 4d 82 be d6 fe 8f be 5e 63 18 3d
       -0.33597642 -0.25449383 -0.28124112 0.03720414
0002b0 cd 2d c1 3e 66 70 69 3e 8a a0 e2 3d 40 55 d8 bd
       0.37730256 0.22796783 0.11065777 -0.10563135
0002c0 33 ff 77 be e3 72 8f 3d 68 f1 41 bd db ea 8b bc
       -0.24218445 0.07004335 -0.047349364 -0.017079761
0002d0 e5 e9 1c bd 89 ac 16 be 22 32 77 be ef 17 0e be
       -0.038308997 -0.14714254 -0.24140218 -0.13876317
0002e0 1d 55 93 3e 82 e4 9a 3d bf 22 68 bd c0 d5 eb be
       0.28775874 0.07563116 -0.05667376 -0.46061516
0002f0 48 c7 0d be ed 26 c1 3d 7f 0c be 3e cb 8c e9 3d
       -0.13845551 0.09431253 0.3711891 0.11403807
000300 40 30 af bd 90 7f f1 bd 8c f2 8a bd ce 14 48 bc
       -0.08554125 -0.11791909 -0.067845434 -0.0122119915
000310 96 48 5d 3e 09 cd a5 3e dc 4d eb 3e 96 e6 c5 3d
       0.2160972 0.32382992 0.4595784 0.096631214
000320 49 f1 3b 3e e1 a5 1d 3e 55 8f fd 3c 41 74 73 bd
       0.18353762 0.15395309 0.030952135 -0.05943704
000330 65 d1 7c 3d 7c 83 07 3d 53 93 20 3e 69 bc 63 3e
       0.06172313 0.033084378 0.156812 0.22239842
000340 78 f1 c9 3d f2 f2 c4 3c f9 ee b9 bd 94 7b 6d 3e
       0.0986051 0.024041627 -0.090787835 0.23191673
000350 35 7f 4e 3d 2e f2 4f 3d 4f c6 68 be 92 46 31 bf
       0.050414283 0.05076807 -0.22731899 -0.69248307
000360 3c a3 0f 3d 63 76 c1 3e 16 87 4d 3e 84 63 ef be
       0.03506778 0.37785634 0.20071062 -0.46755612
000370 70 35 8e be b3 44 e3 be e5 a9 32 bd 1b 26 49 3e
       -0.27775145 -0.4438835 -0.043619055 0.19643442
000380 12 60 c9 3e df 4a b0 3d 5b 85 29 be ec 40 b7 bb
       0.39331108 0.086080305 -0.16554777 -0.005592456
000390 a0 33 de 3b 19 1b 2e 3e 6b e2 21 3e 05 78 18 bd
       0.0067810565 0.17002524 0.15809028 -0.037223835
0003a0 19 60 dc bd df 64 96 3d 2b e4 0d be 64 c9 4c be
       -0.10760517 0.073434584 -0.1385657 -0.199987
0003b0 1a aa 4f 3d 3c 5e cb bd 32 72 c3 bd 9a ad 1f be
       0.05069933 -0.09930083 -0.095432654 -0.15593567
0003c0 d7 e5 e0 be 50 ba 85 be 80 00 15 3e 41 f2 3b 3e
       -0.43925354 -0.26118708 0.14550972 0.18354131
0003d0 50 48 ad 3e 1e 55 bd be 95 3c 16 bf 59 6c f6 be
       0.33844233 -0.36979002 -0.5868619 -0.48129538
0003e0 93 f7 15 be f6 e9 1c be 56 8d 54 be c9 4a 0d be
       -0.14645223 -0.15323624 -0.2075704 -0.1379806
0003f0 fa ec 46 bd 05 68 e4 3d a4 b7 ff 3d d0 53 b7 be
       -0.048565842 0.11152653 0.124861985 -0.3580613

module.conv2.bias f4 [16]
000000 d2 4c 81 3e 07 37 d8 bf 39 78 90 bf 6f fd ec bd
       0.25253922 -1.6891793 -1.1286689 -0.11571776
000010 3e 15 7d 3f 9c 19 cc 3e b9 12 1e 3e 71 45 a0 3f
       0.9886054 0.39863288 0.1543683 1.2521192
000020 3c 35 15 be 70 33 cb be 44 3b 8c bf ab 50 d9 3f
       -0.14571089 -0.3968768 -1.0955586 1.6977743
000030 25 e5 be 3e 88 6f 28 bf db 09 a5 3d 1e d3 fc 3e
       0.37284198 -0.65795183 0.080585204 0.4937982

module.fc1.weight f4 [120, 400]
000000 67 93 3e bd 3b 14 6c bd 5e 81 65 bd b1 84 c1 bc
       -0.046527293 -0.05763648 -0.056031577 -0.023622843
000010 05 e8 ab bd ca a2 01 3e a3 87 30 3d 23 1d f1 ba
       -0.083938636 0.12659755 0.043098103 -0.0018395524
000020 49 36 70 3b 8a 40 8a 39 d5 b7 a3 3b be 46 48 3b
       0.003665345 0.00026369496 0.0049962797 0.0030559744
000030 26 20 60 bd 0a 1c 8e 3d 3b b9 dc 3c fe 05 c3 3d
       -0.05471816 0.06938942 0.026943794 0.09522627
000040 46 8f d5 bd 7d ba 39 be 50 1a a4 bc 8d ac e6 3c
       -0.10427718 -0.18137546 -0.020032078 0.02815845
000050 94 92 2d 3d f1 ff c2 3c cc 73 b1 bd 54 ad e3 bc
       0.042376116 0.023803683 -0.086646646 -0.02779261
000060 01 c3 bc 3d ef 3d a9 3d eb b1 d8 3c a0 51 a3 3d
       0.092168815 0.08263766 0.026452025 0.07974553
000070 8e 71 d7 3d a4 ad c1 3d f5 ff 18 3d ae 04 da 3c
       0.10519706 0.094569474 0.037353475 0.02661356
000080 69 bd d2 3d 7a 49 f8 3d 25 65 13 3e 6e 85 85 3e
       0.10290033 0.121233895 0.14394052 0.2607836
000090 dc a1 3b bc 45 59 d3 bc eb db 3d bc 91 f3 ba 3c
       -0.0114521645 -0.025799403 -0.011588077 0.02282122
0000a0 94 26 f5 ba a8 e0 6f bd 2e 40 68 be 57 d8 21 bd
       -0.0018703514 -0.05856386 -0.22680733 -0.03951296
0000b0 83 5d 89 3d 69 2c 74 be 19 1d 47 bd e4 1e 1c 3c
       0.06707289 -0.23845066 -0.048611734 0.009528849
0000c0 b2 e0 cb bd f5 01 e9 3a c1 9f 76 3e 3d dd 2b 3d
       -0.099549666 0.0017777072 0.24084379 0.041959036
0000d0 4d e0 0e bd ee 7d 28 bd f6 b1 2a be 7f b9 80 3c
       -0.03488188 -0.04113572 -0.16669449 0.015713451
0000e0 f9 d8 3b 3c df a2 4b 3c 55 6a 44 bd 08 32 c9 bd
       0.0114653045 0.012428968 -0.04795297 -0.09823996
0000f0 50 fd b3 bc 3d 35 f9 3d 28 b1 74 bd b7 7d 64 bd
       -0.021971375 0.121683575 -0.059739262 -0.055783954
000100 8d 64 9b bd 18 93 27 3e 6b 11 8a 3d 88 c9 7b bd
       -0.07587538 0.16364706 0.067416035 -0.061471492
000110 42 9d 01 bd 47 c3 53 bd 5d 75 2d be a6 bc 27 bc
       -0.031644113 -0.051699903 -0.16939302 -0.010237848
000120 c9 94 08 be 70 45 00 bd 80 b7 39 bd 9d 6e 99 bd
       -0.13338007 -0.03131622 -0.045341015 -0.07491801
000130 fb 4c 88 be 27 06 31 bd 51 96 52 bc 47 a0 7b 3d
       -0.2662123 -0.043218758 -0.012853221 0.06143215
000140 96 3b 07 be 52 34 2e be 22 05 a6 bd 4a 6f 6d bd
       -0.13206324 -0.17012146 -0.08106448 -0.05796746
000150 b6 ee ea 3d ed 9e b9 bd 10 e9 95 bd b7 34 05 3e
       0.11471312 -0.09063516 -0.07319844 0.1300839
000160 ad 03 25 3d 64 60 b1 bc ab df f3 bd bd 0a 17 bd
       0.04028671 -0.021652408 -0.11907896 -0.036875475
000170 9b fb 99 3d 12 fa 73 bd d0 c8 b4 3d af 89 06 3e
       0.07518693 -0.059564658 0.088273644 0.1313846
000180 40 91 1b 3e e0 99 9b 3d 0e c7 28 3c e1 e5 e5 3d
       0.15192127 0.07597709 0.010301365 0.112254865
000190 35 a0 ec 3d cb 98 b3 3d f3 78 ba 3d e0 bb 70 3d
       0.115539946 0.08769377 0.091051005 0.05877292
0001a0 de 9e d5 3a 77 b2 e8 3b 50 3e a9 3d ae 76 0a 3e
       0.0016297956 0.007101353 0.08263838 0.13521835
0001b0 71 fc 80 3d 29 ba 43 bd f1 2a 77 3d 91 9c 91 3d
       0.062981494 -0.047784958 0.060343686 0.07109941
0001c0 d4 49 f1 3d 97 79 19 3e a6 7e 10 be 87 78 97 3c
       0.1178166 0.14987789 -0.14110813 0.01849009
0001d0 83 5d 93 bd d8 1a 41 bd 19 fa c6 bd 10 a9 e8 bd
       -0.0719557 -0.04714474 -0.09715671 -0.11360371
0001e0 bc 74 75 3d d5 da fa bb b2 42 70 bc 2b 13 e1 bd
       0.05992578 -0.0076554813 -0.014664339 -0.10989984
0001f0 7d 13 12 be 76 61 10 bd 45 05 d1 ba 4f 72 f7 3d
       -0.14265247 -0.035249196 -0.0015947005 0.120823495
000200 f6 a8 51 3d 5d 52 b2 bd a6 b1 02 3c 49 c9 14 3d
       0.051186524 -0.08707116 0.007976925 0.036324773
000210 0d 02 22 3d 5a d7 a3 3c d9 7d a8 bd 9b 53 26 3d
       0.039552737 0.020000149 -0.082271285 0.040607076
000220 95 7e 37 bc cf d8 d0 bd 65 d8 b9 bd 70 4f 12 be
       -0.011199613 -0.10197603 -0.09074477 -0.14288116
000230 f3 06 c0 bd ce 32 7a 3d 46 e2 09 3d 99 0d 61 bc
       -0.093763255 0.061083607 0.033663057 -0.013736152
000240 30 09 99 3d 71 c9 8b bc 8e 6a 72 3c 24 c3 6a bd
       0.074724555 -0.017063828 0.014795912 -0.057315007
000250 ab 49 6d bd 68 1c 1a bc 00 46 b8 3c 7f 25 9f bd
       -0.057931583 -0.009406187 0.022494316 -0.07770824
000260 fd 31 d2 bd 00 15 df bd 66 8f ac bc 21 89 0c 3e
       -0.10263441 -0.10892677 -0.021064471 0.13724186
000270 14 fd d1 bd 19 ca a4 bd af 82 56 bd 86 41 27 bd
       -0.10253349 -0.080463596 -0.052370723 -0.040833972
000280 33 18 75 3d 13 32 f7 3c 4e 99 28 3c 01 57 af bd
       0.05983753 0.030175244 0.010290457 -0.085615166
000290 a9 99 5b 3c df 23 0a bc ad d1 47 bd 58 bd 08 be
       0.013403335 -0.008431404 -0.048783947 -0.13353479
0002a0 3d d1 82 bd 31 5c 79 bc a8 1a bb bd b6 d9 d6 bb
       -0.06387565 -0.015219734 -0.09135944 -0.006556715
0002b0 fb 0e 3a bd 53 6f f6 3c cc ac 00 3e d8 9b cd 3c
       -0.045424443 0.03008238 0.12565917 0.025098726
0002c0 29 e4 6e bc c3 a6 31 3d e6 01 18 3e 14 36 02 3e
       -0.014580765 0.043371927 0.14844474 0.12715942
0002d0 b6 e3 08 bd 6d c1 a7 3d dc 8f 29 3e 0e 3d 5a 3d
       -0.033420287 0.0819119 0.16558784 0.053280883
0002e0 8f c3 4e 3d 3c 5d 47 bc 27 ca 02 3d d3 bb 95 bc
       0.050479468 -0.012168225 0.03193107 -0.018278038
0002f0 5e ea db bc 6e 22 28 3d e1 37 4f bd 78 3a 19 3d
       -0.026845153 0.04104846 -0.0505904 0.037409276
000300 df ea 20 bd a0 63 9b bb 50 9d 01 bd 90 ee 1a 3c
       -0.03928649 -0.004742101 -0.031644166 0.009456292
000310 30 00 6a bc 40 d6 9d bd e8 8c 5f 3c 98 af 22 be
       -0.014282271 -0.077068806 0.0136444345 -0.15887296
000320 0e f9 1c be db 40 40 bd cc e0 fc bd a1 e1 6b be
       -0.15329382 -0.04693685 -0.12347564 -0.2303529
000330 85 b5 c3 bd 0b f4 f1 bd 53 64 34 bc 9c 80 db 3b
       -0.095561065 -0.118141256 -0.011010247 0.006698681
000340 6e 13 d5 bd 7d 1a 38 3a 72 83 82 bc a1 69 63 3d
       -0.104040965 0.000702299 -0.015931819 0.055520657
000350 63 3c 8e 3d f9 77 c5 3b 68 43 c6 3d e1 ed 6e bd
       0.069451116 0.0060262647 0.096808255 -0.058332328
000360 83 13 d6 bd 87 f0 98 3c c5 57 ae bc 9a f6 38 3c
       -0.1045294 0.01866938 -0.021282086 0.011289263
000370 62 e3 55 be 9b 26 f8 bd 82 da c5 bd dd 49 a2 bd
       -0.20887521 -0.121167384 -0.09660818 -0.079242446
000380 1d 42 2d be 11 73 83 3d 42 0f f3 3d 48 71 18 bd
       -0.16919751 0.064184316 0.118681446 -0.03721741
000390 05 81 88 bd f4 c4 1c be b8 9b 45 3d af f2 1a 3d
       -0.066652335 -0.15309507 0.048244208 0.037829097
0003a0 29 28 a3 bd 81 2b 4d 3d 89 7c cc bd 54 5f e6 3d
       -0.07966644 0.050090317 -0.09984691 0.11248651
0003b0 fb 95 10 bd 64 4a 7f bd 6b 41 85 3d 7f 28 6d bd
       -0.035299283 -0.062326804 0.06506618 -0.05789995
0003c0 61 4d 81 3e 53 cf a2 3d be 76 fe 3c 25 4b cb bb
       0.25254348 0.079497 0.03106248 -0.0062040263
0003d0 33 23 79 3d 8c ba 36 3e 76 84 ee ba b9 a9 16 3d
       0.060824584 0.178446 -0.0018197435 0.036782954
0003e0 a4 c1 05 3e dd 1b 10 3c 8f 71 53 bd d7 46 e6 bd
       0.1306215 0.008795706 -0.05162197 -0.112439804
0003f0 ed d2 18 be 75 20 32 be f7 e3 85 bd b5 e5 a5 bd
       -0.14924212 -0.17395194 -0.065376215 -0.08100454

module.fc1.bias f4 [120]
000000 36 b1 33 3e f2 6d 55 be b1 e0 50 be 84 57 76 bd
       0.1754807 -0.20842722 -0.20398213 -0.060142055
000010 84 39 76 be 62 a3 6d be aa dd 2e 3d 3b ab 9d 3b
       -0.24045378 -0.23206857 0.042691864 0.004811672
000020 13 af 95 bd f8 70 3e 3c 9b ba 84 3d fe 05 87 3d
       -0.073087834 0.011623614 0.06480905 0.0659294
000030 c1 b8 4c be 34 85 d4 be 8a 9d 99 bb 52 b2 9d 3e
       -0.19992353 -0.41507876 -0.0046879696 0.3080011
000040 4b ae 4c 3b 8a e4 14 3e 03 c0 77 3e 3e 4d 8d 3d
       0.0031231816 0.14540306 0.2419434 0.068994984
000050 a2 c0 cc 3d 47 f1 86 3c da 8a 28 be 15 f3 37 bc
       0.09997679 0.016472472 -0.16459218 -0.011227389
000060 f9 89 b9 bd dc 59 db bd f1 94 07 be 5d 57 77 3e
       -0.09059519 -0.10710499 -0.1324041 0.2415442
000070 9a 42 c6 3e 2c ed 65 bc 03 0a 2f 3d a0 bd b5 bc
       0.38722688 -0.014033597 0.042734157 -0.022185147
000080 6d b4 83 3c fe 46 fd bd 04 f7 49 3d d4 b2 8d 3e
       0.016077245 -0.12367056 0.049307838 0.27675498
000090 dc 24 38 3e 70 be 1e 3e a6 d8 6b bc 68 26 76 3e
       0.1798281 0.15502334 -0.014394915 0.24038088
0000a0 05 fe 1b 3e 60 4e f2 3d 63 78 77 be 82 55 21 3e
       0.1523362 0.11831355 -0.24167018 0.15755275
0000b0 28 89 66 3e dd 20 f6 3e 7b 19 8d bd 56 9e 86 3e
       0.22513258 0.48071948 -0.06889626 0.26292676
0000c0 d1 96 01 bd 00 61 f0 3d d4 56 d2 3e 14 81 b4 bd
       -0.03163797 0.11737251 0.4108187 -0.08813682
0000d0 0e 7e a0 3d 14 79 33 3d 1c 56 3d 3e b2 2a ee 3c
       0.07836543 0.04381664 0.1848988 0.029073093
0000e0 2a 14 06 be ef 62 f1 3d 95 80 d0 3d 94 d0 dc 3d
       -0.1309363 0.11786448 0.10180775 0.107819706
0000f0 1e b9 f8 3e b6 65 c5 3d e0 33 89 3e 6e 98 b8 3c
       0.48578733 0.096385404 0.2679739 0.022533622
000100 d5 f7 96 3d 9f 74 4d bd c2 db a7 be 9a 05 ce be
       0.07371489 -0.050160047 -0.3278485 -0.4023865
000110 d6 4f ad 3c e1 4e 53 bc bb 96 7a 3e 25 7e 02 be
       0.021156233 -0.012897224 0.24471562 -0.12743433
000120 e1 e4 ab bb 70 3f 01 3b 64 e9 19 be f1 29 fa bd
       -0.0052457904 0.001972165 -0.15030438 -0.12215031
000130 67 dc f0 3d be 18 b1 3d 63 e8 4f 3d ff 86 1d bd
       0.117607884 0.08647297 0.05075873 -0.03845882
000140 51 64 29 be a9 76 4e 3e 84 74 d2 3d 59 ec 2f 3e
       -0.16542174 0.20162453 0.1027613 0.17180003
000150 38 d6 92 3d 23 a4 ef 3e 88 3a 5c 3e 7d ff 66 be
       0.07169765 0.46804914 0.21506703 -0.22558399
000160 88 00 a5 be 2b e7 1a 3e 1f 04 b4 bb 3a 21 9b 3e
       -0.32226968 0.15127246 -0.0054936553 0.30298787
000170 70 e8 a1 3d 3f d7 14 bd 55 5e 68 be 49 e6 c9 3e
       0.07905662 -0.036338087 -0.22692235 0.39433506
000180 6c 0a 09 3e fb 5f 50 3e 56 12 16 3e 67 72 56 be
       0.13382882 0.20349114 0.14655432 -0.20942079
000190 04 b8 6c bd cf 0e a3 bc 76 af 93 bc 65 75 3e 3a
       -0.05779268 -0.019904522 -0.018028002 0.0007265418
0001a0 36 be af 3e af 32 ba be d3 66 c6 bc a6 16 1c be
       0.34324807 -0.36366794 -0.024218952 -0.15243015
0001b0 59 88 71 be fa f3 85 3e 5e 41 8d bd 6c 75 ca bd
       -0.23587169 0.26162702 -0.068972334 -0.09885678
0001c0 04 34 bf 3d 04 28 50 bd c2 c9 07 3d ad 76 04 3d
       0.09336093 -0.050819412 0.033151396 0.03233974
0001d0 cd 34 15 bd b9 48 59 bc 14 1e 3d 3e 79 16 b2 3e
       -0.036427308 -0.013261967 0.18468505 0.3478277

module.fc2.weight f4 [84, 120]
000000 1e 7f 43 be 97 4e ac bd d3 12 20 3d 40 32 c3 3d
       -0.1909146 -0.08413427 0.039080452 0.09531069
000010 ff 3f f1 bd e4 91 27 3e 71 5d 24 bd 56 e1 1a 3e
       -0.117797844 0.16364247 -0.040128175 0.15125021
000020 a9 c4 61 3e 24 f3 8c bd d9 17 35 3e cb 77 49 3d
       0.22047676 -0.06882313 0.17684878 0.04918651
000030 6f 39 13 3d 99 fc 37 3d d7 fb a6 bd 47 4c 44 be
       0.035943445 0.04491863 -0.081535034 -0.19169722
000040 c9 91 0f 3e e9 c3 4f 3d 87 63 83 3d 0f 64 65 3d
       0.14020456 0.050723944 0.06415468 0.056003626
000050 21 cc 01 be f9 cc 75 3d 39 6a a6 3d 2d 89 b7 38
       -0.12675525 0.06000993 0.08125729 8.751671e-05
000060 f1 f0 1f 3e e2 00 05 be b6 b5 ae 3d 07 3b 2d be
       0.15619256 -0.12988618 0.08530752 -0.16917048
000070 0e 35 96 bd 2b e2 ba bd 92 6d c3 bd 04 90 d0 3b
       -0.07334338 -0.09125169 -0.09542383 0.0063648243
000080 87 8c 0e be b3 7a c3 bd 54 a1 00 be b1 1c f4 bd
       -0.13920794 -0.095448874 -0.12561542 -0.11919535
000090 05 98 b6 3d 11 9f ca 3b ed c6 4a bd f0 a4 5c be
       0.08915714 0.006183513 -0.049506117 -0.21547294
0000a0 eb 61 19 bd 86 b7 f9 3d 63 22 f2 bc dd 6e d1 bd
       -0.037446897 0.121932074 -0.029557412 -0.102262236
0000b0 98 27 e9 bd 2c 5b 34 be 95 bf 0b be 1f 95 09 3e
       -0.11384505 -0.17612904 -0.13647301 0.13435791
0000c0 52 0a 54 3c 9a b0 5f bd 7b 31 c9 3b a9 2c 98 bd
       0.012941914 -0.05461178 0.0061399317 -0.07430393
0000d0 f8 7f fd bd 65 60 12 be 52 96 00 3e 4e fb b4 3d
       -0.12377924 -0.14294584 0.12557343 0.08836995
0000e0 2f 95 4d 3e dc 68 db bc 09 59 c9 3c 6b 10 6c be
       0.2007644 -0.0267834 0.024578588 -0.23053138
0000f0 68 5d ce bd ce aa 6a 3d ba f0 1e be 8d 09 0f be
       -0.100764096 0.0572918 -0.15521517 -0.13968487
000100 a1 e2 ab 3d c7 53 46 3d b4 56 39 3b e4 ae d1 3c
       0.083928354 0.04841974 0.002828044 0.02559609
000110 32 56 de bd 6e 35 08 3c d3 b6 09 be bc d6 30 be
       -0.10856284 0.00831352 -0.13448648 -0.17269415
000120 8c 5f 03 3e 52 68 d0 3c 98 67 a1 3d 32 fd 23 3e
       0.12829417 0.025440369 0.07881087 0.16014555
000130 c9 9c 2f be a6 be ea 3c 9d 68 11 be 6b c0 bc bd
       -0.17149653 0.028655361 -0.14200063 -0.09216388
000140 08 ca 33 bd 3d 20 1d be 05 16 42 be bd 9d 6d bd
       -0.043893844 -0.15344329 -0.18953712 -0.05801176
000150 c7 c9 d2 bd 7c a3 1f be 38 ec 1e 3e 68 ac d7 bd
       -0.10292392 -0.15589708 0.15519798 -0.10530931
000160 86 6c 9a 3d 7d 4a 92 bd 9a 1c 34 be c7 d8 77 bd
       0.075402305 -0.07143114 -0.17589036 -0.06050947
000170 2d 8d 18 be 30 af 35 3c 19 11 84 3c 6e d6 97 3d
       -0.14897604 0.011089131 0.016121434 0.07413946
000180 8a ca c9 bd 44 32 87 bd d5 d4 99 bd 22 ab 5e bd
       -0.098530844 -0.06601384 -0.075112976 -0.054362424
000190 5b 95 8c bd cf e4 98 bc 9d 9f 04 be 78 26 ef bc
       -0.06864425 -0.018663792 -0.12951513 -0.029193148
0001a0 b0 eb 33 be fb 62 7a bd cc cd f7 bc 6f 7f 30 3e
       -0.17570376 -0.06112955 -0.030249499 0.17236112
0001b0 cc de b4 3d 6f fe 81 bd ed 4d d8 bd 8f 85 10 bc
       0.08831558 -0.063473575 -0.10561738 -0.008820905
0001c0 75 8f 09 3e 44 bf 34 be ed 33 11 3e e9 5d 14 3d
       0.13433631 -0.17651087 0.14179964 0.036222372
0001d0 2f b1 09 be a7 bd cc 3d f9 ec cf bc ac 6a 1d bc
       -0.13446496 0.09997111 -0.025381552 -0.009607952
0001e0 c2 04 16 3d 12 37 14 3e 25 fe de 3d 5b 57 6d be
       0.03662563 0.14474133 0.10888318 -0.23177855
0001f0 d7 d7 d9 3d 4b 46 93 bd 5e a8 1f 3e 33 67 80 bd
       0.10636871 -0.07191142 0.1559157 -0.06269684
000200 05 29 61 bd ba f7 fe bc dd db 49 be ff c4 3e 3e
       -0.05497076 -0.031123985 -0.19712777 0.18629836
000210 4f 29 37 be 7a a4 12 bd 7c 69 c7 3d b9 7e 88 3d
       -0.17886852 -0.03580139 0.097369164 0.066647954
000220 2d 3b e1 bc bd 39 b1 3c f8 fd 4b bd 86 38 db bc
       -0.027494038 0.021633977 -0.04980275 -0.02676035
000230 f0 e4 08 be f7 39 17 be ca 1b 52 be 6c a1 21 3b
       -0.13368583 -0.14768206 -0.20518413 0.0024662865
000240 80 d6 15 3d 41 2c 84 be 7f 12 66 3d 25 a1 99 bd
       0.036581516 -0.25815013 0.056169983 -0.07501439
000250 1c ae 40 3e 30 30 1f bc db 14 70 be 40 f8 19 be
       0.18816417 -0.009716079 -0.23445456 -0.15036106
000260 11 bc 4c be a6 ac c3 3d 00 c6 72 bd ec 01 6b 3a
       -0.19993617 0.095544145 -0.05927086 0.0008964825
000270 7e 75 77 3d aa 66 6b be e9 b8 27 bd 09 e7 3b be
       0.060414784 -0.22988382 -0.04094783 -0.18349852
000280 f9 4b 8d 3b 8c 0e d2 3d e8 24 1d be 0e c8 20 3e
       0.004312035 0.10256681 -0.1534611 0.15701315
000290 e9 6c 66 bd 92 ba 2a 3e d2 b2 5e 3e 13 d9 02 3d
       -0.05625621 0.16672733 0.21747902 0.0319453
0002a0 a9 f4 6e bd b6 54 22 3d c9 dc a1 3d b2 27 53 be
       -0.058338795 0.039631568 0.079034396 -0.20620611
0002b0 f8 ef 02 be 60 a9 0c bd a6 37 ce bd 3a 08 c9 3d
       -0.12786853 -0.034341216 -0.10069208 0.09816022
0002c0 8d 46 db bd c2 c7 a4 be fd 0c a2 bd f7 32 5c bd
       -0.10706816 -0.32183653 -0.079126336 -0.05375954
0002d0 ca 8a 74 bd 01 ef d3 bd 33 9c 03 be 9a fa 88 3c
       -0.059702672 -0.10348321 -0.12852554 0.016721059
0002e0 ee 2d 31 be 9c d7 90 3d 09 2a 38 3e 82 bc 9d bd
       -0.17302677 0.07072374 0.17984785 -0.07701971
0002f0 95 8b 7a bd e8 53 8d 3e 08 95 b7 3d 53 26 1b 3d
       -0.061168272 0.27603078 0.08963972 0.037878346
000300 ba c9 e9 bd 12 c0 3b be 74 3b bd bd a4 9e 98 3d
       -0.114154294 -0.18334988 -0.092398554 0.07452133
000310 5b aa 6e be 1a 5a a7 3d 65 2e a2 be e9 99 a5 3c
       -0.23307173 0.081714824 -0.3167602 0.020214992
000320 c5 93 b5 bd 87 d9 a5 bd 9c 7d 8c be 53 a4 1d bc
       -0.088660754 -0.08098131 -0.27439582 -0.0096216975
000330 bb 4e 8e bd b2 6e 4d 3c 0a e3 26 bd 34 8f ba bd
       -0.069486104 0.012538599 -0.040743865 -0.09109345
000340 80 9a fa bd a8 5a 8c 3e ea 1d a6 bc b4 a8 21 be
       -0.122365 0.27412915 -0.020277936 -0.15787011
000350 6c 09 bb 3d 95 a5 05 3e 45 54 d8 bd 03 22 30 be
       0.091326565 0.13051446 -0.10562948 -0.17200474
000360 3a a6 09 be 1d 37 00 3d f3 6c 4c be 1a 2e 34 3e
       -0.13442317 0.03130256 -0.19963436 0.17595711
000370 89 97 6c 3d d9 9f 5e be 50 99 3f bd c7 12 de bd
       0.057761703 -0.21740665 -0.04677707 -0.10843425
000380 34 3f 89 bd 22 9e 8f 3c 00 6f 6b bd 64 ff 65 bd
       -0.06701508 0.017531458 -0.057478905 -0.056151763
000390 35 32 ba bc b3 1f 18 be 57 e6 02 bd 40 ef a0 3c
       -0.022729019 -0.14855842 -0.03195795 0.019645333
0003a0 b4 aa 42 3e 87 fe 3e 3e ac 94 dd 3d 20 16 b1 3d
       0.1901043 0.18651782 0.108193725 0.08646798
0003b0 59 27 8b bd 23 a4 04 3d 1f d4 9c 3c 8b ab f5 bd
       -0.06794614 0.032383095 0.019144116 -0.1199561
0003c0 ef 94 a8 bd 48 e1 d7 3d e0 a7 5d be 95 49 d6 bd
       -0.08231532 0.10541016 -0.2164607 -0.104632534
0003d0 eb 76 db bd 5f f1 c6 bd 0f 11 9d bc da 08 4b 3e
       -0.10716041 -0.09714007 -0.019173173 0.19827595
0003e0 b4 51 0f be 61 32 80 3d 61 60 ac bd b4 5f 13 3d
       -0.13996011 0.06259609 -0.0841682 0.03597994
0003f0 6c 3d 88 3d 5c e4 1b bd 8a f1 f7 3c fa f1 cf 3d
       0.0665234 -0.038059577 0.030266542 0.10153575

module.fc2.bias f4 [84]
000000 aa e7 85 bd 10 97 2a 3c 14 84 60 3f f8 41 f1 3d
       -0.06538327 0.010411993 0.87701535 0.11780161
000010 97 b1 21 bc 79 58 22 3f 4a 5e 39 3e e8 70 2d 3e
       -0.009869001 0.6341625 0.18102375 0.16937602
000020 1d 68 e5 3c 10 1e da 3e 72 e1 82 3f 8c 74 1c 3e
       0.028003747 0.4260106 1.022505 0.15278834
000030 86 a4 ff bd 9d 23 81 3e 12 15 1b bd bf e3 30 3e
       -0.12482552 0.25222483 -0.03786189 0.17274378
000040 0b 0b da 3d 3a df 6b 3f 18 79 bd 3e c0 b1 8e 3d
       0.106466375 0.9213749 0.3700645 0.06967497
000050 ab f6 f3 bc 20 35 21 3e 4a 2e 29 3f a3 ea a3 3e
       -0.029780706 0.15742922 0.66086257 0.3201495
000060 bc a1 aa 3e 86 f1 38 3e 38 e4 87 3e 81 97 d8 3e
       0.3332652 0.18060884 0.26541305 0.42303088
000070 58 e7 c6 3c e8 f3 86 3e 26 3d 20 3c 30 ab ff bb
       0.024280235 0.2635796 0.009780204 -0.0078023896
000080 c9 4b 76 bd 3a be 6e be 85 cc fa be 31 fa 1b be
       -0.060130868 -0.23314753 -0.4898416 -0.15232159
000090 b9 e9 e7 3e 7b 2f b0 3e b9 0e a8 3d c0 e4 dd bd
       0.45295504 0.34411225 0.08205933 -0.10834646
0000a0 b0 ef 20 3e 94 95 fc 3d 39 23 3b 3f 0c ef 38 bd
       0.15716434 0.12333217 0.7310062 -0.045149848
0000b0 19 e7 0f 3e 84 f6 ba 3e 23 d4 fe bc af ce d2 3d
       0.14053 0.36516201 -0.031107014 0.10293328
0000c0 d3 6b 86 3c 52 82 95 3d e9 ab 30 3f a3 dc 2d 3d
       0.016408836 0.07300247 0.69012314 0.042446744
0000d0 8e 25 bf 3e 4f 60 93 3e a7 fc 50 3e 1f 47 9e bd
       0.3733334 0.28784415 0.20408879 -0.07728409
0000e0 fd 65 5e 3f da d9 37 3e b4 25 d0 3e 36 cf 87 3c
       0.8687437 0.17954198 0.40653765 0.016578298
0000f0 6f e3 36 bd b6 07 85 bd cf 68 de 3d d6 c9 00 bd
       -0.04465049 -0.06495611 0.108598344 -0.031442486
000100 e8 4f 01 3e 2a b0 06 3e a9 dc 9f bd 7b dc 8d 3e
       0.12628138 0.13153139 -0.078057595 0.27707276
000110 75 53 d3 3d f3 c5 9d 3e db 3e e7 3d 98 58 69 3e
       0.103186525 0.30815086 0.112912856 0.22787702
000120 9a 76 8e 3d 16 fc c7 3e b6 f7 f7 bd cd 3b ab bd
       0.06956215 0.39059514 -0.12107794 -0.083610155
000130 56 c7 5b 3e 29 12 d8 3e 01 7f 7d 3d e9 e5 2f 3e
       0.2146276 0.42201355 0.0618887 0.17177548
000140 80 c8 84 3e 89 b1 d2 3d da ae 1c 3f 8f 84 e9 bc
       0.2593422 0.102877684 0.612043 -0.028505592

module.fc3.weight f4 [10, 84]
000000 5c 3e fe bc ad 1d 4d 3e 02 f7 6c be 82 22 74 3d
       -0.031035595 0.20030852 -0.23141101 0.05960322
000010 d1 a7 ed 3c 76 ab 5c bd 83 8c 64 be e1 84 b9 bd
       0.029010685 -0.053874455 -0.22319226 -0.09058548
000020 d6 f3 91 3d 25 c6 d8 3d 9b ff 85 be fe 2f 76 3d
       0.07126586 0.10584668 -0.26171574 0.060104363
000030 c7 c8 86 be b2 3f 0b 3e bd 8f 5f 3e 69 9a 3d be
       -0.26325056 0.13598517 0.21832176 -0.18515934
000040 a2 c3 29 3e 77 dd 1a 3e 4c 08 90 be f7 01 14 3e
       0.16578534 0.15123545 -0.2813133 0.14453875
000050 0b 56 67 3c eb 74 2d 3e c6 f9 35 3d 49 93 45 3e
       0.014119635 0.16939132 0.044427656 0.19294466
000060 05 c6 0a 3e 87 81 32 3e 2c 2d 72 3c e1 7c 07 3e
       0.13552101 0.17432223 0.014781278 0.13231231
000070 03 62 d7 3d 74 e4 68 3e d2 6e 11 3e 56 b4 29 be
       0.10516741 0.22743398 0.14202431 -0.16572699
000080 b6 d0 4c 3e 8d 7d a2 3e 6f 3a c4 3d 9d 23 fe bc
       0.20001492 0.31736413 0.09581458 -0.031022841
000090 13 66 fe 3d 09 8a 26 3e e4 e2 61 bd 97 d7 cd bd
       0.12421813 0.16263594 -0.05514802 -0.10050886
0000a0 18 fe 62 bd f0 86 6e 3e ce fe 25 3d f3 cf 87 bd
       -0.055418104 0.23293662 0.040526204 -0.0663146
0000b0 1e 94 ae bd ee bc 02 be 10 6f 53 be 07 1d 71 3c
       -0.08524345 -0.12767383 -0.20647836 0.014716393
0000c0 e4 89 95 3d 2e 4d 4c be 61 0b c0 bd 73 78 1e 3e
       0.07301691 -0.19951317 -0.0937717 0.15475635
0000d0 0e 46 53 3e 8d ed ce bb 22 93 4a be 48 53 e2 3c
       0.20632192 -0.0063149394 -0.19782689 0.027627602
0000e0 4a 54 c4 be f0 d8 48 3e f6 c9 da be 6e 78 57 3e
       -0.38345557 0.19614005 -0.4273221 0.21042034
0000f0 9a 18 6c bd ed d0 62 3c 27 e9 c6 bd 24 90 3a 3e
       -0.05764065 0.013843757 -0.09712439 0.18219048
000100 b9 33 23 be 71 7e c4 bc 2b e1 0b be c5 06 14 be
       -0.159377 -0.023986073 -0.13660114 -0.14455707
000110 b5 73 b9 3d 97 5e da 3b a2 73 ce bc 7d 47 35 3e
       0.090552725 0.006664108 -0.025201622 0.17703052
000120 22 4f 09 be 2b 1d c9 bd c1 20 66 3e 3f 8b 2f 3e
       -0.13409093 -0.098200165 0.22473432 0.17142962
000130 b9 50 25 bd fe e2 87 be 74 42 7b 3d 37 dd 5b 3e
       -0.040360186 -0.2654037 0.06134267 0.21471106
000140 7a 71 34 be a4 d0 1d 3d 82 85 69 3e bb 77 9c bb
       -0.17621413 0.038529053 0.22804835 -0.004775015
000150 fc b5 84 3e d4 29 0d 3e a3 70 c6 be d1 95 07 bd
       0.25920093 0.13785487 -0.3875781 -0.03310186
000160 02 bf 06 bd 41 34 d6 3d 42 0a 1d 3e 81 06 c4 bd
       -0.032897003 0.104591854 0.15335944 -0.09571553
000170 bf 43 55 3e 30 dc 01 3e 27 63 c7 bd 91 63 51 3e
       0.20826624 0.12681651 -0.09735709 0.20448138
000180 37 2c 0b 3e d0 fc b3 3d bf 52 83 3e 7d f6 16 bd
       0.13591085 0.087884545 0.25649068 -0.036856163
000190 78 03 a6 be 39 45 3f be 23 a8 f7 bd aa b5 ec 3e
       -0.3242452 -0.1867875 -0.120926164 0.4623235
0001a0 32 97 67 3e db a7 7c 3e f3 55 9e be 96 f6 51 be
       0.2261627 0.24673407 -0.3092495 -0.20504221
0001b0 2b da 84 be 46 5f 1f 3e 13 c3 33 be f5 11 9a be
       -0.259477 0.15563688 -0.17554884 -0.30091825
0001c0 4b 4c 06 3e f6 d4 e1 3c 44 b2 06 3c f0 12 4d 3d
       0.13115041 0.027567368 0.008221213 0.05006689
0001d0 b7 42 22 be c5 3f 06 3e 3c b9 86 3e 00 e4 71 3e
       -0.15845762 0.13110264 0.26313198 0.23622131
0001e0 c5 cc 27 be 43 16 3c bd 9e 54 72 3c aa dd 3c 3d
       -0.16386707 -0.045919668 0.014790682 0.046109833
0001f0 8c 76 a4 3b 9f cd 64 be b0 ba f7 bd ae 9c 75 3e
       0.0050190147 -0.22344063 -0.12096155 0.2398555
000200 96 01 8c bc fa c2 bb 3d 8b 56 21 be 02 93 64 3e
       -0.0170906 0.09168048 -0.1575567 0.22321704
000210 46 ae 6c bd ca 82 a0 3c 25 8b 10 be 5c b8 8a 3d
       -0.057783388 0.019593615 -0.1411558 0.06773445
000220 4f 03 ec 3c 3e 43 ee bd f0 28 32 bb 40 6b 5c bd
       0.028810171 -0.11633919 -0.0027185045 -0.05381322
000230 0e cd 14 be b6 02 6e be 67 13 95 bc ac 18 a8 bd
       -0.14531347 -0.23243222 -0.018197728 -0.08207831
000240 e6 65 0a 3e 84 13 df 3d a0 de 2c 3e 12 1a 83 3e
       0.13515434 0.10892394 0.168818 0.25605828
000250 ae 66 64 3e 6f 3a ab bd 40 34 2a 3e db 3d 63 3c
       0.22304794 -0.08360755 0.16621494 0.013869728
000260 df 76 ee bd c9 e9 8a bd 05 e6 70 3e 8e bb 4d 3d
       -0.116437666 -0.06782872 0.23525245 0.050227694
000270 98 3b c9 3d b4 f8 52 be 69 0f 01 bd d3 15 36 be
       0.0982582 -0.20602685 -0.031508837 -0.17781763
000280 5a cf 53 bd c6 33 e8 bc e4 d6 a0 3b 23 cc a9 be
       -0.051711418 -0.028345 0.0049084295 -0.33163556
000290 99 57 15 be 9e 15 15 3e 73 42 fc bc 54 d0 2b 3d
       -0.14584197 0.14559028 -0.030793404 0.041946724
0002a0 88 05 d7 3d ef 5a 41 3d 71 5c 5c 3e 46 41 3f be
       0.10499102 0.04720586 0.21519639 -0.18677244
0002b0 c9 1a 0d be b3 33 f7 bd 0b 8f 91 bd 71 7e ac 3d
       -0.13779749 -0.12070408 -0.071073614 0.08422554
0002c0 1d 39 ff bd 5b 1e 24 be f6 06 8c 3e c4 92 04 bc
       -0.12462065 -0.16027205 0.2734906 -0.008091632
0002d0 2f ee c6 3b 8e 28 01 be 51 b3 d8 3d e8 b6 a6 bd
       0.006070874 -0.12613127 0.10581077 -0.08140355
0002e0 15 8a 8e 3e 91 fe 5f 3e 47 e2 2e 3e b3 e5 0a be
       0.27839723 0.21874453 0.17078505 -0.13564186
0002f0 ec d1 b8 bd 8a 69 51 be ad 8d 0d 3e 9c ab 16 3e
       -0.090244144 -0.20450416 0.13823576 0.14713901
000300 6b 20 82 3d d3 94 91 bd 95 47 27 3e 1a 29 82 bd
       0.063538395 -0.07108464 0.163359 -0.06355496
000310 f9 5f 82 bd 73 19 1f 3c b5 21 6a 3d 45 04 7c bd
       -0.063659616 0.009710657 0.05716105 -0.06152751
000320 72 4c 2d bd 9d a8 81 bd 7a dd b1 bc fc 9a 27 bd
       -0.042309232 -0.063309886 -0.021712054 -0.04091929
000330 92 70 7c 3d b9 32 af 3d 55 da e8 bd 43 4d 2f 3d
       0.061630793 0.085545965 -0.113697685 0.042798292
000340 59 c1 b5 bd 35 f8 f2 3c b0 21 26 3e f4 75 d7 bd
       -0.08874769 0.02965937 0.16223788 -0.10520545
000350 f1 af 67 3e 88 27 af bd 62 d4 c8 3d 13 4d 82 bd
       0.2262571 -0.08552462 0.09806134 -0.06362357
000360 c4 82 28 3d 9f 74 ab bc a4 a3 e4 3d e5 92 2c 3e
       0.041140333 -0.020929633 0.111640245 0.16852911
000370 09 b1 2a 3e 80 4f a8 bc 17 0a 1a 3e 3a 87 12 bc
       0.16669096 -0.020545721 0.15042911 -0.008943373
000380 c9 a8 fd 3c 9c 1f 89 3e 63 f8 d3 39 0b b8 43 bd
       0.030964272 0.2678193 0.0004043012 -0.04778294
000390 85 7b b2 bd ab a9 88 3e 91 ef eb 3d 5c 25 40 bd
       -0.08714966 0.26691946 0.11520303 -0.04691063
0003a0 4a 64 0c 3e 5d b7 88 3d be be a8 bd 85 c7 2d be
       0.13710132 0.06675599 -0.08239506 -0.16970642
0003b0 7c 37 3b be ac a6 e4 3c 00 ea 92 bd 90 e5 81 3e
       -0.18282884 0.027911507 -0.07173538 0.25370455
0003c0 41 8e f3 bd c0 84 de 3b 78 6c 6a 3d d8 bd 1d 3c
       -0.11892367 0.0067907274 0.05723235 0.009627782
0003d0 47 61 93 3e 1d e7 8a bd 51 e3 a9 ba c8 ba 3d 3e
       0.28785154 -0.067823626 -0.0012961422 0.18528283
0003e0 36 93 a9 3d 31 5c b9 3d 13 12 90 3c 71 3d 79 3e
       0.082800314 0.09050787 0.017586743 0.24339844
0003f0 3e 82 f8 bd bf e8 97 3d 73 04 21 3e 3b bd bf 3c
       -0.12134217 0.0741744 0.15724353 0.023405662

module.fc3.bias f4 [10]
000000 bf c8 6b be 27 5c 8e bf 10 21 97 bd 3b 0a 25 3f
       -0.23025797 -1.1121873 -0.07379353 0.64468735
000010 83 cd 3d 3f 54 6e b2 bd 9d 73 bc 3c 73 8d ac be
       0.7414171 -0.0871245 0.023004347 -0.33701667
000020 a7 5d ea 3e 33 68 c6 be
       0.45774576 -0.38751373
