models/classifier_net_epoch_3_10000.pth (torch_old, 249853 bytes, 10 tensors)

module.conv1.weight f4 [6, 3, 5, 5]
000000 c5 24 cc 3d c9 dc 69 3e 1f 0e b3 3e 77 5c 14 3f
       0.09967951 0.22838129 0.3497171 0.5795359
000010 97 4c 64 3e 53 0b 3c 3e af 4d 63 be 18 52 49 3d
       0.22294842 0.18363695 -0.22197603 0.049150556
000020 54 4e 43 3f c5 26 4c 3e 45 cd 9e 3e 65 a3 17 be
       0.76291394 0.19936664 0.31015983 -0.14808424
000030 ca 00 44 bf e0 c1 1f 3f fc 8a 8d 3e 77 f4 d2 3d
       -0.76563704 0.62405205 0.276451 0.10300534
000040 8c 46 84 bd 3b 5d 1d bf d1 42 5b 3c 28 48 f8 bd
       -0.06458768 -0.61470383 0.0133826295 -0.12123138
000050 75 d9 e5 bd 18 23 10 be 1d 6e fe be d2 04 0c 3c
       -0.11223117 -0.14075887 -0.49693385 0.008546071
000060 26 75 99 be c9 63 92 bd 6d f3 c4 be 45 a1 00 bf
       -0.2997219 -0.07147939 -0.3846697 -0.5024608
000070 5b 2d db bd e2 fc c9 be 56 a5 b0 3e a6 49 19 bf
       -0.1070201 -0.39450747 0.3450114 -0.59878004
000080 2c ae 32 bf f9 58 7f 3e 45 5b df bd 69 7d 12 3f
       -0.69797015 0.24936284 -0.1090608 0.5722261
000090 ee 96 78 be 6d 9c 83 bf 1f 51 f2 3e c3 82 40 3e
       -0.24276325 -1.0282112 0.47327515 0.18799882
0000a0 a9 6f ec 3e cf 31 41 3e 4f 0b 43 bf 1f c9 3f 3e
       0.4617894 0.18866657 -0.7618913 0.18729065
0000b0 85 7c 0a be f8 7c 08 3f 4e 78 8e 3d 8a ed 50 be
       -0.13524063 0.5331569 0.0695654 -0.20403114
0000c0 e1 c1 c5 3e c7 d3 61 bd 8f 35 4d bd 25 dc 93 bd
       0.3862448 -0.055133607 -0.050099906 -0.072197236
0000d0 aa 59 79 bc 33 45 66 3e 36 32 46 be fa e1 a1 3e
       -0.0152191315 0.22487335 -0.19355091 0.3161772
0000e0 3c 62 a9 be 19 15 8e be fb d0 01 3f 85 94 ad be
       -0.3308276 -0.2775047 0.50709504 -0.33902374
0000f0 09 44 06 3f 53 3f 32 be bd 86 34 bf 00 44 dc 3e
       0.52447563 -0.17406969 -0.70518094 0.4302063
000100 bc 5c b7 bd 47 77 f6 3e d3 8a 9a 3e d9 0b 05 bf
       -0.089532346 0.48137876 0.3018404 -0.51971203
000110 1d 2f f5 3d 83 a4 4c be a4 20 db 3e e2 63 4c 3e
       0.11971877 -0.19984631 0.4279834 0.19959977
000120 2d 8b 57 be 24 22 17 3e 7d bd 4d be 9b 61 f9 bd
       -0.21049185 0.14759117 -0.20091815 -0.1217682
000130 28 00 66 3e 14 92 f4 3d dc f2 f7 3d 1a 2d 19 bc
       0.22460997 0.11941925 0.121068686 -0.009349132
000140 4f f7 a6 3c 36 3f cc 3e b5 f8 be 3d 3f 76 43 bd
       0.020381598 0.39891976 0.09324781 -0.04772019
000150 1f b1 fe bc 59 31 1e 3e 60 22 ef bd c7 e8 cf be
       -0.031090317 0.15448512 -0.116764784 -0.40607283
000160 65 ec 94 be 4b 80 45 be 48 94 46 be 02 53 08 bf
       -0.29086605 -0.19287221 -0.19392502 -0.5325166
000170 64 b1 ea be 3f 09 f1 bd a9 7d f6 bb 0b 87 11 be
       -0.45838463 -0.11769342 -0.007522304 -0.14211671
000180 99 27 74 3d 17 6a f3 3d 46 94 c4 3e bb 93 aa 3e
       0.059608076 0.118854694 0.38394374 0.33315834
000190 95 70 b8 be b2 98 ac 3c e7 c4 39 bd e2 99 48 bd
       -0.36023393 0.021068905 -0.045353796 -0.04897488
0001a0 60 16 10 be 50 7b 53 3d 31 35 a4 3e 36 1f 94 bd
       -0.14071035 0.05163127 0.32071832 -0.072325155
0001b0 51 58 02 be e4 69 41 be cc bd 9b 3e eb 18 60 bc
       -0.12729003 -0.1888805 0.3041824 -0.013677816
0001c0 aa df ae be b8 81 c6 be 5e 22 3d be f6 d6 78 bd
       -0.34155017 -0.38770843 -0.18470141 -0.060751878
0001d0 75 6b c2 be 3c 98 c0 be 15 ff 18 be a3 0c 67 bd
       -0.37972608 -0.37616146 -0.14941056 -0.056408536
0001e0 0d dc 9e 3c 19 00 bd bd 46 b5 cc 3d 62 34 8d 3e
       0.019392038 -0.09228534 0.09995513 0.27579027
0001f0 55 c0 7e 3e 68 a6 41 be a7 15 9b 3d a6 99 28 3c
       0.24878056 -0.18911135 0.07572489 0.010290539
000200 28 89 41 3e 20 a3 13 bd fc 19 f5 3d de 4f c5 3e
       0.18899977 -0.03604424 0.11967847 0.38537496
000210 9d 1d 9f 3e 54 c2 5b 3d c1 fc c5 bd 56 40 a1 3e
       0.3107728 0.053652123 -0.096673496 0.31494397
000220 6c bc 44 3e b6 06 0d be 1f 7f ab be e1 8d 33 be
       0.19212502 -0.13772091 -0.33495423 -0.17534591
000230 a3 09 84 3d eb a6 c3 be 99 66 a3 be 14 f9 49 be
       0.064471506 -0.38213286 -0.31914213 -0.19723922
000240 07 49 9d 3c 46 22 b1 3c 94 4f 62 bd 9c 9a 8c 3e
       0.019199861 0.021622788 -0.055251673 0.27461708
000250 7b e8 40 3e d0 fe a8 3d 5c e1 7b bd ae 66 21 be
       0.18838684 0.082517266 -0.061494216 -0.15761825
000260 5c 2f 52 be 8a 32 ba bd 7f e1 08 be 95 22 42 3d
       -0.20525879 -0.09091671 -0.1336727 0.04739626
000270 2a 05 8c 3e c2 8e e4 3d 77 f8 de 3d 22 b9 12 3c
       0.2734769 0.111600414 0.10887235 0.008955272
000280 78 c2 12 be 74 12 50 bc ab 05 dc 3d bd 04 64 3c
       -0.14331996 -0.012699712 0.107432686 0.013917145
000290 20 bb ec 3c b8 88 c4 be c8 df b0 be aa 62 b5 be
       0.028897822 -0.38385558 -0.34545732 -0.35426837
0002a0 45 94 c6 be b2 3c b2 be dc a4 c3 bd a1 31 80 be
       -0.38784996 -0.34811932 -0.09552929 -0.25037864
0002b0 5e e7 67 be 67 de 78 be d3 97 3f be 58 90 81 be
       -0.22646853 -0.2430359 -0.1871026 -0.25305438
0002c0 0d 0e 9b be 7b 5c 1d be d7 c3 1d be ce c3 63 be
       -0.30284157 -0.1536731 -0.15406738 -0.22242662
0002d0 90 e3 89 3e 88 59 a8 3e 50 b6 c9 3e 31 7b 82 3e
       0.2693143 0.32880807 0.39396906 0.25484613
0002e0 bc a6 7b 3e 79 49 95 3c 17 42 77 3c ac 91 c0 3d
       0.24575323 0.018223511 0.015091441 0.09402785
0002f0 6a dd df 3d 92 1e 2e 3e 88 c0 8f be 90 10 d6 be
       0.10930903 0.17003849 -0.28076577 -0.4180951
000300 a6 6c a1 be 57 04 73 be 78 50 26 be d4 1a 84 bc
       -0.31528205 -0.23732124 -0.16241634 -0.016126074
000310 66 1f 1f be 57 33 03 be 9f 60 e6 bb 38 24 05 3d
       -0.15539321 -0.12812553 -0.007030561 0.032505244
000320 bf a7 eb bd c5 0c 00 3d 8d dc 58 bc 0d 60 81 bd
       -0.115066044 0.031262178 -0.013236177 -0.06317148
000330 7a 3f 23 be 1e 80 c5 3e cb 2a 9c 3e d1 f2 01 3f
       -0.15942183 0.38574308 0.30501398 0.50761133
000340 4d f9 fb 3e e9 17 af 3e 8d 28 29 3e 0e 1b 82 3e
       0.4921364 0.3419793 0.16519375 0.25411266
000350 3f 1a 6f 3e 84 ef b9 3e fb 7d 7d 3e b1 2c 5b 3d
       0.23349856 0.36315548 0.24755089 0.053509418
000360 93 34 b4 3d 12 0e 49 bd cb 4f 36 3d 63 61 df 3d
       0.0879909 -0.049085684 0.04450969 0.10907247
000370 ee bd 67 3e 0f 63 2a 3e 71 67 fe 3d b0 eb 75 3e
       0.22631046 0.1663935 0.12422074 0.24015689
000380 25 49 3f 3e 26 94 4a 3e ce 9c 3d 3e 9e 56 7d be
       0.18680246 0.19783077 0.18516847 -0.24740073
000390 e7 f5 06 bc 2c c6 e6 bd 0e f8 62 3e b4 da 78 be
       -0.008237339 -0.11268267 0.22164938 -0.24302179
0003a0 02 4c c1 be 4a 58 60 3d 1c fe 93 3d 1e b9 18 3e
       -0.37753302 0.0547717 0.07226202 0.14914367
0003b0 53 74 90 be d5 68 99 be b5 82 a2 3e fc 27 d6 3c
       -0.28213748 -0.29962793 0.31740347 0.026142113
0003c0 8f f9 26 be b5 d5 c9 be 33 7e 3c bd b9 23 85 3e
       -0.16306137 -0.39420858 -0.04601879 0.26003817
0003d0 38 b7 36 3e 49 0e b5 3c a5 04 84 be 56 22 d6 3d
       0.1784333 0.022101538 -0.25784793 0.10455768
0003e0 eb 20 bf 3e 46 c7 79 3c 52 cf 07 3e 32 e9 bf 3c
       0.37329802 0.015245264 0.1326268 0.023426626
0003f0 33 5f 85 be ea 5e bd 3d 37 33 89 3d 4a b9 ec 3d
       -0.26049194 0.09246619 0.066992216 0.115587786

module.conv1.bias f4 [6]
000000 fd 95 36 be 2f 9c 0e bf bc 36 76 bc a2 1e 89 be
       -0.17830653 -0.5570707 -0.015027698 -0.26781183
000010 84 66 66 bd 16 1a 78 be
       -0.05625011 -0.24228701

module.conv2.weight f4 [16, 6, 5, 5]
000000 01 a5 99 3e a1 a9 7e bd 11 75 f3 3e fb 4d f2 3c
       0.300087 -0.06217349 0.47550252 0.0295782
000010 b1 2b 02 3c 08 3f 6d 3e a1 2b 31 be 46 9d 41 3e
       0.007944987 0.23168576 -0.173018 0.18907651
000020 a0 f8 9d 3e 7d 4f f7 bb ad 65 0b 3e b2 aa 7a bd
       0.30853748 -0.0075473175 0.13613005 -0.061197944
000030 44 48 8b bc 00 41 9a 3e 80 ff 78 bd a8 62 a3 bd
       -0.017002232 0.30127716 -0.06079054 -0.079778016
000040 24 81 d2 3d 87 ad 21 3d 72 bf 2d 3e 30 c1 0c 3d
       0.10278538 0.03947213 0.16967562 0.034363925
000050 7a 04 cf bd e3 75 ec bd f4 d1 07 be 24 cd cc bd
       -0.10108276 -0.115459226 -0.13263685 -0.10000065
000060 0f aa c2 3c 3f cd d0 bd ed 5b df 3d 12 48 e0 3d
       0.02376273 -0.101953976 0.10906205 0.10951246
000070 e3 c1 2c 3d 19 2f 90 3c 1f da 06 be d1 55 3f 3d
       0.042177092 0.017600583 -0.13169144 0.0467127
000080 c9 9d df b9 87 c2 34 3d ad 76 27 3b 56 f8 60 be
       -0.00042651434 0.04413083 0.0025552914 -0.21969733
000090 65 24 a9 3a 2e 2d 25 3e 77 4a da 3d 77 16 a3 3d
       0.0012904523 0.16130516 0.10658734 0.07963269
0000a0 1b ef 83 be df b4 4f be 1d 73 38 bd b4 72 66 3d
       -0.2576836 -0.2028384 -0.045031656 0.056261733
0000b0 02 7b 40 3d b1 06 5c be d2 f3 b1 bd 07 0e 0c be
       0.04699231 -0.21486928 -0.08689083 -0.13677226
0000c0 08 0d 83 bd e8 ff 32 3c d3 a5 04 bd 86 57 94 bd
       -0.0639897 0.010925271 -0.032384705 -0.07243256
0000d0 f1 19 e3 bc 0c 0c df 3c fa e8 38 3d 5f 5f 5f be
       -0.02772233 0.027227424 0.04514406 -0.21813725
0000e0 d3 78 e3 bd 0f 83 c0 bd 38 40 36 bd 04 0d ef bd
       -0.1110703 -0.093999974 -0.044494838 -0.116724044
0000f0 64 fc 8a be 65 4e 57 be c5 91 29 be b5 d9 03 be
       -0.27145684 -0.21025999 -0.16559513 -0.12876017
000100 31 54 02 be f6 8c 23 be 76 47 21 bc 3f c4 8e 3d
       -0.12727429 -0.15971741 -0.009843698 0.06971025
000110 87 d1 81 bc 05 4f a2 3d 1b ff 43 be 82 bf a1 bd
       -0.01584698 0.07925228 -0.19140284 -0.07897855
000120 82 b0 85 bd b5 e3 f9 bb d9 8a 56 bd c1 d2 94 3e
       -0.06527807 -0.0076260217 -0.05237851 0.29067042
000130 83 b3 8a 3d 26 39 92 3b e1 a3 b3 3e cf 00 03 3b
       0.067725204 0.004462379 0.35085967 0.0019989496
000140 cc 40 ec 3b 40 00 c1 3c 74 3c cc bd 00 c4 38 3e
       0.007209873 0.02355969 -0.09972468 0.18043518
000150 90 2e 3b 3e 27 77 c4 bd a9 06 43 3d bf b9 fc bd
       0.18279481 -0.09593039 0.047613773 -0.12340116
000160 bd 8d 03 bd 09 92 8a 3e 72 a1 43 be 1f b8 51 3d
       -0.032117594 0.2706454 -0.19104555 0.051200982
000170 82 3c 94 bd 07 18 e1 bd ed aa fb 3d 67 76 84 be
       -0.072381034 -0.10990911 0.12288461 -0.25871584
000180 9c 98 86 bc a8 e9 ce bd 2b 88 02 be 4b f4 5a be
       -0.016430192 -0.1010316 -0.12747256 -0.21382253
000190 95 3d b3 bc 03 1b 58 bd 2a c8 f3 bd e3 7d 6a 3d
       -0.02187995 -0.052760135 -0.11903413 0.05724896
0001a0 67 45 96 3d 3a eb 94 bd c6 44 73 bd 1b 5d c4 bd
       0.07337456 -0.072714284 -0.05939176 -0.09588071
0001b0 13 a2 2f bd 40 e0 9c bd 81 e7 1c bc b3 ba 59 bd
       -0.042879175 -0.0765996 -0.009576679 -0.053156566
0001c0 ae 4f 3b 3c 24 64 bf bc e8 58 09 3c ae 48 55 bc
       0.011432571 -0.02336318 0.008383013 -0.0130178165
0001d0 33 7e 57 3c 63 c6 1d bc af a0 91 bc 23 45 29 3d
       0.013152647 -0.009629819 -0.017776815 0.0413257
0001e0 73 59 f9 3b 46 62 42 3d 83 b4 bd 3c 14 19 b2 3d
       0.00760954 0.047457002 0.023157364 0.086961895
0001f0 a9 f9 12 3e 91 a1 4e bd fc 01 96 bd c0 60 54 be
       0.1435305 -0.05044705 -0.07324597 -0.20740032
000200 7c da 64 bc d4 f6 dd bc 8f cf b2 bc 35 c5 6e bd
       -0.013968106 -0.027095236 -0.021827487 -0.05829354
000210 2e 70 ba bd 29 4d 51 bd e1 8c 22 bb 6c f8 24 3d
       -0.09103428 -0.051098976 -0.0024803209 0.040275976
000220 ab cb 57 3d 8c 87 37 be 37 02 3d be fb 98 de bc
       0.052684467 -0.17922801 -0.18457876 -0.027172556
000230 ad 16 3a bd 99 58 04 3e 29 6d a1 bd dd 66 12 be
       -0.04543178 0.12924422 -0.07882149 -0.14297052
000240 ab 77 e1 bd 79 38 cf 3d 70 9b 9c 3d cf 8b b0 3c
       -0.11009153 0.10118193 0.07646835 0.021551041
000250 2d 3e 84 bd e4 ed dd bd 04 e4 19 be a5 ab 08 bd
       -0.064571716 -0.1083639 -0.15028387 -0.033366818
000260 09 76 94 3d 1d 01 78 bd d0 b0 49 3d 1b f1 81 3c
       0.07249076 -0.060547937 0.049240887 0.015862038
000270 28 17 0a 3c bb 5e d6 bd eb 9e 9d 3c c4 0a 04 3e
       0.008428372 -0.10467287 0.019240817 0.12894732
000280 8a 05 e0 3e be d6 c3 bd 84 86 2a be ce c6 c4 bc
       0.43754226 -0.09562443 -0.16652876 -0.024020579
000290 e8 71 e7 bc 15 dc e1 3e ff f4 0f 3f 1d 37 ef 3d
       -0.028252557 0.44113222 0.5623321 0.11680434
0002a0 61 16 96 bd dc 30 0c be bf 88 91 be 95 f7 cd 3d
       -0.07328487 -0.13690513 -0.2842464 0.10056988
0002b0 2f ce b2 3e 89 99 3a 3e 5c 9d bd 3d 2b 10 a0 bd
       0.3492293 0.18222632 0.092585295 -0.07815584
0002c0 7b d0 53 be bb d3 e8 bd 43 0d a8 bd bb b8 94 bd
       -0.20684998 -0.113685094 -0.082056545 -0.07261797
0002d0 85 d9 7a 3d 61 2f 3d be 3e c6 7a be 94 03 d4 bd
       0.0612426 -0.18475105 -0.24489686 -0.10352245
0002e0 e9 59 93 3c 9c 7e 08 3b 75 b3 04 3c f7 10 82 be
       0.017987208 0.0020827418 0.0080994265 -0.25403568
0002f0 17 7f 18 be ca c5 a5 3d a7 62 22 3e b2 03 da 3d
       -0.14892231 0.08094366 0.15857945 0.10645236
000300 63 16 64 3c ed a6 de bd 1a 23 47 bd ce 1b 8d bc
       0.013921353 -0.10871682 -0.04861746 -0.017225172
000310 37 8a 2d 3e 62 6c 47 3e 5b 2b 81 3e 4d 78 1e 3e
       0.16947256 0.19474939 0.2522839 0.15475579
000320 f3 69 94 3d 3f 13 23 3e fc 59 b1 3d f1 31 24 3d
       0.07246771 0.1592531 0.08659741 0.04008669
000330 7e d7 f5 3d f3 a9 8f 3d fe 0d eb 3d fe 4b d6 3d
       0.120039925 0.07014837 0.11477278 0.10463713
000340 de 18 95 3c 3f ca c3 3b 0f ba e6 bc 6d a2 28 3e
       0.018200334 0.0059750373 -0.028164892 0.1646821
000350 7c f9 fd 3d 88 f9 16 bc 06 1c 04 be a4 4f e9 be
       0.12401101 -0.009214766 -0.12901315 -0.45568573
000360 c5 0d 67 3d 8b 16 98 3e e7 94 e4 3d c2 9c 8e be
       0.056409616 0.297047 0.11161213 -0.27853972
000370 1c 74 78 be db f5 63 be b4 99 b4 3d d5 21 00 3e
       -0.24263042 -0.22261755 0.08818379 0.12512906
000380 1e 1a 52 3e 2c 0d 29 bd 70 42 30 be 56 1f 00 be
       0.20517775 -0.041272327 -0.17212844 -0.12511954
000390 8e fb b5 3c 80 90 c0 3d d7 38 14 3d 2b c6 45 bd
       0.022214677 0.09402561 0.03618702 -0.04828469
0003a0 41 a2 5d bd 45 3c 04 3d 6a 66 79 bd e5 2a 8f bc
       -0.054109816 0.03228404 -0.060888685 -0.017476508
0003b0 a9 ad ed 3d 02 03 5a bd d7 e7 95 bd 9a 65 34 be
       0.11605389 -0.053225525 -0.073196106 -0.17616883
0003c0 5b da 8c be 40 04 bd bd b2 e4 11 3e 9f f6 08 3e
       -0.27510342 -0.09229326 0.14247397 0.13375328
0003d0 6b f3 72 3e 24 f2 97 be 40 14 e8 be 0e ac a8 be
       0.23725669 -0.29676926 -0.4532795 -0.32943767
0003e0 ff 97 0e be 13 a2 32 bd f0 de e6 bd 0a f2 91 bd
       -0.1392517 -0.043611597 -0.11272991 -0.071262434
0003f0 ed b4 d6 bd 76 bb 27 3d 21 b8 86 3d 15 99 b7 bd
       -0.104837276 0.04095026 0.065780886 -0.08964745

module.conv2.bias f4 [16]
000000 97 2d 52 3e 66 09 93 bf 29 48 3c bf 27 f8 f4 bb
       0.20525204 -1.1487243 -0.7354761 -0.007475871
000010 18 0d 25 3f 79 55 dc 3d 64 e1 df 3d 16 82 46 3f
       0.64473104 0.1075849 0.10931662 0.77542245
000020 3a 9e 44 be c4 1b ea bd 05 51 0e bf 7f 3b 88 3f
       -0.19200984 -0.11431077 -0.55592376 1.0643157
000030 a6 ab 86 3e 39 40 c2 be 98 7d 1c 3d a2 25 00 3f
       0.26302832 -0.37939623 0.038205713 0.50057423

module.fc1.weight f4 [120, 400]
000000 d2 b9 f0 3b 33 1c 7c bc dc 2c 97 bd 16 13 5d bc
       0.0073463703 -0.015387583 -0.07381603 -0.01349332
000010 32 c0 99 bd e7 11 b7 3d 0f 41 29 3d 35 9c 5e 3d
       -0.075073615 0.089389615 0.04132181 0.05434819
000020 ab 57 45 3b 08 2d 7d bc 16 9e ee 3b 7d 07 b8 3c
       0.0030112069 -0.015452631 0.007282029 0.022464508
000030 57 27 4b bc 97 e3 dd 3c d3 a8 0b 3d f8 b0 72 3b
       -0.012399516 0.027086062 0.03409655 0.003703175
000040 a4 6a 3f 3c 99 f0 bb bd 92 34 f1 3c 23 0a f0 bb
       0.01168314 -0.0917675 0.029444013 -0.007325427
000050 10 62 1b 3d 3e 36 82 3c 88 03 9f bd 71 10 50 bd
       0.037935317 0.015895005 -0.077643454 -0.05079693
000060 a0 e4 31 3d 86 53 c0 3d 13 77 c8 3c 15 f1 7e 3d
       0.043430924 0.09390931 0.024470842 0.062241632
000070 8a 2e a6 3d 84 8d ba 3d 18 82 83 3d a0 9d 8f 3d
       0.08114345 0.09109023 0.06421298 0.070124865
000080 d6 53 75 3d 05 ef b9 3d 01 e9 a7 3d 9e 1e 1b 3e
       0.059894405 0.090787925 0.08198739 0.15148398
000090 d1 43 8e bc bf 21 43 bb db d9 02 3d ce 69 35 3d
       -0.017366322 -0.0029774753 0.031946044 0.044290356
0000a0 b2 99 54 bb 77 97 1e bd 9c 1b 24 be a0 83 a4 bd
       -0.0032440242 -0.038718667 -0.16026157 -0.08032918
0000b0 bc 2d 3d 3c ff 52 3e be 54 11 58 bd 45 8f aa bd
       0.011546548 -0.18586348 -0.0527509 -0.08328108
0000c0 f6 0e d0 bd 61 7a 28 bc 93 45 05 3e 77 01 2f 3c
       -0.101591036 -0.010283084 0.13014822 0.010681502
0000d0 d0 67 3f 3c f3 00 56 3d 65 cd ae bd fd cc 00 3d
       0.011682466 0.052247 -0.0853527 0.031445492
0000e0 8c 40 3a bd 71 1c dd bc 6e b8 19 bc ef 77 23 bd
       -0.045471713 -0.026991101 -0.00938235 -0.0399093
0000f0 34 6e 8b bb 3d fe 9e 3c b0 28 3b bd 46 fc b4 bd
       -0.0042550806 0.01940834 -0.0456931 -0.0883718
000100 97 5f 90 bd 8a f8 a2 3d f3 2a 2c 3a f8 a2 6e bd
       -0.07049482 0.07957561 0.0006567679 -0.058260888
000110 2a a1 61 bd 48 24 02 bd 4d 1f eb bd 07 d8 9d 3a
       -0.05508534 -0.03177288 -0.114805795 0.001204253
000120 ae 4f 8d bd e6 e5 12 bd a4 43 aa bc bc 31 0c bd
       -0.06899963 -0.03586378 -0.020784207 -0.034227118
000130 18 1e 09 bd 06 56 8b bc ad ae 40 bc ff 70 76 bc
       -0.033475965 -0.017008793 -0.011760396 -0.015041589
000140 cc 7b 60 bc 23 71 34 bd 1c df a1 bc d4 29 a3 3a
       -0.0137013905 -0.044053208 -0.019759707 0.0012448379
000150 60 99 b8 3d 4d 21 90 bd 3b 03 48 bd 0f e9 a7 3c
       0.09013629 -0.070376016 -0.048831206 0.020496873
000160 63 b9 d1 ba e0 0d 2c 3d 7e 02 c8 bc c6 de 6f bd
       -0.0016000684 0.04200542 -0.02441525 -0.058562063
000170 98 27 e3 3c 8e 4c 3a bd 43 b3 3f 3d 78 fd 81 3d
       0.02772884 -0.045483164 0.046801817 0.063471735
000180 23 33 58 3d 14 19 0d 3d 10 c8 06 bd 5a c3 c5 3d
       0.052783143 0.034447744 -0.03290564 0.09656401
000190 4e f1 ac 3d 55 75 d1 3c 4c eb 8f 3d e4 a3 62 3d
       0.08444463 0.025568644 0.07027301 0.05533208
0001a0 20 9a 96 bb 48 dc 8f 3d ee 9c 64 3d 1a 5f 58 3d
       -0.00459601 0.07024437 0.055813722 0.05282507
0001b0 4e c0 85 3c f5 21 f7 bc 99 9c ac 3c ef 34 72 3d
       0.01632705 -0.03016756 0.021070765 0.059132513
0001c0 d2 23 d2 3d c6 5f 99 3d 50 c4 a4 bd 6d 28 ec 3b
       0.102607384 0.074889705 -0.08045256 0.0072069676
0001d0 95 77 d0 bb 15 00 1d 3d 5d 80 6b bc 29 e9 40 bc
       -0.0063619115 0.038330156 -0.014373866 -0.01177434
0001e0 83 fc 8f 3d c7 3f 3d bc 1c dd f5 bb ff 90 a1 bd
       0.07030585 -0.01155085 -0.007503165 -0.07888984
0001f0 14 75 9e bc 11 91 0f bd d7 c5 5b bd 02 f2 1f 3d
       -0.019342937 -0.035050455 -0.05365547 0.039049156
000200 7f 0c 38 3c 69 6c eb bd 62 0c 8f bd ba a6 40 bc
       0.011233448 -0.11495287 -0.06984784 -0.011758501
000210 90 a8 0b ba 82 b5 8d 3a b5 5d 96 bd e8 85 54 3d
       -0.0005327547 0.001081154 -0.07342092 0.051885515
000220 19 c8 93 3d 33 0f 6a bd fa cd 99 bd 05 fc dd bd
       0.072159 -0.0571434 -0.0750999 -0.108390845
000230 17 ca f8 bb c4 9f 10 bb 80 47 16 3d 0d 31 5f bc
       -0.0075924504 -0.0022067884 0.03668928 -0.013622534
000240 74 c9 db bc 24 92 9e bd 02 85 49 bd 0e 8b 94 bc
       -0.026829459 -0.07742718 -0.04919911 -0.018132713
000250 e3 b1 94 bc 23 03 db bc df ea b2 3b 9e 68 37 3c
       -0.01815123 -0.026734894 0.0054601277 0.011194376
000260 69 fb 25 bd 05 64 d0 bd ad b5 4f bd 0b 21 cc 3b
       -0.040522967 -0.10175327 -0.05071037 0.006229525
000270 60 c8 86 bd bf fe dc bb 75 ca 5b bd 93 3a c2 bb
       -0.06581187 -0.0067442353 -0.053659875 -0.0059273927
000280 28 77 da 3c 73 97 0b bd ea 6d 94 bd 51 11 92 bd
       0.026668146 -0.03407998 -0.07247527 -0.07132209
000290 89 af 13 bd 20 50 b1 bc d2 ab 71 bd aa 05 90 bd
       -0.036056075 -0.021644652 -0.05900175 -0.0703233
0002a0 1a 51 6a bd 2f bf 72 bd 1a 4b 49 bd 4d 71 68 bd
       -0.05720625 -0.059264358 -0.049143888 -0.056748677
0002b0 10 bd 06 bd 8b b5 c0 3c 61 3b 30 3d e0 fb 8e 3d
       -0.032895148 0.023524066 0.04302538 0.06981635
0002c0 81 01 70 bb cb d8 a3 3c 53 76 d6 3d 9f 19 08 3e
       -0.003662199 0.020000836 0.10471787 0.13291024
0002d0 8a d3 93 3c 68 b1 82 3d 1c e3 f2 3d 2e 3a ae 3d
       0.018045206 0.06381494 0.11859724 0.08507191
0002e0 ef 52 a9 3d 41 a9 bd bc 51 da 24 bc d9 0b d9 3b
       0.082677715 -0.023151996 -0.010061816 0.006623727
0002f0 a1 63 21 3c 63 4f b9 3d 7a f9 46 bd 46 3a 9c bb
       0.009850414 0.09048345 -0.048577763 -0.004767689
000300 ef eb 45 bb 18 93 ea 3c 1e 56 2f 3d 63 f2 31 3d
       -0.0030200442 0.028634593 0.042806737 0.04344405
000310 a5 be 31 bc 06 e2 d8 bc 46 c8 0e 3d dc fb 52 bc
       -0.010848676 -0.026474964 0.034858964 -0.012877431
000320 94 69 d2 bd bd 58 15 bc 0d cb ec bd 89 d3 08 be
       -0.10274044 -0.009115395 -0.11562166 -0.13361944
000330 3a b3 48 bd 5d 17 51 bd 57 7b e9 bc af 9d 54 3c
       -0.04899905 -0.05104767 -0.028501196 0.012977048
000340 d7 5b c2 bd 53 8b b2 3b 39 c5 9d 3c 54 11 c4 3c
       -0.09490173 0.0054487376 0.019259082 0.023934044
000350 ef ed 98 3c 53 c6 50 bd e1 45 82 3d 2f 4a 55 bd
       0.018668143 -0.050970387 0.063609846 -0.0520727
000360 c2 00 23 bd ec 13 95 3b e3 18 e6 bc 96 4b 98 3d
       -0.039795645 0.004549494 -0.028088039 0.07436292
000370 ca a8 f6 bd 0a 6c 45 bc a8 02 81 bd 3f 62 69 bd
       -0.12043913 -0.012049684 -0.06299335 -0.05697846
000380 9e f2 8d bd 83 31 d0 3c 63 71 1d bd d8 fc 91 bd
       -0.06931041 0.025414234 -0.038438212 -0.07128304
000390 76 15 ef bc 31 12 b8 bd 72 94 aa 3d 96 b4 79 3d
       -0.029185038 -0.08987845 0.08329095 0.060963236
0003a0 c5 f1 42 bc a2 e7 db 3c ec 1a f3 bd 17 ef 0d 3e
       -0.011898463 0.02684385 -0.11870369 0.13860737
0003b0 5b bd 22 3d 44 c5 55 3d 43 d6 94 3d 73 c3 32 bd
       0.039731365 0.05219008 0.0726743 -0.043643426
0003c0 b9 39 d9 3d 5c 1a f5 3d a3 ec 05 3d 95 5f a3 3d
       0.10606713 0.11967918 0.032696377 0.07977215
0003d0 22 4b 9c 3c e3 d8 c5 3d 14 83 70 bc 4d c8 9c 3d
       0.019078795 0.096605085 -0.014679689 0.07655392
0003e0 ff 34 00 3e 00 51 da bc f2 ed f0 bc 3d 24 0e bd
       0.12520216 -0.026649952 -0.029410336 -0.03470253
0003f0 27 93 22 bd 35 aa 90 bd 8f 6f cf bc e6 d3 43 bd
       -0.039691117 -0.070637144 -0.02532175 -0.047809504

module.fc1.bias f4 [120]
000000 a9 7b 33 3e 71 25 fa bd 95 6a 07 be 7f 15 07 bd
       0.17527641 -0.12214173 -0.13224252 -0.032979485
000010 3d 9e 53 be 5f ed 21 be 93 23 6f 3d ff ab 6c 3d
       -0.20665832 -0.15813206 0.058383536 0.057781216
000020 5b 4a 89 bd cf b6 65 bc 7d c7 02 3d ab 04 4a 3d
       -0.06703635 -0.014020636 0.031928528 0.049320858
000030 db 37 dd bd ec 3a a9 be 3c 35 75 3c 03 40 6e 3e
       -0.10801669 -0.33052766 0.014966305 0.23266606
000040 c7 ff 15 3d b7 6b cd 3d e4 72 13 3e ea 93 1f 3d
       0.03662088 0.100303106 0.14399296 0.03895942
000050 88 4c 58 3d 0f c9 d0 3c 34 07 c4 bd 85 c5 2a bc
       0.05280736 0.025486497 -0.095716864 -0.010423069
000060 1b 2f a3 bd 74 f8 52 bd 1b 84 9a bd 59 5b 21 3e
       -0.07967969 -0.051506475 -0.07544728 0.15757503
000070 7b 95 8f 3e 2e de 77 3d a7 9d 27 bb 82 17 fe bc
       0.28043732 0.06051462 -0.0025576146 -0.031017069
000080 dc 1e 43 3d a0 43 03 be f5 26 11 3d 63 f3 75 3e
       0.04763685 -0.12818766 0.035437543 0.24018626
000090 14 c5 11 3e a9 9d 97 3d 0a d2 dd 3c bb 9a 58 3e
       0.14235336 0.07403118 0.027077693 0.21152775
0000a0 9b 79 d2 3d a7 7f fd 3d 3d da 15 be 16 29 05 3e
       0.10277101 0.123778634 -0.14634033 0.13003954
0000b0 2a 68 42 3e d1 95 b0 3e 54 3d 7c bc 7e 00 3b 3e
       0.18985048 0.344893 -0.015395481 0.18261907
0000c0 9f 86 cf 3c 28 17 ef 3d e4 b9 8d 3e 34 a3 7b bd
       0.025332747 0.116743386 0.27680886 -0.06143494
0000d0 11 b9 c1 3d e3 23 5a 3c 69 cb 24 3e 79 c3 47 3b
       0.09459127 0.01331422 0.1609322 0.00304815
0000e0 a0 25 cb bd d2 9e 6e 3d 61 93 84 3d 27 d0 81 3d
       -0.09919286 0.05825693 0.06473423 0.0633853
0000f0 3d 63 b6 3e 97 44 33 3a 38 89 34 3e a6 a7 43 3d
       0.35622588 0.0006838529 0.1763047 0.047767304
000100 9d b6 27 3d 3a 71 11 bd 86 20 5f be 1c a2 88 be
       0.040945638 -0.035508372 -0.2178975 -0.2668618
000110 47 6c 42 3d cf 73 6d 3d 24 93 11 3e 79 04 62 bd
       0.047466543 0.05797177 0.14216286 -0.055180047
000120 7d 55 13 bc a4 fc af bc fa a1 45 bd 41 70 7e bd
       -0.00899255 -0.021482773 -0.048250176 -0.062118772
000130 ee 83 aa 3d 83 d6 ea 3d cc e7 9e 3d a6 95 ff bc
       0.08325945 0.11466696 0.077590555 -0.031199288
000140 3b a3 e4 bd 7e 7a bf 3d ed c6 46 3d a7 f8 a0 3d
       -0.11163946 0.093495354 0.048529554 0.07859927
000150 f4 9c d3 3d 86 c8 c1 3e 6c 73 0d 3e 03 0d cb bd
       0.10332671 0.378483 0.13813561 -0.09914591
000160 ab 79 8f be 39 b8 25 3e fe 92 21 bd 48 2b 2e 3e
       -0.28022513 0.16183557 -0.039446823 0.17008698
000170 7a b3 56 3d 8f 4b 02 bc a9 40 ee bd 73 cb 6a 3e
       0.052417256 -0.007952585 -0.11633427 0.22929172
000180 14 2c 86 3d a3 33 2a 3e 3b 70 0a 3e 05 be b3 bd
       0.06551376 0.1662126 0.13519375 -0.08776478
000190 5e 0c 22 bd f7 82 1f bd e7 08 a2 bc 7d 17 8a bc
       -0.039562576 -0.038943257 -0.019779636 -0.016856903
0001a0 1a 23 5e 3e 6e 0a 7b be fd c8 eb bc ba ec b2 bd
       0.21693078 -0.24515697 -0.028782362 -0.08736558
0001b0 ce 44 e1 bd 84 ed 4a 3e 78 1d 29 bd c5 99 59 bd
       -0.109994516 0.19817168 -0.04128787 -0.05312516
0001c0 47 7b 20 3d 12 4f cc bc 7e e6 d6 3c 32 af ab 3d
       0.039180066 -0.024940047 0.026232954 0.08383025
0001d0 ad 36 8f bd f0 73 75 bc 6d da a0 3d d7 73 6d 3e
       -0.069928505 -0.014981255 0.078541614 0.2318872

module.fc2.weight f4 [84, 120]
000000 26 cc 25 be 4f fa 97 bc d2 38 b4 bc c4 12 0a 3c
       -0.16191158 -0.018551974 -0.02199975 0.008427326
000010 9f a5 2b be 76 2a d3 3c ca 95 a2 3c b3 5c b8 3d
       -0.16762398 0.025777083 0.019846816 0.09002056
000020 f6 ba 09 3e 6e df 9e bd 54 23 98 39 c7 b4 7b 3d
       0.13450226 -0.077574596 0.0002901802 0.0614517
000030 67 8a ed 3c 25 02 44 3d ce d3 86 bd ea 77 ca bd
       0.02899666 0.047853608 -0.06583367 -0.09886153
000040 5e 9c db 3d 33 2c 40 3b 10 81 88 bc a9 90 9a 3d
       0.10723184 0.002932322 -0.016663104 0.07547123
000050 ea e8 bf bd 0b e3 83 3d 97 45 07 3d 9a 10 90 3b
       -0.09370597 0.064397894 0.03302535 0.0043965103
000060 6d d4 c4 3d bc 7f 48 3c 41 35 1d 3e 90 64 01 be
       0.096108295 0.0122374855 0.15352346 -0.12636018
000070 30 ca 16 bd 3a f7 42 bd 92 2b 57 3c 85 2d 71 3c
       -0.036813915 -0.047599055 0.013132947 0.014720325
000080 e9 4e cc bd ef 58 5d bb 26 03 35 3d 7d f1 90 bd
       -0.099759884 -0.0033774932 0.044192456 -0.0707731
000090 56 fa a3 3d cf ba a4 3d d9 e9 9f bd 00 7a c8 bd
       0.08006732 0.080434434 -0.07808275 -0.09788895
0000a0 8b 54 18 bb 57 60 cf 3d 20 f2 24 bd ca bc c0 39
       -0.002324375 0.10125797 -0.04026997 0.00036761753
0000b0 f4 f4 09 bd c8 f7 b1 bd 36 3a 94 bd 3b f8 04 3e
       -0.03368087 -0.08689839 -0.07237665 0.12985317
0000c0 59 70 a3 3c bb 39 13 bd 91 3f 4c 3d da 7d 0e bd
       0.019951032 -0.035943728 0.04986531 -0.03478799
0000d0 e3 ef 4e be ee 98 10 be 0b 3e 61 3d 82 90 c9 3d
       -0.20208697 -0.14120838 0.05499081 0.09842016
0000e0 f8 1e a1 3d 7e 88 be bd a6 5f c6 bc 01 60 c2 bd
       0.07867235 -0.093033776 -0.02421553 -0.094909675
0000f0 5f fc c4 bc a9 c8 93 3d a6 f2 f4 bd a8 94 f9 bc
       -0.024046121 0.07216007 -0.11960344 -0.030466393
000100 fd 7e 28 3d d3 39 ba 3d d3 40 3a 3d d7 70 56 3d
       0.04113673 0.0909306 0.045471977 0.052353706
000110 ed 05 4e bd 28 04 ee 3d c5 10 d3 bd 53 14 f8 bc
       -0.05029862 0.116218865 -0.10305933 -0.030283129
000120 bf d8 5e 3d 6a ab ab 3d 1a 9b 39 3d c2 e6 f1 3d
       0.054405924 0.08382304 0.045313932 0.11811592
000130 fa b5 ab bd d3 18 a4 bd 9c 34 b1 bd c4 d6 38 bd
       -0.08384319 -0.08012547 -0.086526126 -0.04512669
000140 2f 3a a9 bd 43 a0 eb bd ce a1 65 3c 7f 16 10 3c
       -0.08263051 -0.11505177 0.014015628 0.008794426
000150 72 d5 6d bd 29 b7 94 bd 21 cf 0c 3e c8 03 55 bc
       -0.058064885 -0.072614975 0.13750888 -0.01300139
000160 23 49 f3 3c bc b6 b3 bd 93 b5 84 bd 49 a8 6c 3c
       0.02969796 -0.08775088 -0.06479945 0.014444419
000170 fc a8 eb bd 33 62 04 3d d5 a6 04 bd 79 f0 85 bd
       -0.115068406 0.032320213 -0.032385666 -0.06540007
000180 58 4c 60 bb 5c 17 17 bc ed d9 96 bd 3e 07 83 3b
       -0.0034225192 -0.009221878 -0.07365785 0.003998666
000190 d9 02 3a bd 6f 30 08 3d 0e 77 3c bd ac d9 49 3c
       -0.045412872 0.033249315 -0.046011977 0.012319963
0001a0 21 76 13 be 29 71 b8 bb ff 97 a2 bc 87 70 a4 3d
       -0.14400531 -0.005628724 -0.019847868 0.080292754
0001b0 bf 9c c3 3d 2b c3 31 3c 16 ab 93 bd 0e e3 0e 3c
       0.09551381 0.010849754 -0.072103664 0.008721126
0001c0 90 ee 34 bb 20 b9 b8 bd d3 43 d9 3c 2a 80 83 3d
       -0.0027608015 -0.09019685 0.026521599 0.0642093
0001d0 45 02 87 3b 29 5a ad 3d 29 cd f3 bc 15 e6 8c bd
       0.0041201436 0.08464462 -0.029760914 -0.06879822
0001e0 47 fa 46 3e 25 0a 00 3e e2 23 07 3d b8 45 14 be
       0.1943141 0.1250387 0.032993205 -0.1447972
0001f0 86 07 dc 3d e7 95 ed bd 4f f8 19 3e 78 60 e4 bd
       0.107436225 -0.11600857 0.15036128 -0.111512125
000200 28 b7 42 3d 50 65 9a bc 19 3f 5f bd 02 ba 22 3e
       0.047537953 -0.018847138 -0.054503534 0.15891269
000210 61 e1 63 bd c6 b0 be 3d 17 c9 40 3d 41 e0 97 3d
       -0.05563486 0.093110606 0.047066774 0.0741582
000220 10 0f 37 3d d1 45 2e bd 1e 4c 7f 3b e3 07 26 3b
       0.0446921 -0.04254705 0.0038955281 0.002533429
000230 c2 b7 ff bd d8 7d c8 bd 87 32 cf bc 8b b3 07 bb
       -0.12486221 -0.09789628 -0.025292648 -0.0020706381
000240 7a f4 26 3c b4 ff e0 bd f6 78 1a 3e 76 cd 8d bd
       0.010190124 -0.109862715 0.15085205 -0.06923954
000250 13 81 01 3e c2 7b 87 3c 0e 16 bc bd 1b 29 ae bd
       0.12646894 0.016538505 -0.09183894 -0.08503934
000260 92 36 07 be 05 c5 a6 3d d1 5f 15 3d aa 60 73 3c
       -0.1320441 0.08143047 0.03646833 0.0148545895
000270 76 60 cb 3d 8f 6f 2c be c5 49 52 bd 9c a4 1a be
       0.09930508 -0.16839431 -0.051339883 -0.15101856
000280 84 21 d7 ba 41 81 50 3e 22 33 2e be 97 09 ba 3d
       -0.0016413187 0.20361806 -0.17011693 0.0908386
000290 2f d0 53 3d cf 9e 70 3d 03 17 ec 3c 8e 25 3a 3d
       0.05171221 0.0587452 0.028819567 0.04544597
0002a0 2f b8 37 3c 6b 2a 96 3d a6 a4 73 3d e2 cc fc bd
       0.011213346 0.07332309 0.059483193 -0.12343766
0002b0 88 86 ef 3b 8c b7 25 3d e0 2a e5 bd a1 4a 41 bc
       0.0073097385 0.040458247 -0.111898184 -0.011797578
0002c0 81 98 37 bd a8 f5 55 be 8c 01 d8 bd 04 cc 2e bd
       -0.044823173 -0.20894492 -0.1054717 -0.042675033
0002d0 de 8d b1 3c ce bf 5a bd 96 ab ec bd 41 a2 cf 3c
       0.021674093 -0.053405575 -0.11556165 0.025345923
0002e0 62 61 a4 bd 83 d4 83 3d 9b eb 59 3e 00 53 78 bd
       -0.08026387 0.06437018 0.21281283 -0.06062603
0002f0 d2 cc 2d 3c 9c a1 86 3e af 2b cf 3d 95 15 05 3e
       0.010607915 0.26295173 0.10115754 0.12996514
000300 46 14 53 bd 72 97 09 be cc 9f f0 3b ac cb b0 3c
       -0.051533006 -0.13436678 0.007343268 0.021581493
000310 17 6d d9 bd d6 a9 85 3d 31 2b 54 be f6 c7 24 3c
       -0.1061651 0.06526534 -0.20719601 0.01005744
000320 95 82 35 3b e7 d9 56 bd b1 d6 16 be c4 42 9f bd
       0.002769624 -0.0524539 -0.14730336 -0.077764064
000330 11 af bc 3d 70 59 01 3d 07 75 af bc 0a 07 e4 bb
       0.09213079 0.031579435 -0.021418108 -0.006958847
000340 5f 9f 1a bd 60 64 53 3e 41 73 ec bc b5 6c 16 be
       -0.037749644 0.20643759 -0.028863551 -0.14689906
000350 38 ea b9 3d 3b 36 5f 3c 97 f8 93 bd d1 4f 00 be
       0.09077877 0.013623769 -0.07225149 -0.12530448
000360 d9 b4 d2 bd e5 68 9b 3c 97 d1 35 be ba 75 0a 3e
       -0.102884 0.018970916 -0.17755733 0.13521472
000370 be d7 fd 3c c2 30 d2 bd 69 b7 19 bd 3c b9 fd bd
       0.030986663 -0.10263206 -0.03752843 -0.12388846
000380 6f 4a 25 be a1 bc 9d bc 2f e9 7f bd de 73 95 bd
       -0.16141675 -0.019254984 -0.06247824 -0.072974905
000390 a9 24 4c 3d 49 6e cc bd 1c 1e 05 3d ca f3 b8 3c
       0.04983965 -0.09981973 0.032499418 0.022577185
0003a0 ad 70 86 3d 37 d9 73 3d f6 6a af bc 10 55 b3 3c
       0.0656446 0.059533324 -0.021413308 0.021891147
0003b0 e8 e4 35 bd 78 82 10 3d cb 0c b1 3c c9 8c db bd
       -0.044407755 0.035280675 0.021612545 -0.10720212
0003c0 fc 5c 84 bc 0d e5 87 3b de 8b 2e be be b0 90 3c
       -0.01615762 0.004147178 -0.17045543 0.017662402
0003d0 e9 83 3d bd 37 7c 95 bd 4d 18 97 3d 94 14 0d 3d
       -0.046268377 -0.07299083 0.07377682 0.034443453
0003e0 87 9c b7 bd 1d 54 a9 3d 73 95 37 bd 31 ad c9 3c
       -0.08965402 0.082679965 -0.04482026 0.024618717
0003f0 80 4f 39 3b 0f 09 7e bc cd 94 14 bd 28 0f ed 3d
       0.0028276145 -0.015505089 -0.03627472 0.115751565

module.fc2.bias f4 [84]
000000 0a be de bd 39 14 8e bc f4 f0 0b 3f 11 a9 27 3c
       -0.10876091 -0.017343627 0.5466454 0.01023318
000010 5e f1 f5 bc d3 98 d4 3e 6c a0 16 3d d4 96 23 3b
       -0.03002232 0.41522846 0.036774084 0.0024961727
000020 0a 49 ab 3c 97 7c 94 3e 7a 73 23 3f 7e d6 39 3d
       0.020908851 0.29001305 0.6384808 0.04537057
000030 fc f6 ce bd 9f 2e 5e 3d ad 15 0e bc f4 77 d0 3c
       -0.10105702 0.05424368 -0.00867216 0.025447823
000040 be 4d b9 3d 6e 55 04 3f 2e 69 51 3e d3 03 22 bc
       0.09048031 0.51692855 0.20450279 -0.009888607
000050 7f 1b 22 bd 04 30 67 3d b0 4f c6 3e 36 b8 21 3e
       -0.039577004 0.056442276 0.38732672 0.15792927
000060 58 96 0a 3e 5b df 20 3d bd 42 77 3e 88 67 4c 3e
       0.13533914 0.03927551 0.24146552 0.19961369
000070 89 36 03 3d 22 40 40 3e 49 7a c8 bb 0e f5 99 bc
       0.03203443 0.18774465 -0.006118093 -0.018793609
000080 af 1e 9f bd 8a 47 86 be e9 fd b4 be c3 6b ce bd
       -0.07769524 -0.26226455 -0.35349968 -0.10079148
000090 bc e0 7e 3e 4f 3f 7e 3e 1c 2c e3 3c bb ae a7 bd
       0.24890417 0.24828838 0.027730994 -0.08187624
0000a0 df d0 de 3d 39 fa 99 3d 50 33 ea 3e bb 2b 8d bd
       0.10879683 0.07518429 0.45742273 -0.068931065
0000b0 2d 46 05 3e c4 13 6b 3e 52 a6 7c bd c0 cc 1b 3c
       0.13015051 0.22956759 -0.061682053 0.009509265
0000c0 b3 79 46 bd ee dc 17 bd cb a0 d0 3e 9f 3a 7e 3d
       -0.048455905 -0.03707593 0.40747675 0.062067624
0000d0 b1 48 8e 3e 06 6e 4b 3e 4d cd d9 3d 08 dc b7 bd
       0.27789834 0.1986619 0.10634861 -0.089775145
0000e0 03 85 01 3f 2b ab f3 3d 74 a9 78 3e 63 5a 33 bd
       0.50593585 0.11897882 0.24283391 -0.04378737
0000f0 6b aa cf bd 57 1f 02 be 0c 6b c0 3d 92 bf 89 bd
       -0.101399265 -0.12707268 0.093954176 -0.06725992
000100 08 cc 37 3c ab da 45 3d b1 3e 9e bd d0 2d 00 3e
       0.011218078 0.04830424 -0.07726801 0.12517476
000110 d6 c0 8f bc 7a c5 20 3e 80 0f 25 3d 10 1c cd 3d
       -0.017548006 0.15700331 0.040297985 0.10015118
000120 49 6f 82 bb 4f 54 60 3e b7 be 26 bd c9 25 95 bd
       -0.0039805514 0.21907161 -0.040709224 -0.072825976
000130 42 bb 36 3e b1 db 82 3e 1d c1 27 3d ed 2f e7 3d
       0.1784487 0.25558236 0.04095565 0.11288438
000140 1b 7d 15 3e 79 1b f5 3c 93 55 02 3f 25 8a 80 bb
       0.14598505 0.029920327 0.50911826 -0.003922718

module.fc3.weight f4 [10, 84]
000000 fa ae 80 bd 4b 02 20 3e 7a 2b bd be 14 d5 01 bd
       -0.06283374 0.15625875 -0.36947232 -0.031697348
000010 3b 61 88 bd 1d bb 85 3c 7a 93 2b be 04 45 f1 bd
       -0.0665917 0.016324574 -0.16755477 -0.11780742
000020 f8 fa 3c 3d ba a6 ab 3d 5d 12 a1 be b6 a4 19 3d
       0.04613778 0.0838141 -0.31459323 0.037510596
000030 04 06 83 be 61 00 de 3d b8 db 49 3e ad 80 11 be
       -0.25590527 0.10839916 0.19712722 -0.14209242
000040 96 04 32 3e 16 ca 13 3e 82 f1 93 be 1d 90 ef 3d
       0.17384562 0.14432558 -0.28895193 0.11697409
000050 32 3f 38 3d 16 74 04 3e 85 08 b9 3c ce ca 2b 3e
       0.044982143 0.12934908 0.02258707 0.16776583
000060 e4 b1 99 3d 86 57 94 3d 84 b6 21 3c ff ac 25 3e
       0.07504633 0.07243256 0.009870175 0.16179274
000070 ad fd 2f 3d 2d 34 64 3e 44 25 e3 3d e7 14 01 be
       0.042966533 0.22285528 0.11091092 -0.1260563
000080 f4 3f 82 3e f8 0a 72 3e 8d 02 0e 3e 08 b8 42 bd
       0.25439417 0.23636997 0.1386816 -0.047538787
000090 99 8e 4d 3e 74 50 23 3e dc 44 73 bd 44 17 93 bc
       0.20073928 0.15948659 -0.05939184 -0.01795543
0000a0 ba 62 6d 3c 9e 0e 86 3e a9 c9 cc 3c 6d 07 1d bd
       0.01448887 0.26183027 0.024998503 -0.03833716
0000b0 f4 a9 1c be 62 12 23 be 1e e5 dc bd 79 96 b0 3d
       -0.15299207 -0.15924981 -0.10785888 0.086224504
0000c0 ff c1 8c 3d 31 08 f6 bd 18 5b 1b be 88 74 b5 3d
       0.06872939 -0.12013281 -0.15171468 0.08860117
0000d0 6f 99 8d 3e d7 03 74 bd 5f de 0a be eb 55 9d bc
       0.27656123 -0.059573974 -0.1356139 -0.019206008
0000e0 ca 21 b1 be 81 f2 55 3e 07 c3 93 be 20 fb 85 3d
       -0.34596092 0.20893289 -0.28859732 0.06542039
0000f0 a1 e1 4e bc ac 1c e1 3c bf 71 99 bc 00 f6 b4 3d
       -0.012627036 0.027479492 -0.018730996 0.08835983
000100 d1 62 07 be a8 e8 2d bd b3 2b 38 be 9d 95 ff bd
       -0.13221289 -0.042458206 -0.1798542 -0.12479708
000110 1c 61 96 3d da 16 a6 3b 7a e0 6b bb 89 74 e0 3d
       0.07342741 0.005068642 -0.0035991953 0.10959727
000120 7c dd df bd b4 36 b3 bd 58 95 d1 3d dd 52 c1 3d
       -0.10930917 -0.08750668 0.10233563 0.09439633
000130 48 af f3 bd bc d7 96 be 91 94 7b 3c 94 87 0e 3e
       -0.118986666 -0.29461467 0.015355245 0.13918906
000140 20 5d f6 bd a5 fd 43 bd 59 b8 9f 3e 94 58 99 bd
       -0.12029481 -0.047849316 0.31195334 -0.07487598
000150 46 13 32 3e da 17 bf 3d 1d 68 d6 be f6 e6 f7 bb
       0.17390165 0.09330721 -0.41876307 -0.0075653745
000160 06 d1 a3 bb 81 45 17 bc eb 1b 73 3e af 1c 2e 3d
       -0.004999283 -0.00923288 0.23741119 0.042507824
000170 d4 76 fb 3d 8c 89 da 3d 1a cf 9b bd 86 bf 36 3e
       0.12278524 0.10670766 -0.07607861 0.17846498
000180 b8 55 7a 3e fb 8e 20 3d 2c 2a 21 3e 26 80 fb bd
       0.24446762 0.039198857 0.15738744 -0.12280302
000190 e9 b9 5e be 10 23 44 be be 27 d9 bd a5 73 f1 3e
       -0.21750607 -0.19154 -0.10603283 0.47158542
0001a0 11 c6 35 3e a7 ce 3d 3e 2a 05 8a be 31 b7 fd bd
       0.17751338 0.18535863 -0.26957065 -0.123884566
0001b0 81 d1 27 be 05 6e 31 3e a7 99 65 be d5 00 7b be
       -0.16388513 0.17327125 -0.22421895 -0.24512036
0001c0 68 32 69 3d de 59 34 bd e8 ca 8e 3c d1 0d fd ba
       0.056932837 -0.044031017 0.017430738 -0.0019306486
0001d0 99 b4 ca bd 10 72 3d 3e 9d 4b a7 3e b0 02 e5 3d
       -0.098977275 0.18500543 0.32674876 0.11182153
0001e0 f6 69 0e be 8f 48 b6 bc e4 a2 d0 3c 6a 9d a0 3c
       -0.13907608 -0.022251396 0.025468297 0.01960631
0001f0 f7 e0 88 bc e5 8b 36 be 41 fd ce bd 83 31 1f 3e
       -0.016708834 -0.17826803 -0.10106898 0.15546231
000200 37 ff 98 bd 28 09 3a 3d a6 03 13 be 03 3e 4e 3e
       -0.07470553 0.04541889 -0.1435686 0.20140843
000210 d6 9a 0a bc 5b 69 36 3c 1e 59 52 be 45 f3 9e 3d
       -0.008459767 0.011133517 -0.20541808 0.07761244
000220 b9 45 82 3d 0f 9d f0 bd 8a 08 18 3c af 10 a6 bd
       0.06360955 -0.117487065 0.00927938 -0.08108651
000230 98 52 30 be be 55 14 be 97 85 9d bd 1a 9c 04 be
       -0.17219007 -0.14485833 -0.07691496 -0.12950173
000240 aa 31 64 3d 6d 36 3e 3a c3 20 b8 3d 06 73 11 3e
       0.055711426 0.0007256035 0.08990624 0.14204034
000250 b9 02 8b 3e fb 29 50 bd 3f 51 12 3e e7 b5 18 3c
       0.27150515 -0.050821286 0.14288805 0.009320713
000260 fc a7 1f be 6c 30 87 bd 42 7f 93 3d 52 74 3f 3c
       -0.15591425 -0.066010326 0.07202007 0.011685448
000270 a8 de ea 3d 00 7c 36 be 8c 08 a4 3d 89 47 29 be
       0.114682496 -0.1782074 0.08009443 -0.16531195
000280 3d c8 56 bd a3 fc 98 bd a4 d2 b0 bd d4 0e 74 be
       -0.052437056 -0.07470062 -0.086339265 -0.23833781
000290 a4 72 f1 bd db 39 a5 3d 6c 6c fb bc 90 09 a6 3d
       -0.11789444 0.08067676 -0.030691348 0.08107293
0002a0 95 5a e0 3d 5d b5 1e bd a3 48 56 3e f1 4a 32 be
       0.10954777 -0.03874718 0.20926146 -0.174114
0002b0 2c bf 91 bd 75 90 25 be a1 4d ed bd de 32 74 3d
       -0.07116541 -0.16168387 -0.11587072 0.059618823
0002c0 3f ca e0 bd 33 9b d8 bd 0a 69 8b 3e f8 12 0a 3c
       -0.109760754 -0.10576477 0.27228576 0.008427374
0002d0 dd 81 f3 ba c4 fd db bd 98 99 60 3d b1 6a 3a be
       -0.0018578131 -0.10741761 0.05483398 -0.18204762
0002e0 42 c3 3f 3e 1f 30 85 3e de 2b 28 3e 54 49 37 be
       0.18726829 0.26013276 0.16422984 -0.17899066
0002f0 fa fa e3 bd a6 9a 70 be cb db f3 3d 81 6a 01 3e
       -0.11131854 -0.23496494 0.119071566 0.12638284
000300 15 84 0c 3c 2e 03 0d be 56 9b 61 3e cd 33 c2 bd
       0.008576413 -0.13770744 0.22031912 -0.094825365
000310 fa d6 14 bd 30 9e fc bc 48 0e e0 bb 7c 40 8a bd
       -0.03633783 -0.030837148 -0.00683764 -0.06750581
000320 dc 2f 10 bd cd c1 f1 bd e2 a5 bf bc 8b 3d 47 bd
       -0.035201892 -0.11804543 -0.023394529 -0.048642676
000330 96 d5 a5 3c f4 82 04 3e 01 1f 95 bd a2 3f 8f bc
       0.020243447 0.1294058 -0.07281304 -0.017486397
000340 51 fe 11 bd d0 9d 53 bd ed ab 01 3e 70 70 03 be
       -0.035642926 -0.051664174 0.1266324 -0.1283586
000350 6e 6d 8a 3e a6 84 34 be 37 b9 25 3d 7e 85 c6 bd
       0.27036613 -0.17628726 0.040459838 -0.0969343
000360 64 c8 15 bd 7c d7 4a bd e2 98 fa 3d d8 60 01 3e
       -0.03656806 -0.04952191 0.12236191 0.12634599
000370 a8 54 1c 3e ca 13 10 3d aa 42 cc 3d 03 e3 58 bc
       0.15266669 0.035175122 0.09973653 -0.013237718
000380 36 9f c4 b9 46 4b 6a 3e 70 1c 5f bd e8 ae 17 3b
       -0.00037502655 0.22880277 -0.05447048 0.0023145024
000390 0a df 31 bd 67 b0 65 3e c1 b1 ff 3d 2b 15 67 3d
       -0.043425597 0.22430573 0.12485076 0.05641667
0003a0 35 49 12 3d a3 b4 4b 3d b2 b5 1d bd b8 90 67 be
       0.035714347 0.049732815 -0.038503356 -0.226138
0003b0 6c 5c 22 be cc 87 e1 3b be 6a 32 bd d0 f9 82 3e
       -0.15855569 0.0068826433 -0.04355883 0.25581217
0003c0 48 71 06 be 22 47 34 3d 02 f2 b4 3c b7 fd 33 bc
       -0.13129151 0.04401315 0.022088055 -0.010985783
0003d0 36 4c 6a 3e cf 5e ca bc d6 b4 6c bd 03 29 5a 3e
       0.22880635 -0.024703411 -0.057789646 0.21304707
0003e0 eb 01 88 3c 73 fe bb 3d f9 ec 37 bc 7e 28 64 3e
       0.016602477 0.09179392 -0.011225932 0.22281072
0003f0 46 e9 13 be 83 c9 ca 3d 0c f2 63 3e af 53 2a 3d
       -0.14444456 0.099017166 0.22260302 0.041583713

module.fc3.bias f4 [10]
000000 c0 28 5c be ec 89 46 bf d9 49 ce 3d e8 31 b7 3e
       -0.2149992 -0.775542 0.10072679 0.35780263
000010 5c 1b 19 3f a7 eb 70 be b7 f6 53 3d e7 a9 c1 be
       0.5980737 -0.23527394 0.051748957 -0.37824938
000020 a1 a6 05 3f 0f 5b c6 be
       0.5220738 -0.38741347
