models/classifier_net_epoch_6_6000.pth (torch_old, 249853 bytes, 10 tensors)

module.conv1.weight f4 [6, 3, 5, 5]
000000 08 a9 89 3d 7b 4c ad 3e b4 d1 cd 3e 85 a6 05 3f
       0.06721693 0.33847412 0.40199053 0.52207214
000010 2e 71 63 3e 71 ad 9a 3d 38 9d 9a be 54 cb d8 3d
       0.22211143 0.075526126 -0.30198073 0.10585657
000020 80 c8 60 3f b0 a4 a7 3d dc 68 8d 3e 8d ed 95 be
       0.8780594 0.081857085 0.27619064 -0.292828
000030 99 89 80 bf 70 a5 4f 3f 02 1e 7f 3e 7f c1 00 3d
       -1.0041991 0.8111181 0.24913791 0.031434532
000040 25 2c 50 3d 32 63 57 bf 8e d8 92 3d 43 ab 28 be
       0.05082335 -0.84135735 0.07170211 -0.16471581
000050 2e 50 3d be e1 94 53 bc fa 7c 1c bf 8e 3f c4 3d
       -0.18487617 -0.0129139135 -0.611282 0.095824346
000060 68 16 b5 be 14 69 9f bd f0 04 cb be 33 78 22 bf
       -0.35368657 -0.07783714 -0.39652205 -0.6346466
000070 64 13 7c be 3b 96 f5 be 0a 07 ce 3e e1 37 2d bf
       -0.24616772 -0.4796618 0.40239745 -0.6766339
000080 9c d3 3e bf 22 26 ab 3e f8 0c 85 be 9e 16 45 3f
       -0.7454164 0.3342753 -0.25986457 0.76987636
000090 f4 1c 9a be ce 51 a4 bf 25 84 29 3f 33 31 16 3e
       -0.30100214 -1.2837465 0.6621726 0.14667206
0000a0 b4 b5 04 3f 5c 27 af 3e 1d a0 7b bf 16 3d 7c 3e
       0.51839757 0.34209716 -0.9829119 0.24632677
0000b0 a4 cd 47 be b2 65 fa 3e 1b b2 28 3e 5a ba ae be
       -0.1951204 0.48905712 0.16474192 -0.3412655
0000c0 00 ab f6 3e 7e 46 b3 bd c3 c3 1a bd f6 78 d0 39
       0.48177338 -0.0875368 -0.03778435 0.00039762974
0000d0 0e ec ec bb 31 f7 47 3e df 1a 58 be 28 6f b6 3e
       -0.0072302883 0.1952789 -0.21104 0.3563168
0000e0 85 36 ce be 28 eb 8c be ce 70 20 3f 14 35 00 bf
       -0.4027597 -0.2752316 0.62672126 -0.5008099
0000f0 4a 20 3a 3f 61 cb 4c be 48 60 63 bf fc 71 29 3f
       0.7270552 -0.19999458 -0.8881879 0.6618955
000100 85 58 24 be 4f 3c 11 3f fd 48 07 3f fd 7c 2b bf
       -0.16049393 0.5673265 0.52845746 -0.6698759
000110 0b 12 41 3e da 00 a5 be a5 06 cd 3e 95 7d c0 3e
       0.18854539 -0.32227212 0.40044132 0.3759581
000120 f5 b0 83 be 49 c3 6e 3e e7 f0 b9 be 94 6c 3b be
       -0.25720945 0.23316683 -0.36316606 -0.18303138
000130 33 f9 81 3e 4f 40 63 3e ed 9f 72 3e 14 ad 4a 3d
       0.25385436 0.221925 0.2369382 0.049481466
000140 34 de d7 bd b7 af 03 3f b3 1d 1c 3e 74 de f9 bd
       -0.10540429 0.51439995 0.15245704 -0.12200633
000150 71 c2 11 be 41 f6 4e 3e 66 80 67 bd 35 02 16 bf
       -0.1423433 0.20211126 -0.056518935 -0.5859712
000160 02 e2 f9 be 33 f5 79 be ed 5d 3e be 70 4f 35 bf
       -0.48805243 -0.24409942 -0.18590517 -0.70824337
000170 a3 2b 17 bf f5 ca c6 bd 89 b9 99 3d a8 55 bc bd
       -0.5905096 -0.0970668 0.07506091 -0.09196025
000180 90 7c c0 3d ce c6 ac 3e 9a e4 10 3f c7 b0 8c 3e
       0.093987584 0.33745426 0.5659882 0.2747862
000190 9f 8f e4 be f2 51 cb bc 48 3a 89 bd 67 33 9f bd
       -0.44640824 -0.024819348 -0.067005694 -0.07773476
0001a0 98 0a 73 be 4f c3 92 bc ff dc dd 3e 81 fb f9 bc
       -0.2373451 -0.017915396 0.4333267 -0.030515434
0001b0 e6 17 63 be 16 24 ae be 2c e4 ce 3e f8 7f a5 3d
       -0.22177085 -0.34011906 0.40408456 0.08081049
0001c0 a8 2f f4 be 8f 32 04 bf 22 ca 4c be 91 5a 2d bd
       -0.4769261 -0.51639646 -0.19998983 -0.0423227
0001d0 59 5d 03 bf a7 a8 f1 be 64 c9 c4 bd 66 07 36 3d
       -0.5131431 -0.47198984 -0.09608725 0.04444065
0001e0 ee 67 ec bb 3d b6 dc bd 9b 0e 7f 3e a2 c6 c8 3e
       -0.007214538 -0.10776947 0.24907915 0.39214045
0001f0 65 6a 10 3e b9 a9 7c be 7a 8d 93 3d ad 68 29 3d
       0.14103086 -0.24674119 0.07204719 0.041359592
000200 e4 9b 7d 3e 28 29 56 3c f6 1a 9a 3d 3f d9 09 3f
       0.24766499 0.013071336 0.07524674 0.53847116
000210 79 56 de 3e 4c 89 80 3d 11 0b ef bd 32 57 f0 3e
       0.43425348 0.06276187 -0.116720326 0.46941525
000220 69 ec af 3e 13 87 56 be 39 6c d0 be 0e c7 0d be
       0.34360054 -0.20949964 -0.40707567 -0.13845465
000230 10 6d 0c 3e 69 28 fb be 48 2b db be 66 d6 36 be
       0.13713479 -0.49054268 -0.42806458 -0.17855224
000240 4b f2 cd 3d ad f9 97 3b 83 5c d4 bd b2 f2 ab 3e
       0.10055979 0.004637918 -0.10369208 0.335836
000250 b7 90 52 3e 7c c7 a0 bd 47 e4 e3 3b 08 91 c2 bd
       0.20563017 -0.078505486 0.006954703 -0.09500319
000260 9c d2 57 be 72 06 92 bd 02 74 95 bd 3e 7b 06 3e
       -0.21076435 -0.071301356 -0.07297517 0.1313295
000270 6b 7a a7 3e f6 09 1c 3e fa 03 12 3e 42 fc 83 3d
       0.32710585 0.15238175 0.1425933 0.06444599
000280 4e 6e 23 be 70 54 80 bd 9d 85 ed 3c 8a 99 52 bd
       -0.15960047 -0.06266105 0.028994376 -0.051415958
000290 21 48 80 3c 0d 27 d9 be 6a 61 d6 be ae f0 f2 be
       0.015659394 -0.42412606 -0.41871196 -0.4744925
0002a0 ac 63 07 bf b3 b3 c8 be 0f bf 15 be db 85 a3 be
       -0.5288646 -0.391996 -0.14623664 -0.3193806
0002b0 90 97 99 be dd 86 a6 be ec 72 48 be b4 57 a9 be
       -0.29998446 -0.32524768 -0.19575089 -0.33074725
0002c0 df 91 a9 be 6d 3a 76 be 53 4d 84 be 8a 65 98 be
       -0.33119103 -0.24045725 -0.25840244 -0.29764968
0002d0 91 2f 88 3e bc 57 be 3e 2a ba ed 3e a7 1c 8d 3e
       0.2659879 0.3717631 0.46431094 0.27560923
0002e0 9f 1e 6b 3e 03 f0 c7 bc e2 08 97 3c ab 41 02 3e
       0.229609 -0.024406439 0.018436853 0.12720363
0002f0 dd 88 01 3e 9b 78 1f 3e 12 10 9f be 58 0a d9 be
       0.12649865 0.15573351 -0.31066948 -0.42390704
000300 3a 93 a4 be f2 f7 8c be 09 bc 45 be 42 bd 43 bd
       -0.32143575 -0.27532917 -0.19310011 -0.047787912
000310 40 72 30 be eb 9b f1 bd 46 93 62 bc 9d a1 0f 3d
       -0.17231083 -0.11797317 -0.013829058 0.035066236
000320 eb 4a 5a be 2c d2 48 3c 9b 96 9e bd 11 1c 29 be
       -0.21317641 0.01225714 -0.077435695 -0.16514613
000330 0e cc 8f be f0 00 c7 3e 29 49 c4 3e 81 f2 1d 3f
       -0.2808537 0.38867903 0.38337067 0.61698157
000340 07 82 0b 3f d1 ce a8 3e 20 f2 10 3e 54 f4 96 3e
       0.5449528 0.32970288 0.14154863 0.29483283
000350 2b 3f 9b 3e de 28 d6 3e ed a3 8a 3e cc 45 4d 3d
       0.3032163 0.41828054 0.2707819 0.05011539
000360 95 90 1f 3e 7b 20 3b 3d a0 a3 df 3d 55 cf 2a 3e
       0.15582497 0.045685273 0.10919881 0.16680653
000370 37 38 f9 3d 63 ca 10 3e 3b de 2c 3e 67 5e 96 3e
       0.12168925 0.14139704 0.16881649 0.29368898
000380 1c 13 67 3e 68 0f 4e 3e d3 b5 aa 3e 8b 56 54 be
       0.22565883 0.20123065 0.33341846 -0.20736139
000390 aa 08 07 3d 6d e9 4a be 39 a0 c1 3e 3f 6b 3e be
       0.032967247 -0.19815607 0.37817553 -0.18595599
0003a0 47 f5 ec be e2 82 45 3e 0d 28 88 3c 1a 69 b6 3e
       -0.46280882 0.19288209 0.01662066 0.3562706
0003b0 f8 ab c8 be 08 11 d7 be af 9c 03 3f 43 b8 92 bd
       -0.39193702 -0.4200518 0.51410955 -0.071640514
0003c0 85 e6 d9 bd d3 5e 0f bf c4 af 7c bd bd 03 ef 3e
       -0.10639671 -0.56004065 -0.06169106 0.4668254
0003d0 94 1d 82 3d b1 48 26 bb c6 1f 78 be de bd 39 3e
       0.06353298 -0.0025372917 -0.2423087 0.18138835
0003e0 6d 7b d4 3e 78 83 8a bd 70 a3 12 3e f4 3e ed 3d
       0.41500416 -0.06763357 0.14320159 0.11584273
0003f0 78 f2 92 be aa 85 04 3e bd 03 22 3d 70 73 71 3e
       -0.28700614 0.12941614 0.039554346 0.23579192

module.conv1.bias f4 [6]
000000 ba b7 6f be 1a 95 22 bf 84 2d af bc 75 87 33 be
       -0.2340993 -0.6350876 -0.021384008 -0.17532142
000010 15 98 cf bd 0b bb 8b be
       -0.10136429 -0.2729114

module.conv2.weight f4 [16, 6, 5, 5]
000000 0e 3e d0 3e 52 e3 bd bd b5 db 12 3f b0 78 97 3c
       0.40672344 -0.092718735 0.57366496 0.018490165
000010 9b 07 ef bd 7e a7 5f 3e bd 78 05 be b5 43 81 3e
       -0.116713725 0.21841237 -0.13034339 0.2524697
000020 b7 20 af 3e c3 57 66 3b 3a 2b 36 3e 23 f4 84 bd
       0.34204647 0.0035147525 0.17789927 -0.06491878
000030 a2 a3 3d 3d 77 42 94 3e 19 8b a2 bd 47 e3 9a bd
       0.04629863 0.2895696 -0.07936687 -0.07562881
000040 7f 1d e4 3d 31 55 94 3c 0f 29 30 3e 62 7b d3 3d
       0.111384384 0.018107029 0.17203163 0.10326268
000050 0b 1a 0c be bb 14 10 bd 19 f7 16 be 35 b5 f7 bd
       -0.1368181 -0.03517602 -0.14742698 -0.120951094
000060 76 b5 51 3c 13 c1 09 bd 5e 9c 34 3e c5 31 58 3e
       0.012799611 -0.033631396 0.17637774 0.21112736
000070 d4 e2 60 3d d4 a6 0f 3c e8 9c 73 be 76 b8 9d 3a
       0.05490382 0.008767802 -0.23790324 0.0012033123
000080 38 62 cb 3d 5b 4f 63 3d 09 fc 32 3d a9 b6 9f be
       0.09930843 0.0554956 0.04369739 -0.31194046
000090 be 0f 5e bd 82 fb d3 3d 2b 88 00 3e 70 3d 32 3e
       -0.05421423 0.10350706 0.12551944 0.17406249
0000a0 c1 e2 98 be 24 25 a4 be e0 17 ca bd 10 4e d7 3d
       -0.298605 -0.32059586 -0.09867835 0.10512936
0000b0 bc 74 cb 3d f0 09 8d be 17 29 c6 bd 76 2b 12 be
       0.09934375 -0.27546644 -0.09675806 -0.14274392
0000c0 53 63 8b bd d9 75 83 3d 79 8d 97 bd 32 c7 d3 bd
       -0.06806054 0.06418962 -0.07400031 -0.10340728
0000d0 32 01 18 bd d8 4a cc 3d ac 58 ff 3d de a4 89 be
       -0.037110515 0.09975213 0.12468085 -0.26883596
0000e0 08 de 3a be 35 db 0f be cc 38 93 bd e2 f9 ba bd
       -0.1824876 -0.14048465 -0.071885675 -0.091296926
0000f0 30 34 b8 be d7 08 9f be 35 e9 9c be 8e 2d 3d be
       -0.35977316 -0.31061432 -0.30646673 -0.18474409
000100 f3 51 b4 bd c4 65 53 be df 58 fc bd 2a 94 80 bd
       -0.08804693 -0.2064429 -0.12321638 -0.0627826
000110 d2 76 08 be d3 91 83 3d d9 0d 27 be c7 60 b8 bd
       -0.13326576 0.06424298 -0.16313876 -0.09002834
000120 10 0c 72 bd 27 32 cb 3c cf dd 5b bd 65 e2 e4 3e
       -0.059093535 0.024804188 -0.05367833 0.44703975
000130 9c 18 1e 3e c2 3f 02 3c 1f 72 ef 3e c5 6a 7a 3b
       0.15439075 0.007949771 0.46766755 0.0038210612
000140 76 fd a1 3a 24 77 3c 3d 76 23 1d be 66 70 33 3e
       0.0012358862 0.04601206 -0.15345559 0.17523345
000150 13 6d 12 3e 19 80 dc bd 33 88 bc 3d cf 73 65 be
       0.14299421 -0.1076662 0.092056654 -0.22407459
000160 9d aa 1a be 70 7b 68 3e b0 3a 94 be 98 40 a6 3d
       -0.15104146 0.22703338 -0.28951025 0.08117789
000170 a2 c6 14 be 0e 83 1f be 78 56 0e 3d 3f fc a2 be
       -0.14528897 -0.15577337 0.03475043 -0.31833073
000180 5a ad 7f bc 45 36 1b be f6 0f 1e be 79 af 7c be
       -0.015605295 -0.15157421 -0.15435776 -0.24676313
000190 ef f8 9b bd bd 31 a3 bd 24 cd 6c be d6 d8 cf bc
       -0.0761584 -0.07968471 -0.2312513 -0.02537195
0001a0 c7 74 07 3d 04 d6 b0 bd 73 b7 4e bd a6 73 04 be
       0.033070352 -0.0863457 -0.05046792 -0.12934741
0001b0 8a f0 e7 bd 13 67 11 be d4 da 14 bd 69 a4 12 bd
       -0.11325176 -0.14199476 -0.036341503 -0.035801325
0001c0 b1 ae 5f 3c 87 c5 6a bb bd 58 29 bd 84 ff 58 bd
       0.0136524895 -0.0035823302 -0.041344393 -0.052978054
0001d0 ed ce d1 bc 5f 95 b9 3c c3 26 27 3d 4d 56 03 bd
       -0.025611365 0.022654234 0.04080845 -0.032064725
0001e0 0a 37 89 bd 89 2b c2 bb 28 bc 06 3d 6d af 3c 3e
       -0.06699951 -0.0059256 0.032894284 0.18426295
0001f0 91 45 c9 3d 07 c3 49 be ae a3 5d bc f9 2a 28 be
       0.09827722 -0.19703303 -0.013527794 -0.16422643
000200 b9 1d ab bc d4 47 18 3c 62 84 90 bd 9e f9 47 bd
       -0.020888196 0.009294469 -0.070565 -0.048822038
000210 0f 54 8b bd 7c f7 e1 bc f9 9c 82 3c d3 8b 35 3d
       -0.06803142 -0.02758383 0.015943991 0.0443228
000220 b7 7b 5a bd a3 29 82 be 50 c8 26 be b9 78 ea bd
       -0.05334064 -0.2542239 -0.1628735 -0.11448807
000230 6c 60 16 be c1 3d 08 3e c5 3d 16 be 2d 55 62 be
       -0.1468522 0.13304807 -0.14672 -0.22102804
000240 7a 78 60 be 4a 2f e0 3a eb 2f 27 3c 4e 44 79 3b
       -0.21920958 0.0017103937 0.010204296 0.0038035098
000250 4b cb 7b bd 9d ee 14 be d5 fd 11 be 3f 59 67 bd
       -0.061473172 -0.14544149 -0.14256985 -0.056481596
000260 28 f2 2a 3d ec 60 d0 bd 7b 11 62 bd e8 bb b4 bd
       0.041734844 -0.101747364 -0.055192452 -0.08824903
000270 81 e0 de 3c 96 1a 2d bd 09 8f 10 3d 37 c5 cb 3d
       0.027206661 -0.042261682 0.03529266 0.09949725
000280 8d e9 ba 3e 19 69 2e be 12 3c 4d be 6b 08 da 3b
       0.3650631 -0.17032279 -0.20042446 0.0066538355
000290 b4 bc f5 bc 0c be 05 3f 05 45 2c 3f 58 39 3a bc
       -0.029997207 0.52243114 0.67292815 -0.011366211
0002a0 6d 5c 7e be 60 78 87 be f4 34 d1 be f6 5d 37 bc
       -0.24839945 -0.26459026 -0.40860713 -0.011191836
0002b0 9a c8 a7 3e 3a b6 64 3e 4f 2f 1c 3e d1 2a 7b bd
       0.32770234 0.22335139 0.15252422 -0.06132013
0002c0 2d 4f 77 be 8c 40 90 bc f0 e9 0c bd d6 7d 04 bc
       -0.24151297 -0.017608903 -0.034402788 -0.008086642
0002d0 22 9f 9b bb 3c 30 06 be 2b d0 46 be 31 22 02 be
       -0.0047491947 -0.13104337 -0.19415347 -0.12708355
0002e0 21 ad 54 3e e6 3c d7 3d 5b 36 b6 bb d7 b4 b5 be
       0.20769168 0.10509662 -0.005560679 -0.35489532
0002f0 3d 0b 13 be 83 8b e9 3c 84 cf 78 3e 6f e6 c3 3d
       -0.14359756 0.028508907 0.24297911 0.09565436
000300 59 c3 1d 3d 75 05 be bd 70 8a 46 bd 7b 4b 6f bc
       0.038516376 -0.092783846 -0.048471868 -0.014605398
000310 78 a3 6e 3e 29 01 5d 3e f6 cb 97 3e db ac 09 3e
       0.23304546 0.21582474 0.29647797 0.13444845
000320 3e 40 92 3d a4 0a ed 3d 0e a2 61 3c 8a b3 59 bd
       0.071411595 0.11574295 0.013771547 -0.053149737
000330 cc 60 6c 3d be db 97 3b 86 12 1e 3e 0c c7 2d 3e
       0.0577095 0.0046343496 0.15436754 0.16970462
000340 8e 71 fb 3c 6e 48 91 bd 89 0d fd bc b3 3e 47 3e
       0.030693796 -0.07093893 -0.030890243 0.19457512
000350 ac 0e a9 3d 39 c7 31 3d 2b 22 19 be 91 44 18 bf
       0.082547516 0.043402884 -0.1495444 -0.59479624
000360 09 2e 1e 3d 19 42 c6 3e a7 a7 80 3e 72 97 a8 be
       0.03861812 0.38722304 0.2512791 -0.32928044
000370 79 a6 7f be c9 eb b1 be 6e 2a b1 3b 27 4d 49 3e
       -0.24965848 -0.34750202 0.0054066693 0.19658338
000380 84 e5 af 3e 4b dd e2 3c 94 a3 58 be 75 e9 78 bd
       0.34354794 0.027693411 -0.2115615 -0.060769517
000390 05 a7 77 3d 04 5b 6b 3e 05 19 81 3d 66 d3 61 bc
       0.060462017 0.22983938 0.063036 -0.0137833115
0003a0 6d f5 42 3b de d1 b5 3d 0e 46 94 bd 60 23 05 be
       0.0029748336 0.088779196 -0.07239924 -0.13001776
0003b0 c2 8c 3f 3e 78 78 2a 3b f8 9d 1b bd 18 95 2b be
       0.18706039 0.0026011746 -0.037992448 -0.16756094
0003c0 58 4a 89 be 39 97 24 be b6 76 34 3e ed 0c 54 3e
       -0.26814532 -0.16073312 0.1762341 0.20708056
0003d0 de 12 8f 3e 4a bf a7 be 5e d6 12 bf f5 eb e3 be
       0.27944082 -0.3276313 -0.5735835 -0.44515958
0003e0 32 2c 34 be c2 90 0c be 27 98 19 be ca fe e8 bd
       -0.17594984 -0.13727096 -0.14999448 -0.11376722
0003f0 a4 a2 05 be c4 2f 8f 3d 30 9c f0 3d f4 15 19 be
       -0.13050324 0.069915324 0.117485404 -0.1494978

module.conv2.bias f4 [16]
000000 0d d4 73 3e 0b 27 b8 bf 35 ea 62 bf 26 c2 c8 bd
       0.2381136 -1.4386915 -0.8863862 -0.09802656
000010 bc 80 47 3f db 82 91 3e 59 4f 1f 3e 7e 4f 82 3f
       0.7793081 0.28420147 0.15557612 1.0180509
000020 3b 2e 4c be 05 1a 88 be 4b 5e 55 bf 1c b9 b3 3f
       -0.1993951 -0.2658235 -0.83347005 1.4040866
000030 75 be a5 3e 33 84 0e bf 35 04 df 3d 3e 98 0a 3f
       0.3237187 -0.5567047 0.10889474 0.54138553

module.fc1.weight f4 [120, 400]
000000 ba f6 b9 bc 06 fc 5b bc 84 f3 31 bd f5 2d 42 3c
       -0.022700656 -0.013426786 -0.043445125 0.011851777
000010 bb 4f 91 bd 3b 90 c5 3d a7 a1 2a 3d 73 ea d6 3c
       -0.070952855 0.096466504 0.04165807 0.026234841
000020 5b d9 e3 3c 8c 32 56 3c a2 17 72 3c 79 3f 17 bc
       0.027813604 0.013073575 0.014776142 -0.009231442
000030 fa a1 1c bd ad fc 33 3d 94 90 8c 3d 74 f5 07 3d
       -0.03824041 0.043942142 0.068635136 0.033193067
000040 ef 31 f1 bc cf 2f 1a be 0f bf 93 bc 45 c9 d0 3a
       -0.029442756 -0.150573 -0.01803544 0.0015929124
000050 c5 58 9a bb 90 ce 8f 3c ec 5b 9e bd c5 d3 97 bd
       -0.004710289 0.017554551 -0.077323765 -0.07413439
000060 ec 16 0a 3d a0 e1 e0 3d 80 ad 44 3c a3 18 a8 3d
       0.033713266 0.109805346 0.012004256 0.08207824
000070 b8 f2 05 3e a9 d9 11 3e 27 49 86 3d 62 18 f7 3c
       0.13080871 0.14243187 0.065569215 0.030162994
000080 cc f4 1b 3d f7 c6 85 3d fc 88 0a 3e de 09 64 3e
       0.038075253 0.0653209 0.13528818 0.22269389
000090 6c fb 94 bb b3 ab 0b bd e5 7e eb bb 67 9b e3 bb
       -0.0045465734 -0.034099292 -0.007186758 -0.0069460156
0000a0 68 70 06 bd f9 b2 7b bd 88 86 46 be 7e 82 63 bd
       -0.032822043 -0.06144998 -0.19387257 -0.05554437
0000b0 5e f3 55 3c 45 0b 5a be 5b 6b 7c bd a0 16 15 bd
       0.013058512 -0.21293361 -0.06162582 -0.03639853
0000c0 a6 99 e0 bd 33 1e 96 bc e2 20 22 3e d6 6e 7c 3c
       -0.10966806 -0.018324947 0.15832856 0.015407285
0000d0 74 ca 96 3c 39 0a ac bc ec 3b 16 be e3 0a 77 3b
       0.018407084 -0.021000968 -0.14671296 0.0037695698
0000e0 2b 98 5c bd 57 85 02 bc 51 07 54 bd 25 0b a6 bd
       -0.053856056 -0.007966361 -0.05176479 -0.081075944
0000f0 65 29 8f bb 72 9a 77 3d dc 43 b9 bd 64 36 b8 bd
       -0.0043689483 0.060450025 -0.09046146 -0.08994749
000100 05 f5 83 bd 38 d0 06 3e d2 0e 04 3d e7 dd 8c bd
       -0.06443218 0.13165367 0.032240696 -0.06878262
000110 ad 79 85 bd 60 5f 9a bd 94 79 2b be fb b5 f8 ba
       -0.065173484 -0.075377226 -0.16745597 -0.0018975133
000120 ba 98 c7 bd 2b 97 12 bd d9 89 39 bd 75 74 17 bd
       -0.09745927 -0.035788696 -0.045297477 -0.036976296
000130 c3 61 2b be b2 4d 30 bd 7f e9 00 bd ee 35 4e 3c
       -0.16736512 -0.043042846 -0.03147268 0.0125861
000140 81 74 96 bd d2 fc 0e be b3 90 a3 bd b9 99 5f bd
       -0.0734644 -0.13963631 -0.079865836 -0.05458996
000150 e0 72 6e 3d d8 de b9 bd 36 d9 bf bd 47 1d 88 ba
       0.058215022 -0.09075707 -0.093676016 -0.0010384702
000160 de a6 c6 bc 54 1b 1b 3c dd dc d9 bd d4 7d 8d bd
       -0.02424949 0.009466965 -0.106378295 -0.069087654
000170 75 15 80 bb f4 8e 90 bd 4e 09 a6 3d 6c 05 ee 3d
       -0.003908808 -0.07058516 0.081072435 0.11622128
000180 70 ef 90 3d a6 e1 94 3d 6d 12 cc ba 7a 64 61 3d
       0.07076919 0.072696015 -0.0015569456 0.055027463
000190 c4 20 b5 3d be 0a 6f 3d 51 c0 e2 3d f8 42 3e 3d
       0.0884414 0.058359854 0.11071838 0.046450585
0001a0 c7 49 57 bd 76 98 f9 3c ac 3e 89 3d 54 15 04 3e
       -0.052560594 0.030468207 0.06701407 0.12898761
0001b0 fc 8b 44 3d 91 0a 39 bd 3d 6c 7c 3d 7a 96 91 3d
       0.047985062 -0.045176093 0.06162666 0.07108779
0001c0 62 51 01 3e 6f e1 30 3e cb bc ba bd 78 62 69 3c
       0.12628701 0.17273496 -0.09118041 0.014244668
0001d0 6c 59 11 bd f2 c9 e7 3a 65 97 09 bd 90 0b 01 bd
       -0.03548567 0.0017684086 -0.033591647 -0.031505167
0001e0 2e 5e 99 3d 53 c3 42 bc 10 b6 c1 ba 81 ab 00 be
       0.074886665 -0.011887389 -0.001477899 -0.12565424
0001f0 80 66 bc bd af 58 38 bc cb d5 e3 bc 25 b2 c2 3d
       -0.09199238 -0.011251613 -0.027811905 0.095066346
000200 47 13 6d 3c 15 0a f4 bd e0 47 42 bd 7d 4d 89 b9
       0.014469928 -0.119159855 -0.047431827 -0.0002618841
000210 8d a6 1b 3d 3d 0a 6c 3b e1 26 b2 bd 64 31 28 3d
       0.038000632 0.0036016845 -0.08698822 0.041062728
000220 a2 40 b4 bb 69 13 ca bd a9 81 de bd b6 8a 1d be
       -0.005500869 -0.098669834 -0.108645745 -0.15384945
000230 f7 18 0a bd 89 5f 07 3c 4b a0 03 3d 66 52 95 3c
       -0.033715215 0.008262523 0.03213529 0.018227767
000240 e9 a7 8c 3c 8c 32 82 bd 7a 2d 77 bb 09 7e 05 bd
       0.01716991 -0.06357297 -0.0037716315 -0.0325909
000250 8c 3b 0a bd 39 d2 21 bc 10 cf a8 3c 92 a3 bb bc
       -0.033748195 -0.009876781 0.020606548 -0.022905145
000260 0a 42 a5 bd 5c 74 e2 bd ee f6 67 bd 4f fe 35 3d
       -0.080692366 -0.1105735 -0.056631975 0.04443198
000270 f6 c9 10 be e5 05 3d bd cd d6 95 bd b1 48 2b bd
       -0.14139542 -0.0461482 -0.073163606 -0.04181737
000280 81 c8 20 3d ca e2 1a bd 68 c2 00 bd 5a 81 90 bd
       0.039253715 -0.03781394 -0.0314354 -0.07055922
000290 86 40 01 bd 7e b1 fe bc 10 98 5c bd 2d 52 bc bd
       -0.031555675 -0.031090494 -0.053855956 -0.09195361
0002a0 fa 3a c5 bc 43 c3 5b bd a5 d8 82 bd 25 fa ba bc
       -0.024075974 -0.053653013 -0.06388978 -0.022824356
0002b0 6c 47 34 bd 6f 73 4d 3d 71 f5 ca 3d 0c 23 61 3d
       -0.044013426 0.050158914 0.099100955 0.054965064
0002c0 b3 6c a5 bc 9e 4b 5d bc 38 b3 ff 3d e9 1c 13 3e
       -0.020193433 -0.013506798 0.12485355 0.14366497
0002d0 1b a0 92 3c 42 92 b1 3d fc 00 05 3e 10 82 2d 3d
       0.01789861 0.086704746 0.12988657 0.042360365
0002e0 3f 48 2a 3d ca 3b f5 bc 0a d4 36 3c ed 82 49 3c
       0.041572805 -0.029935736 0.0111589525 0.012299282
0002f0 9b aa 8e bc 24 11 5a 3c e3 10 92 bd 1b d0 73 3c
       -0.017415335 0.013309751 -0.07132127 0.014881159
000300 4b d7 bc bc 1a ad 07 bc 65 3e 78 bc 09 c2 b6 3c
       -0.023051878 -0.008281017 -0.015151595 0.02230932
000310 20 8b 0e ba 9b f7 1f bd 50 e0 b4 3c 88 1a 83 bd
       -0.00054376014 -0.039054494 0.022079617 -0.06401545
000320 7f d8 cd bd 81 5c 3f bc 78 6e 07 be 23 2c 4a be
       -0.10051059 -0.0116797695 -0.13225734 -0.197434
000330 57 ad c7 bd 96 70 95 bd be 17 81 bc d2 ec bd ba
       -0.09749859 -0.07296865 -0.015758391 -0.0014490134
000340 56 03 e3 bd 68 c2 c1 3c 5e 1f 41 bb a2 d6 79 3c
       -0.11084621 0.02365227 -0.002946816 0.015248926
000350 2d f0 39 3d ef 81 c8 bc 2d 7f 34 3d 8e 72 7c bd
       0.045395065 -0.02447602 0.044066597 -0.061632685
000360 21 b4 c0 bd 45 b8 2d 3a b7 f0 91 bb f1 a2 66 3d
       -0.09409357 0.00066268846 -0.0044537443 0.056307737
000370 1d ae 20 be 67 89 6d bd 02 ae ab bd ae 91 55 bd
       -0.15691419 -0.057992365 -0.08382799 -0.052140884
000380 1c 9f b8 bd d3 f4 74 3d 27 50 ea 3c df 5f 41 bd
       -0.09014723 0.059803795 0.028602673 -0.04721057
000390 c0 01 3c bd c4 84 0e be 7e 23 a9 3d 13 9d 29 3d
       -0.045900106 -0.13917834 0.08258723 0.041409563
0003a0 80 12 91 3b 80 3b 2f 3d 44 2d 02 be c4 35 01 3e
       0.004427254 0.042781353 -0.1271258 0.12618166
0003b0 f1 7d 9d 3b 37 c6 78 3c 8e d3 e9 3d 1b 91 6f bd
       0.004806273 0.015183977 0.11417304 -0.058487993
0003c0 8b 90 54 3e 58 60 22 3e 12 26 19 3d e3 3f 93 3d
       0.20758264 0.15857065 0.037389822 0.0718992
0003d0 77 10 5f 3d 4c 42 de 3d c9 19 9e 3c 78 b6 ac 3d
       0.05445906 0.10852489 0.019299405 0.08433241
0003e0 87 3b b5 3d e8 b1 7d 3b 31 d6 56 bd 68 50 2f bd
       0.088492446 0.0038710777 -0.052450363 -0.04280129
0003f0 a3 bb de bd b9 d7 11 be f6 e2 24 bd a0 2b 8e bd
       -0.108756326 -0.14242448 -0.04025551 -0.069419146

module.fc1.bias f4 [120]
000000 52 4f 3a 3e b3 ec 25 be 82 b9 2c be 0f 3d 55 bd
       0.18194321 -0.16203575 -0.1686764 -0.052060183
000010 fb 04 5f be 9c d1 4f be 6a ab 5e 3d 68 80 19 3d
       -0.21779244 -0.20294803 0.054362692 0.037475973
000020 ab 92 8c bd bc 3b 3e 3b a7 5d 5c 3d 92 cd 43 3d
       -0.06863912 0.0029027304 0.05380025 0.04780347
000030 3c c4 20 be ed 33 c1 be 7e 37 8e bb d1 83 87 3e
       -0.15699857 -0.3773493 -0.0043401113 0.26467755
000040 d3 43 d1 3c 97 fb f6 3d af 01 42 3e 91 3f 3e 3d
       0.025545036 0.12059706 0.18945955 0.04644734
000050 08 29 9d 3d a7 f7 92 3c dd ba fe bd e5 4a 35 bc
       0.07673842 0.017940355 -0.12437985 -0.0110652195
000060 1d dd a7 bd 69 11 a5 bd de 9f d7 bd 0c bd 51 3e
       -0.08196471 -0.08059961 -0.10528539 0.20482272
000070 d6 71 af 3e 02 22 7b 3c fc 3c 9d 3c c0 98 10 bd
       0.34266537 0.015327932 0.019194119 -0.035301924
000080 f2 9a f7 3c a8 99 fa bd 5e 38 7c 3d ac cd 85 3e
       0.03022525 -0.12236339 0.061577193 0.26133478
000090 93 c9 1e 3e 92 18 ec 3d 35 f3 f4 3b 80 4f 68 3e
       0.15506582 0.11528124 0.0074752816 0.22686577
0000a0 a7 65 06 3e ec 1f fa 3d 0f c7 3a be 07 27 1a 3e
       0.13124715 0.1221312 -0.18239997 0.1505395
0000b0 bf 4d 5f 3e 7f 8e d9 3e 94 ca 36 bd 64 db 72 3e
       0.21807002 0.42491528 -0.044626787 0.23716503
0000c0 e5 22 c2 3c 21 13 01 3e fe 70 b1 3e 93 ba a4 bd
       0.02369828 0.12604953 0.3465652 -0.08043399
0000d0 2f 84 c2 3d 42 5f 54 3d 3a d8 3e 3e e1 38 37 3c
       0.09497868 0.051848657 0.18637171 0.011182995
0000e0 5b 5c d7 bd cc ed bd 3d c0 9c a1 3d 53 1c b3 3d
       -0.10515662 0.09273872 0.07891226 0.08745637
0000f0 83 b7 de 3e bf 69 58 3d c5 32 6b 3e 1b 8b 16 3d
       0.43499383 0.052835222 0.22968586 0.036753755
000100 b6 2b 82 3d 60 94 09 bd 40 f6 8e be ea 49 b2 be
       0.063559934 -0.033588767 -0.2792225 -0.34822017
000110 91 9c 2a 3d 48 68 b5 3c 14 88 42 3e 85 29 bb bd
       0.04165322 0.022144452 0.18997222 -0.091387786
000120 a0 c1 81 bc 49 06 98 bc 9e f0 d0 bd e6 38 c4 bd
       -0.015839398 -0.018557684 -0.10202144 -0.09581165
000130 f9 31 d8 3d cb 94 b5 3d 77 56 80 3d a4 71 0a bd
       0.105564065 0.08866271 0.06266492 -0.033799782
000140 e5 1f 10 be b3 49 1b 3e db 43 ac 3d 2d fc fb 3d
       -0.14074667 0.15164833 0.0841138 0.12303958
000150 c9 28 b8 3d 56 19 db 3e 95 5f 39 3e 30 1f 2e be
       0.08992154 0.42792767 0.18102868 -0.17004085
000160 59 49 93 be 69 1f 1e 3e dd e0 bb bc ca 0e 72 3e
       -0.28766897 0.1544167 -0.022934372 0.23638454
000170 83 17 88 3d 33 ec 6f bc f0 fa 33 be 4e 2f a5 3e
       0.066451095 -0.014643717 -0.17576194 0.32262653
000180 2e 13 c7 3d 1d 2c 46 3e 6b 08 25 3e 42 a5 1f be
       0.09720455 0.19352765 0.16116492 -0.15590385
000190 75 dc 47 bd aa 52 a0 bc 5a 61 ce bc b6 ad 58 bc
       -0.04879423 -0.019570667 -0.025192905 -0.01322501
0001a0 b8 b5 91 3e 79 d6 a0 be 22 a8 00 bd 16 ac e8 bd
       0.28458953 -0.3141363 -0.031410344 -0.11360948
0001b0 46 ab 34 be ba 06 78 3e 8b 5b 39 bd 7f 1f 95 bd
       -0.1764346 0.24221316 -0.045253318 -0.07281398
0001c0 9f 78 94 3d 33 0e 0a bd 87 99 f4 3c e1 f2 7b 3d
       0.07249569 -0.033704948 0.029858364 0.061510924
0001d0 ff 7b 30 bd e7 d6 66 bc 72 33 03 3e 7f 87 96 3e
       -0.043087002 -0.014089323 0.12812594 0.2940025

module.fc2.weight f4 [84, 120]
000000 a1 6f 33 be 2d 66 d7 bc 61 64 1c ba fa b4 1c 3d
       -0.17523052 -0.026293838 -0.00059658854 0.03825853
000010 ac 69 3e be af b5 d4 3d e1 bc 2d 3c f4 e6 37 3e
       -0.18594998 0.10386216 0.010604114 0.17959195
000020 3f bc 45 3e 09 56 dd bd 75 5d 39 3d e3 38 68 3d
       0.19310091 -0.108074255 0.045255143 0.056694876
000030 50 15 51 3c 9b 17 e7 3c 5e c5 92 bd 99 c3 10 be
       0.012761429 0.028209498 -0.07166551 -0.14137115
000040 2a 3d fc 3d a9 8b d7 3c 16 29 41 bc 11 47 94 3d
       0.123163536 0.026311712 -0.011789581 0.07240117
000050 c3 65 7c bd f1 54 94 3d e2 60 a6 3d 40 48 c0 3a
       -0.061620485 0.07242764 0.08123948 0.001466997
000060 98 9e 09 3e cd cc 03 bd 84 60 26 3e e1 9a 30 be
       0.13439405 -0.032177735 0.16247755 -0.17246582
000070 0f 68 22 bd 07 55 3d bc 48 34 5b 3b ca f0 28 3b
       -0.03965002 -0.011555917 0.003344791 0.0025778287
000080 7f 9e 06 be e9 2a b7 bd b0 96 55 bd 97 41 fb bd
       -0.13146399 -0.08943731 -0.05214566 -0.1226837
000090 0a 24 bf 3d b2 db 7c 3d b9 69 2e bd 2a 6c 01 be
       0.09333046 0.061732955 -0.042581294 -0.12638918
0000a0 89 e2 7b 3c 3b e6 09 3e 57 5e 92 3a 4d bf 87 3b
       0.015373834 0.13466732 0.0011167031 0.004142678
0000b0 50 35 98 bd 4e 63 fc bd 5b b6 c7 bd e6 fb 09 3e
       -0.074320436 -0.12323628 -0.097515784 0.13474998
0000c0 27 53 5c 3d 28 39 ea bb af b7 68 bc 76 ca 75 bd
       0.053790238 -0.007147927 -0.01420395 -0.060007535
0000d0 22 32 24 be f8 c8 0a be 17 4e d1 3d 15 eb 23 3d
       -0.16034749 -0.13553226 0.102199726 0.040019114
0000e0 1c 31 33 3e 21 99 83 bc 54 17 aa bb 22 5a 00 be
       0.17499202 -0.016064228 -0.005190769 -0.12534383
0000f0 88 46 47 bd 92 0c d5 3b 5d 2f 0f be 23 cc be bd
       -0.04865125 0.0065017426 -0.13982911 -0.0931628
000100 87 c5 2e 3d 78 0e 5e 3d 28 01 ce 3c 27 cc a5 3c
       0.042668846 0.054213017 0.025147036 0.020238949
000110 9f e0 09 be ac 50 fb 3d 07 cc 05 be 69 f4 2c be
       -0.13464592 0.12271246 -0.13066112 -0.1689011
000120 26 f2 cf 3d c3 8d 1a 3d f4 27 a7 3d 0b 80 0f 3e
       0.10153608 0.03773285 0.08161917 0.14013688
000130 1b 47 e8 bd 0e 97 84 38 ed 9e f8 bd 8a 19 81 bd
       -0.11341687 6.3223866e-05 -0.12139688 -0.06303699
000140 35 30 40 bd 76 0f 2c be 5f 4a ca bd 73 f3 52 bc
       -0.046920974 -0.16802773 -0.098774664 -0.012875426
000150 c8 44 28 bd d1 82 41 bd d1 84 12 3e 0d 0f 36 bd
       -0.04108122 -0.047243897 0.14308478 -0.044447947
000160 90 cf 3a 3d 5c d1 a9 bd af c4 f9 bd 9b 71 27 3c
       0.045608103 -0.08291885 -0.121957175 0.010219957
000170 d1 9d e9 bd 4f 12 b2 3c ea 4d 0b 3d 47 e7 2f bd
       -0.11407054 0.021737246 0.03400985 -0.042945173
000180 08 14 63 bd 3d 3a bb 3c 86 b4 6b bd 8d d8 08 bd
       -0.055439025 0.022854919 -0.057545207 -0.033409644
000190 66 32 43 bd 16 12 2a 3c 0a aa 44 bd 4f 1b a3 bc
       -0.047655486 0.010380289 -0.048013724 -0.019910483
0001a0 53 df 35 be 68 4f 51 bd 75 e0 61 bd a5 91 f0 3d
       -0.17760973 -0.05110112 -0.0551457 0.117465295
0001b0 3c 85 c2 3d 3d e8 64 3c 47 b3 da bd 2c 5b 06 3c
       0.09498069 0.013971386 -0.10678726 0.008200448
0001c0 43 fd 1f 3d f8 68 f9 bd 9f 56 4f 3d e5 54 96 3d
       0.03905989 -0.12178224 0.050619718 0.07340411
0001d0 c4 29 bf bd a2 7c a6 3d 4c 51 26 bd 87 32 d5 bc
       -0.09334138 0.081292406 -0.040604874 -0.02602507
0001e0 d1 fd 78 3d e9 1b 44 3e db 9f c6 3d 4f a2 70 be
       0.060788933 0.19151272 0.09698459 -0.23499416
0001f0 41 45 fe 3d 56 11 af bd e7 eb 43 3e 15 2b eb bd
       0.12415553 -0.085482284 0.19132958 -0.114828266
000200 b1 d1 44 3c b9 1d 83 bc 21 ab da bd 4d 7b 6e 3e
       0.012012885 -0.016005384 -0.106771715 0.23289223
000210 fd d7 c9 bd ca 20 6e 3d 16 0e c1 3c 0f 4d cf 3d
       -0.098556496 0.05813674 0.023566287 0.1012212
000220 37 ad 2c 3d d3 3c fb bc 6a 23 79 3b 11 9a e7 3b
       0.042157378 -0.030668652 0.0038015493 0.0070679267
000230 73 8e 9d bd ae 99 1e be aa 80 ae bd bd e4 2a bb
       -0.07693186 -0.15488312 -0.085206345 -0.002607628
000240 26 76 5e 3d 09 78 e6 bd e8 f7 46 3e c8 66 8d bd
       0.054311894 -0.11253364 0.19430506 -0.069043696
000250 e8 d3 26 3e 0d 9e 6b 3c 95 90 09 be 5f 61 ef bd
       0.16291773 0.014380944 -0.1343406 -0.11688494
000260 91 d6 72 be a4 6d d0 3d 10 6c c8 3c b3 7b 8e b9
       -0.23714663 0.10177162 0.02446559 -0.00027176514
000270 4c 14 04 3e 84 6f 4c be 24 50 78 bc cb d2 32 be
       0.12898368 -0.19964415 -0.015155826 -0.17463224
000280 f1 e8 37 bd e9 7c 48 3e ec ff 22 be f6 50 02 3e
       -0.044899885 0.195789 -0.15917939 0.12726197
000290 0b 72 02 3d 71 31 17 3e ad 84 1e 3e db 7a 3d 3d
       0.03184704 0.14764954 0.154803 0.046259742
0002a0 be 21 a2 3c b9 9c 8c 3c 62 3a a2 3d 89 24 13 be
       0.01979148 0.017164575 0.07921292 -0.14369406
0002b0 ef 47 37 bd 05 0c 9b 3b 43 87 a6 bd 1e 79 86 3d
       -0.044746336 0.0047316574 -0.08131268 0.0656607
0002c0 aa 5b 86 bd 51 9f 8e be 3d 10 ef bd 2a 38 97 bd
       -0.06560452 -0.27855924 -0.11673019 -0.07383759
0002d0 33 fb 18 3d e3 f1 8c bd 29 1e 1a be 86 f9 83 3d
       0.037348937 -0.06882074 -0.15050568 0.06444077
0002e0 90 c4 f6 bd 5a a4 d0 3d c0 29 3b 3e 57 d3 ed bc
       -0.1204921 0.101875976 0.18277645 -0.029031439
0002f0 78 6e 47 bd 33 74 7c 3e 9b 3e f8 3d 99 57 cc 3d
       -0.048689336 0.24653701 0.12121316 0.099776454
000300 5d 7a 94 bd 12 d9 08 be 92 e4 f5 3c c3 91 40 3d
       -0.072499014 -0.13364056 0.030016217 0.04701401
000310 fa e1 28 be b3 a5 0d 3d 80 cb 90 be f0 10 57 3c
       -0.16492453 0.03458185 -0.28280258 0.013126597
000320 f3 52 3d bd 42 c5 b8 bd 77 27 31 be 7b 55 c6 bc
       -0.046221685 -0.09021999 -0.17300211 -0.024210682
000330 fe 76 6e bc d8 34 08 3d 35 88 c7 bc de 04 b7 bc
       -0.014554737 0.03325352 -0.02435694 -0.022341188
000340 77 3c a7 bd 18 7d 49 3e 66 63 1d bd 59 e7 22 be
       -0.0816583 0.19676626 -0.03842487 -0.15908565
000350 0e fd d9 3d ff 23 bb bb ac 2b b8 bd c6 d2 18 be
       0.106439695 -0.005711078 -0.08992705 -0.14924154
000360 8e 05 f2 bd 87 7f 42 3b b0 96 6c be f0 89 06 3e
       -0.11817466 0.0029678063 -0.23104358 0.13138556
000370 9c b7 25 3d ed f9 31 be 5d c0 99 bb 18 7b 1b be
       0.040458307 -0.17380495 -0.004692121 -0.15183675
000380 24 64 fb bd 7e 36 4a 3d 5c db 54 bd a5 aa 28 bd
       -0.1227496 0.049368374 -0.05196701 -0.041178364
000390 09 50 94 3d 4c 0f c0 bd 17 46 a2 bc 15 07 fd 3c
       0.07241828 -0.09377918 -0.019808812 0.030887166
0003a0 1d bf fb 3d 7a 61 f9 3d 78 92 8f bc b2 a6 12 3d
       0.12292311 0.12176795 -0.017525896 0.035803504
0003b0 97 45 88 bd fa b0 0d 3d c2 56 73 3c 70 7f 17 be
       -0.06653898 0.034592606 0.014852228 -0.14794707
0003c0 eb 91 59 bd d4 18 60 3d 21 9f e4 bd 91 2b b1 bd
       -0.053117674 0.054711178 -0.11163164 -0.08650888
0003d0 55 1f bf bd f6 e3 cf bd 06 73 93 3c e5 50 2b 3e
       -0.09332148 -0.10150902 0.017999183 0.16730078
0003e0 17 9b 0a be de 27 46 3d 37 2f 24 bd f1 fe 1a 3d
       -0.13535725 0.048377864 -0.04008409 0.037840787
0003f0 c6 35 cc 3b f7 c6 cc bc 1e e6 55 bc aa 87 67 3d
       0.006231996 -0.024997218 -0.0130553525 0.056525864

module.fc2.bias f4 [84]
000000 ae 34 48 bd 97 e7 a9 3c cb 66 3f 3f d1 9c 5d 3d
       -0.048878364 0.020740313 0.74766225 0.05410463
000010 8a 2b d2 bc e5 9a 0a 3f 62 28 0a 3e fd f3 e1 3d
       -0.025655527 0.541426 0.13491967 0.11032865
000020 37 fe de 3c 65 71 b5 3e 42 8d 5e 3f cf 8b be 3d
       0.027220828 0.35438076 0.8693429 0.0930401
000030 28 80 e6 bd 8e c0 0d 3e b1 5a 67 bc ca b1 01 3e
       -0.112549126 0.13842985 -0.014120744 0.12665477
000040 3b d8 cf 3d e5 d9 38 3f 5d a1 a8 3e e3 56 82 3d
       0.101486646 0.7220748 0.3293561 0.063642286
000050 ce 67 97 bc 1b fe e6 3d 20 7a 11 3f 9c 5c 79 3e
       -0.018482115 0.112789355 0.5682697 0.24351734
000060 bf 07 77 3e 98 72 01 3e 09 75 8d 3e 79 66 b4 3e
       0.24124049 0.1264137 0.27628353 0.3523443
000070 4c 90 d1 3c 9f 3d 5e 3e 93 63 27 bc 34 8b bd 3a
       0.025581501 0.21703194 -0.010216611 0.0014461041
000080 1b a4 65 bd 10 ec 76 be a7 01 db be 51 f8 f8 bd
       -0.056064706 -0.24113488 -0.42774698 -0.121567376
000090 3e d6 b9 3e bf a9 91 3e de af 7e 3d 32 bc c2 bd
       0.36296266 0.28449818 0.06217944 -0.09508552
0000a0 6e 39 08 3e e9 d9 dc 3d 86 f0 1c 3f d3 59 4b bd
       0.13303158 0.107837506 0.6130451 -0.04964621
0000b0 08 7e 17 3e 0a 17 9a 3e 48 51 50 bd 2b 85 81 3d
       0.14794171 0.30095702 -0.050858766 0.06324228
0000c0 8e e8 ee bc e6 ef ff 3b c7 65 0d 3f 62 7e a4 3d
       -0.029163625 0.0078105805 0.55233425 0.08031918
0000d0 95 7c ac 3e 8f b7 82 3e 22 0a 1a 3e 3a 93 be bd
       0.336888 0.2553067 0.15042928 -0.09305425
0000e0 cd 65 30 3f 21 19 2e 3e 85 87 a9 3e 7f a5 03 bc
       0.68905336 0.17001773 0.33111206 -0.008035063
0000f0 9c 45 9d bd c1 4c aa bd 5a 38 eb 3d df 2f 2d bd
       -0.076792926 -0.08315421 0.114853576 -0.04228198
000100 c1 36 c3 3d be 64 c1 3d b0 28 bb bd 30 8d 57 3e
       0.09531928 0.09443043 -0.0913862 0.21049953
000110 51 e0 64 3d 2b f3 82 3e 32 b2 86 3d 2d 49 21 3e
       0.055877987 0.25576147 0.06576957 0.1575057
000120 31 2b 3f 3d eb a7 96 3e e4 82 a5 bd 05 2c 98 bd
       0.04667205 0.29424986 -0.08081606 -0.07430271
000130 da 4b 41 3e f0 6c ad 3e 51 6d 6d 3d 9f 56 34 3e
       0.18876591 0.33872175 0.05796558 0.17611168
000140 5b d0 68 3e 7f 0a 5e 3d 91 67 11 3f d8 ea ba bc
       0.22735731 0.05420923 0.56798655 -0.02281706

module.fc3.weight f4 [10, 84]
000000 01 a5 bd bc e1 07 21 3e 15 02 96 be a7 38 93 3d
       -0.023149969 0.15725662 -0.29298463 0.0718854
000010 98 6a ab bd ce e3 f2 bc 66 bc 57 be 06 84 e6 bd
       -0.083699405 -0.029649641 -0.21067962 -0.1125565
000020 76 41 26 3d 41 60 8d 3d 32 fb a9 be 1c c1 4d bc
       0.040589772 0.069031246 -0.3319946 -0.012558248
000030 d6 2d 9b be 2c 8a 0b 3e e7 e1 55 3e cd ad 26 be
       -0.30308408 0.13626927 0.20886956 -0.16277237
000040 2a d1 03 3e 53 84 e9 3d 8a 58 ac be 06 55 31 3e
       0.12872759 0.11402192 -0.336613 0.1731759
000050 d9 e2 a5 3d b7 39 43 3e 4c c5 b9 3d 5f b6 37 3e
       0.080999084 0.19064985 0.090708345 0.17940663
000060 21 7c e5 3d 1d f7 de 3d 8b 03 da 3c 56 a8 ea 3d
       0.11205316 0.10886977 0.026613018 0.11457889
000070 ea fa 7e 3d f4 9b 6e 3e 83 34 e8 3d 26 3d 1b be
       0.06225101 0.23301679 0.11338141 -0.15160045
000080 04 5e 73 3e 71 4b 89 3e bc 84 d1 3d c3 7a fb bc
       0.23766333 0.2681537 0.10230395 -0.030698186
000090 be 36 1f 3e 95 a5 32 3e 3e 33 f6 bc 5f 04 ee bc
       0.15548226 0.17445977 -0.030053731 -0.029054819
0000a0 7f 3a 62 3a 2d be 70 3e 80 c2 29 3d 9f 35 64 bd
       0.00086299324 0.23510046 0.041445255 -0.0557152
0000b0 92 ee 0a be 9a 15 13 be ad a4 0f be 1a d9 5f 3d
       -0.1356757 -0.14363709 -0.14027663 0.054650404
0000c0 6c 43 6c 3d b2 82 4f be 63 da a0 bd 0b fd d9 3d
       0.057681486 -0.202647 -0.07854154 0.10643967
0000d0 5a 7c 68 3e 9a 3f 90 3c fc a5 44 be c9 37 36 bc
       0.22703686 0.017608453 -0.19203943 -0.011121699
0000e0 d4 7f be be b2 82 57 3e b0 26 c1 be 07 57 25 3e
       -0.372069 0.2104595 -0.3772483 0.1614648
0000f0 8a 40 3a bb 8c 6e 0b 3d 9f 36 f3 bd de 17 0f 3e
       -0.0028419816 0.034040973 -0.118756525 0.13973948
000100 99 77 63 be b6 bf 41 bd 2c 96 0b be 6b 80 1e be
       -0.22213592 -0.04730197 -0.13631505 -0.15478675
000110 c3 55 46 3d 0e f3 d3 bc da 3a 0e 3a 9c d9 ff 3d
       0.048421632 -0.025872733 0.00054256397 0.124926776
000120 5b 64 be bd 44 08 ae bd f5 af 3e 3e 20 a2 ef 3d
       -0.09296485 -0.0849767 0.1862181 0.11700845
000130 77 f9 ea bd 1a 38 ab be 60 90 23 3d b1 75 49 3e
       -0.11473363 -0.3344124 0.03993261 0.19673802
000140 81 63 d1 bd 26 bf 87 3c c4 7c 7c 3e 95 ea 12 bd
       -0.10224057 0.016570639 0.2465697 -0.035868246
000150 b5 92 81 3e 39 79 b4 3d 39 5d db be fd f3 cd 39
       0.2530724 0.08812184 -0.4284456 0.00039282432
000160 bb 87 91 bc 87 5b 2b 3b 5a 98 5d 3e 0a af 8c bd
       -0.017764917 0.0026147084 0.21640149 -0.068693236
000170 5a 3d 2f 3e 13 ec 05 3e 8c 1c ef bd 39 e6 28 3e
       0.17113248 0.13078336 -0.11675367 0.16494073
000180 54 ff 3e 3e 3b 22 bf 3d 72 b6 45 3e 71 26 90 bd
       0.18652087 0.09332701 0.19307879 -0.07038582
000190 0d 4c 9e be 88 0d 64 be 16 e0 02 be 14 ab fa 3e
       -0.30917397 -0.22270787 -0.12780795 0.48958647
0001a0 a6 d4 4d 3e 48 21 82 3e c0 0c ae be 9f 05 3a be
       0.2010065 0.25416017 -0.33994102 -0.18166207
0001b0 ba 86 5c be 46 0f 03 3e 6b d7 59 be d9 aa 61 be
       -0.21535769 0.12798795 -0.21273582 -0.2203783
0001c0 d9 37 d4 3d e0 84 36 bd 3e 99 1b 3d 3f 93 f8 3c
       0.103622146 -0.044560313 0.03798794 0.03034365
0001d0 76 05 fd bd 07 9a 3d 3e eb c7 5d 3e c8 7f 2c 3e
       -0.12354557 0.18515788 0.21658294 0.1684562
0001e0 9c eb 0d be 6f 3f 77 bd 84 5e 77 3d 40 1b 5d 3d
       -0.13859409 -0.06036323 0.06039287 0.053981066
0001f0 67 77 00 bd 61 00 1c be 34 1e a0 bd b0 50 43 3e
       -0.03136387 -0.1523452 -0.07818261 0.19073749
000200 75 66 e3 bc e2 80 f6 3d fa 06 2c be 64 6d 6d 3e
       -0.027758816 0.12036301 -0.16799536 0.2318626
000210 1d e7 36 bd b9 2b 9e bb dd e9 01 be 27 e2 a9 3d
       -0.044654 -0.0048269895 -0.12686868 0.08295088
000220 9e 6c 74 3d 92 5a 14 be 5d 83 6a bc eb 19 88 bd
       0.059673898 -0.14487675 -0.014313546 -0.066455685
000230 ba 86 fb bd 85 2b 46 be 5d 48 d8 bc 06 f6 dd bd
       -0.122815564 -0.19352539 -0.026401693 -0.10837941
000240 18 64 ca 3d 4b 1b db 3d c7 32 f3 3d 67 a4 5a 3e
       0.098823726 0.10698565 0.118749194 0.21351777
000250 08 21 a0 3e 2f 8c 3a bd 66 b4 16 3e 4f 2d 54 3d
       0.312752 -0.045543846 0.14717254 0.051801022
000260 9e 90 11 be ae 26 58 bd 72 f1 1e 3e 93 cb 4b 3d
       -0.14215323 -0.052771263 0.15521792 0.04975469
000270 7d 53 74 3d 6b 7c 42 be ef 60 40 3d b0 3c 30 be
       0.059649933 -0.18992774 0.046967443 -0.1721065
000280 74 50 5a bd 66 1a ae bd 7d 88 98 bd 14 f5 9d be
       -0.053299382 -0.08501129 -0.07447908 -0.30851042
000290 46 dc e9 bd 45 68 e5 3d 69 d6 66 bd af d8 ca 3d
       -0.11418967 0.112015285 -0.05635682 0.0990461
0002a0 5f d3 c8 3d 08 0a 5e 3d ce 80 64 3e a1 c9 6b be
       0.09805941 0.054208785 0.2231476 -0.23026134
0002b0 f9 c1 93 bd 11 98 3e be 88 61 3c bd 44 a2 ac 3d
       -0.07214732 -0.18612696 -0.04599145 0.08429387
0002c0 d8 95 d9 bd db 75 15 be 88 43 ae 3e 52 1f 69 3c
       -0.106242836 -0.1459574 0.34035897 0.014228659
0002d0 3c 77 29 3d 8e 65 e9 bd 33 8d 4c 3c 1b 33 43 be
       0.041373476 -0.11396323 0.012484836 -0.19062464
0002e0 b6 5f 7e 3e b2 37 60 3e dc ef 30 3e c7 9d 1e be
       0.24841198 0.21896246 0.17278999 -0.15489875
0002f0 ba 74 9c bd 46 b9 7e be a7 1d 1d 3e e3 01 30 3e
       -0.07639451 -0.24875364 0.15343343 0.1718822
000300 40 09 00 3d d8 44 b9 bd 25 44 38 3e 33 07 88 bd
       0.03125882 -0.09046334 0.17994745 -0.06641998
000310 24 87 1e bd c6 6f b0 bd 39 2b b7 39 23 4c 75 bd
       -0.0387031 -0.08615069 0.00034936683 -0.059887063
000320 e5 b7 50 bd eb 2e 05 bd 12 9f 36 3c ac da 45 bd
       -0.050956625 -0.032515448 0.011146324 -0.048304245
000330 e6 27 2e 3d c3 1f 1f 3e 6d a0 f8 bd 77 54 07 bd
       0.04251852 0.1553946 -0.12139974 -0.033039536
000340 1f d4 92 bd 46 81 6d bd 93 87 35 3e 65 dc 11 be
       -0.07169365 -0.057984613 0.17727499 -0.1424423
000350 63 d9 8a 3e b1 5a 0c be b8 92 49 3d 06 69 c0 bc
       0.27118978 -0.13706471 0.049212188 -0.02348758
000360 28 78 8b bc e4 8f 81 bc c9 b0 15 3d 8a 5b 0b 3e
       -0.017025068 -0.015815683 0.03654555 0.13609138
000370 b1 33 23 3e 86 26 bf bc ce a2 ba 3d 05 24 f8 3c
       0.15937687 -0.0233338 0.09113084 0.030290613
000380 24 e1 e6 bb 2f 9f 7e 3e b5 36 49 bc d3 57 c3 bc
       -0.007045882 0.24865411 -0.01228111 -0.023845589
000390 ca 5a 97 bd 38 d4 94 3e 95 7c fb 3d 83 67 8d bb
       -0.073903635 0.2906816 0.122796215 -0.004315318
0003a0 b0 8c ab 3d 41 a4 29 3d 83 ee 60 bd e1 c8 55 be
       0.083764434 0.04141641 -0.054914963 -0.2087741
0003b0 da a9 1e be 9d 9c 9c b9 ed 1e 30 bd 4a 21 70 3e
       -0.1549448 -0.00029871325 -0.042998243 0.23450199
0003c0 dd ad b6 bd f1 85 67 3d 99 54 99 3d 35 5d 21 bc
       -0.089198805 0.05652422 0.07486839 -0.009848882
0003d0 cb d8 aa 3e 9f ab 9c bd 2f 3d 0c bd 3e ac 66 3e
       0.33368525 -0.076499216 -0.034238037 0.22526643
0003e0 dd d7 bd 3d ad 35 0e 3e 10 81 1d 3c 99 ef 8e 3e
       0.09269688 0.13887663 0.00961329 0.27917174
0003f0 79 4d 90 bd 68 ec 0a 3e 53 7b 51 3e b0 41 f8 3c
       -0.07046027 0.13566744 0.204572 0.03030476

module.fc3.bias f4 [10]
000000 94 81 7b be 02 d2 6c bf 9a 7f 04 bd d6 f4 fa 3e
       -0.24561149 -0.92507946 -0.032348253 0.4901492
000010 5b 84 35 3f 61 73 fb bd 8c eb a6 3c fb f8 a5 be
       0.70905083 -0.12277866 0.02037599 -0.3241652
000020 b1 07 ed 3e 6e 83 c9 be
       0.4629493 -0.39358085
