models/classifier_net_epoch_4_2000.pth (torch_old, 249853 bytes, 10 tensors)

module.conv1.weight f4 [6, 3, 5, 5]
000000 c7 d5 a1 3d 70 c8 83 3e 20 ad b8 3e d1 10 10 3f
       0.07902103 0.2573886 0.36069584 0.5627566
000010 45 d2 60 3e a0 b8 13 3e f1 67 6c be df 4f 89 3d
       0.21955211 0.14425898 -0.23086525 0.06704687
000020 c4 7d 4d 3f b7 91 1a 3e f3 e2 92 3e cd e2 3e be
       0.8027003 0.15094648 0.28688774 -0.18641205
000030 64 2f 4b bf 5c 3f 2c 3f 1a 07 88 3e 7a 23 c9 3d
       -0.7936919 0.6728418 0.26567918 0.0982122
000040 bd 12 4b bd 9d 9b 25 bf 20 e5 7f 3d f6 ae a0 bd
       -0.049578417 -0.6469057 0.06247437 -0.07845871
000050 4a de 0a be f9 65 e6 bd 8d 50 f9 be b0 30 92 3d
       -0.13561359 -0.112499185 -0.48694268 0.07138193
000060 8e 95 93 be 5d 2b d1 bd f3 d6 c6 be 8c 9b 08 bf
       -0.2882504 -0.10213349 -0.38835868 -0.53362346
000070 cb 33 10 be 5a 65 cc be b0 84 a5 3e 31 a4 1c bf
       -0.14082257 -0.39921075 0.32327795 -0.61188036
000080 8b 98 32 bf 26 68 8f 3e 3f 22 29 be db 59 0f 3f
       -0.6976401 0.28009146 -0.1651697 0.55996484
000090 9e ba 8f be 9c e0 87 bf d0 6d 02 3f c4 5b 1b 3e
       -0.28072065 -1.061542 0.5094881 0.15171725
0000a0 40 57 e6 3e d3 76 3e 3e 24 65 4f bf 57 05 5d 3e
       0.4498844 0.18600015 -0.81013703 0.21584068
0000b0 45 e3 fd bd 90 38 00 3f 5d 98 98 3d b2 76 5c be
       -0.12396864 0.5008631 0.07450936 -0.21529654
0000c0 76 a8 da 3e ea a0 86 bd c9 17 8f bd ea 8d 9a bd
       0.4270665 -0.06573661 -0.069869585 -0.07546599
0000d0 06 b4 4d bd 26 b3 43 3e be b5 4d be ab c3 a1 3e
       -0.05022051 0.19111308 -0.2008886 0.31594595
0000e0 de 2f ae be 75 86 8d be 93 48 0a 3f 7a 2d cc be
       -0.34020895 -0.27641645 0.5401699 -0.39878446
0000f0 60 32 09 3f 0a 12 53 be c0 ee 3c bf d0 42 f0 3e
       0.5359249 -0.2061235 -0.73801804 0.46925974
000100 19 c5 08 be 4d 58 fc 3e 6e 65 a0 3e 5b 54 11 bf
       -0.13356437 0.49286118 0.31327385 -0.5676934
000110 f5 58 11 3e e7 f8 51 be a0 58 d3 3e 0d e9 67 3e
       0.1419409 -0.20505105 0.41278553 0.22647496
000120 9a e3 5f be 54 5a 34 3e 56 05 71 be 5a 0b 28 be
       -0.21864167 0.17612582 -0.23537192 -0.1641058
000130 ae e1 63 3e ef 98 15 3e ce fd 21 3e 22 a0 c1 3c
       0.22254059 0.14609121 0.15819475 0.023635928
000140 52 3a 92 ba e6 de d8 3e 00 a5 f1 3d ce f3 43 bd
       -0.0011156297 0.42357558 0.117990494 -0.047839932
000150 ee 0c fc bc 46 66 22 3e 18 7a 00 be 55 fa e1 be
       -0.030767884 0.15859327 -0.12546575 -0.441363
000160 8e 57 a5 be 78 c5 52 be 18 f5 4c be cd 07 13 bf
       -0.3229336 -0.20583141 -0.20015371 -0.5743378
000170 eb aa f1 be 7a a6 ef bd 5d 45 10 3b e7 d1 13 be
       -0.47200713 -0.11701675 0.0022014 -0.1443554
000180 53 4c 35 3d be a2 21 3e 23 cd d4 3e 94 64 a9 3e
       0.04426224 0.15784737 0.41562757 0.33084548
000190 b3 7b cf be 1f b8 21 3c 98 67 27 bd f1 1d 31 bd
       -0.40524063 0.009870558 -0.04087028 -0.043241445
0001a0 27 66 0a be 4f 34 16 3d fe 33 ae 3e 89 22 78 bd
       -0.1351553 0.03667098 0.34024042 -0.06057981
0001b0 da ea 17 be b2 40 4f be 13 a5 9d 3e 75 a1 cf bc
       -0.14835683 -0.20239523 0.30790004 -0.025345543
0001c0 27 54 c2 be ec da d6 be 53 18 49 be 46 73 a0 bd
       -0.37954828 -0.419639 -0.19638185 -0.07834487
0001d0 93 27 db be 8e 30 ce be 79 f9 21 be dd 7c 5e bd
       -0.4280363 -0.4027142 -0.15817823 -0.054318298
0001e0 b1 f5 85 bc 7a 11 0c be 0d 26 c5 3d 91 cd 87 3e
       -0.016352506 -0.13678542 0.09626398 0.26524022
0001f0 83 61 55 3e 0a 60 58 be 1c 92 b1 3d 8c 31 24 3d
       0.20837979 -0.21130386 0.08670446 0.040086314
000200 fb cb 5e 3e e8 c7 4c bc c7 ee 0e 3e b7 7f e0 3e
       0.217575 -0.012498833 0.13958274 0.4384744
000210 d2 67 b7 3e ce a3 71 3d fd 29 bf bd 45 29 b7 3e
       0.35821396 0.058994107 -0.093341805 0.35773674
000220 e5 b8 63 3e b0 d4 08 be 69 fd aa be 06 20 28 be
       0.222385 -0.13362384 -0.33396462 -0.16418466
000230 29 25 96 3d bc bd cd be 8f 19 a2 be e7 c6 3b be
       0.073313065 -0.40183818 -0.31660125 -0.18337594
000240 90 87 22 3d f0 f2 82 bc f1 df d1 bd 60 20 89 3e
       0.039680064 -0.015984982 -0.102477916 0.26782513
000250 92 aa 34 3e 93 95 32 3d 3e d8 7c bd 92 e6 04 be
       0.17643192 0.043599676 -0.061729662 -0.1297858
000260 94 11 37 be 09 89 9a bd 62 fa ea bd e2 9f 5a 3d
       -0.178778 -0.07545669 -0.11473538 0.053375132
000270 57 d7 93 3e ac 44 0e 3e 70 7e 0f 3e 6e 73 3c 3d
       0.2887523 0.13893384 0.14013076 0.04600852
000280 bc 16 0f be 6a eb ae 3b 0e 47 00 3e 54 85 16 3d
       -0.13973516 0.005338122 0.12527105 0.036748245
000290 89 11 63 3d 25 0d d4 be 76 a4 b0 be 8a d8 b4 be
       0.055436645 -0.41416278 -0.34500474 -0.35321456
0002a0 da bf c9 be d9 1c b6 be e6 b8 1c be 3c 2b 8a be
       -0.39404184 -0.35568884 -0.15304908 -0.2698611
0002b0 d5 d9 62 be 37 28 71 be db 1d 32 be 5f e3 89 be
       -0.22153409 -0.23550497 -0.17394201 -0.26931283
0002c0 d7 19 95 be 90 fc 18 be ef d3 24 be 42 b3 6e be
       -0.29121277 -0.14940095 -0.16096471 -0.23310569
0002d0 77 3f 89 3e a1 b9 ac 3e 6f 32 d4 3e a3 64 8d 3e
       0.26806232 0.33735374 0.41444728 0.27615842
0002e0 eb e0 84 3e 03 ec 12 3d 3e 93 3c 3d 5d 6b 01 3e
       0.2595285 0.03586961 0.04603886 0.12638612
0002f0 05 5a 12 3e 47 76 3e 3e d1 47 8f be f2 5b c5 be
       0.14292152 0.18599807 -0.2798448 -0.3854671
000300 3b b9 8f be a4 d4 5a be 69 e5 23 be c5 d5 1f bd
       -0.28071007 -0.21370178 -0.16005482 -0.039022226
000310 27 23 11 be fb 42 b9 bd 07 74 fe 3c 13 2b 89 3d
       -0.14173566 -0.09045979 0.031061186 0.06697669
000320 e2 6c 0f be fb 99 3b 3d 9a f6 3d 3b 2f 30 7b bd
       -0.14006379 0.045801144 0.0028986097 -0.06132525
000330 8a 51 32 be 15 7e c3 3e 1c 05 a4 3e 33 04 0a 3f
       -0.17413917 0.3818213 0.32035148 0.5391266
000340 6f f7 05 3f da d9 b2 3e 6c 27 34 3e 44 76 8f 3e
       0.5233068 0.34931833 0.17593163 0.28019917
000350 3a 61 87 3e 6a 41 c9 3e da af 80 3e b7 e9 07 3d
       0.26441365 0.3930772 0.25134164 0.033181872
000360 55 9e d2 3d be 32 f0 bc 8d c3 64 3d 1a 32 ca 3d
       0.10284106 -0.02932107 0.055850554 0.09872837
000370 71 51 24 3e f3 f6 10 3e e7 0f 04 3e 33 f6 81 3e
       0.16046692 0.14156704 0.12896691 0.25383148
000380 06 04 4a 3e 43 9c 72 3e ef d8 70 3e 25 8b 53 be
       0.19728097 0.23692422 0.23520254 -0.20658548
000390 94 cb e1 3c ed d4 eb bd ea 9d 8b 3e b5 9f 4d be
       0.027562894 -0.11515222 0.27268916 -0.20080455
0003a0 7d 82 ac be 09 d3 f0 3d 30 8c a5 3d a7 86 40 3e
       -0.33693305 0.11759002 0.08083379 0.18801366
0003b0 eb 60 8d be 01 ef 96 be 74 3f ba 3e 2d 3f 8c 3c
       -0.27613005 -0.2947922 0.36376536 0.017119968
0003c0 9f b1 12 be 3a b2 d3 be fe 14 5f bd 72 31 8f 3e
       -0.1432557 -0.41346914 -0.05446338 0.2796741
0003d0 db f3 27 3e 26 a9 fd bb 87 42 8f be d2 2f eb 3d
       0.16401617 -0.0077411113 -0.27980444 0.114837304
0003e0 a1 ac c0 3e 52 7d a7 bc 10 33 f7 3d 23 23 e4 3c
       0.37631705 -0.0204455 0.12070286 0.027848786
0003f0 b8 90 74 be b1 aa 06 3e 74 08 9e 3d 68 38 eb 3d
       -0.23883331 0.13151051 0.07716456 0.11485368

module.conv1.bias f4 [6]
000000 09 34 84 be cf 77 09 bf 1d c7 18 bd 07 e6 30 be
       -0.2582095 -0.5369844 -0.037299264 -0.17275248
000010 99 30 98 bd 49 98 65 be
       -0.07431144 -0.22421373

module.conv2.weight f4 [16, 6, 5, 5]
000000 ca 41 9e 3e 79 27 b0 bd 90 c8 01 3f 4a 9c 29 3d
       0.30909568 -0.08601279 0.5069666 0.041408814
000010 ff 12 88 bc 66 80 5b 3e 5f 03 3a be de e2 69 3e
       -0.01661062 0.21435699 -0.18165348 0.22840449
000020 9b fd a1 3e a3 a5 f6 3c 24 cf 01 3e 9e e0 95 bd
       0.31638798 0.030108279 0.12676674 -0.07318233
000030 15 3f 21 bc 1c 47 8e 3e 53 92 e6 bb 7f 04 aa bd
       -0.0098417 0.27788627 -0.007036486 -0.08301639
000040 f7 ab c5 3d 07 f5 a6 ba a2 a9 2f 3e 48 af 17 3d
       0.0965194 -0.0012737819 0.17154554 0.037032396
000050 4f bd c2 bd bc 49 d2 bd 5e 71 47 be 4e d4 d6 bd
       -0.09508764 -0.1026797 -0.1947684 -0.10489713
000060 81 e2 ba bc 7d 32 9b bd 25 59 e8 3d 7f 49 e7 3d
       -0.022813084 -0.07577989 0.11345128 0.11293315
000070 2a 32 8d 3c 9f 6a 31 3c 88 89 31 be e2 69 96 3c
       0.017235834 0.010828643 -0.1733762 0.018361036
000080 03 66 0f bb e4 c4 c3 3c 55 70 b1 b9 dc cd 7a be
       -0.0021880872 0.023897596 -0.00033843765 -0.24492592
000090 32 5e f6 3b 2e af 1a 3e dc d9 c4 3d d7 c1 f2 3d
       0.007518553 0.15105888 0.09611866 0.11853378
0000a0 ce 95 97 be 43 c7 6b be 68 93 98 bd bd 15 44 3d
       -0.2960648 -0.23025231 -0.074499905 0.047872294
0000b0 0f c3 3a 3d ae c7 6c be 5e 0d c1 bd 41 65 0a be
       0.04559618 -0.23123047 -0.09426378 -0.13515188
0000c0 17 fa 88 bd 97 b2 6c bc fa 8f 5b bd 82 ab a3 bd
       -0.06688326 -0.014446876 -0.053604104 -0.07991697
0000d0 1b c7 18 bd 4e da 26 3d ed 8b 62 3d 89 2f 66 be
       -0.037299257 0.040735535 0.055309225 -0.2247907
0000e0 26 aa df bd 4f 6d c4 bd a9 aa 18 bd e5 bb ac bd
       -0.10921125 -0.095911615 -0.03727213 -0.084342755
0000f0 c3 06 99 be f3 47 7d be f8 ff 53 be 7e 08 07 be
       -0.2988797 -0.24734478 -0.20703113 -0.13186833
000100 05 9a 0c be f0 01 44 be cc cd 24 bd ad 42 1d 3d
       -0.13730629 -0.19141364 -0.040235326 0.038393665
000110 0d 5b 17 bd e4 af 5b 3d b7 d0 5a be 95 fc cf bd
       -0.036952067 0.05363454 -0.21368681 -0.10155598
000120 be db a1 bd d9 7c f7 bb e4 d0 6c bd 7d 97 aa 3e
       -0.079032406 -0.007552725 -0.0578164 0.333187
000130 5b 93 ac 3d 9d 11 a7 3c cf 88 c1 3e 05 32 66 bc
       0.08426543 0.02039414 0.3779969 -0.0140500115
000140 ed ee 04 3d d5 41 86 3c b5 0f e0 bd d0 e3 23 3e
       0.03245442 0.016388813 -0.10940496 0.16004872
000150 66 c3 3a 3e b4 4e a1 bd 6c 4a 21 3d e5 87 15 be
       0.18238601 -0.078763396 0.039377615 -0.14602621
000160 fb 71 b2 bd a1 4b 87 3e d6 f9 50 be 46 94 41 3d
       -0.08713146 0.26424888 -0.20407805 0.047260545
000170 d4 27 ec bd 99 00 19 be 0d 61 d3 3d 80 76 92 be
       -0.11531034 -0.14941634 0.10321245 -0.28606033
000180 e0 38 30 bd ca a6 10 be b8 78 18 be 81 e7 7f be
       -0.04302299 -0.14126125 -0.148898 -0.24990655
000190 38 e6 cb bc d5 32 6e bd f6 39 16 be 19 4c 17 3d
       -0.02489005 -0.058153946 -0.14670548 0.036937807
0001a0 5b 08 9d 3d 41 b8 92 bd a2 2a 61 bd 65 df ee bd
       0.07667609 -0.0716405 -0.0549723 -0.11663703
0001b0 57 87 69 bd f8 cd b5 bd 47 c1 e5 bc ea a2 92 bd
       -0.057013836 -0.08877176 -0.028046263 -0.0715998
0001c0 72 b5 b4 b9 8b d2 6b bc d2 f7 04 bc a0 65 38 bb
       -0.00034467463 -0.014393459 -0.008115726 -0.0028136745
0001d0 b8 e4 d7 b9 69 57 1a bb 10 05 4b bc 62 8d fc 3c
       -0.00041178404 -0.0023550636 -0.012391344 0.030829135
0001e0 31 4c 16 bc b0 72 87 3c d7 21 5d 3c 92 c5 aa 3d
       -0.009173439 0.01653418 0.013496838 0.08338465
0001f0 5f 57 0b 3e db f5 4b bd d5 f4 ed bc e3 e8 5d be
       0.13607548 -0.049795013 -0.02904741 -0.2167087
000200 99 21 08 bc 7d 9f 22 bc 2e 51 31 bd ac 7e 63 bd
       -0.008308792 -0.00992572 -0.04329031 -0.055540726
000210 2a 2c d3 bd ee 64 9d bd 16 a6 89 3c 17 c2 28 3c
       -0.10311158 -0.076852664 0.016802829 0.010300181
000220 55 c7 c2 3c 76 9e 51 be 1c 82 35 be e7 04 88 bd
       0.02377669 -0.20470604 -0.17725414 -0.0664156
000230 55 c4 a9 bd 22 50 ed 3d 1d fc e2 bd fe 5c 2e be
       -0.082894005 0.1158755 -0.11083243 -0.17027661
000240 a7 5d db bd 47 e6 6b 3d 3e 1e 3c 3d 43 62 3f bb
       -0.10711222 0.057592656 0.04592728 -0.0029202856
000250 d3 86 b6 bd 63 42 d1 bd 77 68 1f be 91 94 46 bd
       -0.089124344 -0.102177404 -0.15567194 -0.048481528
000260 46 4c 01 3d 48 0d b6 bd 8a 35 9e 3c 03 47 7f bc
       0.03156688 -0.08889252 0.019312639 -0.015580895
000270 8f c6 53 3c 64 81 a7 bd cf 23 34 3c 03 d3 bc 3d
       0.012925758 -0.08178976 0.010994866 0.09219935
000280 df e4 e0 3e 10 57 09 be 2d 51 1f be 89 65 db bc
       0.43924615 -0.13412118 -0.1555831 -0.026781814
000290 e9 a3 8b bd 10 3a f3 3e 8b 16 0c 3f c6 48 d3 3d
       -0.06818373 0.47505236 0.547219 0.10316615
0002a0 b3 34 e4 bd b8 dd 45 be 31 bb a1 be 79 c9 af 3c
       -0.11142864 -0.1932286 -0.31588128 0.021458374
0002b0 88 38 86 3e cf c0 18 3e 79 d1 bd 3d 0c 72 1f bd
       0.26215005 0.149173 0.09268469 -0.038927123
0002c0 af b9 50 be 54 3a a5 bd e2 f0 88 bd f3 fc f7 bc
       -0.20383333 -0.08067766 -0.0668657 -0.030271983
0002d0 f1 47 97 3d e4 07 48 be ae a8 71 be b2 1f b6 bd
       0.073867686 -0.1953426 -0.23599502 -0.08892764
0002e0 08 26 9f 3d 9f bd c2 3c 39 50 9c bc 20 18 84 be
       0.07770926 0.023772059 -0.019081222 -0.25799656
0002f0 03 92 1a be af 28 26 3d e1 c1 3c 3e f8 b5 07 3e
       -0.15094762 0.040566143 0.18433334 0.1325301
000300 7b 29 1b 3d 26 3f 01 be a9 8f b3 bc 78 eb f1 bc
       0.037881356 -0.12621745 -0.021919088 -0.029531226
000310 11 2c 47 3e 21 46 58 3e d3 7d 8c 3e 98 f0 20 3e
       0.19450404 0.21120502 0.27439746 0.15716779
000320 11 34 de 3c 65 0b eb 3d b6 7d 19 3d fa cd 9e bb
       0.027124437 0.11476783 0.037473403 -0.0048463317
000330 b0 81 9f 3d a1 f4 37 3b 94 81 8c 3d df 5f d0 3d
       0.07788408 0.0028069394 0.068606526 0.10174536
000340 62 1f 83 3c 1c 08 23 bd 73 b9 cc bc cd 8b 3d 3e
       0.016006175 -0.039802656 -0.024990773 0.18510361
000350 20 36 0b 3e 66 bb a6 3b 6e de 1b be 0f 9b f5 be
       0.13594866 0.0050882576 -0.15221569 -0.47969863
000360 c3 ae 70 3d fb 18 95 3e e9 8a 02 3e 19 75 99 be
       0.058760416 0.2912062 0.12748303 -0.2997215
000370 4c 93 7e be a0 fe 62 be 67 36 dd 3d 53 e9 10 3e
       -0.24860877 -0.22167444 0.10801392 0.14151506
000380 38 a8 61 3e 0a 28 29 bd bc 70 03 be f6 35 0c be
       0.22036827 -0.04129795 -0.12835974 -0.1369246
000390 d9 1b 4f ba a6 83 54 3d d4 74 8c 3d ba b0 8e bc
       -0.0007900573 0.051883362 0.06858221 -0.017418254
0003a0 34 d6 7b bd 87 2a 20 3d 2e a6 e0 bd 68 b7 47 bb
       -0.061483577 0.039103057 -0.10969196 -0.003047431
0003b0 22 78 fe 3d dd f8 11 bd f4 91 71 bd 46 9f 3c be
       0.12425257 -0.035637725 -0.058977082 -0.18420133
0003c0 41 44 91 be ad cb a0 bd 32 8d 37 3e 1f 6a 0c 3e
       -0.28372386 -0.07851348 0.17924955 0.13712357
0003d0 2d 3f 7b 3e c4 77 ac be 28 0e ec be b0 6a ba be
       0.24535818 -0.33685124 -0.4610455 -0.3640952
0003e0 29 32 1d be 62 4c 43 bc 87 2b 1c be 05 c5 e4 bd
       -0.15351166 -0.011920067 -0.1525098 -0.11170391
0003f0 2b 1c ef bd 1f b2 40 3d e6 d9 86 3d 88 54 dc bd
       -0.116752945 0.04704487 0.065845296 -0.107583106

module.conv2.bias f4 [16]
000000 3b b8 37 3e ec ac 99 bf 82 01 43 bf c4 fb 4e bd
       0.17941372 -1.2005897 -0.76174176 -0.05053307
000010 aa 1d 34 3f a0 f7 f3 3d 35 26 a5 3d 51 5b 56 3f
       0.70357764 0.11912465 0.08063928 0.8373309
000020 ff 16 33 be cf 64 18 be 47 d3 18 bf 9d b3 8b 3f
       -0.17489241 -0.14882205 -0.59697384 1.0914189
000030 8f b4 a5 3e 69 b6 e2 be 1b 60 73 3d 74 81 02 3f
       0.32364318 -0.44279793 0.059417825 0.5097878

module.fc1.weight f4 [120, 400]
000000 ce d9 f4 3b cc 56 c8 bb f0 9b 85 bd 60 a8 01 bc
       0.0074722534 -0.0061138626 -0.06523883 -0.007913679
000010 d3 65 9a bd 69 93 c9 3d 39 30 48 3d 1f 8c 32 3d
       -0.07538953 0.098425694 0.048874114 0.04359066
000020 bf 37 19 3c 40 b4 0c bc be c7 bc 3c a1 27 7e 3c
       0.00935167 -0.008587897 0.023044463 0.015512378
000030 26 82 ad bb 93 38 d3 3c d7 ed 0b 3d 5a 00 b2 3c
       -0.005295056 0.025783813 0.03416237 0.021728683
000040 bb db 7e 3c 62 ed d8 bd 8b 92 c6 3c 1a fe d9 3b
       0.0155553175 -0.10592152 0.024239799 0.0066526057
000050 3a 8e 5f 3d 63 d2 2a 3d 0a d6 a1 bd 7b af 96 bd
       0.054578997 0.041704547 -0.07902153 -0.07357689
000060 64 97 30 3d 90 c3 9a 3d 87 85 b7 3c 47 0f 25 3d
       0.043113127 0.07556832 0.022402538 0.040297773
000070 0e d5 52 3d ff 7a be 3d 97 be 2a 3d 2e b9 4e 3d
       0.051472716 0.093008034 0.041685667 0.05046957
000080 4d 0e 60 3d 30 fb 99 3d f5 eb 5a 3d 00 b1 33 3e
       0.05470114 0.07518613 0.053447682 0.17547989
000090 87 7a cb bc dc c4 8c 3c b8 4c 89 3d 37 8c b0 3c
       -0.024838699 0.017183714 0.06704086 0.021551235
0000a0 15 b4 c9 3b 68 97 1d bd e0 fd 28 be 8d 5d 9a bd
       0.0061555007 -0.03847447 -0.16503096 -0.07537375
0000b0 2d d4 84 3c 28 3e 35 be 32 fe 28 bd cf f8 98 bd
       0.016214455 -0.17699492 -0.041258045 -0.074693315
0000c0 07 2e bf bd fb da 95 bc 86 43 09 3e f7 4e df 3c
       -0.09334951 -0.018292895 0.13404664 0.027259333
0000d0 7e b1 d8 3c 47 e0 2d 3d a3 87 b4 bd ba 65 38 3d
       0.026451822 0.042450216 -0.08814933 0.04501889
0000e0 10 6d f4 bc 5c 54 d7 bc bd 72 2d bc 7c 66 2c bd
       -0.029837161 -0.026285343 -0.010586438 -0.042089924
0000f0 52 6c 37 bb 61 22 01 3d 63 39 6b bd 34 0d b4 bd
       -0.0027988148 0.031526927 -0.057427775 -0.08791581
000100 d6 6d 84 bd 1e c7 b8 3d 8a e4 a7 bb eb ae 67 bd
       -0.06466262 0.090223536 -0.0051236795 -0.0565633
000110 eb f8 91 bd 9b 9a 5a bd 24 d2 e9 bd 29 7a 76 bb
       -0.071275555 -0.0533701 -0.11417034 -0.0037609434
000120 2a a8 96 bd c6 fb e7 bc b2 ec 89 bc 84 2b 8e bc
       -0.073562935 -0.028318297 -0.016836498 -0.017354734
000130 c1 dd 66 bd 91 97 cd bc 83 ee 2d bc 29 b3 98 3a
       -0.056363825 -0.025096687 -0.010615948 0.0011650074
000140 a1 50 4f bc d9 93 74 bd 56 6d df bc 56 60 89 3a
       -0.012653501 -0.05971131 -0.027273815 0.0010480981
000150 48 3c ba 3d 1a 36 a5 bd 33 6b a7 bd 43 e9 fb 3b
       0.09093529 -0.0806696 -0.081747435 0.007687719
000160 e8 49 5b bc 9b f3 34 3d a8 a7 15 bd 6c 62 bf bd
       -0.01338432 0.044177633 -0.036536843 -0.09344944
000170 60 df 1f 3d 20 90 07 bd 4f 16 4d 3d 9c 63 a5 3d
       0.039031386 -0.033096433 0.050070103 0.080756396
000180 4a 13 7b 3d c8 6b 1b 3d 3a 12 16 bd 50 a9 a7 3d
       0.061297692 0.037944585 -0.036638476 0.08186591
000190 69 a8 d1 3d 73 c0 18 3d 9b d2 9f 3d ab 51 2b 3d
       0.102372 0.03729291 0.07803842 0.04182593
0001a0 a3 37 98 bc 54 44 af 3d d5 72 82 3d 32 51 90 3d
       -0.018581217 0.085579544 0.06369559 0.07046737
0001b0 4a 62 98 3c 0b d3 13 bd a4 cf 5f 3c 20 b0 70 3d
       0.018601555 -0.036089938 0.013660345 0.058761716
0001c0 e9 97 d7 3d 37 97 b2 3d ae b3 97 bd c2 fa 0f 3c
       0.105270214 0.08720248 -0.07407318 0.008787813
0001d0 2e e5 6b bc 1a fa 08 3d 12 c2 63 bc 65 1b d7 3a
       -0.014397902 0.03344164 -0.01390125 0.0016411362
0001e0 50 a6 c6 3d 2a 24 40 bc 0b 73 90 bc 27 bc aa bd
       0.0969969 -0.011727372 -0.017632982 -0.083366685
0001f0 01 19 92 bc c9 67 18 bd a2 88 2d bd 6b 3b 3a 3d
       -0.017834188 -0.037208352 -0.04236663 0.04546682
000200 4f 6f b2 3b c0 c9 ff bd 22 c2 ba bd 7b b1 3f bc
       0.005445398 -0.12489653 -0.09119059 -0.0117000295
000210 95 5e 46 bc a0 a6 86 3b 84 b0 93 bd 4f ab 2b 3d
       -0.012107511 0.0041092187 -0.07211402 0.04191142
000220 66 25 71 3d 59 7e 87 bd 03 5e 9c bd 70 7a eb bd
       0.058873557 -0.06615896 -0.07635119 -0.114979625
000230 fb b8 61 bc 33 46 93 bc 42 bd d1 3c d3 22 de bb
       -0.013777013 -0.01797781 0.02560294 -0.0067790537
000240 2f 61 61 bc a0 03 b5 bd c9 9f 76 bd 1c ec ec bc
       -0.0137560805 -0.08838582 -0.060210977 -0.02892118
000250 11 4f cd bc 44 1d a5 bc 11 fe 2f 3d 31 24 94 3c
       -0.025062116 -0.020155556 0.042966906 0.018083664
000260 56 59 2e bd 8c cd cb bd 17 1f 3a bd 20 7f f3 3c
       -0.042565666 -0.09951314 -0.045439806 0.029723704
000270 72 9f 9b bd 8f 4a 9a bc 18 1d 8a bd e5 b9 30 bc
       -0.07598771 -0.01883438 -0.067438304 -0.010786508
000280 d2 c2 1f 3d 8b f8 da bc 99 1e a9 bd dc 8f 9f bd
       0.039004155 -0.026729843 -0.08257789 -0.07791111
000290 0e e5 3b bd d6 8f 85 bc 5d 5a 57 bd da 1d a9 bd
       -0.04587274 -0.016303938 -0.05257641 -0.08257647
0002a0 15 e6 8d bd 07 ee 85 bd ba 23 3e bd 7e 59 8f bd
       -0.0692865 -0.06539541 -0.04642079 -0.06999491
0002b0 fb 92 34 bd b4 aa ad 3c f7 3c 56 3d 7e 3e 8e 3d
       -0.044085484 0.021199562 0.052304234 0.06945513
0002c0 15 01 8a bc ce 6a ed 3a 80 ec db 3d 02 29 19 3e
       -0.01684622 0.0018113495 0.10738468 0.1495705
0002d0 4c a5 c2 3c 36 9c 89 3d 10 db 03 3e 51 42 99 3d
       0.02376046 0.06719248 0.12876534 0.07483352
0002e0 1a d8 43 3d a8 9e d4 bc 41 d8 f2 b9 71 f4 ae 3b
       0.047813512 -0.02595456 -0.0004631896 0.0053391983
0002f0 fd d6 67 3c 6f de 9f 3d f7 7d 4e bd 0b c2 ae 3b
       0.014150378 0.07806098 -0.0504131 0.0053331903
000300 6a b0 3b bc 0e 84 a9 3c f3 47 09 3d 64 c5 fc 3c
       -0.011455635 0.020692851 0.03351588 0.030855842
000310 ea f6 fc bb 96 5d ca bc 5f c5 12 3d 18 7b 8b bc
       -0.007719864 -0.024702828 0.03583276 -0.01702647
000320 2a 98 ca bd 0d a5 7c bb ca 76 e6 bd d7 44 04 be
       -0.09892304 -0.0038550526 -0.11253126 -0.12916885
000330 44 f3 06 bd f2 20 34 bd de 71 46 bd bf b9 32 38
       -0.03294684 -0.04397673 -0.048448436 4.2611497e-05
000340 90 b2 b1 bd d8 8f f8 3c 93 5c 88 3c d9 0f 15 3c
       -0.08676636 0.030342028 0.016645705 0.009098017
000350 5d 15 80 3c 50 74 d7 bc eb 63 cb 3d 4b e2 6e bd
       0.015635187 -0.02630058 0.09931167 -0.05832128
000360 7c 14 72 bd ab d8 7a bc 1c 57 28 bd ae 08 88 3d
       -0.059101567 -0.015310447 -0.0410987 0.066422805
000370 94 79 01 be c2 95 84 bc f0 3e 84 bd fe dc 68 bd
       -0.12644035 -0.016184691 -0.06457317 -0.05685138
000380 26 87 9c bd 8e e5 ae 3b 88 c4 2d bd 2c 92 8d bd
       -0.07642965 0.0053374236 -0.042423755 -0.06912646
000390 f5 58 17 bd 0d 06 d4 bd 7a da aa 3d 56 31 55 3d
       -0.03695007 -0.103527166 0.08342452 0.052049004
0003a0 e9 57 3d bc 19 64 a1 3c f0 e4 07 be ec 40 18 3e
       -0.011556604 0.01970105 -0.13270926 0.14868516
0003b0 9b 8b 0f 3d a6 84 07 3d 9a 5e 8d 3d 32 bc 6b bd
       0.035045248 0.033085488 0.069028094 -0.057552524
0003c0 4c fc f5 3d f5 6a 00 3e a6 39 00 3d 34 ba 93 3d
       0.120110124 0.12540801 0.031304978 0.0721325
0003d0 6a 86 d8 3c 09 81 b5 3d bb 42 79 bc 0b 72 a4 3d
       0.026431281 0.08862502 -0.015213664 0.080295645
0003e0 84 2d f2 3d 8b f7 f3 bc 12 5c e3 bc 5d 62 11 bd
       0.11825088 -0.029781124 -0.027753863 -0.035494197
0003f0 5d f1 46 bd 89 f1 b7 bd ba 08 07 bd 87 cd 16 bd
       -0.048570026 -0.08981616 -0.032967307 -0.0368171

module.fc1.bias f4 [120]
000000 39 9e 3c 3e 72 41 08 be 75 ad 09 be ab 71 3c bd
       0.18419732 -0.13306215 -0.13445075 -0.04600684
000010 50 8c 4d be de 5a 2a be 75 19 4b 3d e4 ea 5a 3d
       -0.20073056 -0.16636226 0.049584825 0.053446665
000020 56 7b 80 bd 25 5f fa bb 87 10 1e 3d 0d 47 2b 3d
       -0.062735245 -0.0076407366 0.03858998 0.041815806
000030 7a d4 e6 bd 2a 13 a8 be 6b d0 2e 3c 6a db 70 3e
       -0.112709954 -0.3282712 0.010669808 0.235212
000040 29 c8 16 3d 7b c3 da 3d 6c 8c 17 3e 88 db 2c 3d
       0.03681198 0.10681816 0.1479966 0.04220155
000050 4a 97 51 3d 9f 2e c4 3c c6 34 c1 bd 87 6b 24 bc
       0.05116967 0.023948012 -0.09433894 -0.010035402
000060 b7 3c a8 bd 79 82 62 bd 8f df a7 bd 22 dd 28 3e
       -0.082147054 -0.05530021 -0.08196937 0.16490605
000070 30 fa 91 3e 88 10 5f 3d 95 f8 85 ba 1f c1 f6 bc
       0.2851119 0.054459125 -0.0010221178 -0.030121384
000080 83 09 28 3d b5 b2 ff bd c3 12 38 3d 6f 6d 79 3e
       0.041024696 -0.124852575 0.044939768 0.24358152
000090 44 09 14 3e 57 7e a9 3d d1 f2 d4 3c 45 ae 5e 3e
       0.1445666 0.082760505 0.02599469 0.21746166
0000a0 7b f5 e0 3d 0a 91 00 3e 85 21 15 be bb 8b 09 3e
       0.10984322 0.12555328 -0.14563568 0.13432209
0000b0 8e 3d 4d 3e 09 60 b5 3e 30 5f a6 bc 02 ea 3f 3e
       0.20043012 0.35424832 -0.02030906 0.1874161
0000c0 f7 7c 10 3d 0c c4 e8 3d ea e4 92 3e 41 3d 80 bd
       0.035275426 0.11365518 0.28690273 -0.06261683
0000d0 a5 a2 c2 3d 68 1e a2 3c 8f 28 2f 3e e0 95 99 3b
       0.09503678 0.01978989 0.17105316 0.004687056
0000e0 d3 1b cf bd 97 75 57 3d f2 4d 87 3d be 4f 7e 3d
       -0.10112729 0.052602377 0.06606664 0.062087767
0000f0 1c 72 ba 3e 1f 27 88 3c aa 32 3a 3e 22 4d 53 3d
       0.36415184 0.016620217 0.1818339 0.05158723
000100 a0 f0 26 3d b8 87 10 bd 6d 2b 72 be 55 f6 8c be
       0.04075682 -0.03528568 -0.23649378 -0.27531686
000110 a7 e7 2e 3d f0 ce 6a 3d b4 e6 12 3e 13 cd 7e bd
       0.04270139 0.057326257 0.14345819 -0.062207293
000120 2d cf 99 bb aa 7f 8b bc f1 0e 52 bd 48 47 8d bd
       -0.0046938867 -0.017028648 -0.05128378 -0.068983614
000130 71 24 b7 3d cc 43 e3 3d 5c 1c a2 3d ac ed 02 bd
       0.089424975 0.110969156 0.07915565 -0.031964943
000140 fe 3f eb bd 36 81 dd 3d 58 30 69 3d 1a d9 b4 3d
       -0.11486815 0.10815661 0.05693087 0.08830471
000150 24 19 d3 3d 40 63 c5 3e 21 49 12 3e 30 42 e4 bd
       0.103075296 0.38552284 0.14285709 -0.11145437
000160 52 32 8f be 4f 01 23 3e cd 50 3f bd 97 6b 3e 3e
       -0.2796808 0.15918468 -0.046707917 0.1859573
000170 ff 46 5b 3d 79 59 b1 bb 7e 70 01 be 35 a2 81 3e
       0.053534504 -0.0054122773 -0.12640569 0.25319067
000180 bf 74 93 3d 09 f7 30 3e ec 49 16 3e 3e 12 b5 bd
       0.07200002 0.17281736 0.14676636 -0.0884137
000190 cc eb 0e bd 88 b6 23 bd 5d 6c 99 bc e1 94 a3 bc
       -0.034892842 -0.039968997 -0.01872843 -0.019968452
0001a0 a5 af 68 3e b9 76 80 be 77 4d 02 bd a3 fa b4 bd
       0.22723253 -0.25090578 -0.031812157 -0.08836868
0001b0 70 0f f1 bd 4d 67 4e 3e a2 c6 34 bd ad 5b 62 bd
       -0.117705226 0.20156594 -0.044134744 -0.05526321
0001c0 b5 9d 36 3d a1 0b dd bc 60 a3 03 3d a7 48 af 3d
       0.044583995 -0.026983084 0.03213823 0.08558779
0001d0 75 ca 81 bd 35 64 78 bc ac 4d a5 3d 62 f1 74 3e
       -0.06337444 -0.01516061 0.08071455 0.23920205

module.fc2.weight f4 [84, 120]
000000 46 bb 26 be 5e 65 49 bb 10 16 dc bc ff e3 04 bc
       -0.16282377 -0.0030730586 -0.026865989 -0.008110999
000010 ee 87 2b be b6 06 52 3d 75 a2 b2 3b 2f ac bb 3d
       -0.16751072 0.05127593 0.0054514953 0.09163701
000020 74 7c 0f 3e e2 d9 9f bd 18 9a 41 39 5a 01 79 3d
       0.14012319 -0.0780523 0.00018463319 0.060792305
000030 e5 a0 c8 39 d7 b9 c1 bb 03 ab 88 bd 6b f7 03 be
       0.00038266848 -0.0059120464 -0.06673243 -0.12887351
000040 51 b1 e4 3d c4 c2 ac 3b 48 a3 37 bc 9c 91 80 3d
       0.11166633 0.0052722413 -0.011208363 0.06277773
000050 68 51 9c bd 22 fa 43 3d 75 d5 61 3d df 01 8b 3b
       -0.076327145 0.047845967 0.05513521 0.0042421664
000060 4c ef fc 3d d8 b9 85 b8 ff 02 31 3e c1 ca 0f be
       0.1235033 -6.37655e-05 0.17286299 -0.14042188
000070 0a c4 2b bd c4 6b d3 bc 36 38 5d 3c 14 a5 8b 3c
       -0.041935004 -0.025808223 0.013502171 0.017046489
000080 c6 df c2 bd 73 bb e5 bb 2e f4 27 3d c1 79 a4 bd
       -0.09515338 -0.007010871 0.041004352 -0.08031035
000090 72 b7 b7 3d a4 6a 8f 3d e8 de 76 bd 0c 07 c3 bd
       0.08970536 0.07002762 -0.060271174 -0.095228285
0000a0 c9 ef 1a bc e6 59 b1 3d 80 20 f7 bb 0b 7c 40 3b
       -0.009456583 0.08659725 -0.007541716 0.002937081
0000b0 07 98 23 bd 2d aa c3 bd 61 8f 9a bd c0 ee e2 3d
       -0.039939906 -0.09553943 -0.075468786 0.11080694
0000c0 c8 1b 66 3c 1e c7 5c bd d1 68 22 3d 42 5a 66 bd
       0.0140447095 -0.05390083 0.039650742 -0.05623842
0000d0 9e 2f 52 be a0 11 19 be 12 65 55 3d 7b ad 81 3d
       -0.20525977 -0.1494813 0.05209834 0.06331917
0000e0 51 73 b3 3d 84 9c 98 bd 22 b4 c0 bc ab 51 c6 bd
       0.08762229 -0.07451728 -0.023523394 -0.09683546
0000f0 9b 43 ff bc 86 6c 8d 3d 3b 5d fa bd 3f 39 c6 bc
       -0.031160166 0.06905465 -0.122248136 -0.024197219
000100 27 21 67 3d cb b4 b8 3d d4 f3 7a 3d 7b 75 81 3d
       0.0564281 0.090188585 0.06126769 0.06321236
000110 ed 2d 56 bd c0 f4 bd 3d 9e a4 e7 bd 1e 18 5c bd
       -0.052289892 0.09275198 -0.11310695 -0.053733937
000120 fe 9c 41 3d e0 eb d5 3d 0a 99 38 3d 4a 87 08 3e
       0.04726886 0.1044538 0.045067824 0.13332859
000130 47 e3 ad bd 8f 66 71 bd 5a 57 d0 bd ff f8 3a bd
       -0.08490615 -0.058935698 -0.10172911 -0.045647617
000140 d8 08 8a bd aa 1c 0c be f8 c3 6e bb 7b e7 2e bc
       -0.06739968 -0.1368281 -0.0036432724 -0.010675306
000150 99 b3 52 bd 07 b8 c1 bd 85 d9 09 3e a9 55 a8 38
       -0.05144081 -0.094589286 0.13461883 8.02682e-05
000160 14 c6 9c 3c f1 47 c2 bd 00 f9 93 bd 93 c3 84 39
       0.01913742 -0.09486378 -0.07225227 0.00025322716
000170 47 95 f2 bd 71 fd e5 3c dc 83 6b 39 06 5e 8e bd
       -0.11844879 0.028074952 0.00022460468 -0.06951527
000180 2a 6d 77 39 36 8a 3b bc 2d 24 96 bd a5 7f 9e bc
       0.00023596422 -0.011446526 -0.07331119 -0.019347975
000190 d4 64 fa bc f5 ca f8 3c 04 67 4a bd 76 9d 3a 3b
       -0.030565657 0.030370215 -0.04941465 0.0028475202
0001a0 e4 20 1a be a9 0c 8c bb bf 8d ba bc 62 2e a6 3d
       -0.1505161 -0.00427397 -0.022772668 0.081143156
0001b0 9d 4b b1 3d 3e a2 5c bd c0 17 8c bd a8 5d 00 bc
       0.08657 -0.053865664 -0.068404675 -0.007834829
0001c0 8c ff 9c bb ae 62 b3 bd c9 3c 07 3d fb 88 a9 3d
       -0.0047912057 -0.08759056 0.033016954 0.0827808
0001d0 2c 51 a8 3b 67 c6 ac 3d ee 5e 2e bd d7 e7 bf bd
       0.0051366296 0.0843628 -0.042571 -0.09370392
0001e0 6c 1e 17 3e 4f 12 e7 3d b8 43 60 3c 3e 06 26 be
       0.14757699 0.11282789 0.01368802 -0.16213319
0001f0 a8 b2 e2 3d 94 04 04 be ba 40 1c 3e ab db b6 bd
       0.11069232 -0.12892371 0.15259066 -0.08928617
000200 7b 23 81 3d 19 0a 3c bc 98 e0 7d bd d4 e1 2e 3e
       0.063055955 -0.011477017 -0.061981767 0.17078334
000210 a9 01 2c bd 6f 0f 3c 3d dc 5a 45 3d f5 3f 96 3d
       -0.04199377 0.045913156 0.048182353 0.073364176
000220 00 ae 18 3d 19 ba 78 bd d1 00 b7 bc d5 14 cf bc
       0.037275314 -0.06072435 -0.022339256 -0.025278488
000230 b9 3e dd bd d0 c7 f1 bd d7 b1 19 bd 02 94 c8 ba
       -0.10802979 -0.11805689 -0.037523117 -0.0015302899
000240 7b 98 02 3d 1e ed d6 bd d9 32 30 3e a1 34 81 bd
       0.031883698 -0.10494445 0.17206897 -0.06308866
000250 64 07 2d 3e a1 8a 22 3d 0e 5f aa bd 09 6d b3 bd
       0.1689735 0.039682988 -0.083189115 -0.08761031
000260 60 b3 34 be c6 91 e5 3d d0 79 0c 3d 43 5b 17 3d
       -0.17646551 0.11209445 0.034295857 0.03695227
000270 61 7a c7 3d 49 52 0b be a8 55 05 bc 3e c9 35 be
       0.09740139 -0.13605608 -0.008138098 -0.17752549
000280 bc 15 8d bc 14 a9 4e 3e ba dc 3d be b5 85 e5 3d
       -0.017222278 0.20181686 -0.18541232 0.11207143
000290 89 18 61 3d 54 6d 84 3d eb a6 5a 3c a3 04 a0 3d
       0.05495504 0.06466165 0.01334546 0.078133844
0002a0 60 8e 32 3d b2 58 4f 3d a9 31 7a 3d 32 63 13 be
       0.04359281 0.050621696 0.061082516 -0.14393309
0002b0 c7 ae 0e 3c cd 68 0e 3d 0f 42 6a bd 0c 1c 3f 3c
       0.008708662 0.034767915 -0.057191905 0.011664402
0002c0 f2 f3 a8 bd 9a 3a 65 be d6 25 d6 bd 9a 6c 01 bd
       -0.08249654 -0.22385636 -0.104564354 -0.03159771
0002d0 1a b2 98 3c 19 5b 86 bd c6 2e ef bd d0 e7 66 3c
       0.018639613 -0.06560344 -0.11678843 0.014093354
0002e0 70 d9 7c bd 83 78 7e 3d 21 a0 7b 3e 4c e9 43 bd
       -0.061730802 0.062126648 0.24572803 -0.04782991
0002f0 50 9b 47 3c 2a 5b 7e 3e e4 c3 fe 3d a7 24 a9 3d
       0.0121830255 0.24839464 0.12439707 0.08258944
000300 89 7f 4a bd 9c 59 e7 bd 05 4a 3f ba 2e a7 9d bb
       -0.049438033 -0.112963885 -0.00072971015 -0.004811189
000310 7f 2b ee bd 6a 76 cb 3c f8 b3 5e be a3 1e 33 3c
       -0.1162939 0.024836738 -0.2174834 0.010932597
000320 8e cc fa 3a dc 9a 72 bd e1 27 21 be 2a f5 a3 bd
       0.0019134448 -0.059229717 -0.15737869 -0.08005746
000330 81 bc 85 3d 63 bd 3d 3d 28 d4 70 bc 99 39 01 bd
       0.06530095 0.04632319 -0.0146990195 -0.03154907
000340 93 9f f8 bc 6d fc 27 3e e3 48 ec bc 05 a3 12 be
       -0.030349528 0.16404887 -0.028843349 -0.1432
000350 2e 4e c3 3d 89 b5 51 3a 4b 03 b4 bd 41 c0 c1 bd
       0.09536396 0.0007999768 -0.087896906 -0.09460498
000360 e3 65 d5 bd a0 d7 5e 3d c0 bb 54 be 05 56 c7 3d
       -0.10419824 0.054404855 -0.20774746 0.09733204
000370 b7 51 04 3d 3a 91 f3 bd e1 26 b4 bc 50 43 f1 bd
       0.03230449 -0.11892934 -0.021991195 -0.11780417
000380 29 37 1c be 72 0a 75 bc f4 7f 78 bd a9 73 96 bd
       -0.15255417 -0.014956104 -0.0606689 -0.07346279
000390 b1 8f c6 3c d3 63 e5 bd 29 a4 f5 3b e0 14 4f 3c
       0.02423844 -0.112006806 0.007496376 0.012639254
0003a0 c4 55 b9 3d 4d 1b 90 3d 20 97 39 bc ff bf af 3b
       0.090495616 0.07036457 -0.011327535 0.005363464
0003b0 95 de 7c bd 5e d1 0e 3d d7 af 05 3c 00 af 01 be
       -0.06173571 0.034867637 0.008159599 -0.12664413
0003c0 a7 bf c9 bc 26 13 31 3d 4d 71 d1 bd a1 3d 64 bc
       -0.02462752 0.043231152 -0.102266885 -0.013930709
0003d0 22 09 8e bd f0 97 6a bd 3f f1 1b 3d fb d5 95 3d
       -0.06935336 -0.057273805 0.038071867 0.07316204
0003e0 d5 78 fd bd 95 a4 a3 3d da 91 90 bd a8 e3 86 3d
       -0.123765625 0.07990376 -0.07059069 0.06586391
0003f0 23 02 5e bc ed fc 39 3d 22 3c d8 bb 96 4c bc 3d
       -0.013550314 0.045407224 -0.0065989653 0.09194295

module.fc2.bias f4 [84]
000000 24 50 dc bd 6d a8 5c bc 2a 07 10 3f 01 fd 05 3c
       -0.10757473 -0.01346789 0.5626093 0.008177997
000010 27 0c d7 bc 10 23 e8 3e 27 80 41 3d 77 d8 84 3c
       -0.026250912 0.4533925 0.047241356 0.0162165
000020 d3 16 81 3c 4a ca 9a 3e 70 ba 2c 3f 99 7c 49 3d
       0.015757954 0.3023246 0.6747198 0.04919109
000030 19 bf f7 bd e5 01 86 3d 95 d5 b0 bc 55 ff 21 3d
       -0.12096996 0.0654333 -0.021586219 0.039550144
000040 3f 1d c9 3d 01 3a 0f 3f cc ca 64 3e d0 e1 a1 3c
       0.098200314 0.5594788 0.22342986 0.019760996
000050 55 b6 d4 bc f0 d5 b3 3d ae c2 d0 3e 10 b8 3f 3e
       -0.025965849 0.0878104 0.4077353 0.18722558
000060 bf ed 15 3e 60 be 8d 3d 9e 0e 7f 3e 30 30 7a 3e
       0.14641474 0.06921077 0.2490792 0.24432445
000070 57 52 06 3d 63 be 47 3e d1 a1 32 bc 40 44 69 bc
       0.03279337 0.1950622 -0.010902838 -0.0142374635
000080 30 bf 9e bd 1b 27 89 be e8 6b b8 be de e1 c3 bd
       -0.0775131 -0.26787648 -0.36019826 -0.09564565
000090 95 78 8a 3e 9b a6 83 3e 24 08 11 3d 40 c1 b2 bd
       0.27045122 0.25713047 0.035408154 -0.08728266
0000a0 c0 45 e0 3d 18 d0 96 3d c2 28 ea 3e 61 08 7f bd
       0.10950804 0.073639095 0.4573422 -0.06226385
0000b0 ea d6 0f 3e 52 a0 80 3e 0f de 7d bd 9f f4 cf 3c
       0.14046827 0.25122315 -0.06197935 0.0253852
0000c0 e5 a5 5d bd bb 24 ff bc 79 46 d6 3e db 43 ac 3d
       -0.054113287 -0.031145444 0.4185064 0.0841138
0000d0 1c 97 90 3e 84 f5 52 3e 82 8d ea 3d a9 c4 be bd
       0.28240287 0.2060147 0.11452772 -0.09314854
0000e0 90 e2 03 3f 14 b2 02 3e 61 3f 87 3e 28 e5 1e bd
       0.5151758 0.12763244 0.26415542 -0.03879276
0000f0 0f 85 d7 bd 1d e6 dc bd 1d 79 ce 3d 38 f7 7a bd
       -0.10523426 -0.10786078 0.10081694 -0.061270922
000100 b8 19 b0 3c f2 5e 69 3d 37 4a a2 bd 17 aa 0f 3e
       0.021496639 0.056975313 -0.079243116 0.14029728
000110 e1 b9 da bb 50 bf 2f 3e c4 24 28 3d 6b 73 d5 3d
       -0.0066749905 0.17162824 0.041050687 0.10422405
000120 e3 7a df b9 f1 15 69 3e b0 16 25 bd 54 50 88 bd
       -0.00042625432 0.22762276 -0.04030484 -0.066559464
000130 ff 1b 45 3e d8 8d 89 3e c1 e8 08 3d 00 bb 0f 3e
       0.19248961 0.2686603 0.033425096 0.14036179
000140 ba 0f 1c 3e 20 89 e7 3c 62 df 02 3f fb 9e a4 ba
       0.15240374 0.028263628 0.51122105 -0.0012559587

module.fc3.weight f4 [10, 84]
000000 ce e9 ab bc 1f 0a 0e 3e 70 f2 b9 be 84 3d 34 bd
       -0.02098551 0.13871048 -0.36317778 -0.04400398
000010 4a 29 c3 bd f2 7c a5 3a 5d 9c 28 be 69 68 94 bd
       -0.0952936 0.0012625738 -0.16465898 -0.07246477
000020 93 84 81 3d 76 2b b3 3d 08 31 aa be 74 79 e4 3c
       0.06324115 0.08748524 -0.33240533 0.027889945
000030 96 f6 84 be a8 f2 ed 3d a4 25 4d 3e ae 8c 33 be
       -0.2596938 0.11618549 0.2003389 -0.17534134
000040 f3 ee 32 3e 84 d8 e7 3d 01 cb 90 be 12 5c d2 3d
       0.17473964 0.11320594 -0.2827988 0.10271467
000050 b4 af 07 3d 85 b0 01 3e 86 9a 20 3a 06 9f 0f 3e
       0.033126548 0.12664993 0.00061265414 0.14025506
000060 e1 ac 87 3d c9 e1 8d 3d 91 6e e9 3c 2d 87 28 3e
       0.06624771 0.06927831 0.028495105 0.16457815
000070 dc 7a 61 3d 50 9d 58 3e e7 5b ee 3d 76 ec 07 be
       0.05504881 0.2115376 0.11638623 -0.13273796
000080 74 4c 63 3e f2 cd 87 3e ad 56 de 3d fd 0b 43 bd
       0.22197133 0.2652431 0.10856376 -0.047618855
000090 4f 42 50 3e 87 f7 2f 3e 84 27 6b bd 5b a4 ee bc
       0.20337795 0.17184268 -0.057410732 -0.029131105
0000a0 27 08 db 3a a6 4d 86 3e 2a c8 07 bc d9 0d aa bd
       0.0016710804 0.26231116 -0.008287469 -0.083034225
0000b0 da bb ff bd c6 f8 3a be 6d c1 dd bd 27 56 33 3d
       -0.12487002 -0.18258962 -0.10827909 0.043783333
0000c0 27 1a 94 3d 2a 6f 08 be 33 c3 31 be 02 4f f1 3d
       0.07231551 -0.13323656 -0.17359619 0.11782648
0000d0 79 dc 7b 3e 8a 94 15 bd c8 fb 15 be f9 b5 a1 bc
       0.24595822 -0.03651861 -0.14646828 -0.019740092
0000e0 9e f2 b2 be 0d fd 4a 3e ec 39 8d be 04 18 cb 3d
       -0.34950727 0.19823094 -0.27583253 0.0991669
0000f0 e1 79 4f bc 28 54 94 3d d6 9b b9 bc 05 0f 08 3e
       -0.012663336 0.07242614 -0.022657316 0.1328698
000100 2e 14 14 be 14 d0 08 bd 70 58 51 be bf c3 07 be
       -0.14460823 -0.033401564 -0.20443892 -0.13258265
000110 96 49 20 3d d8 7f 81 bb 1b 22 8d bb 83 ea b0 3d
       0.039132677 -0.0039520077 -0.004307044 0.086384796
000120 15 f5 b7 bd 59 63 fc bd 83 eb 23 3e 71 05 d8 3d
       -0.089822926 -0.123236366 0.1600781 0.10547913
000130 94 45 fd bd 4c fb aa be 53 4c ea 3c ca a9 42 3e
       -0.123667866 -0.3339485 0.028600847 0.19010082
000140 b1 bd e1 bd 91 13 04 bd 21 72 a4 3e 35 08 19 bd
       -0.11022509 -0.032245222 0.32118323 -0.037361342
000150 9e 84 33 3e 43 6e ae 3d da 8d cd be ee 8c 0f 3c
       0.17531058 0.085171245 -0.40147287 0.008761628
000160 ba 52 08 bc fa a8 9d 3c 6d f1 59 3e d0 16 0e 3d
       -0.008320505 0.019245613 0.21283503 0.034689724
000170 fb d9 1c 3e 6c e4 13 3e 48 f4 91 bd 1e fe 4b 3e
       0.15317528 0.14442605 -0.07126671 0.19921157
000180 14 d9 72 3e 62 5c 80 3d 3c 45 48 3e 53 9b c8 bd
       0.23715621 0.062676206 0.19557661 -0.09795251
000190 cc 78 74 be 81 65 3b be 5a cd dc bd c6 ef 03 3f
       -0.23874205 -0.1830044 -0.10781355 0.5153774
0001a0 74 68 50 3e 69 4d 4b 3e 2f c6 81 be da 15 04 be
       0.20352346 0.19853748 -0.25346515 -0.1289896
0001b0 68 87 1c be 92 c8 25 3e 0c 88 82 be 55 83 86 be
       -0.15286028 0.16189793 -0.2549442 -0.26272073
0001c0 09 43 78 3d ad 39 9a bd 09 b7 9c 3c 78 c1 e4 bb
       0.060610805 -0.07530532 0.019130247 -0.006981071
0001d0 dc 99 e0 bd 37 cc 32 3e d4 e7 a0 3e c2 ae d8 3d
       -0.10966846 0.17460714 0.3142687 0.105802074
0001e0 17 8d fe bd 88 39 f3 bc d2 dc 0f 3d ed f7 ca 3c
       -0.124292545 -0.029690519 0.0351227 0.024776423
0001f0 d7 83 30 bc 46 f8 47 be e4 79 c0 bd 92 de 1c 3e
       -0.010773621 -0.19528303 -0.09398249 0.15319279
000200 5b 9e 90 bd 9a 7c d1 3d 80 1f 0e be e3 17 66 3e
       -0.07061454 0.10228844 -0.13879204 0.2247005
000210 82 4e 81 bc 47 0d 08 3c 7e e1 40 be 8f 64 f8 3d
       -0.015784506 0.008303947 -0.18836018 0.12128555
000220 fa 10 80 3d cb 95 10 be 4a 47 fc 3b 17 4c a6 bd
       0.06253238 -0.14119641 0.007698928 -0.08119982
000230 be d7 1a be 44 ef 1f be 2e 06 80 bd 4f ff 01 be
       -0.15121362 -0.15618616 -0.06251179 -0.12695049
000240 e6 66 a7 3d 21 83 b4 3d dc 14 c3 3d 28 ce 1b 3e
       0.08173923 0.08814073 0.09525463 0.15215361
000250 3f b6 91 3e 25 2c 45 bd 5b c6 34 3e 34 90 b1 3b
       0.28459355 -0.048137803 0.17653792 0.0054188017
000260 07 eb 11 be 5b 4d 63 bd 51 5a 9c 3d 95 51 4b bc
       -0.14249812 -0.055493694 0.07634414 -0.012409587
000270 64 d3 c8 3d 09 6b 39 be 3b b0 bd 3d 84 62 2d be
       0.098059446 -0.18107237 0.09262129 -0.16932112
000280 4d 98 07 bd 83 5f 80 bd ad 2e a4 bd 80 21 95 be
       -0.03310423 -0.062682174 -0.08016715 -0.2912712
000290 9e 54 e6 bd 63 10 d2 3d b9 c0 95 bc 77 22 81 3d
       -0.11246608 0.10257032 -0.018280374 0.06305402
0002a0 93 94 aa 3d 30 97 27 bc 7b 6b 53 3e 78 1c 1f be
       0.083291195 -0.010228917 0.2064647 -0.15538204
0002b0 4a 2b 97 bd 3a 40 36 be 5a 55 6f bd 5e 40 81 3d
       -0.073813036 -0.17797938 -0.058431007 0.06311105
0002c0 53 bc ed bd fa be eb bd fc 11 9a 3e 94 a7 ac 3c
       -0.116081856 -0.11511035 0.30091846 0.021076001
0002d0 c6 83 a3 3c b9 15 e4 bd 86 fd 37 3d 7b 9d 6d be
       0.019960295 -0.11136956 0.044919513 -0.23204605
0002e0 9f cc 6d 3e 9e 2a 85 3e 20 e3 37 3e d9 ff 05 be
       0.23222588 0.26009077 0.17957735 -0.1308588
0002f0 ee ac ca bd ae 5e 89 be 94 f1 12 3e 27 35 14 3e
       -0.09896265 -0.26830047 0.14349967 0.14473401
000300 68 48 64 3c 75 6b 1a be 3c 8c 51 3e 31 44 21 be
       0.013933279 -0.15080054 0.20463651 -0.15748669
000310 fa bb 0c bd 73 94 24 bd cc 9b 57 3c 30 ce 8c bd
       -0.034358956 -0.040180635 0.013159703 -0.06875265
000320 df 81 39 bc d3 2c e7 bd ca e3 f2 bc 87 2c 41 bd
       -0.011322468 -0.112878464 -0.029649634 -0.047161605
000330 9e 54 69 3c 4e de 36 3e 86 c0 af bd 71 fb 73 bc
       0.014241366 0.1785824 -0.08581643 -0.014891491
000340 e5 c6 e7 bc 6c 99 79 bc 49 83 2d 3e ac 02 f2 bd
       -0.028293082 -0.0152343325 0.16944613 -0.11816916
000350 d4 fa 8e 3e d7 2d 3d be 69 bf 1f 3d 9d 10 55 bd
       0.27925742 -0.18474518 0.039000902 -0.052017797
000360 64 18 e4 bc ac 2e 08 bd 7c 4c d3 3d da 8a 9c 3d
       -0.027843662 -0.033247635 0.103173226 0.07643671
000370 fe 87 4b 3e d3 f0 ac bc 7b 54 d1 3d e3 10 a0 bc
       0.19876096 -0.021110928 0.102211915 -0.019539302
000380 65 6a 97 bc 2d 78 7c 3e a4 23 49 bd 73 0f 9a bc
       -0.01848335 0.24655218 -0.049106255 -0.018806195
000390 fb 2f d3 bc 38 67 7c 3e e5 19 db 3d 34 f8 13 3d
       -0.025779715 0.2464875 0.10698298 0.036125377
0003a0 d3 a6 49 3d 59 65 98 3d 90 02 4b bc 27 46 60 be
       0.04923136 0.074412055 -0.012390748 -0.21901761
0003b0 f4 fc 0f be 3d fa 1a bc 2f df 61 bd 4a ee 76 3e
       -0.14061338 -0.0094590755 -0.055144485 0.24114338
0003c0 14 cf 23 be 50 dd 40 3c 8b 75 86 bc 85 1c 98 bc
       -0.15996963 0.011771515 -0.01641347 -0.018568287
0003d0 94 82 8d 3e c9 03 56 bd 82 6a 7b bd 84 5d 83 3e
       0.27638686 -0.052249704 -0.06138087 0.25657284
0003e0 b9 c1 26 3d 3d ad 93 3d 9b 35 e2 3c 48 2c 86 3e
       0.040712092 0.07210777 0.027613452 0.2620566
0003f0 07 f3 02 be 73 94 93 3d 17 2e 73 3e e8 fb 29 3d
       -0.1278802 0.07206049 0.2374805 0.041500002

module.fc3.bias f4 [10]
000000 91 51 71 be 86 66 47 bf be 5c ba 3d 61 ce c5 3e
       -0.23566271 -0.77890813 0.090997204 0.38634017
000010 4e 10 1f 3f a1 25 63 be 6f 58 20 3c eb 56 c6 be
       0.62134254 -0.22182323 0.009786709 -0.38738188
000020 27 48 06 3f 19 95 bd be
       0.52453846 -0.37027815
