models/classifier_net_epoch_3_8000.pth (torch_old, 249853 bytes, 10 tensors)

module.conv1.weight f4 [6, 3, 5, 5]
00000000: 783d 473d 1a65 413e 8f6a a53e 50bc 123f
00000010: 8e57 713e 750a 1f3e 894a 65be 1148 433d
00000020: a68c 403f 0302 593e 7a1b 913e 072b 1bbe
00000030: 982a 3fbf 21f8 193f 6830 853e 84ff bf3d
00000040: a5b0 a5bd 36d1 19bf 0085 c03c 542c e2bd
00000050: 452c cfbd f183 0ebe 7bf4 f3be c259 a53c
00000060: 682f 8bbe ae38 00be cdfb d9be 733f 08bf
00000070: a6d0 09be 3e64 d2be a05f 9b3e 71c5 19bf
00000080: 506c 31bf 1da9 653e 603a f1bd 2d76 053f
00000090: c12e 81be 5ca4 80bf d571 e23e e1a6 243e
000000a0: 23a7 e13e bd0a 343e ffd0 3cbf 0983 4a3e
000000b0: 9f7b 05be 57f3 0b3f f886 ae3d 50d8 2abe
000000c0: f050 ce3e 2ae1 e3bc ca55 abbd 37f9 d1bd
000000d0: 3971 2bbd 48a1 4b3e 8285 54be 68e0 8f3e
000000e0: 4096 adbe a7a6 90be e0a0 f43e e55f b4be
000000f0: cc98 f53e d80b 42be 0798 31bf 0d63 ca3e
00000100: 16f8 f2bd 4406 ec3e d686 913e 581e 00bf
00000110: ba57 073e 2293 3fbe dc8c da3e 7a1f 4e3e
00000120: fec5 38be ae00 263e 8fe7 28be 7c76 00be
00000130: 96cd 6c3e beee fb3d be3d e53d 4472 2bbc
00000140: edc4 e13b e738 c23e 1e50 af3d a0f8 3abd
00000150: 7e95 75bc 8a7a 023e a8da 08be 00cf cebe
00000160: 811e 8bbe 6732 2fbe 6768 49be 502f 05bf
00000170: 7f67 e6be 2f27 06be d6ff b4bc 5b6e 0dbe
00000180: 063b a13d a1f8 013e b818 b53e d7aa 9b3e
00000190: 36ca bbbe 6402 af3c 10bd 5abd 5e6f 8fbd
000001a0: cb9a 17be d3cd 0f3d 443e 963e 956a bfbd
000001b0: 247b 0ebe 35ac 3abe 02a0 8f3e 15c7 04bd
000001c0: 30dc b1be 7795 c1be b844 2abe 29cc 66bd
000001d0: 8bd0 bdbe 9ba2 c0be a041 2abe 1152 82bd
000001e0: 03e2 073d 6b1e 97bd a85c d63d 5411 7f3e
000001f0: bf62 6d3e 358f 39be a003 b53d f5eb 743c
00000200: d7cd 3e3e b375 e5bc 7121 e93d b9e0 ba3e
00000210: f5fc 963e 72d7 5d3d 5b48 9dbd 9d51 973e
00000220: 4720 313e bc8f 11be 29d5 a1be a534 12be
00000230: 3de2 863d f472 bfbe 96b2 a2be 6672 51be
00000240: f6dc ea3c 73a5 e43c 918e 2bbd b63b 8e3e
00000250: af61 2c3e e4af a33d cca4 b5bd fcab 36be
00000260: 881d 5fbe dd05 dbbd 4e49 16be 505f 173d
00000270: d0a1 8d3e 4a75 fa3d ec0c fa3d 8e96 013d
00000280: 3409 14be cf20 d2bb 1c67 013e 0da3 023d
00000290: 7696 753d 6456 c9be 5bba b1be fb30 a9be
000002a0: fb3c bebe ea1e a5be 80b5 e4bd 6e10 86be
000002b0: d68d 64be 81ae 79be 7b09 35be 9005 85be
000002c0: 1e9a 9cbe e934 1dbe 82a4 21be 1a23 5fbe
000002d0: 529b 873e e9d1 a93e 7ef3 cb3e 1f79 853e
000002e0: 206d 883e 4dda 293c 1734 333c 6811 d03d
000002f0: 4e57 eb3d 99e3 483e 24ef 95be c22f dabe
00000300: f05a 98be e14b 68be 097f 0dbe 9b17 01bd
00000310: 0f35 30be ca79 06be 892d 4cbc d470 2c3d
00000320: 68e9 1dbe ed93 23bb a60c 28bd 8768 b9bd
00000330: 59f8 33be 5f3a b73e 38a1 923e ca91 fb3e
00000340: dd63 f43e 42c0 af3e d02c 0b3e 9dd3 6a3e
00000350: 87cd 623e 8bf3 b23e e4bb 823e 56f7 453c
00000360: c3d7 403d 0fd6 83bd 90b1 cc3c 3755 dd3d
00000370: 8a0b 413e 650d fa3d 561b bf3d 0337 583e
00000380: 0c07 383e 0498 533e 3a7e 3b3e 441b 79be
00000390: d610 1e3c 75a8 84bd bb92 593e ed97 64be
000003a0: 7c87 b5be 54bb a13d 7f22 e23d f848 123e
000003b0: 97d8 83be f139 8dbe 32b6 a43e a27a 143d
000003c0: 58b5 31be 34cd c3be 51f4 0ebd 6e34 7f3e
000003d0: 2a3f 413e 8816 a3ba 5af8 8ebe fe1a ce3d
000003e0: f38c ba3e 4bc2 7c3c a4cc 123e 8511 eb3c
000003f0: 5b6b 80be 54e6 ea3d b40b e83d 5f96 d83d
0.048642606 0.18886223 0.3230786 0.5731859 0.23568556 0.15531333 -0.22391714 0.04767615
0.7521461 0.21192174 0.28341275 -0.15153132 -0.7467437 0.6014424 0.26013494 0.093749076
-0.08090333 -0.60084856 0.02350092 -0.11043611 -0.101158656 -0.13917519 -0.4764746 0.020184401
-0.27184606 -0.12521622 -0.4257492 -0.53221816 -0.134585 -0.41092104 0.30346394 -0.60066897
-0.69305897 0.22427793 -0.11778712 0.52133447 -0.25230983 -1.0050159 0.44227472 0.16079284
0.44072828 0.17582221 -0.737564 0.19776548 -0.13035439 0.5466818 0.08521837 -0.16684079
0.40296125 -0.027817328 -0.08365972 -0.10252612 -0.041856024 0.19885743 -0.20754054 0.28100896
-0.33903694 -0.28252146 0.47778988 -0.35229412 0.47968137 -0.1894983 -0.693726 0.39528695
-0.11863725 0.4609853 0.28423184 -0.500463 0.13217059 -0.1870847 0.42685592 0.20129195
-0.18044278 0.16211197 -0.16494583 -0.12545198 0.231253 0.12301396 0.11193417 -0.010464255
0.0068899305 0.37934038 0.08560203 -0.045647264 -0.014989255 0.12742057 -0.1336466 -0.40392303
-0.2717171 -0.1710907 -0.19668733 -0.5202532 -0.45000836 -0.13100885 -0.022094648 -0.13811629
0.07872586 0.126925 0.3537042 0.30403778 -0.36677712 0.021363445 -0.05340296 -0.070036635
-0.14805143 0.0351084 0.2934438 -0.09346501 -0.13914162 -0.18229754 0.28051764 -0.032416422
-0.34738302 -0.37809345 -0.16627777 -0.056347046 -0.37073168 -0.37624058 -0.16626596 -0.06363309
0.033174526 -0.07378849 0.104668915 0.24908954 0.231822 -0.18121035 0.08838582 0.014948835
0.18633209 -0.028010225 0.113833316 0.36499575 0.29489866 0.054160543 -0.07679816 0.29554453
0.17297469 -0.14214987 -0.3160794 -0.14277895 0.0658612 -0.3739239 -0.31776875 -0.20453796
0.028669816 0.027910924 -0.04188401 0.2777993 0.16834138 0.07992533 -0.08869323 -0.17839044
-0.21788609 -0.10694478 -0.14676401 0.03695613 0.27662516 0.12229402 0.12209496 0.03163772
-0.14456636 -0.0064126025 0.1263699 0.03189378 0.059957944 -0.39323723 -0.3471249 -0.33045182
-0.371559 -0.32250148 -0.11167431 -0.2618441 -0.22319731 -0.24382974 -0.17679398 -0.25980806
-0.30586332 -0.15352215 -0.15785411 -0.21790734 0.26485687 0.3316796 0.39834207 0.2606897
0.26645756 0.010366988 0.010937712 0.1015957 0.114912614 0.19618072 -0.29284012 -0.4261456
-0.2975688 -0.22685196 -0.13817991 -0.031516653 -0.1720774 -0.13132396 -0.012462028 0.04209979
-0.15421069 -0.0024959997 -0.041027687 -0.0905314 -0.17575206 0.3578672 0.28638625 0.49134666
0.4773244 0.3432637 0.13591313 0.22932287 0.22148715 0.34951434 0.25533974 0.012082895
0.047080766 -0.06437313 0.024987012 0.10807269 0.18852058 0.12209586 0.09331386 0.21114735
0.17971438 0.20663458 0.1830987 -0.24326807 0.009647569 -0.06477443 0.2124738 -0.2232358
-0.3545493 0.07897058 0.11041736 0.14285648 -0.25751182 -0.27583268 0.32170254 0.036249764
-0.17354333 -0.38242495 -0.034900967 0.24922344 0.18871751 -0.0012442628 -0.27923852 0.10063742
0.3643566 0.015427182 0.14335877 0.028694877 -0.25081906 0.11469713 0.11330357 0.10575556

module.conv1.bias f4 [6]
00000000: 2d40 84be 72ef 0bbf b76e c1bc 2987 57be
00000010: 28aa e7bc 8e58 44be
-0.25830212 -0.5466224 -0.023612363 -0.21047653 -0.028279379 -0.19174406

module.conv2.weight f4 [16, 6, 5, 5]
00000000: 0130 953e 8d88 8cbd d983 ed3e 0bf5 d2bc
00000010: 6991 eabc a3a8 653e 661f 4fbe 21ac 3d3e
00000020: f9fd 8c3e 86c5 c2bc 6429 253e 1be4 29bd
00000030: fe1e 3fbd eec4 923e 0827 66bd 1def 68bd
00000040: 4286 e53d 1431 a73c 4712 113e 85ae fe3c
00000050: 86f7 babd 5359 04be 5307 04be c80b dfbd
00000060: 7273 3e3d b738 90bd 6e8d f23d cfed 093e
00000070: 8ee8 403d 0ffa 153c a990 f6bd a993 823d
00000080: 6e2b 53bb ef20 da3c e407 89bc 1e15 68be
00000090: 3196 56bc d883 053e d0fa 893d 08ad 883d
000000a0: 926e 75be 8a02 3cbe 3d30 5bbd eec7 4e3d
000000b0: a014 2e3d 07aa 54be acdf a6bd 6a54 0bbe
000000c0: cad6 74bd 8f8e e73b 0e5d 26bd bbc0 89bd
000000d0: 069c 7ebc f310 3f3d c1da 8a3d 4b84 67be
000000e0: 7d9a f5bd 3bcb dfbd 2593 3fbd 4110 e5bd
000000f0: 34ac 8fbe cf14 54be 3c31 25be 0859 0fbe
00000100: d5b7 0dbe 36a8 18be bda6 213b b6b3 a73d
00000110: e0a7 a3bc ef2d 5e3d 6799 44be aca8 adbd
00000120: 4208 5bbd 7d68 373c b432 1bbd b714 9d3e
00000130: 6ac4 7c3d 4a96 953c 2e11 d23e 9fc6 043d
00000140: ffff 693c f4b4 2d3d ae91 c1bd 847b 523e
00000150: 2714 333e 8357 b4bd df4d ae3d 9514 e6bd
00000160: 4308 5fbd c4dc 703e 1f52 48be 227d 9a3d
00000170: edec 73bd 87d2 12be 40b5 cc3d 2edd 83be
00000180: 80c1 75bc 2132 c3bd 9e3f 0cbe d483 60be
00000190: b4ed 8bbd 0330 bfbd 8e4c 2dbe 44f1 943c
000001a0: 69fe 503d 0706 fabd 1cd2 ddbd b2fb 11be
000001b0: f3c5 92bd 8f4d 9ebd 893d 27bd 72a4 a6bd
000001c0: 177a 2fbb e4bc 31bd 104b 503c cad6 f1bc
000001d0: 62b1 bd38 f918 eabc 0bbc 17bd bf33 e33c
000001e0: 9392 6dbc 7d63 273d 9b39 3f3c b452 943d
000001f0: 46bd 073e 77cf 88bd 7ab7 c7bd 2549 53be
00000200: 018b 81bc 77e8 2dbc 5ec7 13bd d3b0 7fbd
00000210: a445 ccbd 675f 84bd e30f 953c 2883 ae3c
00000220: 9760 773d 445f 25be 5daa 59be 5b2e 5bbd
00000230: 2d9b 5ebd ec14 ca3d abde 8bbd e6f8 2dbe
00000240: b6db d2bd e964 e23d 6634 a03d 2f08 ed3a
00000250: d33d a3bd f6b7 e3bd 8589 32be 19a3 bfbd
00000260: f86f 9c3d 0cac c8bd 709b 5e3d aa07 9cbb
00000270: c06e e23a 1ba1 c2bd 79fc 42bc 1d1d d43d
00000280: 8934 d03e 1564 b5bd e34a 27be 05ac 753b
00000290: 2ead 5ebc 61e5 d23e 96fd 093f 390e db3d
000002a0: 7ae1 2bbd 44e2 a1bd e26b 93be f757 ac3d
000002b0: e2d1 993e d8c6 423e 3329 013e 3196 86bd
000002c0: 15f8 4abe a2d2 e7bd 2a2d 87bd 4b19 61bd
000002d0: e007 793d 9fda 44be 4e08 69be 4b7e d5bd
000002e0: 8a82 7a3a eb80 813c cda7 303d f9fd 69be
000002f0: 94fd 1ebe 4e18 663d 1fbd 453e 1e97 f23d
00000300: 857c 903c 18b9 c3bd 6daa 28bd e4b9 963a
00000310: 867c 393e 9ba9 7f3e ec35 9e3e 3a49 283e
00000320: 098e 563d 8419 fa3d 0057 633d a8ff 4c3c
00000330: 868d a43d 8de3 5e3d 35b4 d93d ce79 ae3d
00000340: b0b4 05bc a43c efbc eb2c 10bd ce4a 293e
00000350: bae4 e33d 58b5 0abd 117b 16be 5c80 e6be
00000360: 40c7 673d eae0 943e 7f71 f03d 001a 86be
00000370: fc09 79be 96ad 60be 713c b53d 4dc6 f03d
00000380: bb5f 4b3e badc d3bc 4655 0bbe 0886 d4bd
00000390: 7ba6 a43c 766a 7d3d 8acc 633d 8b85 8cbc
000003a0: 167b 20bc 5931 d83c b152 67bd bb6a 293b
000003b0: 61e9 353e 304e c6ba 5e82 8cbd 29a6 34be
000003c0: 1ecd 79be 6c1c 06bd abef 233e cffe de3d
000003d0: 8c95 633e f671 91be 6da3 d8be ed9a b1be
000003e0: 2c52 22be 8282 b6bc 21d4 0fbe 560a bfbd
000003f0: fdeb f5bd 8f2d 9f3c dc81 db3c 9fdd d6bd
0.29138187 -0.068619825 0.46389654 -0.025751611 -0.02863379 0.22427611 -0.20226821 0.18522693
0.27537516 -0.023775827 0.1612907 -0.041477304 -0.046660416 0.2866587 -0.056189567 -0.05686866
0.11207248 0.020409144 0.14167129 0.031089077 -0.091292426 -0.129247 -0.12893419 -0.10890919
0.046496816 -0.070420675 0.11843382 0.13469623 0.04709678 0.009153857 -0.120393105 0.0637582
-0.003222193 0.026627032 -0.016727395 -0.22664306 -0.013097332 0.13038576 0.06737292 0.06673628
-0.2396796 -0.18360344 -0.0535128 0.050483637 0.04250014 -0.20767985 -0.08148131 -0.1360642
-0.05977515 0.007066555 -0.040616088 -0.067262135 -0.015540129 0.046647023 0.06780005 -0.2260906
-0.11992357 -0.10927435 -0.046771187 -0.11184741 -0.28061068 -0.20711063 -0.16132063 -0.13998806
-0.13839658 -0.14907917 0.0024666034 0.08188574 -0.01997751 0.054243024 -0.19199143 -0.08479437
-0.053474672 0.011194346 -0.03789015 0.30679867 0.061710753 0.01826014 0.41028732 0.032415982
0.014282226 0.0424089 -0.09451614 0.2055493 0.17488156 -0.08805754 0.085109465 -0.112343945
-0.05445124 0.23521715 -0.19562577 0.075433984 -0.059552122 -0.14338122 0.09995508 -0.25754684
-0.014999747 -0.09531046 -0.13696143 -0.21925288 -0.06832448 -0.093353294 -0.16923735 0.01818145
0.051023874 -0.12208181 -0.10831091 -0.1425617 -0.07166662 -0.07729637 -0.04083017 -0.08136834
-0.0026775652 -0.04339303 0.012713209 -0.029521365 9.0452624e-05 -0.028576361 -0.037044566 0.027734635
-0.014500278 0.040866364 0.011671449 0.07242337 0.13255796 -0.06680196 -0.09751792 -0.20633371
-0.015813353 -0.010614506 -0.036078803 -0.062424492 -0.099742204 -0.06463509 0.018196052 0.021302775
0.06039485 -0.16149622 -0.21256395 -0.053511005 -0.054347206 0.09867272 -0.0682958 -0.16989478
-0.10295813 0.11054403 0.07822494 0.0018084104 -0.079707764 -0.11119072 -0.17435272 -0.0935728
0.07638544 -0.0979844 0.054347456 -0.004761656 0.0017275438 -0.09503385 -0.0119010145 0.103571154
0.4066508 -0.0885698 -0.16337161 0.0037486565 -0.013591094 0.41190627 0.53902566 0.10696072
-0.041963078 -0.07904485 -0.28793246 0.084152155 0.3004294 0.19021165 0.12613373 -0.065716155
-0.19821198 -0.11319472 -0.06600411 -0.054955762 0.060798526 -0.19224022 -0.22757074 -0.10424479
0.0009556195 0.015808543 0.043128777 -0.22850789 -0.1552642 0.056175523 0.19310425 0.118452296
0.0176375 -0.09556788 -0.041178156 0.0011499492 0.18113908 0.24967043 0.30900514 0.16434184
0.05238155 0.12211898 0.05550289 0.012512125 0.08034806 0.054416228 0.10630075 0.08519326
-0.008160755 -0.02920372 -0.035199087 0.16532442 0.111276105 -0.03386435 -0.14695384 -0.45019805
0.056586504 0.29077846 0.11740398 -0.2619171 -0.24320215 -0.21941218 0.08849419 0.11756573
0.19860737 -0.025862087 -0.13606748 -0.10377127 0.020098915 0.061869107 0.055614986 -0.017153522
-0.009794971 0.026390718 -0.056475345 0.002585097 0.17764808 -0.0015129503 -0.06860803 -0.1764151
-0.24394652 -0.03274195 0.16009395 0.10888445 0.22225016 -0.28407258 -0.42312184 -0.34688511
-0.15851659 -0.022279028 -0.14045765 -0.09328143 -0.12007902 0.019430904 0.02679532 -0.104914896

module.conv2.bias f4 [16]
00000000: 6df8 433e 9167 8fbf 63c1 39bf fe27 d7ba
00000010: 9134 243f 6c19 c93d 9bb7 cf3d f06c 443f
00000020: 0215 2fbe be0e e3bd c5ae 09bf 5e8c 813f
00000030: 1b80 8d3e 6d59 c8be 1689 643d ca61 033f
0.19137736 -1.1203481 -0.7256071 -0.0016415117 0.6414271 0.09819302 0.10142442 0.76728725
-0.17097858 -0.11086796 -0.537823 1.0120962 0.276368 -0.39130726 0.055794798 0.5132109

module.fc1.weight f4 [120, 400]
00000000: 7be6 a93c b767 babc c4de a4bd 1282 84bb
00000010: 1b1b 8dbd 37a3 d03d de0a 183d 063f 343d
00000020: 276d c93a 606a 84bc 5a83 9a3b 7c04 b53c
00000030: f983 5bbc cbe2 9a3c 9918 1d3d 8fb1 313c
00000040: 6f7f 5a3c a340 9abd 38d3 0d3d d390 5e3b
00000050: 23dc 7c3d 4f25 963c b876 9ebd 25aa 03bd
00000060: 85f0 733d b936 9e3d 427c ad3c 3dd1 5b3d
00000070: e2d7 3f3d 5712 8f3d 4a96 753d 2085 6e3d
00000080: a861 793d f159 9d3d 8149 693d 4c72 223e
00000090: e10b 1abc a788 3c3c 749c 333d f933 303d
000000a0: 9643 d23b 66e4 5ebc eb72 27be 9de0 b2bd
000000b0: 0643 6c3b cb22 3ebe cfb8 13bd f599 95bd
000000c0: 89ce e3bd 2c77 90bc 737e 083e e6f2 6a3c
000000d0: 1372 193c 2e65 643d 86af 9bbd cf09 0c3d
000000e0: 7759 81bd 6ede 0dbd 6b61 81bc 6861 25bd
000000f0: 7e3e 08b8 4427 363c 46fc 26bd 5641 9ebd
00000100: e82c 62bd 9986 b43d b754 103c 575d 49bd
00000110: 952c 34bd 4dd3 dabc 3e20 ebbd 1df7 19b9
00000120: e6e0 98bd ecaa 46bd 849a fabc 6216 14bd
00000130: cc90 05bd 3baa 92bc c850 d7bc 91a7 76bc
00000140: e245 8eb8 f8c5 2bbd a428 cabc a9c8 ccbb
00000150: 526a a13d 762c 91bd b4af 3bbd 10ad 633c
00000160: ca18 3d3a 228b 423c 68e6 e5bc f180 53bd
00000170: 7052 c63c dd00 6cbd 116c 1e3d 7ac3 8c3d
00000180: bddc 633d 0345 1d3d d094 0dbd 11f7 953d
00000190: 938e c93d 79a6 2f3d b035 7e3d e377 543d
000001a0: e253 24ba c231 983d 7fe0 903d 4287 443d
000001b0: 8837 343c 3739 b4bc a88f 5439 6da9 653d
000001c0: 3697 af3d b4ce 8a3d 2097 86bd c001 e7bb
000001d0: 74a3 28bb 9d95 3a3d baef ffbb 469d 69bb
000001e0: 0475 693d 4202 83bc 23d0 1ebc eeda 90bd
000001f0: 4dcd 89bc 4a00 0abd 36af 5cbd db05 1d3d
00000200: ae1e 513c 3616 dbbd 1071 97bd 19ad 70bc
00000210: f571 b8bb 01ee 313a 8fb0 99bd c2eb 143d
00000220: 573f 833d 1bfa 76bd 02b6 86bd f5bb cfbd
00000230: 9106 20bc 6dcc ca3a 33d6 293d 6a83 e9bb
00000240: 038e 8ebc 42ca 91bd 9eed eebc d466 a73b
00000250: 97c1 8fbc dd82 8dbc c35e a23c 2624 663c
00000260: 4ba3 08bd 3fc0 a4bd ec37 c5bc 80ef a23b
00000270: f634 6ebd f4a0 15bb 4137 edbc 8d58 633c
00000280: da8b 1d3d 727c 9dbc ab5a 86bd 3f19 3ebd
00000290: acbe f3bc 44b8 093b 3fa6 3fbd e9ce 7ebd
000002a0: 85fb 53bd 4376 5abd ae93 babc e2d0 f4bc
000002b0: cb6d 9cbc 2b6c b2ba 2b7d 553d bdae bb3d
000002c0: 64cb bcbb 19e6 1f3c 97a0 e43d 1f53 053e
000002d0: 8039 ad3c e244 833d dc82 f33d ea43 b33d
000002e0: 29f9 ac3d 56dd 85bc 814e 80b9 4666 053b
000002f0: eba7 02bc 7636 b93d d57d 4fbd 9737 9ebb
00000300: cd6c 8a38 70a5 c33c fff2 0d3d d89b 023d
00000310: f61c bebc c961 cbbc 5067 163d afdf f7bb
00000320: cf45 cebd 490e 2fbc 9e42 00be dfac 11be
00000330: 8151 7abd 01b6 16bd eb38 a8bc 0357 793c
00000340: ae6c c5bd 6cb1 513c 6f85 0a3c df0a a43c
00000350: a2f1 d63c 9dc9 46bd 03d3 9b3d 87ef 4abd
00000360: 80c1 2cbd ad59 873b 26df f6bc 6b7d 853d
00000370: 33d5 f2bd 20f6 abbb 333e 83bd 434b 8abd
00000380: af54 87bd e232 c33b fef4 3cbd d0a5 8fbd
00000390: ec35 15bd b291 bfbd bb50 c43d 9b45 863d
000003a0: f53e e2bc 448c ce3c fc29 f9bd b059 093e
000003b0: 89f6 5f3d 4853 1a3d 0534 533d c912 41bd
000003c0: 6229 e23d ded5 023e 5924 043d 4f49 8f3d
000003d0: a31b 923c e6f2 af3d aa1d acbc 17d5 9d3d
000003e0: 7150 dd3d faf7 11bd b538 36bc 31f7 c7bc
000003f0: fb44 bebc 6532 83bd 5b7f 49bc 55dc 04bd
0.020739784 -0.022754533 -0.08050302 -0.004043826 -0.068899356 0.10187381 0.03711974 0.044005416
0.0015367613 -0.016164005 0.0047153654 0.022096865 -0.013398164 0.018906971 0.038353536 0.010845556
0.013336047 -0.0753186 0.034625262 0.0033960834 0.061733376 0.018328337 -0.077374876 -0.032144684
0.05955555 0.07725281 0.021177415 0.053666342 0.04683674 0.0698592 0.05995778 0.058232427
0.060884148 0.076831706 0.056954864 0.15863913 -0.009402246 0.01150719 0.043850377 0.043018315
0.0064167483 -0.013604259 -0.16352431 -0.08734248 0.0036050691 -0.1856796 -0.03606492 -0.073047556
-0.11123378 -0.01763495 0.13329487 0.014340138 0.009365576 0.055760555 -0.07601838 0.03418904
-0.06315892 -0.034635954 -0.015793523 -0.040376097 -3.2483127e-05 0.01111776 -0.04076793 -0.077273056
-0.055218607 0.08814735 0.00880926 -0.04916128 -0.04398783 -0.026712084 -0.11480759 -0.00014683274
-0.07464771 -0.048502848 -0.030591257 -0.03615416 -0.032608792 -0.017903438 -0.026283637 -0.015054599
-6.784104e-05 -0.041936845 -0.024677582 -0.0062495065 0.07881607 -0.070885584 -0.04582186 0.013896242
0.00072134717 0.011873992 -0.028063968 -0.05163664 0.024209231 -0.05761801 0.03867728 0.06873222
0.055630434 0.038395893 -0.034565747 0.07322515 0.09841647 0.04288337 0.06206292 0.051872145
-0.0006268603 0.074313655 0.07074069 0.047980554 0.010999568 -0.021999938 0.00020271412 0.05606978
0.08573763 0.06777707 -0.065717936 -0.007049769 -0.0025732191 0.04555284 -0.00781056 -0.003564672
0.05699636 -0.015992288 -0.009693178 -0.070730075 -0.016821528 -0.033691682 -0.05387803 0.038335662
0.012763662 -0.10697596 -0.07394612 -0.014689707 -0.005628819 0.00067874795 -0.07504379 0.03635765
0.064085655 -0.060297113 -0.06577684 -0.10143272 -0.009767191 0.0015472301 0.041464042 -0.0071262615
-0.0174017 -0.07118656 -0.02916604 0.0051086936 -0.017548366 -0.017274315 0.019820577 0.014046704
-0.033358853 -0.080444805 -0.024074517 0.0049723983 -0.058155976 -0.0022831531 -0.028957011 0.013876093
0.03846345 -0.01922438 -0.06560262 -0.046410795 -0.029754005 0.0021014372 -0.046789404 -0.062209044
-0.05175354 -0.05333544 -0.022775497 -0.02988476 -0.019095322 -0.0013612559 0.052121323 0.09164188
-0.0057615507 0.009759449 0.111634426 0.1301999 0.021145582 0.06409623 0.11890194 0.08753188
0.08445961 -0.016340893 -0.00024472552 0.002035515 -0.007974605 0.09043591 -0.050657112 -0.004828404
6.6006185e-05 0.023882598 0.034655567 0.031886905 -0.023207169 -0.024826901 0.03671962 -0.007564507
-0.10071909 -0.010684558 -0.12525412 -0.14226101 -0.061112884 -0.036794666 -0.020534953 0.015218499
-0.0963987 0.012798648 0.008454665 0.020024715 0.026238266 -0.048532117 0.07608607 -0.049544837
-0.042176723 0.0041305632 -0.030135702 0.06518062 -0.11857071 -0.0052478462 -0.06408348 -0.06752636
-0.06607949 0.0059569934 -0.04613208 -0.07014048 -0.036428377 -0.09353961 0.095857106 0.06556245
-0.02761791 0.025213368 -0.12166211 0.1341312 0.054678474 0.03767708 0.05156328 -0.047137056
0.110430494 0.12776896 0.032261226 0.069964044 0.017835444 0.08591251 -0.021010239 0.07706659
0.108063586 -0.03563688 -0.011121918 -0.024409862 -0.023226252 -0.06406096 -0.01229843 -0.032436687

module.fc1.bias f4 [120]
00000000: 5d47 363e 7700 00be 255a fbbd 90f0 19bd
00000010: a270 4dbe 37ee 1abe 4ab1 4b3d f721 6a3d
00000020: a211 75bd 2579 4dbc 9049 013d 6fa0 393d
00000030: d741 ddbd c17a a4be 66b9 a83c cf5c 633e
00000040: 761e 153d bd76 d13d 46ff 0a3e 335f 283d
00000050: 3df4 3d3d afe6 fe3c 2b53 adbd e384 2ebc
00000060: 9b51 a2bd 85a8 41bd 054f 87bd c18a 123e
00000070: 6bb5 8b3e 3bef 713d bfcb 8bbb 7109 febc
00000080: 4b84 2d3d d8e4 00be e012 183d 5e2b 793e
00000090: 7901 093e d3e5 943d 0e5d ef3c 8630 563e
000000a0: fc3d cd3d eb7c f83d 8bf7 09be 0925 fe3d
000000b0: 422b 483e 2b19 ad3e c09c 48bc cff3 353e
000000c0: d3c0 1d3d ef6e ea3d 7b8a 8a3e a548 75bd
000000d0: 1a15 bf3d a505 783c e3de 1c3e b7f7 693b
000000e0: 1015 c1bd c09c 4d3d 46dd 813d 735e 703d
000000f0: f39c b43e 7587 8c3b f8ac 2b3e 41ea 5e3d
00000100: a93b 1f3d 84c3 15bd c1c9 5ebe f88d 7cbe
00000110: 4692 3f3d e673 733d 2df3 0d3e 3c11 68bd
00000120: c78d 54bc 4e45 b5bc 8cfd 3fbd 3147 85bd
00000130: d637 b33d 973d e43d 3149 933d 38ac 05bd
00000140: 91b6 e6bd 8505 ba3d 279d 493d a536 aa3d
00000150: 7722 c53d de82 bf3e dce6 0c3e cc92 c1bd
00000160: 6d2e 8bbe c510 1e3e e90b 08bd c602 283e
00000170: aac1 563d 4ccf 62bb eb36 e6bd 4a2f 683e
00000180: 2909 813d c679 243e 1f85 0a3e 12ff a0bd
00000190: ed88 23bd f4a2 37bd b792 7cbc 2318 9cbc
000001a0: cabf 5b3e e76e 7abe 32a8 07bd 7eab b1bd
000001b0: b755 e4bd b749 423e 310c 29bd 456d 72bd
000001c0: 76d8 213d 1a23 e2bc 1436 fc3c 7511 bf3d
000001d0: 1bf9 94bd a2a1 6dbc f688 993d e544 663e
0.1780066 -0.12500177 -0.12273053 -0.037582934 -0.20062497 -0.15129934 0.049729623 0.057161298
-0.05983127 -0.01254109 0.031564295 0.045319017 -0.108035736 -0.32124904 0.020596217 0.22203372
0.036406003 0.10227726 0.13573942 0.041106414 0.046375502 0.031115858 -0.08463129 -0.0106518
-0.07925721 -0.047279853 -0.06606869 0.14310743 0.27286848 0.05906604 -0.004266232 -0.031010361
0.042362493 -0.12587297 0.037127376 0.2433295 0.13379468 0.07270398 0.029219177 0.20916948
0.10021588 0.12133201 -0.13473336 0.12409408 0.19547752 0.33808264 -0.012244403 0.17768787
0.03851397 0.1144694 0.27058777 -0.059883732 0.09330197 0.0151380645 0.153194 0.0035700628
-0.094278455 0.050198317 0.06341033 0.058683824 0.35275993 0.0042886087 0.16765201 0.05442262
0.038875256 -0.03656341 -0.2175665 -0.24663532 0.046770357 0.0594367 0.13862295 -0.05665706
-0.0129732555 -0.022127774 -0.04687266 -0.06507719 0.08750884 0.1114456 0.071916945 -0.032634944
-0.112652905 0.09083084 0.049222138 0.08311204 0.09625714 0.3740453 0.13759941 -0.094518274
-0.27183858 0.15436085 -0.033214483 0.16407308 0.052430786 -0.0034608422 -0.112409435 0.2267429
0.06300575 0.16062078 0.13527344 -0.07861151 -0.039925504 -0.04483314 -0.015415839 -0.019054478
0.2145988 -0.24456368 -0.033119388 -0.08675288 -0.11149161 0.18973432 -0.041271392 -0.05918624
0.039513074 -0.027604628 0.030787505 0.093295015 -0.072740756 -0.014503868 0.07496826 0.22487219

module.fc2.weight f4 [84, 120]
00000000: 2641 20be c2a6 a4bc 23a3 f9bc d2e0 713c
00000010: 48bb 16be 7252 db3c 4b1f 8a3c ee53 a23d
00000020: 02fe 003e cb38 a4bd 984d f2bb b30c 5d3d
00000030: dcdb df3c f858 823c a640 56bd 74a1 c3bd
00000040: c484 c53d 913e 5c3c 3324 8dbb ad9d db3d
00000050: 306b cdbd f517 853d 98de 123d 3e7e 863b
00000060: 2f49 db3d f599 6d3c 663c 1f3e da45 00be
00000070: 7664 b8bc f58c 5cbd e0a6 5e3c 4773 913c
00000080: fd3b bcbd e8eb a2ba 786b 3e3d e088 8abd
00000090: 6e46 d53d 801b b43d 0d62 a6bd 1242 c7bd
000000a0: 4eaa f83b c6fa c93d 4ec8 20bd be9f 8e3a
000000b0: b4d0 36bd 4c4a a6bd 9036 89bd 8862 0a3e
000000c0: e28a 993c 1a8f 89bc ebdc 5b3d ce2f 18bd
000000d0: fc3f 42be 4fa8 ffbd 6e7a 983d a962 b93d
000000e0: 45d7 d03d fb3e c8bd 33d9 c6bc 7766 b9bd
000000f0: a8d9 9cbc 1345 ad3d e360 f2bd a42f cbbc
00000100: 54eb 893d c63d da3d 561f 803d 58ae 953d
00000110: dadc 60bd 0326 073e 70b6 b2bd 31e7 14bd
00000120: 9086 583d 4731 ca3d b100 653d a463 e03d
00000130: ef4c a1bd c2df a3bd b085 b9bd df20 35bd
00000140: 67e8 86bd d77b f9bd 4627 b73c 6773 1f3c
00000150: d30a 8fbd 5289 81bd 4860 053e 679e 13bb
00000160: e30b 3f3d 1fe5 93bd 8e75 81bd 1103 4f3c
00000170: e500 e6bd 21e3 123d c089 9d3b 5c71 9abd
00000180: be59 ceba 8f4e cabb b5a1 91bd 4bfe 7f3c
00000190: 0108 0bbd 771d 193d 72fc 0abd 297b e73c
000001a0: 77f3 0bbe ef2e c7bb 1355 26bc 8034 a83d
000001b0: a2b7 b23d 4f93 0a3c b067 92bd 1661 a93c
000001c0: 3ace d0bb 7bde b6bd 7432 263d 3319 7d3d
000001d0: 929b 313c 93ca ac3d ad08 e5bc bad3 60bd
000001e0: 0c50 353e 1c94 f33d 6353 a83c ecc2 11be
000001f0: 9f99 ec3d 4866 bfbd 06d0 0e3e f312 d5bd
00000200: 5f9e ac3c 3a74 f9bc 14b2 46bd 8d2f 1b3e
00000210: 9a6c 76bd ee8f a13d 28a6 253d d54d a73d
00000220: 1dfe c43c 4a31 5fbd 6ab1 983b 6d56 5a39
00000230: 3daa f8bd 7dee 94bd 3699 77bc 8631 02bb
00000240: 3e19 b63c f6cc babd 489e 303e f3fb 7abd
00000250: be99 fb3d efe0 063d 32b0 cfbd 861f aabd
00000260: 21d6 09be 7347 ba3d 34b2 893d 31fe 903c
00000270: 4d99 b43d c399 1fbe bf25 28bd fa90 23be
00000280: a33b cdbc 1361 4d3e d032 36be 3f8e ab3d
00000290: b633 013d 0b92 503d fdf5 2e3c 7407 8c3d
000002a0: cae4 1b3c b72e b53d 5b75 993d 86d8 dabd
000002b0: 2c49 a23b 031d cd3c 2630 a4bd 770a 34bc
000002c0: fba3 4ebd 1866 3abe 9ac9 c2bd ecf6 0abd
000002d0: 6df5 0e3d 2736 82bd 2e32 efbd 94af 623d
000002e0: 7746 a8bd d7f0 683d 084b 6a3e 390a 19bd
000002f0: fb4c 52bc 8e78 713e 840d d73d 67ca 043e
00000300: bd08 5ebd e627 e4bd 8393 ee3b 67b5 313c
00000310: ad42 e4bd 577c 543d f7aa 48be fcb3 2b3c
00000320: 2779 dfbc 7b64 8abd 6ad4 13be dc69 a5bd
00000330: fc97 953d ccd0 763d 82e6 bebc 946d 20bd
00000340: 91e9 1bbd e15e 5d3e e69a fabc 6bb7 20be
00000350: 7983 be3d d00e b23c 7c3a 8dbd 7d06 e8bd
00000360: 77b0 cbbd 80e9 77b9 54b6 36be be10 e13d
00000370: 08af 103d 8a43 bdbd bb5e ddbc f3ca ebbd
00000380: 5aa3 16be 5ab4 ddbc ef0f 33bd b9c3 90bd
00000390: 9d24 253d 3f3a cfbd 56ae 513c 923e 873b
000003a0: c3e9 803d e234 623d 5467 9dbc 77c2 413d
000003b0: c752 38bd f394 113d 9792 dd3c 7e48 b7bd
000003c0: b0f0 f8bc b18c 7cbb af07 1abe 3bec 493c
000003d0: fd3f 82bd 77a3 64bd 2ffe 9d3d 8747 8e3d
000003e0: cafd 92bd 7c7e 9e3d 85d0 53bd 3171 40bc
000003f0: 66a6 343c 5535 80ba dd8e 0bbd 1c1d c93d
-0.15649852 -0.020099048 -0.030473297 0.014763074 -0.1471988 0.026772711 0.016860625 0.079261646
0.12596896 -0.08018645 -0.007394504 0.05396719 0.027326517 0.015911564 -0.052307747 -0.09552279
0.09644464 0.013442651 -0.004307294 0.10723434 -0.1003021 0.0649871 0.035856813 0.0041044047
0.10707318 0.014502038 0.15550384 -0.12526646 -0.022508841 -0.053845365 0.013589591 0.017755164
-0.09191129 -0.0012429925 0.04648921 -0.06764388 0.10413824 0.08794308 -0.081241705 -0.09729399
0.0075886613 0.09862284 -0.039253525 0.0010881347 -0.04463263 -0.0811964 -0.0669986 0.13514149
0.018742982 -0.016791869 0.05367748 -0.037154965 -0.1896972 -0.12483274 0.074452266 0.09052021
0.101973094 -0.097776376 -0.02427349 -0.09052747 -0.019146755 0.084604405 -0.11834886 -0.02480299
0.067343384 0.106563136 0.06255977 0.07308644 -0.05489812 0.13198094 -0.087262034 -0.036353294
0.052862704 0.0987268 0.055908863 0.10956505 -0.07876002 -0.08001663 -0.09058702 -0.0442208
-0.06587296 -0.12181824 0.022357594 0.009732104 -0.069844864 -0.0632502 0.1302501 -0.0022524835
0.046642195 -0.07221436 -0.0632125 0.012635008 -0.11230639 0.03586114 0.004807681 -0.07541153
-0.0015743298 -0.0061739157 -0.07110921 0.015624593 -0.03394318 0.037381615 -0.033932157 0.02825697
-0.13667093 -0.006078593 -0.010152119 0.082131386 0.087264314 0.008457973 -0.07148683 0.020676177
-0.0063722404 -0.089291535 0.04057546 0.06179161 0.0108403135 0.084370755 -0.027958238 -0.05488942
0.17706317 0.11893484 0.020547574 -0.14234513 0.115527384 -0.093456805 0.13946542 -0.10404005
0.021071611 -0.030450929 -0.048509672 0.15154858 -0.060162164 0.078887805 0.040441662 0.08169142
0.024046952 -0.054490365 0.0046598213 0.00020822296 -0.121418454 -0.072720505 -0.015112212 -0.0019865944
0.022228833 -0.091211244 0.1724788 -0.061275434 0.12285183 0.032929357 -0.101410285 -0.08306794
-0.1346059 0.09095659 0.06723443 0.017699333 0.08818302 -0.15585999 -0.041051622 -0.15973273
-0.025052851 0.20056562 -0.17792821 0.08376741 0.031543456 0.050920527 0.010678765 0.06837359
0.009514997 0.08846801 0.07493087 -0.1068583 0.0049525704 0.025038248 -0.08016996 -0.010988823
-0.050449353 -0.18203008 -0.09511109 -0.03392689 0.034902025 -0.06357985 -0.11679493 0.055343226
-0.08216565 0.056870308 0.22880185 -0.037363265 -0.012835736 0.23581144 0.10500625 0.12967835
-0.054207552 -0.111404225 0.0072807684 0.010846472 -0.1114553 0.051876392 -0.19596468 0.010479923
-0.02727945 -0.067574464 -0.14436498 -0.08076832 0.07304379 0.060257718 -0.023303274 -0.039167
-0.038064543 0.21618225 -0.03059144 -0.15694968 0.0930242 0.021735579 -0.06895921 -0.113293625
-0.099457674 -0.00023642741 -0.1784299 0.109895214 0.035323173 -0.09241398 -0.02702271 -0.11513319
-0.14710751 -0.027063537 -0.043716367 -0.07068581 0.04031812 -0.101185314 0.012797913 0.004127332
0.062945865 0.055226214 -0.01921431 0.047304597 -0.045000818 0.03554244 0.027047439 -0.08949374
-0.030388206 -0.0038536007 -0.15041994 0.012324388 -0.06359861 -0.055819955 0.07714497 0.069472365
-0.07177313 0.07738969 -0.05171253 -0.011745737 0.011026001 -0.0009781519 -0.034071792 0.09820005

module.fc2.bias f4 [84]
00000000: 503a d9bd 2546 acbc 330e 073f 1a15 173c
00000010: 23da e8bc c2aa d43e 7e95 013d 06af aabb
00000020: 6c5b 843c 768e 903e cbf6 1b3f 7289 2d3d
00000030: 43af ccbd b635 493d d7df b8bb 6b07 303c
00000040: ef36 bb3d 93c2 fd3e 6e85 3e3e f933 9dbb
00000050: d55f fabc b368 7a3d ebce bf3e 0c72 1d3e
00000060: 839f ee3d 076c 723d ef59 6f3e de88 473e
00000070: 35ea 0b3d 90c5 3b3e cb09 69bc 7f02 8dbc
00000080: 54c2 b1bd e441 8abe 159f adbe 14c0 c7bd
00000090: 7505 6f3e fece 793e 7cdf f43c b127 b0bd
000000a0: fcc2 ce3d 670b a73d 7b7a e53e 6d01 95bd
000000b0: a045 033e 2958 633e efe6 78bd 974e 6f3c
000000c0: 25ed 4abd a973 24bd 6690 c83e 6714 803d
000000d0: e454 8d3e 0df3 473e 0161 cc3d 833f c3bd
000000e0: 0b8c fe3e d6b8 e23d 348d 693e 905a 44bd
000000f0: 4be8 d4bd 7446 fdbd d488 cd3d 8b60 89bd
00000100: 08a0 9e3c b597 3b3d e3e0 9fbd ae6e f03d
00000110: d8ca 89bc c352 1a3e 4cab 1f3d 9cd5 d13d
00000120: ef8a a2bc 6c87 5c3e 09e1 03bd 8d32 92bd
00000130: 2465 333e 371f 7e3e 8903 0c3d 0569 f23d
00000140: 5f8d 0f3e fcd8 d43c 5fb3 fc3e 55c5 a2bb
-0.10606825 -0.021029541 0.5275604 0.00922134 -0.028424328 0.41536528 0.031636707 -0.0052088527
0.016156875 0.2823369 0.6092345 0.042367406 -0.09994366 0.04912349 -0.005641918 0.010743956
0.09141337 0.4956251 0.18605587 -0.0047974554 -0.030563274 0.061135005 0.37462553 0.15375537
0.11651518 0.059185054 0.2337415 0.19485804 0.034158904 0.18337083 -0.014223526 -0.017213104
-0.08679643 -0.27003396 -0.33910432 -0.09753433 0.23341925 0.24395368 0.029891722 -0.086013205
0.10095784 0.08156472 0.44820008 -0.072756626 0.12819529 0.22201599 -0.06076711 0.01460614
-0.049542565 -0.040149365 0.39172667 0.062538914 0.2760383 0.1952631 0.099794395 -0.09533598
0.4971622 0.11070411 0.22807771 -0.04793793 -0.10395869 -0.123669535 0.100358635 -0.06707867
0.019363418 0.045798976 -0.078065656 0.117398605 -0.016820356 0.15070634 0.03898172 0.10245821
-0.01984164 0.21536034 -0.032197032 -0.07138548 0.17519051 0.24816595 0.03418306 0.11836437
0.14018773 0.025982372 0.493556 -0.0049673715

module.fc3.weight f4 [10, 84]
00000000: 4822 6abd ad6f ff3d 9adf aabe d0ba a5bc
00000010: 606a 98bd 4378 8c3b 5a6e 01be 7612 07be
00000020: 1715 5b3d 8acd 8a3d b930 95be a737 e43c
00000030: 3a58 75be e101 0e3e 3d3d 0d3e 2bc1 00be
00000040: 48cc 2d3e 48df 233e 8009 8cbe 2525 d63d
00000050: c704 743d d4ed e43d 0d2c b83c 52b7 333e
00000060: ee87 d53d 3400 d03d 621e fd3c 7e48 453e
00000070: 8975 143d 2eb1 6a3e 9108 c13d cde1 00be
00000080: 8db1 743e e254 673e 609f 0f3e 624b 53bd
00000090: 5211 513e 8956 1c3e 1b20 64bd 584a d0bc
000000a0: 21aa ae3c 4027 873e c83d 043d 1771 a0bc
000000b0: 412c 12be 3293 33be 9e14 d4bd 4f98 2c3d
000000c0: 591b 8d3d bb9b eebd 251e 1ebe 0dcf c53d
000000d0: 57a4 8d3e b080 3dbd 84a2 08be dc96 2ebc
000000e0: 304d a2be 714c 513e 836c 92be b648 163d
000000f0: 7b06 bcb9 58bb a23d ffc3 ddbb a332 ee3d
00000100: e2a5 0cbe a443 17bd a87c 3bbe ec77 00be
00000110: 3e4c a23d 1270 aa3b b9c2 07bc 905a ae3d
00000120: 899e c0bd 44d6 a7bd 3f2f d23d ad5e cb3d
00000130: c559 f0bd 189c 98be 8b72 693c 62cc 133e
00000140: 3d92 dbbd 6211 74bd c32f a83e 3d8f 8abd
00000150: e852 533e 2cca be3d 1204 d9be adfc e0bb
00000160: 2e51 a73a 7e2e 983a d7f2 723e ae96 713d
00000170: 6ec8 d13d e045 e23d 03db acbd cc70 3f3e
00000180: 6513 7e3e 711d 393d 7105 2d3e 826b 01be
00000190: c582 64be 4614 4dbe acf2 d5bd d211 063f
000001a0: 5881 193e b2fa 3d3e 313e 79be ee32 04be
000001b0: c6b5 3fbe f7ea 303e 3f39 7cbe 2255 85be
000001c0: 5b4b 603d 11a2 8abd 7d72 a63b d013 6cba
000001d0: 6ed8 d0bd 795b 493e 81dc 953e 1638 e83d
000001e0: 6396 25be 5186 dabc 43c3 d43c b1bc 973c
000001f0: 16da 83bc 69ae 5dbe c05c cfbd d51b 1b3e
00000200: 4165 8bbd e2e7 863d b2e7 0ebe ffef 703e
00000210: a001 d5bb dd9e 4a3c 65e3 41be 475f 8c3d
00000220: 6665 683c cb61 fcbd 4f98 993c 90eb a4bd
00000230: 5a9c 14be 71cf 12be 4782 76bd 2d1c f7bd
00000240: b7af b63d 29dc 743c a24b f43d e0a0 163e
00000250: 0486 953e f343 34bd 7fe1 0d3e 6f13 943c
00000260: 46ee 40be 9a74 32bd 7979 983d c96d 453c
00000270: 9f32 143e 9512 30be 21ae a93d 924a 38be
00000280: 6f5e 4bbd c140 9cbd 59db c3bd a2ea 75be
00000290: e3d1 f6bd 8220 c73d 8779 c6bc 6cc7 a73d
000002a0: 9d64 c03d 2e5c e5ba ffde 3a3e b979 33be
000002b0: 6f82 70bd 6df9 34be 118b e3bd 7d77 a13d
000002c0: 6a33 c3bd 794a cdbd 094c 813e 3de1 b73c
000002d0: c5e5 9c3b 55c1 e7bd 48df b93d d962 60be
000002e0: b4bf 543e 3afa 853e 87c8 253e 2def 17be
000002f0: 6e98 cdbd a3ee 74be 60d3 003e 928b e53d
00000300: b740 f4bb e746 01be 20ab 623e f685 d7bd
00000310: c807 04bd defe 2dbd 64bb 343c 2a6b 86bd
00000320: 574f 36bd f45f d6bd 74d1 9e3c b294 52bd
00000330: 7c91 d3bb 752e 1b3e d02d abbd e139 5cbc
00000340: faf3 6cbd 8c08 a8bc 94e7 0b3e dbf4 05be
00000350: dfbd 8e3e 37de 2dbe 2013 503d 4f48 b6bd
00000360: efd5 36bd ac3a 4dbd 7bef 1a3e c093 023e
00000370: e3aa 3e3e 5717 303d 51f3 d73d b04e 3abc
00000380: 9230 9bbb 483a 6e3e 90a0 6cbd 7024 5c3c
00000390: 678e c8bc 5c41 723e 7d6a fc3d 371c 433d
000003a0: 9df0 683d e370 363d 465e 88bc 5694 5abe
000003b0: 1c13 40be b245 d43b 28f9 3abd 9f6d 9b3e
000003c0: ac7c 06be 9e59 a93c e8bc 423b b97c a7ba
000003d0: 076f 623e 5433 6abc c4eb 58bd c66d 723e
000003e0: e106 333d cefd 8d3d 1da5 553c 55f2 663e
000003f0: 1963 19be 451d 6f3d 1100 713e ca84 1d3d
-0.0571616 0.12472472 -0.3337372 -0.02023068 -0.074421644 0.0042867973 -0.12639752 -0.13190636
0.05348691 0.06777485 -0.29138735 0.027858568 -0.23959437 0.13867904 0.13792892 -0.12573688
0.16972458 0.16003144 -0.27350998 0.104563035 0.05957487 0.111781746 0.022481943 0.175504
0.10426317 0.10156289 0.030898277 0.19265935 0.036244903 0.22919151 0.09425462 -0.12586136
0.23895855 0.22590974 0.1402564 -0.051585563 0.20416763 0.15267386 -0.05569468 -0.025426075
0.021321358 0.26397133 0.03228548 -0.019585175 -0.14274694 -0.1753662 -0.10355495 0.04213744
0.06889982 -0.11650797 -0.15441187 0.096586324 0.27664444 -0.046265304 -0.13343245 -0.010656085
-0.31699514 0.20439316 -0.28598413 0.036690436 -0.00035862983 0.07945889 -0.0067677493 0.11630752
-0.13735154 -0.03692974 -0.18309271 -0.12545747 0.07924698 0.005201348 -0.008286172 0.08513367
-0.09405238 -0.08195165 0.10262918 0.09930167 -0.11735872 -0.2980659 0.014248501 0.14433435
-0.10721252 -0.05958689 0.3284894 -0.06765602 0.20637095 0.09315905 -0.42385918 -0.006866059
0.0012765282 0.0011610535 0.23725449 0.05898159 0.10243307 0.11048484 -0.08440211 0.18695372
0.24812086 0.045194093 0.16896607 -0.12638667 -0.2231551 -0.20027265 -0.104466766 0.5237094
0.14990747 0.18552664 -0.2434013 -0.12910053 -0.18721685 0.17277132 -0.24631213 -0.26041514
0.054759365 -0.06769193 0.005079566 -0.0009005638 -0.10197531 0.196638 0.29269794 0.113388225
-0.16170649 -0.026675375 0.025972014 0.018522592 -0.016095202 -0.21648563 -0.101251125 0.15147336
-0.06806422 0.06587197 -0.13955572 0.23529051 -0.006500438 0.0123669775 -0.189344 0.0685411
0.0141843315 -0.1232334 0.018749384 -0.080527425 -0.14512768 -0.14336945 -0.060182836 -0.12065921
0.08920234 0.014945068 0.11928488 0.14709806 0.29203808 -0.044010114 0.13855551 0.018075673
-0.18840894 -0.04356823 0.07445044 0.012050101 0.14472435 -0.17194588 0.082851656 -0.17997196
-0.049650606 -0.07629538 -0.095633216 -0.24015287 -0.120517515 0.09722997 -0.02422787 0.081923336
0.093941905 -0.0017498785 0.18249129 -0.17526902 -0.05871814 -0.17673273 -0.11110509 0.07884119
-0.09531291 -0.1002397 0.25253323 0.02244627 0.004788133 -0.11316172 0.09075791 -0.21912707
0.20776254 0.2616747 0.16189776 -0.14837332 -0.10038839 -0.23919158 0.12580633 0.112082615
-0.0074540037 -0.12624703 0.22135592 -0.10523598 -0.032233983 -0.04247939 0.0110310055 -0.06563409
-0.044509258 -0.1046752 0.019386984 -0.05141134 -0.006456552 0.1515444 -0.083583474 -0.013441534
-0.05784986 -0.020511888 0.13662559 -0.13081686 0.27879235 -0.169793 0.05079949 -0.089005105
-0.044637617 -0.050104782 0.15130417 0.12751675 0.18619876 0.04299101 0.10544456 -0.0113713
-0.0047360146 0.2326442 -0.05777031 0.013436422 -0.024481965 0.23657745 0.123249985 0.04763433
0.05687009 0.04454125 -0.016646516 -0.21345648 -0.1875729 0.006478035 -0.04564777 0.30357072
-0.13133496 0.020672616 0.0029714648 -0.0012778259 0.22112666 -0.014294464 -0.05295922 0.23674688
0.043707732 0.06933175 0.013039854 0.2255338 -0.14979209 0.058377523 0.23535182 0.038456716

module.fc3.bias f4 [10]
00000000: a7ab 4abe 3fd6 3dbf 823f cc3d 16c3 b83e
00000010: 0b59 133f 56cd 78be fa6f 1b3d 2604 bfbe
00000020: 9e50 063f ed02 cfbe
-0.19792043 -0.7415504 0.09973051 0.3608634 0.57557744 -0.2429708 0.037948586 -0.37307853
0.5246676 -0.4043192
