models/classifier_net_epoch_5_6000.pth (torch_old, 249853 bytes, 10 tensors)

module.conv1.weight f4 [6, 3, 5, 5]
0.07349699 0.29811677 0.33322936 0.5419906 0.24292232 0.11688289 -0.26223564 0.07840702
0.8932687 0.12968339 0.26378414 -0.2654123 -0.95107996 0.7750765 0.2776855 0.08384878
-0.0134244 -0.8020827 0.08112167 -0.09539584 -0.15667847 -0.054829136 -0.5436337 0.12375652
-0.29425442 -0.06899474 -0.38178325 -0.6171479 -0.17703998 -0.42774543 0.40016964 -0.61019105
-0.6985668 0.38261887 -0.20446093 0.6957493 -0.28325984 -1.203555 0.6200363 0.15645787
0.53939265 0.27816024 -0.93953305 0.24352226 -0.14041138 0.5267913 0.15587418 -0.24133421
0.5202175 -0.03191188 -0.05540698 -0.021421256 -0.028939418 0.21830483 -0.20257771 0.32774916
-0.34751582 -0.24553484 0.64236706 -0.468652 0.62075406 -0.2053435 -0.8408926 0.5850553
-0.16518706 0.5563054 0.42574883 -0.6605669 0.16545577 -0.25123155 0.4134507 0.3327265
-0.18936448 0.26610708 -0.25419533 -0.16584916 0.21540718 0.18277441 0.18644834 0.011090362
-0.017172784 0.4830588 0.16904889 -0.058340836 -0.099636495 0.19517884 -0.09728607 -0.49223223
-0.40004382 -0.23667243 -0.22277555 -0.6880693 -0.54104745 -0.097972065 0.06913134 -0.108457595
0.070771374 0.2801924 0.53865623 0.34829924 -0.43106592 -0.03868869 -0.06157727 -0.06566564
-0.2060802 0.020536838 0.38523826 -0.019041752 -0.1549506 -0.27969864 0.36436895 0.023616016
-0.3954263 -0.45192164 -0.20271523 -0.07972131 -0.51142526 -0.4376935 -0.11499351 0.029008513
0.004327497 -0.12617716 0.1980487 0.37073475 0.21392033 -0.20166568 0.08341154 0.066855416
0.25531983 0.013717362 0.16013324 0.52620614 0.45504934 0.11560202 -0.08962294 0.44600016
0.2980766 -0.13036828 -0.35182166 -0.15122499 0.09199231 -0.48596558 -0.38497168 -0.1879077
0.09095534 0.007138547 -0.11287161 0.31018287 0.21129255 -0.00015599096 0.03803001 -0.06515001
-0.16377787 -0.04722008 -0.063143305 0.1374487 0.34201583 0.16337669 0.17147997 0.10166973
-0.115006484 -0.017668027 0.07355009 -0.0035588713 0.05280608 -0.40869313 -0.38829046 -0.42178866
-0.47238794 -0.36958513 -0.14531896 -0.2958595 -0.24888414 -0.2511608 -0.15257998 -0.26101738
-0.2857583 -0.1963782 -0.22265698 -0.27644542 0.2943852 0.37501097 0.44130948 0.29049256
0.26914135 0.027829241 0.041426722 0.12464733 0.13415526 0.17412332 -0.30493003 -0.4151765
-0.30284855 -0.2546383 -0.17935568 -0.06302871 -0.17128585 -0.10127942 0.031276166 0.07170514
-0.19727498 -0.008302931 -0.094205014 -0.18472463 -0.29025704 0.370518 0.3263124 0.54156506
0.5057023 0.32485458 0.15803328 0.27687073 0.2631893 0.3806959 0.24172927 0.017711662
0.114496775 0.0038144707 0.06444578 0.12342914 0.11126053 0.12343246 0.14695178 0.28490347
0.22009027 0.15644619 0.27001998 -0.24710043 -0.0021617427 -0.1497361 0.3036826 -0.21134865
-0.43045354 0.13938121 0.06482368 0.2694315 -0.34393805 -0.37390566 0.45009238 0.011550786
-0.12961699 -0.5049432 -0.06478749 0.38648206 0.120365836 -0.007939749 -0.26421496 0.14254937
0.36771372 -0.0993284 0.11399043 0.09252629 -0.27066898 0.12751262 0.0674852 0.18442228
00000000: 9785 963d c3a2 983e 0a9d aa3e e5bf 0a3f
00000010: a1c0 783e 4c60 ef3d c043 86be dc93 a03d
00000020: 42ad 643f b9cb 043e b70e 873e 1fe4 87be
00000030: fa79 73bf 6a6b 463f cb2c 8e3e e9b8 ab3d
00000040: 04f2 5bbc 4b55 4dbf 1e23 a63d e55e c3bd
00000050: 5270 20be 8494 60bd 942b 0bbf 0f74 fd3d
00000060: 84a8 96be 1d4d 8dbd 1879 c3be 68fd 1dbf
00000070: f849 35be 7301 dbbe 09e3 cc3e 7b35 1cbf
00000080: 46d5 32bf 9fe6 c33e 355e 51be a01c 323f
00000090: 6f07 91be 170e 9abf b3ba 1e3f 7e36 203e
000000a0: a315 0a3f 056b 8e3e 3d85 70bf e65d 793e
000000b0: 00c8 0fbe cbdb 063f 7b9d 1f3e 5120 77be
000000c0: f92c 053f 08b6 02bd 6ef2 62bd a17b afbc
000000d0: 5c12 edbc 4d8b 5f3e 8870 4fbe bdce a73e
000000e0: 98ed b1be 7c6d 7bbe 2b72 243f 28f3 efbe
000000f0: bde9 1e3f 9145 52be bd44 57bf 2fc6 153f
00000100: cc26 29be 086a 0e3f c0fb d93e ea1a 29bf
00000110: 3d6d 293e 6ca1 80be cfaf d33e 215b aa3e
00000120: c3e8 41be 303f 883e e425 82be 5dd4 29be
00000130: b393 5c3e 3729 3b3e 50ec 3e3e 5ab4 353c
00000140: f0ad 8cbc 7c53 f73e 271b 2d3e cdf6 6ebd
00000150: 380e ccbd f6dc 473e eb3d c7bd dd05 fcbe
00000160: 8bd2 ccbe 425a 72be 461f 64be 4f25 30bf
00000170: 1682 0abf 94a5 c8bd bb94 8d3d 041f debd
00000180: 95f0 903d 6175 8f3e 60e5 093f 4754 b23e
00000190: acb4 dcbe 0878 1ebd 7338 7cbd b57b 86bd
000001a0: b006 53be df3c a83c f33d c53e 73fd 9bbc
000001b0: 5fab 1ebe a934 8fbe 918e ba3e 6076 c13c
000001c0: 5175 cabe 4662 e7be 9594 4fbe ed44 a3bd
000001d0: c4ec 02bf 5d19 e0be b881 ebbd 43a3 ed3c
000001e0: adcd 8d3b 9634 01be 47cd 4a3e f2d0 bd3e
000001f0: ee0d 5b3e 7381 4ebe abd3 aa3d 7eeb 883d
00000200: 48b9 823e c9be 603c f8f9 233e 72b5 063f
00000210: 3afc e83e c0c0 ec3d 3b8c b7bd 225a e43e
00000220: 7f9d 983e 437f 05be f821 b4be b9da 1abe
00000230: 7766 bc3d 7bd0 f8be 021b c5be e06a 40be
00000240: cb46 ba3d 79ea e93b 3b29 e7bd 4ad0 9e3e
00000250: 135d 583e 8191 23b9 5bc5 1b3d 5e6d 85bd
00000260: 63b5 27be d869 41bd 4751 81bd 5abf 0c3e
00000270: b31c af3e 384c 273e 7298 2f3e 3838 d03d
00000280: 8588 ebbd 8abc 90bc 6ea1 963d f43b 69bb
00000290: 304b 583d 3a40 d1be 02ce c6be aff4 d7be
000002a0: d5dc f1be 433a bdbe 7ece 14be e57a 97be
000002b0: 7cdb 7ebe 2698 80be ed3d 1cbe 12a4 85be
000002c0: e94e 92be 5e17 49be 3100 64be 418a 8dbe
000002d0: a8b9 963e 7001 c03e 51f3 e13e 71bb 943e
000002e0: e5cc 893e 26fa e33c 11af 293d 1947 ff3d
000002f0: ff5f 093e 624d 323e ca1f 9cbe 0492 d4be
00000300: f70e 9bbe f45f 82be 04a9 37be 3215 81bd
00000310: 8f65 2fbe 966b cfbd 701b 003d 25da 923d
00000320: 7402 4abe 0409 08bc 8fee c0bd 7428 3dbe
00000330: 929c 94be 89b4 bd3e 6b12 a73e 02a4 0a3f
00000340: b575 013f 5753 a63e 7ad3 213e 00c2 8d3e
00000350: bfc0 863e 93ea c23e e187 773e 0c18 913c
00000360: 497d ea3d 33fc 793b 26fc 833d 6bc8 fc3d
00000370: 90dc e33d 28ca fc3d 877a 163e dede 913e
00000380: 585f 613e 6e33 203e 0f40 8a3e e507 7dbe
00000390: 06ac 0dbb 6c54 19be 497c 9b3e c86b 58be
000003a0: 6864 dcbe f3b9 0e3e 47c2 843d edf2 893e
000003b0: a618 b0be 9070 bfbe 8272 e63e 823f 3d3c
000003c0: 51ba 04be f543 01bf 4eaf 84bd fae0 c53e
000003d0: 5d82 f63d b915 02bc 2f47 87be 76f8 113e
000003e0: f944 bc3e b06c cbbd d173 e93d 6c7e bd3d
000003f0: 2095 8abe ab92 023e ae35 8a3d 32d9 3c3e

module.conv1.bias f4 [6]
-0.22341956 -0.63892645 0.0037770094 -0.20354481 -0.12652223 -0.31706214
00000000: 19c8 64be af90 23bf b487 773b 0d6e 50be
00000010: 0b8f 01be f855 a2be

module.conv2.weight f4 [16, 6, 5, 5]
0.39937356 -0.049632143 0.47111452 0.040564142 -0.07129876 0.23577 -0.10725655 0.23715962
0.32462063 -0.030153139 0.18105306 -0.087650955 0.08155161 0.31830406 -0.07950642 -0.05393313
0.041713797 0.07642012 0.17457794 0.046930924 -0.07637934 -0.14819129 -0.13861392 -0.1193936
-0.039038897 -0.08291044 0.17711276 0.15758747 0.025891023 -0.026381787 -0.2366373 -0.030790117
0.03885487 0.012990195 0.034862075 -0.29329187 -0.031665586 0.15802762 0.13511603 0.1335587
-0.32005784 -0.25875878 -0.065020055 0.06531251 0.03290562 -0.26037297 -0.09057347 -0.11622124
-0.05742322 0.014069366 -0.02509007 -0.047457922 -0.0393223 0.05428012 0.049407113 -0.27297914
-0.15517953 -0.10987515 -0.05488144 -0.095775776 -0.33059347 -0.27193022 -0.2546265 -0.1683681
-0.109088585 -0.18172635 -0.04870056 -0.00089662353 -0.090221 0.06194298 -0.18646628 -0.06814985
-0.039853696 0.04324802 -0.044468146 0.35515663 0.089056045 0.008098153 0.4183895 0.039450966
-0.013263805 0.0033403218 -0.12141243 0.18930529 0.19747251 -0.110839374 0.056309626 -0.18897067
-0.10808355 0.2650385 -0.26306537 0.07198677 -0.10124157 -0.16030821 0.067238346 -0.31717023
0.027917188 -0.09581389 -0.13558319 -0.26580536 -0.017729288 -0.08910332 -0.20359701 0.001581398
0.061388254 -0.0751261 -0.06498013 -0.12069198 -0.090318866 -0.106388845 -0.061113473 -0.051520415
0.010455674 -0.016206132 -0.05490235 -0.058414333 -0.0010764541 0.011734712 0.02507975 -0.00091464265
-0.10486808 -0.022607507 0.015638169 0.14230935 0.116348654 -0.15535842 -0.020541605 -0.18601784
-0.004702854 -0.014457289 -0.087724835 -0.06734437 -0.09687623 -0.030256843 0.029392283 0.04878166
-0.05352008 -0.2111255 -0.17953329 -0.10768203 -0.09372879 0.13841437 -0.119771555 -0.16955176
-0.19035949 0.014648502 0.062125016 0.016139446 -0.03867328 -0.14777108 -0.120181575 -0.009875689
0.04408015 -0.091865234 0.04294635 -0.11343643 0.016616475 -0.04999918 0.031740252 0.07590415
0.3762583 -0.17152622 -0.1398962 -0.0086169345 -0.0602337 0.5329672 0.6491379 0.065473944
-0.11666288 -0.20086889 -0.37561315 -0.010973097 0.3663489 0.3015903 0.16828297 -0.03521066
-0.19961065 -0.00025779314 -0.012379196 -0.022833219 0.01620461 -0.18574576 -0.24022642 -0.1492007
0.1352103 0.03182486 -0.042018473 -0.30992246 -0.14590631 0.08062083 0.16846119 0.10408284
0.021412602 -0.1093467 -0.0047319867 0.009035175 0.20865 0.17522602 0.33342597 0.20677753
0.104382776 0.11603932 0.029647488 -0.034824837 0.07486383 0.05732849 0.11061682 0.10573936
0.035317376 -0.014409073 -0.033205852 0.19948232 0.116432436 0.06547132 -0.057948813 -0.5877568
0.03748338 0.34124437 0.18853748 -0.31857625 -0.2263672 -0.2765345 0.06687448 0.20815133
0.2958539 -0.035302702 -0.18064177 -0.09205384 -0.015381556 0.12979098 0.031696945 -0.02733171
-0.015146665 0.04607749 -0.16410024 -0.058566004 0.15041505 -0.03390582 -0.104545616 -0.1787272
-0.29206318 -0.13421807 0.2052702 0.16034842 0.28517425 -0.36310008 -0.48794085 -0.34899312
-0.18754804 -0.048151355 -0.123850994 -0.0895456 -0.110662214 0.039089836 0.03760508 -0.13913192
00000000: b17a cc3e 134b 4bbd ec35 f13e 9626 263d
00000010: 1605 92bd b16d 713e 52a9 dbbd f9d9 723e
00000020: ad34 a63e b703 f7bc f965 393e 5882 b3bd
00000030: 8804 a73d c0f8 a23e 43d4 a2bd fce8 5cbd
00000040: 16dc 2a3d 2782 9c3d 8fc4 323e a43a 403d
00000050: c56c 9cbd 75bf 17be cff0 0dbe a284 f4bd
00000060: 40e7 1fbd f3cc a9bd 0c5d 353e 9c5e 213e
00000070: 6919 d43c 9e1e d8bc 0c51 72be 8e3b fcbc
00000080: 4926 1f3d d4d4 543c 89cb 0e3d 5a2a 96be
00000090: c6b3 01bd fed1 213e db5b 0a3e 9dc3 083e
000000a0: 9fde a3be 087c 84be 3c29 85bd 91c2 853d
000000b0: 0bc8 063d 9b4f 85be 957e b9bd 6705 eebd
000000c0: 9c34 6bbd 3383 663c b189 cdbc 3d63 42bd
000000d0: 6c10 21bd d554 5e3d 1d5f 4a3d ecc3 8bbe
000000e0: 62e7 1ebe 3906 e1bd 5ccb 60bd 1726 c4bd
000000f0: 8c43 a9be 703a 8bbe 685e 82be b068 2cbe
00000100: d669 dfbd 7916 3abe 3d7a 47bd 630b 6bba
00000110: cac5 b8bd ecb7 7d3d 04f1 3ebe 2692 8bbd
00000120: a13d 23bd d624 313d 3b24 36bd 17d7 b53e
00000130: 0463 b63d 1eae 043c 2637 d63e 5697 213d
00000140: 6e50 59bc 4de9 5a3b 15a7 f8bd 3fd9 413e
00000150: 3c36 4a3e c1ff e2bd eca4 663d 8781 41be
00000160: e95a ddbd 20b3 873e 81b0 86be cd6d 933d
00000170: be57 cfbd d627 24be 42b4 893d 2364 a2be
00000180: 96b2 e43c 133a c4bd 52d6 0abe a417 88be
00000190: 033d 91bc cd7b b6bd bc7b 50be e946 cf3a
000001a0: 4072 7b3d b6db 99bd 4d14 85bd 5b2d f7bd
000001b0: 19f9 b8bd 65e2 d9bd 1f52 7abd 1207 53bd
000001c0: 464e 2b3c b9c2 84bc 49e1 60bd de43 6fbd
000001d0: ce17 8dba f342 403c 0c74 cd3c a1c4 6fba
000001e0: 13c5 d6bd 6133 b9bc 9e1b 803c 8bb9 113e
000001f0: 3448 ee3d 4716 1fbe de46 a8bc 767b 3ebe
00000200: 661a 9abb 44de 6cbc 14a9 b3bd d8eb 89bd
00000210: 0b67 c6bd 33dd f7bc 16c8 f03c 47cf 473d
00000220: df37 5bbd 4831 58be 93d7 37be 6588 dcbd
00000230: e1f4 bfbd 7fbc 0d3e ca4a f5bd fa9e 2dbe
00000240: 99ed 42be 4500 703c cd76 7e3d df36 843c
00000250: e067 1ebd 4d51 17be c221 f6bd a4cd 21bc
00000260: 638d 343d d723 bcbd 83e8 2f3d 5c51 e8bd
00000270: 461f 883c f1cb 4cbd 1102 023d a373 9b3d
00000280: eea4 c03e 92a4 2fbe f340 0fbe 0b2e 0dbc
00000290: 9db7 76bd 8a70 083f e72d 263f 3417 863d
000002a0: f3ec eebd 93b0 4dbe 5e50 c0be 81c8 33bc
000002b0: 1592 bb3e 0b6a 9a3e 5f52 2c3e 0e39 10bd
000002c0: bc66 4cbe 6928 87b9 1cd2 4abc bb0c bbbc
000002d0: 88bf 843c 2334 3ebe eafd 75be 11c8 18be
000002e0: 9274 0a3e c95a 023d 901b 2cbd 28ae 9ebe
000002f0: 7768 15be 891c a53d 1781 2c3e 6229 d53d
00000300: 7b69 af3c 2af1 dfbd c80e 9bbb 4508 143c
00000310: 58a8 553e 736e 333e cfb6 aa3e 7dbd 533e
00000320: a3c6 d53d 06a6 ed3d 4adf f23c 7da4 0ebd
00000330: 3552 993d 47d1 6a3d 128b e23d e18d d83d
00000340: f4a8 103d 0814 6cbc dc02 08bd 1845 4c3e
00000350: 2174 ee3d d415 863d bc5b 6dbd 3b77 16bf
00000360: 2c88 193d 95b7 ae3e f80f 413e 6d1c a3be
00000370: cecc 67be ee95 8dbe 7df5 883d 9f25 553e
00000380: 2a7a 973e 9199 10bd 28fa 38be b986 bcbd
00000390: ec02 7cbc ede7 043e a8d4 013d c0e6 dfbc
000003a0: b829 78bc c0bb 3c3d e509 28be e8e2 6fbd
000003b0: 6706 1a3e d4e0 0abd 031c d6bd 4304 37be
000003c0: 4e89 95be 7670 09be 5a32 523e 6032 243e
000003d0: 5c02 923e 41e8 b9be 62d3 f9be 3aaf b2be
000003e0: 980c 40be 5b3a 45bd 97a5 fdbd af63 b7bd
000003f0: dfa2 e2bd aa1c 203d c907 1a3d 9978 0ebe

module.conv2.bias f4 [16]
0.23134077 -1.3442951 -0.8508692 -0.10458078 0.7412369 0.21840535 0.11151326 0.9394203
-0.190197 -0.22605422 -0.7168903 1.2630835 0.3436824 -0.5078016 0.11695403 0.57921576
00000000: 98e4 6c3e dd11 acbf 90d2 59bf 732e d6bd
00000010: b4c1 3d3f a7a5 5f3e 1061 e43d d97d 703f
00000020: 01c3 42be c27a 67be 1f86 37bf b8ac a13f
00000030: 24f7 af3e 49ff 01bf 9885 ef3d 7c47 143f

module.fc1.weight f4 [120, 400]
-0.016911974 0.007755149 -0.048573386 0.0123737585 -0.07482048 0.09104051 0.04595405 0.046761833
0.031050134 0.016863454 0.01619362 0.011794846 -0.017837264 0.0461666 0.05870798 0.042077914
-0.01985348 -0.13595816 -0.004833281 -0.015592303 0.01920162 0.003976182 -0.06492788 -0.059643693
0.05902871 0.06740378 0.0018004029 0.04643351 0.11305736 0.14802486 0.033904128 0.0061957743
0.040511705 0.08012628 0.11589164 0.20589495 0.0121950675 -0.020453371 0.03516144 0.018716281
-0.036131505 -0.038583938 -0.1808524 -0.08019999 0.0067967474 -0.20992845 -0.042639747 -0.032182686
-0.1003013 -0.013115954 0.13017106 -0.0011127813 0.015590749 -0.00018705336 -0.14612995 -0.0043994617
-0.055598 0.002031943 0.0017273145 -0.05686389 -0.0056580435 0.034248672 -0.10575119 -0.11061791
-0.07487775 0.09181784 -0.0065595913 -0.07192535 -0.08818918 -0.07049037 -0.13719578 -0.0025876274
-0.09052516 -0.036860913 -0.02414573 -0.011406348 -0.101678655 -0.029461447 -0.022108387 -0.01915661
-0.022295522 -0.08642723 -0.06668901 -0.06469997 0.07620829 -0.098292485 -0.080764875 -0.006836612
-0.027665481 0.04395182 -0.07600542 -0.0801474 0.0014887251 -0.04728787 0.052643824 0.090688705
0.05813938 0.059442077 -0.024313327 0.06531903 0.10157319 0.06518489 0.11776877 0.041747145
-0.048113197 0.04423387 0.06359148 0.13672583 0.050287407 -0.040177334 0.03847039 0.060460947
0.15564513 0.14745674 -0.09584 0.012839506 -0.033630352 0.035531424 -0.025794884 -0.04262715
0.08001688 0.008260757 0.0033504937 -0.1076848 -0.076000765 -0.029188313 -0.0324381 0.076194815
0.024617601 -0.11020413 -0.073153235 -0.006474593 0.0039039457 -0.0005204651 -0.09961178 0.04416735
0.03373652 -0.08878308 -0.07066166 -0.14762983 -0.035137914 -0.0049458183 0.033363342 -0.0018284287
-0.020076176 -0.07603046 -0.050850276 -0.019069351 -0.042000517 -0.0020123487 0.039264012 0.02958421
-0.07043388 -0.12048942 -0.053170864 0.037668046 -0.09673016 -0.025148379 -0.061421495 -0.031089462
0.013101265 -0.024850171 -0.03544421 -0.054643653 -0.026819406 -0.021170517 -0.03602117 -0.0869226
-0.043403573 -0.036238432 -0.040598266 -0.0315975 -0.03613749 0.03098542 0.09800516 0.07162657
-0.007083278 0.021272605 0.12559064 0.16036119 0.022099692 0.07096548 0.14470144 0.06512178
0.056579642 -0.035695832 0.01718518 0.010695222 -0.0060895965 0.0472494 -0.06712814 0.009682369
-0.021942327 0.010593039 0.024959432 0.024927864 -0.003713556 -0.033594992 0.026078679 -0.04964524
-0.08950035 0.0044291215 -0.1556842 -0.19582471 -0.0754899 -0.042279474 -0.029955937 -0.017318174
-0.0976471 0.0021106568 0.027283175 0.04173222 0.059523705 -0.015801337 0.0777599 -0.060146157
-0.09005037 -0.034966808 -0.03617907 0.047718965 -0.13423033 -0.02847135 -0.0863322 -0.08233814
-0.109747425 0.020288527 0.0068459576 -0.06346227 -0.054454204 -0.13314694 0.06965718 0.044113945
0.015294321 0.033188418 -0.14053804 0.09806048 0.0060614687 0.017243553 0.10895161 -0.0736367
0.14559609 0.11995144 0.037668046 0.07305425 0.042256307 0.14671032 -0.0009014035 0.123000756
0.13112952 -0.002102097 -0.037728418 -0.0345415 -0.067139 -0.13004184 -0.03747939 -0.04825884
00000000: fb8a 8abc e81e fe3b e3f4 46bd 4ebb 4a3c
00000010: 7b3b 99bd 7273 ba3d 503a 3c3d 5689 3f3d
00000020: da5c fe3c 3a25 8a3c 7ca8 843c 2b3f 413c
00000030: 741f 92bc 3019 3d3d c777 703d e459 2c3d
00000040: c4a3 a2bc 9e38 0bbe 8060 9ebb dc76 7fbc
00000050: b74c 9d3c a24a 823b e9f8 84bd f24c 74bd
00000060: 17c8 713d fe0a 8a3d 7ffb eb3a 1031 3e3d
00000070: 9e8a e73d d493 173e 0edf 0a3d ec05 cb3b
00000080: 9aef 253d 3f19 a43d 9958 ed3d 20d6 523e
00000090: d2cd 473c d48d a7bc 7105 103d e352 993c
000000a0: a1fe 13bd 310a 1ebd 5f31 39be e43f a4bd
000000b0: 40b7 de3b 7cf7 56be 04a7 2ebd fed1 03bd
000000c0: c56a cdbd 4ce4 56bc 904b 053e bfda 91ba
000000d0: 5770 7f3c c123 44b9 17a3 15be 5c29 90bb
000000e0: baba 63bd 592a 053b 0f67 e23a 1cea 68bd
000000f0: 1c67 b9bb 5648 0c3d 1494 d8bd a58b e2bd
00000100: 8159 99bd fe0a bc3d d7f1 d6bb 994d 93bd
00000110: 879c b4bd 415d 90bd 0d7d 0cbe 2f95 29bb
00000120: 4165 b9bd 78fb 16bd 44cd c5bc b1e1 3abc
00000130: e63c d0bd 2259 f1bc a61c b5bc 53ee 9cbc
00000140: 19a5 b6bc c200 b1bd 3f94 88bd 6b81 84bd
00000150: 1813 9c3d 924d c9bd 0e68 a5bd a805 e0bb
00000160: b8a2 e2bc d306 343d bba8 9bbd 5224 a4bd
00000170: 5321 c33a edb0 41bd 0da1 573d 00bb b93d
00000180: 8f23 6e3d 8979 733d be2c c7bc fcc5 853d
00000190: 9b05 d03d a87f 853d c130 f13d 0eff 2a3d
000001a0: 5812 45bd 932e 353d 403c 823d db01 0c3e
000001b0: 2bfa 4d3d fd90 24bd 2193 1d3d e6a5 773d
000001c0: 7061 1f3e e6fe 163e c347 c4bd cb5c 523c
000001d0: fbbf 09bd 6689 113d cb4f d3bc ce99 2ebd
000001e0: e4df a33d 2058 073c f593 5b3b d989 dcbd
000001f0: 4aa6 9bbd 541c efbc d0dd 04bd 070c 9c3d
00000200: daaa c93c b4b2 e1bd 5dd1 95bd d328 d4bb
00000210: 57d9 7f3b d26f 08ba 4301 ccbd d3e8 343d
00000220: 4e2f 0a3d e7d3 b5bd 0fb7 90bd 462c 17be
00000230: c6ec 0fbd 8810 a2bb 00a8 083d e3a7 efba
00000240: cb76 a4bc dcb5 9bbd 6148 50bd 5437 9cbc
00000250: bc08 2cbd 9ce1 03bb 4dd3 203d 965a f23c
00000260: a33f 90bd 28c3 f6bd b1c9 59bd cf49 1a3d
00000270: 761a c6bd f903 cebc 1b95 7bbd 54af febc
00000280: b0a6 563c 9692 cbbc f32d 11bd 06d2 5fbd
00000290: 5fb4 dbbc cb6d adbc ef8a 13bd 7a04 b2bd
000002a0: f2c7 31bd c06e 14bd 5e4a 26bd 616c 01bd
000002b0: e804 14bd 23d5 fd3c eeb6 c83d f3b0 923d
000002c0: d81a e8bb e343 ae3c d59a 003e b935 243e
000002d0: 6a0a b53c 5956 913d 9d2c 143e 915e 853d
000002e0: 0ec0 673d cb35 12bd efc7 8c3c 033b 2f3c
000002f0: 3d8b c7bb 9688 413d 7a7a 89bd cda2 1e3c
00000300: 65c0 b3bc 6d8e 2d3c b977 cc3c 8535 cc3c
00000310: 225f 73bb e79a 09bd f4a2 d53c cf58 4bbd
00000320: f64b b7bd 2a22 913b ae6b 1fbe 4686 48be
00000330: 739a 9abd 3e2d 2dbd 2766 f5bc d8de 8dbc
00000340: 34fb c7bd f252 0a3b f780 df3c 68ef 2a3d
00000350: 21cf 733d ce71 81bc 9540 9f3d d15b 76bd
00000360: 546c b8bd 5b39 0fbd 8130 14bd f674 433d
00000370: ad73 09be c03c e9bc f0ce b0bd e6a0 a8bd
00000380: 42c3 e0bd 2034 a63c 0e54 e03b 82f8 81bd
00000390: 5f0b 5fbd ac57 08be 6ca8 8e3d d3b0 343d
000003a0: 0895 7a3c 94f0 073d 34e9 0fbe efd3 c83d
000003b0: 499f c63b 5a42 8d3c 0622 df3d d7ce 96bd
000003c0: 2417 153e 1aa9 f53d cf49 1a3d 779d 953d
000003d0: f314 2d3d 3b3b 163e 2a4c 6cba d2e7 fb3d
000003e0: d146 063e 56c3 09bb 1d89 1abd 637b 0dbd
000003f0: 2c80 89bd b029 05be fd83 19bd 10ab 45bd

module.fc1.bias f4 [120]
0.18376312 -0.15386619 -0.15152077 -0.055794194 -0.21584012 -0.19189225 0.054406602 0.045658257
-0.06631066 -0.006588596 0.049546324 0.038298853 -0.13934475 -0.35364708 0.0034531252 0.26264542
0.02823958 0.11432885 0.18223158 0.052480757 0.070732325 0.02120238 -0.11958749 -0.010602062
-0.08090302 -0.072574705 -0.09281506 0.19201435 0.32424003 0.03306009 0.008119108 -0.035356775
0.038689062 -0.12571532 0.059659652 0.26099002 0.15135619 0.10611036 0.012429826 0.22724135
0.120255925 0.12140043 -0.15857016 0.15131019 0.21413009 0.3990526 -0.04047252 0.22260927
0.03297523 0.12995552 0.32002297 -0.0732306 0.08883121 0.040156603 0.1765225 0.007434687
-0.10329446 0.07823577 0.07623665 0.0703078 0.40713796 0.035559822 0.21447799 0.04426361
0.060587842 -0.030483259 -0.27295008 -0.32843372 0.050192654 0.02923788 0.17079599 -0.07387394
-0.011469252 -0.011484932 -0.07859066 -0.08735198 0.1039462 0.10250011 0.0686783 -0.033011623
-0.13694964 0.13182402 0.08089019 0.10619798 0.092214406 0.41553786 0.16533062 -0.14689149
-0.28679207 0.15631226 -0.033060197 0.21889375 0.058960397 -0.015057578 -0.15316184 0.29514942
0.088658534 0.18552426 0.14739186 -0.13318087 -0.045097023 -0.021789161 -0.020150473 -0.01841966
0.26898608 -0.29705906 -0.027967695 -0.104630455 -0.16009268 0.23144194 -0.047278382 -0.063659854
0.058960725 -0.02593477 0.030220823 0.06639283 -0.052323654 -0.014741547 0.11443351 0.2779935
00000000: 662c 3c3e 198f 1dbe 4328 1bbe 7488 64bd
00000010: 3105 5dbe 677f 44be 75d9 5e3d 2704 3b3d
00000020: e2cd 87bd 26e5 d7bb 16f1 4a3d 42df 1c3d
00000030: 64b0 0ebe 3b11 b5be d44d 623b 7679 863e
00000040: b156 e73c 3e25 ea3d ea9a 3a3e 10f6 563d
00000050: 1cdc 903d 9db0 ad3c 49ea f4bd 45b4 2dbc
00000060: 7cb0 a5bd 0ca2 94bd d215 bebd 699f 443e
00000070: ca02 a63e 046a 073d 0206 053c 44d2 10bd
00000080: 6c78 1e3d 84bb 00be ae5d 743d 7ca0 853e
00000090: 1efd 1a3e 6350 d93d 78a6 4b3c f5b1 683e
000000a0: bd48 f63d caa0 f83d 3760 22be 0ff1 1a3e
000000b0: eb44 5b3e 9f50 cc3e 83c6 25bd aff3 633e
000000c0: 0911 073d 0f13 053e 0dda a33e edf9 95bd
000000d0: 23ed b53d 407b 243d 50c2 343e ad9e f33b
000000e0: 0c8c d3bd 133a a03d f621 9c3d 89fd 8f3d
000000f0: 6374 d03e 2da7 113d 1ea0 5b3e c24d 353d
00000100: f52a 783d 07b8 f9bc 1dc0 8bbe 7728 a8be
00000110: d096 4d3d 4784 ef3c 25e5 2e3e 384b 97bd
00000120: 88e9 3bbc 4c2b 3cbc 24f4 a0bd 98e5 b2bd
00000130: bfe1 d43d 94eb d13d 35a7 8c3d 3237 07bd
00000140: 873c 0cbe e0fc 063e c2a9 a53d 547e d93d
00000150: e8da bc3d 61c1 d43e 6e4c 293e b96a 16be
00000160: 69d6 92be 5210 203e 216a 07bd af25 603e
00000170: 7580 713d 0fb4 76bc 75d6 1cbe d31d 973e
00000180: 9b92 b53d 12fa 3d3e e4ed 163e 9160 08be
00000190: a8b7 38bd 2f7f b2bc 9b12 a5bc d4e4 96bc
000001a0: 8bb8 893e 2018 98be 821c e5bc 7e48 d6bd
000001b0: 56ef 23be 1eff 6c3e faa6 41bd 1960 82bd
000001c0: cd80 713d 2875 d4bc a991 f73c f7f8 873d
000001d0: 5451 56bd 8886 71bc 1e5c ea3d 2a55 8e3e

module.fc2.weight f4 [84, 120]
-0.18274644 0.007859911 -0.046332847 0.007923952 -0.19529788 0.05152813 0.030261 0.15608709
0.16125417 -0.10669984 0.002782861 0.059748314 0.019028572 0.016824765 -0.077333316 -0.11902443
0.113195 0.031020077 0.002266027 0.07091172 -0.059643496 0.056882147 0.07949939 0.0023252333
0.13503408 -0.030067185 0.12594864 -0.16678566 -0.05007211 -0.022198314 -0.0019385346 0.018215459
-0.13198575 -0.047241762 -0.031888884 -0.12923399 0.11089666 0.06969974 -0.09228791 -0.12116446
-0.011612274 0.09947324 0.0011363752 -0.009958606 -0.05980876 -0.09225164 -0.115898624 0.13367759
0.0097507825 -0.02889703 -0.011961544 -0.061252777 -0.18602526 -0.13358586 0.06565708 0.06358529
0.122336924 -0.04071015 -0.010000392 -0.12700967 -0.06560447 0.0347425 -0.13218307 -0.088898316
0.028197102 0.047515854 0.030262295 0.023002615 -0.092085466 0.05633695 -0.108392626 -0.107176706
0.087089896 0.059338674 0.042605754 0.1635046 -0.13283874 -0.059569232 -0.11406673 -0.053849313
-0.071329355 -0.16820933 -0.058310695 -0.031355 -0.027631698 -0.07869218 0.14028761 -0.027445756
0.07017847 -0.09168707 -0.11669709 0.0038743604 -0.12839468 -0.0017679336 -0.01768597 -0.04061173
-0.042736515 0.03825975 -0.06892334 -0.0056781853 -0.05287227 0.008338956 -0.0753311 0.01162654
-0.17008768 -0.06706752 -0.055141754 0.108893216 0.08080237 -0.0348629 -0.07339727 0.026537087
0.042130113 -0.110174835 0.02104115 0.0587006 -0.036894485 0.08340251 -0.050555438 -0.02411274
0.08523337 0.14761344 0.040037923 -0.21513803 0.0711397 -0.12175122 0.16028285 -0.08353351
0.02861723 -0.01732205 -0.0959679 0.20154488 -0.0660111 0.077659376 0.01512243 0.07183574
0.0362137 -0.06434508 -0.036164995 0.012526716 -0.11868059 -0.16631964 -0.07970741 -0.0023897556
0.019685628 -0.0985909 0.15388975 -0.07227948 0.17760834 5.1531042e-05 -0.10618915 -0.1013316
-0.24044277 0.07598114 -0.0046943245 0.0033743572 0.13045354 -0.15332478 -0.029079607 -0.1930877
-0.024451487 0.20372044 -0.17060837 0.1486933 0.081406884 0.08858477 0.069051236 0.024729922
0.018169243 0.018291188 0.10659477 -0.12838234 -0.03167517 0.025247958 -0.082901925 0.056917258
-0.07636137 -0.2720062 -0.11633098 -0.061047878 0.035288118 -0.10376055 -0.15404135 0.026262052
-0.081736326 0.06491244 0.18708202 -0.03923487 0.029856252 0.21818501 0.13498509 0.084471904
-0.060705338 -0.14785464 0.0008248644 0.05299008 -0.14180909 0.029449843 -0.27737105 0.016608559
-0.050703414 -0.05484328 -0.19616254 -0.06985011 0.04558789 0.0031103385 -0.010950734 -0.044488985
-0.059888642 0.18104948 -0.016529389 -0.15956879 0.09776696 0.01684282 -0.060266312 -0.09421998
-0.13954242 0.043179154 -0.22294691 0.10905002 0.05145973 -0.1485835 -0.031882297 -0.13690962
-0.123308145 -0.012204285 -0.044756908 -0.041316014 0.021375276 -0.06990885 -0.048524167 0.026969545
0.10312702 0.07596425 -0.029532364 -0.0044633825 -0.07654916 0.03561952 0.023185566 -0.15746215
-0.033395424 0.078212485 -0.168823 -0.02747635 -0.033742756 -0.07785865 0.042625558 0.04036596
-0.12584676 0.09697094 -0.031307116 0.038751062 0.03085364 -0.02096739 -0.012094079 0.10465356
00000000: e221 3bbe dbc6 003c 83c7 3dbd 77d3 013c
00000010: 2bfc 47be 290f 533d ebe5 f73c 4bd5 1f3e
00000020: d01f 253e 7285 dabd a960 363b a6ba 743d
00000030: cfe1 9b3c 17d4 893c ee60 9ebd 15c3 f3bd
00000040: c8d2 e73d d11d fe3c a081 143b 2a3a 913d
00000050: bd4c 74bd 41fd 683d 94d0 a23d f162 183b
00000060: 6046 0a3e 754f f6bc aef8 003e dcc9 2abe
00000070: 6a18 4dbd 3dd9 b5bc 6d16 feba 9638 953c
00000080: 4627 07be 9480 41bd eb9d 02bd ea55 04be
00000090: ca1d e33d bdbe 8e3d 7201 bdbd 1325 f8bd
000000a0: 6841 3ebc a0b8 cb3d 6df2 943a 6c29 23bc
000000b0: 08fa 74bd 6eee bcbd 425c edbd c7e2 083e
000000c0: bfc1 1f3c 77b9 ecbc 5afa 43bc 31e4 7abd
000000d0: 687d 3ebe bbca 08be 3877 863d 0139 823d
000000e0: c88b fa3d b0bf 26bd afd8 23bc d30e 02be
000000f0: a35b 86bd 274e 0e3d 005b 07be 5210 b6bd
00000100: 9cfd e63c fc9f 423d a2e8 f73c fb6f bc3c
00000110: 4e97 bcbd 93c1 663d f4fc ddbd 767f dbbd
00000120: 305c b23d 1c0d 733d 5f83 2e3d c06d 273e
00000130: e106 08be defe 73bd d19b e9bd 1991 5cbd
00000140: 2015 92bd 113f 2cbe 32d7 6ebd 1a6e 00bd
00000150: df5b e2bc 5e29 a1bd 8ea7 0f3e ecd5 e0bc
00000160: bbb9 8f3d 6ec6 bbbd e2fe eebd fbe8 7d3b
00000170: e579 03be 02ba e7ba 2be2 90bc 7c58 26bd
00000180: 7c0c 2fbd 41b6 1c3d ae27 8dbd 1210 babb
00000190: 9890 58bd 1ea0 083c 3147 9abd 3e7d 3e3c
000001a0: 772b 2ebe b25a 89bd 52dc 61bd 6803 df3d
000001b0: b77b a53d 66cc 0ebd 4f51 96bd 4e64 d93c
000001c0: a090 2c3d 58a3 e1bd 7d5e ac3c 0a70 703d
000001d0: ac1e 17bd efce aa3d 3813 4fbd 1588 c5bc
000001e0: d58e ae3d fa27 173e cefe 233d 254d 5cbe
000001f0: b1b1 913d b458 f9bd 3021 243e 9e13 abbd
00000200: ae6e ea3c f9e6 8dbc d18a c4bd c861 4e3e
00000210: d430 87bd e10b 9f3d 12c4 773c 9e1e 933d
00000220: d154 143d 5ac7 83bd bf21 14bd db3c 4d3c
00000230: cf0e f3bd b24f 2abe a33d a3bd 729d 1cbb
00000240: c143 a13c 07ea c9bd 4695 1d3e 4407 94bd
00000250: f6de 353e 0923 5838 b279 d9bd f186 cfbd
00000260: a136 76be 009c 9b3d d9d2 99bb 5224 5d3b
00000270: 9d95 053e 2c01 1dbe 5b38 eebc c8b8 45be
00000280: 7c4e c8bc 179c 503e f6b3 2ebe 0e43 183e
00000290: a7b8 a63d ef6b b53d bc6a 8d3d 6896 ca3c
000002a0: aad7 943c 67d7 953c 5c4e da3d a976 03be
000002b0: d3bd 01bd ced4 ce3c 7cc8 a9bd 1222 693d
000002c0: 5a63 9cbd 6644 8bbe f03e eebd 570d 7abd
000002d0: 468a 103d 6980 d4bd 04bd 1dbe 8423 d73c
000002e0: 6065 a7bd d0f0 843d 6e92 3f3e beb4 20bd
000002f0: 1995 f43c e46b 5f3e 8839 0a3e 9bff ac3d
00000300: 29a6 78bd 3567 17be b63b 583a 200c 593d
00000310: 6736 11be cc40 f13c 9403 8ebe ac0e 883c
00000320: 62ae 4fbd 59a3 60bd d5de 48be 930d 8fbd
00000330: 5eba 3a3d d2d6 4b3b b56a 33bc 153a 36bd
00000340: cb4d 75bd 0965 393e a468 87bc 0066 23be
00000350: 0b3a c83d f4f9 893c cfd9 76bd 68f6 c0bd
00000360: 35e4 0ebe a0dc 303d 324c 64be 9e55 df3d
00000370: 70c7 523d 4626 18be 0397 02bd 0932 0cbe
00000380: fb88 fcbd 7bf4 47bc 0553 37bd fb3a 29bd
00000390: 341b af3c 5f2c 8fbd 47c1 46bd 3cef dc3c
000003a0: 4234 d33d 2593 9b3d dbed f1bc 9141 92bb
000003b0: cec5 9cbd c6e5 113d a8ef bd3c c23d 21be
000003c0: a4c9 08bd de2d a03d f0df 2cbe 1516 e1bc
000003d0: d835 0abd 5b74 9fbd 2398 2e3d c756 253d
000003e0: f9dd 00be b398 c63d e43b 00bd 6fb9 1e3d
000003f0: c6c0 fc3c cec3 abbc 3e26 46bc 9b54 d63d

module.fc2.bias f4 [84]
-0.08235026 0.008922871 0.6740888 0.0493672 -0.02651187 0.514486 0.11630172 0.059581906
0.027321765 0.33588573 0.78844136 0.07955293 -0.113470756 0.112014346 -0.010893657 0.07487297
0.09132492 0.65583426 0.29726785 0.04933085 -0.013429707 0.094157964 0.5037111 0.21879582
0.21886474 0.09674413 0.2661264 0.32909173 0.024212772 0.21344452 0.0053356355 -0.001363699
-0.08018046 -0.23671167 -0.40732077 -0.11216178 0.3183345 0.26339823 0.041078497 -0.095265135
0.113736235 0.08847513 0.5393057 -0.048062053 0.14421682 0.27052477 -0.063298695 0.03847345
-0.043535754 -0.0059885485 0.49385953 0.0608884 0.314185 0.23871686 0.12807254 -0.08687352
0.62719965 0.14735894 0.28841373 -0.016102232 -0.08355 -0.11145636 0.115449674 -0.035625666
0.059652887 0.08400479 -0.08068996 0.18355048 0.04708715 0.21315739 0.052899525 0.12102616
0.029069511 0.26802516 -0.0464456 -0.070381634 0.17114037 0.31075865 0.05749428 0.14877658
0.20013872 0.051777896 0.55671436 -0.020661473
00000000: 41a7 a8bd 3c31 123c 1591 2c3f 4335 4a3d
00000010: 6c2f d9bc 5bb5 033f 992f ee3d 280c 743d
00000020: e5d1 df3c 37f9 ab3e 4bd7 493f a6ec a23d
00000030: 5b63 e8bd c767 e53d 4f7b 32bc 0057 993d
00000040: 8f08 bb3d c1e4 273f 7e33 983e 250f 4a3d
00000050: 4608 5cbc e4d5 c03d 36f3 003f 030c 603e
00000060: 141e 603e c921 c63d b841 883e b67e a83e
00000070: dd59 c63c 3391 5a3e 8ed6 ae3b 25be b2ba
00000080: a735 a4bd 8b64 72be 598c d0be 13b5 e5bd
00000090: bdfc a23e 22dc 863e ed41 283d 5e1a c3bd
000000a0: 8bee e83d 7332 b53d f00f 0a3f b7dc 44bd
000000b0: 93ad 133e 3982 8a3e bfa2 81bd 5696 1d3d
000000c0: 8c52 32bd 963b c4bb 28db fc3e 1d66 793d
000000d0: dbdc a03e 3172 743e 7325 033e beea b1bd
000000e0: 2890 203f 43e5 163e f7aa 933e d4e8 83bc
000000f0: 431c abbd 3b43 e4bd e170 ec3d 38ec 11bd
00000100: 9656 743d b40a ac3d c740 a5bd a8f4 3b3e
00000110: 75de 403d ee45 5a3e 2cad 583d 90dc f73d
00000120: 2f23 ee3c 983a 893e be3d 3ebd 3f24 90bd
00000130: 6c3f 2f3e c21b 9f3e 1f7f 6b3d e358 183e
00000140: 2af1 4c3e 0f15 543d d584 0e3f 4042 a9bc

module.fc3.weight f4 [10, 84]
0.021868926 0.121289596 -0.30670318 0.039822448 -0.027040793 0.0036550225 -0.1966988 -0.102867216
0.057640348 0.067314155 -0.2882842 -0.0067532235 -0.25825694 0.13908958 0.17153345 -0.14412288
0.152357 0.13863397 -0.31313932 0.11188268 0.060735554 0.20589997 0.045574926 0.23308288
0.12560104 0.0955806 0.06817403 0.1330379 0.05684113 0.19922253 0.13284066 -0.13754217
0.19655482 0.2679814 0.116930984 -0.04075607 0.15869814 0.19984739 -0.033872586 -0.024529401
0.010772916 0.20558532 0.00430041 -0.054519054 -0.13280644 -0.10393771 -0.12611105 0.05655948
0.043717407 -0.16432388 -0.15712903 0.11862906 0.32322514 -0.04458075 -0.18189403 -0.010940958
-0.39676586 0.18697159 -0.342055 0.123925544 0.0024457776 0.006690303 -0.081177615 0.13479568
-0.1809816 -0.04743979 -0.14854544 -0.1570225 0.08091619 -0.007112108 0.005416068 0.14527743
-0.10646637 -0.102436155 0.18430696 0.16339031 -0.1021292 -0.3293817 0.04403783 0.20559114
-0.16833355 -0.0009219387 0.3030768 -0.040021557 0.18847252 0.10511501 -0.4101608 -0.0011755547
-0.006036282 0.011179195 0.18175252 -0.031447515 0.13345997 0.19009592 -0.08682383 0.22610947
0.17212386 0.09642955 0.18571301 -0.110939726 -0.27229825 -0.24485762 -0.14889213 0.49005708
0.20644468 0.24433456 -0.33718148 -0.17530125 -0.20222297 0.20693474 -0.20007537 -0.24286285
0.07946068 -0.042417463 0.003961019 -0.0057078935 -0.120030575 0.16395454 0.26374602 0.16217196
-0.13858575 -0.06045067 0.028294705 0.02099986 -0.0045748204 -0.17593175 -0.09226151 0.1961658
-0.06336965 0.09181042 -0.17040661 0.20690699 -0.02027386 0.002535543 -0.14540535 0.074076466
0.02464542 -0.1082923 -0.013749678 -0.09860561 -0.13982654 -0.2027902 -0.057156157 -0.1098808
0.09686273 0.054985985 0.094625205 0.17580035 0.27758962 -0.056723196 0.16661352 0.02369933
-0.117220715 -0.06453362 0.118274055 0.01931742 0.07519444 -0.20414259 0.05908134 -0.1618816
-0.07225963 -0.031967472 -0.06767022 -0.31109905 -0.13658954 0.07311442 0.0035477264 0.043792482
0.06460581 -0.0030908156 0.21625343 -0.18631339 -0.082421206 -0.15508072 -0.08929379 0.07544887
-0.111440614 -0.1498453 0.2944038 -0.043035302 0.007622186 -0.09381565 0.078462794 -0.18635371
0.23062415 0.19823776 0.17272824 -0.12485241 -0.1451163 -0.20920889 0.17014877 0.1339359
-0.0036603676 -0.11484034 0.17546865 -0.08951483 -0.058123432 -0.08348479 0.005579463 -0.08449119
-0.012744104 -0.07101462 -0.04008468 -0.047503904 0.04503698 0.13466382 -0.11869172 -0.016217066
-0.07685064 -0.024403714 0.2071333 -0.13222681 0.24368364 -0.14219566 0.04982819 -0.06934468
-0.01549748 -0.04984498 0.073710985 0.12332669 0.16816938 0.032044575 0.13107735 -0.0040875687
0.0023645367 0.19043902 0.0055055786 0.0039855447 -0.029643219 0.2733428 0.10942058 0.009839428
0.07879994 0.052219316 -0.05597976 -0.23472962 -0.18335275 -0.0044516693 -0.04354776 0.28390917
-0.13451894 0.031100048 0.022997284 -0.044814933 0.31023467 -0.05536334 -0.05609805 0.19805461
0.08636155 0.13352388 0.0155398445 0.21442577 -0.13555677 0.052263692 0.20367289 -0.0146074835
00000000: 7626 b33c ae66 f83d 3308 9dbe dd1c 233d
00000010: a784 ddbc 1a89 6f3b 696b 49be 0cac d2bd
00000020: 4918 6c3d 01dc 893d fd99 93be 254a ddbb
00000030: 413a 84be 806d 0e3e 77a6 2f3e f394 13be
00000040: 7903 1c3e 10f6 0d3e cc53 a0be bf22 e53d
00000050: d8c5 783d 71d7 523e c6ac 3a3d 47ad 6e3e
00000060: 8f9d 003e c3bf c33d d39e 8b3d 163b 083e
00000070: 3fd2 683d fe00 4c3e 6207 083e dbd7 0cbe
00000080: ab45 493e dc34 893e 8379 ef3d d6ef 26bd
00000090: c481 223e cba4 4c3e fbbd 0abd e2f1 c8bc
000000a0: e280 303c f584 523e 74ea 8c3b 5f4f 5fbd
000000b0: 69fe 07be 4bdd d4bd 4123 01be eaaa 673d
000000c0: 0611 333d 8544 28be 6fe6 20be cbf3 f23d
000000d0: c47d a53e 4e9a 36bd 6e42 3abe b441 33bc
000000e0: e524 cbbe 7b75 3f3e d521 afbe adcc fd3d
000000f0: 5749 203b 543a db3b 7340 a6bd e107 0a3e
00000100: 3e53 39be 3a50 42bd 4c1c 18be 82ca 20be
00000110: 63b7 a53d b00c e9bb 4579 b13b 9bc3 143e
00000120: 0a0b dabd 0cca d1bd f7ba 3c3e ca4f 273e
00000130: 1d29 d1bd b8a4 a8be 0361 343d 7c86 523e
00000140: a15f 2cbe 42ae 71ba e22c 9b3e a5ed 23bd
00000150: f1fe 403e 8a46 d73d 9900 d2be 1215 9aba
00000160: 01cc c5bb f128 373c 551d 3a3e 1ccf 00bd
00000170: bba9 083e 81a8 423e b1d0 b1bd 3e89 673e
00000180: 3d41 303e db7c c53d 8d2b 3e3e 5e34 e3bd
00000190: ad6a 8bbe f5bb 7abe 2e77 18be c3e8 fa3e
000001a0: 3c66 533e d732 7a3e 0da3 acbe 2c82 33be
000001b0: 8a13 4fbe b3e6 533e 8fe0 4cbe 0ab1 78be
000001c0: 48bc a23d efbd 2dbd 70cb 813b 4809 bbbb
000001d0: 97d2 f5bd b3e3 273e b809 873e 6810 263e
000001e0: 6ce9 0dbe 1f9b 77bd 4cca e73c e607 ac3c
000001f0: 60e8 95bb 7427 34be 9af3 bcbd b0df 483e
00000200: f2c7 81bd 1a07 bc3d 127f 2ebe 6ddf 533e
00000210: 5e15 a6bc 5a2b 263b 24e5 14be 67b5 973d
00000220: 31e5 c93c 5ac8 ddbd 5446 61bc bdf1 c9bd
00000230: b02e 0fbe 3ca8 4fbe 931c 6abd 2f09 e1bd
00000240: f85f c63d fc38 613d dcca c13d 0205 343e
00000250: 3a20 8e3e 9556 68bd bc9c 2a3e 1925 c23c
00000260: 6a11 f0bd 342a 84bd ab39 f23d 913f 9e3c
00000270: 8bff 993d c10a 51be 46ff 713d 4ac4 25be
00000280: dbfc 93bd 53f0 02bd af96 8abd 6048 9fbe
00000290: 21de 0bbe 03bd 953d f980 683b bf5f 333d
000002a0: 0d50 843d 488f 4abb 8a71 5d3e f0c8 3ebe
000002b0: 73cc a8bd 7bcd 1ebe aadf b6bd f084 9a3d
000002c0: fa3a e4bd 0c71 19be 18bc 963e c945 30bd
000002d0: 88c3 f93b 6b22 c0bd 1ab1 a03d 82d3 3ebe
000002e0: bd28 6c3e d7fe 4a3e acdf 303e 9fb2 ffbd
000002f0: 5e99 14be db3a 56be 7b3b 2e3e 7e26 093e
00000300: c7e2 6fbb 6a31 ebbd 0eae 333e 8d53 b7bd
00000310: d612 6ebd 13fa aabd eed3 b63b b809 adbd
00000320: a5cc 50bc 1d70 91bd d52f 24bd 7493 42bd
00000330: b278 383d 50e5 093e a514 f3bd a7d9 84bc
00000340: de63 9dbd 4cea c7bc c01a 543e 7766 07be
00000350: 3488 793e bd9b 11be a518 4c3d 9504 8ebd
00000360: 24e9 7dbc 402a 4cbd c9f5 963d b492 fc3d
00000370: 9834 2c3e 2c41 033d 2439 063e 03f1 85bb
00000380: 58f6 1a3b 7202 433e 2468 b43b 2c99 823b
00000390: 56d6 f2bc 96f3 8b3e e617 e03d 8d35 213c
000003a0: dd61 a13d ece3 553d 084b 65bd f65c 70be
000003b0: d3c0 3bbe 4fdf 91bb 235f 32bd 8b5c 913e
000003c0: 55bf 09be 87c5 fe3c cd64 bc3c dd8f 37bd
000003d0: 14d7 9e3e abc4 62bd 12c7 65bd d4ce 4a3e
000003e0: 53de b03d 7cba 083e d59a 7e3c 6e92 5b3e
000003f0: 65cf 0abe 7412 563d a08f 503e 3a54 6fbc

module.fc3.bias f4 [10]
-0.20855825 -0.8759308 -0.039861258 0.4726878 0.6791609 -0.15789875 0.0434652 -0.36575997
0.49081403 -0.3991609
00000000: 4b90 55be 003d 60bf 8f45 23bd 2304 f23e
00000010: 7ddd 2d3f 36b0 21be 9108 323d e444 bbbe
00000020: fa4b fb3e d15e ccbe
