models/classifier_net_epoch_7_4000.pth (torch_old, 249853 bytes, 10 tensors)

module.conv1.weight f4 [6, 3, 5, 5]
00000000: 2a97 7a3c 6c04 af3e d8ff d03e 30ce 0c3f
00000010: ab6e 843e bb11 903d 6d20 8fbe 10bb 163e
00000020: e32c 7b3f d24d c93d d676 763e bb1b a8be
00000030: ac5b 8ebf 0b11 5a3f e4cd 9d3e 8451 623d
00000040: c127 e93d f768 69bf 6e82 b43d 7cb7 c7bd
00000050: f197 44be ced6 b73c 12e9 1fbf 40f3 243e
00000060: ca7d 9abe 295a 02be 6d59 ddbe e3d5 2cbf
00000070: 395f 57be 31bd e6be 6e7d d83e aa0a 2dbf
00000080: a8cb 3abf b893 f03e fe67 74be aea7 433f
00000090: f6f7 b2be 91cc b5bf 651a 363f 5d56 3e3e
000000a0: 2f2e 0f3f 25cb c33e 3e11 8abf a500 833e
000000b0: 1116 1ebe 91ea ff3e 4d79 4c3e 13dd b1be
000000c0: 8ccc 0d3f 87c2 2dbd 20ac b9bd 6b3b efbc
000000d0: 2115 04bd e3a2 6c3e b151 53be 3e29 b43e
000000e0: d44e d6be adfe 8abe 1c79 3a3f f197 04bf
000000f0: c8b1 2d3f 40f0 8cbe b317 85bf 9e6a 2c3f
00000100: d1ce 26be 0e94 0d3f d6f9 083f 696e 4abf
00000110: b244 1d3e 94f1 aabe 5d8b b03e 8b6a be3e
00000120: f8c2 93be 5807 8d3e 555e bebe 3ce5 11be
00000130: 5806 883e e750 503e 1f3e 663e 07b9 b63d
00000140: aa38 54bd 226b 0b3f 3313 1c3e 2368 16be
00000150: ee59 05be c07e 823e 410e 59bd b2f6 23bf
00000160: e60d 0abf fe86 72be c1da 30be d82a 41bf
00000170: 59ce 23bf 0bf5 a7bd 8079 0d3e 0cea e8bd
00000180: e2e4 713d be6a 8f3e a246 0a3f 0408 7c3e
00000190: 17c7 dcbe 293d 47bd dab5 e3bd 3975 c4bd
000001a0: dbed 55be 39f2 a83c a789 e53e 89e5 19bd
000001b0: 7e59 7cbe 0363 a9be d0b5 e33e 83c7 913d
000001c0: 0a1f 07bf 8815 0ebf 23a9 3dbe f582 d6bc
000001d0: 3bd5 0dbf 6f66 01bf e30a 80bd 9765 f53d
000001e0: 434d fcbc 13ed 0cbe c4ad 4f3e 5680 c03e
000001f0: 28da eb3d 8560 83be 67c3 1e3d dbab 2b3c
00000200: a047 803e 566a 6b3d 6713 e33d 713f 0f3f
00000210: 85f9 e43e ab09 8b3d 90ba babd 2d78 053f
00000220: 91c7 aa3e 6a8b 81be e3ed dfbe a21e 0abe
00000230: 8242 2c3e 05b4 09bf fdc7 e8be c107 1abe
00000240: 2a09 1c3e f294 503b 4ece 00be 5d9f 9e3e
00000250: 3efd 483e 3325 d4bd 503a b0bb 1939 dabd
00000260: 784c 5cbe e4dc 40bd 935e 82bc 1a2d 1a3e
00000270: 6b07 ac3e a0d6 283e 9b46 2b3e 8a53 e73d
00000280: aa17 11be d79c 95bd f354 6bbc b86e a8bd
00000290: 09cd d93c 4924 d9be 6538 cebe 367a f2be
000002a0: f34a 02bf 5af7 c1be 9b56 16be cc09 9ebe
000002b0: dde1 91be 9da4 abbe b43b 70be 3281 aebe
000002c0: 6507 a8be 0cd8 68be b219 71be 316e 80be
000002d0: a61f 9d3e 4cfb d73e 60de 043f 3907 a73e
000002e0: e222 923e 007a 9d3b bcbd 183d 0874 f93d
000002f0: c707 f33d 2db6 2c3e eb3d 9ebe 06db cabe
00000300: fb2f 95be eee5 69be 477d 32be a2c4 29bd
00000310: 5958 14be 173f 79bd 9ad9 bd3c 35bb d73c
00000320: 6881 8abe e731 0dbd 4116 edbd 0271 56be
00000330: 99ee 97be 7a7d cb3e ba35 cc3e 30aa 203f
00000340: 053e 0a3f 400a a53e 6756 363e 7961 a33e
00000350: 1586 963e c9a3 ca3e bc95 853e da0a 8b3d
00000360: cc26 503e 3313 c53d 4cf2 293e e6ef 3f3e
00000370: d3b2 e83d 2945 213e 421d 5c3e a3e3 a53e
00000380: f187 583e a4f7 3c3e 86ab a03e 5898 40be
00000390: e72a c93c e7d6 61be af8e a73e 7018 5fbe
000003a0: e6d3 f8be a29f 453e 8be8 3fbc 19e9 c13e
000003b0: d607 d4be 04e3 dfbe 4730 093f 2ee4 8cbd
000003c0: a913 a2bd 84c5 1bbf f3cf cfbd 7cbd ec3e
000003d0: c82a 573d b563 34bd 252f 93be bd41 343e
000003e0: 3eb9 d03e 7a5a d5bd d732 303e 1278 183e
000003f0: c349 7bbe 82a4 1e3e c4b8 963d 4a8d 4d3e
0.015294829 0.3418306 0.40820193 0.5500212 0.25865683 0.07034632 -0.27954426 0.14719796
0.98115367 0.09829296 0.2406877 -0.32833657 -1.1121726 0.85182256 0.30821145 0.05525352
0.113845356 -0.9117579 0.0881394 -0.09751794 -0.19198586 0.022441294 -0.6246501 0.16108418
-0.30174094 -0.12729706 -0.4323229 -0.67513865 -0.21032418 -0.45066217 0.42283195 -0.675944
-0.72967005 0.469877 -0.23867795 0.76427734 -0.34954804 -1.4203054 0.71134025 0.18587632
0.55929846 0.38240924 -1.0786512 0.2558643 -0.15438105 0.49983647 0.19968148 -0.3473898
0.5539024 -0.042421844 -0.09066033 -0.029203137 -0.032246713 0.23109011 -0.20636632 0.35187715
-0.41857016 -0.27147427 0.7284105 -0.51794344 0.678494 -0.27527046 -1.0397857 0.67350185
-0.16289832 0.5530404 0.5350622 -0.7907472 0.15358236 -0.33387434 0.34481326 0.3719066
-0.28859687 0.27544665 -0.37181345 -0.14247602 0.2656734 0.20343362 0.22484635 0.0892201
-0.05181185 0.54460347 0.15241699 -0.14688163 -0.13022587 0.25487328 -0.05299211 -0.640483
-0.5392746 -0.23684308 -0.17270948 -0.75456 -0.63986737 -0.08201035 0.1381588 -0.11372766
0.05905617 0.28011125 0.5401403 0.24612433 -0.43120643 -0.04864231 -0.1111867 -0.09592671
-0.20891516 0.020623313 0.44831583 -0.037572417 -0.24643514 -0.33083352 0.4447465 0.07118132
-0.52781737 -0.55501604 -0.18521552 -0.026185492 -0.5540349 -0.50546926 -0.062520765 0.11982267
-0.03079856 -0.13762312 0.2028113 0.37597913 0.115162194 -0.25659576 0.03876057 0.010477985
0.25054646 0.057474457 0.11087685 0.5595618 0.44721618 0.067889534 -0.09117615 0.521365
0.33355382 -0.25301677 -0.4373618 -0.13488248 0.16822246 -0.53790313 -0.4546508 -0.1504202
0.15237871 0.003182706 -0.12578699 0.3098096 0.19627854 -0.10358658 -0.005378045 -0.10655422
-0.21513546 -0.047085658 -0.015914237 0.15056267 0.3359941 0.16488123 0.16726153 0.11295231
-0.14169183 -0.073053055 -0.014363515 -0.08224243 0.026587026 -0.42410496 -0.402774 -0.47358865
-0.50895613 -0.37884027 -0.14681475 -0.3086685 -0.28492633 -0.33524027 -0.23460275 -0.34082943
-0.32818142 -0.22738665 -0.23544958 -0.2508407 0.30688208 0.42183912 0.5190182 0.32622698
0.28542238 0.0048058033 0.03729032 0.12180334 0.11866718 0.1686637 -0.30906615 -0.39620227
-0.2913817 -0.22841617 -0.17430602 -0.04144729 -0.14486827 -0.060851183 0.02317505 0.026334384
-0.27051854 -0.03447142 -0.1157651 -0.20941547 -0.29674223 0.3974417 0.3988474 0.62759686
0.54000884 0.32234383 0.17806397 0.31910303 0.2939917 0.39578083 0.260908 0.06789179
0.203273 0.096228026 0.16596335 0.18743858 0.11362233 0.15749039 0.21495536 0.32400236
0.21145608 0.18453842 0.31380862 -0.18808115 0.02455659 -0.22054635 0.32726046 -0.21786666
-0.48599166 0.19299176 -0.011713157 0.37873152 -0.41412228 -0.43727887 0.5358929 -0.06879459
-0.07913906 -0.6084826 -0.10147085 0.46238315 0.052531034 -0.0440404 -0.28746906 0.17603202
0.4076633 -0.10417648 0.17206894 0.14889553 -0.24539857 0.15492442 0.0735946 0.20073429

module.conv1.bias f4 [6]
00000000: 8398 88be 28f4 48bf e507 503d 60fc 92be
00000010: d42d 6bbc 832b 9abe
-0.26678857 -0.7849755 0.05078878 -0.28708172 -0.014354188 -0.30111322

module.conv2.weight f4 [16, 6, 5, 5]
00000000: 79cf b43e d447 94bd 9c19 093f c4e9 b2bc
00000010: 5835 18be 15a6 5b3e 7820 2fbe 5e51 993e
00000020: e10d d13e 2fee c5bb 9a89 923e a143 acbd
00000030: 4659 293d dbde ba3e 994e a9bd abf7 52bd
00000040: 5e5e 013e aef0 e93c 9923 393e 8a7e a23d
00000050: ea19 0dbe 8900 46bd 3eef 10be ef57 dfbd
00000060: b2b3 ebbc 97ba 9cbc 9f9f 223e 5bc5 763e
00000070: 996c 243d 997f 56bd 2c5c 77be 1fe2 8ebc
00000080: 91b6 153e 26ea 543d 4c68 0e3d b8fc bebe
00000090: 8691 27bd 6126 063e ddde 053e df4b 143e
000000a0: fe84 96be 3cf2 9fbe 64a9 dbbd 1a41 a83d
000000b0: 2313 d23d 2224 82be b011 c7bd 1726 00be
000000c0: e72d 58bd 33a3 4e3d ad67 dfbd cc5e 22be
000000d0: 5883 a9bd 9f49 8d3d 7589 993d 8e26 8ebe
000000e0: 0083 7abe cb14 4dbe dcec aebd c3ee c0bd
000000f0: 04cc bfbe 80c5 98be 6a62 9bbe d34c 50be
00000100: 7f45 aabd ed63 2cbe 6c65 bcbd 8ed7 03bd
00000110: 78fe cdbd 7713 013e c164 15be 4246 a3bd
00000120: 5fa4 30bd a8cc 283d 15aa 76bd e9fa d63e
00000130: 434e b33d 3381 28bd f7d8 f83e 04d1 c6bb
00000140: 48fa 193d a75a 9e3c 246a 13be f090 493e
00000150: d49c 573e 6232 f6bd b545 c33d ce36 5dbe
00000160: c972 8cbd 370b 873e 55cd 9fbe 9b78 683d
00000170: 4c93 14be 8a9b 7ebd be35 253c 5708 9abe
00000180: ad20 30bd ff59 20be e7d4 bfbd 94d7 93be
00000190: 4a72 8dbd 621d 56bd bb34 64be 3f68 2dbd
000001a0: 45fe 0a3d bc0d 8fbd dddb aebb 0f3a c5bd
000001b0: aea0 d1bd 0f3b 1abe 072a ebbc 33a9 d3bc
000001c0: 027c 563d 2058 be3b 7f92 05bd 2638 3cbd
000001d0: 1315 01bd 4ae0 4e3d 3431 7e3d 0296 523b
000001e0: 4a1d d2bd 0fd2 c8bc e59d 253c d958 293e
000001f0: ef07 aa3d baa7 18be 4acd 40bd 0592 51be
00000200: d4a8 95bc 98f6 8a3c 42a5 d3bd 0ca0 cabd
00000210: d7dc 03be 57dc a8bc 1d8a e43d 858b 293d
00000220: 7f56 6fbd 9080 5abe bd0e e2bd 4ca6 c7bd
00000230: 0e5f e5bd 44b5 4a3e 5361 f9bd 5339 25be
00000240: b8bf 8cbe 9557 39bc 7e94 683d 3cb6 953d
00000250: 5581 0ebb 0995 f5bd dd39 1cbe 605c 6abd
00000260: 90dc 9e3d 2e61 28bd 3c89 38bd ae5b 05be
00000270: 6449 bdbc cbf5 a43a 0681 b93d 1a81 b93d
00000280: 930f cb3e dae1 42be 22f4 34be 36cd b53d
00000290: 5c8d 03bb f1f4 1f3f e948 3a3f d6a8 9dbd
000002a0: 312a 83be e9c2 52be 6be6 ccbe afcd 593c
000002b0: 3ef4 ce3e fd91 543e e78b 263e bf2c cabd
000002c0: 3919 73be 7538 66bb fd85 04bd 33ee ab3c
000002d0: f30b 45bd 697a 1cbe 3d41 76be 99dd e9bd
000002e0: b0fc 5a3e 60a8 d53d 96cb 45bd 80a5 cfbe
000002f0: d2ce 1cbe bd0c 2d3d f8a4 7b3e 3369 d23d
00000300: 5a0e e33c b7ee f9bd 077f 81bd 7b03 8abc
00000310: fd73 823e e65a 5b3e 9a54 a93e 5459 143e
00000320: fe57 b23d 2723 d43d 1785 1e3d 45f0 96bc
00000330: 4953 933d a6e9 023d 007f eb3d c452 0a3e
00000340: 347e 2e3d fbe9 5cbc dffa 92bd de1c 3e3e
00000350: cf38 6f3d c86e 0e3d d1fc 20be 4d20 19bf
00000360: c03e 0f3d cc9d c13e 1fc5 4f3e daf7 d0be
00000370: 0c25 3ebe b2d3 a7be cced c93c c2c6 603e
00000380: a2fa b33e d72f 493c b551 44be af44 46bd
00000390: 28b7 9e3d ea8a 653e 6570 8c3d 2858 2fbd
000003a0: 554b e1bd 8735 ba3d 4c6b 8dbd 108e 22be
000003b0: 4242 ac3d 7b12 d2bd 07aa 80bd e7f4 55be
000003c0: 7101 b0be 1bc0 83be c302 2e3e 85d9 1a3e
000003d0: 592a 9f3e 0c3b c0be 0359 15bf f5a9 bebe
000003e0: deec 54be a034 d4bd f5c4 50be 5e1a 1ebe
000003f0: 8764 ccbd 4fc0 c63d be7a 043e 01fa 76be
0.3531454 -0.07240263 0.535547 -0.021839984 -0.14864099 0.21450074 -0.1710223 0.2994489
0.408309 -0.0060403566 0.28620607 -0.08411337 0.041344903 0.3649815 -0.082669444 -0.051505726
0.12633654 0.028557148 0.18079986 0.07934292 -0.13779417 -0.048340354 -0.14153764 -0.10905444
-0.028772209 -0.019131942 0.15881203 0.24098723 0.04014263 -0.05236778 -0.24156255 -0.017441807
0.14620425 0.051981114 0.034767434 -0.37302184 -0.040910266 0.13100578 0.13073297 0.14482068
-0.2939834 -0.31239498 -0.10725668 0.08215542 0.10257556 -0.25418192 -0.097201705 -0.1251453
-0.05277815 0.050448608 -0.109084465 -0.15856475 -0.08277005 0.06898808 0.07496921 -0.2776379
-0.24464035 -0.20027463 -0.08541271 -0.0942054 -0.3746034 -0.2983818 -0.3034852 -0.20341806
-0.083140366 -0.16834994 -0.09199032 -0.03218799 -0.10058302 0.12605081 -0.14589216 -0.07972385
-0.043125506 0.0412108 -0.060220797 0.41988304 0.087551616 -0.04113884 0.4860303 -0.006067397
0.037592202 0.019330336 -0.14395958 0.19684196 0.21055919 -0.120213285 0.0953478 -0.21602938
-0.06857831 0.26375744 -0.31211343 0.056755643 -0.14509314 -0.062160052 0.010083614 -0.30084488
-0.042999912 -0.15659331 -0.0936678 -0.2887541 -0.069065645 -0.052274115 -0.2228574 -0.042335745
0.033933897 -0.069850415 -0.0053362683 -0.096302144 -0.10235725 -0.15061592 -0.028706564 -0.025837516
0.052364357 0.005808845 -0.032610413 -0.045951985 -0.03151424 0.050506867 0.062058643 0.0032132869
-0.10259493 -0.024514226 0.010108446 0.16537799 0.083022945 -0.14907733 -0.04707078 -0.20465858
-0.01826898 0.016963288 -0.10334255 -0.09893808 -0.12877212 -0.020612879 0.111591555 0.04139282
-0.0584321 -0.21338105 -0.11037967 -0.097485155 -0.11199771 0.1979571 -0.12176766 -0.16135149
-0.2749002 -0.011312385 0.05678224 0.07310149 -0.0021744568 -0.11991317 -0.15256448 -0.057217002
0.07756913 -0.041108303 -0.045052752 -0.13023254 -0.023106284 0.0012585459 0.090578124 0.09057827
0.3966032 -0.19031468 -0.17671254 0.088770315 -0.002007327 0.62483126 0.727675 -0.076982185
-0.25618127 -0.20582165 -0.40019545 0.013293668 0.40420717 0.20758815 0.16264306 -0.09871816
-0.2374009 -0.0035128866 -0.032354344 0.020987606 -0.0481071 -0.15281071 -0.24048324 -0.114192195
0.21385455 0.104325056 -0.048289858 -0.40555954 -0.1531327 0.042248476 0.2457465 0.102739714
0.027716804 -0.12203734 -0.06323057 -0.016847363 0.25479117 0.21421394 0.33072358 0.14487201
0.087081894 0.10358267 0.038701143 -0.018425116 0.0719362 0.031961106 0.11498833 0.13508135
0.042600825 -0.01348352 -0.07176756 0.185657 0.058403786 0.034773618 -0.15721442 -0.5981491
0.034971952 0.37815702 0.2029004 -0.40814096 -0.1856882 -0.32778698 0.024649523 0.2195082
0.35152155 0.012279472 -0.19171794 -0.048405346 0.07749778 0.22416273 0.06857375 -0.04280868
-0.110006966 0.09092241 -0.06905231 -0.15874505 0.08411075 -0.10257431 -0.0628243 -0.20894204
-0.343761 -0.25732502 0.16993241 0.1512204 0.31086996 -0.3754505 -0.58338946 -0.37239042
-0.20793483 -0.103616 -0.20387633 -0.15439746 -0.099801116 0.09704649 0.12937447 -0.24118806

module.conv2.bias f4 [16]
00000000: b3f2 693e deb5 bfbf 14eb 76bf 8c6b a2bd
00000010: 47c7 583f 0308 ab3e e65a c13d 875b 8d3f
00000020: 0be6 22be 11a1 a0be 2271 69bf a142 c13f
00000030: b4d6 be3e 1465 11bf b6af b73d c3d2 073f
0.22846489 -1.4977376 -0.9645245 -0.07930669 0.84679073 0.3340455 0.094411656 1.1043557
-0.15908067 -0.31372884 -0.9118825 1.5098459 0.3727318 -0.5679486 0.08969061 0.5305597

module.fc1.weight f4 [120, 400]
00000000: 38e1 59bd fa4f 5cbc 02dc 26bd ceb8 e33b
00000010: 0bd7 8abd dd85 c23d e1d2 a93c ae81 f23b
00000020: ec94 ae3c 38a5 e23c 63af c83c 8393 23bd
00000030: a050 70bd 9a15 943d 1892 863d 0049 533d
00000040: 0208 8cbd 4b6a 3ebe 55a7 f5bc 3ea4 113d
00000050: 429e f33c 2b8d 283c c482 6fbd bc21 9fbd
00000060: 8711 843d 48f1 df3d 4f54 aebc f337 a53d
00000070: 6201 213e 3674 f73d e9d8 643d bc8c 3d3d
00000080: 645c c43b d277 9b3d 7e54 103e 51ca 823e
00000090: 24ad 1cbc aa6d 3bbc 32db 0abd 6f02 e5bc
000000a0: 2865 15bd cf08 3bbd e8a9 4cbe 03d5 05bd
000000b0: 6245 0f3b 269a 61be 8dcb 2abd ee4a 07bc
000000c0: 68fc d8bd 5668 ea3b 70fd 473e f985 0a3d
000000d0: 3054 0fbc 28db 25bd 15e2 1abe 78e9 c9bb
000000e0: d98a 62bd 1820 f6bc 158b 9cbd b717 bcbd
000000f0: 651d 4e3b f258 793d 5bb0 afbd d707 8ebd
00000100: c619 77bd 83ce 1f3e a988 803d cbdc 56bd
00000110: 8cc6 29bd e7fe 8abd 576b 24be 6f0f 48bc
00000120: 7b47 e0bd 8496 11bd 4443 f8bc b38e 8abd
00000130: 3e4b 52be 619b 10bd 23eb 12bd db13 903c
00000140: 1e33 b4bd 2a56 0ebe 2eb6 b5bd 9717 7abd
00000150: 4697 863d 43ee bbbd fd0c aabd 1f27 9e3b
00000160: b360 ddb8 7daf 843c 67b6 03be b8df b5bd
00000170: c4a7 eb3c 751c 71bd 5a1c 5c3d 782e a13d
00000180: 67a5 d13d f27a be3d 31aa 81bc abeb 873d
00000190: b513 a53d e368 783d 5693 f93d 8e63 6e3d
000001a0: c6b5 ccbc 25de 88bb c3b5 523d a58f eb3d
000001b0: 3f3d 433d 5966 51bd 300b 5b3d 9d5f 273d
000001c0: 4c87 093e 7371 293e dadd 00be 58a7 9c3b
000001d0: ced6 3abd 552e 3abb 8c0d 8dbd 300c 58bd
000001e0: ca85 6d3d d5d2 debb 7322 18bc b594 12be
000001f0: 1f3a ffbd 23d2 0fbc 36e7 f9bc bff8 e93d
00000200: 5762 e63c edde 02be bfc2 0ebd a77f 5e3c
00000210: 058f 2c3d 26bc 8d3c a20c babd 1189 1c3d
00000220: 825f 56bc 56c6 e7bd e381 bdbd 43c1 10be
00000230: 94a2 3abd 2efd b43c 6151 e83c 525d 0bbc
00000240: 5845 053d 6cd2 32bd 4925 943c 46a0 3ebd
00000250: 28f2 8bbd 4c19 d7bb c59c ff3c eda3 3cbc
00000260: 46ab 9dbd f58b dcbd 5ad2 1dbd ef21 993d
00000270: c9b3 f4bd 52d9 38bd 1e95 55bd 5a30 2abd
00000280: 867e 5b3d 2201 bb3b 67e5 72bb dfd3 8cbd
00000290: 0a48 13bd 5164 d0bc db90 edbc fedc d8bd
000002a0: a427 f6bc 9027 0ebd f402 6abd 530b 7dbc
000002b0: 3634 44bd 2770 c13d 099c e13d 6259 003d
000002c0: 6229 35bd b841 b23b de89 0b3e 1628 0a3e
000002d0: 51b0 4ebc ffe9 ab3d d34e 023e ad92 043d
000002e0: 71fa cf3c dbad 08bd c59a bd3c 578b 9d3b
000002f0: 2431 bebb c902 973c 3b73 86bd 3141 a43c
00000300: fef2 17bd a03f 19bc aa80 77bc 0a86 c73c
00000310: 5a0e 11bc c0c5 58bd 56a3 8c3c f496 b6bd
00000320: fefe cbbd 42a3 21bc 3155 13be 911a 72be
00000330: 36d2 ccbd dcbe 9dbd 0325 a4bc ed02 843a
00000340: 8c7d a4bd e886 6d3d d976 e73c 47da e13c
00000350: f943 823d 0a7b 6dbb 737b 3a3d 6ef2 72bd
00000360: ed5b d2bd 2a15 51bc 57e1 25bd bfe7 a23c
00000370: a7f1 38be e0a6 aabd 99b9 c6bd 474d 5cbd
00000380: 85eb debd d715 913d f0e1 9c3d 328c 2dbd
00000390: dd08 13bd ad3a 02be e709 3d3d e1b3 773d
000003a0: 6831 40ba 2e0c 363d 3bb2 b3bd c179 ed3d
000003b0: 5961 82bc fad2 3d3b 588c 9e3d 52a9 92bd
000003c0: b36f 593e 2017 0f3e 655b 1d3d 7ad6 3e3d
000003d0: 35da 373d 2bc8 133e b8c1 3e3a 8344 d73d
000003e0: f4a9 ea3d 78bc 22bc b653 5abd 3235 7abd
000003f0: 2a60 a6bd a81a 0ebe e8a9 3ebd 5641 1ebd
-0.0531933 -0.013446802 -0.04073716 0.0069495207 -0.067792974 0.09498189 0.020730438 0.007400713
0.021311246 0.027666673 0.024497693 -0.0399356 -0.05867064 0.07230683 0.06570834 0.05158329
-0.06837465 -0.18595235 -0.029987017 0.035557024 0.02973855 0.010287563 -0.058474317 -0.07770106
0.064486556 0.109346926 -0.021280436 0.08067312 0.15723184 0.12082712 0.055870924 0.046276793
0.005992459 0.07591213 0.14094731 0.2554498 -0.009562764 -0.01143972 -0.033900447 -0.027955262
-0.036473423 -0.045662697 -0.19986689 -0.032673847 0.0021861424 -0.22031459 -0.041698027 -0.008257611
-0.10595018 0.007153551 0.19530272 0.033819173 -0.008748099 -0.040492207 -0.15125306 -0.006161865
-0.055308197 -0.0300446 -0.07643715 -0.09184211 0.0031450626 0.06087584 -0.08578559 -0.06935089
-0.060327314 0.15606122 0.06276066 -0.05245666 -0.041449115 -0.067869 -0.16056572 -0.012210711
-0.10951134 -0.035543934 -0.030305512 -0.06765499 -0.20536515 -0.03530443 -0.035868775 0.017587593
-0.08798812 -0.13900056 -0.08872639 -0.061057653 0.06571822 -0.09176304 -0.083032586 0.004826441
-0.00010556113 0.01619696 -0.1286255 -0.088805616 0.02876652 -0.05886503 0.053737976 0.07870191
0.10236626 0.09300794 -0.015828224 0.06636747 0.080603994 0.060646903 0.12186305 0.05820041
-0.02498902 -0.0041768723 0.051442873 0.115020074 0.04766583 -0.051122997 0.053477466 0.04086267
0.13430518 0.16547184 -0.1258463 0.004780691 -0.04561501 -0.0028408964 -0.068873495 -0.052745998
0.05798892 -0.0068000355 -0.009285557 -0.1431454 -0.124622576 -0.008778128 -0.030505758 0.11424398
0.028123064 -0.12780352 -0.034853693 0.013580239 0.04212858 0.01730163 -0.09084441 0.038216654
-0.013084294 -0.113171265 -0.092532896 -0.14136223 -0.045565203 0.022093382 0.028359117 -0.008506136
0.032536834 -0.043657705 0.018084185 -0.046539567 -0.06833297 -0.006564295 0.031202683 -0.011513692
-0.076986834 -0.10768882 -0.038530685 0.074771754 -0.11948354 -0.045129128 -0.052144162 -0.041550018
0.05358746 0.005706922 -0.0037063004 -0.06876349 -0.035957374 -0.02543846 -0.028999737 -0.10589026
-0.030048199 -0.0347057 -0.057131723 -0.015444594 -0.047901355 0.094452195 0.110160895 0.031335242
-0.04422892 0.005439963 0.13626811 0.13491854 -0.012615279 0.083942406 0.12725382 0.032366443
0.025387974 -0.033368926 0.023145089 0.0048078704 -0.005804198 0.018433945 -0.06564947 0.020050617
-0.03709697 -0.009353548 -0.0151063595 0.024355907 -0.008853519 -0.052922964 0.017167728 -0.08915511
-0.09960745 -0.009865584 -0.14387967 -0.23642947 -0.10001032 -0.07702419 -0.02003718 0.0010071673
-0.08031759 0.057989985 0.028254913 0.027569903 0.06360621 -0.0036236667 0.045527887 -0.05931323
-0.1027144 -0.012761394 -0.040498104 0.019885896 -0.18060933 -0.0833261 -0.09703369 -0.053784635
-0.108847655 0.07084244 0.07660282 -0.04237003 -0.035897125 -0.12717696 0.04615202 0.06047428
-0.0007331581 0.04444521 -0.08774229 0.11595488 -0.01591556 0.0028964863 0.07741612 -0.071612015
0.21234016 0.13973665 0.03841724 0.04659126 0.044885833 0.14431827 0.0007276791 0.105111144
0.11458197 -0.00993263 -0.05330249 -0.061085887 -0.081238106 -0.13877356 -0.046548754 -0.038636528

module.fc1.bias f4 [120]
00000000: 4aab 373e 8987 36be 081b 35be b08d 6ebd
00000010: 7f82 62be 984c 59be be5f 343d 6e2c a43c
00000020: 2129 8abd c007 d2ba 7e91 6b3d d2f0 5e3d
00000030: 9ee1 2abe 29e1 c4be c33d 1ebc afe7 953e
00000040: 7bfb 483c d1a1 023e 1a61 573e 4e9d 643d
00000050: d522 b33d 0dba 943c e4c2 07be ce06 40bc
00000060: 677d b8bd 6015 b2bd 1f1c e8bd 5915 573e
00000070: eb49 b93e a0b7 1c3c fef1 f03c ae4b d9bc
00000080: 820c c03c e5e8 00be 4881 523d c387 8c3e
00000090: a69e 213e 7f73 023e 20c2 813b 9ede 6d3e
000000a0: e26a 0d3e 47a4 033e 6ce3 4abe 5437 233e
000000b0: 20d2 5c3e f4a1 e53e 5ab8 50bd c5fd 7a3e
000000c0: 443e 3e3c 43d4 003e 93a4 be3e eab9 9ebd
000000d0: d3b0 af3d fdab 693d 61e5 383e 18f3 833c
000000e0: 0097 f4bd 475f dd3d 352b ad3d 76d8 cd3d
000000f0: e16d e63e 115e 933d ff88 7a3e c6a6 203d
00000100: d9a8 863d b3aa 1bbd eb5a 93be c008 bbbe
00000110: 6a4a fc3c b70f 213c 9290 503e 9505 d5bd
00000120: cad6 53bc 01e1 17bc 6ba2 f0bd e38e d0bd
00000130: a0bb ee3d 8436 c03d cea0 713d af90 1abd
00000140: 903f 21be 3f84 2a3e 052f b33d fdc7 0d3e
00000150: d435 b83d 196d e13e 83c7 423e 6211 40be
00000160: c5d4 99be e83c 1d3e 4e8b 99bc 5fa4 833e
00000170: b1a8 963d fabd 56bc d135 42be 341f b13e
00000180: 3f6c e53d 9f2f 403e 328b 213e 522a 2cbe
00000190: a8ea 47bd 79a6 94bc 4995 afbc 57e6 01bc
000001a0: c168 9c3e 6422 a9be 06d1 eebc 3a2e 04be
000001b0: df05 49be f8fe 7e3e 14bf 74bd c88f a0bd
000001c0: b6da 9d3d c845 29bd f944 163d b0f9 4f3d
000001d0: 48d1 40bd a755 4fbc d78a 123e 335d 9e3e
0.17936435 -0.1782514 -0.17686093 -0.058240592 -0.22120093 -0.21220624 0.04403662 0.020040717
-0.06746126 -0.0016024038 0.0575118 0.054428883 -0.16687629 -0.38453034 -0.00965828 0.29278323
0.012266989 0.1275704 0.21033135 0.05581408 0.08746878 0.018155122 -0.13257939 -0.011720372
-0.090082936 -0.08695483 -0.11333489 0.21004237 0.36189207 0.009565264 0.029412266 -0.026525345
0.023443464 -0.12588842 0.051392823 0.27447328 0.15783176 0.12739371 0.003959909 0.23229453
0.13810304 0.12855636 -0.19813317 0.15939075 0.21564531 0.44850123 -0.05095706 0.24510868
0.011611525 0.12580971 0.37234935 -0.07750304 0.085786484 0.057048786 0.18056251 0.016107127
-0.119428635 0.10809188 0.08455507 0.10051052 0.45005706 0.07195676 0.24466322 0.039221548
0.06575174 -0.03800459 -0.28780302 -0.36530113 0.030797202 0.009830407 0.20367649 -0.10401455
-0.012929628 -0.009269954 -0.11749729 -0.101835035 0.116568804 0.09385398 0.058991246 -0.037735637
-0.15746903 0.1665201 0.08749203 0.1384582 0.08994642 0.44028547 0.1902142 -0.18756631
-0.30045143 0.15355265 -0.018743183 0.25711343 0.07356394 -0.013106817 -0.18965842 0.3459412
0.11202287 0.18768166 0.15775755 -0.16813019 -0.04880777 -0.018145787 -0.02143349 -0.007928452
0.3054867 -0.3303405 -0.029152405 -0.12908259 -0.19631146 0.2490195 -0.05975254 -0.07839924
0.077077314 -0.041326314 0.03668687 0.05077523 -0.047074586 -0.012654698 0.14310776 0.3093048

module.fc2.weight f4 [84, 120]
00000000: 40f7 39be a0f3 95bd edb7 083d fde3 943d
00000010: 61fa 15be 7213 fb3d 66cb 6fbc 4369 2a3e
00000020: fd36 553e 43a0 09be 0622 293d ab19 c13c
00000030: ff43 0a3d deaa 183d 3c20 99bd 3216 ecbd
00000040: 8309 0f3e fe09 5c3d 7cb2 bd3b 8e3f 703d
00000050: 4932 b9bd 8f06 9f3d 1887 663d dda2 e539
00000060: 278f 0b3e 35b7 b4bd 3075 103e df30 32be
00000070: a651 7cbd 6c11 40bd 90c0 4ebd d0f7 393b
00000080: 12a1 c8bd d0cb b9bd 1349 e2bd 8a37 ecbd
00000090: 9a08 a23d 7397 4a3d fcb9 b0bd fc44 27be
000000a0: 46a7 bdbb 6144 1b3e 8b1d 2fbc a149 e83c
000000b0: 0823 6ebd 5bf9 20be 5c53 d6bd 8ecc c03d
000000c0: cf90 c83c 3174 3dbd 2903 21bc 2fdf 57bd
000000d0: b9ae 24be e4f3 2ebe d331 c83d 5303 a43d
000000e0: 9f7d 433e 42cf 81bc d135 8f3b 7250 1fbe
000000f0: c9cf 8cbd 3427 de3c c253 13be 44e9 acbd
00000100: 34c9 5a3d bfcf fe3c bc8d 033d bc11 b53c
00000110: d264 e1bd 0a6e 763d cb19 2abe 4c2d 20be
00000120: 387e e63d bf76 f4ba b5e7 4f3d 825f 2e3e
00000130: a78c 09be f481 9b3b c10e 04be ca05 6cbd
00000140: c78a 52bc 3974 31be 2912 07be 4d6c 72bd
00000150: 26ee 35bd b818 aebd 1e3e 1f3e 042f f5b9
00000160: 60a6 643d 177a 00bd ea6d 0bbe e218 2ebc
00000170: 1a91 bfbd 4c2f 9e3d dbd5 2e3d b134 923c
00000180: eb15 7bbd 39f5 b8bc b065 95bd b3df 41bd
00000190: 8162 11bd 01f3 72bc 0500 8bbd de50 60bd
000001a0: 4223 23be 53bc c9bd 323b 98bd b004 fb3d
000001b0: 7534 e83d 3be0 41ba 4584 d2bd d6ce a83c
000001c0: 62a6 333d de6b fcbd 316d 753d 8351 9d3d
000001d0: 5347 bbbd bb9d ad3d 8342 b5bc ab68 a4bc
000001e0: 6567 d83c 214d 1b3e d119 973d b709 81be
000001f0: 7077 ed3d 4165 e3bd 9ee5 1e3e bce6 e5bd
00000200: f00c 95bc e8b4 04bb fb66 1ebe 4c50 7c3e
00000210: 8299 ddbd 7b3f 883c 5534 503d 42ef 9b3d
00000220: 6d02 ba3a 58f8 8abc e162 d53b 451e 8c3b
00000230: cf36 a4bd 2a2e 50be 326f d2bd 0243 37bb
00000240: a617 f03c f1ea 1abe 115e 0c3e 5ac9 c1bd
00000250: 81cd 4b3e dbd8 baba 58c5 1dbe 3dee f3bd
00000260: d20a 5bbe fcfa 083e 5f8a f63b 83ea adbc
00000270: 31fc 803d b2e6 56be 9be4 663a 3704 5cbe
00000280: 0392 ddbc 8e15 353e 58ad 23be b77a 913d
00000290: c6e5 ebbc 8df8 353e 26b6 0a3e 2a99 babc
000002a0: d22d e13c fe07 6b3d ddcd c23d bd77 4fbe
000002b0: 78ee 88bd 0dc2 553c e113 5ebd a15a ab3d
000002c0: f56b a7bd c6d0 91be 6159 cbbd 14f3 8cbd
000002d0: ec08 4f3c a4e0 8bbd d8bd 18be 7858 b93d
000002e0: fd0d a1bd 50c1 853d 85b1 283e 76ad 8dbc
000002f0: 6025 bebd c458 7b3e c7e3 da3d 84d1 503d
00000300: 2afd c3bd ad58 28be abeb 9f3c 0029 5f3c
00000310: 279d 3fbe a3f0 e73c b355 8abe 9ca7 ca3c
00000320: 7691 53bd 0f60 d7bd 312d 33be a5cd 9ebb
00000330: 2ff0 b6bb 955b 283d 4156 c7bc 0e25 29bd
00000340: 3593 b0bd 9f42 7b3e eeea a6bc 6f1a 2bbe
00000350: f14e e83d 2f20 733d a5b9 8bbd 289b eebd
00000360: 84d6 02be feb1 473c 0699 43be 9ff3 d43d
00000370: 4c9c 243d 134c 35be 09d7 58bd 6c1f 2bbe
00000380: 77d6 f3bd 3dcc 6c3c af5e 73bd 70fa 29bd
00000390: b994 d23c 20c3 ebbd 4c2f e63c 7e87 683c
000003a0: 3c22 263e 5589 103e d74a 953d 082c b03c
000003b0: 655a 9bbd 1476 f83c d89b 293d 1ebe 08be
000003c0: fef5 19bd 914d e13c e001 0fbe 2fea cbbd
000003d0: 53ca 9bbd 66e7 dabd a13b f53c 0f33 6a3e
000003e0: f825 f3bd 7140 523d 6e2c cfbc 643d 853d
000003f0: 0ff6 1a3d 1162 0fbd 0ed7 c63c 11d3 093e
-0.18160725 -0.073218584 0.03337853 0.07270048 -0.14646293 0.12259568 -0.014635896 0.16641717
0.20821758 -0.13440041 0.041292213 0.02357181 0.033756252 0.037272327 -0.07476851 -0.11527671
0.13968472 0.053720467 0.0057890993 0.05865436 -0.09042794 0.07764923 0.05628118 0.00043799626
0.13628827 -0.088240065 0.14107203 -0.17401455 -0.061601304 -0.046891615 -0.05047661 0.0028376468
-0.09796347 -0.09072077 -0.11049094 -0.11534031 0.07911797 0.04946084 -0.08629224 -0.16334909
-0.005787763 0.15162803 -0.010688196 0.028355421 -0.058138877 -0.15720122 -0.10465118 0.09414016
0.024483113 -0.046253387 -0.009827414 -0.05270308 -0.16082276 -0.17085224 0.09775128 0.080084465
0.1909089 -0.015845899 0.004370429 -0.15558031 -0.068755694 0.027118303 -0.1438742 -0.084429294
0.05341454 0.03110492 0.03211759 0.022103183 -0.11005558 0.060163535 -0.16611402 -0.1564228
0.11254543 -0.0018651112 0.050758082 0.17028621 -0.13432561 0.004745716 -0.12896253 -0.05762271
-0.01285047 -0.17329492 -0.13190521 -0.059185315 -0.04441657 -0.085008085 0.1555104 -0.0004676507
0.05582273 -0.031366434 -0.13616148 -0.01062605 -0.09353848 0.07723865 0.042684417 0.01784739
-0.0613002 -0.022577869 -0.07294786 -0.047332477 -0.03549433 -0.014828444 -0.06787113 -0.05476462
-0.15931419 -0.09850373 -0.074331656 0.122567534 0.113381304 -0.00073957787 -0.10279135 0.02060644
0.043859847 -0.123252615 0.059918586 0.07681563 -0.091444634 0.0847735 -0.022126442 -0.02006944
0.02641649 0.15166141 0.07377971 -0.25202724 0.115950465 -0.11103297 0.1551728 -0.1122565
-0.018194646 -0.002024943 -0.15468971 0.24640006 -0.10820295 0.016631832 0.050831158 0.07613994
0.0014191397 -0.016964123 0.0065120314 0.0042760693 -0.080182664 -0.2033011 -0.10275115 -0.0027963524
0.029308151 -0.15128686 0.13707758 -0.09462233 0.19902612 -0.0014255302 -0.15407312 -0.11910675
-0.21390846 0.13376993 0.0075238193 -0.021229988 0.06298102 -0.20986441 0.00088078686 -0.21485983
-0.027047163 0.17684004 -0.15984094 0.07103484 -0.028796088 0.17770596 0.13546047 -0.022778112
0.02748767 0.05738067 0.095119216 -0.2026052 -0.06686109 0.013046754 -0.054218177 0.083668955
-0.08174888 -0.28479594 -0.09929157 -0.06882301 0.0126364045 -0.06829956 -0.1491617 0.09050077
-0.07863996 0.06531012 0.16473968 -0.017294627 -0.092844725 0.2454558 0.10687976 0.05098106
-0.095697716 -0.16440077 0.019521555 0.013620615 -0.18712293 0.028312987 -0.27018508 0.024738126
-0.051652394 -0.105163686 -0.17497708 -0.004846292 -0.0055828313 0.041102964 -0.024333121 -0.041295104
-0.086218275 0.24537133 -0.020375695 -0.16709302 0.11343182 0.059356865 -0.06822518 -0.116506875
-0.12777144 0.012188433 -0.19101343 0.103980295 0.04018812 -0.17704801 -0.05293945 -0.16711205
-0.1190614 0.014452991 -0.05941647 -0.0414986 0.025705682 -0.115118265 0.028098725 0.01419246
0.16223997 0.14114888 0.07289665 0.02150537 -0.07585601 0.030329742 0.04140839 -0.13353774
-0.037588112 0.027502807 -0.13965559 -0.09956776 -0.0760695 -0.10688667 0.02993566 0.2287104
-0.11872476 0.051330987 -0.02528974 0.0650585 0.037832316 -0.035005633 0.024272468 0.13459422

module.fc2.bias f4 [84]
00000000: 2605 8fbd 10e7 e93c ed00 4a3f bbb6 853d
00000010: 8bb7 80bc 96b1 113f 1cdf 1e3e ed88 0b3e
00000020: c6e3 bd3c 7a96 c23e 75a8 6d3f 8a29 e73d
00000030: 3513 f1bd 759a 1f3e cc3d f9bc 32be 153e
00000040: 5d05 c43d 1705 4a3f 8fdc ad3e 0832 863d
00000050: b10d fdbc 90d2 023e 5cec 193f cf89 8c3e
00000060: 3e0f 893e eb7a 153e de80 8c3e 95c0 bf3e
00000070: 73e9 9e3c aa8f 703e fab9 26bc aad4 fd39
00000080: 88c7 6bbd bf65 6abe 21d2 e9be 2a05 00be
00000090: 2ca2 c73e 446c 963e e770 893d b3b1 d3bd
000000a0: 5229 113e 7220 d73d ffe0 243f c780 14bd
000000b0: 2231 243e 9c9e a43e 3e37 28bd e109 b23d
000000c0: 54d7 9bbc 5d41 153d d8dc 183f c8cf 8f3d
000000d0: cb3e af3e 8fda 863e d00d 183e 32ed b9bd
000000e0: b726 403f 0b5e 253e 278a b93e 83aa 0e3c
000000f0: 17ad 81bd 3137 9fbd ffd4 f93d 785e 17bd
00000100: 1e60 df3d f61a d63d 6e7c 91bd 8b74 6c3e
00000110: a204 7b3d 123e 8e3e 2edf 9a3d 45b7 2c3e
00000120: 1cce 5d3d e2f1 a43e dace b8bd cb87 a9bd
00000130: bfa1 5b3e 4756 bd3e 83e1 873d f199 313e
00000140: a4f6 7a3e 3db8 9e3d ee50 163f 2192 24bd
-0.06983404 0.028552562 0.7890766 0.06528994 -0.01571252 0.569116 0.15514797 0.13626452
0.0231799 0.3800543 0.9283517 0.1128722 -0.117712416 0.15586264 -0.030424975 0.14623335
0.095713355 0.78914016 0.33957335 0.065525115 -0.030890318 0.12775636 0.6012628 0.2744889
0.2676944 0.1459767 0.27442068 0.37451616 0.019398427 0.23492303 -0.010176176 0.00048414367
-0.057563335 -0.22890376 -0.45668128 -0.1250197 0.38990915 0.29379475 0.067109875 -0.10336628
0.14175919 0.10504235 0.64405817 -0.036255624 0.16034368 0.3215226 -0.041068308 0.086932905
-0.019023575 0.03643929 0.5971198 0.07022053 0.34227595 0.26338622 0.14849019 -0.090784445
0.75059074 0.16149156 0.36238214 0.008707645 -0.063318424 -0.07774199 0.12198829 -0.036955327
0.10907005 0.10454361 -0.07103811 0.23091333 0.061283715 0.2778173 0.075620994 0.16866787
0.05415164 0.32215792 -0.09023829 -0.082778536 0.2144842 0.36979887 0.0663481 0.1734388
0.24508148 0.077499844 0.5871724 -0.040178422

module.fc3.weight f4 [10, 84]
00000000: 4749 e93b 7c95 ca3d 2237 9cbe 03e6 433d
00000010: 173f acbc 47a7 813c 3590 75be 9abb dabd
00000020: 1dc5 b63d aadc a43d 31e0 9abe 33c0 3f3d
00000030: 1986 95be a1ee fa3d 8a20 753e 9c4f 50be
00000040: 0905 123e 16d9 d23d 39ee a2be 1399 1a3e
00000050: 3ccf af3c f02c 323e 1db9 bc3d 864c 533e
00000060: c8ac 073e 677d f53d ea88 c03b b5e7 af3d
00000070: b093 8a3d 8bac 413e dd71 c33d c10e 12be
00000080: 5aff 3c3e d38f 923e 156e b73d f380 14bd
00000090: 8c9c 213e 3c8a 233e 27d0 fdbc 707e cfbd
000000a0: f901 16bd e23c 823e 8032 613d 9ae7 82bd
000000b0: 270a e8bd 8198 3cbe b362 16be b144 773c
000000c0: a3e8 723d 7ab4 4fbe f972 06be 23c2 033e
000000d0: 2d4f 7c3e 28bf 85bd dc58 20be bd7b 8f3c
000000e0: 7570 bebe abc6 823e c3bf cebe 22dd 093e
000000f0: 86f0 50bd 4e5d 70bc 081b eebd 361d 153e
00000100: 9eae 4dbe ba63 83bd 32e0 21be bc19 22be
00000110: c002 543d d56c 37bd 806a 58bc f202 023e
00000120: 5cd5 0fbe 00c2 e8bd a500 613e 9184 283e
00000130: 1aef ffbd def5 89be bf1d 943c a787 833e
00000140: 465e 1fbe ec3c 733c fb70 6b3e 154d 0cbd
00000150: 06cf 833e 1090 173e 9375 dbbe 08e8 cfbc
00000160: 4c3d cbbc 7592 8d3c 9e32 4d3e e021 57bd
00000170: 3660 413e 746a 683e 0f66 a6bd ed98 5f3e
00000180: 0c9d 583e b6b0 7c3d 0a14 663e ade1 4dbd
00000190: d9e8 9ebe d5d3 3abe 8cbc 10be 644b e33e
000001a0: cd1a 663e 2255 833e 6a95 a0be 7012 3fbe
000001b0: c57a 4bbe ee31 233e e58e 5fbe 3ade 85be
000001c0: 1af1 f03d 9444 2fbb dc96 773d 413c 9a3c
000001d0: 4150 09be 8dd7 313e 1b5f 953e 320c 3c3e
000001e0: 0aa0 fdbd 4b76 9fbd 0856 9a3c ec39 053d
000001f0: 4f3e 09bd a64a 10be d06b b3bd fa24 673e
00000200: f58b 303c 5bd6 de3d 330d 2abe 2ce5 5e3e
00000210: 3d1e 70bd 7976 823c 3093 09be 1e5b 9c3d
00000220: 8389 a43c cc6a 07be ed85 23bc b1f8 89bd
00000230: fce7 cdbd c06b 50be 9469 6c3c 1a39 eebd
00000240: 8053 6d3d 748a 933d 4889 203e 9ec8 623e
00000250: 4e96 913e 5aa1 42bd 7293 283e 32cd f43c
00000260: b616 f0bd 5039 dfbd 686f 233e ab62 b53c
00000270: 855b 8b3d 8043 52be 57c5 e43a d8bc 34be
00000280: 7c5f 3dbd 590a 19bd 91cc 90bd c4c8 a8be
00000290: 8199 f6bd 49fb 113e b2f0 1cbd f67a 9a3d
000002a0: 3e36 293d ffde 8e3c 625b 6a3e a367 26be
000002b0: ff57 91bd 1c0c 3cbe 838c 46bd 9327 f93d
000002c0: e2a0 22be 08a1 20be 02e1 983e b55d 4ebd
000002d0: 44d7 1e3d d75d febd d006 9c3d c68b 1cbe
000002e0: fb60 7a3e 293d 3e3e 4f9e 483e d1a0 08be
000002f0: a78e 61bd 9c87 7abe b8ce 2d3e 3d24 3b3e
00000300: bc31 913d 5a35 aebd 8c3e 733e c26f 86bd
00000310: aa13 26bd 2637 61bd e4f8 95bc 0420 1fbd
00000320: 0ae7 713c 9a04 8fbd d193 a23c afc7 50bd
00000330: d2e1 b73c 05f1 013e 8f95 07be ce63 a4bc
00000340: 5cb5 d8bd 77ba d7bc ea54 483e e81a a7bd
00000350: fb6b 933e fb88 02be ddbb 9c3d 025c 96bc
00000360: e599 d43c 0be4 f6bc d1bd a63d ac25 073e
00000370: 199c 143e e936 f43c 0a25 753d 9172 0e3d
00000380: 1577 5bbc f9e0 843e 9087 143c c73f f13c
00000390: e949 98bd bb5f 933e 91e3 173e 7fc1 81bc
000003a0: e1f9 013e b70a 723d 3e07 98bd 33d4 75be
000003b0: 45ca 27be 18a2 cabc 60d3 9fbc 74f0 793e
000003c0: a177 a2bd 402f 893d e582 1b3e 6eb7 f8bc
000003d0: 6935 c23e 6ba4 82bd 721a fbbb 44e1 5b3e
000003e0: fed4 d73d cf4f a43d bdb1 5c3d af6d 693e
000003f0: 202c babd 8dec 943d e11c 4a3e e2a1 c03c
0.007119331 0.09891793 -0.30510813 0.04782678 -0.021026177 0.015826834 -0.23980792 -0.106803134
0.08924315 0.08049901 -0.3024917 0.046814155 -0.2920387 0.12252546 0.23938194 -0.20342869
0.14259733 0.10295312 -0.31822374 0.15097456 0.021461122 0.17399955 0.09214995 0.2063466
0.13249505 0.11986809 0.0058756964 0.085891165 0.067664504 0.18913476 0.09543202 -0.1426344
0.18456784 0.28625354 0.08956543 -0.036255788 0.15782374 0.15970701 -0.030983044 -0.10131538
-0.036622975 0.25437075 0.0549798 -0.06391831 -0.113300614 -0.1841755 -0.14686088 0.015092061
0.05930389 -0.2028369 -0.13129796 0.12867026 0.24639578 -0.06530601 -0.15658897 0.017515058
-0.37195173 0.25542197 -0.40380678 0.13463262 -0.05101063 -0.014670683 -0.116262496 0.14561924
-0.20086142 -0.06415506 -0.1580818 -0.1583013 0.051760435 -0.044781525 -0.013208985 0.12696436
-0.14046234 -0.113651276 0.21972902 0.1645682 -0.12496777 -0.26945394 0.01808059 0.25689432
-0.15563306 0.014846068 0.22992317 -0.0342532 0.25743884 0.14801049 -0.4286314 -0.025379196
-0.024809502 0.01728175 0.2003884 -0.05252254 0.18884358 0.22696859 -0.08124935 0.2183568
0.21153659 0.061691962 0.22468582 -0.05026405 -0.31037024 -0.1824487 -0.14134425 0.44393456
0.22471161 0.2565089 -0.31363994 -0.18659377 -0.19871052 0.15937015 -0.21831854 -0.26146108
0.117647365 -0.0026743757 0.060446605 0.01882756 -0.1340952 0.17367382 0.29174122 0.18364027
-0.12384041 -0.077862345 0.018839851 0.03252594 -0.033506688 -0.14090976 -0.08760798 0.22572699
0.010775556 0.10880729 -0.16606598 0.2176711 -0.058622587 0.015925633 -0.13435054 0.07634567
0.020085102 -0.13224334 -0.009980661 -0.06736887 -0.10054013 -0.20353603 0.014429469 -0.11631985
0.05794096 0.07204142 0.15677369 0.22146842 0.28434986 -0.047517158 0.16462496 0.029883001
-0.11723082 -0.10899603 0.15960467 0.022141775 0.06804565 -0.20533562 0.0017453831 -0.17650163
-0.04623364 -0.037363384 -0.07070268 -0.32965672 -0.12040997 0.14256014 -0.038315482 0.07542984
0.041311495 0.017440317 0.22886422 -0.16250472 -0.07096862 -0.18363994 -0.048473846 0.12165751
-0.15881684 -0.15686429 0.29859167 -0.050382335 0.038779512 -0.12420242 0.07618487 -0.15287694
0.24451058 0.18578018 0.1959164 -0.13342597 -0.055067685 -0.24465793 0.16973388 0.18275543
0.07089564 -0.0850627 0.23754328 -0.06564285 -0.040546097 -0.054984234 -0.018307157 -0.03884889
0.014764557 -0.069832996 0.019845875 -0.050971683 0.022446547 0.12689598 -0.13240646 -0.020067122
-0.105814666 -0.02633403 0.19563642 -0.08159429 0.2879332 -0.12747566 0.076530196 -0.01835442
0.025952289 -0.030138036 0.08141673 0.13197964 0.14512672 0.02981134 0.059849776 0.034777228
-0.013395091 0.2595289 0.009065524 0.029449357 -0.07435972 0.28783974 0.14832903 -0.015839336
0.12692977 0.05909225 -0.07423256 -0.24006729 -0.16385753 -0.024735495 -0.019509971 0.24408132
-0.07932974 0.06698465 0.15186651 -0.030360904 0.37931374 -0.063790165 -0.0076630646 0.21472651
0.10538672 0.08023035 0.053880442 0.22795747 -0.090904474 0.07271681 0.19737579 0.023514692

module.fc3.bias f4 [10]
00000000: 5790 8abe 16c0 7fbf 2f65 8c3c 9a18 073f
00000010: 9416 3d3f 358f fcbd 0b52 833c 4843 b3be
00000020: 874f e63e 370c bcbe
-0.27063248 -0.99902475 0.017138092 0.52771914 0.73862576 -0.12332002 0.016030332 -0.3501227
0.4498255 -0.3672807
